model.pt (torch, 299806 bytes, 387 tensors)

tokenizer.token_embedding.weight f4 [17, 32]
-0.5300091 -1.3035159 0.443812 1.2221241 1.03955 0.960848 0.42135057 0.7452073
-1.8389071 -1.2496647 -0.24846162 0.14275667 -1.050944 0.3526948 -0.09155226 0.034142606
-0.8985914 0.10215575 -0.66273284 -0.13498653 -0.39834592 -1.7891974 1.2785153 1.3351167
-0.3066421 1.0382339 1.2761836 0.041880086 -1.2793586 -1.8431693 0.86329234 -1.7785519
-0.8080291 -0.8734976 0.9367127 -1.2318517 1.5287431 -0.2758617 -0.86249673 -0.19147119
-0.48069695 -1.4153757 0.09341655 -0.24199581 -1.0299782 -0.20341869 -0.68820256 -0.01779185
1.1983017 -0.8180211 -0.72965145 0.82558084 0.8755944 0.29595017 0.6394048 1.240573
-1.209981 -0.9481262 0.6443872 0.2187687 -1.2224071 -0.9321895 -0.38315743 1.4026597
0.4912668 1.0152209 -0.018413484 -0.84865767 1.8939321 -0.03251395 0.3190897 -0.5699707
-0.42917928 -1.0216305 -0.528503 1.6272312 -0.24107316 -2.1020906 -0.01785569 0.22405806
0.4389419 1.6108623 -0.7284011 -1.601649 0.46601745 -0.19608136 0.30626035 -1.841963
-0.43957588 1.3367156 0.36708158 1.3793951 1.1527157 0.0761982 0.055675216 -0.61625594
-1.2772114 0.49048102 -0.40984657 0.051698327 0.73290217 -0.74483025 2.289954 0.12142967
-1.3227081 1.0725006 -1.6381795 1.5207272 0.597482 0.59677196 -0.5111085 -0.26170465
-0.48174903 0.4691926 0.49509013 -0.21402487 -1.0077553 0.80510974 0.78256834 -0.81446534
-1.737093 0.4830842 0.46840885 -0.3933193 0.27911082 0.8211224 0.6327629 0.8019727
-1.0774336 -1.1581331 0.6102427 0.9207244 -0.22100602 -1.2321631 1.3270112 -0.6449902
0.65626055 -0.44434002 0.027648719 2.128279 0.006324212 0.5086976 -1.4696801 0.65439576
-0.12718502 -1.0534089 0.927875 -0.10199161 -1.0189703 1.2217895 -0.34014496 -0.39217466
-1.3434322 -0.08026947 -1.3560396 0.062433317 -0.37208256 1.4221859 -2.0952396 -1.4303806
1.048867 0.70789677 1.668555 0.57752085 -0.3462309 1.2238367 -0.029385583 1.7231393
0.13288134 0.44472313 0.4052029 0.37189156 -0.48841348 0.5249314 0.5817864 0.4738243
2.34217 0.58451813 0.45327058 -0.9715062 0.9118895 -1.1514683 -0.039013058 0.5627852
0.3076411 -0.4515677 0.4074381 0.24299385 -0.2973959 0.10497055 -1.4721259 -0.9074905
0.69332373 -1.0619013 -0.49513596 -1.353107 -0.34691617 -0.82006747 -0.20557156 -0.75337464
-0.83596265 0.16157123 0.9011326 0.00040378424 -0.20069663 0.0003587063 -0.35480675 0.08478104
0.6764611 0.94054216 -0.23684715 0.66968876 0.6386784 -0.18670534 0.87869227 1.1167719
-1.0551835 0.3104561 0.12668692 -0.49029243 -0.1084888 1.5406685 0.7665995 0.738298
-0.47303915 0.3898996 2.0513136 0.7494007 1.2193091 -1.6536237 -1.0108835 -0.83176625
0.8028772 -0.35989553 1.000817 0.0015579227 -0.8035307 -0.6077071 0.7959135 -1.1940384
0.4979299 0.2375577 -1.108928 -0.43322268 0.89921767 0.0063327574 0.21819566 -0.37426868
0.8755209 -0.52438664 -0.050173555 0.093657486 -1.3554541 0.56250775 -0.34844643 -0.8095858
00000000: adae 07bf 9cd9 a6bf 543b e33e 906e 9c3f
00000010: f90f 853f 22fa 753f 43bb d73e e8c5 3e3f
00000020: 4f61 ebbf 03f5 9fbf b96c 7ebe ce2e 123e
00000030: 5585 86bf 6a94 b43e c07f bbbd 1ed9 0b3d
00000040: 160a 66bf 0937 d13d dca8 29bf e939 0abe
00000050: fff3 cbbe 6c04 e5bf 64a6 a33f 1be5 aa3f
00000060: 3100 9dbe d9e4 843f fc59 a33f 748a 2b3d
00000070: 06c2 a3bf f9ec ebbf ba00 5d3f 97a7 e3bf
00000080: ffda 4ebf 8a9d 5fbf 67cc 6f3f 51ad 9dbf
00000090: dbad c33f bf3d 8dbe 96cc 5cbf 0611 44be
000000a0: e91d f6be 082b b5bf 2d51 bf3d c0cd 77be
000000b0: 53d6 83bf fd4c 50be 0b2e 30bf 37c0 91bc
000000c0: f361 993f d569 51bf 70ca 3abf 4459 533f
000000d0: f426 603f c886 973e 08b0 233f 19cb 9e3f
000000e0: a8e0 9abf 66b8 72bf 8ff6 243f e704 603e
000000f0: d677 9cbf f9a3 6ebf 362d c4be 5a8a b33f
00000100: 5287 fb3e c2f2 813f e0d7 96bc a141 59bf
00000110: 5e6c f23f 592d 05bd ba5f a33e 9ae9 11bf
00000120: 63bd dbbe cac4 82bf f94b 07bf 1d49 d03f
00000130: e2db 76be a788 06c0 1946 92bc 7a6f 653e
00000140: febc e03e bc30 ce3f 7f78 3abf d602 cdbf
00000150: d799 ee3e 8dc9 48be 28ce 9c3e 72c5 ebbf
00000160: 1710 e1be 7f19 ab3f 1ef2 bb3e 0590 b03f
00000170: 308c 933f cd0d 9c3d b20b 643d f3c2 1dbf
00000180: aa7b a3bf 5420 fb3e 69d7 d1be a0c1 533d
00000190: 7a9f 3b3f 32ad 3ebf 9b8e 1240 1eb0 f83d
000001a0: 804e a9bf b347 893f deaf d1bf 30a7 c23f
000001b0: 95f4 183f 0cc6 183f 02d8 02bf 27fe 85be
000001c0: cfa7 f6be 033a f03e 747c fd3e 5629 5bbe
000001d0: 20fe 80bf ac1b 4e3f 6656 483f cd80 50bf
000001e0: 1059 debf d056 f73e 49d3 ef3e 2661 c9be
000001f0: 9de7 8e3e 1435 523f c0fc 213f 154e 4d3f
00000200: 58e9 89bf b53d 94bf de38 1c3f 98b4 6b3f
00000210: 674f 62be 85b7 9dbf 81db a93f 141e 25bf
00000220: b100 283f 8980 e3be 917f e23c b935 0840
00000230: 563b cf3b 023a 023f 7a1e bcbf 7b86 273f
00000240: ca3c 02be 1ad6 86bf 3789 6d3f fae0 d0bd
00000250: 9e6d 82bf 9963 9c3f 7b27 aebe 1ecb c8be
00000260: 96f5 abbf 5264 a4bd b592 adbf 14ba 7f3d
00000270: 9b81 bebe 300a b63f 6818 06c0 b616 b7bf
00000280: 4641 863f b938 353f 3693 d53f 68d8 133f
00000290: 2d45 b1be aea6 9c3f 09ba f0bc d48f dc3f
000002a0: 0c12 083e c0b2 e33e c176 cf3e 9268 be3e
000002b0: 5511 fabe e761 063f f4ef 143f 1999 f23e
000002c0: 1de6 1540 fba2 153f 1513 e83e a1b4 78bf
000002d0: 9771 693f 5063 93bf 28cc 1fbd b112 103f
000002e0: 2283 9d3e e233 e7be ba9b d03e 61d3 783e
000002f0: 4744 98be cdfa d63d 9f6e bcbf 4c51 68bf
00000300: aa7d 313f 62ec 87bf 7682 fdbe 9c32 adbf
00000310: ff9e b1be f1ef 51bf 5a81 52be 29dd 40bf
00000320: a601 56bf ee72 253e a0b0 663f 01b3 d339
00000330: 6b83 4dbe bf10 bc39 3ba9 b5be afa1 ad3d
00000340: 8e2c 2d3f 5fc7 703f 0f88 72be b970 2b3f
00000350: 6d80 233f af2f 3fbe faf1 603f 62f2 8e3f
00000360: 4110 87bf 1af4 9e3e 37ba 013e 9c07 fbbe
00000370: 602f debd a034 c53f dd3f 443f 1901 3d3f
00000380: 3032 f2be eca0 c73e b948 0340 b9d8 3f3f
00000390: 5212 9c3f f1a9 d3bf a164 81bf a2ee 54bf
000003a0: 5c89 4d3f 3a44 b8be c51a 803f 3633 cc3a
000003b0: 30b4 4dbf b192 1bbf fdc0 4b3f 40d6 98bf
000003c0: abf0 fe3e 5342 733e 5af1 8dbf 5dcf ddbe
000003d0: 2133 663f 0583 cf3b af6e 5f3e 25a0 bfbe
000003e0: 2322 603f 343e 06bf c982 4dbd 7fcf bf3d
000003f0: 857f adbf 8200 103f 9267 b2be 0441 4fbf

tokenizer.positional_embedding.weight f4 [9, 32]
0.85199636 -0.68794787 0.036470246 0.99272686 0.008702344 1.9183667 0.051825073 -0.66160417
-0.19030547 -0.09352137 2.1005316 -1.5242299 -0.43097892 0.3884987 0.4819698 0.8092957
-0.18005253 -0.8002174 1.418668 0.72560084 0.8390691 -0.15711053 -0.15165663 0.8671761
-0.39027417 0.8578722 1.2353798 0.103219666 -0.6413045 0.22511433 0.04809797 -1.4688499
1.3736591 0.016755989 0.9690388 1.1347915 2.2492204 0.08666944 0.3674853 -0.705855
2.0019 -0.231374 -0.88440424 -0.30634078 -0.46654934 0.41653368 1.1770494 -1.3606784
-0.05881795 -1.7086009 0.24360833 -1.5151855 1.4529877 0.15482976 1.0702482 0.5124067
0.64035994 0.43255138 1.8917484 -1.2629659 0.33071032 0.58760357 2.2006958 -0.18438779
-0.17343761 1.1955348 0.29431847 -1.6833446 -0.30683407 -0.60718125 -0.86207485 1.0778668
1.07758 0.55918026 -1.3139524 -2.0404308 1.2973411 0.3520507 -1.5808793 1.4481238
0.018260892 0.3039323 -0.95384943 -0.19680256 1.2583334 -0.83578444 -0.8306258 -0.009088123
0.09670381 -0.4770499 -0.51544267 -1.0854433 -0.5560237 -0.8745028 0.58576834 -1.8377271
-0.20069253 -2.0224743 -1.5331346 -0.4295095 -0.20024699 -0.17979999 0.52081615 -1.1373801
-0.3721067 -0.4934914 -0.22873496 -1.2408395 1.9920621 -1.3036216 -1.0028237 -0.30133834
-1.2194498 -1.7539576 0.06929159 -2.6383038 1.6434155 0.23038483 -0.48540422 -1.4016173
0.34362918 0.55003303 0.54640186 -0.76176846 -0.012360324 0.19959398 -0.32543153 -0.6595152
1.2040528 0.37835705 0.47292092 -1.0120686 0.74559706 -0.68177974 -0.222645 -0.07819204
-0.10722122 0.55386347 1.0156553 0.68037647 -0.546027 -0.053164545 0.14248031 0.11659085
0.84135354 -0.6730511 0.9415659 0.25275552 0.9894165 0.7047415 -0.257759 -0.19240738
0.46096474 -0.30230656 -0.3452889 -0.006072481 1.9730477 0.32474288 1.1523169 1.4066814
-0.10569504 -0.5650665 0.7215494 -1.029611 -0.23936273 0.1209858 1.4884343 0.17045528
-0.3899302 0.53415865 -0.39340442 0.31901824 0.22336988 0.56836194 0.34285787 -1.022635
-1.610876 -0.003425107 -0.3743155 0.91201365 -0.13846067 1.4006374 -0.27515104 0.6385448
0.18356955 0.32849374 -2.7128088 -0.091130346 0.34876722 0.6165875 0.050929416 0.5571427
-0.31113526 0.57632846 0.11823109 -0.5165411 0.37144855 -1.4198351 -2.829994 -0.79312015
-0.67781186 -2.330678 -0.676038 -0.07491891 -1.713594 1.1115942 -0.13866545 1.5837289
0.7321142 -1.0622698 -1.6524179 -0.20227952 -0.5588809 1.2807897 1.8074061 -0.6190187
-0.35594884 0.01579644 0.9551469 0.1098887 -0.5123124 1.8121636 1.4708114 0.2102493
-1.6582043 1.2896438 -2.2545648 -0.2726885 -0.3963084 1.0091232 0.16123801 1.1857196
1.5291204 -0.94763535 -0.5035964 1.5929246 -1.1574099 -0.52316844 -0.29142553 1.1690011
0.08234686 1.0699646 0.9984525 -2.3450148 0.13524933 0.672014 -1.0545688 -1.6190398
-0.24564117 -2.585144 0.118994184 -0.21107855 -1.770543 -0.23602186 0.12693298 0.961962
00000000: 6f1c 5a3f 5a1d 30bf d361 153d 5923 7e3f
00000010: 4794 0e3c 0a8d f53f 8746 543d e45e 29bf
00000020: 70df 42be 2288 bfbd 1c6f 0640 f719 c3bf
00000030: 45a9 dcbe 4de9 c63e bfc4 f63e 012e 4f3f
00000040: b15f 38be 0cdb 4cbf ea96 b53f fac0 393f
00000050: 3ccd 563f 95e1 20be e04b 1bbe 41ff 5d3f
00000060: 04d2 c7be 839d 5b3f ed20 9e3f d564 d33d
00000070: 882c 24bf 5f84 663e 6102 453d 4603 bcbf
00000080: 10d4 af3f db43 893c ed12 783f d940 913f
00000090: 3af3 0f40 bf7f b13d 0927 bc3e eab2 34bf
000000a0: 211f 0040 4eed 6cbe 5168 62bf b3d8 9cbe
000000b0: 8edf eebe e743 d53e 8ea9 963f b62a aebf
000000c0: 17eb 70bd 6fb3 dabf 7674 793e 99f1 c1bf
000000d0: 80fb b93f b18b 1e3e e5fd 883f 162d 033f
000000e0: a1ee 233f 6077 dd3e d024 f23f dea8 a1bf
000000f0: dd52 a93e 306d 163f 33d8 0c40 27d0 3cbe
00000100: a199 31be 4907 993f e9b0 963e d677 d7bf
00000110: 5b19 9dbe 3b70 1bbf f0b0 5cbf 8af7 893f
00000120: 24ee 893f 7026 0f3f 982f a8bf 6b96 02c0
00000130: 460f a63f fd3f b43e 415a cabf 1f5c b93f
00000140: de97 953c 049d 9b3e 7a2f 74bf 9c86 49be
00000150: 1211 a13f f8f5 55bf e4a3 54bf 5ae6 14bc
00000160: a60c c63d e23f f4be 0df4 03bf ceef 8abf
00000170: 9257 0ebf 6adf 5fbf eaf4 153f a43a ebbf
00000180: 5882 4dbe 3870 01c0 c13d c4bf abe8 dbbe
00000190: 8c0d 4dbe 7d1d 38be 3554 053f ac95 91bf
000001a0: c584 bebe e8aa fcbe 7f39 6abe d4d3 9ebf
000001b0: e4fb fe3f 13dd a6bf 875c 80bf 0549 9abe
000001c0: ee16 9cbf af81 e0bf c0e8 8d3d f8d9 28c0
000001d0: 705b d23f 00ea 6b3e e786 f8be 3268 b3bf
000001e0: 2af0 af3e f7ce 0c3f fee0 0b3f 4203 43bf
000001f0: f582 4abc 5d62 4c3e f69e a6be fdd5 28bf
00000200: 671e 9a3f 04b8 c13e b122 f23e 778b 81bf
00000210: 73df 3e3f 1e89 2ebf 0dfd 63be 2623 a0bd
00000220: cd96 dbbd ffc9 0d3f fe00 823f 272d 2e3f
00000230: 6dc8 0bbf 11c3 59bd 5ce6 113e 2fc7 ee3d
00000240: f262 573f 144d 2cbf 760a 713f 2c69 813e
00000250: 664a 7d3f f069 343f fdf8 83be 7106 45be
00000260: 9203 ec3e edc7 9abe b5c9 b0be aafb c6bb
00000270: d48c fc3f b344 a63e 1f7f 933f 230e b43f
00000280: a476 d8bd 33a8 10bf 76b7 383f 4bca 83bf
00000290: 811b 75be 67c7 f73d 0485 be3f d48b 2e3e
000002a0: eea4 c7be 9fbe 083f 4e6c c9be 5c56 a33e
000002b0: 13bb 643e 2b80 113f 118b af3e b4e5 82bf
000002c0: 2f31 cebf c377 60bb 48a6 bfbe ba79 693f
000002d0: a2c8 0dbe 1648 b33f 99e0 8cbe ac77 233f
000002e0: a8f9 3b3e 5530 a83e a99e 2dc0 8ca2 babd
000002f0: 9e91 b23e aed8 1d3f 5d9b 503d e7a0 0e3f
00000300: 1f4d 9fbe 438a 133f 2423 f23d 0a3c 04bf
00000310: 812e be3e 28bd b5bf 9f1e 35c0 ec09 4bbf
00000320: 1485 2dbf d429 15c0 d410 2dbf 166f 99bd
00000330: 0c57 dbbf b848 8e3f 51fe 0dbe a1b7 ca3f
00000340: d66b 3b3f 75f8 87bf 6e82 d3bf 5d22 4fbe
00000350: d212 0fbf ebf0 a33f 1559 e73f 0278 1ebf
00000360: ed3e b6be 8967 813c 8284 743f 540d e13d
00000370: e826 03bf faf4 e73f 8c43 bc3f 984b 573e
00000380: 0a40 d4bf 0c13 a53f ca4a 10c0 d49d 8bbe
00000390: efe8 cabe f32a 813f 941b 253e a9c5 973f
000003a0: 38ba c33f 3b98 72bf b2eb 00bf f4e4 cb3f
000003b0: 0226 94bf 5eee 05bf ba35 95be d4a1 953f
000003c0: 78a5 a83d 9af4 883f 959a 7f3f b914 16c0
000003d0: cd7e 0a3e 1c09 2c3f 1cfc 86bf b23c cfbf
000003e0: 5c89 7bbe 0073 25c0 39b3 f33d fa24 58be
000003f0: 27a1 e2bf b7af 71be b8fa 013e 2443 763f

encoder_layer_mhattentions.0.attention_heads.0.Q.weight f4 [8, 8]
0.015531063 0.20929316 -0.13814552 0.316497 -0.046981126 0.22771391 -0.30200842 -0.21536049
0.09018451 -0.11713326 -0.22541049 -0.124992624 -0.007909775 -0.113636285 -0.09167543 0.0900068
0.12943399 0.22022012 0.3214313 0.17772391 0.06363872 -0.20119628 0.11617762 -0.17037272
-0.17617449 0.1982598 0.1006265 -0.030499399 0.21374318 -0.003119111 -0.18716146 0.17085639
0.14995548 -0.24072042 -0.35347602 -0.16361372 -0.09035036 -0.23750833 0.26958165 0.18587175
-0.065347165 -0.027178735 -0.10133776 -0.20057753 -0.027862906 0.06832209 -0.07156205 0.22604659
0.33937415 -0.19499087 -0.01986131 -0.24944744 -0.20280904 0.027705073 -0.255811 -0.3066953
-0.11739761 -0.020983607 -0.17566772 0.23844633 -0.3332931 -0.013960928 -0.11202113 -0.34529302
00000000: 0076 7e3c f250 563e 0576 0dbe e50b a23e
00000010: 486f 40bd d62d 693e d9a0 9abe 7687 5cbe
00000020: a8b2 b83d 90e3 efbd 02d2 66be 22fc ffbd
00000030: 0098 01bc 24ba e8bd 54c0 bbbd 7c55 b83d
00000040: 588a 043e 6281 613e a592 a43e 42fd 353e
00000050: 0455 823d 6606 4ebe 88ee ed3d 3076 2ebe
00000060: 1667 34be 9e04 4b3e 4415 ce3d e0d9 f9bc
00000070: 7edf 5a3e 006a 4cbb 41a7 3fbe faf4 2e3e
00000080: ee8d 193e 6a7f 76be cffa b4be 5b8a 27be
00000090: 9c09 b9bd 6235 73be 9b06 8a3e 2a55 3e3e
000000a0: bcd4 85bd f0a5 debc 2c8a cfbd 3264 4dbe
000000b0: c040 e4bc 74ec 8b3d 208f 92bd c278 673e
000000c0: 73c2 ad3e b0ab 47be 30b4 a2bc 266f 7fbe
000000d0: 2cad 4fbe c0f5 e23c a9f9 82be 2b07 9dbe
000000e0: 286e f0bd d0e5 abbc 3de2 33be 462b 743e
000000f0: 65a5 aabe 60bc 64bc 566b e5bd 3fca b0be

encoder_layer_mhattentions.0.attention_heads.0.Q.bias f4 [8]
-0.15041928 -0.018788517 0.22645524 -0.057962626 0.170387 0.24878523 0.29727206 -0.28343517
00000000: 8307 1abe 60ea 99bc e2e3 673e 386a 6dbd
00000010: ee79 2e3e 8ec1 7e3e 0b34 983e 6a1e 91be

encoder_layer_mhattentions.0.attention_heads.0.K.weight f4 [8, 8]
-0.34003258 0.3356777 -0.34019464 -0.15367019 -0.35286278 0.13885155 -0.07652068 0.022663027
-0.28323126 0.053250015 -0.23244551 0.3022916 0.239355 0.113738954 0.13412884 0.29676315
-0.10931641 0.082896024 -0.0942885 0.15933487 0.15690145 0.26774833 -0.3136897 0.20685449
-0.1319896 0.13618845 0.10885504 -0.23708399 0.33281395 0.12135628 -0.30854344 -0.23378149
-0.15760894 0.33886656 0.06988832 0.279296 -0.026635706 -0.3330895 -0.084098846 -0.17737636
0.13930899 0.23037574 -0.18152942 0.33227918 -0.08914918 -0.17367916 -0.04103619 -0.33632943
0.0913026 0.017054051 -0.13559222 -0.18860656 0.02349317 0.25876305 -0.32471052 -0.31358278
0.15625313 -0.1667551 0.16575417 -0.33022267 0.14496323 -0.21071726 -0.22872394 0.32785985
00000000: c018 aebe f3dd ab3e fe2d aebe b85b 1dbe
00000010: 6eaa b4be 1a2f 0e3e e0b6 9cbd d0a7 b93c
00000020: b003 91be b01c 5a3d 3206 6ebe f7c5 9a3e
00000030: 7a19 753e f8ef e83d 1259 093e 57f1 973e
00000040: 48e1 dfbd 64c5 a93d 541a c1bd ae28 233e
00000050: c6aa 203e 4f16 893e f09b a0be aad1 533e
00000060: 4828 07be fc74 0b3e 64ef de3d 25c6 72be
00000070: 9766 aa3e a489 f83d 68f9 9dbe 6a64 6fbe
00000080: 3d64 21be eb7f ad3e 9c21 8f3d e3ff 8e3e
00000090: 2033 dabc b58a aabe 043c acbd 26a2 35be
000000a0: 04a7 0e3e 9ee7 6b3e d9e2 39be 7f20 aa3e
000000b0: d893 b6bd f3d8 31be 9015 28bd 5f33 acbe
000000c0: dcfc ba3d f0b4 8b3c b0d8 0abe 1422 41be
000000d0: c074 c03c 977c 843e 7540 a6be ec8d a0be
000000e0: d200 203e d9c1 2abe 76bb 293e f212 a9be
000000f0: 3e71 143e 44c6 57be 9c36 6abe 3fdd a73e

encoder_layer_mhattentions.0.attention_heads.0.K.bias f4 [8]
0.05058679 0.18648127 -0.0118872225 -0.09510794 -0.15179676 -0.118965805 -0.08913991 -0.19718158
00000000: 1834 4f3d f2f4 3e3e a0c2 42bc f4c7 c2bd
00000010: 9c70 1bbe 58a4 f3bd fc8e b6bd f8e9 49be

encoder_layer_mhattentions.0.attention_heads.0.V.weight f4 [8, 8]
0.18892714 0.00021639466 -0.16690691 0.26405618 -0.19671102 -0.02646768 0.3394759 0.041466594
-0.3174296 0.18868354 -0.14169434 -0.20650193 0.019098282 0.21566775 0.09222096 0.023304582
-0.22467941 0.26629767 0.2736304 -0.21856213 0.32734004 -0.17910877 -0.07796407 0.30014095
-0.014000326 0.03384775 -0.13736011 -0.22189844 -0.066897064 0.08594301 0.09321198 0.17940393
0.3263711 -0.29602858 -0.27240598 0.0026385188 -0.039249837 0.06637359 -0.09769824 0.28476015
-0.2304532 -0.2645192 -0.14324622 0.32752416 -0.34458783 0.13834548 -0.24651021 0.20884326
-0.1792414 0.33272633 0.105195075 0.04850599 -0.3430792 0.34238204 -0.21200535 0.3285525
-0.17583454 -0.24551752 -0.08412668 0.06383574 -0.06916195 0.033653885 -0.31184945 0.119697005
00000000: 1e76 413e 00e8 6239 a5e9 2abe 5f32 873e
00000010: 9d6e 49be c0d2 d8bc c9cf ad3e e0d8 293d
00000020: 2286 a2be 4236 413e 5218 11be 3e75 53be
00000030: 0074 9c3c 02d8 5c3e 58de bc3d 40e9 be3c
00000040: 5c12 66be 2b58 883e 4919 8c3e c0ce 5fbe
00000050: 1d99 a73e 4a68 37be a0ab 9fbd 13ac 993e
00000060: a061 65bc f0a3 0a3d 21a8 0cbe 5839 63be
00000070: 5401 89bd e402 b03d ece5 be3d aab5 373e
00000080: 1d1a a73e 0f91 97be cc78 8bbe 00eb 2c3b
00000090: 70c4 20bd e0ee 873d 0416 c8bd 15cc 913e
000000a0: ecfb 6bbe 106f 87be 23af 12be 3fb1 a73e
000000b0: d16d b0be 70aa 0d3e 2c6d 7cbe 02db 553e
000000c0: 0f8b 37be 1b5b aa3e 8470 d73d 38ae 463d
000000d0: 14a8 afbe b34c af3e ee17 59be 0938 a83e
000000e0: f80d 34be f268 7bbe 9c4a acbd 50bc 823d
000000f0: c8a4 8dbd a8d8 093d bbaa 9fbe b423 f53d

encoder_layer_mhattentions.0.attention_heads.0.V.bias f4 [8]
-0.30518225 -0.100200474 -0.25021142 0.20421967 -0.2921048 -0.14003433 0.14377812 0.157015
00000000: d940 9cbe e835 cdbd b61b 80be f61e 513e
00000010: c38e 95be 2965 0fbe 923a 133e 8ac8 203e

encoder_layer_mhattentions.0.attention_heads.1.Q.weight f4 [8, 8]
0.20723894 0.27830473 -0.07116979 -0.26847798 0.13367411 0.087837994 -0.09286496 -0.14642039
-0.06789532 -0.023330718 -0.15560582 0.043942094 -0.22172408 0.23462453 0.00044891238 -0.3454633
-0.13494928 0.07282528 0.19546762 -0.05503452 0.20730236 0.2923793 0.3339949 0.24225125
0.13100404 0.08321768 -0.052648365 -0.07508591 0.06947672 -0.18090978 0.019218802 -0.2408975
0.27064225 0.105831414 0.2655845 0.25852433 -0.11329995 -0.101986825 0.17747799 0.2339193
-0.19543262 0.31601796 0.01875028 -0.015990227 -0.09902802 0.19153258 -0.21451181 -0.23089164
-0.32348537 0.23365119 -0.1397515 0.060234755 0.27442238 0.010310382 0.16653493 0.26631674
0.08275092 0.19752648 -0.123026356 -0.075850636 0.1561487 0.096455455 -0.027304411 -0.11941871
00000000: 7236 543e f57d 8e3e 78c1 91bd f275 89be
00000010: dee1 083e 68e4 b33d fc2f bebd 3aef 15be
00000020: b40c 8bbd 1020 bfbc 2257 1fbe a0fc 333d
00000030: a30b 63be 6a41 703e 005c eb39 91e0 b0be
00000040: 2530 0abe 6c25 953d aa28 483e e06b 61bd
00000050: 1247 543e bdb2 953e 6101 ab3e b610 783e
00000060: ec25 063e 086e aa3d d0a5 57bd a4c6 99bd
00000070: d049 8e3d 6a40 39be c070 9d3c d6ad 76be
00000080: 9f91 8a3e 24be d83d b1fa 873e 4d5d 843e
00000090: ce09 e8bd 78de d0bd cabc 353e 8a88 6f3e
000000a0: 7d1f 48be 1bcd a13e 309a 993c f0fd 82bc
000000b0: 34cf cabd 1e21 443e fca8 5bbe dc6e 6cbe
000000c0: e09f a5be 4242 6f3e 041b 0fbe b8b8 763d
000000d0: 1781 8c3e e0ec 283c 2288 2a3e ab5a 883e
000000e0: 5079 a93d 6244 4a3e 3ef5 fbbd 9457 9bbd
000000f0: 72e5 1f3e 708a c53d 80ad dfbc cc91 f4bd

encoder_layer_mhattentions.0.attention_heads.1.Q.bias f4 [8]
-0.022433758 -0.12477654 -0.17035751 -0.32557002 -0.3096516 -0.14135455 0.046836406 0.23093918
00000000: 00c7 b7bc d88a ffbd 3372 2ebe 1db1 a6be
00000010: a88a 9ebe 3fbf 10be 88d7 3f3d 527b 6c3e

encoder_layer_mhattentions.0.attention_heads.1.K.weight f4 [8, 8]
0.22993156 0.34640965 0.1619449 0.10990015 0.2123662 0.13706931 -0.11672434 -0.007391751
-0.1525554 -0.1321401 -0.22313085 -0.13890152 -0.24674468 0.041234106 -0.16699918 0.0012735128
0.18002287 0.24686304 -0.10850534 -0.28009173 -0.04015714 0.24258342 -0.0033033788 0.21458623
-0.3177548 0.24991807 0.269681 -0.26581168 0.10376534 0.26972637 -0.15972905 -0.3524113
-0.3069824 0.1356256 -0.06821641 0.0004826188 0.056904286 -0.10096392 0.20663068 0.32417694
-0.17924081 0.31088766 0.20132867 0.07633552 0.010582149 0.21426722 0.12740633 0.17463818
0.2996712 -0.0431121 -0.22098689 0.1811218 0.07252443 0.01511699 0.29683432 0.28977117
-0.105895594 -0.2516327 0.3447931 -0.006309688 -0.021570265 0.0077043176 0.12528205 0.011191249
00000000: 2e73 6b3e 9b5c b13e e2d4 253e 5413 e13d
00000010: 8676 593e e65b 0c3e 2c0d efbd 8036 f2bb
00000020: 7c37 1cbe bc4f 07be 6a7c 64be 333c 0ebe
00000030: a3aa 7cbe 18e5 283d d501 2bbe 00ec a63a
00000040: ea57 383e aac9 7c3e 0c38 debd 2f68 8fbe
00000050: d07b 24bd ca67 783e 807d 58bb 7ebc 5b3e
00000060: c2b0 a2be 86ea 7f3e a113 8a3e 7818 88be
00000070: ec82 d43d 9319 8a3e 0390 23be 416f b4be
00000080: cc2c 9dbe 70e1 0a3e 0cb5 8bbd 0008 fd39
00000090: 7814 693d 2cc6 cebd fe96 533e 85fa a53e
000000a0: e78a 37be ab2c 9f3e 1a29 4e3e cc55 9c3d
000000b0: c060 2d3c de68 5b3e ce76 023e 5ad4 323e
000000c0: 816e 993e 5096 30bd 634a 62be fe77 393e
000000d0: b087 943d 40ad 773c abfa 973e e35c 943e
000000e0: cadf d8bd 00d6 80be b988 b03e 80c1 cebb
000000f0: 20b4 b0bc 8074 fc3b f049 003e 805b 373c

encoder_layer_mhattentions.0.attention_heads.1.K.bias f4 [8]
-0.256185 0.10291138 -0.20306896 0.21903059 0.022906095 -0.21938382 0.18662629 -0.21568535
00000000: ae2a 83be 34c3 d23d 4ff1 4fbe 8e49 603e
00000010: 90a5 bb3c 27a6 60be f61a 3f3e 9fdc 5cbe

encoder_layer_mhattentions.0.attention_heads.1.V.weight f4 [8, 8]
0.15851972 -0.31229347 -0.016805202 -0.15959153 -0.30970085 -0.24576902 -0.10991658 -0.027760655
-0.29336604 0.35094044 0.20973572 -0.076669246 -0.052815855 0.24319181 -0.33418947 0.025538921
0.17098168 0.030874252 -0.19261965 -0.048062533 -0.09243125 0.24237475 0.35315934 0.12938619
0.02212444 -0.04691273 0.077462494 0.14108518 0.1022158 -0.20095626 -0.07281205 0.34151033
0.14254075 0.09977284 -0.20595053 -0.16634674 -0.10285318 0.25259247 0.29020318 0.14243764
-0.037507653 0.20502415 0.20633611 0.06959376 0.27663156 0.24328259 0.05124387 -0.12303604
-0.2563839 -0.17346264 0.019158453 -0.077334315 0.04419294 0.12291023 -0.050026506 -0.2816751
-0.28269714 -0.18201482 -0.04326555 -0.092344075 -0.32557607 0.1523948 -0.2910987 -0.2507686
00000000: fe52 223e eee4 9fbe 10ab 89bc f66b 23be
00000010: 1c91 9ebe e0aa 7bbe f21b e1bd 506a e3bc
00000020: 1334 96be 77ae b33e f6c4 563e c404 9dbd
00000030: 7055 58bd 4607 793e e21a abbe 0037 d13c
00000040: d215 2f3e 00ec fc3c 163e 45be 38dd 44bd
00000050: 984c bdbd 1631 783e 4dd1 b43e d07d 043e
00000060: 503e b53c 9027 40bd a8a4 9e3d a278 103e
00000070: 8456 d13d 7ac7 4dbe 7c1e 95bd 71da ae3e
00000080: 34f6 113e b455 cc3d b2e4 52be cd56 2abe
00000090: b0a4 d2bd cd53 813e 8395 943e 2cdb 113e
000000a0: a0a1 19bd daf1 513e c649 533e 2c87 8e3d
000000b0: a7a2 8d3e 121f 793e 18e5 513d 52fa fbbd
000000c0: c044 83be 31a0 31be 30f2 9c3c 7461 9ebd
000000d0: a803 353d 5cb8 fb3d 98e8 4cbd b837 90be
000000e0: aebd 90be 1862 3abe 3837 31bd e41e bdbd
000000f0: e8b1 a6be 620d 1c3e e40a 95be be64 80be

encoder_layer_mhattentions.0.attention_heads.1.V.bias f4 [8]
0.0750052 -0.23735064 0.014424771 -0.3076526 -0.22710694 0.12824857 0.20855197 0.108997256
00000000: 549c 993d 0c0c 73be e055 6c3c a484 9dbe
00000010: b98e 68be 9853 033e a68e 553e f439 df3d

encoder_layer_mhattentions.0.attention_heads.2.Q.weight f4 [8, 8]
0.18024758 0.116589814 -0.2771211 0.22034189 -0.34676352 -0.109238476 0.09953424 0.0025995374
-0.3233455 0.10241163 0.30641684 -0.19481264 -0.08351886 0.31312826 -0.14188884 0.10354489
0.053509265 0.25850144 -0.06242484 0.1885772 -0.059004486 -0.09806833 0.11143762 -0.15189311
0.18642709 0.27277353 -0.06497991 -0.07552624 0.12187773 0.057600588 -0.26216274 -0.0950264
-0.1023913 -0.14118806 -0.04289618 0.35340747 -0.23549555 -0.3048445 -0.32723945 -0.24092858
-0.009580493 -0.3386837 0.2840139 0.33625653 -0.041595608 0.24233052 0.32416818 -0.08038661
-0.2294533 0.17010984 0.1382697 0.29694995 0.0019007027 0.046038866 -0.2875319 -0.011812359
-0.26292565 0.28957924 -0.32058266 -0.011185318 0.25413653 0.07273951 0.03487715 -0.088050544
00000000: d292 383e a4c6 ee3d d1e2 8dbe 4ea1 613e
00000010: fd8a b1be 6cb8 dfbd 9cd8 cb3d 005d 2a3b
00000020: 8b8d a5be 30bd d13d abe2 9c3e f77c 47be
00000030: f00b abbd 5952 a03e 4f4b 11be 580f d43d
00000040: 882c 5b3d 4d5a 843e 30b1 7fbd 621a 413e
00000050: b0ae 71bd 0cd8 c8bd 6839 e43d de89 1bbe
00000060: bee6 3e3e f9a8 8b3e 3014 85bd 80ad 9abd
00000070: 089b f93d 98ee 6b3d 323a 86be 349d c2bd
00000080: 88b2 d1bd 9a93 10be e8b3 2fbd d3f1 b43e
00000090: bf25 71be 9414 9cbe ee8b a7be fbb5 76be
000000a0: 80f7 1cbc f367 adbe 456a 913e d129 ac3e
000000b0: 2860 2abd 7e25 783e 5ff9 a53e bca1 a4bd
000000c0: cef5 6abe 4631 2e3e 9296 0d3e d309 983e
000000d0: 0021 f93a 4093 3c3d 6237 93be a088 41bc
000000e0: 319e 86be bb43 943e 6923 a4be a042 37bc
000000f0: 2f1e 823e 74f8 943d 58db 0e3d d853 b4bd

encoder_layer_mhattentions.0.attention_heads.2.Q.bias f4 [8]
0.021930397 0.071903706 0.06974423 -0.08908391 0.16376987 -0.2505528 0.0036575794 0.051399767
00000000: 60a7 b33c 4042 933d 10d6 8e3d a071 b6bd
00000010: 4ab3 273e 7548 80be 00b4 6f3b 9088 523d

encoder_layer_mhattentions.0.attention_heads.2.K.weight f4 [8, 8]
-0.23414525 0.13954934 -0.19019634 0.19722435 -0.014950931 -0.22129063 -0.053787768 -0.3193032
-0.05640453 -0.26660717 -0.17118625 -0.05914846 -0.34599102 0.2052894 0.06682652 -0.16714078
-0.30332983 -0.261813 0.23129395 -0.12463266 0.30647388 0.015721709 -0.1347551 -0.31337446
-0.11140816 0.2004573 -0.24534139 0.021696478 0.19769022 -0.15548748 -0.104615554 -0.11242069
0.082443506 -0.10107598 -0.15424296 0.07992914 -0.2780658 0.27402636 0.3423694 0.06376901
-0.24962592 -0.22785804 0.10110986 0.24537018 -0.2881304 0.14643139 -0.0815455 -0.15405533
0.039488465 0.3150269 0.156104 -0.083811164 -0.13761607 -0.03238973 0.3454056 0.044121563
-0.08294386 -0.29167482 -0.0027964115 0.32572284 -0.085859954 -0.106356725 -0.25266615 -0.26287842
00000000: c6c3 6fbe 06e6 0e3e d4c2 42be 2ef5 493e
00000010: c0f4 74bc 039a 62be 9050 5cbd b67b a3be
00000020: 7008 67bd bc80 88be 734b 2fbe a845 72bd
00000030: bc25 b1be 6237 523e 58dc 883d f426 2bbe
00000040: 0c4e 9bbe 5b0c 86be 52d8 6c3e 683f ffbd
00000050: 25ea 9c3e d0ca 803c 3efd 09be 9e72 a0be
00000060: f629 e4bd ae44 4d3e c63a 7bbe d0bc b13c
00000070: 4e6f 4a3e 1c38 1fbe ae40 d6bd d23c e6bd
00000080: 24d8 a83d ec00 cfbd def1 1dbe e4b1 a33d
00000090: a45e 8ebe 2f4d 8c3e 0b4b af3e 5499 823d
000000a0: f09d 7fbe 9e53 69be b012 cf3d 5242 7b3e
000000b0: d485 93be 1cf2 153e 5401 a7bd aec0 1dbe
000000c0: a8be 213d 354b a13e bad9 1f3e 30a5 abbd
000000d0: 3aeb 0cbe 18ab 04bd 01d9 b03e d0b8 343d
000000e0: 78de a9bd 6756 95be 0044 37bb 25c5 a63e
000000f0: 58d7 afbd 8ed1 d9bd 755d 81be 0098 86be

encoder_layer_mhattentions.0.attention_heads.2.K.bias f4 [8]
0.30403623 0.100545436 -0.17620265 -0.21295626 -0.11986075 -0.266611 0.22298905 0.12058297
00000000: a3aa 9b3e c4ea cd3d 786e 34be 3511 5abe
00000010: 8e79 f5bd 3d81 88be 3e57 643e 34f4 f63d

encoder_layer_mhattentions.0.attention_heads.2.V.weight f4 [8, 8]
-0.1994955 0.24806967 -0.0071198344 0.30701634 0.013490349 0.1347903 -0.18077335 0.22850809
-0.10588291 0.025938392 -0.13455862 -0.13531262 -0.030862123 -0.082571745 -0.3016418 -0.22559896
-0.15030675 -0.13265067 -0.090072125 -0.10409345 -0.34575474 0.10262036 -0.07948798 -0.18540205
-0.028880566 0.054826975 -0.34395793 0.34918365 -0.04412493 0.19317183 0.25034913 0.26576784
-0.026718229 -0.23071475 -0.10275039 0.18564007 0.0990687 -0.19917467 0.34733203 0.19969144
0.057711303 -0.11443898 0.116692156 0.0688279 -0.29969084 0.10872024 0.15870574 -0.009999305
-0.16320987 0.061674565 -0.3149799 -0.13047935 0.047790527 0.20589939 0.3111852 0.06611997
0.10274619 -0.18947183 0.15169534 -0.17482677 -0.025508404 -0.06460571 -0.34870455 -0.30603468
00000000: 8c48 4cbe fa05 7e3e 804d e9bb 3f31 9d3e
00000010: a006 5d3c 7806 0a3e a61c 39be 06fe 693e
00000020: 24d9 d8bd c07c d43c bcc9 09be 648f 0abe
00000030: 90d2 fcbc 601b a9bd cb70 9abe 6a03 67be
00000040: 03ea 19be 94d5 07be bc77 b8bd f22e d5bd
00000050: c406 b1be a02a d23d 98ca a2bd 09da 3dbe
00000060: f096 ecbc 4092 603d 411b b0be 33c8 b23e
00000070: 58bc 34bd d6ce 453e c32d 803e b912 883e
00000080: 30e0 dabc 7d40 6cbe cc6e d2bd 6e18 3e3e
00000090: 88e4 ca3d 72f4 4bbe 81d5 b13e ea7b 4c3e
000000a0: b062 6c3d fc5e eabd 4cfc ee3d a4f5 8c3d
000000b0: 1471 99be b8a8 de3d c283 223e 20d4 23bc
000000c0: 7d20 27be 789e 7c3d 0c45 a1be 619c 05be
000000d0: 00c0 433d 4ad7 523e ab53 9f3e e869 873d
000000e0: 986c d23d e704 42be 0656 1b3e ca05 33be
000000f0: 00f7 d0bc 0050 84bd 6789 b2be 94b0 9cbe

encoder_layer_mhattentions.0.attention_heads.2.V.bias f4 [8]
0.06988037 -0.17051199 -0.34228453 -0.012813598 0.32095835 0.2521625 0.25361803 -0.20543958
00000000: 701d 8f3d b29a 2ebe eb3f afbe 20f0 51bc
00000010: a754 a43e 711b 813e 39da 813e c15e 52be

encoder_layer_mhattentions.0.attention_heads.3.Q.weight f4 [8, 8]
-0.035244852 -0.012670487 -0.06669468 -0.2162921 0.12629312 -0.030622452 0.35121498 0.1997625
0.12711346 0.33334872 0.08668262 0.03371972 -0.23081625 0.07315156 -0.061516017 0.24961552
0.17415914 -0.21377146 -0.21114825 -0.2880353 -0.19449772 0.17288753 0.26602778 -0.23991475
0.075835586 -0.080494165 0.07330617 -0.15337929 -0.31749436 -0.30604467 -0.0116484165 0.13900676
0.26870194 -0.29142544 0.08074093 0.15268478 0.18936023 0.12977064 -0.3070516 0.12489566
-0.12268117 0.20511612 -0.12069121 0.030209541 -0.30007914 -0.21233557 0.093865365 -0.16957903
-0.17523302 -0.25551385 -0.31386226 0.10095313 -0.21551985 -0.22839478 -0.14678153 0.28608283
0.009081095 0.21293822 0.107905746 -0.13429342 0.31854483 -0.014580965 -0.21624064 0.18268362
00000000: e85c 10bd e097 4fbc 3897 88bd ad7b 5dbe
00000010: fc52 013e f0db fabc 73d2 b33e 8a8e 4c3e
00000020: 082a 023e afac aa3e a886 b13d b01d 0a3d
00000030: 185b 6cbe 7cd0 953d 38f8 7bbd 369b 7f3e
00000040: c656 323e e8e6 5abe 3f37 58be 5d79 93be
00000050: 692a 47be 6e09 313e cb34 883e 36ac 75be
00000060: b04f 9b3d 20da a4bd 8c21 963d 760f 1dbe
00000070: 9f8e a2be e3b1 9cbe 00d9 3ebc ca57 0e3e
00000080: 4d93 893e b735 95be 805b a53d 6659 1c3e
00000090: a6e7 413e 98e2 043e de35 9dbe 4cc9 ff3d
000000a0: 4440 fbbd f609 523e f42c f7bd 007a f73c
000000b0: f9a3 99be 7f6e 59be 7c3c c03d 20a6 2dbe
000000c0: 4970 33be b6d2 82be 8eb2 a0be 84c0 ce3d
000000d0: 3cb1 5cbe 52e0 69be e64d 16be 7379 923e
000000e0: e0c8 143c 7a0c 5a3e b0fd dc3d 3784 09be
000000f0: 4f18 a33e 00e5 6ebc 306e 5dbe 6a11 3b3e

encoder_layer_mhattentions.0.attention_heads.3.Q.bias f4 [8]
-0.12044659 0.16515371 0.101235 -0.19487071 0.16078207 0.19817153 0.108284384 -0.07755235
00000000: b4ac f6bd 0e1e 293e 4c54 cf3d 308c 47be
00000010: 0ea4 243e 7aed 4a3e 34c4 dd3d c4d3 9ebd

encoder_layer_mhattentions.0.attention_heads.3.K.weight f4 [8, 8]
-0.1461146 -0.071741045 -0.107443735 0.03988993 -0.31551906 0.1873906 -0.23186937 -0.27601802
0.071753025 -0.048018783 0.26417956 -0.07896194 -0.035221875 0.27431503 -0.22299114 0.05653882
-0.34079397 0.24073032 -0.18879874 0.09266895 0.26913705 -0.14375827 0.28112337 0.21110842
0.30207255 0.088871 -0.046145856 -0.30700594 0.2821841 -0.09375808 -0.2341949 -0.1960649
0.25342193 0.15583524 -0.3466981 -0.22792046 0.026255876 -0.2848187 -0.11840996 -0.121445805
-0.30460793 -0.20855242 -0.08295587 0.3055006 0.13033026 0.13662624 -0.21813919 -0.029927373
-0.13931 0.2534972 -0.012219161 -0.1949773 0.0022818446 -0.11711235 -0.016429722 0.29331085
-0.06595397 0.006534606 -0.34839287 -0.14506106 0.009858668 -0.24482885 0.08847618 0.08527854
00000000: 119f 15be f8ec 92bd 760b dcbd a063 233d
00000010: b78b a1be 52e3 3f3e 2a6f 6dbe 3c52 8dbe
00000020: 40f3 923d 58af 44bd 8b42 873e ccb6 a1bd
00000030: d044 10bd 0573 8c3e ca57 64be 4095 673d
00000040: 8c7c aebe 0282 763e 7554 41be 38c9 bd3d
00000050: 55cc 893e 5e35 13be 67ef 8f3e ce2c 583e
00000060: 41a9 9a3e 0002 b63d 7003 3dbd e22f 9dbe
00000070: 6f7a 903e 3c04 c0bd cad0 6fbe 3dc5 48be
00000080: 85c0 813e 4693 1f3e 6a82 b1be fb63 69be
00000090: 9016 d73c c2d3 91be ec80 f2bd 94b8 f8bd
000000a0: 92f5 9bbe c48e 55be c4e4 a9bd 936a 9c3e
000000b0: 4c75 053e c0e7 0b3e e15f 5fbe 402a f5bc
000000c0: 48a7 0ebe 63ca 813e e032 48bc 21a8 47be
000000d0: 008b 153b 9ad8 efbd a097 86bc d72c 963e
000000e0: e012 87bd 4020 d63b 8d60 b2be e38a 14be
000000f0: 4086 213c 6ab4 7abe 0033 b53d 84a6 ae3d

encoder_layer_mhattentions.0.attention_heads.3.K.bias f4 [8]
-0.28206033 -0.006425947 -0.076061964 0.33395526 0.26500443 0.31068018 0.06721255 0.04856205
00000000: 366a 90be c090 d2bb 60c6 9bbd 2ffc aa3e
00000010: a9ae 873e 7911 9f3e bca6 893d 00e9 463d

encoder_layer_mhattentions.0.attention_heads.3.V.weight f4 [8, 8]
0.10185942 -0.0735133 -0.13967584 -0.31040373 -0.19240487 -0.20763 0.0045924783 -0.10694809
-0.105392456 0.05522135 0.07855824 0.104436606 0.2908034 -0.29553387 0.17560306 0.30756482
-0.16312066 0.08509755 0.1743742 0.12720484 -0.25974464 0.07576251 -0.18785343 0.07776132
-0.28309822 -0.20624277 0.20006052 0.26206198 0.161113 -0.16508874 -0.062348306 0.33336285
-0.24051529 -0.32027137 0.07156673 0.2566637 -0.16510403 0.023679495 0.13638386 -0.14495856
0.21178976 0.08489108 -0.14210767 0.33928052 -0.34606525 0.004339695 -0.24865004 -0.34966952
0.2425656 0.24719515 -0.038444787 0.2019268 -0.30753443 -0.11473417 -0.22206318 -0.19035704
0.21679452 0.12905288 0.010190785 0.17505863 0.16223094 0.055221558 -0.26280254 0.29925594
00000000: ac9b d03d 248e 96bd 2f07 0fbe 3ded 9ebe
00000010: c805 45be f59c 54be 807c 963b 9a07 dbbd
00000020: 00d8 d7bd c82f 623d 24e3 a03d dce2 d53d
00000030: 2fe4 943e 3750 97be 4ad1 333e 2379 9d3e
00000040: 1a09 27be a047 ae3d 268f 323e fc41 023e
00000050: 40fd 84be 6029 9b3d a65c 40be 5441 9f3d
00000060: 40f2 90be 4e31 53be aadc 4c3e fd2c 863e
00000070: cefa 243e 060d 29be f060 7fbd 89ae aa3e
00000080: a449 76be 9cfa a3be 9491 923d 6d69 833e
00000090: 0811 29be 80fb c13c 36a8 0b3e 0470 14be
000000a0: 6adf 583e 60db ad3d ac84 11be 2db6 ad3e
000000b0: 772f b1be 0034 8e3b 1e9e 7ebe e207 b3be
000000c0: 1e63 783e ba20 7d3e 4878 1dbd e6c5 4e3e
000000d0: 2775 9dbe c0f9 eabd 8864 63be f5ec 42be
000000e0: 62ff 5d3e 7026 043e 40f7 263c 9242 333e
000000f0: de1f 263e 0030 623d 0e8e 86be 1338 993e

encoder_layer_mhattentions.0.attention_heads.3.V.bias f4 [8]
0.01750493 0.004477054 -0.12309362 -0.35297373 -0.2353386 0.14874068 0.33406213 -0.09914085
00000000: 8066 8f3c 40b4 923b 8218 fcbd f9b8 b4be
00000010: 9afc 70be 7a4f 183e 310a ab3e 5c0a cbbd

encoder_layer_mhattentions.0.output_layer.weight f4 [32, 32]
-0.14076176 -0.08888001 -0.123660475 -0.14153838 -0.088556744 0.11019273 0.058884308 -0.16297095
0.01405248 -0.11013709 -0.0038697124 -0.074859925 -0.03846091 -0.031351507 -0.10195571 0.086876675
0.0026510954 0.03656736 0.13982649 0.16073899 -0.06315429 -0.08093392 -0.17015003 -0.13442808
0.16246642 -0.13637084 -0.12235591 0.1624843 -0.16040558 0.1576369 0.04574214 0.17133786
-0.04897493 -0.16861399 0.046572477 -0.17401469 -0.1692566 -0.13895042 0.13497333 -0.1030748
-0.10086236 0.11394073 -0.05762943 -0.04097776 0.08692883 -0.17094973 0.030636802 -0.048232034
0.09694891 -0.1683253 -0.0792044 -0.027639017 -0.16859202 -0.009938583 -0.11682931 0.11734815
-0.15715271 -0.14286783 -0.09438715 0.15669619 -0.13006614 0.09173812 -0.07885551 0.15798156
-0.10489183 -0.120447874 -0.096390724 -0.17046621 -0.091780685 -0.0991784 0.0005687326 -0.15879335
-0.095694125 0.1524321 -0.11456832 0.1703416 0.1029235 0.10839085 0.16687234 -0.046140328
0.093364045 -0.0505192 0.09883557 -0.07364255 0.04348895 0.130522 0.020247474 0.05012563
-0.15635642 -0.040683344 -0.17168733 -0.13055459 -0.000645116 -0.09555046 0.17037894 0.091987476
0.074794546 0.09714727 -0.12459049 -0.14692467 -0.030481651 -0.08501289 0.104618534 0.06861538
-0.053625524 0.14621978 0.007223636 0.009335667 -0.08554895 -0.0052190274 0.048846915 0.06969473
0.13271002 0.110074714 -0.10448203 0.0056683123 -0.008884236 -0.04469718 -0.016343877 -0.1520969
0.1452678 0.13483186 0.15608995 0.042243868 -0.1072651 -0.12326048 0.07135752 -0.033178315
0.17608644 0.06940119 0.036544397 0.01794897 -0.1499199 -0.17208238 -0.040120557 -0.09184742
-0.034452245 0.06755796 0.07647996 -0.13720599 -0.00466311 -0.02939777 0.035669684 -0.16558775
0.07566269 0.110683784 0.082360074 -0.08848583 -0.09937 -0.07167489 -0.093854055 0.120009795
-0.011181995 0.07889508 0.10199709 -0.1570135 -0.025328591 -0.078204826 0.13766052 -0.15411744
0.094911054 0.051349968 0.11913012 -0.13129124 -0.10194791 0.15981202 0.039724812 0.026450872
0.16159956 -0.010890067 0.0711218 0.081708 -0.027217299 0.07160585 0.16034032 0.037552357
0.13774942 0.032138303 -0.030709922 -0.15956542 -0.029229179 0.04739295 0.06866202 -0.10143764
0.08802493 0.15689723 0.13656737 -0.04779841 -0.034241408 0.10313253 -0.042249873 0.08636676
0.0129237175 -0.017889291 -0.084853426 -0.07578353 -0.11918284 -0.069084965 -0.008435845 0.12687986
-0.028004155 0.05840181 -0.085295886 0.10013272 -0.007327616 -0.12708478 -0.16728766 -0.16193244
-0.06949406 0.14534365 -0.037880093 -0.028743997 -0.15585232 0.055836603 0.06969148 -0.17283063
-0.15039727 0.014859721 0.081304446 -0.13984963 -0.051299438 -0.12652479 0.056610867 0.061049104
0.11196153 0.106136665 -0.13382174 -0.16129318 0.11175914 0.0013870299 -0.062907666 0.120754376
-0.1743364 0.07959761 -0.106144205 0.11016475 -0.017395422 -0.07240285 0.080057785 -0.13142174
-0.12076735 0.14076163 -0.054538883 0.14095859 0.09593965 -0.13175827 0.04972504 -0.015857473
-0.018435016 0.0046671033 -0.14426877 0.022870108 -0.06824099 0.14737748 0.007260889 0.13916604
00000000: da23 10be b906 b6bd b441 fdbd 70ef 10be
00000010: 3d5d b5bd baac e13d ac30 713d dbe1 26be
00000020: 603c 663c 8e8f e1bd 009b 7dbb 2950 99bd
00000030: 3089 1dbd 706a 00bd 28ce d0bd 66ec b13d
00000040: 00be 2d3b a8c7 153d ad2e 0f3e c398 243e
00000050: 0957 81bd afc0 a5bd cf3b 2ebe 84a7 09be
00000060: 995d 263e cca4 0bbe bc95 fabd 4962 263e
00000070: 5c41 24be 916b 213e 1c5c 3b3d 3173 2f3e
00000080: f099 48bd 25a9 2cbe c8c2 3e3d e830 32be
00000090: 9a51 2dbe 0549 0ebe 7336 0a3e e118 d3bd
000000a0: ed90 cebd c259 e93d d60c 6cbd 4cd8 27bd
000000b0: be07 b23d 720d 2fbe 08fa fa3c f48e 45bd
000000c0: 268d c63d 785d 2cbe eb35 a2bd 386b e2bc
000000d0: 63a3 2cbe 70d5 22bc 3544 efbd 3a54 f03d
000000e0: a4ec 20be f24b 12be 0d4e c1bd f774 203e
000000f0: 0f30 05be 32e1 bb3d ff7e a1bd ebc5 213e
00000100: 87d1 d6bd 60ad f6bd 8068 c5bd b28e 2ebe
00000110: 83f7 bbbd 0c1e cbbd 0017 153a b99a 22be
00000120: 48fb c3bd 2917 1c3e cca2 eabd 076e 2e3e
00000130: 8ec9 d23d 06fc dd3d 95e0 2a3e a4fd 3cbd
00000140: a635 bf3d 38ed 4ebd 4e6a ca3d e8d1 96bd
00000150: 7821 323d 8fa7 053e 08de a53c 8850 4d3d
00000160: e61b 20be 94a3 26bd cece 2fbe 1ab0 05be
00000170: 001d 29ba f6af c3bd d177 2e3e ee63 bc3d
00000180: e22d 993d 26f5 c63d 4c29 ffbd 6c73 16be
00000190: a8b4 f9bc 3d1b aebd 3e42 d63d 3886 8c3d
000001a0: 70a6 5bbd a3ba 153e 40b4 ec3b a0f4 183c
000001b0: 4a34 afbd 6004 abbb b413 483d 1cbc 8e3d
000001c0: 23e5 073e da6e e13d adfa d5bd 40bd b93b
000001d0: 308f 11bc 6414 37bd 98e3 85bc 4abf 1bbe
000001e0: 15c1 143e 5d11 0a3e 0bd6 1f3e e807 2d3d
000001f0: cead dbbd fe6f fcbd e423 923d fce5 07bd
00000200: 0150 343e 3622 8e3d 94af 153d b809 933c
00000210: 9a84 19be 5d36 30be 7455 24bd 801a bcbd
00000220: cc1d 0dbd d45b 8a3d 86a1 9c3d ba7f 0cbe
00000230: 00cd 98bb 98d3 f0bc 601a 123d d68f 29be
00000240: 0af5 9a3d 2eae e23d 66ac a83d 0f38 b5bd
00000250: 8082 cbbd 49ca 92bd 8e36 c0bd b2c7 f53d
00000260: b034 37bc be93 a13d dae3 d03d 26c8 20be
00000270: e87d cfbc da29 a0bd e1f6 0c3e f6d0 1dbe
00000280: ba60 c23d 5854 523d 7efa f33d 3671 06be
00000290: 11ca d0bd c3a5 233e 7cb6 223d 80af d83c
000002a0: 5b7a 253e 406c 32bc 4ea8 913d 8656 a73d
000002b0: d0f6 debc 16a6 923d 4130 243e 80d0 193d
000002c0: 2f0e 0d3e 74a3 033d 6093 fbbc 1e65 23be
000002d0: 0872 efbc 1c1f 423d ac9e 8c3d 8abe cfbd
000002e0: 6a46 b43d aba9 203e 51d8 0b3e 44c8 43bd
000002f0: b840 0cbd 2637 d33d 340e 2dbd 0ee1 b03d
00000300: 00be 533c 908c 92bc a2c7 adbd 6534 9bbd
00000310: 2216 f4bd 6b7c 8dbd 8036 0abc cbec 013e
00000320: f868 e5bc bc36 6f3d 9caf aebd 6212 cd3d
00000330: 801c f0bb 8322 02be 754d 2bbe 9ed1 25be
00000340: e752 8ebd f7d4 143e 2828 1bbd 8878 ebbc
00000350: c097 1fbe ecb4 643d 68ba 8e3d 83fa 30be
00000360: be01 1abe 3076 733c f282 a63d be34 0fbe
00000370: 5c1f 52bd b78f 01be cce0 673d a00e 7a3d
00000380: 164c e53d 2e5e d93d 9108 09be 0a2a 25be
00000390: fae1 e43d 00cd b53a bcd5 80bd 124e f73d
000003a0: 3e85 32be 1204 a33d 2262 d9bd 0e9e e13d
000003b0: d880 8ebc f247 94bd 56f5 a33d 6c93 06be
000003c0: df54 f7bd d123 103e 2a64 5fbd 7357 103e
000003d0: 027c c43d a4eb 06be 7cac 4b3d 88e7 81bc
000003e0: 0805 97bc 80ee 983b 31bb 13be 185a bb3c
000003f0: efc1 8bbd 1fea 163e c0ec ed3b 8b81 0e3e

encoder_layer_mhattentions.0.output_layer.bias f4 [32]
-0.00928998 -0.09473688 -0.13979058 0.07242514 -0.059684 -0.0039846003 -0.029868037 -0.06721847
0.11176531 0.0038724244 -0.15774989 -0.07089803 -0.15015355 0.06192386 -0.032494307 0.06697345
0.10450001 -0.05294139 0.033613846 0.0068577826 0.012856722 -0.03534648 0.13464026 0.07942392
0.06821513 0.14122666 0.16497086 0.013056666 -0.109852284 -0.16963765 -0.070229106 0.05918415
00000000: 0035 18bc 6905 c2bd 4325 0fbe a253 943d
00000010: 3677 74bd 4091 82bb d0ad f4bc d6a9 89bd
00000020: 36e5 e43d 80c8 7d3b 3089 21be fd32 91bd
00000030: dac1 19be e0a3 7d3d c018 05bd 6029 893d
00000040: 1a04 d63d 12d9 58bd acae 093d 40b7 e03b
00000050: 00a5 523c 78c7 10bd 23df 093e 02a9 a23d
00000060: 60b4 8b3d b99d 103e 1fee 283e a0eb 553c
00000070: 3cfa e0bd 7eb5 2dbe 47d4 8fbd 146b 723d

encoder_layer_mhattentions.1.attention_heads.0.Q.weight f4 [8, 8]
0.27128264 -0.12668082 -0.023244351 0.17937115 0.21102759 -0.103593454 -0.22556187 0.2818105
0.3115084 0.11450449 -0.08337739 0.30881086 -0.09310424 -0.13032551 0.085033745 0.15847853
-0.21171845 -0.3225896 -0.23122717 0.25689343 -0.0655185 -0.35345542 0.292825 0.12964922
0.25616297 0.09198934 -0.21431781 0.3246365 -0.054567426 0.33672324 0.32728103 0.087040156
-0.35111704 0.22273114 0.29489693 -0.2606136 0.032167405 0.1728696 -0.13396552 -0.17210071
-0.3408781 -0.25481594 -0.27696207 0.08368471 -0.23144381 0.23356292 0.18720123 0.29913667
0.27268288 -0.328802 -0.22442943 0.22167882 0.33098444 0.3028172 0.21428004 0.11842215
-0.3236645 -0.3040178 0.1376887 0.29234323 -0.006810665 0.13904595 0.33641514 0.013047308
00000000: 8fe5 8a3e 9eb8 01be f06a bebc 12ad 373e
00000010: 9e17 583e ce28 d4bd b1f9 66be 7749 903e
00000020: 077e 9f3e 5481 ea3d c4c1 aabd 751c 9e3e
00000030: 70ad bebd 0d74 05be 2c26 ae3d 3248 223e
00000040: b9cc 58be 772a a5be d1c6 6cbe 8987 833e
00000050: 902e 86bd 1cf8 b4be 29ed 953e c4c2 043e
00000060: cb27 833e e864 bc3d 2176 5bbe c136 a63e
00000070: 1882 5fbd fd66 ac3e 6191 a73e 1c42 b23d
00000080: 9dc5 b3be a213 643e bbfc 963e 256f 85be
00000090: f8c1 033d ba04 313e 422e 09be 2b3b 30be
000000a0: 9387 aebe 3c77 82be f9cd 8dbe e462 ab3d
000000b0: 9bff 6cbe 1e2b 6f3e aeb1 3f3e 7128 993e
000000c0: 179d 8b3e bc58 a8be d4d0 65be c6ff 623e
000000d0: cb76 a93e db0a 9b3e 3a6c 5b3e 5087 f23d
000000e0: 5ab7 a5be 39a8 9bbe 44fe 0c3e 03ae 953e
000000f0: 002c dfbb 1062 0e3e 9b3e ac3e 60c4 553c

encoder_layer_mhattentions.1.attention_heads.0.Q.bias f4 [8]
-0.33058432 0.025935471 -0.110126555 0.10649598 -0.18951912 0.11949259 0.29542574 -0.26118195
00000000: 5942 a9be a076 d43c 088a e1bd 901a da3d
00000010: 4d11 42be 88b8 f43d 0b42 973e a4b9 85be

encoder_layer_mhattentions.1.attention_heads.0.K.weight f4 [8, 8]
0.17953375 -0.022409648 0.12892526 -0.22947074 0.114688516 0.16183427 -0.18837407 -0.09201625
-0.07582453 0.10972351 -0.20602715 -0.3157348 0.28827992 -0.2477549 -0.17828484 0.038826346
0.20334968 0.3237795 0.21655115 0.3125905 -0.0699932 0.023055851 0.048100978 -0.23612237
0.14141747 0.3242047 0.19093135 0.2792957 0.053105563 0.24067685 0.19954768 -0.27585047
0.3343052 -0.16778415 0.3222759 -0.2912663 0.08165905 -0.03722641 0.13189745 -0.3115769
-0.1676567 0.19662991 0.2913595 -0.07956618 -0.19558005 -0.033221573 -0.2070168 0.28385028
-0.3510548 0.08146399 -0.33618167 0.038226396 0.029545188 0.23886678 0.16478428 0.24983558
-0.309247 -0.06958014 0.06303921 -0.33694723 0.23222348 0.042580962 -0.029797077 0.120462716
00000000: b2d7 373e 7094 b7bc fc04 043e 61fa 6abe
00000010: d0e1 ea3d e2b7 253e 22e5 40be 0473 bcbd
00000020: e449 9bbd b8b6 e03d c8f8 52be fea7 a1be
00000030: 6d99 933e 76b3 7dbe 4d90 36be 6008 1f3d
00000040: e63a 503e 6dc6 a53e 96bf 5d3e dd0b a03e
00000050: 9858 8fbd a0df bc3c 8805 453d 10ca 71be
00000060: becf 103e 29fe a53e 8283 433e d9ff 8e3e
00000070: 3885 593d fe73 763e 3a56 4c3e 463c 8dbe
00000080: 0d2a ab3e 9ccf 2bbe 5901 a53e db20 95be
00000090: dc3c a73d b87a 18bd 2010 073e 0287 9fbe
000000a0: 33ae 2bbe 5a59 493e 132d 953e 98f3 a2bd
000000b0: 2346 48be 5813 08bd 36fc 53be d354 913e
000000c0: 74bd b3be 98d6 a63d 0120 acbe 4893 1c3d
000000d0: c008 f23c 7e99 743e 36bd 283e e6d4 7f3e
000000e0: 9f55 9ebe 0880 8ebd b41a 813d 5984 acbe
000000f0: fecb 6d3e 6069 2e3d 0019 f4bc 28b5 f63d

encoder_layer_mhattentions.1.attention_heads.0.K.bias f4 [8]
0.18370071 -0.3216263 0.33885685 0.039788395 -0.24995825 -0.22023313 0.34930888 -0.10257527
00000000: 0a1c 3c3e 34ac a4be a57e ad3e 28f9 223d
00000010: 0ef5 7fbe cb84 61be 9dd8 b23e fc12 d2bd

encoder_layer_mhattentions.1.attention_heads.0.V.weight f4 [8, 8]
0.04480812 -0.10512869 0.013005137 0.020728797 -0.24860327 0.3175265 -0.06037262 -0.31815273
-0.16165347 -0.20696159 0.17098072 -0.28857285 -0.2988652 -0.09792486 -0.25910065 -0.32882026
-0.108584866 0.036762 0.31440058 -0.29064345 0.055531114 -0.2363092 -0.2222761 -0.27038926
0.16568711 -0.25801975 0.23135385 -0.30930793 0.04992786 -0.32897878 -0.14044093 -0.26470712
-0.30462414 -0.32729197 -0.15097043 -0.29278874 -0.054673612 -0.09321818 -0.075270474 0.2155973
-0.13731115 -0.026993126 0.03124252 -0.07630783 -0.08678985 0.09011307 0.1908398 -0.07260099
0.09817818 0.2781349 -0.30827612 -0.35257524 0.24718162 -0.08207512 -0.17117701 0.13030082
0.15665779 -0.33273748 0.17341575 -0.10376744 0.15136793 -0.14237577 0.22481969 0.084400505
00000000: b888 373d b64d d7bd 8013 553c 70cf a93c
00000010: db91 7ebe d592 a23e 4849 77bd eae4 a2be
00000020: 7d88 25be bded 53be 9215 2f3e d2bf 93be
00000030: dc04 99be d48c c8bd d7a8 84be 215b a8be
00000040: be61 debd c093 163d 1df9 a03e 38cf 94be
00000050: 9874 633d 0afb 71be 599c 63be 7670 8abe
00000060: e2a9 293e 2a1b 84be 06e8 6c3e 9c5d 9ebe
00000070: 2881 4c3d e86f a8be bfcf 0fbe b187 87be
00000080: b2f7 9bbe d092 a7be fe97 1abe 68e8 95be
00000090: 70f1 5fbd 2ce9 bebd 6827 9abd 8ac5 5c3e
000000a0: 4b9b 0cbe b020 ddbc 50f0 ff3c 4847 9cbd
000000b0: e0be b1bd 348d b83d 826b 433e d4af 94bd
000000c0: a411 c93d b367 8e3e 5ed6 9dbe be84 b4be
000000d0: 2e1d 7d3e 0017 a8bd 0749 2fbe 946d 053e
000000e0: e66a 203e 915c aabe e693 313e 0684 d4bd
000000f0: 3200 1b3e f4ca 11be 2237 663e 2cda ac3d

encoder_layer_mhattentions.1.attention_heads.0.V.bias f4 [8]
0.10697144 -0.34713754 -0.12317939 -0.030438423 0.27305797 0.28842494 -0.26768914 0.33488783
00000000: d813 db3d 03bc b1be 7a45 fcbd 005a f9bc
00000010: 41ce 8b3e 6fac 933e 8d0e 89be 6b76 ab3e

encoder_layer_mhattentions.1.attention_heads.1.Q.weight f4 [8, 8]
-0.21857367 0.2006937 -0.15642154 0.15355197 -0.037519217 -0.1548728 -0.0025199652 0.269995
0.048318952 0.27649012 -0.23448095 -0.18596913 -0.20880438 0.15335003 0.19544438 0.046754003
-0.19194686 -0.120169386 0.12983844 -0.04078278 -0.29777735 -0.054694086 0.14999118 0.26463673
0.34448817 -0.3408415 0.0806762 -0.1007272 0.29458967 0.05263883 -0.1350015 0.22099718
0.08245471 0.035978824 0.057328105 0.3058336 -0.10965346 0.16535184 -0.12516776 -0.027479142
0.18818459 -0.341673 -0.012460589 0.12169102 -0.30276522 -0.2750383 0.05179265 -0.07674557
-0.079369694 0.0062845945 -0.2584878 -0.018703789 0.30495468 -0.32112545 -0.0105419755 0.2934319
-0.038853914 -0.21051183 -0.101463616 -0.22579643 0.2222968 -0.14811717 -0.208618 -0.31181297
00000000: c7d1 5fbe a682 4d3e f82c 20be ba3c 1d3e
00000010: c0ad 19bd fa96 1ebe 0026 25bb c93c 8a3e
00000020: 18ea 453d 1d90 8d3e c61b 70be b16e 3ebe
00000030: d1d0 55be ca07 1d3e 9222 483e 2081 3f3d
00000040: b88d 44be 5e1b f6bd 5ef4 043e d80b 27bd
00000050: 4676 98be e806 60bd 4a97 193e 777e 873e
00000060: c160 b03e c782 aebe 9039 a53d 104a cebd
00000070: 75d4 963e d09b 573d d53d 0abe 164d 623e
00000080: 04de a83d 885e 133d e0d0 6a3d 3996 9c3e
00000090: fe91 e0bd fe51 293e fa2b 00be f01b e1bc
000000a0: 76b3 403e c3ef aebe 8027 4cbc 2439 f93d
000000b0: 0b04 9bbe d2d1 8cbe 8824 543d c82c 9dbd
000000c0: 948c a2bd 00ef cd3b 8358 84be b038 99bc
000000d0: 0523 9c3e 8e6a a4be 40b8 2cbc b53c 963e
000000e0: 4825 1fbd 6a90 57be 28cc cfbd 2e37 67be
000000f0: c6a1 633e 07ac 17be f59f 55be f3a5 9fbe

encoder_layer_mhattentions.1.attention_heads.1.Q.bias f4 [8]
-0.22196183 0.33809838 -0.15421097 -0.050620526 -0.109254494 0.09658438 0.3372948 -0.19783098
00000000: f649 63be 3b1b ad3e 7be9 1dbe 7857 4fbd
00000010: d2c0 dfbd 08ce c53d e7b1 ac3e 3494 4abe

encoder_layer_mhattentions.1.attention_heads.1.K.weight f4 [8, 8]
0.10272506 -0.015428692 -0.053846985 -0.28365391 -0.12297717 -0.13868193 0.031213582 -0.070562154
0.004865974 -0.024582833 0.12702394 0.23601595 0.21873537 -0.23152405 0.28660372 0.2638053
0.23099509 -0.07473746 0.0015458763 -0.19787127 -0.3374388 -0.041229635 0.1526697 -0.030702531
-0.097498715 0.23675361 -0.07394487 -0.11832462 0.0065332353 -0.016867429 0.15533766 -0.24451089
-0.17486575 0.12551773 0.28312507 -0.01628095 -0.33159286 -0.16428252 -0.09388092 0.26414278
0.066281974 -0.14344633 -0.24069044 0.32430425 0.059481084 0.15201083 0.22575423 0.11836702
0.24176791 -0.31176496 0.12798804 -0.29978335 -0.30702803 0.272642 0.08326495 -0.23472044
0.28436056 -0.10082832 -0.19944647 -0.19728607 0.20061329 0.011685878 -0.23414221 -0.16520329
00000000: 8461 d23d a0c8 7cbc a88e 5cbd 163b 91be
00000010: 74db fbbd a302 0ebe a0b3 ff3c e482 90bd
00000020: c072 9f3b f061 c9bc 9012 023e 2aae 713e
00000030: 2afc 5f3e a414 6dbe b9bd 923e 7d11 873e
00000040: fa89 6c3e f40f 99bd 009f ca3a c49e 4abe
00000050: c7c4 acbe 68e0 28bd 7255 1c3e e083 fbbc
00000060: 68ad c7bd 8a6f 723e 6870 97bd 2e54 f2bd
00000070: c014 d63b 902d 8abc d610 1f3e 1061 7abe
00000080: 0210 33be b887 003e c5f5 903e a05f 85bc
00000090: 8ac6 a9be ad39 28be a444 c0bd b93d 873e
000000a0: d8be 873d 98e3 12be 8e77 76be 350b a63e
000000b0: 70a2 733d baa8 1b3e 1e2c 673e 686a f23d
000000c0: 0292 773e a89f 9fbe 4c0f 033e 347d 99be
000000d0: c732 9dbe bb97 8b3e d086 aa3d 8e5a 70be
000000e0: b597 913e 147f cebd b23b 4cbe 5c05 4abe
000000f0: 926d 4d3e 2076 3f3c fac2 6fbe 0d2b 29be

encoder_layer_mhattentions.1.attention_heads.1.K.bias f4 [8]
0.042627394 -0.096615165 0.17395177 -0.069518745 -0.010010481 0.093025 -0.3389251 0.085968494
00000000: 109a 2e3d 2cde c5bd 6a20 323e d85f 8ebd
00000010: 0003 24bc e483 be3d 9787 adbe 4010 b03d

encoder_layer_mhattentions.1.attention_heads.1.V.weight f4 [8, 8]
0.17273459 0.09909853 0.24149331 -0.32606837 -0.27598822 -0.13842879 0.22826049 -0.27869663
0.29261324 0.1150164 0.18141332 0.1473268 -0.24701935 -0.013019413 -0.11190279 -0.23251615
0.2892736 -0.2577765 -0.023352563 -0.09719139 -0.21559195 0.2282174 0.15410402 -0.23134798
-0.0839442 0.3234472 -0.19302477 0.10554376 0.13505444 0.08969626 0.2780942 0.24080697
0.24330178 -0.18969332 -0.23263371 -0.035987675 -0.07376656 -0.20503783 0.16065672 0.08609635
-0.25903773 0.07012439 -0.16101912 -0.16681989 -0.16742498 -0.2995318 0.16894868 -0.29507226
0.15144607 0.1917434 0.32643816 0.028321505 -0.19029988 0.14151809 0.01295355 -0.23610352
-0.08478162 0.2730383 -0.076580316 -0.19404843 -0.08646262 0.2202082 0.050635636 0.20734563
00000000: 56e1 303e 2cf4 ca3d 064a 773e 6ff2 a6be
00000010: 544e 8dbe 47c0 0dbe 1ebd 693e 53b1 8ebe
00000020: 67d1 953e b88d eb3d 6ac4 393e d6dc 163e
00000030: a4f2 7cbe 604f 55bc 4a2d e5bd b718 6ebe
00000040: ab1b 943e 48fb 83be e04d bfbc 480c c7bd
00000050: 23c4 5cbe d2b1 693e 72cd 1d3e 7ce6 6cbe
00000060: f0ea abbd df9a a53e 49a8 45be 5427 d83d
00000070: b64b 0a3e acb2 b73d 5d62 8e3e 1a96 763e
00000080: 1a24 793e f73e 42be 8837 6ebe d067 13bd
00000090: ec12 97bd 70f5 51be 3283 243e 4853 b03d
000000a0: 98a0 84be 609d 8f3d 32e2 24be d5d2 2abe
000000b0: 7471 2bbe 3b5c 99be e200 2d3e b613 97be
000000c0: ae14 1b3e 6258 443e e722 a73e 8002 e83c
000000d0: f9dd 42be 1eea 103e 203b 543c 1fc5 71be
000000e0: fca1 adbd adcb 8b3e 24d6 9cbd a2b4 46be
000000f0: 5013 b1bd 427e 613e 5067 4f3d 6a52 543e
