model.onnx (onnx, 428321 bytes, 387 tensors)

tokenizer.token_embedding.weight f4 [17, 32]
-0.66271037 -2.391618 0.011633366 0.8194307 2.0109003 0.48462012 0.9416726 1.4035892
-1.5770302 -1.012632 -0.40089488 0.14163601 -0.87517875 -0.5142637 -0.3195879 -0.42595702
-0.28825924 0.60067946 -0.43233615 -0.14594871 -1.630888 -2.1330576 0.70932734 3.3429701
-0.038048945 0.6246829 0.6136377 1.5993282 -0.68139386 -3.3969429 0.69599754 -0.24034365
-0.65983105 -1.8345318 1.5243706 -0.59421986 3.0772686 0.8282021 -0.09038492 1.0492172
-1.4199895 -0.6853105 -0.22535808 0.32220355 -0.8292352 -0.53100175 -0.6835339 -0.5386054
1.882322 -0.63128734 0.10767299 1.1391131 1.2773578 1.3871814 1.0375341 0.30660957
-0.98832744 0.14985637 1.6936362 0.70450556 -0.50750613 -1.7460123 -0.33684245 0.879997
-0.4139318 0.1747887 -0.18417312 -0.098391294 4.245156 0.21097842 2.0525534 0.18853498
-1.3737329 -0.23104736 -0.62595886 0.6857945 -0.27507305 -0.34382886 -0.58885574 -0.4283395
1.8817481 2.068905 -0.39348412 -2.4311619 -1.3320208 -0.64571464 -0.18239298 -2.1602213
-1.0462832 1.1453334 0.38327083 1.1892557 0.595618 -0.20255843 -0.6302035 -0.11438989
-0.96767455 1.9682169 0.15084201 -0.87936944 0.08909791 -0.60289925 1.8337132 1.2635857
-1.4969913 0.8878998 -1.1784624 0.73585 -0.07277414 -0.74487877 -0.25580478 -0.44333497
0.7617214 0.53159446 1.9262455 -0.5514639 -0.5374719 1.2629415 1.1284121 -3.1267955
-1.4861428 0.6853083 0.22417882 0.16238292 0.3407714 0.92640406 -1.1343076 0.51579183
-0.6962788 -0.13475811 -0.117595196 0.5986753 -0.5919394 -1.6307005 2.7408082 -0.34545726
-0.07428689 -0.22419082 0.67412204 1.4619592 -0.18246189 -0.039514214 -1.4379576 -0.15335786
1.14125 0.39689225 1.952587 -1.3335199 -1.5684972 0.5679415 0.06077706 -1.2178612
-1.0877272 0.4448791 -0.93047136 -0.37891996 0.54903555 2.325979 -1.3377435 -0.42355323
0.7349654 0.9635233 2.2623007 0.30335155 -4.2254376 -1.122544 0.7658491 0.8564796
-0.17405488 1.2236824 0.6294904 1.3725429 0.0036689874 -0.22892374 -1.0594456 0.098203234
2.2518234 0.85320413 0.274985 -0.6309653 0.11148346 -0.051104445 0.6256695 -0.098648004
0.23154841 -0.77893317 -0.6139319 -0.18389198 -0.46996868 1.3197355 -1.3221812 -0.73015755
-0.3825563 -1.7294382 0.48548216 0.6690058 -1.6576298 -1.9129115 0.06736144 -0.100775905
-0.21921524 1.2276424 0.7383678 1.3658818 0.009787488 -0.16621359 -1.1942605 0.15171129
1.1759439 0.3917598 -1.9225285 0.21714239 0.49573764 0.32346597 -0.40677032 3.088278
-1.2674482 0.41390678 -0.59257126 -0.9338709 0.37629572 2.913313 -1.2843542 -0.4299191
-0.8139544 0.25809228 3.047952 0.9503278 0.5677993 -3.6078699 -3.672605 -0.461014
0.005649753 2.3729703 1.2902676 1.1859236 0.10624207 -0.4281348 -0.92668873 0.20462571
0.74199736 0.2953795 -1.8343873 0.8083686 2.02746 1.35189 0.1599346 1.2693712
0.16313484 -0.3121813 -0.9489982 0.67084503 -0.1666396 0.9503566 -1.450704 -0.46486905
00000000: 63a7 29bf 4510 19c0 e099 3e3c 36c6 513f
00000010: 97b2 0040 2120 f83e 7511 713f d0a8 b33f
00000020: 20dc c9bf ed9d 81bf 1842 cdbe 0809 113e
00000030: b70b 60bf c9a6 03bf 06a1 a3be 0a17 dabe
00000040: b796 93be 21c6 193f 2a5b ddbe 9473 15be
00000050: f0c0 d0bf 0484 08c0 7a96 353f 39f3 5540
00000060: 36d9 1bbd 38eb 1f3f 5c17 1d3f c9b6 cc3f
00000070: d46f 2ebf 8367 59c0 e52c 323f a51c 76be
00000080: b0ea 28bf f0d1 eabf 931e c33f cb1e 18bf
00000090: f8f1 4440 0e05 543f bb1b b9bd c04c 863f
000000a0: 37c2 b5bf 8270 2fbf 45c4 66be ddf7 a43e
000000b0: c248 54bf bbef 07bf 14fc 2ebf 0be2 09bf
000000c0: edef f03f 0c9c 21bf a883 dc3d 75ce 913f
000000d0: 7680 a33f 298f b13f ebcd 843f eefb 9c3e
000000e0: 0703 7dbf f373 193e 12c9 d83f 7a5a 343f
000000f0: eceb 01bf 557d dfbf 9d76 acbe 7c47 613f
00000100: deee d3be cffb 323e e197 3cbe 6081 c9bd
00000110: 51d8 8740 ba0a 583e 095d 0340 500f 413e
00000120: 7bd6 afbf ae97 6cbe d73e 20bf 3a90 2f3f
00000130: 60d6 8cbe 560a b0be 40bf 16bf 514f dbbe
00000140: 1fdd f03f f168 0440 c076 c9be 2898 1bc0
00000150: a87f aabf 8e4d 25bf 3ac5 3abe 1141 0ac0
00000160: 9cec 85bf 499a 923f 133c c43e 8839 983f
00000170: 6c7a 183f 7a6b 4fbe 0455 21bf 3f45 eabd
00000180: 85b9 77bf 88ee fb3f 5476 1a3e 5b1e 61bf
00000190: f778 b63d 9b57 1abf 1db7 ea3f 2dbd a13f
000001a0: 699d bfbf 674d 633f dbd7 96bf aa60 3c3f
000001b0: 9c0a 95bd 60b0 3ebf d8f8 82be cdfc e2be
000001c0: 2c00 433f 9316 083f 368f f63f bd2c 0dbf
000001d0: c297 09bf 11a8 a13f cf6f 903f 6b1d 48c0
000001e0: ed39 bebf 5d70 2f3f 228f 653e b547 263e
000001f0: 9779 ae3e d128 6d3f fe30 91bf ef0a 043f
00000200: 543f 32bf 08fe 09be c0d5 f0bd c942 193f
00000210: 5789 17bf cbba d0bf 6769 2f40 c6df b0be
00000220: ba23 98bd 4792 65be 4393 2c3f 7b21 bb3f
00000230: 4ad7 3abe a8d9 21bd ff0e b8bf d809 1dbe
00000240: 7b14 923f 7635 cb3e 5fee f93f c8b0 aabf
00000250: 84c4 c8bf 9d64 113f 5ef1 783d e0e2 9bbf
00000260: a53a 8bbf 32c7 e33e 5f33 6ebf cc01 c2be
00000270: 988d 0c3f d7dc 1440 2e3b abbf f8db d8be
00000280: b126 3c3f 77a9 763f 89c9 1040 e550 9b3e
00000290: c936 87c0 86af 8fbf b00e 443f 3f42 5b3f
000002a0: 713b 32be a0a1 9c3f 4826 213f 7caf af3f
000002b0: 6573 703b fc6a 6abe ea9b 87bf c71e c93d
000002c0: e01d 1040 966b 5a3f d5ca 8c3e f186 21bf
000002d0: 7151 e43d e552 51bd e02b 203f f707 cabd
000002e0: 071b 6d3e 2a68 47bf a42a 1dbf 2e4e 3cbe
000002f0: bc9f f0be 18ed a83f 3c3d a9bf 9beb 3abf
00000300: 6bde c3be 3b5e ddbf 1e91 f83e f743 2b3f
00000310: 372d d4bf 49da f4bf cbf4 893d 9963 cebd
00000320: f679 60be 6323 9d3f ac05 3d3f 37d5 ae3f
00000330: b35b 203c e533 2abe 87dd 98bf 345a 1b3e
00000340: 5485 963f be94 c83e 6a15 f6bf 935a 5e3e
00000350: 53d1 fd3e 559d a53e 3344 d0be 59a6 4540
00000360: be3b a2bf 97eb d33e c0b2 17bf 2a12 6fbf
00000370: d5a9 c03e b873 3a40 b865 a4bf 5b1e dcbe
00000380: 515f 50bf ac24 843e a511 4340 af48 733f
00000390: 4c5b 113f 57e7 66c0 f60b 6bc0 070a ecbe
000003a0: 9021 b93b bfde 1740 7d27 a53f 58cc 973f
000003b0: 7195 d93d 7c34 dbbe 793b 6dbf 6789 513e
000003c0: 8af3 3d3f fb3b 973e 34cd eabf 3ff1 4e3f
000003d0: e8c1 0140 bb0a ad3f e5c5 233e c17a a23f
000003e0: d20c 273e 3ad6 9fbe 8cf1 72bf 80bc 2b3f
000003f0: 92a3 2abe 924a 733f abb0 b9bf 5103 eebe

tokenizer.positional_embedding.weight f4 [9, 32]
0.4700923 0.20273691 -0.3934333 0.22447181 0.2340217 1.7411315 -0.07260665 -0.414805
-0.5553545 0.96097213 2.1445003 -1.1141601 -1.1190037 -1.3598399 0.39995125 -0.36019787
0.20667298 -0.69246185 0.39354938 1.0542623 -0.17680907 -0.39591837 0.3718326 0.13081323
-0.80130786 0.47728324 2.158736 -0.4128292 -0.18964212 -0.2781698 -0.93033934 -3.3448303
0.8204853 0.83990103 0.39225954 -0.16433376 0.92664635 0.11339981 0.1297551 0.0031760526
1.8314384 0.5535206 -1.0125599 -0.22256772 -0.37356693 0.21815279 1.0064995 -0.8668411
-0.026562609 -0.7290595 0.7631494 -1.3496835 0.84065735 0.089222945 0.66521144 0.61271715
0.6881681 -0.5269714 1.1265347 -2.1152859 0.59846884 0.5182191 2.1379404 -1.0691539
0.096658036 0.8955855 -0.02478811 -0.512125 -0.07830667 -0.33846554 0.08957961 0.81727654
0.9854296 0.34872982 -1.7855127 -1.8296034 1.7511216 -0.34982783 -2.0489316 0.9143109
0.57344306 0.63062227 -0.12329299 -0.75810295 1.5137665 -1.1544489 -0.66270185 -0.29478738
0.18341434 -0.49718216 -0.24885759 -1.4536357 -0.14325674 -0.5180582 1.1704409 -1.2573333
-0.9501046 -1.2748715 -1.3506167 -0.899446 -0.23204851 -1.0977423 0.14149486 -0.5615694
-1.230949 0.502583 0.14881657 -1.5179627 1.6285293 -0.79971296 -1.9091381 0.6091179
-0.31392843 -1.0263237 -0.7523606 -2.2648222 1.4279014 0.43868792 0.33216834 -1.0464895
1.6472149 2.0566127 0.55407304 -0.74450517 0.62835354 -0.46483135 -1.5636804 -0.7727292
1.141376 -0.64811504 0.8605447 -1.5984498 -0.24754815 -1.7696096 0.6068652 0.4026536
-0.8977123 0.9240771 2.6704102 0.05220431 -0.5046639 0.07471519 -0.014938173 -0.39174002
0.121491544 -1.349478 0.83119994 0.15603667 0.010248508 1.0514315 -0.99553555 -0.33120406
0.71727306 0.43816558 0.06867975 0.007165761 1.7139734 0.47453618 1.0448022 1.0460017
-0.4168204 -1.4902049 1.8935858 -1.5991942 0.05727882 0.9340706 0.47197342 -0.92880005
-0.6290943 -0.5461003 -0.046235323 0.4973626 -0.5206448 1.4853486 0.2936611 -1.5072787
-1.4140327 1.1362597 0.23573495 0.71283346 -0.69813406 2.7585607 0.65825677 0.60214216
-0.29726368 0.65422785 -2.6300402 0.17154182 -0.7795027 -0.25246876 -1.1178328 0.79812616
-0.7318484 0.32390594 -0.32009935 0.2184133 0.13114235 -0.4660136 -1.6587893 -0.36077344
0.5137876 -1.3770709 -1.0775394 0.38827735 -1.9267888 1.2250665 -0.30838254 1.2262002
0.89079475 -0.21927373 -1.8900324 0.5133214 -1.1793526 0.7170015 1.311846 -0.9727649
-0.54754364 0.049572922 0.2318313 1.7946624 -0.40228552 0.86574715 1.3039097 0.34450632
-1.3548048 0.6179691 -1.4610583 0.39346632 -0.05588112 0.052607946 -0.2524377 0.950972
0.9653806 -1.8488913 -0.9000267 1.3788959 -0.658821 -1.2112349 0.41896096 2.1089456
1.1111019 0.31072965 -0.3584081 -1.2385154 -0.22149944 0.58210367 -1.2393054 -0.59379375
0.82173914 -2.0362093 -0.07471262 -0.7031946 -1.8285127 -1.0226103 -0.75310427 1.6246698
00000000: f0af f03e 449a 4f3e 1770 c9be f0db 653e
00000010: 62a3 6f3e 66dd de3f ccb2 94bd 5261 d4be
00000020: b62b 0ebf 4502 763f 7e3f 0940 cc9c 8ebf
00000030: 833b 8fbf 3c0f aebf 69c6 cc3e db6b b8be
00000040: 15a2 533e 2e45 31bf 4e7f c93e 11f2 863f
00000050: 700d 35be d0b5 cabe d860 be3e e7f3 053e
00000060: 8322 4dbf 785e f43e bb28 0a40 595e d3be
00000070: 8b31 42be 466c 8ebe b82a 6ebf b311 56c0
00000080: 530b 523f c103 573f 3ed6 c83e 1c47 28be
00000090: b238 6d3f 293e e83d 85de 043e 5225 503b
000000a0: 936c ea3f 87b3 0d3f 909b 81bf cbe8 63be
000000b0: 2a44 bfbe 7263 5f3e fad4 803f 4ce9 5dbf
000000c0: d499 d9bc a5a3 3abf c25d 433f 6ec2 acbf
000000d0: 5235 573f 85ba b63d 4c4b 2a3f 08db 1c3f
000000e0: c92b 303f 99e7 06bf 4a32 903f d860 07c0
000000f0: 4135 193f 02aa 043f 04d4 0840 09da 88bf
00000100: a6f4 c53d 1745 653f 6f10 cbbc a01a 03bf
00000110: 3f5f a0bd 5b4b adbe 8475 b73d 0939 513f
00000120: 1d45 7c3f b78c b23e ae8b e4bf 7230 eabf
00000130: c124 e03f a21c b3be b221 03c0 4710 6a3f
00000140: 2acd 123f 7670 213f 0981 fcbd 0913 42bf
00000150: 1ac3 c13f fbc4 93bf d4a6 29bf 5fee 96be
00000160: f8d0 3b3e a98e febe 86d4 7ebe bc10 babf
00000170: e5b1 12be 769f 04bf 02d1 953f 4cf0 a0bf
00000180: 0e3a 73bf fd2e a3bf 02e1 acbf 1842 66bf
00000190: 209e 6dbe d282 8cbf 07e4 103e 03c3 0fbf
000001a0: bd8f 9dbf 48a9 003f 5f63 183e 9a4c c2bf
000001b0: a673 d03f fdb9 4cbf a35e f4bf 27ef 1b3f
000001c0: 3abb a0be 935e 83bf b49a 40bf d9f2 10c0
000001d0: 79c5 b63f b49b e03e f811 aa3e 5ef3 85bf
000001e0: f0d7 d23f 8b9f 0340 bbd7 0d3f e497 3ebf
000001f0: c7db 203f 60fe edbe ae26 c8bf 95d1 45bf
00000200: 9c18 923f deea 25bf a84c 5c3f 019a ccbf
00000210: 437d 7dbe 9182 e2bf 855b 1b3f 9d28 ce3e
00000220: 79d0 65bf 5190 6c3f 00e8 2a40 30d4 553d
00000230: a731 01bf 4704 993d 3dbf 74bc 2692 c8be
00000240: 8fd0 f83d b2bb acbf 85c9 543f 14c8 1f3e
00000250: 5ce9 273c 4f95 863f 6bdb 7ebf 9493 a9be
00000260: 359f 373f 3d57 e03e f8a7 8c3d c3ce ea3b
00000270: 7b63 db3f 68f6 f23e 14bc 853f 62e3 853f
00000280: 7c69 d5be 09bf bebf 0561 f23f 65b2 ccbf
00000290: 329d 6a3d 401f 6f3f 80a6 f13e d7c5 6dbf
000002a0: 530c 21bf 3bcd 0bbf 4061 3dbd 50a6 fe3e
000002b0: fa48 05bf e71f be3f bf5a 963e 82ee c0bf
000002c0: 06ff b4bf f570 913f 8164 713e 417c 363f
000002d0: eab8 32bf 428c 3040 8483 283f fd25 1a3f
000002e0: f232 98be 7a7b 273f 9452 28c0 a9a8 2f3e
000002f0: 7d8d 47bf 9643 81be 2515 8fbf ff51 4c3f
00000300: 6b5a 3bbf 00d7 a53e 10e4 a3be bca7 5f3e
00000310: 2e4a 063e 5699 eebe 3553 d4bf 4cb7 b8be
00000320: 9687 033f dc43 b0bf d0ec 89bf 4acc c63e
00000330: 04a1 f6bf fbce 9c3f 51e4 9dbe 21f4 9c3f
00000340: 200b 643f 4b89 60be 95ec f1bf 0869 033f
00000350: 07f5 96bf 698d 373f 92ea a73f 1f07 79bf
00000360: d22b 0cbf fa0c 4b3d 2f65 6d3e 7fb7 e53f
00000370: 5ef8 cdbe 9ba1 5d3f 83e6 a63f 2263 b03e
00000380: 3e6a adbf 3933 1e3f f503 bbbf 6b74 c93e
00000390: 9ae3 64bd 6e7b 573d 843f 81be e772 733f
000003a0: 2f23 773f 78a8 ecbf 2668 66bf a97f b03f
000003b0: 7ea8 28bf bf09 9bbf 0d82 d63e f7f8 0640
000003c0: 9638 8e3f f517 9f3e 4481 b7be ac87 9ebf
000003d0: c0d0 62be bf04 153f 8fa1 9ebf de02 18bf
000003e0: 7f5d 523f 4151 02c0 ee02 99bd 9004 34bf
000003f0: b40c eabf e5e4 82bf 71cb 40bf 2ef5 cf3f

encoder_layer_mhattentions.0.attention_heads.0.Q.bias f4 [8]
-0.114427134 -0.8340429 0.09604959 -0.018732212 0.17955199 -0.32898802 1.454831 0.67041606
00000000: c658 eabd d683 55bf a6b5 c43d 4c74 99bc
00000010: 7adc 373e 1e71 a8be e737 ba3f 63a0 2b3f

encoder_layer_mhattentions.0.attention_heads.0.K.bias f4 [8]
0.07391686 0.18226694 0.011532785 -0.07420691 -0.1516965 -0.13645957 0.028140722 -0.124685064
00000000: b961 973d 2fa4 3a3e 02f4 3c3c cbf9 97bd
00000010: 5456 1bbe 0fbc 0bbe 5f87 e63c e25a ffbd

encoder_layer_mhattentions.0.attention_heads.0.V.bias f4 [8]
-0.2325322 -0.31511408 -0.10937833 0.3197688 -0.06231283 0.21362609 0.04254496 0.1606277
00000000: ec1c 6ebe a256 a1be bf01 e0bd bcb8 a33e
00000010: bd3b 7fbd ccc0 5a3e a043 2e3d 967b 243e

encoder_layer_mhattentions.0.attention_heads.1.Q.bias f4 [8]
0.014677829 0.05158904 0.04891476 -0.15956935 -0.1421015 -0.042373616 0.12508914 -0.24014539
00000000: 477b 703c 074f 533d d85a 483d 2666 23be
00000010: 0e83 11be f58f 2dbd 5e17 003e ace8 75be

encoder_layer_mhattentions.0.attention_heads.1.K.bias f4 [8]
-0.13660836 0.16997659 -0.101994395 0.25829384 0.19011474 -0.15862799 -0.13959521 -0.1382822
00000000: 10e3 0bbe 580e 2e3e 70e2 d0bd 173f 843e
00000010: 70ad 423e 606f 22be 0cf2 0ebe d999 0dbe

encoder_layer_mhattentions.0.attention_heads.1.V.bias f4 [8]
0.22796294 -0.07015072 -0.58728707 -0.017582582 -0.6177702 -0.03619294 -0.46352026 0.050469346
00000000: 1e6f 693e 2eab 8fbd 7258 16bf 5909 90bc
00000010: 3026 1ebf 0c3f 14bd 8752 edbe f2b8 4e3d

encoder_layer_mhattentions.0.attention_heads.2.Q.bias f4 [8]
0.10945294 0.2595733 0.15014008 -0.37032846 -0.11324433 0.10941305 -0.90537846 1.0270555
00000000: dd28 e03d cbe6 843e 52be 193e b19b bdbe
00000010: a5ec e7bd f313 e03d e2c6 67bf 8e76 833f

encoder_layer_mhattentions.0.attention_heads.2.K.bias f4 [8]
0.3758541 0.074926525 -0.36103976 -0.15100765 0.011608588 -0.32376373 0.3072729 0.017431768
00000000: f36f c03e 1473 993d 34da b8be c0a1 1abe
00000010: f231 3e3c 5cc4 a5be e052 9d3e 11cd 8e3c

encoder_layer_mhattentions.0.attention_heads.2.V.bias f4 [8]
0.40314528 -0.28166834 -0.10957984 0.023960754 -0.05724501 0.4569728 -0.11739208 0.18495874
00000000: 0f69 ce3e d536 90be 656b e0bd 5849 c43c
00000010: be79 6abd 57f8 e93e 426b f0bd d365 3d3e

encoder_layer_mhattentions.0.attention_heads.3.Q.bias f4 [8]
-0.59633946 -0.11132856 0.1270838 -0.10403149 0.19820158 0.568899 -0.47250706 0.6913163
00000000: b4a9 18bf 3a00 e4bd 4122 023e 760e d5bd
00000010: 5bf5 4a3e 5da3 113f 72ec f1be 1bfa 303f

encoder_layer_mhattentions.0.attention_heads.3.K.bias f4 [8]
-0.26600495 0.08969112 -0.15196629 0.26323977 0.37607527 0.18184756 0.140027 0.08275542
00000000: cd31 88be faaf b73d 0d9d 1bbe 5dc7 863e
00000010: f08c c03e 3f36 3a3e 3d63 0f3e ac7b a93d

encoder_layer_mhattentions.0.attention_heads.3.V.bias f4 [8]
0.08222845 0.17767106 -0.080179214 -0.09981017 -0.59741986 0.1015939 0.3676238 0.1921491
00000000: 6467 a83d 67ef 353e 0035 a4bd 4669 ccbd
00000010: 82f0 18bf 7610 d03d 3039 bc3e bcc2 443e

encoder_layer_mhattentions.0.output_layer.bias f4 [32]
0.22912358 -0.32825026 -0.52692425 -0.5878304 0.11641772 0.46335414 0.30079788 -0.49963346
-0.34468964 0.09262721 0.39492857 -0.14840926 -0.041062467 0.6275889 0.10512087 -0.08873982
-0.4923179 0.46206188 0.45132232 -0.92081976 0.5084671 -0.22971374 0.9618942 0.3456005
0.030705418 0.57638836 0.101134785 -0.19672059 -0.3454406 0.097144336 -0.2317683 -0.16907832
00000000: 5f9f 6a3e 6b10 a8be 82e4 06bf 0e7c 16bf
00000010: 6a6c ee3d c13c ed3e 2e02 9a3e f5cf ffbe
00000020: 297b b0be 56b3 bd3d 1434 ca3e 99f8 17be
00000030: 1e31 28bd aba9 203f 9c49 d73d 39bd b5bd
00000040: 1711 fcbe 6093 ec3e b813 e73e d8ba 6bbf
00000050: e62a 023f 143a 6bbe b33e 763f 8cf2 b03e
00000060: ee89 fb3c 308e 133f c11f cf3d 1f71 49be
00000070: 97dd b0be 9cf3 c63d ab54 6dbe de22 2dbe

encoder_layer_mhattentions.1.attention_heads.0.Q.bias f4 [8]
-0.073431484 -1.1101129 -0.3446161 0.08209199 -1.606662 0.2162819 0.13737215 0.07541395
00000000: 3f63 96bd 2e18 8ebf 8571 b0be d81f a83d
00000010: 1aa7 cdbf 0179 5d3e 49ab 0c3e a172 9a3d

encoder_layer_mhattentions.1.attention_heads.0.K.bias f4 [8]
0.2756257 -0.3791901 0.27940124 0.049267225 -0.37698716 -0.19567928 0.32870907 -0.11180309
00000000: d01e 8d3e 3425 c2be ae0d 8f3e 6ecc 493d
00000010: 7604 c1be 2660 48be 8e4c a83e 05f9 e4bd

encoder_layer_mhattentions.1.attention_heads.0.V.bias f4 [8]
-0.16746981 -0.048267677 0.06523108 -0.012675042 0.12206877 0.0044179074 -0.08696158 0.03878103
00000000: 357d 2bbe 54b4 45bd df97 853d fbaa 4fbc
00000010: 31ff f93d 18c4 903b ea18 b2bd dbd8 1e3d

encoder_layer_mhattentions.1.attention_heads.1.Q.bias f4 [8]
0.080898196 0.26308024 -0.35653666 -0.11622885 -0.3970489 -0.40464243 0.4128458 -0.3239782
00000000: f4ad a53d 74b2 863e f98b b6be 6409 eebd
00000010: fe49 cbbe 4b2d cfbe 8660 d33e 78e0 a5be

encoder_layer_mhattentions.1.attention_heads.1.K.bias f4 [8]
0.011658918 -0.02903687 0.15838136 -0.10258789 -0.10179766 0.08095134 -0.41264367 0.12124622
00000000: 0c05 3f3c bbde edbc b92e 223e 9a19 d2bd
00000010: 4b7b d0bd d1c9 a53d 0846 d3be f04f f83d

encoder_layer_mhattentions.1.attention_heads.1.V.bias f4 [8]
0.06348521 0.008818681 0.049196664 -0.025608983 0.21000347 -0.010173582 0.018565092 -0.18008909
00000000: 8904 823d 3b7c 103c 7182 493d eec9 d1bc
00000010: 260b 573e 18af 26bc d215 983c 4669 38be

encoder_layer_mhattentions.1.attention_heads.2.Q.bias f4 [8]
-0.3977917 1.0795807 -0.1476327 0.112842984 0.4809751 -0.026394617 -0.12251778 -0.2063088
00000000: 5bab cbbe b32f 8a3f 072d 17be 391a e73d
00000010: 5e42 f63e 8639 d8bc 9aea fabd 9d42 53be

encoder_layer_mhattentions.1.attention_heads.2.K.bias f4 [8]
0.044028446 -0.09604599 -0.4088963 -0.097614795 0.13813 -0.15733738 -0.2658184 -0.12291614
00000000: 2c57 343d c3b3 c4bd db5a d1be 44ea c7bd
00000010: f371 0d3e 0d1d 21be 5919 88be 75bb fbbd

encoder_layer_mhattentions.1.attention_heads.2.V.bias f4 [8]
0.06931716 -0.025132222 -0.035984926 -0.057764955 -0.011092539 -0.022205815 -0.03319764 0.5286979
00000000: 28f6 8d3d 17e2 cdbc ee64 13bd f29a 6cbd
00000010: 7bbd 35bc f8e8 b5bc 40fa 07bd bf58 073f

encoder_layer_mhattentions.1.attention_heads.3.Q.bias f4 [8]
0.057596445 0.10928309 -0.030928493 0.06112939 -0.10392489 0.08030344 -0.40211847 0.47195697
00000000: 40ea 6b3d d0cf df3d c05d fdbc d062 7a3d
00000010: 93d6 d4bd 2176 a43d 79e2 cdbe 58a4 f13e

encoder_layer_mhattentions.1.attention_heads.3.K.bias f4 [8]
0.02431412 -0.15798122 0.086923435 -0.043414693 0.18154016 0.10953816 0.15409617 0.34248558
00000000: 682e c73c d4c5 21be ea04 b23d 9bd3 31bd
00000010: aae5 393e 8b55 e03d 63cb 1d3e 455a af3e

encoder_layer_mhattentions.1.attention_heads.3.V.bias f4 [8]
-0.04835258 0.03371804 0.026655298 -0.10302318 0.1859224 -0.07682452 0.116248146 -0.0008509744
00000000: 5b0d 46bd ed1b 0a3d 365c da3c d1fd d2bd
00000010: 7162 3e3e 2d56 9dbd 8213 ee3d ed13 5fba

encoder_layer_mhattentions.1.output_layer.bias f4 [32]
0.1780044 -0.0019138558 -0.13570298 0.06910961 -0.03830842 -0.37410343 -0.23249282 -0.3485098
-0.03587723 0.2704246 0.41400263 0.045755584 0.08863421 0.58826876 0.22761235 0.16727842
0.13558392 -0.14919312 -0.46055925 0.016392022 0.41931328 -0.06178596 0.658301 -0.03906641
0.038362037 -0.58292115 -0.070028275 0.24277294 -0.25825748 0.28510588 0.18172054 -0.041055024
00000000: c946 363e 58da faba b9f5 0abe 5789 8d3d
00000010: 4ae9 1cbd 7c8a bfbe 9912 6ebe e06f b2be
00000020: 01f4 12bd 1875 8a3e 27f8 d33e 356a 3b3d
00000030: da85 b53d c898 163f 3613 693e 094b 2b3e
00000040: 83d6 0a3e 15c6 18be 6cce ebbe 9048 863c
00000050: 3bb0 d63e 4613 7dbd 6a86 283f 1a04 20bd
00000060: 8321 1d3d 523a 15bf fc6a 8fbd 7899 783e
00000070: 533a 84be 66f9 913e f314 3a3e 5029 28bd

encoder_layer_mhattentions.2.attention_heads.0.Q.bias f4 [8]
0.24877752 -0.557804 -0.09275238 -0.19249949 0.11928558 -0.4786986 -0.03788645 -0.040756453
00000000: 89bf 7e3e 3ecc 0ebf f6f4 bdbd 961e 45be
00000010: 004c f43d fc17 f5be d22e 1bbd 3df0 26bd

encoder_layer_mhattentions.2.attention_heads.0.K.bias f4 [8]
-0.18946384 0.3454586 0.3303516 0.004560985 0.081326686 -0.28352824 0.10395449 -0.2561285
00000000: cf02 42be f3df b03e d823 a93e 5174 953b
00000010: 9b8e a63d 9d2a 91be 17e6 d43d 4623 83be

encoder_layer_mhattentions.2.attention_heads.0.V.bias f4 [8]
-0.0022844994 0.016442243 -0.17303786 0.01524796 -0.07171485 0.06769718 0.021534428 -0.011693248
00000000: 8ab7 15bb e2b1 863c d630 31be 94d2 793c
00000010: 3cdf 92bd d2a4 8a3d f868 b03c 0995 3fbc

encoder_layer_mhattentions.2.attention_heads.1.Q.bias f4 [8]
0.71077514 -1.3017191 0.07591564 -0.0103988955 -0.42504287 0.017459812 0.5773759 0.38062236
00000000: 5cf5 353f bb9e a6bf a979 9b3d 2160 2abc
00000010: 389f d9be e107 8f3c e8ce 133f efe0 c23e

encoder_layer_mhattentions.2.attention_heads.1.K.bias f4 [8]
0.37984943 -0.16444017 -0.11797806 0.053028997 -0.11050877 0.23679765 -0.12764159 -0.24314256
00000000: a07b c23e 0163 28be 7b9e f1bd ef34 593d
00000010: 6c52 e2bd 157b 723e 7ab4 02be 5dfa 78be

encoder_layer_mhattentions.2.attention_heads.1.V.bias f4 [8]
-0.09237592 -0.0022296235 0.007687975 0.010029412 0.0718618 0.037811153 -0.015142601 0.034005743
00000000: 962f bdbd e01e 12bb 69eb fb3b 6752 243c
00000010: 482c 933d dedf 1a3d ac18 78bc 9b49 0b3d

encoder_layer_mhattentions.2.attention_heads.2.Q.bias f4 [8]
0.19506718 0.27329662 0.39733937 -0.103294626 0.24800773 0.2029058 -0.21410222 -0.12435611
00000000: b1bf 473e 89ed 8b3e 1170 cb3e 228c d3bd
00000010: bdf5 7d3e 8ac6 4f3e 9d3d 5bbe 6bae febd

encoder_layer_mhattentions.2.attention_heads.2.K.bias f4 [8]
-0.1276471 0.2680626 0.30277017 0.270411 -0.22393906 0.15912995 0.14223063 -0.31962973
00000000: ecb5 02be 803f 893e b104 9b3e 5073 8a3e
00000010: 4850 65be f6f2 223e e8a4 113e 82a6 a3be

encoder_layer_mhattentions.2.attention_heads.2.V.bias f4 [8]
0.0015402331 -0.0255213 0.03742127 -0.00698651 -0.013918053 0.11035888 -0.06112095 -0.013745804
00000000: a6e1 c93a 0c12 d1bc 0c47 193d 18ef e4bb
00000010: 8c08 64bc d603 e23d f659 7abd 1536 61bc

encoder_layer_mhattentions.2.attention_heads.3.Q.bias f4 [8]
0.025370149 0.26848477 -0.46724823 -0.64849555 0.31274322 0.3503984 -0.6375126 -0.17612624
00000000: 0fd5 cf3c d676 893e 293b efbe ce03 26bf
00000010: e11f a03e 6b67 b33e 0734 23bf 705a 34be

encoder_layer_mhattentions.2.attention_heads.3.K.bias f4 [8]
0.09382687 -0.13699532 0.2085055 -0.55036324 -0.2244227 0.26687115 -0.121259466 0.10934574
00000000: 4d28 c03d 8048 0cbe 7782 553e 9be4 0cbf
00000010: 10cf 65be 56a3 883e e256 f8bd a9f0 df3d

encoder_layer_mhattentions.2.attention_heads.3.V.bias f4 [8]
-0.0013737764 0.006848261 0.008902786 0.0105400905 0.05118206 0.010876962 0.02379289 -0.0058464254
00000000: 4910 b4ba 6167 e03b fedc 113c 58b0 2c3c
00000010: 48a4 513d 4935 323c 4fe9 c23c 5f93 bfbb

encoder_layer_mhattentions.2.output_layer.bias f4 [32]
-0.0796461 0.058537934 -0.71482813 -0.026226785 -0.374475 0.17023261 -0.1802162 -0.17786257
-0.23613606 -0.08866175 -0.27425367 0.035317056 0.33626926 0.45595357 0.019931406 0.21665075
-0.069946 -0.17413293 0.03852864 -0.18167011 0.14937498 -0.28398094 0.40421617 -0.018536095
0.24795455 -0.060373347 0.186716 0.023516797 -0.0040798127 0.27426746 0.035056237 -0.04130574
00000000: 7f1d a3bd 79c5 6f3d fafe 36bf 8ed9 d6bc
00000010: 30bb bfbe 7551 2e3e 988a 38be 9b21 36be
00000020: a7cd 71be 4b94 b5bd fa6a 8cbe 9ea8 103d
00000030: 7c2b ac3e bf72 e93e 3047 a33c b2d9 5d3e
00000040: d93f 8fbd e74f 32be 35d0 1d3d bb07 3abe
00000050: c1f5 183e f365 91be 6cf5 ce3e 02d9 97bc
00000060: cce7 7d3e 0b4a 77bd 7b32 3f3e 4ca6 c03c
00000070: f3af 85bb c96c 8c3e 2197 0f3d 3530 29bd

encoder_layer_mhattentions.3.attention_heads.0.Q.bias f4 [8]
0.0063993502 0.05065469 -0.013223759 -0.5414314 -0.36654747 -0.16129845 -0.36727452 -0.0050698677
00000000: a4b1 d13b 4b7b 4f3d 77a8 58bc 409b 0abf
00000010: 1cac bbbe 6c2b 25be 680b bcbe 2221 a6bb

encoder_layer_mhattentions.3.attention_heads.0.K.bias f4 [8]
-0.23551124 0.00012142114 0.35693264 -0.26958618 0.2807368 0.21096863 0.10695555 0.0391382
00000000: dc29 71be 7aa3 fe38 e0bf b63e 3307 8abe
00000010: bcbc 8f3e 2908 583e 830b db3d 614f 203d

encoder_layer_mhattentions.3.attention_heads.0.V.bias f4 [8]
-0.016340503 0.1718359 0.020152295 0.035510473 -0.046230514 -0.13166103 0.1801758 0.005808233
00000000: 85dc 85bc c0f5 2f3e 6d16 a53c 6e73 113d
00000010: 355c 3dbd 26d2 06be 0180 383e fd52 be3b

encoder_layer_mhattentions.3.attention_heads.1.Q.bias f4 [8]
-0.68123186 0.6264586 -0.12145083 -0.96136856 -0.18252797 1.6573329 -0.08992149 0.9547341
00000000: 3665 2ebf 975f 203f 36bb f8bd 401c 76bf
00000010: 9de8 3abe 7c23 d43f c228 b8bd 7469 743f

encoder_layer_mhattentions.3.attention_heads.1.K.bias f4 [8]
-0.186288 0.29749417 -0.19361563 0.02474459 0.37074226 0.2635484 -0.12804843 -0.06717905
00000000: 48c2 3ebe 2851 983e 2d43 46be 2bb5 ca3c
00000010: eed1 bd3e d1ef 863e 211f 03be 2b95 89bd

encoder_layer_mhattentions.3.attention_heads.1.V.bias f4 [8]
-0.008860716 -0.088068835 -0.0035878723 -0.08223077 -0.24709533 -0.017480064 -0.12871195 -0.02038549
00000000: 892c 11bc 6f5d b4bd 8222 6bbb 9b68 a8bd
00000010: 8f06 7dbe 5a32 8fbc 11cd 03be 79ff a6bc

encoder_layer_mhattentions.3.attention_heads.2.Q.bias f4 [8]
0.001641165 0.26102552 -0.73639125 -0.20583948 -0.71199256 -0.14808084 -0.04097883 -0.0065311254
00000000: 5c1c d73a 23a5 853e 2384 3cbf 96c7 52be
00000010: 2545 36bf 81a2 17be 6bd9 27bd 0d03 d6bb

encoder_layer_mhattentions.3.attention_heads.2.K.bias f4 [8]
0.27207676 0.3636014 0.08307975 0.18779443 0.20595993 0.1239976 0.12382203 0.22179654
00000000: a54d 8b3e f629 ba3e b725 aa3d 2f4d 403e
00000010: 29e7 523e 74f2 fd3d 6896 fd3d a21e 633e

encoder_layer_mhattentions.3.attention_heads.2.V.bias f4 [8]
-0.018084435 -0.003041196 0.09947467 -0.1721796 0.08598158 0.077427186 -0.017287102 -0.019153798
00000000: cf25 94bc cd4e 47bb 60b9 cb3d d94f 30be
00000010: 1c17 b03d 2592 9e3d ae9d 8dbc 6de8 9cbc

encoder_layer_mhattentions.3.attention_heads.3.Q.bias f4 [8]
-1.0034273 0.21911319 -0.032911595 -0.73110044 -0.09434321 0.093344264 -0.20684612 -0.17170238
00000000: 4e70 80bf 355f 603e 4fce 06bd 6629 3bbf
00000010: 0337 c1bd 472b bf3d 78cf 53be c0d2 2fbe

encoder_layer_mhattentions.3.attention_heads.3.K.bias f4 [8]
0.0464002 0.15721555 -0.2542243 -0.27383733 0.2887179 0.4337585 -0.2915272 -0.2721518
00000000: 230e 3e3d 1dfd 203e b029 82be 6834 8cbe
00000010: d5d2 933e 9815 de3e 0e43 95be 7b57 8bbe

encoder_layer_mhattentions.3.attention_heads.3.V.bias f4 [8]
0.08205927 -0.006086289 0.015051784 0.020234158 0.06395361 0.037614312 0.009838642 0.002684115
00000000: b10e a83d 7e6f c7bb c29b 763c 1bc2 a53c
00000010: 1cfa 823d 7711 1a3d 4132 213c fae7 2f3b

encoder_layer_mhattentions.3.output_layer.bias f4 [32]
0.00045678538 0.07732403 -0.29615852 -0.40060154 0.03162672 -0.22720192 -0.08040965 0.32558593
0.10160051 -0.27997655 -0.025182657 0.32841787 0.3570069 -0.22211364 0.20134948 0.08299208
0.05629648 0.10426358 0.66255254 0.19863436 0.48023558 -0.1578865 0.41863668 -0.14023532
0.30367917 0.15786491 -0.20212385 -0.10985408 0.25990695 -0.18566963 0.06473697 -0.25580782
00000000: b27c ef39 105c 9e3d 17a2 97be a51b cdbe
00000010: 058b 013d 9fa7 68be d1ad a4bd 33b3 a63e
00000020: ee13 d03d 1659 8fbe dc4b cebc 6326 a83e
00000030: 9cc9 b63e c271 63be 8f2e 4e3e c0f7 a93d
00000040: 2397 663d 2588 d53d 0b9d 293f ce66 4b3e
00000050: 70e1 f53e 00ad 21be 8c57 d63e d999 0fbe
00000060: d67b 9b3e 57a7 213e 8ef9 4ebe 2dfb e0bd
00000070: 8612 853e 2e20 3ebe d194 843d 3ef9 82be

encoder_first_layer_norms.0.scale f4 [32]
0.616461 1.299419 1.0829886 0.3954086 1.9153249 1.1394387 1.3061067 1.3778002
1.8642142 1.3644705 1.3690655 1.0801977 1.0094949 1.2682433 1.1685075 1.0560441
1.4599705 0.45625985 1.2528293 1.1630162 2.050856 1.2166996 0.7599957 1.9213591
1.0931153 1.1683996 1.7770652 1.819154 1.3937304 1.4579281 1.1643983 1.8349581
00000000: 63d0 1d3f 5d53 a63f 5f9f 8a3f ff72 ca3e
00000010: 5e29 f53f 21d9 913f 812e a73f c25b b03f
00000020: 929e ee3f f8a6 ae3f 8a3d af3f eb43 8a3f
00000030: 2137 813f cc55 a23f a791 953f 742c 873f
00000040: 50e0 ba3f e49a e93e b65c a03f b7dd 943f
00000050: 3a41 0340 d0bc 9b3f 148f 423f 18ef f53f
00000060: 34eb 8b3f 1e8e 953f df76 e33f 0ada e83f
00000070: c265 b23f 639d ba3f 010b 953f e8df ea3f

encoder_first_layer_norms.0.offset f4 [32]
0.36863384 -0.32467687 -0.17353943 -0.9536588 0.29190987 0.436447 0.20284222 -0.39898247
-0.5054471 -0.1511784 0.46342322 0.06693403 -0.040573332 0.65245676 0.15181471 0.025922326
-0.6022779 0.3914384 0.53539187 -1.0145838 0.7738717 0.067212984 0.9291474 0.14500672
0.23158206 0.2863989 -0.14888282 -0.3177755 -0.2817237 0.20392515 -0.08911106 -0.25416055
00000000: 93bd bc3e 0c3c a6be 52b4 31be fc22 74bf
00000010: 3675 953e fb75 df3e dfb5 4f3e 6e47 ccbe
00000020: fb64 01bf 83ce 1abe cf45 ed3e b514 893d
00000030: 3930 26bd 6807 273f 5175 1b3e 0f5b d43c
00000040: e22e 1abf 9d6a c83e 710f 093f e2dd 81bf
00000050: 751c 463f f6a6 893d 9bdc 6d3f a47c 143e
00000060: d923 6d3e e0a2 923e bd74 18be 78b3 a2be
00000070: 173e 90be c1d1 503e dc7f b6bd 5521 82be

encoder_first_layer_norms.1.scale f4 [32]
1.068464 1.1491843 1.2721616 0.6759121 1.9058813 1.4347028 1.0571576 1.0786083
1.536784 1.3898904 1.1458184 1.2428455 0.6588216 1.6484789 1.5683389 0.81454223
1.4022801 0.884583 1.6848038 1.2224817 1.6109594 1.5646476 1.1729163 1.5853682
0.94261414 0.5807435 1.4915718 0.95156825 0.9597042 1.3964692 1.3839223 1.2834355
00000000: 6ec3 883f 7918 933f 31d6 a23f 9308 2d3f
00000010: ebf3 f33f 57a4 b73f f150 873f d60f 8a3f
00000020: 57b5 c43f eee7 b13f 2daa 923f 9015 9f3f
00000030: 88a8 283f 5b01 d33f 54bf c83f d785 503f
00000040: ea7d b33f 0874 623f a7a7 d73f 487a 9c3f
00000050: eb33 ce3f 5f46 c83f 1f22 963f 58ed ca3f
00000060: 294f 713f 9bab 143f d3eb be3f fa99 733f
00000070: 2daf 753f 81bf b23f 5e24 b13f 9d47 a43f

encoder_first_layer_norms.1.offset f4 [32]
-0.019526592 0.1657083 -0.0787828 -0.1214556 -0.13051955 -0.39329976 0.10162979 -0.069768205
-0.07316265 0.17976566 -0.046506952 -0.21349669 -0.3135772 0.80691355 0.13352078 0.010249919
0.60713977 -0.41211593 -0.1125855 -0.039823722 0.76307064 -0.18468936 1.0083731 -0.13350426
-0.16325124 -0.6910635 0.13567838 0.13748275 -0.2579258 0.27392238 0.50418055 0.12913825
00000000: 3bf6 9fbc 70af 293e e058 a1bd b7bd f8bd
00000010: eba6 05be 965e c9be 4823 d03d a2e2 8ebd
00000020: 4dd6 95bd 7d14 383e 137e 3ebd e09e 5abe
00000030: 318d a0be e391 4e3f acb9 083e 47ef 273c
00000040: 836d 1b3f dc00 d3be 3a93 e6bd 331e 23bd
00000050: 9958 433f 351f 3dbe 5f12 813f 57b5 08be
00000060: 552b 27be 8ae9 30bf 46ef 0a3e 47c8 0c3e
00000070: da0e 84be 8e3f 8c3e fa11 013f d13c 043e

encoder_first_layer_norms.2.scale f4 [32]
0.9634361 1.1478592 1.7448757 0.5037189 1.704114 1.3932811 1.421586 1.3935608
1.517263 1.6843926 1.5795717 1.147279 0.9517562 1.5898309 1.6736282 1.0726151
1.0780993 0.73367965 1.3095582 0.89479804 1.0759282 1.2662277 1.0139376 1.4213188
0.8654724 1.128784 0.82425725 0.9724128 1.2041701 1.367886 1.4784114 0.8675305
00000000: c0a3 763f 0ded 923f 1658 df3f b9f3 003f
00000010: 6820 da3f 0957 b23f 88f6 b53f 3360 b23f
00000020: ad35 c23f 2d9a d73f 682f ca3f 0ada 923f
00000030: 4ba6 733f 947f cb3f 7339 d63f 744b 893f
00000040: 28ff 893f 6ed2 3b3f 9a9f a73f 7c11 653f
00000050: 04b8 893f c013 a23f b5c8 813f c6ed b53f
00000060: 998f 5d3f fe7b 903f 8602 533f 0cf0 783f
00000070: 3f22 9a3f e316 af3f 963c bd3f 7b16 5e3f

encoder_first_layer_norms.2.offset f4 [32]
-0.42734426 -0.32379827 -0.67803323 -0.11500433 0.032795046 0.25689432 -0.127904 0.11859691
-0.17896816 -0.6584541 -0.3633957 0.27729827 0.25139526 0.90596217 0.050834615 0.6115249
-0.04639952 -0.38474587 0.07360345 -0.36114496 -0.09254645 -0.20326419 0.6274306 0.12465328
0.22242402 0.32732493 0.025721917 -0.10622866 -0.3373361 0.24941473 0.17836408 0.15549578
00000000: decc dabe e3c8 a5be 9693 2dbf 6487 ebbd
00000010: 1954 063d a787 833e 44f9 02be f0e2 f23d
00000020: 6e43 37be 7390 28bf 000f babe 0afa 8d3e
00000030: e1b6 803e 23ed 673f f537 503d e58c 1c3f
00000040: 6c0d 3ebd 69fd c4be 68bd 963d fee7 b8be
00000050: fe88 bdbd 7d24 50be 4b9f 203f 384a ff3d
00000060: 1fc3 633e 2297 a73e c5b6 d23c 698e d9bd
00000070: 51b7 acbe 9366 7f3e 13a5 363e 493a 1f3e

encoder_first_layer_norms.3.scale f4 [32]
1.4679745 1.1296856 1.216836 1.5330663 1.7490828 1.5859219 1.7455881 1.6561923
1.763308 1.1610467 1.3681518 0.70595217 1.287769 1.174143 1.5575472 1.2680441
1.2437589 1.1880689 1.6900922 0.94807535 1.5372254 1.3647072 1.5132018 1.7312493
0.52958316 1.2046922 1.0224005 0.8081326 1.5211471 1.2960967 1.1487559 0.79705614
00000000: 97e6 bb3f 8a99 903f 48c1 9b3f 843b c43f
00000010: f2e1 df3f 7dff ca3f 6e6f df3f 1cfe d33f
00000020: 14b4 e13f 2e9d 943f 991f af3f 48b9 343f
00000030: 9dd5 a43f 514a 963f b55d c73f 454f a23f
00000040: 7e33 9f3f a412 983f f154 d83f 11b5 723f
00000050: cdc3 c43f baae ae3f 99b0 c13f 9499 dd3f
00000060: c392 073f 5b33 9a3f 05de 823f c7e1 4e3f
00000070: f3b4 c23f 7fe6 a53f 6f0a 933f df0b 4c3f

encoder_first_layer_norms.3.offset f4 [32]
0.3016632 -0.39779925 -0.10766855 -0.029436374 0.13546704 -0.2434035 -0.07115991 0.21455775
0.14785573 -0.0019115796 -0.33813894 0.80052143 0.32492146 0.12619291 0.04006651 0.26918244
-0.06416541 0.14050822 0.6447992 0.09128728 -0.009827408 0.143548 -0.08748309 -0.4599099
-0.13710822 0.2826997 -0.15870732 -0.68461585 0.1981363 -0.061568957 0.217981 -0.00042751004
00000000: 9973 9a3e 58ac cbbe 5481 dcbd 8d24 f1bc
00000010: dfb7 0a3e c43e 79be 49bc 91bd 07b5 5b3e
00000020: 7e67 173e f88d faba 8c20 adbe f9ee 4c3f
00000030: 1b5c a63e b738 013e c81c 243d 48d2 893e
00000040: 2869 83bd 63e1 0f3e 8f11 253f d3f4 ba3d
00000050: 2303 21bc 3ffe 123e 562a b3bd 4f79 ebbe
00000060: 1966 0cbe 04be 903e 2c84 22be fc42 2fbf
00000070: 3ee4 4a3e bb2f 7cbd 6936 5f3e 6d23 e0b9

encoder_second_layer_norms.0.scale f4 [32]
1.0187838 1.285815 1.2413774 0.84852606 1.697499 1.0930458 1.492543 1.1125284
1.0670891 1.1663876 1.015431 1.1677694 0.7905634 0.9806235 1.4018142 1.248078
1.099287 0.63882715 1.584862 0.9539028 1.4291278 1.4355968 0.8895962 1.581076
1.153485 0.7955099 1.3667904 1.1096094 1.1081761 1.290576 1.2800769 1.4012641
00000000: 8267 823f 9695 a43f 74e5 9e3f 0139 593f
00000010: a647 d93f ede8 8b3f a60b bf3f 5567 8e3f
00000020: 6096 883f 304c 953f a5f9 813f 7879 953f
00000030: 5d62 4a3f 240a 7b3f a66e b33f 05c1 9f3f
00000040: 70b5 8c3f 2d8a 233f c2dc ca3f f932 743f
00000050: a9ed b63f a3c1 b73f 94bc 633f b360 ca3f
00000060: 65a5 933f 89a6 4b3f fdf2 ae3f ae07 8e3f
00000070: b7d8 8d3f 9831 a53f 8fd9 a33f 9f5c b33f

encoder_second_layer_norms.0.offset f4 [32]
0.056783583 -0.09656412 0.36167842 0.023634415 -0.13152118 -0.44151026 -0.005625032 0.040296946
0.319061 0.016749663 -0.14790817 -0.14337496 -0.06433107 -0.37770703 -0.011902904 0.1204252
0.26674706 -0.25441346 -0.048979398 0.1792343 -0.41066727 -0.0007001312 0.067923725 -0.2312265
0.17110412 0.069313265 0.18496607 0.050572805 0.18446086 0.12102958 0.09862475 0.08549598
00000000: e795 683d 69c3 c5bd ea2d b93e f69c c13c
00000010: 7dad 06be a20d e2be 3052 b8bb 690e 253d
00000020: f75b a33e 9736 893c 3d75 17be e3d0 12be
00000030: 02c0 83bd d162 c1be 6604 43bc 7da1 f63d
00000040: 1293 883e 7b42 82be 9f9e 48bd 3289 373e
00000050: fb42 d2be 0289 37ba 981b 8b3d a4c6 6cbe
00000060: eb35 2f3e 1df4 8d3d bf67 3d3e 6e25 4f3d
00000070: 4fe3 3c3e 5bde f73d c6fb c93d 8418 af3d

encoder_second_layer_norms.1.scale f4 [32]
0.9369941 1.2774342 1.1841981 0.7662274 1.7897453 1.2773833 1.5351845 1.486083
1.1837158 1.2467903 1.4666529 1.0615758 0.8161932 1.3006276 1.4992057 0.9916484
0.9364358 0.68725765 1.2952993 0.993393 1.0601493 1.0971513 0.985509 1.4444824
0.8506052 0.56099266 1.1469457 0.8273949 1.0375884 0.93812406 0.93928504 1.0016077
00000000: d8de 6f3f f782 a33f ce93 973f 7b27 443f
00000010: 6016 e53f 4c81 a33f ed80 c43f f837 be3f
00000020: 0084 973f d396 9f3f 48bb bb3f b7e1 873f
00000030: 0af2 503f f77a a63f f9e5 bf3f abdc 7d3f
00000040: 42ba 6f3f 1ef0 2f3f 5ecc a53f 014f 7e3f
00000050: f9b2 873f 746f 8c3f 514a 7c3f cde4 b83f
00000060: 43c1 593f 379d 0f3f 1ecf 923f 27d0 533f
00000070: b2cf 843f e628 703f fc74 703f ae34 803f

encoder_second_layer_norms.1.offset f4 [32]
0.15589146 0.23047286 0.3687233 0.0819281 -0.41122362 0.14788961 0.04115379 -0.1842136
0.50388074 0.21452257 -0.21476066 0.001740088 -0.39377987 0.0070801256 0.20438945 0.12400084
0.24105246 -0.09908741 0.12627071 -0.16894317 -0.03864508 0.45101315 -0.2995013 -0.23248598
0.10449368 -0.16511182 0.0559483 -0.10797063 -0.02462513 0.23235705 0.06028176 0.14335506
00000000: 03a2 1f3e 1401 6c3e 4dc9 bc3e ebc9 a73d
00000010: e78b d2be 6070 173e e090 283d 7da2 3cbe
00000020: 54fe 003f ceab 5b3e 38ea 5bbe aa13 e43a
00000030: 849d c9be 6600 e83b 784b 513e 27f4 fd3d
00000040: 75d6 763e 57ee cabd 1c4d 013e 70ff 2cbe
00000050: 4e4a 1ebd 32eb e63e 3c58 99be ce10 6ebe
00000060: c800 d63d 1313 29be 0b2a 653d b51f ddbd
00000070: a4ba c9bc 02ef 6d3e 02ea 763d abcb 123e

encoder_second_layer_norms.2.scale f4 [32]
1.0209881 0.7571657 0.6513388 1.2062871 1.4685446 1.0212207 1.4926746 1.2517369
1.5851425 0.7787163 1.7081625 0.91192675 1.0251555 0.6725452 1.4081442 1.5229156
0.8563918 0.7726514 1.018882 1.0653895 1.6172833 1.1274117 1.2088932 1.7875218
0.6963143 1.0154219 0.8500756 0.76142406 1.1556289 1.0861156 0.7740745 0.8006801
00000000: bdaf 823f 9cd5 413f 24be 263f 9e67 9a3f
00000010: 45f9 bb3f 5cb7 823f f60f bf3f ea38 a03f
00000020: f3e5 ca3f f459 473f 12a5 da3f 0874 693f
00000030: 4c38 833f ec2b 2c3f 123e b43f e6ee c23f
00000040: 7e3c 5b3f 7bcc 453f ba6a 823f af5e 883f
00000050: 2403 cf3f 074f 903f 03bd 9a3f 84cd e43f
00000060: a741 323f 58f9 813f 8e9e 593f b0ec 423f
00000070: a6eb 933f d605 8b3f bf29 463f 5ff9 4c3f

encoder_second_layer_norms.2.offset f4 [32]
0.11499538 -0.18769427 0.19961241 -0.30740574 0.403167 0.12049017 -0.12716298 -0.18466197
0.7105423 0.4927173 0.07754506 0.016126666 -0.24671194 0.38326296 0.1910099 0.37206277
0.17196758 0.045370404 -0.20330468 0.24095573 -0.108066216 0.17032506 -0.33250365 -0.121973746
0.038681775 0.09681667 -0.028763123 0.051538087 0.03079098 -0.34402463 0.06410367 0.012309245
00000000: b382 eb3d ed32 40be 3267 4c3e 4964 9dbe
00000010: e86b ce3e 8dc3 f63d 0337 02be 0718 3dbe
00000020: 1ae6 353f 7145 fc3e f2cf 9e3d 121c 843c
00000030: 0ea2 7cbe 0b3b c43e 1998 433e 037f be3e
00000040: 4518 303e 51d6 393d 1a2f 50be 19bd 763e
00000050: d251 ddbd b169 2e3e eb3d aabe 5fcd f9bd
00000060: c870 1e3d d147 c63d a4a0 ebbc 9a19 533d
00000070: 5e3d fc3c ff23 b0be c948 833d b7ac 493c

encoder_second_layer_norms.3.scale f4 [32]
0.406291 0.5329447 0.48151755 0.63114214 0.63668025 0.625458 0.66525376 0.5666661
0.5086238 0.39999217 0.4804892 0.3754722 0.4090637 0.3017261 0.5232878 0.3342059
0.6217113 0.4359191 0.3240988 0.4343481 0.42530444 0.47169167 0.45139837 0.6155799
0.38080302 0.59503555 0.47313517 0.4177232 0.684451 0.5666366 0.575033 0.5635594
00000000: 6005 d03e 106f 083f 7889 f63e 8892 213f
00000010: 7afd 223f 041e 203f 124e 2a3f 0811 113f
00000020: 2b35 023f c6cb cc3e ae02 f63e e43d c03e
00000030: cc70 d13e d87b 9a3e 30f6 053f 091d ab3e
00000040: 7928 1f3f ca30 df3e 47f0 a53e e062 de3e
00000050: 81c1 d93e 9281 f13e b01d e73e a596 1d3f
00000060: 9df8 c23e 4054 183f c63e f23e d1df d53e
00000070: 2e38 2f3f 190f 113f 5d35 133f 6e45 103f

encoder_second_layer_norms.3.offset f4 [32]
-0.39149326 0.20402382 0.12313488 0.22110446 -0.001747819 0.249998 -0.08372488 -0.09370415
0.33456033 0.20578846 -0.016618729 -0.3052673 -0.18730062 0.04070644 0.00048323028 0.11367741
-0.059654564 -0.40040937 -0.38314196 -0.0417374 -0.11244376 -0.059598006 -0.40296954 0.29973832
0.05362139 -0.13282304 0.3246416 0.10302655 -0.041385226 -0.010417645 -0.081123725 -0.004831668
00000000: ce71 c8be 9feb 503e 242e fc3d 3569 623e
00000010: 1317 e5ba 7aff 7f3e f377 abbd f6e7 bfbd
00000020: 7e4b ab3e 36ba 523e 0024 88bc ff4b 9cbe
00000030: bccb 3fbe ccbb 263d 125a fd39 b4cf e83d
00000040: 5858 74bd 7502 cdbe 2f2b c4be d6f4 2abd
00000050: ea48 e6bd 0a1d 74bd 0652 cebe 4d77 993e
00000060: 1aa2 5b3d c302 08be 6c37 a63e 95ff d23d
00000070: 8e83 29bd c5ae 2abc 3224 a6bd f852 9ebb

encoder_fc_layers.0.0.bias f4 [32]
-0.68708414 -0.31398556 -0.32585466 -1.5758805 -0.76231664 -0.84403574 -0.77001274 -0.6367319
-0.6155325 -0.8033239 -0.5588624 -0.900256 0.30865234 -0.5819687 -0.76908255 -0.5996181
-0.8371675 -1.6002805 0.06715853 -0.9110889 -1.0920475 -0.5403871 -1.4917939 -0.643326
-0.54578626 -0.70973146 -0.8870061 -0.8246722 -0.37737924 -0.5151017 -0.1813555 -0.59936476
00000000: bfe4 2fbf b7c2 a0be 6cd6 a6be 74b6 c9bf
00000010: 2f27 43bf ba12 58bf 8e1f 45bf dd00 23bf
00000020: 8a93 1dbf a3a6 4dbf 9b11 0fbf 2d77 66bf
00000030: ae07 9e3e e7fb 14bf 98e2 44bf 9280 19bf
00000040: 9c50 56bf fed5 ccbf 698a 893d 1f3d 69bf
00000050: 36c8 8bbf cf56 0abf 1af3 bebf 03b1 24bf
00000060: a6b8 0bbf f6b0 35bf d512 63bf b81d 53bf
00000070: da37 c1be b4dd 03bf 42b5 39be f86f 19bf

encoder_fc_layers.0.2.bias f4 [32]
0.32499543 -0.46231523 -0.07908468 -0.29125535 0.09287108 0.1982437 -0.08402872 -0.2906096
0.2657537 0.16056213 -0.033285756 -0.06474989 0.12679821 0.35766602 0.39013827 0.46900102
0.07371395 -0.43992895 -0.24269226 0.21519461 -0.42399076 0.28371364 -0.08475061 -0.35210502
0.082495384 -0.48017767 -0.179334 0.09779577 0.5500995 -0.13328053 0.10313524 0.19662564
00000000: cd65 a63e 95b4 ecbe 26f7 a1bd 6c1f 95be
00000010: 3133 be3d 6600 4b3e 4017 acbd c8ca 94be
00000020: de10 883e 666a 243e a556 08bd 979b 84bd
00000030: 64d7 013e 0020 b73e 34c0 c73e e720 f03e
00000040: 57f7 963d 5e3e e1be 5284 78be fa5b 5c3e
00000050: 5115 d9be ea42 913e ba91 adbd 1c47 b4be
00000060: 57f3 a83d d9d9 f5be 55a3 37be 2649 c83d
00000070: 52d3 0c3f b17a 08be 9238 d33d 3b58 493e

encoder_fc_layers.1.0.bias f4 [32]
-0.45740765 -1.107117 -0.75519097 -0.64467615 -1.5663582 -1.3982815 -0.12496925 -0.5876139
-0.78564537 -1.2469007 -1.3785508 -1.3171626 -1.5080535 -0.16249207 -0.45350376 0.3222282
-1.3763654 -1.1681193 -0.4638777 -0.42976558 -1.012971 -0.8315081 -0.80326736 -0.97695035
-0.8852259 -0.8077403 -0.6324044 -0.19906467 0.19329064 -0.92542523 -0.3069409 0.4028916
00000000: 5631 eabe 03b6 8dbf 3254 41bf 7f09 25bf
00000010: 6d7e c8bf e3fa b2bf e1ef ffbd dd6d 16bf
00000020: 0e20 49bf 719a 9fbf 5a74 b0bf c998 a8bf
00000030: e607 c1bf 5264 26be a531 e8be 18fb a43e
00000040: be2c b0bf ef84 95bf 6181 edbe 3c0a dcbe
00000050: 09a9 81bf b7dd 54bf eea2 4dbf 6b19 7abf
00000060: 2a9e 62bf 11c8 4ebf 41e5 21bf 9cd7 4bbe
00000070: fbed 453e abe8 6cbf 5c27 9dbe cf47 ce3e

encoder_fc_layers.1.2.bias f4 [32]
1.1504042 -0.12909487 -0.53798926 0.26899764 -0.05898471 0.48123893 0.017187854 -0.43774533
0.4927377 -0.13608573 0.9475848 -0.06961712 -0.15078762 0.059066627 -0.4416508 0.9747429
-0.50674576 -0.88123584 -0.8536145 0.30378288 0.009779451 -0.7411447 -0.23708858 0.15954603
-0.32713512 -0.41689503 -0.3929241 -0.01008599 0.52147686 0.1273366 0.8140114 0.1404811
00000000: 7240 933f 7231 04be aab9 09bf 0fba 893e
00000010: f499 71bd f364 f63e 8bcd 8c3c 2820 e0be
00000020: 1e48 fc3e 0f5a 0bbe eb94 723f 6c93 8ebd
00000030: 1268 1abe d9ef 713d 0e20 e2be c088 793f
00000040: 17ba 01bf ac98 61bf 7b86 5abf 6e89 9b3e
00000050: fe39 203c a9bb 3dbf 59c7 72be 0960 233e
00000060: 417e a7be 4473 d5be 592d c9be b53f 25bc
00000070: 827f 053f 8764 023e 0d63 503f 47da 0f3e

encoder_fc_layers.2.0.bias f4 [32]
-0.33603638 -0.98309803 -1.3179743 -0.6938443 -1.1191815 -1.0275477 -0.66816735 -1.165864
-0.13169725 -0.5100247 -0.36882895 -0.29548523 -1.4398355 -0.4115722 -0.48388347 0.11497848
-1.7336489 -0.8649248 -1.1384618 -0.022667801 -0.8440671 -0.8860116 0.9528223 -0.69844836
-1.1575738 0.23742276 -1.1497031 -0.5489062 -1.6321398 -1.6166054 -1.4959985 -0.7694014
00000000: f60c acbe 50ac 7bbf 62b3 a8bf c89f 31bf
00000010: 5741 8fbf af86 83bf 040d 2bbf 083b 95bf
00000020: a5db 06be fb90 02bf 26d7 bcbe d749 97be
00000030: 884c b8bf 97b9 d2be 93bf f7be d679 eb3d
00000040: 35e8 ddbf b66b 5dbf 1eb9 91bf d3b1 b9bc
00000050: c814 58bf a8d1 62bf 2aec 733f 83cd 32bf
00000060: 612b 94bf f41e 733e 7929 93bf 1e85 0cbf
00000070: f5e9 d0bf edec cebf e17c bfbf 7df7 44bf

encoder_fc_layers.2.2.bias f4 [32]
-0.35807815 -0.5584874 -0.8578415 0.16723256 -0.14127435 0.7681648 -0.19346175 0.09482141
0.2070962 -1.5514027 0.38983712 0.5859325 -0.26135558 1.4555303 0.18368796 -0.04923946
-0.7798996 -0.5235441 -0.6039862 0.20247012 0.42346424 -0.23400252 0.78448075 0.07161056
0.075136796 -0.15707898 0.14138767 0.02267367 0.19746925 -0.41445738 0.6469818 -0.37769616
00000000: 0556 b7be 08f9 0ebf 809b 5bbf 033f 2b3e
00000010: 39aa 10be 73a6 443f d61a 46be ba31 c23d
00000020: 0711 543e 5d94 c6bf bb98 c73e acff 153f
00000030: 66d0 85be d14e ba3f b218 3c3e 51af 49bd
00000040: 80a7 47bf fc06 06bf d79e 1abf 5454 4f3e
00000050: 4ed0 d83e 5b9e 6fbe bbd3 483f 8fa8 923d
00000060: 52e1 993d 50d9 20be eec7 103e 22be b93c
00000070: 6135 4a3e c233 d4be 99a0 253f 6461 c1be

encoder_fc_layers.3.0.bias f4 [32]
-1.2734399 -0.66041756 -0.92755103 -0.43488336 -0.83090436 -0.36762035 -0.40082362 -0.65940267
-1.6565516 -1.0545385 -1.6506652 -0.91585207 -0.671716 -0.69105536 -0.46616483 -0.4019993
-0.63635033 -0.84654397 -0.7884601 -0.29671237 0.11639031 -0.5607072 -1.3680904 -0.68925464
-0.6371964 -0.67042 -1.8074698 -0.6736464 -0.31540966 -1.1250222 -0.90093935 -0.4561894
00000000: 1400 a3bf 2011 29bf fc73 6dbf 08a9 debe
00000010: 26b6 54bf bc38 bcbe c138 cdbe 9dce 28bf
00000020: e209 d4bf 1efb 86bf ff48 d3bf 4875 6abf
00000030: 94f5 2bbf 01e9 30bf 28ad eebe dad2 cdbe
00000040: dbe7 22bf 1bb7 58bf 85d8 49bf afea 97be
00000050: 0b5e ee3d 828a 0fbf 961d afbf fe72 30bf
00000060: 4e1f 23bf a5a0 2bbf 2c5b e7bf 1774 2cbf
00000070: 607d a1be ba00 90bf f6a3 66bf a891 e9be

encoder_fc_layers.3.2.bias f4 [32]
1.3963219 -0.5316682 -0.24708274 0.18085346 0.15951243 -0.03473813 -0.015841952 -0.09187615
-0.9717359 -0.6471279 0.1457178 0.13213854 0.023638407 0.33612666 -0.18068439 0.49615598
0.13629562 1.0486075 0.44811574 -0.34155804 0.38313636 0.02751999 1.1182586 -0.014685603
-0.23481698 0.105976455 -0.6230247 -0.15293764 0.059979763 -0.241041 -0.34968376 -0.011895952
00000000: adba b23f 681b 08bf 4203 7dbe a631 393e
00000010: 3a57 233e 9249 0ebd fbc6 81bc 9029 bcbd
00000020: afc3 78bf 2daa 25bf 0c37 153e 534f 073e
00000030: 55a5 c13c cb18 ac3e 5405 39be 2808 fe3e
00000040: 1491 0b3e c538 863f 6d6f e53e b2e0 aebe
00000050: 732a c43e 9a71 e13c 1923 8f3f e29b 70bc
00000060: dd73 70be 2f0a d93d 8c7e 1fbf af9b 1cbe
00000070: 57ad 753d 74d3 76be c009 b3be 3de7 42bc

decoder_layer_first_mhattentions.0.attention_heads.0.Q.bias f4 [8]
-0.6370975 0.42765075 -0.17771894 0.22013678 -0.16456294 0.42160115 0.45512033 -0.9199107
00000000: d218 23bf 0af5 da3e f4fb 35be 896b 613e
00000010: 3083 28be 1bdc d73e 8805 e93e 457f 6bbf

decoder_layer_first_mhattentions.0.attention_heads.0.K.bias f4 [8]
-0.14498965 -0.18173322 0.28344354 0.19428553 0.26936242 0.011509527 0.35214287 0.33773467
00000000: 2b78 14be 4618 3abe 831f 913e c9f2 463e
00000010: dfe9 893e 7592 3c3c 124c b43e 8feb ac3e

decoder_layer_first_mhattentions.0.attention_heads.0.V.bias f4 [8]
-0.00026488974 -0.16347224 -0.009432146 -0.011839559 -0.10324341 0.08840185 -0.01667776 -0.023551067
00000000: e6e0 8ab9 4465 27be 4a89 1abc b6fa 41bc
00000010: 4871 d3bd 070c b53d cc9f 88bc 2bee c0bc

decoder_layer_first_mhattentions.0.attention_heads.1.Q.bias f4 [8]
-0.25603837 -0.6148677 1.728833 -0.09827938 0.28236613 -0.4141 1.2093052 -1.3408906
00000000: 7617 83be f867 1dbf 664a dd3f b346 c9bd
00000010: 4b92 903e ea04 d4be 83ca 9a3f 4ea2 abbf

decoder_layer_first_mhattentions.0.attention_heads.1.K.bias f4 [8]
0.32431376 0.051540148 0.26196787 -0.37386099 -0.10414348 0.010095055 0.21892945 0.27118656
00000000: 740c a63e c31b 533d a720 863e b56a bfbe
00000010: 2d49 d5bd bb65 253c 0b2f 603e f7d8 8a3e

decoder_layer_first_mhattentions.0.attention_heads.1.V.bias f4 [8]
-0.21195804 -0.1307361 0.4567521 0.3066525 1.037297 -0.37094378 0.12821798 0.2607114
00000000: 870b 59be afdf 05be 69db e93e 8e01 9d3e
00000010: 26c6 843f 58ec bdbe 934b 033e f77b 853e

decoder_layer_first_mhattentions.0.attention_heads.2.Q.bias f4 [8]
0.12510209 0.053485014 0.26980478 -0.5425418 0.2780967 -0.701018 -0.17851746 0.04114556
00000000: c31a 003e 1a13 5b3d da23 8a3e 05e4 0abf
00000010: b162 8e3e ea75 33bf 48cd 36be 3f88 283d

decoder_layer_first_mhattentions.0.attention_heads.2.K.bias f4 [8]
-0.30799082 -0.08063336 -0.097386725 -0.31188074 0.07753895 0.17269151 0.093038395 0.2710436
00000000: f9b0 9dbe 1a23 a5bd b172 c7bd d5ae 9fbe
00000010: becc 9e3d 0bd6 303e ea8a be3d 3ac6 8a3e

decoder_layer_first_mhattentions.0.attention_heads.2.V.bias f4 [8]
0.20754325 -0.019585354 0.05527109 -0.054644167 -0.0054859906 0.057205796 -0.028046872 0.06804615
00000000: 3886 543e 7771 a0bc f063 623d 90d2 5fbd
00000010: d3c3 b3bb a050 6a3d 8ec2 e5bc c85b 8b3d

decoder_layer_first_mhattentions.0.attention_heads.3.Q.bias f4 [8]
-0.5457362 -0.60051644 0.32758498 1.3731911 -0.091411285 -0.7664837 0.7054562 -0.09350821
00000000: 5eb5 0bbf 72bb 19bf 38b9 a73e bac4 af3f
00000010: d735 bbbd 4738 44bf c798 343f 3b81 bfbd

decoder_layer_first_mhattentions.0.attention_heads.3.K.bias f4 [8]
0.10148195 0.23321739 0.0533264 -0.081034526 -0.17007904 -0.23407614 -0.14842305 -0.22136696
00000000: c5d5 cf3d 8ad0 6e3e c96c 5a3d 6ef5 a5bd
00000010: 3329 2ebe a8b1 6fbe 36fc 17be 05ae 62be

decoder_layer_first_mhattentions.0.attention_heads.3.V.bias f4 [8]
0.10893043 0.05789098 -0.22873211 -0.035899118 -0.0006035591 0.058005765 0.013763094 0.18682498
00000000: eb16 df3d 181f 6d3d c038 6abe f40a 13bd
00000010: 2a38 1eba 7497 6d3d 9a7e 613c 0c4f 3f3e

decoder_layer_first_mhattentions.0.output_layer.bias f4 [32]
-0.1854809 0.37673372 -0.76635766 0.07255472 -0.58213294 0.024808249 0.22246674 -0.1201325
-0.15801658 -0.053930704 -0.07128844 0.24300407 0.032046292 -0.16940047 0.40429172 0.3489903
-0.0270672 -0.39605555 0.23119731 0.073233195 -0.1371024 0.24718104 -0.17597683 -0.47332418
-0.019104935 -0.26378167 0.108575314 0.32030132 0.23020749 0.0481977 -0.4399409 0.26907218
00000000: b4ee 3dbe 3ee3 c03e 0430 44bf 9297 943d
00000010: aa06 15bf ab3a cb3c 52ce 633e 0708 f6bd
00000020: 19cf 21be 71e6 5cbd acff 91bd 0fd6 783e
00000030: f942 033d 5177 2dbe 53ff ce3e dbae b23e
00000040: 08bc ddbc cbc7 cabe fdbe 6c3e 49fb 953d
00000050: 9264 0cbe 071d 7d3e 4533 34be 8c57 f2be
00000060: f481 9cbc 640e 87be bc5c de3d 89fe a33e
00000070: 83bb 6b3e f46a 453d ef3f e1be d4c3 893e

decoder_layer_first_mhattentions.1.attention_heads.0.Q.bias f4 [8]
1.2991682 -0.03213497 -0.45499262 0.29095662 -0.3609681 1.0129251 1.4982833 -0.06580816
00000000: 254b a63f f59f 03bd cbf4 e8be 44f8 943e
00000010: d0d0 b8be 88a7 813f bfc7 bf3f 6ec6 86bd

decoder_layer_first_mhattentions.1.attention_heads.0.K.bias f4 [8]
-0.035686594 -0.1355153 -0.24870276 0.070173375 -0.031044276 -0.15757133 0.09319454 -0.1546942
00000000: 1b2c 12bd 86c4 0abe f0ab 7ebe 0fb7 8f3d
00000010: 9150 febc 615a 21be c7dc be3d 2868 1ebe

decoder_layer_first_mhattentions.1.attention_heads.0.V.bias f4 [8]
-0.0043432983 0.021662418 -0.057647172 0.02327598 0.05382855 -0.060345266 0.0018595275 0.006897312
00000000: 3a52 8ebb 6275 b13c 711f 6cbd 45ad be3c
00000010: 537b 5c3d 992c 77bd 64bb f33a d902 e23b

decoder_layer_first_mhattentions.1.attention_heads.1.Q.bias f4 [8]
1.7949972 0.56210124 0.707248 -0.09315231 0.11206139 0.28991482 -0.16133231 -1.7802001
00000000: 78c2 e53f dee5 0f3f 340e 353f a3c6 bebd
00000010: 7180 e53d b76f 943e 4c34 25be 99dd e3bf

decoder_layer_first_mhattentions.1.attention_heads.1.K.bias f4 [8]
-0.35593405 0.067195676 -0.20708576 -0.07242813 -0.16352117 0.07631508 0.19752124 0.32592887
00000000: fd3c b6be e39d 893d 4a0e 54be 3355 94bd
00000010: 1872 27be 154b 9c3d 0243 4a3e 26e0 a63e

decoder_layer_first_mhattentions.1.attention_heads.1.V.bias f4 [8]
0.014457297 0.015876286 0.012473086 0.5216055 0.2598108 -0.043470837 -0.006540413 -0.0025611205
00000000: 4cde 6c3c fc0e 823c ea5b 4c3c f087 053f
00000010: ec05 853e 7a0e 32bd f650 d6bb 79d8 27bb

decoder_layer_first_mhattentions.1.attention_heads.2.Q.bias f4 [8]
0.19468224 -1.2484978 0.1247218 0.055917453 0.6958286 -0.64065695 1.0305136 -0.08913739
00000000: c85a 473e c7ce 9fbf 256e ff3d b309 653d
00000010: d321 323f 1802 24bf dfe7 833f aa8d b6bd

decoder_layer_first_mhattentions.1.attention_heads.2.K.bias f4 [8]
-0.016158545 -0.39357212 0.14980865 0.2804903 0.20545352 0.124549635 0.023776425 -0.0024056945
00000000: ed5e 84bc 4982 c9be 7067 193e 6d9c 8f3e
00000010: 6862 523e e113 ff3d c7c6 c23c dba8 1dbb

decoder_layer_first_mhattentions.1.attention_heads.2.V.bias f4 [8]
-0.07329222 -0.09735929 -0.1735802 0.0010114037 0.006422113 -0.033201113 -0.012853597 0.19920716
00000000: 3b1a 96bd 4f64 c7bd 02bf 31be 1491 843a
00000010: 9770 d23b e4fd 07bd e597 52bc f6fc 4b3e

decoder_layer_first_mhattentions.1.attention_heads.3.Q.bias f4 [8]
0.83022076 -0.83199435 -0.5585417 0.12173499 0.3613986 0.88325953 -0.44773775 0.55584663
00000000: 5989 543f 95fd 54bf 97fc 0ebf 3250 f93d
00000010: 3d09 b93e 4c1d 623f e23d e5be f74b 0e3f

decoder_layer_first_mhattentions.1.attention_heads.3.K.bias f4 [8]
0.08396341 0.08464363 0.22591461 0.09766663 0.18760592 -0.2295499 -0.14032166 0.124100834
00000000: 02f5 ab3d a459 ad3d 2956 673e 7105 c83d
00000010: c41b 403e 210f 6bbe 7bb0 0fbe 9428 fe3d

decoder_layer_first_mhattentions.1.attention_heads.3.V.bias f4 [8]
-0.020449145 0.0043497724 0.2787159 -0.0035763062 -0.2026918 0.03568751 -0.050393406 0.02186665
00000000: f784 a7bc 8988 8e3b dab3 8e3e 7660 6abb
00000010: 708e 4fbe 112d 123d 5169 4ebd b021 b33c

decoder_layer_first_mhattentions.1.output_layer.bias f4 [32]
0.4282684 -0.16014004 -0.060817454 -0.0040017045 0.27110547 0.5351759 -0.5082819 -0.07172588
0.3160725 0.2317596 -0.28463516 -0.14908366 0.08528856 0.78225756 0.44850582 0.42741203
-0.6379924 -0.03213889 0.3317498 0.07501824 0.08994743 -0.1085403 -0.5451806 0.08780332
0.073512994 0.0519026 0.3175765 -0.27891102 -0.38358748 -0.42999056 -0.15090102 -0.21010709
00000000: ff45 db3e c0fb 23be b91b 79bd bb20 83bb
00000010: 56ce 8a3e 4a01 093f c31e 02bf 05e5 92bd
00000020: 41d4 a13e 6352 6d3e b3bb 91be 63a9 18be
00000030: c5ab ae3d 0842 483f 8ea2 e53e c0d5 da3e
00000040: 7853 23bf 12a4 03bd 1cdb a93e 2aa3 993d
00000050: 5c36 b83d 604a debd f590 0bbf 3ad2 b33d
00000060: fb8d 963d d297 543d 6399 a23e 6dcd 8ebe
00000070: 9465 c4be b927 dcbe cc85 1abe 5026 57be

decoder_layer_first_mhattentions.2.attention_heads.0.Q.bias f4 [8]
-0.37225926 0.5500354 1.8007426 -0.72928685 -0.9446818 -0.82140416 1.5165766 1.1647404
00000000: c498 bebe 1fcf 0c3f bc7e e63f 8bb2 3abf
00000010: abd6 71bf 8b47 52bf 2f1f c23f 3716 953f

decoder_layer_first_mhattentions.2.attention_heads.0.K.bias f4 [8]
-0.08822332 0.13073492 0.22946118 -0.03811177 0.25595015 0.31120956 -0.23081549 -0.30108717
00000000: 6eae b4bd 60df 053e dff7 6a3e 161b 1cbd
00000010: e60b 833e dc56 9f3e e55a 6cbe 1928 9abe

decoder_layer_first_mhattentions.2.attention_heads.0.V.bias f4 [8]
0.23537701 -0.1093838 0.10633647 -0.21588224 -0.011541526 0.038555555 -0.123809315 -0.008780181
00000000: ac06 713e 9d04 e0bd efc6 d93d 3c10 5dbe
00000010: ab18 3dbc 6eec 1d3d bd8f fdbd c0da 0fbc

decoder_layer_first_mhattentions.2.attention_heads.1.Q.bias f4 [8]
0.388185 0.85706025 -0.56746554 -0.21964625 0.21773627 0.92998594 1.4098247 0.07440251
00000000: 2fc0 c63e 4d68 5b3f 6c45 11bf f2ea 60be
00000010: 42f6 5e3e 8f13 6e3f 2375 b43f 5860 983d

decoder_layer_first_mhattentions.2.attention_heads.1.K.bias f4 [8]
0.2843599 0.20006727 0.28609246 0.37809896 0.040894344 -0.23831053 0.082563154 -0.21344072
00000000: 9f97 913e 6fde 4c3e b67a 923e 3096 c13e
00000010: d480 273d ad07 74be df16 a93d 3490 5abe

decoder_layer_first_mhattentions.2.attention_heads.1.V.bias f4 [8]
-0.03935355 0.0067695286 0.014327091 -0.10421548 0.0070546083 -0.24984905 -0.032668646 -0.042821616
00000000: 3031 21bd ecd2 dd3b 2dbc 6a3c ed6e d5bd
00000010: 582a e73b 6ed8 7fbe 8fcf 05bd b865 2fbd

decoder_layer_first_mhattentions.2.attention_heads.2.Q.bias f4 [8]
-0.32288605 0.28718165 -0.7666237 0.73118037 1.4076619 -0.88495064 1.0488281 0.004048239
00000000: 5251 a5be 7909 933e 7341 44bf a32e 3b3f
00000010: 442e b43f 208c 62bf 0040 863f 17a7 843b

decoder_layer_first_mhattentions.2.attention_heads.2.K.bias f4 [8]
-0.23228638 0.3568935 -0.3135315 0.0809407 0.21684009 -0.32883978 0.13128252 -0.18613034
00000000: 7bdc 6dbe bfba b63e 3387 a0be 3dc4 a53d
00000010: 540b 5e3e b05d a8be ed6e 063e f498 3ebe
