models/model_chkpt_80.pt (torch, 318877 bytes, 387 tensors)

tokenizer.token_embedding.weight f4 [17, 32]
000000 8f e9 22 bf 8e 81 fd bf e7 fe 64 be 72 18 d3 3d
       -0.6363763 -1.9805162 -0.22362863 0.10307397
000010 94 8f cc 3f f0 f9 4d 3f f8 36 1a 3f 57 30 7e 3f
       1.5981317 0.804595 0.60240126 0.9929251
000020 90 fe ba bf f0 95 b6 bf e9 77 08 be 94 46 90 3e
       -1.4608936 -1.4264507 -0.13326992 0.28178847
000030 4c f5 8a bf 69 7e 26 bf 01 2c d5 be d9 b5 80 be
       -1.0856109 -0.65036637 -0.41635135 -0.2513874
000040 8c e2 f2 be e2 94 06 3f df 0b 2a bf 96 f2 13 bf
       -0.47438467 0.5257093 -0.66424364 -0.5779203
000050 bf 11 8d bf 53 82 fd bf b8 ca 50 3f 58 d5 25 40
       -1.1021041 -1.9805397 0.81559324 2.5911465
000060 77 ab 86 be af 65 38 3f c2 fd 48 3f bc ba 99 3f
       -0.26302692 0.72030157 0.78512204 1.2010112
000070 46 6f 20 bf e6 72 3a c0 48 7e 10 3f db b6 8d be
       -0.6266979 -2.9132628 0.5644269 -0.2767857
000080 ec a8 66 bf 47 14 be bf 82 5d a9 3f 87 f3 a7 bd
       -0.90101504 -1.4849938 1.3231661 -0.08200746
000090 d9 34 2d 40 85 b2 c2 3e 16 fc 5f be 43 68 40 3f
       2.7063506 0.38026825 -0.21873507 0.7515909
0000a0 6c 08 98 bf 10 f2 61 bf 6c 24 c0 be 99 54 0c 3f
       -1.187757 -0.88259983 -0.37527788 0.54816586
0000b0 4f 6b 55 bf dc f7 1d bf f6 31 16 bf 53 3d c1 be
       -0.83366865 -0.6170633 -0.58669984 -0.377421
0000c0 41 1b 01 40 18 81 0c bf cb 69 0c 3e e7 d0 8c 3f
       2.0172884 -0.5488448 0.13712232 1.1001252
0000d0 cf fe 83 3f fc cd 46 3f 73 0e 81 3f 87 d3 64 3e
       1.0312136 0.7765806 1.0082535 0.22346316
0000e0 ab eb 76 bf 03 c4 53 3e 29 27 ae 3f d2 65 00 3f
       -0.9645335 0.20680241 1.3605701 0.50155365
0000f0 7f 37 40 bf a2 65 c8 bf b7 31 31 bf 73 9f 2f 3f
       -0.7508468 -1.5656016 -0.69216484 0.68602675
000100 39 90 e8 bd 75 d2 0e 3f ef e6 88 bd e6 90 e0 be
       -0.11355633 0.5578988 -0.06684672 -0.4386055
000110 b9 d1 5f 40 7e 57 ef 3d 2a 9c dd 3f a1 c8 65 3e
       3.4971755 0.1168661 1.7313282 0.22439815
000120 3f fd 99 bf af a0 a4 be 4e 78 11 bf 32 88 39 3f
       -1.203041 -0.32153842 -0.56824195 0.7247344
000130 8a f8 bc be e9 ce f2 be c4 b8 e7 be 4d 43 fa be
       -0.3690837 -0.47423485 -0.45258152 -0.4887947
000140 e5 8f 9a 3f f9 63 fc 3f eb c3 ca be 9b 4f c2 bf
       1.2075163 1.9718009 -0.396026 -1.5180544
000150 f7 87 77 bf 98 10 ed be 44 6a e9 bd 69 a7 f3 bf
       -0.9669184 -0.46301723 -0.11397222 -1.9035465
000160 ed 16 b0 bf 37 7c a8 3f c9 f8 8c 3e f5 e3 fb 3e
       -1.3756996 1.3162907 0.27533558 0.49197355
000170 c6 e2 08 3f 0c 2e 24 be 0a a9 e8 be 5f 3a ce bd
       0.5347103 -0.1603319 -0.45441467 -0.10069727
000180 4c 06 38 bf b1 d5 91 3f 47 2f 79 3e 78 99 13 be
       -0.7188461 1.1393338 0.24334441 -0.14414012
000190 19 28 e8 3d 2a 38 1f bf 21 b6 ef 3f e1 fa 57 3f
       0.11335773 -0.62195075 1.8727456 0.84367186
0001a0 b4 fc a0 bf 80 75 50 3f 54 53 8b bf 16 f2 39 3f
       -1.2577119 0.8142929 -1.0884805 0.7263502
0001b0 97 47 83 3d e0 7a 0e bf 4f 2c 3d be a9 91 07 bf
       0.06410139 -0.5565624 -0.18473934 -0.52956635
0001c0 2a 10 cc 3e f2 e7 81 3e 2a f5 d8 3f f1 62 1a bf
       0.39856082 0.25372273 1.6949818 -0.6030722
0001d0 76 6d 0c bf 9a 2e c6 3f de ca 3b 3f 69 47 18 c0
       -0.54854524 1.5482972 0.73356426 -2.3793585
0001e0 2f b7 bc bf f4 7c 06 3f a3 fa 92 3e 4c d4 a9 3c
       -1.4743403 0.52534413 0.28706846 0.020731114
0001f0 63 c3 7f 3e 4e 7c 88 3f 64 8f 86 bf f1 1b cc 3e
       0.24976878 1.0662935 -1.0512509 0.39865068
000200 95 26 c2 be e2 33 47 be fe 8f 1d 3d 81 1b d8 3e
       -0.3792006 -0.19453385 0.0384674 0.42208484
000210 f4 49 07 bf e1 20 cd bf a8 a9 10 40 7e a5 4a bf
       -0.5284722 -1.6025659 2.260355 -0.7915877
000220 0b 58 1d 3e d0 12 63 be 2d 13 cd 3e 92 bf d0 3f
       0.15365617 -0.22175145 0.40053692 1.6308463
000230 5a 0a bc 3c 4e a8 17 3e 3b 0d a0 bf 8f de 2b 3d
       0.022954155 0.14810297 -1.2504038 0.041960295
000240 ba 12 59 3f 9b 61 18 3f a5 22 b3 3f 4c 61 a9 bf
       0.847942 0.59523934 1.3994948 -1.3232818
000250 b5 70 a4 bf 2b d0 80 3e 9f b8 4a 3d aa 77 62 bf
       -1.2846895 0.2515882 0.049492475 -0.8846384
000260 2f 35 b4 bf 3f 93 4f 3e c0 a9 93 bf 19 0c 82 be
       -1.407873 0.20271014 -1.1536179 -0.25399855
000270 b8 fc a6 3e ab df ff 3f 69 f7 cd bf 5e a5 17 bf
       0.32614684 1.9990133 -1.6091129 -0.59236705
000280 a6 ee 87 3f 37 57 79 3f c2 01 de 3f 77 d6 e9 3e
       1.0619705 0.97398704 1.7344286 0.45671436
000290 97 ad 4c c0 40 53 ff be ab 02 0e 3f cc cc 30 3f
       -3.198095 -0.49868202 0.5547282 0.69062495
0002a0 4d dc 22 be d9 28 97 3f ac a6 0c 3f 34 37 8b 3f
       -0.1590435 1.1809341 0.5494182 1.0876222
0002b0 75 74 60 bd eb af 79 be cc ff 39 bf 6f c5 e2 bd
       -0.054798562 -0.24383514 -0.7265594 -0.11072814
0002c0 1e 5d f1 3f 32 d8 31 3f 90 98 d3 3e f4 cf 20 bf
       1.8856542 0.6947051 0.41327333 -0.6281731
0002d0 65 03 0c 3f 51 fa 9b be 53 d6 bd 3e b9 48 ff 3d
       0.5469268 -0.30464414 0.3707758 0.124650426
0002e0 40 01 96 3d 46 8a 6b be e3 b8 56 be 25 d0 73 be
       0.07324457 -0.23001966 -0.20968966 -0.2380987
0002f0 25 8e 97 bd 11 57 b6 3f 2d bb 9c bf b7 16 bf be
       -0.07400159 1.424532 -1.2244622 -0.37322018
000300 26 24 72 be 8c 6b a0 bf 34 e0 d2 3d 9f 72 18 be
       -0.23646602 -1.2532821 0.102966696 -0.14887474
000310 a3 d2 97 bf 45 07 ce bf 4d 9d 1b 3e d0 42 28 bd
       -1.1861156 -1.6095968 0.15196724 -0.041079342
000320 ff 2c 5d be 79 04 5c 3f 1f 48 5b 3f 6f b5 96 3f
       -0.21599196 0.85944325 0.85656923 1.1774119
000330 07 3a 78 be 75 8b 8f be 34 83 56 bf 81 ef 6b 3e
       -0.24240886 -0.28036085 -0.8379395 0.23040582
000340 50 5c 77 3f 98 b8 1c 3f f6 ae db bf da f0 0c be
       0.9662523 0.6121917 -1.7162769 -0.13763753
000350 a4 8c 5c 3f 77 4e 7c be f1 c3 29 be c0 b7 0b 40
       0.861521 -0.24639307 -0.16578652 2.1830902
000360 38 85 ea be 67 73 85 3d d8 a9 24 bf 7a a3 38 bf
       -0.45804763 0.06516152 -0.6432166 -0.72124445
000370 c0 f7 da 3d ae 04 0f 40 67 61 8e bf 39 15 54 be
       0.10691786 2.2346606 -1.1123475 -0.20711221
000380 19 eb 42 bf a4 c7 ea 3d f4 c7 29 40 49 37 73 3f
       -0.7613998 0.1146386 2.6528292 0.95006233
000390 7a bf 56 3f 0c 29 28 c0 88 e6 31 c0 4c c4 83 be
       0.8388592 -2.6275053 -2.7796955 -0.257357
0003a0 22 9e 09 bd 1e ec d0 3f 50 14 6d 3f 8a 80 87 3f
       -0.033598073 1.6322057 0.9260912 1.0586102
0003b0 30 05 32 be c2 51 b3 be e5 ac 52 bf 3b 4b b9 3d
       -0.17384791 -0.35023314 -0.82295066 0.09047552
0003c0 38 86 9f 3e 8d 77 55 3e 66 77 dd bf 7d 03 c9 3e
       0.31157088 0.20846386 -1.7302063 0.39260474
0003d0 db 6c e8 3f c4 bf 79 3f e9 2f 48 be 33 8c a6 3f
       1.815822 0.97558236 -0.19549526 1.3011535
0003e0 47 5f 97 3f ef 8e b1 be 41 b0 f8 be 2f 23 d3 3e
       1.1825951 -0.34679362 -0.4857197 0.4123778
0003f0 1c 02 f7 be 07 48 a4 3e bc a8 85 bf a5 b6 e0 be
       -0.48243797 0.32086203 -1.0442119 -0.43889347

tokenizer.positional_embedding.weight f4 [9, 32]
000000 64 ce 20 3f 9a bd 09 be 53 3d da be 05 d7 cb 3e
       0.6281493 -0.13451234 -0.42624912 0.39812484
000010 1a eb b6 3e 69 37 e2 3f 7e ae 04 bd 3e 6e fc be
       0.35726243 1.767316 -0.03239297 -0.49302858
000020 c7 2d 16 bf 65 21 2c 3f 0e 63 04 40 b3 bb a3 bf
       -0.586636 0.67238456 2.0685458 -1.2791656
000030 29 3f 84 bf fd bd 39 bf 82 db 02 3f 3f f8 65 bd
       -1.0331775 -0.72555524 0.5111619 -0.05614495
000040 f2 ef 7e 3e a6 02 2c bf 84 cb 1d 3f 69 4e a1 3f
       0.2489622 -0.6719154 0.61638665 1.2602054
000050 c3 be f6 bd 64 10 13 bd f0 e3 6e 3e c1 41 da 3e
       -0.12048104 -0.035904303 0.23329139 0.4262829
000060 f9 55 58 bf 2a 26 65 3f 31 1c e3 3f bb a0 9f 3d
       -0.84506184 0.8951136 1.7742978 0.07794329
000070 9b a7 30 be 53 8e 40 3e 8e f1 25 bf 21 56 36 c0
       -0.17251436 0.18804292 -0.6482171 -2.849007
000080 95 8d 93 3f a2 d4 13 3f 40 dc 25 3f fe d6 a7 3e
       1.1527582 0.57746327 0.647892 0.32781214
000090 da 46 9b 3f cf 26 90 3e 41 5a 9d 3e 38 cc 42 be
       1.2130997 0.2815461 0.3073292 -0.19023216
0000a0 5d c0 04 40 1d 10 17 3f a9 3e 82 bf c7 c5 6d be
       2.074241 0.5900896 -1.0175372 -0.23219977
0000b0 b8 b3 c4 be 58 23 c3 3e 59 42 7f 3f 84 de 83 bf
       -0.38418365 0.38112903 0.99710613 -1.0302281
0000c0 b8 66 c1 bd 16 22 5e bf a4 d3 15 3f 19 eb c5 bf
       -0.0944342 -0.8677076 0.5852606 -1.5462371
0000d0 85 63 7a 3f 8d 43 21 3e 56 5c 1a 3f 88 03 2c 3f
       0.97808105 0.15748425 0.60297143 0.6719289
0000e0 f6 90 47 3f 72 96 91 be 8b 14 b0 3f 04 6a 0b c0
       0.7795557 -0.28435093 1.3756269 -2.1783457
0000f0 87 34 1d 3f 67 9c 13 3f e5 64 f5 3f f2 c8 5e bf
       0.61408275 0.57660526 1.9171416 -0.8702537
000100 c6 c4 6d 3d 69 19 5e 3f e8 00 be bc 22 f2 42 bf
       0.058048986 0.8675752 -0.023193792 -0.76150715
000110 b1 1c b9 bd f3 03 dd be 0e 00 68 be cc 43 94 3f
       -0.090386756 -0.43167076 -0.22656271 1.158319
000120 c1 2f 43 3f 0b e6 be 3e 44 f3 b9 bf 4f e5 e4 bf
       0.7624474 0.37284884 -1.4527364 -1.788248
000130 9e f9 d7 3f 40 9e 6a bd 57 b8 f5 bf 38 0a 68 3f
       1.6873052 -0.057279825 -1.9196881 0.9064059
000140 af d7 f5 3e dd d5 46 3f 98 4b bc be 48 0e 40 bf
       0.48016116 0.7767008 -0.36776423 -0.7502179
000150 94 19 b3 3f df 17 97 bf 0f 61 05 bf 0f 49 9b be
       1.3992181 -1.180416 -0.52101225 -0.30329177
000160 e6 2a 3f bd 2e 2b d2 be bc e0 c0 be 2f 50 94 bf
       -0.04667177 -0.41048568 -0.3767146 -1.158697
000170 88 48 6d be ac e7 43 bf 3f 22 9a 3f 53 f4 aa bf
       -0.231722 -0.7652538 1.2041701 -1.3355812
000180 96 b9 43 bf 24 f9 d6 bf 7f bd af bf 9f ff 19 bf
       -0.76455057 -1.6794782 -1.3729705 -0.6015567
000190 5a c8 8b be f6 c5 4e bf 43 9b a5 3e b4 91 19 bf
       -0.27301294 -0.80770814 0.32345018 -0.5998795
0001a0 b9 3c 3e bf 1b 6c 87 bd 47 d1 9c be 82 5a d5 bf
       -0.74311405 -0.06612416 -0.30628416 -1.6668246
0001b0 ed f8 e2 3f b2 b9 46 bf 21 c6 a9 bf 4f 21 77 3e
       1.7732216 -0.776271 -1.3263589 0.241338
0001c0 74 00 0a bf fb 5a af bf c5 94 4d bf 73 45 1e c0
       -0.5390694 -1.369964 -0.8030513 -2.4729888
0001d0 c7 c9 cc 3f 13 ce d6 3e dc ef 81 be 9d cd 9c bf
       1.5999078 0.41954097 -0.2537831 -1.2250248
0001e0 1e 43 8e 3f 26 ec c7 3f c3 13 03 3f 82 9f 35 bf
       1.1114233 1.5618942 0.5120203 -0.70946515
0001f0 e3 e3 1d 3f 11 43 22 bf 6a cd 9a bf 2c 60 2d bf
       0.6167585 -0.63383585 -1.2093937 -0.6772487
000200 a7 e7 a4 3f 95 96 f3 3b d8 89 87 3e d5 6e b6 bf
       1.2883195 0.0074337223 0.26472354 -1.4252573
000210 6f 15 0a 3f ef 3a b4 bf e6 5d b2 3e a2 8e d7 3e
       0.53938955 -1.4080485 0.34837264 0.42101008
000220 be ee e6 be 17 26 72 3f 90 19 1a 40 d1 70 18 3f
       -0.4510402 0.9458937 2.4078102 0.59547144
000230 6d 48 27 bf e7 13 71 be 4f 13 d8 3d ec f8 02 be
       -0.6534489 -0.23542748 0.10550558 -0.12790269
000240 f4 50 28 3d 7d cd 95 bf 37 e2 81 3f c5 e6 a6 3e
       0.041092828 -1.1703335 1.014716 0.32597938
000250 d8 8f 43 3e 44 43 6b 3f 72 ec 50 bf 01 8c fa be
       0.19097841 0.91899514 -0.81610787 -0.4893494
000260 b9 c9 84 3f 88 cb ef 3d c8 44 55 be 3b 2d 99 be
       1.0374061 0.117087424 -0.20827019 -0.2991732
000270 69 65 e6 3f 81 e6 c6 3e 2c 0e ba 3f 96 a5 a8 3f
       1.7999698 0.38847736 1.4535575 1.3175533
000280 4a e3 09 bf 66 b8 8b bf f5 67 cc 3f 2d 1f bd bf
       -0.5386244 -1.0915649 1.5969225 -1.4775139
000290 dd ba 9f bd 19 5b 33 3f e8 ed 37 3f 45 48 3a bf
       -0.07799313 0.7006088 0.7184739 -0.72766525
0002a0 11 ec 24 bf 8c 95 12 be 7b c1 eb be b9 16 37 3f
       -0.6442271 -0.1431486 -0.4604605 0.7151905
0002b0 e6 0f 03 bf 5b 83 b0 3f eb 82 ec 3e c4 c5 b6 bf
       -0.51196134 1.3790087 0.46193632 -1.4279103
0002c0 8b be d9 bf a7 38 64 3f 66 f5 ad 3e fb 0b 3c 3f
       -1.7011274 0.89148945 0.33976287 0.7345578
0002d0 66 57 d1 be 02 18 fe 3f 7b fe 99 3e 3e 9e 36 3f
       -0.40886992 1.9851077 0.30076966 0.7133521
0002e0 8b b4 13 be a4 df 0e 3f e2 94 10 c0 a4 89 d8 bc
       -0.1442434 0.5581 -2.259087 -0.02643282
0002f0 3b 4a df be df d7 6f 3e 43 e0 52 bf 71 c1 48 3f
       -0.4361132 0.23422192 -0.82373446 0.7842017
000300 2d ad 07 bf 39 07 ea 3e 13 c5 3f be f4 98 83 bd
       -0.5299862 0.45708635 -0.18727522 -0.06425658
000310 3c 11 bc 3b b7 48 5d bf 1d 22 e3 bf 2a 1d 26 bf
       0.005739359 -0.8643908 -1.7744786 -0.6488825
000320 9b a1 47 3e 59 fc b9 bf bd 45 84 bf a3 54 99 bd
       0.19495241 -1.4530135 -1.0333782 -0.07486846
000330 22 11 e9 bf 2b 72 85 3f 5d 4a 06 bf e9 ef c1 3f
       -1.8208354 1.0425466 -0.5245722 1.515134
000340 6a ce 11 3f 3e b8 fa be ef ef cf bf ae 0b 7a 3d
       0.5695559 -0.4896869 -1.6245097 0.061046295
000350 86 d8 28 bf 7f 6a 82 3f 86 e5 ba 3f 73 96 73 bf
       -0.6595539 1.018875 1.4601295 -0.9515144
000360 ce 71 ec be 7b c2 a4 3e 72 63 de 3e 0c 6b 9c 3f
       -0.46180576 0.32179627 0.43435246 1.2220168
000370 01 29 1e bf ba 38 8f 3f 1c 01 95 3f 9e ed d6 3e
       -0.61781317 1.1189187 1.1640964 0.41978163
000380 0a 34 cd bf b0 5a 55 3f 0e 59 cd bf 29 92 02 3e
       -1.6031506 0.83341503 -1.6042802 0.12751068
000390 d8 7d d8 bd a5 67 00 3f 7d c6 a0 be 6c 47 6c 3f
       -0.10570878 0.5015815 -0.31401435 0.9229648
0003a0 3e 13 b6 3f 5b 7c cb bf 39 50 e6 be 44 52 91 3f
       1.4224622 -1.5897325 -0.4498308 1.135323
0003b0 a4 d5 32 bf d9 43 99 bf ee 30 ca 3e a3 0c f6 3f
       -0.6985724 -1.197383 0.39490455 1.9222606
0003c0 ec 1e fe 3e 34 62 50 3e 37 1f 38 3e e5 ed ef bf
       0.49632967 0.20349962 0.17980658 -1.8744475
0003d0 d0 9d f4 3d 03 bc b1 3e 13 9f 5d bf b8 78 28 bf
       0.11944163 0.34713754 -0.86570853 -0.658092
0003e0 14 10 16 3f 47 78 13 c0 b0 c7 8f 3c d6 1a f8 be
       0.58618283 -2.3042161 0.017551273 -0.48457974
0003f0 b3 ee 01 c0 d4 fd 3c bf 56 c0 d3 be 34 ea ad 3f
       -2.030194 -0.7382481 -0.41357678 1.3587098

encoder_layer_mhattentions.0.attention_heads.0.Q.weight f4 [8, 8]
000000 95 7d 13 bd 6c 36 6e 3d 78 61 2b be f8 80 75 3e
       -0.036008436 0.05815737 -0.167364 0.23974979
000010 a9 9f 2e bd fc 6d 4e 3d 9a 7f 3e be d5 be 1b be
       -0.042632733 0.050397858 -0.18603364 -0.15209515
000020 98 13 fa 3d 16 19 16 bd fa dd b4 be 28 81 3c be
       0.122107685 -0.036645018 -0.35325605 -0.18408644
000030 d3 d6 10 bc c0 ed 50 be 1d 38 51 be 25 a6 23 bd
       -0.008840281 -0.20403194 -0.20431562 -0.03995337
000040 77 f3 bf 3d 06 e5 a2 3c f4 b6 91 bd 62 b8 0b be
       0.09372609 0.019884598 -0.07114974 -0.13644555
000050 44 54 cb bd 33 dd 86 bd 79 72 02 3e 68 70 a5 3d
       -0.09928182 -0.06585159 0.1273898 0.080780804
000060 72 56 5a bb be a4 21 3d 5d de f5 3c bd 50 05 3e
       -0.0033315686 0.03946375 0.030013258 0.1301908
000070 55 da 95 3d ba 8f a0 3c b3 9d d3 bd 82 f5 1c bc
       0.07317034 0.019599784 -0.10332813 -0.009580018
000080 3b 00 8c 3d 57 4d 77 be e3 29 c0 bd 9e 00 85 bc
       0.068359815 -0.24150597 -0.09382989 -0.016235646
000090 11 64 89 bc 8e b1 61 be c8 f0 ec 3d 95 70 29 3e
       -0.016771348 -0.22040388 0.11569363 0.16546853
0000a0 73 28 91 be af e1 ed bd ef a6 77 3e 5b ad 02 be
       -0.28351173 -0.11615311 0.24184774 -0.12761442
0000b0 58 e5 92 bd d5 85 bc 3d ff b2 9c bb f4 57 9c be
       -0.0717265 0.09205214 -0.00478208 -0.30535853
0000c0 97 d4 02 be e6 84 9c 3d 94 98 25 3e 5e cc d6 bc
       -0.12776409 0.07642536 0.16171485 -0.026220497
0000d0 fa aa 58 bd 0e cb 7d 3e de 6a 65 be 0c 1f b8 be
       -0.05289743 0.2478449 -0.22404048 -0.35961187
0000e0 2c 7f a7 be d2 3d da 3d 68 6c f6 bd cc 84 f9 3e
       -0.32714212 0.106563225 -0.120323956 0.48734128
0000f0 67 3e 29 be b3 33 0f 3f 87 55 dd bc 03 7b 01 bf
       -0.16527711 0.5593826 -0.027018322 -0.50578326

encoder_layer_mhattentions.0.attention_heads.0.Q.bias f4 [8]
000000 2a ff e9 3d 9d b2 09 bf cb 48 79 3d 53 91 87 bd
       0.11425622 -0.5378817 0.060860436 -0.06619515
000010 e6 85 2d 3e 70 00 58 be f7 7f 66 3f 9d 35 11 3e
       0.1694561 -0.21093917 0.9003901 0.14180608

encoder_layer_mhattentions.0.attention_heads.0.K.weight f4 [8, 8]
000000 a6 7d 66 3e ac 59 51 3e 86 55 0e bf 3c 6e 12 3e
       0.22508869 0.20444363 -0.5559925 0.14299864
000010 98 2a de bd 8d 3b 43 bd 38 87 64 bd 88 71 de 3d
       -0.10847968 -0.047664214 -0.055793017 0.10861498
000020 38 91 b1 be d9 38 f3 bd 0b 74 cf bd 94 8c ca 3e
       -0.34681106 -0.11876077 -0.10129555 0.39560378
000030 99 e6 13 3e b0 09 cb 3b 51 cb 0b 3e b8 a9 c5 3e
       0.14443435 0.006196223 0.13651778 0.38606048
000040 8d 0f 80 bd 38 e7 2b 3a 4d 2f da bc 34 22 fc bc
       -0.06252966 0.00065575866 -0.026633883 -0.030778028
000050 51 0d fe 3d 85 5e 56 3e 7b af 00 bc f3 0e 84 3c
       0.12404884 0.20934494 -0.007854338 0.01612041
000060 d5 57 88 3d e2 68 17 3d 3b ef 77 3b 90 9e f3 3b
       0.06657378 0.03696526 0.0037831801 0.0074346736
000070 bd 8e 16 be c1 4b 08 be 68 84 9c 3d c5 67 08 bd
       -0.14702888 -0.13310148 0.07642442 -0.033302087
000080 1a d0 13 be 6d 52 c2 3d 20 ab 9b 3e fc ef 1b be
       -0.14434853 0.09488378 0.30403996 -0.15228266
000090 17 f6 3b be 36 c0 13 3e 21 95 5b 3c da 3b a8 bd
       -0.18355595 0.14428791 0.013402254 -0.08214541
0000a0 80 78 e6 3c d7 d7 48 3e 4b 23 9b be 83 97 48 3e
       0.02813363 0.19613586 -0.30300364 0.19589047
0000b0 de 3a 1a 3e 74 a9 ad be 18 ce 92 be 6c 35 2c be
       0.15061519 -0.33918345 -0.28672862 -0.16817254
0000c0 f8 b6 f5 3d b4 c4 39 3c 58 42 eb be 00 4c d3 be
       0.11997789 0.011338402 -0.45949054 -0.4126892
0000d0 c2 8e 45 be ec 19 bc 3b 04 bc b1 be dc b1 26 be
       -0.19292739 0.005740395 -0.34713757 -0.16278785
0000e0 56 28 cf 3e b7 6b 01 bc f9 f0 00 bf 2b ff e8 3d
       0.4046046 -0.007899216 -0.50367695 0.113767944
0000f0 4e 2f b1 3d cb 7e 9c be 09 04 a6 be 87 a5 d2 3e
       0.08651601 -0.30565485 -0.32424954 0.41141912

encoder_layer_mhattentions.0.attention_heads.0.K.bias f4 [8]
000000 e4 ca b7 3d dd ac 1f 3e c3 c7 1f bc a1 97 b0 bd
       0.08974245 0.15593286 -0.009752217 -0.08622671
000010 ba 7e 1c be 4f df de bd a6 5f 6d bd 6e 17 f4 bd
       -0.15282717 -0.108824365 -0.057952546 -0.11918531

encoder_layer_mhattentions.0.attention_heads.0.V.weight f4 [8, 8]
000000 b0 58 c7 3e 18 65 d4 3d 79 8f 48 be 92 01 14 3e
       0.3893485 0.103708446 -0.1958598 0.14453724
000010 6c b5 01 3e 25 7b 13 3d f7 21 c3 3d 39 ba 05 bf
       0.12666863 0.03600611 0.09527963 -0.5223728
000020 0f 44 12 3e 2c b6 6c 3e bb 01 9e bd 9f fe ef be
       0.14283775 0.23116368 -0.07715174 -0.46873948
000030 fa da f2 bb 2c 99 d2 3e 39 27 c7 bd 87 f7 96 be
       -0.007411358 0.41132486 -0.09724278 -0.29485723
000040 f2 c1 8b 3e d7 3f 2c 3d 93 83 2a 3e d9 80 45 bc
       0.27296406 0.04205307 0.16651754 -0.012054645
000050 7c 32 71 3e 5c 90 9f 3e 9a a7 6b be 82 67 31 3e
       0.23554415 0.31164825 -0.23013154 0.17324641
000060 c4 c4 99 bd 2d a2 65 3d f0 77 b6 3d 8c 0c 21 3c
       -0.07508233 0.056062866 0.08909595 0.009829652
000070 5f 01 06 be 3f b6 5c be 77 5b 2b 3e 5e 4a 14 3f
       -0.1308646 -0.21553896 0.1673411 0.57925975
000080 b6 ea 8a 3e f7 e8 2e be c8 06 78 be 55 01 a0 be
       0.27132195 -0.17081057 -0.24221337 -0.31251016
000090 25 e3 78 3c f5 eb a1 3d 16 42 7e be 7c 8d 83 3e
       0.015190874 0.07906333 -0.24829897 0.25693882
0000a0 89 bc 86 be a4 73 a6 bd da da af bd 7a b1 bf 3e
       -0.26315716 -0.081275254 -0.085866645 0.3744009
0000b0 65 4c 97 bc 77 1f e7 3d 9a f4 70 3e 81 a0 71 3e
       -0.018469045 0.11285298 0.23530808 0.23596384
0000c0 a9 3e 40 be 59 d8 67 3e 46 1f cf 3d 5f 12 66 3e
       -0.18773903 0.22641124 0.10113387 0.22467946
0000d0 61 10 97 be b3 cc ff 3c 72 b1 96 be a4 e8 95 3e
       -0.29504684 0.031225538 -0.29432255 0.29279053
0000e0 b5 19 1d be 4b d6 a0 bc e9 17 90 bd 65 a0 f3 3d
       -0.15341838 -0.019633433 -0.070358105 0.11895827
0000f0 24 79 40 be 50 b4 66 3e 9b 18 19 be 49 22 ba 3d
       -0.18796211 0.22529721 -0.14950792 0.090885706

encoder_layer_mhattentions.0.attention_heads.0.V.bias f4 [8]
000000 cc 9f 4f be 7c 55 97 be bb 68 da bd b9 32 4c 3e
       -0.20275801 -0.29557407 -0.10664507 0.19941224
000010 58 d3 14 be e5 e3 1d 3e 7d 41 5b 3e e7 6a 86 3d
       -0.14533746 0.15418966 0.214117 0.06563359

encoder_layer_mhattentions.0.attention_heads.1.Q.weight f4 [8, 8]
000000 23 74 db 3d 5d 20 eb 3c fa 4b 6c be 51 ad 4a bd
       0.10715511 0.028701955 -0.23075858 -0.049481694
000010 1a 55 f6 3d a6 b2 f8 3d 70 76 95 3d 30 e1 58 bd
       0.120279506 0.121434495 0.07297981 -0.05294913
000020 ca 3a 16 3e db 43 04 3e be 42 37 be 19 36 68 3e
       0.14670864 0.1291651 -0.17896554 0.22676887
000030 af eb 09 bf 48 8c 52 3f d7 3c 18 3e 42 3d 63 bf
       -0.5387525 0.822453 0.14866959 -0.88765347
000040 9c c8 a8 be 13 0b db bd 26 5e d9 3e 1b da a8 be
       -0.32965553 -0.106954716 0.42454642 -0.329789
000050 8f 46 22 3f b9 60 e2 3e 1f d7 47 3d 08 9d 8f be
       0.63388914 0.4421442 0.04878914 -0.28049493
000060 eb e0 ff 3e 20 d4 c4 3d 05 41 30 3c a9 3d 1c be
       0.49976286 0.09610772 0.010757689 -0.15257896
000070 99 7e 0e 3e 94 63 14 bf 57 89 01 3f b4 17 8b be
       0.1391548 -0.57964444 0.5060019 -0.27166522
000080 af 1c 3e 3f 9d 0f ac be 93 1c 80 be d1 39 b2 3d
       0.7426252 -0.33605662 -0.250218 0.08702434
000090 18 5f 35 3e 82 92 8c 3e 03 64 9a 3e b7 60 f6 3e
       0.17712057 0.27455527 0.30154428 0.48120663
0000a0 d3 15 28 bc a5 ad d4 3b 52 40 9b bd 97 7d 27 bd
       -0.01025911 0.0064904266 -0.075806275 -0.040891256
0000b0 a6 22 28 be f8 16 ea 3e ea 77 a6 be 9f 0e 25 be
       -0.16419467 0.4572065 -0.32513362 -0.16118859
0000c0 fe fe 00 bf 1d ce 6d bd a7 0c f0 3e 7d d8 d3 bd
       -0.5038909 -0.058057893 0.46884653 -0.10344026
0000d0 90 f7 73 be 61 8c 9d bd 58 14 b5 bd a7 5e 90 3e
       -0.23824906 -0.07692791 -0.08841771 0.28197214
0000e0 60 5d a8 3e 0c 6c b1 bd 51 32 5f be 61 21 31 3e
       0.3288374 -0.086631864 -0.21796538 0.1729789
0000f0 76 eb 41 3e 49 81 41 3e fb 96 19 3e d7 91 09 bd
       0.18937477 0.18896975 0.14999 -0.03358635

encoder_layer_mhattentions.0.attention_heads.1.Q.bias f4 [8]
000000 2d cd c4 bc f2 bb b5 3d 50 b4 db 3c 89 e6 d6 bc
       -0.024023617 0.08873738 0.026819378 -0.026232975
000010 96 4b 9f be f3 22 34 bd 76 5d 72 be 7d a5 89 bd
       -0.31112355 -0.043978643 -0.23668465 -0.067210175

encoder_layer_mhattentions.0.attention_heads.1.K.weight f4 [8, 8]
000000 6e e4 6d be 5e d2 07 3e bf 7b b8 3d 66 da 9e bd
       -0.2323167 0.13263842 0.09007978 -0.077565
000010 12 79 98 3d 98 20 44 bd 68 42 2c be 6a 7a 83 3e
       0.07444967 -0.047882646 -0.16822207 0.25679332
000020 10 31 2c be 52 91 92 3d eb b8 0f bf eb 5d 57 be
       -0.16815591 0.07156624 -0.5614154 -0.2103192
000030 93 a1 f1 bd 35 bc d0 3d 48 0a 44 bf e9 88 5d 3f
       -0.11798396 0.10192148 -0.7657819 0.86537033
000040 cd b3 11 3e be 8a ff 3d 89 1c 8a bd 2b ac a2 bd
       0.14228745 0.12477635 -0.06743724 -0.07942995
000050 da d4 38 bf bb ed 48 3f 46 c1 63 3e 42 d4 21 bd
       -0.72199786 0.7848775 0.22241697 -0.039509065
000060 2d dd 28 be 13 a0 3d 3e 7d ed 0f be b0 27 ae be
       -0.16490622 0.18518095 -0.14055438 -0.34014654
000070 97 c8 5f 3e fd e2 00 3f 51 cf 8f be d5 15 d6 be
       0.21853863 0.50346357 -0.28087857 -0.41813532
000080 52 cc fe be 61 b1 95 be 61 6c 3f 3e b1 ae 85 3d
       -0.4976526 -0.29236892 0.18693687 0.0652746
000090 0b 75 31 3f be 39 12 3e 50 3f b3 3d e4 5e 34 3e
       0.6931922 0.1427984 0.0875231 0.17614323
0000a0 f8 f7 4c 3d 4a 77 69 3d 23 69 c6 bc 2c 63 b8 3b
       0.05004117 0.05699853 -0.024220055 0.0056270566
0000b0 e7 71 fe 3c 0c fd f4 bd 94 c7 17 3d 5a 4f ce 3e
       0.031060172 -0.11962327 0.037055567 0.40294915
0000c0 e8 f7 f5 3e 4a d5 45 be ef e6 83 be df 9c a4 3e
       0.480407 -0.19319645 -0.25762126 0.32150933
0000d0 61 99 00 be 9f 75 bc 3d 2e 20 23 3f c1 2e 09 be
       -0.1255851 0.09202122 0.6372098 -0.13396741
0000e0 6f 3c 9c be 5a e0 b3 bd 91 e0 6e 3e 5e 73 e6 bc
       -0.30514857 -0.08783026 0.23327853 -0.028131183
0000f0 cb ef 41 3e b6 a2 94 3d fb 80 91 be e6 b5 04 3e
       0.1893913 0.07257597 -0.28418717 0.12960014

encoder_layer_mhattentions.0.attention_heads.1.K.bias f4 [8]
000000 46 ac 3e be 77 e1 99 3d cb d5 2d be 8d 28 95 3e
       -0.18620405 0.07513707 -0.16976087 0.291325
000010 1d b5 cf 3d 70 b2 67 be 66 7b 9d 3d df 5b 1b be
       0.101419665 -0.22626662 0.07689552 -0.15171765

encoder_layer_mhattentions.0.attention_heads.1.V.weight f4 [8, 8]
000000 33 32 44 be c3 d4 c4 be 08 07 87 bd 2a 29 f3 be
       -0.19159774 -0.38443574 -0.06593138 -0.47492343
000010 cd 22 d2 be e1 4b ac be ba 02 07 be 33 2c d4 3d
       -0.41042176 -0.3365164 -0.13184634 0.10359993
000020 ff eb e4 be df 97 06 3e 51 46 f9 3d 43 cc a2 bd
       -0.447113 0.13143872 0.12171615 -0.07949116
000030 f2 36 ee bd 30 eb 71 3d 64 20 4b bd bf 0d 33 3e
       -0.11631574 0.059062183 -0.049591437 0.17485712
000040 c8 47 44 3e 19 67 4c be 8f ed 51 be 41 e7 d4 be
       0.19168007 -0.19961204 -0.20500778 -0.41582683
000050 f0 d1 ac 3e 45 1d d4 3e 3d 1d ce 3e b1 7b ac 3e
       0.3375392 0.4142858 0.40256682 0.3368812
000060 c1 fa cc bc 83 df 8b bd 4a 40 ea 3d a4 66 ba 3e
       -0.025021913 -0.06829741 0.114380434 0.36406434
000070 46 28 5e 3d 96 24 88 3d f1 0e ee 3c 81 7c 46 3e
       0.054237626 0.06647603 0.029059859 0.19383432
000080 2d cd 45 3e 2a 39 a9 bd 3e 42 20 3e be 35 23 bf
       0.1931655 -0.08262856 0.1565027 -0.6375388
000090 33 73 49 3e 05 79 a1 3e a9 1b fa 3e 2b 02 06 3f
       0.19672851 0.31537643 0.48849228 0.5234706
0000a0 de 9d c2 3d 5b 50 cb 3d 6b 5f 86 3d f3 ae 70 3d
       0.09502767 0.09927436 0.06561168 0.058760595
0000b0 41 c4 55 3e ea 99 ef 3d 8e d6 ef bd a4 fb aa 3d
       0.20875646 0.11699279 -0.11710845 0.08348778
0000c0 bd ed b9 bc 03 d3 db be 6c 80 51 3d e5 ed 6f be
       -0.02269637 -0.42934427 0.051147863 -0.23430593
0000d0 85 2c 3e 3e a2 3e 8a 3e 5c fb e5 3e 9d 2d 93 bd
       0.1857167 0.2700091 0.44918334 -0.071864344
0000e0 92 bf a4 be 21 a3 0f 3e bf 67 a5 bd 9d b4 ea bc
       -0.32177407 0.14027072 -0.080764286 -0.028650576
0000f0 8b 12 7a be 43 22 2b 3e 33 5b 98 be 98 f4 66 be
       -0.24421136 0.16712289 -0.2975708 -0.22554243

encoder_layer_mhattentions.0.attention_heads.1.V.bias f4 [8]
000000 6c a6 1e 3e a9 b1 d9 bd 24 62 a8 be 6b a1 0f be
       0.15493172 -0.10629589 -0.32887375 -0.1402642
000010 92 b2 9d be 61 ac 8b bd 7e cf 7d be 2c 35 8b bb
       -0.308003 -0.06819988 -0.24786183 -0.004248282

encoder_layer_mhattentions.0.attention_heads.2.Q.weight f4 [8, 8]
000000 8b 5b 00 3e 22 f6 95 be 9e 87 3d bd 09 0e e7 bd
       0.12534921 -0.29289347 -0.046271913 -0.11281974
000010 d1 3a 49 bd e2 93 03 be ea 2a 5c 3e e0 1c 60 3e
       -0.049128357 -0.12849382 0.21500745 0.21886015
000020 35 ae 8b 3c 7e 14 73 bd b0 a1 c9 3e 31 1f ef bd
       0.017050842 -0.059345715 0.3938117 -0.11675871
000030 81 2d 83 3d 06 5d 46 3e bb d1 b3 bd ee c0 0d 3e
       0.064051636 0.19371423 -0.08780237 0.13843128
000040 58 74 37 3d c8 29 0a 3f 79 d0 8f be 4c 63 02 3e
       0.04478869 0.53970003 -0.2808874 0.12733191
000050 cc 89 81 be a7 18 ba 3e e8 19 05 3f ce cb be 3c
       -0.25300443 0.36346933 0.51992655 0.023290541
000060 14 55 7d bd 80 74 c8 3e 96 ba bd 3e 5b db 33 be
       -0.061848715 0.39151382 0.37056416 -0.17564146
000070 3e 52 49 3e 61 5c 97 bd e8 79 4e be 01 0d cd 3e
       0.19660279 -0.07390667 -0.20163691 0.40048984
000080 74 76 18 3d 62 d9 be be fe 43 8b bd 09 64 40 3f
       0.03722234 -0.37275225 -0.06800078 0.7515264
000090 74 34 ef bd 5a 8b 30 bf fb 4d 79 bf 74 14 fc be
       -0.116799265 -0.68962634 -0.97384614 -0.49234354
0000a0 3b 1f 0c 3d 0c 5b b2 3c 7c 4c 8c 3d dd d2 85 bd
       0.03420947 0.02177193 0.06850526 -0.065343596
0000b0 4c c5 09 3d 2b 44 59 3d 47 90 5c bd 61 3c f0 3c
       0.033635423 0.053043526 -0.05384853 0.029325666
0000c0 f8 cd 48 be 5a 4c cf 3e 74 e1 8a 3e ff 03 52 3f
       -0.19609821 0.4048794 0.27125132 0.8203735
0000d0 ad 59 50 3c 23 eb a8 be 5d ba 5e bf 0f bb dc bd
       0.012716693 -0.32991895 -0.8700312 -0.10777866
0000e0 21 92 e3 3d ec f7 ad 3e 66 8a 64 be ff aa cb be
       0.11111856 0.33978212 -0.2231842 -0.39778897
0000f0 4b 08 d4 bd cb 05 de 3e cb 5d 63 3e d6 9d 8f 3a
       -0.10353144 0.43363795 0.22203748 0.0010957073

encoder_layer_mhattentions.0.attention_heads.2.Q.bias f4 [8]
000000 63 f3 65 3e a0 d5 64 3e 3e 4e 07 3e 17 b0 90 3d
       0.22456126 0.22347116 0.13213441 0.070648365
000010 b7 f8 f2 bb 3b 27 ae 3c b7 81 a7 be 68 fe 3d 3f
       -0.007414903 0.02125894 -0.32716152 0.7421632

encoder_layer_mhattentions.0.attention_heads.2.K.weight f4 [8, 8]
000000 1e 36 17 be 2a fa 6d 3e f7 ac 14 be 5c c5 e9 3d
       -0.14766738 0.23239961 -0.14519106 0.114145964
000010 98 d0 01 bd 82 b0 df be c8 6e 4d be 43 1a d1 be
       -0.03169307 -0.43689352 -0.20061791 -0.4084035
000020 e9 bb 8d 3e 37 ae 0b bf 52 9e 05 3e 9d ac db bc
       0.27682427 -0.54562706 0.13048676 -0.026815707
000030 3c 73 8a bd 25 a9 cf 3d bc f1 20 bd 79 49 28 3d
       -0.067602605 0.10139684 -0.039293036 0.041085694
000040 7d 89 27 bf f7 8a 7c be 43 97 0c 3f 00 fb 2b 3e
       -0.65444165 -0.24662386 0.5491831 0.16794968
000050 82 e4 eb 3e 10 a0 2b bc b6 0a a5 bd 7a 23 60 be
       0.46072775 -0.010475174 -0.080586836 -0.21888533
000060 bd 43 7e 3e 8f 7c 0a bf 83 a3 2f be 50 f6 d9 3e
       0.24830528 -0.5409631 -0.17152219 0.42570734
000070 64 5b 5b 3e 6a 3a a1 be 50 38 52 3d 47 8b c8 be
       0.21421582 -0.3148988 0.051323235 -0.3916876
000080 fb 5e c2 3e c1 93 36 3f 1b 51 92 bd 7c b0 82 39
       0.3796309 0.71319205 -0.07144376 0.00024927023
000090 77 fe 03 bf 41 bf f3 3e 69 3d 30 3f 55 db ab 3e
       -0.5156016 0.47606853 0.68843704 0.33565775
0000a0 ac fa a8 bd 72 bf e0 bd 37 02 eb bc 4c 0e 39 3d
       -0.08250937 -0.10974015 -0.02868758 0.04517965
0000b0 a2 de a1 3d f0 81 35 3c 52 53 9a bd 0e d0 86 bc
       0.07903792 0.011078343 -0.07535423 -0.01645663
0000c0 f5 0e ea 3e e0 3b 00 3f 3a 7d b3 3d 81 6c 8c 3d
       0.45714536 0.5009136 0.087641194 0.06856633
0000d0 c7 c5 a3 3d 8b 00 0a 3f 4b f5 5c 3f da a2 d7 3d
       0.079967074 0.5390708 0.8631179 0.10529108
0000e0 22 3c b1 be 17 d6 01 bf c1 59 57 3e da a3 ac 3e
       -0.3461619 -0.507173 0.21030332 0.3371876
0000f0 90 b3 f2 3d 55 b8 84 be 7a 3e 4d bf d4 76 81 be
       0.11850655 -0.25921884 -0.80173457 -0.2528597

encoder_layer_mhattentions.0.attention_heads.2.K.bias f4 [8]
000000 7d 7f a4 3e eb 71 c9 3d 35 1c 78 be a0 b1 49 be
       0.32128516 0.09836181 -0.2422951 -0.19696665
000010 ec c8 13 be ef 11 8d be ee f2 55 3e 03 fe b5 3d
       -0.14432114 -0.27552745 0.20893452 0.088863395

encoder_layer_mhattentions.0.attention_heads.2.V.weight f4 [8, 8]
000000 73 8c d5 bd da 9a 86 3e f5 fd c8 3d cc 9f 8b 3e
       -0.10427179 0.26290017 0.098140635 0.27270353
000010 5a 5c e8 bd 77 98 61 3e 7f cd 9a be 44 06 91 3d
       -0.1134574 0.22030817 -0.30234906 0.07081273
000020 7a e3 27 be 32 65 f2 bd 05 53 17 be d6 61 9f be
       -0.16395369 -0.11835708 -0.14777763 -0.3112933
000030 34 b4 03 3d 4e 02 89 3e fd 40 e5 3d 70 11 2e be
       0.032154277 0.2675957 0.11194036 -0.1699884
000040 1b 3b 21 3d 9b ea a3 3c c8 9c 23 3d 36 b3 48 3d
       0.039363008 0.02000933 0.03994444 0.048999034
000050 92 b2 ac bd 33 14 c5 3d 9e e6 35 bc 3d e6 c9 bd
       -0.08432497 0.09622993 -0.011102347 -0.098583676
000060 bc a1 44 3a 6b 90 9b bd 75 e3 85 be 80 92 89 3e
       0.0007500907 -0.07595905 -0.26150098 0.26869583
000070 40 bb 01 3e 45 83 01 3e fd f8 8e 3e 90 9f b0 bd
       0.12669086 0.12647732 0.27924338 -0.08624184
000080 c6 53 6d bc cb a6 78 bd 05 07 10 3d d8 9d 64 3d
       -0.014485305 -0.06070594 0.035162944 0.055814594
000090 ff 15 d7 3c ca 0d 74 bd 30 3d 23 3e f9 f4 03 be
       0.026255606 -0.059583463 0.1594131 -0.12886418
0000a0 d5 e8 d6 bd 79 80 d5 bd 6b 75 7a bd af 7a ad 3e
       -0.10493628 -0.10424895 -0.061147135 0.33882663
0000b0 cf c2 93 be 02 bc 3e be d2 ef d0 3e 6b 50 34 be
       -0.28859565 -0.18626407 0.40807968 -0.17608802
0000c0 69 6c 50 bc e2 eb 8e 3e 3a 7e 2e be bf 60 64 3e
       -0.0127211595 0.2791434 -0.17040339 0.2230253
0000d0 8f ae 2f 3e f4 a1 86 be e3 eb d8 bd 6c b7 86 be
       0.17156433 -0.26295435 -0.10591867 -0.26311815
0000e0 14 f9 28 3e 95 33 80 be f1 36 35 bd 7b 87 c2 bc
       0.16501266 -0.25039354 -0.04424185 -0.023746243
0000f0 9e 01 bd 3c 67 32 1c 3d f9 85 de be c4 d5 1e 3e
       0.02307206 0.038134005 -0.43461588 0.15511233

encoder_layer_mhattentions.0.attention_heads.2.V.bias f4 [8]
000000 11 84 b8 3e 0d f6 90 be d8 96 df 3d 1d c4 43 bc
       0.3603826 -0.28312722 0.10917443 -0.0119486125
000010 2a 4d 8d bd 4c 15 a6 3e 6f 5d a4 3c bf a1 c1 bd
       -0.068994835 0.32438123 0.020064084 -0.09454679

encoder_layer_mhattentions.0.attention_heads.3.Q.weight f4 [8, 8]
000000 d1 44 86 3e 5d 39 40 bd 45 66 e0 be 62 20 17 bf
       0.26224378 -0.046929706 -0.43828025 -0.5903379
000010 40 ac d9 3e 3b 6c b4 be 67 bd 7f 3e fb f4 dc 3e
       0.4251423 -0.35238823 0.24974595 0.43155655
000020 14 1b 00 3d c9 28 41 3e 59 73 19 bc 42 75 c3 3e
       0.031275824 0.18863215 -0.00936588 0.38175398
000030 a4 63 40 be ce bd 1e 3e 2b 3a 3d bd e0 bc 5f 3e
       -0.1878801 0.15502092 -0.04619805 0.21849394
000040 5a 5f 2d bd 2c 00 1c 3e 2a e7 b6 bd 52 91 89 3d
       -0.042327262 0.1523444 -0.0893081 0.06717171
000050 bd 99 02 bb 8a 5d 62 3d 07 61 6f 3e 6e b8 e6 be
       -0.001992806 0.055264987 0.23376857 -0.45062584
000060 08 45 7a be 63 41 06 be 2a b7 3b 3d d8 d0 05 be
       -0.24440396 -0.1311088 0.045828976 -0.13067949
000070 91 05 1a be cb 4e 0c 3d e8 62 63 3e 05 3e 68 3e
       -0.15041186 0.03425483 0.22205698 0.22679909
000080 ce f5 c3 3d d9 c6 be be 5b bb 6c 3c 20 c7 30 bd
       0.09568368 -0.37261084 0.014448966 -0.04315865
000090 48 a6 1d 3f 5b df 2e be 1a ee f1 be d8 89 04 be
       0.6158185 -0.17077391 -0.4725197 -0.12943208
0000a0 6c 15 28 3d 80 80 06 3f c7 82 8f 3d 5d 50 97 bd
       0.041036054 0.52539825 0.07007366 -0.07388375
0000b0 87 66 00 bf b6 16 39 3e b8 ff 16 3e 34 ea 2b 3d
       -0.50156444 0.1807507 0.14745986 0.0419714
0000c0 d0 f2 38 be b7 56 c7 be 99 de ac be a0 66 68 be
       -0.18061376 -0.38933346 -0.3376358 -0.22695398
0000d0 25 59 ff 3e 97 a5 09 bf 58 86 44 be d4 3c d4 3d
       0.498727 -0.53768295 -0.19191873 0.103631645
0000e0 2c 76 8e 3e ee 0d 6e 3e 61 9d f8 3d ab 9a 09 bf
       0.27824533 0.23247501 0.12139393 -0.5375163
0000f0 6d d5 e5 3e 24 1d cd be a9 82 f5 be 59 8a 1c be
       0.44889393 -0.40061295 -0.47951248 -0.1528715

encoder_layer_mhattentions.0.attention_heads.3.Q.bias f4 [8]
000000 25 ef e4 be 0b 5d 35 be 4d dd 37 3e ff 6c 95 be
       -0.44713703 -0.17711274 0.17955513 -0.2918472
000010 a7 89 13 3e d2 27 12 3f f4 e0 d0 be 61 bc ca 3e
       0.14407979 0.5709201 -0.40796626 0.39596847

encoder_layer_mhattentions.0.attention_heads.3.K.weight f4 [8, 8]
000000 fe de bf be 20 6f bb 3e 0d f6 ff bc f0 4b 5a be
       -0.37474817 0.3660822 -0.031245256 -0.2131803
000010 f7 50 a6 be d1 ad 10 bd 8d cf 1d bf 0d 8c 09 bf
       -0.32483646 -0.035322014 -0.6164482 -0.53729326
000020 69 19 4e 3e 08 70 8b be 7e 7b cd 3d 00 90 11 3f
       0.2012688 -0.2723391 0.1003332 0.5686035
000030 24 38 41 3d 80 53 c2 3e 26 84 96 bd 93 f1 2b be
       0.04717268 0.3795433 -0.07349424 -0.16791372
000040 5a 07 ec be 94 44 ce 3c 35 d0 98 be a0 de 40 3a
       -0.4609936 0.025179185 -0.2984635 0.00073573925
000050 94 d5 be 3e 51 73 88 bd e4 8f 8a 3e 35 35 71 be
       0.37272322 -0.0666262 0.27062905 -0.23555453
000060 06 bc a0 bd 23 08 43 3c ed 73 8d 3e 73 84 b2 be
       -0.078483626 0.011903795 0.27627507 -0.34866676
000070 20 41 53 3d c3 83 63 bd 72 e8 2a be 20 bf bf 3d
       0.05157578 -0.05554558 -0.16690233 0.09362626
000080 36 1f ee 3e 59 bc 94 3e a6 94 75 be 9d c7 9d be
       0.46508187 0.29049948 -0.23982486 -0.30816355
000090 9e 68 12 be 15 ee 56 be 56 2c 3e be a9 e8 c2 3d
       -0.14297721 -0.20989259 -0.185716 0.09517033
0000a0 6a 84 ca be 18 a0 fd be 6b b4 ad be 8d 1b da 3e
       -0.3955415 -0.49536204 -0.3392671 0.42599145
0000b0 46 83 89 3d 6d c8 82 3e 2e 14 77 3e 61 55 9a 3d
       0.067144915 0.25543538 0.24128792 0.07535816
0000c0 68 31 ce 3d 1d e2 13 3f 73 b0 8e 3e f6 72 dd be
       0.10068017 0.57766896 0.27868995 -0.4325177
0000d0 f6 5f 37 be 78 31 fe bd 07 a2 45 be fb 34 dc bd
       -0.179077 -0.12411779 -0.1930009 -0.10752293
0000e0 fd 17 28 be 39 8c 94 3e fe b1 28 bf 3b 81 07 bf
       -0.16415401 0.2901323 -0.65896595 -0.52931565
0000f0 ee 01 a9 be 58 69 cd bb 64 45 a9 3e 95 ad c4 3b
       -0.33009285 -0.0062686615 0.33060753 0.006002138

encoder_layer_mhattentions.0.attention_heads.3.K.bias f4 [8]
000000 ac c8 85 be c9 6c 1a 3d 01 dc fe bd 6c db 7f 3e
       -0.26129663 0.0377014 -0.12444306 0.24986047
000010 78 83 b6 3e b2 d8 90 3e b5 df 15 3e b7 7b 0a 3e
       0.35647178 0.28290325 0.14636119 0.13523756

encoder_layer_mhattentions.0.attention_heads.3.V.weight f4 [8, 8]
000000 53 88 70 be 1d 33 a5 bd a8 e8 7a bd ce c9 46 be
       -0.23489504 -0.0806639 -0.061257035 -0.1941292
000010 b3 19 9a 3d 11 ab db bd c4 5e e6 bc bc 9c 13 be
       0.07524433 -0.10725988 -0.02812136 -0.14415258
000020 8e 65 ac be 7e 58 0e 3e c6 c2 b0 bc d8 4f 04 3d
       -0.3367123 0.13900945 -0.02157725 0.032302707
000030 eb 59 71 3e 74 79 80 bd 92 f4 35 be 0f c8 d6 bd
       0.23569457 -0.06273165 -0.17769077 -0.10487377
000040 f0 1c 01 be 15 2c 28 3e 99 85 f9 3d df db 94 3e
       -0.12608695 0.16423066 0.12183685 0.29073998
000050 88 13 9a be 9c a0 7a 3e c9 82 9d 3b 43 62 8e 3e
       -0.30093026 0.2447533 0.0048068506 0.27809343
000060 04 4a 6f be d2 a7 c5 bd 90 2f b4 3c ad 26 05 3e
       -0.23368078 -0.0965115 0.021995336 0.13003035
000070 c7 76 5e 3d 01 9b 90 3d 97 3a 85 3b 66 4b 7d 3d
       0.054312494 0.07060815 0.0040658223 0.061839484
000080 ba 35 86 be c2 b1 aa be 61 df d0 bc f3 bd f1 3d
       -0.26212865 -0.33338743 -0.02549714 0.11803808
000090 7a 05 a3 be f0 e4 30 3e 1c 30 b3 3e 80 89 8d bd
       -0.31840116 0.17274833 0.34997642 -0.06910992
0000a0 3f e9 e2 bc 23 7d 6b bd c2 2c 90 be 62 fb 31 3e
       -0.027699111 -0.057492387 -0.28159148 0.17381051
0000b0 a4 59 87 3c b0 3b e9 3c d0 6e b0 bd e7 d5 b9 be
       0.016522236 0.028470844 -0.08614886 -0.36296007
0000c0 e2 db 21 3e e3 3b b4 3e 44 53 3b be 8e 46 03 3e
       0.15806535 0.3520194 -0.18293482 0.12819883
0000d0 e7 76 ac be bf 92 01 3e b8 b4 55 be db 8d cb 3d
       -0.33684465 0.12653635 -0.2086972 0.09939166
0000e0 ac 7f 7e 3e ae 22 35 3e 9d fa 00 3e f9 29 7b 3e
       0.2485339 0.1768901 0.12595601 0.2452773
0000f0 24 87 82 3e 6c 0c 96 3d 4c 77 c6 be 5d 90 9a 3e
       0.2549373 0.07326588 -0.3876289 0.30188265

encoder_layer_mhattentions.0.attention_heads.3.V.bias f4 [8]
000000 a4 af 8f 3d 48 f6 22 bc 96 af c1 bc 12 56 49 be
       0.07015923 -0.009946413 -0.023643296 -0.1966174
000010 53 e1 b6 be 5e 9c a6 3a c5 45 a5 3e f5 20 e2 3d
       -0.35718784 0.0012711396 0.32279792 0.11041442

encoder_layer_mhattentions.0.output_layer.weight f4 [32, 32]
000000 ba bf 94 bc 5a f3 2f be 5b 44 21 3c 6e ae 29 3f
       -0.018157829 -0.17182675 0.009842957 0.66281784
000010 5e 21 36 3e e7 c3 db 3d 26 a3 45 3e 01 a8 4d be
       0.17786166 0.10730725 0.19300517 -0.2008362
000020 39 68 29 be e8 6b b2 bd 3e 57 27 bf 17 ae bb 3e
       -0.16543664 -0.08711988 -0.65367496 0.36656258
000030 0a b0 34 bf f2 9f 65 3d 84 7a cf be 2a 35 0c be
       -0.70581114 0.05606074 -0.4052316 -0.13692155
000040 74 58 83 3e 94 56 06 bd f3 10 6a 3b 4d 4c 1f 3e
       0.25653422 -0.03279741 0.003571567 0.1555645
000050 7e ed 61 be bd 82 8d be 46 cf 50 3e 8e 91 04 be
       -0.22063252 -0.27638808 0.20391569 -0.1294615
000060 9c ff 89 bd 88 5a 86 bc 43 2a 0d bd c5 64 07 3d
       -0.06738207 -0.01640059 -0.034464132 0.033055086
000070 7c 7d be be 6f 21 61 3e 6c 28 b4 3e 94 57 ff 3d
       -0.37205112 0.2198541 0.3518709 0.12467876
000080 47 e5 8b bb b0 30 f0 3e 54 ac 9e 3e 03 1d bd be
       -0.0042692753 0.46912146 0.3099085 -0.36936197
000090 25 87 4b 3e 1f cd 03 bf cd 41 83 3e 99 9b 1c 3d
       0.19875772 -0.51484865 0.2563614 0.038234327
0000a0 ca 75 92 be d6 d7 7c be dc 9e 01 3f be bc 08 bf
       -0.2860549 -0.2469171 0.50633025 -0.53413
0000b0 f9 49 34 3f 34 d1 51 3e 3e a9 9f 3e 93 9f 95 be
       0.70425373 0.20489961 0.3118381 -0.29223308
0000c0 61 69 a6 3e ac b0 43 bd b9 2b 85 bd 84 92 fa 3e
       0.32502273 -0.04777591 -0.0650248 0.48939908
0000d0 f3 74 11 be 46 4b 8e bc bc 14 5c 3e be 27 2e be
       -0.14204769 -0.017369878 0.21492285 -0.17007348
0000e0 50 02 41 3d ba a2 4f be 4a 78 9e be 98 c4 af bd
       0.047121346 -0.20276919 -0.30951148 -0.08582419
0000f0 47 20 95 3e 82 50 50 3e a7 40 0a be 2a c7 8c be
       0.29126188 0.20343211 -0.13501225 -0.274957
000100 b8 90 98 be d9 11 16 be 1b 28 3c 3e 5b fc 6e bb
       -0.29797912 -0.14655246 0.18374674 -0.0036466334
000110 85 c2 1a be b2 3a f1 bc 42 c0 bc 3e 67 64 f4 bc
       -0.15113266 -0.029446933 0.3686543 -0.029833032
000120 bd 5d 98 3e 78 53 1f be 3d ea 23 bf a4 f3 4a be
       0.29759017 -0.15559185 -0.64029294 -0.19819504
000130 e4 ef 36 bf 1f e1 fb be 6f 03 51 3e 32 b0 f0 3d
       -0.71459794 -0.4919519 0.20411466 0.117523566
000140 6a c7 ac be fc 26 58 3e e1 d8 5d 3e 83 2e 53 be
       -0.3374589 0.21108621 0.21664764 -0.20623212
000150 3a 0e a2 bd 49 7c 25 3e b2 05 81 bd a2 f3 7b 3e
       -0.0791287 0.16160692 -0.062999144 0.24604657
000160 f4 43 be be 77 74 fa bc 5e 79 91 bb dd c2 05 be
       -0.3716122 -0.030573113 -0.004439517 -0.13062616
000170 c3 81 1c be 55 22 96 3c a5 73 a4 3d cc 9b 9a 3e
       -0.15283875 0.018326918 0.0802987 0.3019699
000180 3a 0e 07 3f 3c b9 69 3e 8f 26 d8 bd 92 08 20 bf
       0.52756083 0.22824568 -0.105542295 -0.6251308
000190 c4 84 a6 be 8f 49 16 be a9 6b 49 bf 02 7d 6c be
       -0.32523167 -0.14676498 -0.786799 -0.23094562
0001a0 51 57 c6 3d 9b 1e 21 3f a9 1b 45 3d 3c 77 83 3e
       0.09684623 0.62937325 0.048122082 0.25676906
0001b0 ed e1 9d 3e fc 57 19 bd 6a 7f 09 be 48 62 65 3e
       0.3083643 -0.037437424 -0.13427511 0.22400773
0001c0 33 0c 36 be 6e 5a 0e 3c ab d2 18 be d4 07 a0 be
       -0.17778091 0.008688552 -0.14924113 -0.31255972
0001d0 64 5a 51 bd 7c 27 d9 be b7 78 a7 3e ab 64 c9 be
       -0.051111594 -0.42412937 0.32709286 -0.39334616
0001e0 6c 30 65 3e 45 83 93 3e 69 e3 9f 3d 66 c2 8a be
       0.22381753 0.28811088 0.07807047 -0.2710144
0001f0 f9 3a 1f be de c4 ff bd 7a 67 27 3e 82 a6 a9 be
       -0.1554984 -0.12488721 0.16348067 -0.33134848
000200 66 6e 1f 3e 7a d2 95 bd dd e5 40 be 67 9a 02 bc
       0.15569457 -0.07315536 -0.18837686 -0.007971383
000210 39 ec 1c be 11 76 50 bd 5c 7a 06 3e da e7 d9 3c
       -0.15324487 -0.050893847 0.13132614 0.026599813
000220 b7 12 a0 be cb 11 5f 3d e1 e2 4e be 6a 7d 7c 3b
       -0.31264278 0.054460328 -0.20203735 0.00385269
000230 7d 3c 84 3d 45 dd 0b 3c c5 55 19 3e fb 2c 88 bc
       0.0645685 0.0085366415 0.14974125 -0.01662301
000240 61 0a 8b 3d 31 eb 01 be 11 cd 72 3e e1 39 19 bd
       0.06789089 -0.12687375 0.23711039 -0.037408713
000250 87 2e c0 3c 30 49 25 3b 92 8e d0 3d ad 4e d1 3d
       0.023459686 0.0025220625 0.10183443 0.10220084
000260 24 7e 57 bc 26 ed ab bd cc d7 76 bd d5 c2 32 3d
       -0.013152633 -0.08394842 -0.060264394 0.043642838
000270 5c e5 79 3d 66 a4 56 bc 40 99 03 bd 0f 36 a7 3d
       0.06100975 -0.013100719 -0.032128572 0.08164608
000280 c2 5d 87 bd bc 9c 38 3e fb 90 1f 3d a7 6a 66 bd
       -0.0660968 0.1802854 0.038956624 -0.056254055
000290 8c 6e d8 be 6b d9 33 3e 2e 7e e4 bc e5 d6 fa bd
       -0.4227184 0.17563407 -0.027892198 -0.12248019
0002a0 b3 62 06 3f 7a 56 c5 3e 08 c5 cd bc 81 ef 90 3d
       0.52494353 0.3854254 -0.025118366 0.07076932
0002b0 af 86 e9 3d a1 07 81 be 1c 97 c4 bd 99 c0 66 3e
       0.11402642 -0.25201133 -0.09599134 0.22534408
0002c0 a4 a8 a3 bc 08 b6 23 be 7f a1 49 be 02 89 d8 be
       -0.019977875 -0.15987408 -0.19690512 -0.4229203
0002d0 ab a2 38 be 87 7c 1c be 8e 03 ee 3d 52 da 26 3e
       -0.18030803 -0.15281878 0.11621772 0.1629422
0002e0 5f a9 ed 3d e0 94 29 3f 9b 90 4f 3e 3d 4d 36 3c
       0.116045706 0.6624279 0.20270006 0.0111268135
0002f0 b3 a6 3d bd f5 05 2e 3e 5f 1a 04 be 8a 26 80 3e
       -0.046301555 0.1699446 -0.12900685 0.25029403
000300 31 82 83 be 2b 85 54 3e d4 76 76 3e 5d 78 e6 bd
       -0.25685266 0.20753925 0.24068767 -0.11253426
000310 b8 74 b6 be 54 18 1f 3e 2f 6d 0a be d2 46 41 bd
       -0.35635924 0.15536624 -0.13518213 -0.04718668
000320 72 9e c5 3d c1 81 6c 3d 4b 82 9f bd c1 9f cd 3d
       0.09649362 0.05774093 -0.07788523 0.10040236
000330 5a 5d 21 be 4f a4 20 be 52 1c 43 be 63 9f 8f be
       -0.15758267 -0.15687679 -0.19053772 -0.2805129
000340 59 67 bd bd 5a df dd 3e 5f c6 10 3e c3 d0 fa 3d
       -0.092482276 0.43334466 0.14138173 0.122468494
000350 6d 15 6a be ba 41 08 be 01 a4 01 bd ca 2d 85 3e
       -0.22859736 -0.13306323 -0.031650547 0.26011497
000360 24 7a 3d be 80 29 ed 3d 84 11 43 bd 0d c5 72 bd
       -0.18503624 0.11580181 -0.047624126 -0.059269954
000370 b3 83 b5 ba dc 98 f4 bd 25 77 57 be d6 6a 3c 3e
       -0.0013848454 -0.11943218 -0.21041544 0.1840013
000380 9e 36 0d bd c5 84 a0 3e 83 f2 db be 9e 78 1a be
       -0.034475915 0.31351295 -0.4295846 -0.15085074
000390 23 9c c6 3e 73 18 be be 8b 69 09 bf 2c 55 81 be
       0.38790998 -0.37128028 -0.5367667 -0.25260293
0003a0 90 68 78 be 48 8f b4 3e 3e 80 1e 3e 0e 28 73 3e
       -0.24258637 0.35265565 0.15478608 0.23745748
0003b0 64 0f 9a 3e c5 f5 34 3e 0e a8 2b bd 5b 17 c4 bd
       0.30089867 0.17671879 -0.041908316 -0.09574767
0003c0 aa 3d 91 be dc e8 9d 3e 80 f5 14 3d c9 4e 32 3d
       -0.28367358 0.3084172 0.03636694 0.043532167
0003d0 80 ae 09 3e e0 cb 19 3e 78 7d dc bd ad 14 d8 bd
       0.13445473 0.15019178 -0.10766119 -0.105508186
0003e0 a4 eb 3d 3d 1e 4c a2 bc 38 0d 66 be 64 67 fe 39
       0.046367303 -0.019811686 -0.2246598 0.00048523687
0003f0 78 44 71 3e df 96 fc bb fa 77 a9 be 9d 00 49 be
       0.23561275 -0.007708415 -0.33099347 -0.1962914

encoder_layer_mhattentions.0.output_layer.bias f4 [32]
000000 c7 4d 55 bc 87 3c 8a be 91 4c 5b be 3d 6d ad be
       -0.013019032 -0.26999304 -0.21415927 -0.33872405
000010 69 9d 5e bd a2 bf 43 3e 4a dc ad 3b 69 90 5d be
       -0.054349337 0.19116071 0.0053058015 -0.2163712
000020 71 af 19 be 34 32 03 3e 2b f6 56 3e e1 11 4e be
       -0.15008332 0.1281212 0.20992343 -0.20124008
000030 c9 37 70 be 89 ad b0 3e 61 8a 91 3d 96 bc 04 be
       -0.2345878 0.34507397 0.07106472 -0.12962565
000040 22 e9 fc bd 5c e7 95 3e bd 13 5a 3e a6 99 d0 be
       -0.12349154 0.29278076 0.21296592 -0.40742224
000050 e0 2c 94 3e 48 48 5e be da e0 f6 3e 8f 0e 55 3e
       0.28940487 -0.2170726 0.48218423 0.20806335
000060 26 42 0e 3e ed 3c 9b 3e 15 03 08 3d 67 75 23 be
       0.13892421 0.3031992 0.033206064 -0.15962754
000070 18 d6 cb bd 59 be 76 be b0 15 34 be f5 f0 bd ba
       -0.099529445 -0.2409605 -0.17586398 -0.0014491366

encoder_layer_mhattentions.1.attention_heads.0.Q.weight f4 [8, 8]
000000 5e 50 4a 3f 2f f3 f0 be 6b 77 97 3d a5 00 98 be
       0.7902888 -0.47060534 0.07395824 -0.29687992
000010 10 17 11 3e 59 75 d5 3e 88 13 44 3e 0b 24 c2 3e
       0.14168954 0.41691092 0.19148076 0.37918124
000020 56 da 1a 3e 92 de 96 3e 83 1d 10 bf 4d 64 eb 3e
       0.15122351 0.29466683 -0.5629503 0.4597496
000030 ff 09 17 3e 58 4c 2d be 8d 55 ae 3e 46 6b 86 3d
       0.14749907 -0.16923654 0.34049645 0.065634295
000040 aa bd 2f be 5d 1a ff be e8 d6 0d bf a6 82 3e 3e
       -0.17162195 -0.498248 -0.55406046 0.18604526
000050 88 0c 50 be 37 8e 4e be 6f cb ed be af c1 15 3f
       -0.2031728 -0.20171438 -0.4644427 0.5849866
000060 61 04 02 3f 51 34 e3 be dd 02 89 bc 3e b9 4e 3f
       0.5078793 -0.44375852 -0.016724998 0.8075141
000070 d8 77 d1 be 84 d4 3f 3e 73 fc 48 be 42 5d 86 be
       -0.40911746 0.18733412 -0.19627552 -0.26243025
000080 9e be 52 be 0d 57 34 3f 89 29 3e 3d 83 1f 85 bd
       -0.20580527 0.7044533 0.04642633 -0.06500151
000090 07 f3 9c bd 40 51 56 3e 28 66 ab be 18 bc 53 be
       -0.07663541 0.20929432 -0.33476377 -0.20677221
0000a0 21 1a d0 be 20 01 2d be 9e 66 48 bf 45 88 a1 3e
       -0.40644935 -0.1689496 -0.7828158 0.31549278
0000b0 67 bb f0 bd a7 c1 1b bf 82 f7 62 3e 9f 0e 93 3d
       -0.11754494 -0.60842365 0.22164729 0.07180523
0000c0 f3 ac ba 3e b7 ad 4a 3e 45 2a d2 bc 6b eb ff 3e
       0.36460075 0.1979283 -0.025654921 0.49984297
0000d0 24 c2 08 3e 42 fe 21 bd bc f6 25 3e 24 ca 87 3e
       0.13355309 -0.03954912 0.16207403 0.2652141
0000e0 56 c6 53 be 3d 2a 58 3d cc 25 09 3e e9 9b 7b 3e
       -0.20681128 0.052774657 0.13393325 0.24571194
0000f0 21 0d 6a be 8c c6 8f 3b 36 4f 22 3f f4 20 6b bd
       -0.22856571 0.0043876823 0.63402116 -0.057404473

encoder_layer_mhattentions.1.attention_heads.0.Q.bias f4 [8]
000000 87 74 9f be ed 9e 03 bf 08 cf d4 bd a5 da 94 bc
       -0.3114359 -0.51414376 -0.103910506 -0.018170664
000010 46 1d 69 bf ac 44 fb 3e c0 da 87 3e 57 22 93 3d
       -0.9106029 0.4907583 0.2653408 0.07184284

encoder_layer_mhattentions.1.attention_heads.0.K.weight f4 [8, 8]
000000 14 0c e5 3e 94 c0 9b bd e6 07 4e 3e 41 2d 4d be
       0.44735777 -0.07605091 0.201202 -0.20036794
000010 d3 75 8e 3e 16 3b fd 3d f5 16 3e bf 28 14 75 be
       0.27824268 0.123647854 -0.7425378 -0.2393347
000020 0d 8e 0e 3c 40 a0 09 3f b0 9b 14 3f 57 d3 03 bf
       0.00870086 0.5376015 0.5805006 -0.51494354
000030 1e 66 8c 3e 70 32 a0 be 3c a0 85 be 62 26 8d be
       0.2742166 -0.3128848 -0.26098812 -0.27568346
000040 83 77 01 be 28 f9 18 3e 46 b0 0b 3f a7 7f 25 3f
       -0.12643246 0.14938796 0.54565847 0.64647907
000050 ba 52 ea bd 8c 86 20 3e ec 29 ab 3d 12 68 b8 be
       -0.1144156 0.15676326 0.08357605 -0.360169
000060 cf 33 db 3e 45 f1 10 3f dd 24 02 3d e1 b1 8c be
       0.42812964 0.5661815 0.031773437 -0.2747946
000070 d3 d3 39 3e 58 d7 78 3d da 7f b5 3e e6 26 2c bf
       0.18147211 0.060752243 0.35449106 -0.67246854
000080 dd 12 34 bc 86 10 ad be a5 61 2f 3d 31 32 27 bd
       -0.0109908255 -0.3380167 0.04281773 -0.04081935
000090 69 7e 9d 3e 06 9e 65 bf c2 d8 9b 3e 46 67 ad be
       0.30760506 -0.8969425 0.3043881 -0.33867854
0000a0 06 c7 0b be 22 f3 aa 3e 4c 5f c6 3e c5 e5 9d bb
       -0.1365014 0.3338862 0.3874458 -0.0048186504
0000b0 dd 5f 38 be 79 37 14 3f b4 57 52 3e fb 76 6b 3e
       -0.18005319 0.57897145 0.20541269 0.22994606
0000c0 3f 71 a5 be 6d 81 6f 3e 0e a7 34 bd df aa a5 be
       -0.32312962 0.23389216 -0.04410463 -0.32356927
0000d0 13 4c 18 be 03 d2 47 3e 92 ea 78 bd 1f 67 be be
       -0.1487277 0.19513707 -0.06077058 -0.3718805
0000e0 1f 02 14 3e 27 21 65 3c 31 cc 85 3d e8 e6 83 be
       0.14453934 0.013984955 0.06533087 -0.25762105
0000f0 f6 d2 9f 3e e0 20 be 3e 41 6b bb 3e 86 d4 6a 3e
       0.31215638 0.37134457 0.36605266 0.22932634

encoder_layer_mhattentions.1.attention_heads.0.K.bias f4 [8]
000000 a1 27 36 3e d6 ce a2 be 3b dc b3 3e 4e 4d ca 3d
       0.17788555 -0.31798428 0.3512896 0.09878026
000010 6a 42 81 be e8 f4 56 be 74 af a8 3e 10 90 d1 bd
       -0.25245982 -0.20991862 0.3294636 -0.10232556
