models/model_chkpt_10.pt (torch, 318877 bytes, 387 tensors)

tokenizer.token_embedding.weight f4 [17, 32]
000000 32 3f 21 bf f5 74 b7 bf e8 43 10 3e b7 02 76 3f
       -0.62987053 -1.4332567 0.14088404 0.9609789
000010 b3 03 c1 3f e7 0e 93 3f 9c 1f 93 3e 98 71 30 3f
       1.5079254 1.1488923 0.28735054 0.6892333
000020 4f fe c2 bf 8e 01 b6 bf 50 30 0b be 11 f9 72 3d
       -1.5233859 -1.4219224 -0.13592649 0.05931956
000030 9b be 91 bf 9b ff 98 be 97 ea 79 be cc b3 16 3e
       -1.1386293 -0.29882511 -0.24405895 0.14717025
000040 00 25 21 bf a8 eb ab 3e 58 7e 44 bf 77 a3 8e be
       -0.6294708 0.3357823 -0.76755285 -0.2785909
000050 55 f9 24 bf 70 f1 00 c0 0a 91 8d 3f d3 eb d6 3f
       -0.6444295 -2.0147362 1.1059887 1.6790718
000060 07 8c db be 06 83 13 3f 71 e3 58 3f 33 24 25 3f
       -0.4288027 0.576218 0.8472205 0.6450836
000070 4e bf 2b bf 9f 60 19 c0 37 d1 81 3f 92 6b 86 bf
       -0.6708878 -2.3965223 1.0141972 -1.0501578
000080 a6 56 1b bf 0c 7f a0 bf f6 62 a2 3f 04 7f da be
       -0.6067909 -1.2538772 1.268645 -0.4267503
000090 44 31 f5 3f f0 7e 37 3e ee 2b b4 be 99 35 72 3e
       1.915566 0.17919517 -0.35189766 0.23653258
0000a0 f9 72 53 bf 81 6c b4 bf 15 b4 ed bd 10 a5 49 3d
       -0.8259731 -1.4095613 -0.116066135 0.04922968
0000b0 a4 4b 51 bf 32 02 4b be 61 5e 3c bf e4 b6 41 be
       -0.81756043 -0.19825056 -0.7358151 -0.18917423
0000c0 81 31 aa 3f 20 e3 a0 be 4c 4d 9f bc c8 87 66 3f
       1.3296357 -0.31423283 -0.019446038 0.90050936
0000d0 f6 f7 11 3f ce da 3a 3e 0f 87 4f 3f a1 91 a7 3e
       0.57018983 0.1824753 0.8106546 0.32728294
0000e0 a6 4e 90 bf 4f b2 a6 be b3 1c 8c 3f ad d8 f7 3d
       -1.1274002 -0.32557914 1.0946258 0.121018745
0000f0 d2 f7 80 bf 23 61 a1 bf 8f f9 9c be 0b f7 4a 3f
       -1.0075629 -1.2607769 -0.30659148 0.7928321
000100 fa 85 12 3f 56 29 37 3f 67 6d 83 3e d6 d0 43 bf
       0.5723568 0.7154745 0.25669405 -0.76490533
000110 8d 90 07 40 00 7f a8 3e f2 56 66 3f 9e dc ff bd
       2.1181977 0.32909393 0.8997642 -0.12493251
000120 d2 ea 5f bf 48 c7 38 bf be 89 08 bf 70 f1 88 3f
       -0.8746768 -0.7217908 -0.5333518 1.0698681
000130 5f 6e 8a bd dd b4 16 bf 64 b0 ae 3d 75 e6 5b 3e
       -0.06759333 -0.58869725 0.085297376 0.21474631
000140 fd 4f 21 3f 0c fa f1 3f 95 d5 d3 be 29 3b 75 bf
       0.6301268 1.8904433 -0.41373888 -0.95793396
000150 7f 0b 7f be 46 d5 01 bd 51 67 b9 3d 40 89 ed bf
       -0.24906729 -0.031697534 0.09052909 -1.855751
000160 dc 38 97 bf 4d 0c ad 3f 88 93 ec 3e a0 87 0f 3f
       -1.1814227 1.3519379 0.46206307 0.5606632
000170 64 ee 1e 3f c8 fb 0c 3c c0 4b 5a bd 63 19 00 bf
       0.62082505 0.008604951 -0.053294897 -0.5003874
000180 7f 7c 5c bf dd a4 21 3f 19 42 d9 bc 35 9f 37 3e
       -0.86127466 0.63142186 -0.026520776 0.17931826
000190 2e d1 89 3e f5 a3 17 bf 3f e7 1a 40 2c 93 e6 3e
       0.26917404 -0.59234554 2.4203641 0.45034158
0001a0 84 bd 8c bf e4 0e 49 3f eb 35 c0 bf 80 94 86 3f
       -1.0995336 0.78538346 -1.5016454 1.0514069
0001b0 95 ba 65 3e a6 be 46 be 70 46 09 bf e4 af fc 3b
       0.22434457 -0.19408664 -0.53623104 0.0077113975
0001c0 92 9f 0a be b3 ec d5 3e cc fa 86 3f 8b 04 15 bf
       -0.13537434 0.4178215 1.0545287 -0.5821006
0001d0 ed 38 1e bf 98 82 8c 3f 77 e8 0e 3f 89 c6 9e bf
       -0.6180561 1.0977354 0.55823463 -1.2404338
0001e0 4c ce d6 bf dc 3a 36 3f d3 30 80 3e 75 91 7d be
       -1.6781707 0.7118356 0.2503725 -0.24762519
0001f0 5d 12 c6 3e 87 a0 77 3f 5b 75 e4 be 4c d6 c9 3e
       0.38685885 0.9672932 -0.44620785 0.39421308
000200 da 34 76 bf 5a 5b 34 bf 18 15 0f 3f f2 32 bd 3e
       -0.96174395 -0.7045189 0.5589156 0.3695293
000210 28 fb c8 be 93 f9 b3 bf 5a e7 d2 3f 01 a7 65 bf
       -0.39254117 -1.4060539 1.6476853 -0.8970795
000220 92 e0 a7 3e 8d de c8 be 15 b8 07 be 4e be f6 3f
       0.3278852 -0.39232293 -0.13253815 1.9276826
000230 5f ca f5 3e c1 11 24 3f 2e ea b8 bf 35 31 1b 3f
       0.4800596 0.6408959 -1.4446466 0.6062196
000240 da 53 03 3f 3d 02 ec be b9 17 82 3f d3 55 20 bf
       0.5129982 -0.46095458 1.016349 -0.6263096
000250 6a 0f 62 bf 90 39 74 3f 36 c8 01 3e 82 e9 cc be
       -0.8830477 0.95400333 0.1267403 -0.40021902
000260 4d 97 b5 bf 2b c3 2e be 6b 78 90 bf 2c c8 1a bb
       -1.4186798 -0.17066638 -1.1286749 -0.0023617847
000270 a5 02 4b bd 55 04 bc 3f 1c 31 cd bf 52 d1 61 bf
       -0.04956307 1.4688822 -1.6030612 -0.8821002
000280 5b 6b 9d 3f f5 a6 3c 3f 22 30 d6 3f 94 b1 39 3f
       1.2298387 0.73692256 1.6733439 0.7253659
000290 72 4c b5 bf 9c fe 19 3f bf 52 ab 3d 8e 12 7a 3f
       -1.4163954 0.6015413 0.08365392 0.9768456
0002a0 e1 c2 cf bd f7 ef f6 3e 8f 15 a8 3e b3 53 84 3f
       -0.10144592 0.48229954 0.32828948 1.0338043
0002b0 cb 53 d7 be fb 58 8c be 76 ba ba bd 75 c4 83 bd
       -0.42056116 -0.27411637 -0.09117596 -0.064339556
0002c0 a1 ee 0d 40 e2 03 03 3f 43 70 b7 3e 36 32 5f bf
       2.2176898 0.511778 0.35827836 -0.8718599
0002d0 ec ca 1b 3f 3c 6b 28 bf fa 0c 21 3f db ec 8f 3e
       0.6085651 -0.65788627 0.62910426 0.28110394
0002e0 14 73 8d 3e 45 00 ae be db a5 a0 3d e9 dd b2 3d
       0.2762686 -0.3398458 0.078441344 0.08733732
0002f0 72 bf 7e be 4e ea 39 3f b7 35 a1 bf 8c 2c 08 bf
       -0.24877718 0.72623146 -1.2594517 -0.53192973
000300 42 fd 24 3f b5 16 0a bf 54 6c 81 3c fa e2 61 bf
       0.6444894 -0.539409 0.015798725 -0.88236964
000310 4f 2d 12 bf 7e b0 a6 bf 84 d1 2b be 9a 86 fa bd
       -0.57100385 -1.3022611 -0.16779143 -0.122327045
000320 93 1d ca bd bb be 6e 3f 26 de 36 3f 3f fc 9c 3f
       -0.09868922 0.9325978 0.7143272 1.2264479
000330 4c 06 17 be 7f 00 e6 be 80 4c 5a be 75 fc cf 3d
       -0.14748496 -0.44922253 -0.21318245 0.10155574
000340 e7 16 33 3f d8 2b 6c 3e 9f 17 86 bf bb de 6d be
       0.6995682 0.230636 -1.0475959 -0.23229496
000350 16 25 88 3f aa 80 a4 be a7 51 da bc e6 15 be 3f
       1.0636318 -0.32129413 -0.026650263 1.4850433
000360 c2 35 19 bf 20 c1 94 3e 64 40 1e bf b3 7d 35 bf
       -0.5984765 0.29053593 -0.61817 -0.70894927
000370 c4 1f 82 3b 6e 29 d6 3f 20 77 c9 bd dd 2d 35 3e
       0.003971072 1.6731393 -0.098371744 0.17693277
000380 11 50 02 bf 89 fe 55 3e 89 7c f1 3f 75 48 8d 3f
       -0.5090342 0.20897879 1.886613 1.1037737
000390 34 1e 83 3f 22 b0 e4 bf 11 53 b2 bf a4 32 ff bd
       1.0243592 -1.7866251 -1.39316 -0.12460831
0003a0 0c 47 92 3e e7 5c 4f 3f c4 93 7d 3f 9b 61 21 3f
       0.2856983 0.8100113 0.990536 0.6303956
0003b0 96 af da be 7f 49 32 bf fb fc a4 3e e5 dd 06 bf
       -0.42712086 -0.69643396 0.3222426 -0.52682334
0003c0 5a 8e fc 3e ae cb 0c be e7 63 ac bf 44 89 99 be
       0.49327356 -0.13749573 -1.3467988 -0.29987538
0003d0 57 72 c4 3f 41 a3 b5 3e 18 28 a4 be 09 91 0d 3f
       1.5347394 0.35476115 -0.3206184 0.5529943
0003e0 ce 42 86 3f 80 94 05 bf 2c 5b 06 bf ca 41 65 3e
       1.0489137 -0.5217972 -0.5248287 0.22388378
0003f0 c3 f6 3e bf 5f 75 f5 3e e2 63 70 bf c6 89 02 bf
       -0.7459528 0.4794111 -0.9390241 -0.50991476

tokenizer.positional_embedding.weight f4 [9, 32]
000000 a3 5b 58 3f 93 1a 20 bf 57 28 00 3c c5 5a 2e 3f
       0.84514827 -0.6254055 0.007822118 0.68107253
000010 98 3f 02 3d 13 8e f9 3f ad 3f 2a 3d 44 d0 25 bf
       0.03179893 1.9496483 0.041564632 -0.64770913
000020 2d e2 ee be ce f9 9d bd c1 1a 09 40 a6 62 ba bf
       -0.46656933 -0.07713662 2.142258 -1.4561355
000030 69 f1 ca be c9 56 06 3d 49 0c e2 3e 76 2a 25 3f
       -0.39637306 0.03279761 0.44149998 0.64517915
000040 3a eb ad bd 0e 84 13 bf 83 f9 98 3f f3 59 7c 3f
       -0.084921315 -0.57623374 1.1951145 0.9857475
000050 46 f2 e2 3e 35 e3 ef 3d 01 18 d0 3b e7 e4 35 3f
       0.44325465 0.11713258 0.0063505177 0.710524
000060 0f b3 f8 be cc cb 60 3f 0a 51 ad 3f f0 7c b7 3d
       -0.4857411 0.8781097 1.3540356 0.08959377
000070 49 7b e2 be 3a c1 54 3e 73 52 b2 be bd 8c ed bf
       -0.44234684 0.20776835 -0.3482853 -1.8558575
000080 93 63 bd 3f 3e 7c f9 3d d1 98 70 3f 89 03 7e 3f
       1.4796013 0.121819004 0.9398318 0.99224144
000090 0b 01 fc 3f 1c a0 63 3e 3a 55 a3 3e 0a df fc be
       1.9687818 0.22229046 0.3190096 -0.49388915
0000a0 6a 4a 03 40 5c c0 d7 3c 6b a8 8a bf 72 63 f1 bd
       2.0514169 0.026336841 -1.0832647 -0.11786546
0000b0 13 29 aa be b6 95 e6 3e b9 93 89 3f 06 80 96 bf
       -0.33234462 0.45036095 1.0748206 -1.175782
0000c0 44 00 dd 3b 4b 75 b6 bf 5c c1 59 3e ca 36 c8 bf
       0.0067444164 -1.4254545 0.21265167 -1.564172
0000d0 a4 2d 9e 3f 20 74 27 3e e1 ef 5c 3f 5f 7d 08 3f
       1.2357678 0.16352892 0.86303526 0.533163
0000e0 64 f1 4b 3f 7e c8 ef 3d 9d 65 e7 3f cc f4 e6 bf
       0.7966521 0.11708163 1.8077885 -1.8043456
0000f0 07 dc 05 3f 99 6e 10 3f 8c 0f 04 40 da a9 0a bf
       0.5228886 0.5641876 2.063449 -0.5416542
000100 52 e4 e4 bd 3a 97 96 3f 8f a2 b9 3e 2c 4d dd bf
       -0.11176361 1.1764901 0.36256835 -1.7289176
000110 65 ae 1c be aa af 12 bf 9e 10 3d bf 4a ca a4 3f
       -0.15300901 -0.5729929 -0.7385348 1.2874234
000120 95 ae 87 3f 86 0d 23 3f d2 24 b7 bf 80 27 12 c0
       1.0600153 0.6369251 -1.4308112 -2.283661
000130 b0 9a ce 3f 20 65 c2 3e 3f 79 d4 bf c9 ba 92 3f
       1.6140957 0.37967777 -1.6599501 1.1463252
000140 f7 d4 24 3e eb d7 25 3f 3d ce 33 bf db bd be be
       0.16096865 0.6478259 -0.7023657 -0.37254223
000150 f4 e6 c0 3f cb 12 7f bf 38 72 67 bf c0 98 34 be
       1.5070481 -0.9963805 -0.9040866 -0.17636395
000160 90 24 25 be fe 52 dd be 4f 5a e1 be c1 3c 8a bf
       -0.16127229 -0.4322738 -0.44014212 -1.0799791
000170 fc 35 6f be 68 fd 66 bf ca b8 49 3f 15 72 db bf
       -0.23360437 -0.9023042 0.7879759 -1.714419
000180 b8 a7 8f be 79 81 fd bf 5d 57 cb bf 24 79 c8 be
       -0.28057647 -1.9805137 -1.5886036 -0.39154923
000190 f0 b3 b4 be 96 08 fb be a5 e9 c1 3e 09 3c 66 bf
       -0.3529353 -0.49029988 0.3787357 -0.89935356
0001a0 94 3c 10 bf 0c 30 e6 be ac 98 bc be 93 74 97 bf
       -0.56342435 -0.44958532 -0.3683523 -1.1832451
0001b0 fa 42 f4 3f 51 e3 b4 bf 83 99 88 bf f6 aa 6c 3e
       1.908294 -1.4131871 -1.0671848 0.23112091
0001c0 a4 dc 79 bf 51 6b e9 bf e9 68 8b be e7 5f 32 c0
       -0.97602296 -1.8235875 -0.27228478 -2.7871034
0001d0 ff f3 e0 3f ff b7 c4 3e 8a e7 d0 be 46 63 bc bf
       1.7574462 0.38421628 -0.4080165 -1.4717796
0001e0 77 d5 2c 3f ab 69 63 3f 39 0b cf 3e dc 2a 52 bf
       0.6751322 0.8883311 0.4043825 -0.8209665
0001f0 b2 87 90 3e d1 4e 07 be c8 df 31 bf a6 eb 07 bf
       0.28228527 -0.1321366 -0.6948209 -0.53093946
000200 cb d6 96 3f 5b 6b dd 3e a3 2f 52 3e 6c bc 65 bf
       1.17843 0.43245968 0.20525984 -0.89740634
000210 b0 be 20 3f 6f cb 7a bf 35 7b 19 bd a5 ca 5c 3e
       0.62790966 -0.97966665 -0.037471015 0.21561678
000220 cf 15 25 be a9 66 5b 3f 9a 48 c7 3f de 51 15 3f
       -0.161216 0.8570352 1.5569031 0.58328044
000230 1b 6c e2 be af ab 5c be 98 6b e1 bd d7 87 c7 3d
       -0.44223103 -0.21549867 -0.1100685 0.09742706
000240 da 9d 1c 3f 75 23 31 bf cc a0 b7 3f 06 41 a2 3e
       0.6117836 -0.6919473 1.4345946 0.31690234
000250 4e 03 34 3f 23 5a 20 3f 23 91 09 bf 36 0b ac be
       0.7031754 0.6263754 -0.53737086 -0.33602303
000260 67 8c 42 3f 29 1e 95 bd 73 68 c9 be 0f e5 4c be
       0.75995487 -0.07281143 -0.393375 -0.20009254
000270 e2 fc fa 3f 56 75 6d 3e 1c d0 b8 3f bd 62 c2 3f
       1.9608424 0.23189291 1.443851 1.5186383
000280 86 02 72 bd e5 c9 4e bf 80 8e 61 3f 2e d8 9e bf
       -0.059084438 -0.80776817 0.8810806 -1.2409723
000290 1d 3a 4f be 75 db d4 3e f3 61 9c 3f 03 a8 7e be
       -0.20237012 0.41573682 1.2217392 -0.24868779
0002a0 59 83 9f be 72 f2 93 3e 85 08 b1 be a4 10 1e 3f
       -0.31154898 0.2889591 -0.34576812 0.6174414
0002b0 d0 c5 59 be d3 c0 84 3f b5 e0 31 3f b6 56 a3 bf
       -0.21266866 1.0371345 0.694835 -1.2760837
0002c0 4d 84 cc bf 60 0f 60 3e f4 64 92 be 0a 1a 75 3f
       -1.5977875 0.21880865 -0.28592646 0.9574286
0002d0 5a 43 cf be 83 98 be 3f 33 66 a4 bd 1e 55 2b 3f
       -0.40481073 1.4890293 -0.080273055 0.66926754
0002e0 59 6f 68 3e 87 7a e4 3e f5 7d 30 c0 07 ff 6f bd
       0.22698726 0.4462473 -2.7576878 -0.058592822
0002f0 bb e0 2f bc 6d 65 19 3f a4 93 86 bd ed bc f9 3e
       -0.010734732 0.5992039 -0.06571129 0.4877695
000300 2d 95 8f be ed 6c 0c 3f c9 b1 22 bd eb d7 a8 be
       -0.280435 0.5485371 -0.03972033 -0.32977232
000310 7e c5 e7 3d df fe 9f bf 89 5d 26 c0 b2 3d 3b bf
       0.113169655 -1.2499655 -2.599459 -0.73141015
000320 ae 37 0e bf 8d 6c 05 c0 5d f6 10 bf d6 8c 10 bd
       -0.5555371 -2.0847504 -0.5662592 -0.03529056
000330 a5 a1 d7 bf 90 84 92 3f d0 85 82 bd ab 0d ce 3f
       -1.6846205 1.1446705 -0.06373179 1.6097921
000340 86 52 09 3f 09 37 36 bf 44 54 c9 bf fb e5 6b be
       0.53641546 -0.71177727 -1.5728841 -0.2303695
000350 c5 dd 0d bf 82 41 9c 3f 56 81 db 3f ad f1 2d bf
       -0.5541652 1.2207491 1.7148845 -0.6794689
000360 95 8e 06 bf 1f 94 9e bd ae 89 55 3f d1 94 21 3f
       -0.5256131 -0.077430956 0.8341321 0.631177
000370 37 a0 eb be c6 a8 ea 3f 85 ff b3 3f e3 c9 e8 3e
       -0.46020672 1.8332756 1.4062353 0.45466527
000380 dd f0 ce bf 27 70 94 3f 8e e9 09 c0 2a 89 b2 3d
       -1.6167256 1.1596726 -2.15488 0.08717568
000390 37 b1 b2 be 3f 63 63 3f 7e 2c c7 bd 2e 01 a2 3f
       -0.3490083 0.8882331 -0.09725283 1.265661
0003a0 d2 81 cf 3f 34 b0 85 bf bd 2d 21 bf 5f fa be 3f
       1.6211493 -1.0444398 -0.62960416 1.4920157
0003b0 26 c9 ae bf 89 5f 5c bf e7 23 c2 be 2c d7 bb 3f
       -1.3655136 -0.86083275 -0.37918016 1.467504
0003c0 28 1b 72 bd 88 f7 50 3f 22 52 43 3f 22 2e 0f c0
       -0.05910793 0.816277 0.762972 -2.2371907
0003d0 3f af 2e 3e 72 42 39 3f 23 cb 4c bf ee 79 9e bf
       0.17059039 0.7236701 -0.7999746 -1.238096
0003e0 54 e4 8a bd 5b 79 1f c0 1a c7 e2 bd c3 6e f1 be
       -0.067818314 -2.491782 -0.11073132 -0.47154817
0003f0 32 91 fd bf a6 71 db be 60 75 82 3c cf fd 60 3f
       -1.9809935 -0.42860144 0.01592511 0.8788728

encoder_layer_mhattentions.0.attention_heads.0.Q.weight f4 [8, 8]
000000 5f 01 fe bc 39 3e b2 3d 73 c4 3d be 2d bb ae 3e
       -0.031006513 0.08703274 -0.1853197 0.3412718
000010 92 0d ac bd d9 0f c7 3d a5 f0 74 be 8c 5b 97 be
       -0.08401026 0.097198196 -0.23919924 -0.29562032
000020 64 35 63 3e 22 5c 8d be e5 eb a6 be ff b4 25 3e
       0.22188336 -0.27609354 -0.32601848 0.16182326
000030 01 8a c6 bd 88 9d 82 be 88 18 a4 be 79 14 18 bd
       -0.09694291 -0.25510812 -0.32049966 -0.0371289
000040 0b 4a f7 bd 3e c3 56 3e 29 80 b7 3d cc b9 f6 3d
       -0.120746695 0.20972916 0.089599915 0.12047157
000050 f2 cc 0f be 66 68 07 bd d5 b1 79 3c de 1c ae be
       -0.14043024 -0.033058546 0.015240152 -0.340064
000060 58 51 b9 be fe a6 8d 3d e4 ae fe 3d 1d fe bf bd
       -0.36194873 0.06916617 0.124357015 -0.0937464
000070 ea b4 2e 3e be 3e a1 3d b4 9a 9c bd 0b 08 b6 3d
       0.170612 0.07873295 -0.07646695 0.08888253
000080 db 9a 4b bd 5d e1 ba be be c1 88 be 9b c5 78 bd
       -0.04970823 -0.36500064 -0.26710314 -0.060735326
000090 e4 a6 9e bd a2 68 8f be 13 bb 72 3e 76 9b 84 3e
       -0.077466756 -0.28009516 0.23704176 0.25899857
0000a0 3a 3c b2 be 14 12 eb bc 6e 02 b2 3c a0 ca 71 be
       -0.34811574 -0.028695144 0.021729674 -0.23612452
0000b0 f1 e2 8f be 56 fa 15 bd b7 23 16 be e4 00 27 be
       -0.2810283 -0.036615692 -0.14662062 -0.16308933
0000c0 48 78 94 3d 74 bb ea 3c f4 6c 92 3d 5d 34 da be
       0.07249504 0.028653838 0.071496874 -0.42618075
0000d0 49 3e 2b be 08 c0 81 3d 23 2d 25 be f5 6f c5 be
       -0.16722979 0.06335455 -0.161305 -0.3856198
0000e0 f0 e9 83 be b0 7a 6b be aa b5 26 be 9d 3f 44 3e
       -0.25764418 -0.2299602 -0.16280237 0.19164892
0000f0 5e af 5b be f6 d3 2a 3f dd 7e 32 bd 3e 6c f5 be
       -0.21453616 0.66729677 -0.043578018 -0.47934145

encoder_layer_mhattentions.0.attention_heads.0.Q.bias f4 [8]
000000 4a f6 03 3c 08 20 32 be 09 9b 96 3e 16 44 42 bd
       0.008054325 -0.17395031 0.29415157 -0.047428213
000010 f5 b8 0f 3d 1b bb 2a be 66 91 1f 3f cb e2 3e be
       0.0350885 -0.16672938 0.62331235 -0.18641202

encoder_layer_mhattentions.0.attention_heads.0.K.weight f4 [8, 8]
000000 80 24 9a bd bd 5c 88 3e ce e9 b5 be ce 4a 78 3e
       -0.07526493 0.26633254 -0.3552994 0.24247286
000010 c1 bf 20 be 00 49 11 3e fe 06 5c 3b 29 e9 50 3e
       -0.15698148 0.14188004 0.0033573504 0.20401444
000020 33 c8 aa be d4 2c bd 3d a5 3e 52 be 91 2d f8 3e
       -0.33355865 0.09237066 -0.2053171 0.48472264
000030 48 7f d3 3e ed 98 aa 3d 06 ef 81 3e 4b 0a b9 3e
       0.41308045 0.083299495 0.25377673 0.36140665
000040 67 b8 79 bd 4d 7e 1d be 2b f0 5e be d4 db 18 3b
       -0.060966875 -0.15380211 -0.21771304 0.0023324387
000050 98 ab 83 bd 2b 2d 37 3e fc be 8c be cc 33 09 3e
       -0.06429213 0.17888324 -0.2748946 0.13398665
000060 2d 5e 76 3d 05 ad 55 bd f4 e7 d9 3c 00 56 35 be
       0.060148407 -0.052166957 0.026599862 -0.17708588
000070 5c 82 35 3e 64 48 5b bd 34 ca a7 be 10 86 90 be
       0.1772551 -0.053535834 -0.32771456 -0.28227282
000080 34 87 42 be cc 9c b4 3e a9 d6 19 3e 6c 20 4b 3e
       -0.18996888 0.35275877 0.15023293 0.19836587
000090 ad 30 3d be 88 9d 88 be b3 e9 ee 3c 8e f7 e4 bd
       -0.184756 -0.26682687 0.02916417 -0.1118003
0000a0 03 cc ec 3d 18 8e 15 3e c6 fe b8 be 64 66 9f 3e
       0.1156235 0.14604986 -0.36131877 0.31132805
0000b0 3f 30 5d bd ef d4 a0 be cd 25 21 be 69 8c a9 be
       -0.05400109 -0.31412455 -0.15737076 -0.33114937
0000c0 e5 2f 6c 3d 9d a1 73 be ea f9 9d be 23 29 86 be
       0.057662863 -0.2379212 -0.30854732 -0.2620326
0000d0 74 ec a4 bd a9 78 52 3e 56 5c c4 be 9b 91 84 be
       -0.08052912 0.2055384 -0.38351697 -0.25892338
0000e0 c5 b5 b2 3e 04 bf a9 bc 36 44 59 3c b7 86 df bd
       0.34904304 -0.020720966 0.013260892 -0.10914367
0000f0 92 c7 7f 3e 09 64 9d be ea 95 a2 be bd 6f 27 3f
       0.24978474 -0.30740383 -0.31755 0.65404874

encoder_layer_mhattentions.0.attention_heads.0.K.bias f4 [8]
000000 6d 1a 4a 3d 2e 0f 36 3e dc 23 55 bb 07 88 ca bd
       0.049341608 0.17779228 -0.0032522595 -0.098892264
000010 0d 01 17 be c3 56 f9 bd 80 5c bf bd a7 cb 48 be
       -0.14746495 -0.121747516 -0.09343815 -0.19608937

encoder_layer_mhattentions.0.attention_heads.0.V.weight f4 [8, 8]
000000 db aa ae 3e 77 c6 51 3e 33 7c 84 be 66 47 f0 3d
       0.34114727 0.20485865 -0.25876006 0.11732368
000010 14 a5 41 3d 6f 01 69 bd df 38 71 3d 01 8b be be
       0.04727657 -0.056886133 0.058892127 -0.37215427
000020 e0 6d ae be b4 5c 59 3e 48 f8 af bd 9e 84 c0 be
       -0.34068203 0.2122677 -0.08592278 -0.3760118
000030 14 60 33 bc be 90 9b 3e ac d8 19 bd aa b4 6f be
       -0.0109482 0.30383867 -0.03756015 -0.23408762
000040 c9 e3 4b be 86 38 c4 3d 44 50 a3 3e 95 16 60 be
       -0.19911112 0.095810935 0.31897175 -0.21883614
000050 52 eb 9e 3e 2c e6 14 3e f0 ac ce 3d bf 49 04 3e
       0.3103891 0.14540929 0.10091579 0.12918757
000060 cb e1 5d b9 bb f6 aa bc ac ea 01 be 1e ff e0 3c
       -0.00021160317 -0.020869603 -0.12687176 0.0274654
000070 79 57 c8 bd 16 9a 84 be 75 68 b0 3d 68 02 c5 3e
       -0.09782309 -0.25898808 0.086136736 0.38478398
000080 c4 9e d5 3e ff 76 28 be 76 20 aa be 48 87 1a bd
       0.4172269 -0.16451643 -0.3322789 -0.03772667
000090 42 9e 25 3d 0d 2a 28 3d 2f 1c 8a be ab 7d 83 3e
       0.04043413 0.041055728 -0.26974627 0.25681815
0000a0 48 aa 8b be 55 b3 0d be c3 49 ef bd e4 b5 8a 3e
       -0.27278352 -0.13837941 -0.11683991 0.27091897
0000b0 8f b2 fe 3c 1c 6e b0 3d 8b 22 a2 bd c7 61 34 3e
       0.031091003 0.08614752 -0.07916745 0.17615424
0000c0 3f 57 18 be 82 43 3d 3e ae 0d 96 3d bc 58 10 3e
       -0.14877032 0.18482783 0.07326828 0.1409635
0000d0 1a 81 9a be 3b fe 69 3d 90 a4 6d be bf 0b 89 3e
       -0.30176622 0.05712722 -0.23207307 0.26766774
0000e0 85 97 6b be cd 45 94 be 72 20 e8 bd 02 31 5f 3e
       -0.23007019 -0.28959504 -0.113343135 0.21796039
0000f0 f1 03 6b bd 53 bc b3 3e 89 3d a5 be 72 6c ab bc
       -0.057376806 0.35104617 -0.3227351 -0.020925734

encoder_layer_mhattentions.0.attention_heads.0.V.bias f4 [8]
000000 bc b4 0d be b2 b2 29 be 46 6c 5d be 54 6b 69 3e
       -0.13838476 -0.16572073 -0.21623334 0.22794849
000010 4e 9f 1c be 25 35 01 3e 8e e8 8d 3e 90 ff 68 3d
       -0.15295145 0.1261793 0.27716488 0.05688435

encoder_layer_mhattentions.0.attention_heads.1.Q.weight f4 [8, 8]
000000 2b 67 ee 3d 67 2f c5 3d 66 39 ad bd 3f 34 6a be
       0.116407715 0.09628182 -0.084582135 -0.22871493
000010 25 50 8b 3e 36 fb fc bd 87 89 15 be ca 26 0c be
       0.27209583 -0.12352602 -0.14603244 -0.13686672
000020 dd 4f 95 3d ea dd 96 bc bb d6 52 be 7f 1e 98 3d
       0.07290623 -0.018416364 -0.20589726 0.07427692
000030 71 5a 94 be 00 ad 29 3f 08 8f 63 3e e4 df ea be
       -0.2897525 0.662796 0.22222531 -0.4587394
000040 d6 42 4e be 57 2a 07 bd 3d dd c0 3e 34 a7 87 be
       -0.20142683 -0.032999363 0.3766879 -0.26494753
000050 2b a2 02 3f f4 42 b5 3e 84 14 b4 3e 75 1c b7 bd
       0.510287 0.35402644 0.35171902 -0.089409746
000060 cd 80 84 3e 48 f5 fa 3d 59 73 15 3e 96 a9 46 3d
       0.25879517 0.12253815 0.14594783 0.048501574
000070 41 22 14 3e 3d ce 94 be 41 e3 8f 3d 2e 32 7e be
       0.14466192 -0.29063597 0.07025767 -0.2482383
000080 28 b4 9b 3e fd 47 33 3d 1f a5 c4 bd 9b cf 9e 3e
       0.30410886 0.043769825 -0.09601807 0.31017765
000090 f9 f8 c8 bc 6a 73 c7 3d d1 64 27 3e d2 ae 74 3e
       -0.024532782 0.0973881 0.16347052 0.23894814
0000a0 47 5e 7a bd ca 0a a9 3d 83 9e 04 3e b3 eb 25 be
       -0.061125066 0.08254011 0.12951092 -0.16203193
0000b0 15 ed f8 3d a1 83 c3 3e e1 2d 38 be de ed b5 be
       0.12154595 0.38186362 -0.17986251 -0.3553304
0000c0 44 89 00 bf bc 09 9a bc b1 6c 7c 3e a0 e0 e4 bd
       -0.5020945 -0.01880347 0.24650837 -0.11175656
0000d0 fa 53 b0 3e 27 66 87 3d 9f 56 2f 3e 8c 2f 26 3e
       0.3443907 0.06611281 0.17122887 0.16229075
0000e0 96 87 16 3e b8 5d 40 3e 22 66 17 3a 93 67 67 be
       0.1470016 0.18785751 0.0005775412 -0.22598104
0000f0 84 91 75 3e 1a b7 5d 3e b7 4f 9c bd 16 b8 48 bd
       0.23981291 0.21651879 -0.07632392 -0.049003683

encoder_layer_mhattentions.0.attention_heads.1.Q.bias f4 [8]
000000 b5 bd 77 3d bf 08 84 bc 59 c6 97 bc 4f 8f 53 3d
       0.060483653 -0.016117452 -0.018527197 0.05165034
000010 18 dd 1c bf e1 fb f7 bd cf 58 82 be 06 3c c9 3d
       -0.6127486 -0.12108589 -0.2545838 0.09825902

encoder_layer_mhattentions.0.attention_heads.1.K.weight f4 [8, 8]
000000 13 26 34 3e 32 3a 91 3e 9e b2 a3 3e 24 a9 1b 3e
       0.17592649 0.28364712 0.31972212 0.15201241
000010 d8 b3 f2 3d 40 5a 0d 3e fe 2d 8a 3c 57 d2 8d 3d
       0.11850709 0.13803959 0.016867634 0.06924885
000020 ec 96 8c be f4 31 4c be 57 63 c5 be 3e b8 b3 be
       -0.27458894 -0.1994093 -0.38552353 -0.35101503
000030 ed d0 73 be c5 46 2f 3d 3b 47 9a be e6 5c f8 3e
       -0.23810168 0.0427921 -0.3013247 0.48508376
000040 bc ac 91 3e 49 6d cd 3d 90 f8 0e be 77 e4 3c be
       0.28452098 0.1003061 -0.13962007 -0.18446527
000050 10 62 ce be a1 b7 ed 3e cb 2e 36 3e 6b 65 84 3e
       -0.4030919 0.4642916 0.17791288 0.25858626
000060 88 9a 4a be f3 44 81 3e c6 22 62 3e 74 0a 5b be
       -0.19785511 0.25247917 0.22083578 -0.21390706
000070 8b 52 e2 3d bf 5f a5 3e e7 5d d1 bd 60 e4 c7 be
       0.110509 0.3229961 -0.102229886 -0.39041424
000080 dc 5e 0b bf 4c b6 db 3b 24 0e a8 bd 28 8a 59 3e
       -0.5444162 0.006705081 -0.08205822 0.21244109
000090 aa ba 11 3e ae 66 ba bc ea 77 28 3e 48 c5 5f 3e
       0.14231363 -0.02275404 0.16451994 0.218526
0000a0 51 94 61 bd df de 52 3d 51 08 13 3d 54 0e 33 3d
       -0.055073086 0.051482078 0.035896603 0.043714836
0000b0 53 92 d3 bd b0 01 22 3e c0 7e 92 3e c3 85 b6 3e
       -0.103306435 0.15820956 0.28612328 0.35648927
0000c0 4a 42 a2 3e d5 01 29 3c f5 f8 26 be bd 50 a9 3e
       0.316912 0.010315378 -0.16305907 0.3306941
0000d0 c2 99 fe bb e9 9d 82 3d b4 73 04 3f 16 db 11 3e
       -0.007769794 0.06377775 0.5173905 0.14243731
0000e0 c9 03 68 be b2 c5 37 be c4 a7 91 3e 37 2d fe bb
       -0.22657694 -0.17946509 0.28448308 -0.007756855
0000f0 8b 53 41 3d db c2 37 3e 4d 51 49 3d ac c4 08 3d
       0.047198813 0.17945425 0.0491498 0.033390686

encoder_layer_mhattentions.0.attention_heads.1.K.bias f4 [8]
000000 ca bb 8c be e9 00 96 3d 8d f4 49 be d2 a5 65 3e
       -0.27487022 0.07324392 -0.19722195 0.22426537
000010 c8 f3 1c 3d bc dc 6f be 95 16 44 3e 79 08 60 be
       0.038318425 -0.23424047 0.1914924 -0.21878232

encoder_layer_mhattentions.0.attention_heads.1.V.weight f4 [8, 8]
000000 8c cc b6 bd f9 65 84 be d3 55 b1 bd ee 10 84 be
       -0.08925733 -0.2585905 -0.08658948 -0.25794166
000010 9e fe a6 be 50 34 b2 be 3e de 6b be 76 97 be 3d
       -0.32616132 -0.34805536 -0.23033997 0.09306233
000020 73 57 b8 be 68 60 7a 3d 80 63 b9 3e 99 9c 36 bd
       -0.36004218 0.061127096 0.36208725 -0.044582937
000030 e4 57 3a be 8c 6e 58 3e 13 cd 06 be 03 48 9a bc
       -0.1819759 0.2113592 -0.13164167 -0.018833166
000040 6c 56 ab 3d 15 86 cc bd 1e 07 9d be 78 a3 d4 be
       0.08366093 -0.099865116 -0.30669492 -0.41530967
000050 82 67 2d 3e 43 38 af 3e bf 0d b6 3e 00 dc 3a 3e
       0.16934016 0.34222612 0.35557362 0.18247986
000060 44 f2 f4 bd 34 11 1a be 46 10 27 3e ba 23 fb 3e
       -0.11960271 -0.15045625 0.16314802 0.49050695
000070 ee 05 67 3c a9 ea 73 be 3c d0 68 3d a8 26 c4 3e
       0.014100535 -0.23819984 0.056839213 0.38310742
000080 28 93 40 3c e0 1e c7 3c 45 bd f3 bc 4f 3d ed be
       0.011753835 0.024306715 -0.029753337 -0.46335837
000090 30 57 05 3d c7 32 7d 3e 42 65 8b 3e e6 04 8a 3e
       0.03255385 0.24726401 0.2722569 0.26956862
0000a0 1e f8 54 3d d5 97 44 3e d1 b9 7c 3e e9 93 74 bd
       0.051994435 0.19198544 0.24680258 -0.05971137
0000b0 4a d0 c9 3e fb c0 8a 3e c3 a8 4e bb 8c ae 15 be
       0.39416724 0.27100357 -0.0031533695 -0.14617366
0000c0 c9 2f 46 be 5b d3 84 be e8 00 22 3e 07 cb 8e be
       -0.19354166 -0.259425 0.15820658 -0.27889273
0000d0 9f a7 ca 3d ec fe 8c 3e 4f 22 d5 3d bf c6 34 be
       0.098952524 0.2753824 0.104069345 -0.1765394
0000e0 9d fb 43 be 4f 98 fe bd 30 ed 12 3c 81 1f 2c 3e
       -0.19138952 -0.12431394 0.008967683 0.16808893
0000f0 84 0d a7 be d6 be c6 3d 19 96 b7 bd 3c 6e 6b be
       -0.326275 0.09704368 -0.08964176 -0.2299127

encoder_layer_mhattentions.0.attention_heads.1.V.bias f4 [8]
000000 e8 49 8d 3c 28 5d 40 be 3e ed f9 bd 37 20 27 be
       0.017247155 -0.18785536 -0.122034535 -0.16320883
000010 04 ba 5a be ac f6 da 3d ce 9e 52 bd 18 96 be bd
       -0.21360022 0.1069158 -0.05142098 -0.09305972

encoder_layer_mhattentions.0.attention_heads.2.Q.weight f4 [8, 8]
000000 60 91 f0 3d 7f 1b 03 be b9 04 88 be 0b f3 89 be
       0.11746478 -0.12803458 -0.26566103 -0.2694324
000010 05 05 40 be cc 3c 96 be 64 1d 3a 3e 86 62 57 3e
       -0.18751915 -0.2934326 0.18175274 0.21033677
000020 ab af 80 be 88 ab 2a 3c c3 2b 4a 3d 51 7f b6 be
       -0.25134024 0.010416873 0.04935814 -0.3564401
000030 c3 d5 ad bd 0e ba 8b 3d 2f f7 48 bd a4 34 da bd
       -0.084880374 0.068225965 -0.049063858 -0.10654572
000040 b4 c5 66 3d 72 69 78 3e 9d 34 3b be 2a 71 1f 3e
       0.05634089 0.24258974 -0.18281789 0.15570512
000050 3b 6b fc bd d4 59 56 3e b8 bd 91 3e e7 45 bb bd
       -0.1232514 0.20932704 0.28465056 -0.09144192
000060 fa 93 dd 3d 78 ae 68 3d 7e 82 82 3d 19 3d 81 be
       0.1081924 0.05680701 0.06372546 -0.25241926
000070 55 9f 1f bc f8 83 b7 3d a8 75 9c bd bb 2e d7 3e
       -0.009742578 0.08960718 -0.07639629 0.4202784
000080 ed 66 28 bb 6f 94 39 be 7a b3 e3 bc 8b 5f cd 3e
       -0.0025696114 -0.18123029 -0.027795542 0.40111956
000090 af 34 22 be 91 ae 16 bf 14 bb 09 bf 61 c6 c5 be
       -0.1584041 -0.5886012 -0.53801084 -0.38627914
0000a0 e3 35 44 bd c1 e6 db bd 43 33 f6 3d 05 67 80 3e
       -0.047902953 -0.10737372 0.12021496 0.25078598
0000b0 3d 74 ea 3d 3c 42 ca 3d 1f 8c e2 3d b1 46 b0 bd
       0.11447952 0.098759145 0.11061882 -0.08607233
0000c0 1f dc 69 be d9 12 5a 3e 07 4a a7 3e e6 d6 c1 3e
       -0.22837876 0.21296252 0.32673666 0.37859267
0000d0 e7 b0 f2 3d 46 c6 83 be cd 0a 23 bf 6d f0 b3 bd
       0.11850148 -0.25737208 -0.63688356 -0.08786092
0000e0 9c b8 23 be e7 70 bb 3e bf 57 f3 be d4 32 24 be
       -0.15988392 0.36609575 -0.47527882 -0.16035014
0000f0 80 b0 61 3e 84 0c 85 3e 39 ce 7c 3e 54 48 43 3e
       0.22039986 0.2598611 0.24688043 0.1907056

encoder_layer_mhattentions.0.attention_heads.2.Q.bias f4 [8]
000000 14 09 65 3e 7a 58 8d bd af cd 6b 3e 47 e6 3a 3d
       0.22366744 -0.06901641 0.23027681 0.045629766
000010 16 98 36 bd 44 5d 76 3d b0 f9 67 bd 4c 30 9d 3e
       -0.044578634 0.06014754 -0.056634605 0.3070091

encoder_layer_mhattentions.0.attention_heads.2.K.weight f4 [8, 8]
000000 14 8a 49 be ef dd 00 3d 67 74 43 be 62 b8 24 3e
       -0.19681579 0.031461652 -0.19087373 0.16085961
000010 b2 e7 b9 3b a8 1b 00 bf 38 99 9d bd 59 d8 a1 be
       0.005673372 -0.500422 -0.0769524 -0.31610373
000020 e5 22 d3 bd b1 ab 84 bd 84 30 53 bd 2a b4 aa bd
       -0.1030939 -0.0647806 -0.05155994 -0.08335145
000030 71 c5 af be d4 26 0d be 56 1e 47 be 61 3b cc bd
       -0.34330323 -0.13784343 -0.19445166 -0.09972263
000040 b9 10 dc be 41 bb f0 be 62 de 93 3e 1e 40 76 bd
       -0.42981508 -0.47017863 0.28880602 -0.06011974
000050 4b 59 58 3e 6c af 4f 3c 21 52 98 bd f4 5f a5 bd
       0.21127813 0.012676101 -0.0743754 -0.08074942
000060 69 76 81 bd f8 ad 9a 3c 44 56 f5 bd 90 b0 3a 3e
       -0.06321413 0.018881783 -0.119793445 0.18231416
000070 dd 54 40 3e 0d ef d2 be 99 e6 63 3d 10 f6 41 be
       0.18782373 -0.41198006 0.055639837 -0.18941522
000080 fb a6 8e 3e 0c 36 2d 3e e3 54 ee bd b8 c5 23 3d
       0.2786177 0.16915148 -0.116372846 0.03998348
000090 42 a1 bc be 19 77 10 3f c6 f5 18 3f dc 69 3c 3c
       -0.3684178 0.5643173 0.5975002 0.011499848
0000a0 37 38 0b 3d d4 e3 ac bd e6 55 75 3d d9 2b 17 3e
       0.033989158 -0.08441892 0.059896372 0.1476282
0000b0 39 56 11 bd 05 ec d0 3e 5d 77 2d be f1 07 38 be
       -0.03548262 0.4080507 -0.16940065 -0.1797178
0000c0 fb 70 4d 3e f2 d6 1d 3f 25 8c 78 3e 4d d7 97 3d
       0.2006263 0.61656106 0.24272211 0.07414112
0000d0 4a 73 ce bd 74 e1 8e 3e 27 c3 0d 3f 71 84 ec 3d
       -0.100805834 0.27906382 0.55375904 0.11548699
0000e0 66 b5 80 be 85 ca a1 be 44 96 cc 3d 66 c6 9b 3e
       -0.25138396 -0.31599823 0.099895984 0.30424803
0000f0 6d c0 bc bd dd b6 44 be b7 73 19 bf 13 19 86 be
       -0.0921639 -0.19210382 -0.5994219 -0.26191005

encoder_layer_mhattentions.0.attention_heads.2.K.bias f4 [8]
000000 97 e9 99 3e b5 7d af 3d f9 ce 4b be e8 4c 57 be
       0.30061027 0.085688986 -0.19903173 -0.21025431
000010 63 a8 bb bd eb ae 87 be d6 60 85 3e 2d 69 bb 3d
       -0.091629766 -0.2650064 0.26050442 0.0915092

encoder_layer_mhattentions.0.attention_heads.2.V.weight f4 [8, 8]
000000 30 0c 8a be b0 1d 89 3e 51 5e a5 3d 94 22 ae 3e
       -0.26962423 0.26780462 0.0807463 0.34010756
000010 c3 da 80 bc 24 c8 17 3e 13 c5 80 be f6 f7 c1 3d
       -0.015729314 0.14822441 -0.25150356 0.09471123
000020 a1 69 24 be 30 5e bb bd 38 2d a5 be 5b 55 65 be
       -0.16055919 -0.09148824 -0.32261062 -0.22395842
000030 d2 7b 0f bc 74 77 9b 3e 93 25 ed bd 6c d2 be bd
       -0.008757548 0.30364573 -0.11579432 -0.093174785
000040 e1 6e 14 bd c3 f2 8d be af be 7b be 06 da 23 be
       -0.036238555 -0.27724275 -0.24584459 -0.16001138
000050 9f 7a 77 be 67 e2 ef 3d 95 bc 29 3d 7c 48 13 3c
       -0.2416787 0.11713105 0.04143961 0.00898945
000060 23 f2 7c 3d cd ed a0 bd 77 12 0b bf b6 13 54 3e
       0.061754357 -0.07857857 -0.5432505 0.20710644
000070 01 37 a0 3d c4 0a 57 3e e4 6e 23 3d be bf 8b 3e
       0.07822991 0.210002 0.039900675 0.27294725
000080 50 f0 fc bd 1c 45 d7 bd 26 f3 6f bd c1 be 8f 3e
       -0.123505235 -0.105112284 -0.058581494 0.2807522
000090 0d 29 b4 bd 0a 03 58 3d 00 48 6d 3e 75 ac a9 bd
       -0.08796892 0.052737273 0.23171997 -0.08284847
0000a0 3d 0a 47 bc 2e f4 07 be 2d e2 58 3d c3 d0 b1 3d
       -0.012148437 -0.13276741 0.052950073 0.08682396
0000b0 76 56 b3 be 4f bc 2a be 7d 95 90 3e 2d 41 06 be
       -0.35026902 -0.16673397 0.2823905 -0.131108
0000c0 67 59 28 bd 71 d8 55 3e 78 31 0a be 78 eb 48 3d
       -0.041100886 0.20883347 -0.13495433 0.049052685
0000d0 89 14 11 bc 49 47 8c be 62 8c 27 3e 18 da 71 be
       -0.008854994 -0.27398136 0.16362146 -0.23618352
0000e0 e0 9c 1b 3d fa 86 1a be 48 18 d6 bc 66 bf 37 be
       0.037991405 -0.15090552 -0.026134625 -0.17944106
0000f0 15 70 11 bd 04 bb 84 bd fc 4d 9c be 49 e7 44 3e
       -0.03550728 -0.06480983 -0.30528247 0.19228853

encoder_layer_mhattentions.0.attention_heads.2.V.bias f4 [8]
000000 11 0c 52 3e bd 8b 72 be 81 e1 d0 bd 6a cb 86 bb
       0.20512415 -0.23686118 -0.101992615 -0.0041136043
000010 30 5b 1e 3e 97 99 a8 3e 05 a3 18 3e cb e4 30 be
       0.15464473 0.3292968 0.14905937 -0.17274778

encoder_layer_mhattentions.0.attention_heads.3.Q.weight f4 [8, 8]
000000 5f 38 13 3e 91 74 08 be ac 7f 7a be 78 12 0c bf
       0.14376973 -0.13325717 -0.24462765 -0.5471568
000010 d8 dc 69 3e 44 98 85 be c0 c4 8d 3e 99 fd 4c 3e
       0.22838151 -0.26092732 0.2768917 0.20018615
000020 e7 4d 49 3e e3 b7 8e 3e 40 b3 96 3d a8 2f b5 3e
       0.19658624 0.2787467 0.07358408 0.3538792
000030 45 e6 89 be 89 b8 51 3e 68 e3 e2 bd 24 7a c5 3e
       -0.26933494 0.20480551 -0.110785306 0.38569748
000040 07 34 62 3d 59 21 01 3d 24 5a 15 3b 10 5d 27 be
       0.0552254 0.031525943 0.0022789324 -0.16344094
000050 d0 da 45 be a3 8d 63 3e 8b 64 b7 3e 16 15 94 be
       -0.19321752 0.22221999 0.35818896 -0.28922337
000060 2b 73 f0 3d 90 08 a6 bd ae 62 e8 bd 92 2d 89 bd
       0.117407165 -0.08107102 -0.11346947 -0.06698145
000070 4d 77 94 be b3 33 a0 3d 5b 03 28 3e 44 2e 19 3e
       -0.2899727 0.07822361 0.1640753 0.14959055
000080 48 b1 3a 3e a8 81 af be 4b f3 06 bd a4 e9 4f 3c
       0.1823169 -0.34278607 -0.032946866 0.012689982
000090 90 c5 ab 3e e8 a2 9f 3d 6a 82 ce be 42 1f b1 bc
       0.33549166 0.07794744 -0.40333873 -0.02162135
0000a0 d7 cb f5 bd 9b 1c 99 3e f4 77 e4 bb 8d 29 41 3c
       -0.1200177 0.29904637 -0.0069723073 0.011789692
0000b0 8b d2 02 bf 0c fd f3 bc 80 13 18 3e 94 ee 2a bd
       -0.51102513 -0.029783748 0.14851189 -0.041731432
0000c0 3a db f4 bd df b7 bf be db 60 bd be 16 06 12 be
       -0.11955877 -0.3744497 -0.36987957 -0.14260134
0000d0 85 c1 56 3e 6d 69 0c bf 20 b2 da bd 8e b4 7c 3e
       0.2097226 -0.54848367 -0.10678506 0.24678251
0000e0 b0 9c de 3c 36 66 a8 3e 49 ce e9 3d ca a2 b7 be
       0.027174324 0.3289048 0.11416299 -0.35866386
0000f0 bc 5e a7 3e 65 ff 3b be 50 12 bd be 01 8e 62 3c
       0.32689464 -0.18359144 -0.36928034 0.013827802

encoder_layer_mhattentions.0.attention_heads.3.Q.bias f4 [8]
000000 e2 87 05 be dd 68 2e bd 9e 14 0a 3e 9c 14 86 be
       -0.13040116 -0.042580474 0.13484427 -0.261876
000010 6a 3a 5f 3e df e3 73 3e e7 50 b3 3d 30 a4 ce 3d
       0.21799627 0.23817395 0.08755665 0.1008991

encoder_layer_mhattentions.0.attention_heads.3.K.weight f4 [8, 8]
000000 5c 38 84 be 21 d2 8f 3e 5d 37 4a bd 02 a3 fa bd
       -0.2582425 0.28090003 -0.049369205 -0.122381225
000010 95 98 d4 be 2a dc eb 3d ca 9b e6 be 1c 50 c3 be
       -0.4152266 0.11516602 -0.45040733 -0.38147056
000020 fc 54 38 3e c3 6d 9e be 32 10 6b 3e b3 69 10 3e
       0.18001169 -0.30943117 0.22955397 0.14102821
000030 42 6b ca 3d 0d e8 d6 3e bb 3b da 3d e1 eb 4d 3d
       0.09883739 0.41973916 0.10655924 0.05027378
000040 ec 20 cd be a7 19 ca 3c 8f cd 6c bd 17 4c 62 3e
       -0.4006418 0.024670435 -0.057813223 0.22099338
000050 84 a6 a9 3e a6 bc 69 be b1 ab d8 3e 00 59 81 3c
       0.33134854 -0.2282587 0.4231849 0.015789509
000060 95 d4 ee bd 7c 9d 68 be ae 8b 1b 3e 99 ac 0f be
       -0.116616406 -0.22716326 0.15190002 -0.14030685
000070 e7 39 da 3d fe b8 f4 bd 05 dc 2b be fd 96 52 be
       0.10655575 -0.11949347 -0.1678315 -0.2056541
000080 83 d9 8b 3e 21 78 8a 3e 2e bf 88 be f1 02 c7 be
       0.27314386 0.27044776 -0.2670836 -0.38869432
000090 6b fd 1c be eb 38 41 be bb 56 ac be b9 76 bb bd
       -0.15331046 -0.18869369 -0.3365992 -0.09153504
0000a0 f5 2d 83 be 0d 57 bb be 83 45 20 be b1 ae ce 3e
       -0.25621 -0.36589852 -0.15651517 0.40367654
0000b0 ad e2 31 3e db 58 39 3e 51 44 df 3d 1b 24 01 be
       0.17371626 0.18100302 0.10901702 -0.1261143
0000c0 31 15 e5 bd 09 c3 f1 3e 18 41 31 bc 5a ea b0 be
       -0.111856826 0.47219113 -0.010818742 -0.34553796
0000d0 e0 6f 3e be cc ec 8b bd 5e f2 81 be 20 7f be 3d
       -0.18597364 -0.06832275 -0.25380224 0.09301591
0000e0 76 79 15 be 85 c4 86 3e 6b 25 d8 be 56 bd ca be
       -0.14597115 0.26321808 -0.42216048 -0.39597577
0000f0 82 5c 39 be dd 1e 90 3c 45 60 bf 3d 96 11 de 3d
       -0.18101695 0.017592842 0.09344534 0.10843198

encoder_layer_mhattentions.0.attention_heads.3.K.bias f4 [8]
000000 7b 6c 73 be 9a 20 b3 bb 5a 1b 04 be 06 24 a9 3e
       -0.23771851 -0.005466533 -0.12901059 0.33035296
000010 8a 0c b4 3e 24 97 74 3e 8f 02 53 3e 1d 6f 90 3d
       0.35165817 0.2388578 0.20606445 0.07052443

encoder_layer_mhattentions.0.attention_heads.3.V.weight f4 [8, 8]
000000 8c 3a f1 bd 22 33 28 be 70 67 15 be a6 96 af be
       -0.11778745 -0.16425756 -0.1459024 -0.34294623
000010 08 18 50 3d c1 e0 52 be 91 1d 8e bd b6 62 af bd
       0.050804168 -0.2059355 -0.06939233 -0.085637495
000020 82 56 74 be 30 38 49 3e 1c a7 54 3e e5 44 46 3e
       -0.23861125 0.1965034 0.20766872 0.19362219
000030 28 8f ed 3e 5f aa 92 be 17 38 c4 bd f3 13 b9 3b
       0.46398282 -0.28645608 -0.09581011 0.00564813
000040 07 30 67 be 6d 9b 31 3e 67 74 12 3e 2b 28 90 3e
       -0.22576915 0.17344446 0.14302216 0.28155646
000050 17 74 7a be 90 c1 33 3e 78 3e 67 bd f7 47 3b 3e
       -0.24458347 0.17554307 -0.05645606 0.18289171
000060 ef 21 6b be a1 40 9f be 65 43 27 3e f4 7c 9b 3e
       -0.22962163 -0.31103995 0.16334303 0.3036877
000070 27 59 05 3e 87 ad b1 3c 80 69 11 bd b7 30 6f 3e
       0.1302229 0.02168919 -0.035501003 0.23358427
000080 a7 48 82 be 19 8c 8f be a3 71 d3 3d 97 92 ab 3e
       -0.25446054 -0.28036574 0.10324409 0.33510277
000090 eb 01 a8 be 41 84 a4 3d 01 2b 76 3e 82 ed 9a bd
       -0.32813963 0.08033038 0.24039842 -0.07564832
0000a0 7a 38 e6 3d b5 16 c5 bc e1 dc 97 be 9e 0b 8b 3e
       0.11241241 -0.02405868 -0.29660705 0.271573
0000b0 65 44 16 be dc c3 81 bc b7 5e 80 be 77 ed 5d be
       -0.14674528 -0.015840463 -0.25072262 -0.21672617
0000c0 49 c5 18 3e 4c fd 95 3e 1f 9f 19 be ee d7 50 3e
       0.14919008 0.29294813 -0.15002106 0.2039487
0000d0 ac 16 92 be f1 78 f9 bc a3 9b 13 be 43 11 7d 3d
       -0.28532922 -0.030453177 -0.1441484 0.06178404
0000e0 7c ae 6e 3e b7 e0 13 3e a1 6f d5 3c d9 c3 33 3e
       0.23308748 0.1444119 0.026054205 0.17555179
0000f0 dd c9 9a 3e 62 00 7e bc 84 d2 b3 be bf b1 77 3e
       0.30232134 -0.015503021 -0.35121548 0.24188899

encoder_layer_mhattentions.0.attention_heads.3.V.bias f4 [8]
000000 48 9e 3a 3e 2c 01 be 3c a8 c4 da bd 94 19 ab be
       0.18224442 0.023193918 -0.106820405 -0.33417952
000010 68 75 97 be fa 71 95 3e b8 6a b6 3e 99 c2 c9 3c
       -0.2958176 0.2918852 0.35628295 0.024628924

encoder_layer_mhattentions.0.output_layer.weight f4 [32, 32]
000000 85 22 20 3d f2 8c 20 be e0 eb b0 bb 32 d4 05 3e
       0.03909542 -0.15678766 -0.0053992122 0.13069227
000010 e1 9f b8 ba c2 98 c0 bd e1 cc 5c 3d 3a b0 b6 be
       -0.0014085734 -0.09404136 0.053906325 -0.35681325
000020 53 97 a0 3d b9 b5 a9 bd 31 e1 57 be 3f 9b bb 39
       0.07841363 -0.08286614 -0.21081997 0.00035783087
000030 5a 0b 93 be 56 d8 87 be f6 17 95 be 99 a3 24 3e
       -0.28719598 -0.2653224 -0.29119843 0.16078033
000040 4a b3 3a 3e 41 22 39 3d f7 c0 ce 3d 49 7c 07 3e
       0.18232456 0.045198683 0.10095399 0.13231005
000050 c2 1f 14 be 71 89 d2 bd d7 97 0d be f4 3e ea bd
       -0.1446524 -0.10280121 -0.13827454 -0.114377886
000060 da e0 bd 3d ab be 6a be ff 1e 31 be 97 e4 07 be
       0.09271403 -0.22924297 -0.1729698 -0.13270794
000070 08 a0 15 bf 12 d9 75 3e 6d ea 32 3e 38 bb 50 3e
       -0.58447313 0.24008587 0.17472239 0.20383918
000080 af e8 77 be 1a 5b 9d 3b 39 05 43 3e 51 52 6e be
       -0.24209855 0.00480212 0.19044961 -0.23273589
000090 d0 56 64 bd 52 b3 74 be 5c af 1f bd e9 ec 0d be
       -0.055746853 -0.2389653 -0.038985595 -0.13859905
0000a0 a6 48 3d be 54 7a 0e 3e 3b e5 dc 3d 35 e5 9d be
       -0.18484744 0.13913852 0.1078591 -0.30838934
0000b0 d4 8f 9f 3e 6b e0 36 3e 93 18 22 3e dc 63 83 be
       0.3116442 0.17859046 0.15829687 -0.25662124
0000c0 76 52 71 3d 89 ff e7 bd d0 1f 88 bd cc 1a 35 3e
       0.05891653 -0.11328036 -0.06646693 0.17686003
0000d0 1d 42 29 3c 2c 3a 99 bd ec 5a 2b 3e 51 61 ae bd
       0.010330704 -0.074817985 0.16733903 -0.085146554
0000e0 5d d2 84 3e 77 eb c9 be af 10 3f be ec b2 06 3e
       0.25941744 -0.39437458 -0.18658708 0.13154191
0000f0 e8 0f 14 3e 60 bb 07 3d 36 a0 05 be 98 de 61 bd
       0.14459193 0.03313768 -0.13049397 -0.055143923
000100 ab dc 82 be 3e 75 e8 3c e1 64 a8 3d c4 f6 03 bd
       -0.2555898 0.028376218 0.08222366 -0.032217756
000110 bd 95 6d be 96 62 f1 bd 93 0e ac 3e 8c cc 4c be
       -0.23201652 -0.11786382 0.3360487 -0.19999903
000120 11 e7 15 3e 9b e1 7e 3d 1c 55 c1 be 0f 25 25 3d
       0.14638926 0.062226873 -0.37760246 0.040318545
000130 8a e1 44 be 0b 11 47 bd a7 be 8d 3b 7a cd 8b 3d
       -0.19226661 -0.048600238 0.004325706 0.06826301
000140 ae fc 21 be 57 d0 0f 3e 3e 2a 40 3e 83 ec 19 be
       -0.15819046 0.14044319 0.18766114 -0.15031628
000150 f5 04 26 be 9b db e6 3d 71 3d cd 3d b1 ac 00 3e
       -0.16212828 0.11272355 0.10021485 0.12565877
000160 f2 85 c9 3d 44 21 4e bd 4e 39 10 be 28 32 4f be
       0.09840001 -0.050324693 -0.1408436 -0.20233977
000170 5e 36 62 3d 07 a1 30 3e 73 ac 6b 3e 66 6d fe bc
       0.05522763 0.17248927 0.23015003 -0.031058025
000180 ce 30 be 3d 20 c5 63 3e c9 4f d6 bd 33 5a 52 be
       0.092866525 0.22243166 -0.104644366 -0.20542221
000190 90 b8 46 be 5a 83 6f be 43 4f 36 3d f5 a4 6b be
       -0.19406343 -0.2338995 0.044509184 -0.23012145
0001a0 09 b8 ac bd 48 e0 91 3e 21 00 bc bd d2 99 f7 bd
       -0.084335394 0.28491426 -0.09179712 -0.12089886
0001b0 83 5a ca bd de 17 0f 3d 2a 4a 32 3d f7 ac c7 3d
       -0.09880545 0.03493487 0.04352776 0.09749787
0001c0 cb 7b a5 3d a9 bb 1d 3d 08 49 56 be 72 52 9b 3c
       0.08080252 0.038509045 -0.20926297 0.018960211
0001d0 8e 13 19 3d e6 44 67 be 95 2d 31 3e 4e c6 97 be
       0.037372164 -0.22584876 0.17302544 -0.29643482
0001e0 92 51 50 3e 28 22 79 bc 1b 85 3a 3e b3 54 70 be
       0.20343617 -0.015205897 0.18214838 -0.2346981
0001f0 d0 46 0a be 55 f2 f8 bd df d8 e9 3d 87 e6 a0 be
       -0.13503575 -0.12155596 0.11418318 -0.31425878
000200 c9 cd 3d 3e a7 1d 67 be 26 7e 52 be 5b 78 f7 bd
       0.18535532 -0.22569905 -0.20555934 -0.12083503
000210 dc 68 43 bd b5 8c e4 bc 4c 7d 16 3e b3 03 fa 3c
       -0.047707424 -0.027899126 0.14696234 0.030519342
000220 6b 86 89 be e9 fa 29 3e 9f 4b d0 bd a3 f5 b5 bc
       -0.26860365 0.16599621 -0.101706736 -0.022211855
000230 cc c2 6a bd 9c b5 7f 3d fa 6f 4e 39 96 16 a8 3c
       -0.05731468 0.062429056 0.00019687405 0.020518582
000240 77 08 c6 3d 6e a0 d0 3d 6c 5d bc 3d 39 a5 a8 3d
       0.09669583 0.101868495 0.09197506 0.08234639
000250 10 9f 9f bd 4b a9 43 be ab 43 eb bd 31 8a 6a 3d
       -0.07794011 -0.19107549 -0.11487516 0.057260696
000260 24 9b 56 bd 33 5c 40 3d 0d f1 c3 3d ca 9e 0a 3d
       -0.052394047 0.046962928 0.09567461 0.03384284
000270 97 24 9a 3c 4b 6f 55 bd 33 7f 6a 3d f3 8a b0 3d
       0.018816276 -0.05210809 0.057250213 0.086202525
000280 f4 0b 86 3d a9 96 a6 3e dc fb 81 3e 0a 47 9b be
       0.06545249 0.3253682 0.25387466 -0.30327636
000290 ab ec 95 be 39 79 4a 3e 52 36 91 bd a2 c1 17 3d
       -0.29282126 0.19772805 -0.07090439 0.037049897
0002a0 d6 02 b2 3e 1e 94 89 3d 4d 01 05 bc 99 49 eb 3d
       0.3476779 0.06717704 -0.008117986 0.11488647
0002b0 a2 c1 6b 3c b8 e1 80 be 5b e2 bf 3d 46 f4 3a 3e
       0.014389427 -0.2517221 0.09369346 0.18257245
0002c0 76 29 5b 3e f4 a3 ab bd f3 4d 9f bd 72 e8 b4 be
       0.21402535 -0.08380881 -0.077785395 -0.35333592
0002d0 b8 41 89 3d 22 a5 d3 3d 19 90 96 bc 71 38 09 bd
       0.06701988 0.10334231 -0.018379258 -0.033501092
0002e0 c4 b9 3c bb 0f 0c d4 3d 9a 05 10 3e 67 9a c6 3c
       -0.0028797248 0.103538625 0.14064637 0.024243547
0002f0 bc dd 46 3e f4 46 82 3d ee a2 0c be 6b 76 29 bc
       0.19420522 0.063611895 -0.13734028 -0.010343174
000300 b1 ce 8d bb a6 50 80 3d 62 90 20 be c2 45 c0 bd
       -0.004327618 0.062653825 -0.15680078 -0.09388305
000310 fb 2f 07 be e8 d9 fc 3c c1 45 10 be 4b 97 85 3e
       -0.13201897 0.030865625 -0.14089109 0.2609199
000320 56 a6 54 bc f3 0b 94 bb 9c ec dc bd 15 57 13 3d
       -0.012979111 -0.004518026 -0.10787317 0.03597172
000330 6e 13 da bd ae 08 34 be b2 9a 10 be a9 b3 57 be
       -0.10648237 -0.17581436 -0.14121512 -0.21064629
000340 42 81 9f be 0b 65 ae 3e 6b c7 80 3d 84 71 32 be
       -0.31153303 0.34061465 0.06288036 -0.17426115
000350 27 26 f7 bd cd b5 08 3d 55 f1 62 3d 1d 9b e3 bc
       -0.12067824 0.033376504 0.055405933 -0.027783925
000360 9a 2a 87 be e5 08 19 3e 44 a1 bb 3d 87 9f 8a 3c
       -0.2639969 0.14944799 0.09161618 0.016921772
000370 a6 4b 91 3d dd e5 96 be 5e 8b 9c bd 78 07 80 3d
       0.07094507 -0.29472247 -0.0764377 0.062514246
000380 ec 27 f1 3d 7f 16 54 3e 2d b3 af bd ce 86 6a be
       0.117751926 0.20711707 -0.08579097 -0.22902986
000390 d8 97 b8 3d 87 5c 17 be f0 8e 10 be 82 71 54 3c
       0.09013337 -0.1478139 -0.14117026 0.0129665155
0003a0 bb 23 5f be 6c fd 72 3e 78 fc bc bd ca e6 16 3e
       -0.21790974 0.23729485 -0.09227842 0.14736477
0003b0 aa a1 02 3d 38 23 0a 3e 25 60 50 3e 2c d7 a0 bd
       0.031892456 0.13489997 0.20349176 -0.07853541
0003c0 27 b5 c8 be 28 75 8c 3e ed 77 87 3c 7d ba 2f 3e
       -0.39200708 0.27433133 0.016536677 0.17160983
0003d0 f1 58 dd 3d b4 bd 9b be 46 1f 96 3b 09 b7 29 bd
       0.1080798 -0.3041817 0.004581365 -0.04143432
0003e0 62 7f 0f 3d 1a 58 0f 3e 45 e9 9d be 76 8b 13 3e
       0.03503359 0.13998452 -0.30842033 0.14408669
0003f0 3d 33 96 3c 47 c2 28 bc 0f 4b 3a be 99 70 2b 3e
       0.01833498 -0.010300226 -0.18192695 0.16742171

encoder_layer_mhattentions.0.output_layer.bias f4 [32]
000000 b8 bd a2 3c b1 ce d3 bd f8 00 27 be c8 76 10 bd
       0.019865856 -0.10342158 -0.16308963 -0.03526953
000010 e9 56 c2 bd e2 5c 85 bc 1f ea dd 3b 81 01 34 bc
       -0.09489233 -0.016279642 0.006772294 -0.010986687
000020 31 b8 66 3d ee d8 03 3e c6 6f ee bd 75 6a a4 bd
       0.056328002 0.12875721 -0.11642413 -0.080281176
000030 f8 ef 36 be e5 0d 75 3d 72 1c a4 bd e0 f6 8f 3d
       -0.17864978 0.059827704 -0.08013238 0.070295095
000040 76 92 cd 3d f4 e6 25 3e 5d ca 03 3e 73 4b 1a bd
       0.10037701 0.16201383 0.12870164 -0.03766961
000050 e5 f3 ec bc 59 aa ff bc 45 e0 22 3e f5 96 ed 3d
       -0.028924892 -0.031209158 0.15905865 0.116010584
000060 8a 94 c2 3d 81 1e 11 3e e3 d7 1a 3e e6 aa 9a bd
       0.09500988 0.14171793 0.15121417 -0.075521275
000070 2f f9 b5 bd 06 b6 64 be 22 4b 22 be 3d 29 2c 3c
       -0.088854186 -0.22335061 -0.15848973 0.010507879

encoder_layer_mhattentions.1.attention_heads.0.Q.weight f4 [8, 8]
000000 0a cd 08 3f c5 6b b5 be 8a ae bb be 5a b1 e5 3d
       0.53437865 -0.35433784 -0.366566 0.11215468
000010 a8 ff 3a 3e 7b cf 82 3d fd 0e b8 3c bf e3 b9 3d
       0.18261588 0.0638723 0.022468084 0.09076642
000020 71 3f 9a 3e 41 da d3 bc 38 65 8e be a5 3c a0 3e
       0.30126527 -0.025860908 -0.278116 0.31296268
000030 41 f2 9c 3d 42 b7 75 3d 8f 64 a3 3d 1e 72 1e 3e
       0.07663394 0.05998922 0.079781644 0.1547322
000040 13 da 9d bd 94 db d0 be 12 f7 31 be 69 c7 a4 3e
       -0.0770761 -0.40792525 -0.17379406 0.32183388
000050 29 5d 6e be 37 72 96 be 0c 41 26 3e f8 ad 54 3e
       -0.23277725 -0.29384014 0.16235751 0.20769489
000060 bf 9d c2 3e dd 7f 16 be 5d 8d ff bc 7b cf fb 3e
       0.38010976 -0.14697213 -0.031195337 0.49181733
000070 55 9a ec be 98 15 99 3e 8f 6f 2e 3e 66 4d ec bd
       -0.46211496 0.29899287 0.17034744 -0.115382
000080 4f fc ec be f9 a3 88 3e 89 03 34 3e 15 32 a4 be
       -0.46286246 0.266876 0.17579474 -0.3206946
000090 be d7 43 3e d7 ce 2d 3e 5c 95 20 be 2e e6 d6 3c
       0.19125268 0.16973434 -0.15681976 0.026232805
0000a0 38 04 62 be af aa 1b bd f7 69 2d bd 77 c7 29 3e
       -0.22071922 -0.038004573 -0.042337384 0.16579996
0000b0 3f 21 95 be 9a a5 2b be 7f a3 78 3c 32 f3 8e 3e
       -0.29126927 -0.1676239 0.015175699 0.27919918
0000c0 33 3c 9e 3e c2 00 b8 be ed f6 ff bd aa 96 9f 3e
       0.30905303 -0.35938078 -0.12498269 0.31169635
0000d0 b0 ad b2 3c bc d3 86 3e 75 bd 16 3e 1a 0c 03 be
       0.021811336 0.26333416 0.1472071 -0.12797585
0000e0 39 1e c0 be 64 85 da be 27 0a ab 3e e5 c1 6f 3e
       -0.37523058 -0.42679894 0.33406183 0.23413809
0000f0 8e 17 4f be 77 d9 b3 bd 56 d2 cc 3e f9 ac 61 be
       -0.20223829 -0.087817125 0.40004224 -0.2203864

encoder_layer_mhattentions.1.attention_heads.0.Q.bias f4 [8]
000000 92 66 ce be db c4 1e 3d be f6 ff bd bc c3 ba 3d
       -0.4031263 0.038761955 -0.12498234 0.091193646
000010 ed 9c 67 be 8b 1b ea 3e fe 7f 91 3e fa 67 85 bd
       -0.22618456 0.4572414 0.28417963 -0.065139726

encoder_layer_mhattentions.1.attention_heads.0.K.weight f4 [8, 8]
000000 85 03 8b 3e 98 0c 45 bd 83 2b e0 3d d1 4f 73 be
       0.27151123 -0.048107713 0.10945799 -0.23760916
000010 49 39 2a 3e 53 02 52 3e 72 d3 00 bf 1c c7 32 be
       0.16623415 0.20508699 -0.5032264 -0.17458767
000020 91 62 94 3d fa 28 eb 3d c2 5b de 3c 78 47 56 be
       0.072453626 0.11482425 0.027143363 -0.209257
000030 fe 1d 3a 3e c1 b0 53 be 2e d4 c9 be 60 6a e4 bd
       0.18175504 -0.20672895 -0.39419693 -0.11153102
000040 23 25 1b 3e d2 af 55 3e 47 da 52 3e 34 41 95 3e
       0.15150885 0.20867851 0.20591079 0.2915131
000050 83 50 26 3d c2 61 bb 3e b6 eb f2 3c 6e 99 a1 be
       0.040604126 0.3659802 0.029653411 -0.3156237
000060 ca 98 77 3d bf 5b bc 3e 59 56 04 3e 8b 3b 70 3e
       0.060448445 0.36788747 0.12923564 0.23460214
000070 25 ad 6f 3d 5a ff 01 3f 89 b9 7e bd a9 b9 02 bf
       0.058514733 0.5078026 -0.06218866 -0.51064545
000080 25 30 9a 3e 19 07 5a be 56 98 4e 3e dd ab 99 be
       0.30114856 -0.2129177 0.20175299 -0.30013934
000090 7a c2 5e bc d4 b9 8e be 33 1a 9e 3e 86 e3 95 bd
       -0.0135961715 -0.2787615 0.30879363 -0.07318787
0000a0 00 b7 2f be d9 33 0f 3e 07 3e 86 3e 4b 2f f3 bd
       -0.17159653 0.13984622 0.26219198 -0.11874255
0000b0 b7 08 98 be ed dc f5 3d ec 94 bd 3d 16 62 e1 3d
       -0.2969415 0.12005029 0.0925692 0.110050365
0000c0 52 d9 a3 be b9 11 d5 3d 4c 92 9b be 9b 65 5d bc
       -0.3200174 0.10403771 -0.30385053 -0.013512994
0000d0 0e 37 0b 3e c9 bc 36 3e 9f e5 b2 bd 2c 20 85 bd
       0.1359522 0.17845453 -0.08735203 -0.06500277
0000e0 5f c0 da be da 8b 5f be 47 20 10 3e ab 97 0d be
       -0.42724892 -0.21830693 0.14074813 -0.13827388
0000f0 59 ec 84 3e be 07 a0 3e e6 0f 3f 3e 5c 9b 8a bd
       0.2596157 0.31255907 0.18658409 -0.06767914

encoder_layer_mhattentions.1.attention_heads.0.K.bias f4 [8]
000000 be a4 3c 3e ca c2 a2 be cf ba ad 3e 43 08 31 3d
       0.18422219 -0.31789237 0.33931586 0.04322077
000010 31 13 80 be 57 94 63 be 60 f3 b3 3e 56 c0 d3 bd
       -0.25014642 -0.22224556 0.35146618 -0.103394195
