models/model_chkpt_150.pt (torch, 319268 bytes, 387 tensors)

tokenizer.token_embedding.weight f4 [17, 32]
000000 11 7f 39 bf d8 67 18 c0 96 dc 94 3d 18 62 d3 3e
       -0.7245951 -2.3813381 0.07268636 0.41285777
000010 ef 5c f2 3f 00 97 1c 3f a2 a1 69 3f cb d0 a0 3f
       1.8934611 0.6116791 0.9126226 1.2563719
000020 09 d3 d6 bf 17 eb 81 bf fa 38 6b be 65 13 37 3e
       -1.6783153 -1.0149869 -0.22970954 0.17878492
000030 95 8f 88 bf 1e 54 13 bf 71 28 8d be 75 8a e0 be
       -1.0668818 -0.5755023 -0.27569917 -0.43855634
000040 6c 64 a4 be 57 a3 09 3f 30 83 16 bf e6 9d c7 be
       -0.32107866 0.5376486 -0.58793926 -0.38987654
000050 a5 4f ba bf 4f 80 07 c0 6e b4 49 3f b2 77 47 40
       -1.4555556 -2.1172063 0.7879094 3.1166806
000060 19 18 17 bd 73 4c 59 3f 87 8d 24 3f dd d1 c7 3f
       -0.036888216 0.8488228 0.64278454 1.561092
000070 9c 53 23 bf ab 90 4b c0 a0 23 09 3f 92 f8 5b be
       -0.6379945 -3.1807048 0.53569984 -0.21481541
000080 0c dd 1e bf 9e 53 e0 bf 28 4a a4 3f cc 8a a3 be
       -0.6205604 -1.7525518 1.2835131 -0.3194183
000090 04 b7 3c 40 84 6b 35 3f 89 4c a9 bd b6 a2 7f 3f
       2.9486704 0.7086718 -0.08266551 0.9985765
0000a0 fc 5a b6 bf ac a3 47 bf 79 a1 8f be 0f 1b ed 3e
       -1.4246516 -0.7798412 -0.2805288 0.46309707
0000b0 c6 14 3c bf 51 9a 20 bf 48 9e 44 bf 96 01 07 bf
       -0.734692 -0.6273547 -0.7680402 -0.52736795
0000c0 aa c7 e2 3f ee b1 29 bf de c0 d1 3d 23 17 87 3f
       1.7717183 -0.66287124 0.102418646 1.0553936
0000d0 a6 3d a5 3f 64 0e 9d 3f fb 78 8a 3f 30 a4 cb 3e
       1.2909439 1.2270017 1.081817 0.39773703
0000e0 73 7e 77 bf 6c 51 60 3e 11 b6 cd 3f 04 59 23 3f
       -0.9667732 0.2190606 1.6071187 0.638077
0000f0 6a 17 2e bf d7 38 d8 bf 7e f2 09 bf fc d7 2e 3f
       -0.6800448 -1.6892346 -0.5388564 0.68298316
000100 f6 14 0e bf bb ca 98 3e 11 c5 31 be 66 af e4 bc
       -0.55500734 0.2984217 -0.17360331 -0.027915668
000110 5e 81 7f 40 f2 9e 2f 3e 92 c0 00 40 ea d4 fa 3d
       3.992271 0.17150477 2.0117536 0.122476414
000120 0e 22 a2 bf b7 4c 38 be 61 32 21 bf 8f 11 3a 3f
       -1.2666643 -0.17998014 -0.629675 0.7268304
000130 b4 99 90 be c7 96 e2 be 37 4d 13 bf 36 ec 07 bf
       -0.28242266 -0.4425566 -0.57539696 -0.53094804
000140 f4 42 e0 3f 04 09 f9 3f 9f a1 97 be 37 af 04 c0
       1.7520432 1.9455876 -0.29615495 -2.0731943
000150 9a 48 a9 bf a0 5c 04 bf 00 51 06 be 51 80 fe bf
       -1.3225281 -0.51703835 -0.13116837 -1.9882909
000160 f3 f2 99 bf 4a 92 a0 3f 1d ac b0 3e 3f be 7d 3f
       -1.2027267 1.2544644 0.34506312 0.9911842
000170 7a 50 09 3f 8c 45 6b be 04 0d 38 bf 8a 48 ae bd
       0.5363842 -0.22975749 -0.7189486 -0.085099295
000180 6e b1 55 bf cb 17 de 3f d3 f8 56 3e d4 41 21 bf
       -0.8347386 1.7351011 0.20993356 -0.6299107
000190 68 1a 09 3e 93 79 09 bf 36 b3 e7 3f b3 39 84 3f
       0.1338898 -0.5370113 1.8101566 1.0330108
0001a0 96 5b c0 bf 2b fd 52 3f 89 06 7e bf 39 37 32 3f
       -1.502795 0.82417554 -0.9922872 0.69615513
0001b0 94 2f 58 3a 3b 76 42 bf ee 48 a9 be d5 0e 05 bf
       0.0008246836 -0.75961655 -0.33063453 -0.51975757
0001c0 d7 4c 1c 3f 91 d8 cc 3e 4b 67 ea 3f 0f b1 e8 be
       0.6105475 0.40008977 1.8312773 -0.45447585
0001d0 65 eb f2 be bc 8c ac 3f af c8 81 3f 9a 7d 34 c0
       -0.47445217 1.3480449 1.0139369 -2.820166
0001e0 00 87 b8 bf d3 78 2c 3f 3d a0 a6 3e 4c aa 05 3e
       -1.4416199 0.67371863 0.32544127 0.13053244
0001f0 af 0f 52 3e 03 b3 7f 3f 50 89 89 bf 81 d2 e6 3e
       0.20513795 0.99882525 -1.074503 0.45082477
000200 56 50 05 bf 7d f6 39 be ee 8d 86 3d 8e 21 07 3f
       -0.5207571 -0.18160434 0.0657004 0.52785575
000210 81 71 08 bf e1 5d ca bf 04 14 28 40 91 de 00 bf
       -0.53298193 -1.58099 2.6262217 -0.5033961
000220 20 43 72 bd 9e 5c 4f be cd c8 11 3f 48 88 ba 3f
       -0.059146047 -0.20250174 0.5694702 1.457284
000230 88 aa 32 be a7 b9 04 bd 82 ec aa bf bd 2b f4 bd
       -0.17447865 -0.032403614 -1.3353426 -0.11922405
000240 ba a5 7c 3f 2a 44 04 3f 03 8e f3 3f 10 b3 b2 bf
       0.9869038 0.5166651 1.9027714 -1.3960896
000250 74 fe be bf a6 6c 18 3f 87 d9 1a bd 99 c9 99 bf
       -1.4921403 0.59540784 -0.037805106 -1.2014648
000260 a4 37 90 bf 80 19 b0 3e 7c 3b 6f bf 4f ac de be
       -1.126698 0.34394455 -0.9345014 -0.43490836
000270 b3 2a fd 3e 35 2e 0e 40 9c 99 bd bf 7c 1b e5 be
       0.4944664 2.2215703 -1.4812503 -0.4474753
000280 80 87 47 3f 8b 37 76 3f 26 8b 03 40 0f 00 e7 3e
       0.7794113 0.961785 2.055368 0.45117232
000290 8f 39 73 c0 1d 3f 8e bf c9 4f 33 3f ed 5a 81 3f
       -3.800388 -1.1113011 0.7004362 1.0105873
0002a0 93 32 8a be f2 1d aa 3f 95 c4 2f 3f c4 13 a5 3f
       -0.2699171 1.3290389 0.68659335 1.2896657
0002b0 90 4c cb bd 98 b0 8d be f1 8c 6c bf 7a 0d 82 bc
       -0.099267125 -0.27673793 -0.9240256 -0.015875567
0002c0 e6 95 0c 40 9b 37 2d 3f 66 06 a0 3e 30 52 12 bf
       2.196649 0.6766297 0.31254882 -0.5715666
0002d0 1a 49 28 bd 5b 64 7c be ff eb 2f 3f 6e 24 42 be
       -0.04108534 -0.24647658 0.68719476 -0.1895921
0002e0 31 21 41 3e 15 49 32 bf e1 22 c9 be ca 3d 98 be
       0.18860318 -0.69642764 -0.39284423 -0.2973464
0002f0 7f d5 b7 be 10 14 b4 3f 07 40 ba bf e0 b9 5a bf
       -0.35905072 1.4068623 -1.455079 -0.8543987
000300 ad 46 fc be 0a 34 b1 bf 89 38 9d 3e 82 5d c6 3e
       -0.4927267 -1.3844006 0.30707195 0.38743216
000310 f8 4a b3 bf 41 2c d4 bf 2e dd 0a 3e fd ed 22 be
       -1.4007254 -1.6576005 0.13560936 -0.15911098
000320 13 d7 ab be 28 08 86 3f 3c 8e 47 3f d4 e5 99 3f
       -0.33562526 1.0471239 0.7795141 1.2023263
000330 7b 3d 40 be 79 15 3a be 2c 53 8a bf d1 b2 24 be
       -0.18773453 -0.18172254 -1.0806632 -0.16083838
000340 33 c4 8c 3f 61 63 d3 3e 25 e3 ec bf a5 d6 95 3e
       1.0997375 0.41286758 -1.8506819 0.29265323
000350 d7 eb 11 3f 1c 9b ba 3d 03 c0 c5 be 53 ea 36 40
       0.5700049 0.09111616 -0.38623056 2.858052
000360 73 bb 8c bf 9d 42 b6 3e b8 32 0c bf 73 ec 55 bf
       -1.0994705 0.35597697 -0.5476489 -0.8356392
000370 ea de fa 3e 5c 07 2f 40 f6 4e c7 bf 22 6c a0 be
       0.48998195 2.7348242 -1.5570972 -0.313325
000380 c6 d8 5c bf 5e 16 93 3e 23 87 41 40 d1 76 83 3f
       -0.8626827 0.28728002 3.023873 1.0270635
000390 93 2e 1e 3f 5c e6 57 c0 e2 9d 5c c0 37 50 c0 be
       0.61789817 -3.373435 -3.4471364 -0.375612
0003a0 f5 49 60 3d a3 bc 07 40 27 32 8b 3f 3a 98 a4 3f
       0.05475803 2.1208885 1.087468 1.2858956
0003b0 0a 8b e8 3d 06 ed d2 be 13 7c 4c bf e0 ff 1f 3e
       0.113546446 -0.4119646 -0.7987682 0.15624952
0003c0 ec e6 2a 3f fe 97 43 3e 9e a6 ea bf 85 66 25 3f
       0.6675861 0.19100949 -1.8332098 0.6460956
0003d0 f4 f0 02 40 74 08 ac 3f 1c 66 df bc 46 06 8b 3f
       2.0459566 1.344008 -0.02727037 1.086129
0003e0 6b ce b6 3e 66 94 45 be 7b 50 45 bf d7 86 0e 3f
       0.3570436 -0.19294891 -0.7707593 0.556745
0003f0 a1 3a d5 be 2c e9 41 3f c1 34 bc bf da 98 0f bf
       -0.41646293 0.7574642 -1.4703599 -0.5609261

tokenizer.positional_embedding.weight f4 [9, 32]
000000 dd b0 00 3f f5 a0 59 bd 00 ff 0c bf 0b 0c c2 3e
       0.5026987 -0.053132016 -0.550766 0.37899813
000010 c1 a7 b9 3e a8 9d f3 3f 65 87 0c bd ee c1 cf be
       0.362608 1.9032488 -0.03430881 -0.40577644
000020 a1 23 31 bf 6e eb 61 3f f5 8f 0e 40 86 32 a1 bf
       -0.6919499 0.8824986 2.2275364 -1.2593544
000030 bf cc 87 bf 98 50 8c bf 96 b6 f0 3e 3f ad 47 be
       -1.0609359 -1.0962095 0.47014302 -0.19499682
000040 96 e2 b4 3d ed 25 2e bf 31 7b b7 3e 3f 21 90 3f
       0.0883228 -0.6802662 0.35836175 1.1260146
000050 5c 91 7e be fb 4f c2 be 9a 67 98 3e 4c a2 64 3e
       -0.24860138 -0.37951645 0.29766542 0.22327536
000060 f1 05 3b bf c1 4b 1c 3f 0e 82 07 40 c2 1a 82 be
       -0.7305594 0.6105309 2.117313 -0.2541104
000070 fe 05 99 bd 56 6a 31 be 21 81 87 bf 03 29 4d c0
       -0.07471846 -0.1732572 -1.0586282 -3.2056282
000080 77 1c 54 3f a7 83 3b 3f 5e 2b 0c 3f 05 5c a4 bd
       0.82855934 0.7324776 0.54753673 -0.08025364
000090 72 1e 88 3f 77 3d ed 3d b7 84 32 3e e4 f2 4e bd
       1.0634291 0.11583989 0.17433439 -0.050524607
0000a0 6a 30 f9 3f b4 55 20 3f a5 1d 81 bf 4a c8 73 be
       1.94679 0.6263077 -1.0087172 -0.23806873
0000b0 bc 46 e5 be d3 53 88 3e 47 6c 75 3f 35 c1 41 bf
       -0.4478053 0.26626453 0.95868343 -0.75685436
0000c0 cc f5 9a bd 3d 00 44 bf cf 3c 35 3f db 9d b6 bf
       -0.07566413 -0.76562864 0.7079591 -1.4266924
0000d0 eb b4 5b 3f 07 a9 24 3e 53 73 36 3f d0 e8 1d 3f
       0.85822934 0.16080104 0.7126972 0.6168337
0000e0 71 b1 2b 3f f8 f6 05 bf c7 13 9a 3f 75 63 11 c0
       0.6706763 -0.5232997 1.2037286 -2.2716954
0000f0 cc a6 2f 3f af 1d 0e 3f d5 c4 f9 3f 93 55 6a bf
       0.68613887 0.55514044 1.9513193 -0.91536826
000100 52 30 61 bd 4c 40 70 3f e4 fd 2d bd 6d 5e 03 bf
       -0.054977722 0.9384811 -0.042478457 -0.5131596
000110 7c 46 e2 bd 53 96 8e be 94 97 9a 3c 30 c7 58 3f
       -0.110486 -0.27849063 0.018871106 0.84678936
000120 8c b1 57 3f a6 d8 bc 3e e4 c3 d5 bf 1a 18 f3 bf
       0.8425529 0.3688404 -1.6700406 -1.899173
000130 76 d6 d4 3f 66 72 6c be f4 89 00 c0 f5 1b 66 3f
       1.6627948 -0.23090515 -2.00842 0.8988641
000140 04 68 01 3f 6b 9e 22 3f 34 55 32 be c3 f0 1f bf
       0.5054934 0.63522977 -0.17415315 -0.6247675
000150 1b ee c0 3f ef 75 aa bf 9e 2f 45 bf 8d 80 ca be
       1.5072664 -1.331724 -0.77025783 -0.395512
000160 a1 dd 08 3e 09 42 f4 be 37 50 95 be e4 11 ac bf
       0.13365795 -0.4770663 -0.29162762 -1.344296
000170 2b 90 15 be 1f 66 17 bf 24 a5 97 3f 1c cd aa bf
       -0.14605777 -0.591402 1.1847272 -1.3343844
000180 d8 f7 64 bf 7d a1 ab bf 88 57 bf bf ce 68 5c bf
       -0.8944068 -1.3408657 -1.4948587 -0.8609742
000190 4e ed d7 be 38 bf 80 bf c0 21 71 3e b8 bd 20 bf
       -0.42173237 -1.0058355 0.23548031 -0.6278949
0001a0 60 32 97 bf 37 0c 24 3e 80 20 eb bc e3 d8 d7 bf
       -1.1812248 0.16020285 -0.02870202 -1.6863064
0001b0 bf 86 db 3f 3c 0b 3e bf e5 d1 e2 bf 4d b7 e6 3e
       1.7150496 -0.7423589 -1.7720305 0.45061722
0001c0 c0 78 c9 be 78 90 82 bf cf 2c 4c bf ef f9 13 c0
       -0.39349937 -1.0200338 -0.7975587 -2.3121297
0001d0 fa 1d b6 3f 80 8a 02 3f 85 18 e6 3d d1 42 80 bf
       1.4227898 0.50992584 0.112351455 -1.0020391
0001e0 a3 1d d0 3f ff 71 f4 3f 5d 40 18 3f 2c ba 47 bf
       1.6259044 1.9097289 0.5947321 -0.7801845
0001f0 06 c0 49 3f 67 c8 f5 be 18 d0 ca bf 4a 7f 0f bf
       0.7880863 -0.48004457 -1.5844755 -0.560536
000200 7d eb 88 3f ac be c9 be a2 0b 4c 3f 0d b4 c0 bf
       1.0696865 -0.39403284 0.7970525 -1.5054947
000210 a1 89 bc bd 3b d2 d9 bf 89 ae 3e 3f e5 54 e5 3e
       -0.09205938 -1.7017282 0.7448507 0.44791332
000220 ca c9 5c bf 78 75 96 3f a5 97 22 40 7f 1a 97 3e
       -0.86245406 1.1754599 2.5405056 0.29512402
000230 37 7e 4b bf 52 83 c7 bc 5a 37 3a 3d 78 5a ae be
       -0.79489464 -0.02435461 0.045462944 -0.34053397
000240 5a c4 1a 3e 23 62 b4 bf a8 1e 7f 3f 67 62 49 3e
       0.15113965 -1.4092449 0.9965615 0.19666444
000250 96 07 df 3d 03 66 84 3f 8e ad 54 bf 75 cd b9 be
       0.10890119 1.0343632 -0.83077323 -0.36289564
000260 05 9c 46 3f 7b 3f 51 3e ba de 09 be 2f cf 90 bd
       0.77581817 0.20434372 -0.1346387 -0.07070767
000270 ad b1 e0 3f d8 42 e1 3e a0 78 a8 3f 84 bf 92 3f
       1.7554222 0.4399631 1.3161812 1.1464696
000280 3f 75 ed be a2 7d a5 bf b4 f4 fb 3f 2e 5c cb bf
       -0.46378514 -1.2928965 1.9684052 -1.5887506
000290 8c 75 94 bd 5b d9 64 3f 48 8f 11 3f 45 b7 24 bf
       -0.07248983 0.8939416 0.56859255 -0.6434215
0002a0 3d 1d 24 bf a4 df 07 bf 93 e4 99 be e9 04 08 3f
       -0.64107114 -0.53075624 -0.300572 0.5313249
0002b0 47 d1 01 bf 0f ad 9c 3f a9 6d 50 3e d3 30 c4 bf
       -0.50709957 1.2240313 0.20354332 -1.53274
0002c0 4b 2b b2 bf 37 47 91 3f 77 6b 4c 3e 5d 62 1c 3f
       -1.3919462 1.1349858 0.1996287 0.6108759
0002d0 5c 46 1d bf b9 c5 1a 40 de 1a 2f 3f a0 1c 02 3f
       -0.61435485 2.418318 0.6840037 0.5082493
0002e0 eb 4e 98 be 69 e9 23 3f 78 ad 1d c0 5a 81 74 3c
       -0.2974771 0.6402803 -2.4637127 0.014923418
0002f0 2b 24 27 bf 4d bc 6d bd 7d 02 9c bf da 62 4b 3f
       -0.6528956 -0.058040906 -1.2188259 0.7944771
000300 ae d6 14 bf 33 44 d1 3e 1c 33 91 be 7b d4 2b 3e
       -0.58140075 0.40872344 -0.28359306 0.16780274
000310 5c 74 62 bc 79 3d 12 bf 92 bd d7 bf 62 fa 06 bf
       -0.013821688 -0.5712505 -1.6854727 -0.52725804
000320 b7 36 d6 3e 73 35 a5 bf 89 30 81 bf b0 8f 6d 3e
       0.4183862 -1.2906936 -1.0092937 0.23199344
000330 bc d5 e9 bf 84 7a 9e 3f 8c 02 de be e0 f2 a4 3f
       -1.8268352 1.2381139 -0.43361318 1.288662
000340 29 46 33 3f 9f d8 95 be 09 e2 ec bf b8 aa d1 3e
       0.7002893 -0.2926683 -1.850648 0.4095056
000350 31 91 89 bf e8 c7 2e 3f 30 48 8d 3f 8d 7e 86 bf
       -1.0747434 0.6827378 1.1037655 -1.050737
000360 84 04 1b bf 93 46 25 3e 9e 06 be 3d 7f ca bb 3f
       -0.60553765 0.16140203 0.09278606 1.4671172
000370 a2 7b 05 bf cb fc 4c 3f 9f 49 94 3f f6 68 b2 3e
       -0.52141774 0.8007323 1.1584967 0.34845704
000380 9e 75 b3 bf 7f ac 1f 3f bd d6 b6 bf d5 ea d6 3e
       -1.4020269 0.62372583 -1.4284283 0.41976038
000390 ab e5 87 bd 4c 93 ee 3d e8 22 ca be e4 f6 84 3f
       -0.066356026 0.116491884 -0.39479756 1.0387845
0003a0 e0 ec 86 3f 7a 6d ed bf 37 fa 5c bf f6 89 9c 3f
       1.0541039 -1.8549035 -0.863193 1.2229602
0003b0 1e 18 2c bf fe d1 a0 bf af 1e b9 3e c3 37 05 40
       -0.672243 -1.2564085 0.36156222 2.0815284
0003c0 e3 ec 72 3f 76 81 64 3e 2a c3 b2 bd cb d1 ad bf
       0.9489271 0.2231501 -0.08728631 -1.3579649
0003d0 8e fc 32 be 82 7f 0a 3f 2e db 8b bf 03 03 0d bf
       -0.17479154 0.5410081 -1.0926263 -0.5508272
0003e0 eb 6d 31 3f 10 1b 0a c0 fc 84 a4 3d ff 5f 0c bf
       0.69308347 -2.1579018 0.08033177 -0.5483398
0003f0 4b e8 eb bf 47 21 58 bf 12 e1 19 bf 99 02 c2 3f
       -1.8430265 -0.8442578 -0.60109055 1.5157043

encoder_layer_mhattentions.0.attention_heads.0.Q.weight f4 [8, 8]
000000 f5 46 23 3d b9 70 83 3d cc 72 cf 3d 56 f3 6d 3e
       0.03986259 0.064179845 0.10129318 0.23237357
000010 09 c6 9b 3d 21 11 10 3e e4 6d 76 3a ed d0 bc bd
       0.076061316 0.14069034 0.000940053 -0.09219537
000020 33 6b ad bb 22 23 be bd e4 30 b0 be 35 d3 1f be
       -0.00529232 -0.09284045 -0.344123 -0.15607913
000030 aa 75 73 3c ce f2 bf bd 60 f2 4d be 94 12 5e bd
       0.014859596 -0.09372483 -0.2011199 -0.054216936
000040 cd 30 0a 3d 29 fc f7 bc 73 dd 19 be 2e 74 40 be
       0.033737946 -0.030271607 -0.15025882 -0.18794319
000050 8b 58 cc bd eb 9e 39 bd b3 d7 90 bb 1b 42 51 3d
       -0.09977826 -0.04531757 -0.0044202446 0.051088434
000060 dc a4 b0 3d 6d 5a 0a bd b9 35 f2 bd 05 8e ba 3d
       0.086251944 -0.033777643 -0.11826653 0.09109119
000070 08 13 a1 bd be d7 6a 3c 5d cc b1 bc 82 2b 9b 3c
       -0.07864958 0.0143336635 -0.021703893 0.018941645
000080 09 2a 3c 3e 92 81 bd bd 59 4f 31 be 5a a2 0f be
       0.1837541 -0.09253229 -0.17315425 -0.14026776
000090 2f 28 b5 bd 02 9b ff bd 3d 6d 6b bd 6f 3d 79 3d
       -0.08845555 -0.12480737 -0.057477225 0.060849603
0000a0 51 f9 98 be 62 73 6b 3d bb 17 66 3e b4 aa 41 bd
       -0.29877713 0.057483084 0.2246999 -0.047281936
0000b0 99 c7 0c bd da 58 1a 3e 62 9d 0f 3e 84 de 46 be
       -0.03437004 0.15072957 0.1402488 -0.1942082
0000c0 6a 99 77 be 51 d8 78 3d 2e 4a f5 3d fc c7 8d 3d
       -0.24179617 0.06075317 0.11977039 0.069229096
0000d0 84 be f2 bd 36 18 bf 3e 4b f9 7e be 92 e0 bf be
       -0.11852744 0.3732316 -0.24899785 -0.3747602
0000e0 1f 80 d4 be 4b 16 42 3e ed 63 b0 bc 6a 0f 35 3f
       -0.41504 0.18953817 -0.021532023 0.70726645
0000f0 74 0b 14 be 14 2c 10 3f c1 ea e0 3d 0a 7d f6 be
       -0.14457494 0.5631726 0.10982276 -0.48142272

encoder_layer_mhattentions.0.attention_heads.0.Q.bias f4 [8]
000000 fe 66 ce bc 83 eb 53 bf 74 7b 2c 3e 0e 76 11 3c
       -0.025195595 -0.8278124 0.16843969 0.008878244
000010 8d bb ec 3d e9 6e 65 be eb 94 9d 3f 3d e6 02 3f
       0.1155921 -0.2240559 1.2311071 0.51132566

encoder_layer_mhattentions.0.attention_heads.0.K.weight f4 [8, 8]
000000 c5 10 56 3e d1 01 c0 3d 2b 34 c9 be 78 f5 57 3e
       0.20904835 0.093753465 -0.39297614 0.21089733
000010 14 bf 29 3c 39 63 86 bd 8c 4b c1 bc bc 15 b3 bd
       0.010360498 -0.06561894 -0.023595594 -0.0874438
000020 6a 6b e1 be d6 f3 82 bd 69 10 1d bd c8 59 c1 3e
       -0.44027263 -0.06394164 -0.038345728 0.3776381
000030 6e b6 4a 3e 65 79 8f bd 6b cf 0f be 6f 6c bb 3e
       0.19796154 -0.07005576 -0.14043967 0.36606166
000040 41 ff 2b be 07 c3 ad bd 1d 3c 2e 3e e0 9f e6 bd
       -0.1679659 -0.08484464 0.17015119 -0.112609625
000050 55 31 cc bd a0 d5 15 3d 4e 0a f7 bd df fe 1b 3a
       -0.09970347 0.03658068 -0.12062512 0.00059507595
000060 c3 35 b5 3c 48 37 f9 3c d1 5d 6d 3d 65 54 7b bd
       0.022120362 0.030421868 0.0579508 -0.06135978
000070 a1 cc 87 bd 5b 42 a0 3d c4 41 d0 3d 86 fe a8 3d
       -0.06630827 0.07825156 0.10168794 0.082516715
000080 b7 92 b2 bd b2 ea 2c bd 23 b1 3c 3e 84 45 fc bd
       -0.0871939 -0.04221601 0.18426947 -0.123179466
000090 95 8e 94 bd 56 21 8a 3d 7a 87 1a 3e 72 6d eb bb
       -0.07253758 0.067446396 0.15090743 -0.0071846778
0000a0 16 46 c6 3d 19 01 95 3c ae e4 4e be a7 f3 6c 3e
       0.096813366 0.018189 -0.20204422 0.23139821
0000b0 0d f2 63 3e 7a d6 8f be 10 ca a2 be a1 6d 74 be
       0.22260304 -0.2809332 -0.31794786 -0.23869945
0000c0 89 13 9b 3e a4 41 02 3d 8f c9 09 bf 70 48 bd be
       0.30288342 0.03180088 -0.5382318 -0.36969328
0000d0 dc b5 46 3c 79 bc 97 3c 68 ba ae be 85 42 05 be
       0.01212832 0.018522488 -0.34126592 -0.13013656
0000e0 aa 74 f1 3e d3 07 38 39 f8 b5 39 bf 29 f0 65 3e
       0.4715932 0.00017550522 -0.7254329 0.22454895
0000f0 17 e3 4e 3d f1 f7 ab be 21 f9 81 be 21 a9 ae 3e
       0.05050954 -0.33587602 -0.25385383 0.3411341

encoder_layer_mhattentions.0.attention_heads.0.K.bias f4 [8]
000000 4b 53 a2 3d 7b d6 10 3e f3 16 97 3b d4 57 c2 bd
       0.07926043 0.14144318 0.00461089 -0.09489408
000010 bc 29 1b be 78 eb dc bd a3 18 a8 3c 51 45 d6 bd
       -0.15152639 -0.107870996 0.02051956 -0.1046244

encoder_layer_mhattentions.0.attention_heads.0.V.weight f4 [8, 8]
000000 4a 5d fe 3e eb 42 83 3e a1 6b 6e be d2 46 69 3d
       0.4968055 0.25636992 -0.23283245 0.056952305
000010 eb 3e d0 bd 90 e4 6f bd 54 cf 95 3d 5e 36 35 bf
       -0.10168251 -0.058567584 0.07314935 -0.7078608
000020 44 42 0b 3e 5a 4d 47 3e 53 d4 b7 bd be a6 b3 be
       0.13599497 0.19463101 -0.089760445 -0.35088152
000030 4a fa 20 3c 17 5b d9 3e 04 a1 bf 3b b4 f0 67 be
       0.009825299 0.4245231 0.005848052 -0.22650415
000040 88 00 cd 3e 4a 89 57 3d ad eb fb 3c 7d e9 75 bd
       0.40039468 0.052621163 0.030752027 -0.060037125
000050 00 0b 2b 3e 4f 2d ae 3e 66 77 c0 bd 45 e3 69 ba
       0.16703415 0.34018943 -0.093977734 -0.00089221104
000060 1b a6 65 be eb 9c 42 bd 23 16 76 3e c5 fe bf 3d
       -0.22426645 -0.04751293 0.24031882 0.09374765
000070 36 ae b2 bd 06 b1 5b be d3 e3 6f 3d 33 e3 e7 3e
       -0.08724634 -0.21454248 0.05856688 0.45290527
000080 2f 9e 86 3e 50 36 5c be 72 8e 9e be fd a0 93 be
       0.2629256 -0.21505094 -0.30968052 -0.28833762
000090 5e a2 1b be 28 43 98 3d 2d 55 80 be c5 7b 9f 3e
       -0.15198657 0.07434684 -0.25064984 0.31149116
0000a0 65 5e 34 be a0 2f 4e bd ad 46 8b bd 3d 62 b7 3e
       -0.17614134 -0.050338387 -0.0680059 0.35817137
0000b0 9a 76 d9 3c 8e 3d 9d 3e 89 06 86 3e 35 c9 9c 3e
       0.026545811 0.30711025 0.2617686 0.3062226
0000c0 9a 43 0f 3d c9 a9 29 3e eb 29 05 3d 84 ad 0f 3e
       0.03497658 0.16568674 0.03251068 0.14031035
0000d0 17 95 37 be c0 c8 10 3e c1 59 49 be 92 73 96 3e
       -0.17927967 0.1413908 -0.19663145 0.29385048
0000e0 c2 b1 0d be e9 10 69 bd 49 f3 1e be 3b 17 62 3e
       -0.1383734 -0.056900892 -0.15522493 0.22079174
0000f0 d8 6f 45 be 68 eb b1 3e cb e6 be be 38 37 d6 3e
       -0.19280946 0.34749913 -0.37285456 0.41839004

encoder_layer_mhattentions.0.attention_heads.0.V.bias f4 [8]
000000 cc a1 4c be 67 69 92 be 51 c4 8a bd 05 f2 75 3e
       -0.19983596 -0.2859604 -0.06775726 0.24018104
000010 50 1b f9 bd a4 98 89 3e 0e 37 14 3e 9a 7b dc 3d
       -0.121634126 0.26874268 0.14474127 0.107657626

encoder_layer_mhattentions.0.attention_heads.1.Q.weight f4 [8, 8]
000000 c8 57 23 3d a6 cc c7 3c a4 ab 14 bd f6 bf 3d bd
       0.039878637 0.024389576 -0.0362965 -0.046325646
000010 8d 45 d6 3b 94 a6 08 3c 93 38 05 3d 83 ba b8 3c
       0.006539053 0.008340497 0.032524657 0.022549873
000020 69 e0 32 3d d9 78 e2 3d e0 33 e7 bc 73 a6 8e 3e
       0.043671045 0.11058206 -0.028222978 0.27861366
000030 b7 73 0d bf 5b fd 6f 3f 93 d7 fb 3b 92 ed 93 bf
       -0.5525469 0.93745965 0.0076856106 -1.1556876
000040 43 e7 b8 be 33 b3 57 be 3a 03 f4 3e 4e 4f a0 be
       -0.3611394 -0.21064453 0.47658712 -0.31310505
000050 b0 1b 55 3f 39 07 ec 3e ff a7 9b bd e5 d1 a9 be
       0.8324537 0.4609926 -0.07600402 -0.3316795
000060 7e a2 0d 3f d2 53 7e 3d 30 ec d4 3a e8 75 58 be
       0.5532607 0.062091656 0.0016244706 -0.21138728
000070 d0 33 7a 3d 6f 45 7f bf b5 45 2e 3f 83 1f 90 be
       0.06108457 -0.9971532 0.68075114 -0.28149042
000080 21 a2 86 3f 11 29 0a bf 9e e2 c0 be 71 fa 88 3e
       1.0518228 -0.5396891 -0.37672895 0.26753572
000090 e4 03 d7 3d 50 1e 86 3e 08 14 00 3f bf 10 43 3f
       0.10498789 0.26195002 0.50030565 0.7619743
0000a0 16 3e a5 bd e0 a7 eb bc c9 a0 c4 bd 84 39 90 bd
       -0.080684826 -0.028766572 -0.0960098 -0.0704222
0000b0 67 cc 5d bd 66 84 d5 3e 5d 5b bf bc 36 eb 5a 3c
       -0.05415001 0.41702574 -0.023358995 0.013361743
0000c0 1d 18 27 bf a4 3e 24 be bc 75 3f 3f 89 d9 78 3e
       -0.6527117 -0.1603952 0.74789023 0.24301733
0000d0 9d bb a4 be 59 60 82 bd a8 fb 98 3d b5 c7 f3 3e
       -0.32174388 -0.06366033 0.074698746 0.47613302
0000e0 54 da 74 3e 0a 90 81 bc 3c 1c a5 bd 4d 90 93 3e
       0.2391141 -0.015815753 -0.08062026 0.2882103
0000f0 28 ed 37 3e be b4 2c bd 53 45 bd 3d 98 45 4c 3d
       0.17961562 -0.042164557 0.09241738 0.049871057

encoder_layer_mhattentions.0.attention_heads.1.Q.bias f4 [8]
000000 87 e6 8e 3d 27 79 8f bc 3b bd 54 3d 23 3a 4a be
       0.06977563 -0.017513825 0.051938277 -0.1974874
000010 17 81 12 be 81 65 50 be a1 e3 89 ba 59 44 70 bd
       -0.14307056 -0.2035122 -0.0010520109 -0.05865893

encoder_layer_mhattentions.0.attention_heads.1.K.weight f4 [8, 8]
000000 4f fb 87 bc da 20 94 bc a1 36 e8 3c 97 84 1a bd
       -0.016599325 -0.018082071 0.028346362 -0.037724104
000010 e6 1c ab bb 8a bc a3 bd c3 b5 4a 3d 6f 7f b1 bb
       -0.005221951 -0.07994945 0.049489748 -0.0054168026
000020 60 de 09 be 20 e6 e3 3d 10 d6 24 bf a5 2e 49 be
       -0.13463736 0.11127877 -0.64389133 -0.196467
000030 89 c1 0d be 99 84 3b 3d a9 a0 7a bf fb 52 7d 3f
       -0.13843359 0.04578075 -0.979014 0.98954743
000040 c7 12 8b bd da a8 17 3e 83 c2 fb 3c c8 c6 6e bd
       -0.06790691 0.14810506 0.030732399 -0.05829504
000050 05 a1 57 bf c8 99 80 3f fb 16 8d 3e 5d f7 ff 3c
       -0.8423007 1.004693 0.27556595 0.031245882
000060 98 f5 1d be d9 85 b8 3e 72 40 51 be dc 38 e9 be
       -0.15425718 0.36039618 -0.2043474 -0.45551193
000070 9e 69 04 3f 07 3f 28 3f 38 ca b3 be ef 4a 0c bf
       0.5172366 0.6572117 -0.35115218 -0.5480184
000080 b4 18 fd be e1 db bd be 1b 16 ab 3e e1 07 3b 3e
       -0.4943291 -0.37081817 0.33415303 0.18264724
000090 73 e6 82 3f 58 d2 46 3e 81 b1 63 3e b7 57 f9 3d
       1.0226578 0.19416177 0.22235681 0.121749334
0000a0 3a 0a b5 bc 96 de 8d 3c c4 87 6f bc fa fe 59 3e
       -0.022099603 0.017318051 -0.014619771 0.21288672
0000b0 b9 64 f7 3d 97 cd c2 bd f0 fb 5a 3e f8 1c 88 3e
       0.12079758 -0.095118694 0.21385169 0.265846
0000c0 de 31 fa 3e 10 5f 71 be 1e 1c ad be be 9c fe 3e
       0.4886617 -0.2357142 -0.33810514 0.4972896
0000d0 f4 f9 b2 3d 02 85 9c 3e e0 92 51 3f 50 e3 76 be
       0.08739081 0.30570227 0.8186474 -0.2411015
0000e0 e9 84 98 be 27 7f 83 be 35 86 14 3e ce 3d a3 3c
       -0.29788902 -0.25682947 0.14504321 0.019926932
0000f0 3c e8 09 3e bd e1 f1 3d d3 f2 ae be d2 6b 8d 3d
       0.13467497 0.11810634 -0.34169635 0.06905331

encoder_layer_mhattentions.0.attention_heads.1.K.bias f4 [8]
000000 cb b1 30 be d1 3f a5 3d ac af fc bc 6a 9c 68 3e
       -0.17255323 0.08068813 -0.030845486 0.22715917
000010 2b 6e 1d 3e 1b 1c 2d be 66 57 7b bd bd 0b 19 be
       0.15374057 -0.16905253 -0.061362647 -0.14945884

encoder_layer_mhattentions.0.attention_heads.1.V.weight f4 [8, 8]
000000 c1 ab d8 bd e3 08 9e be 59 5f 37 be 82 43 3b bf
       -0.105796345 -0.30866155 -0.17907466 -0.73149884
000010 bf b0 ca be e1 ca d5 be fc eb 7e bd 7a b8 6b bd
       -0.39587972 -0.41756347 -0.06223677 -0.057548977
000020 8e 3e d4 be 27 dd 06 3e 1c ba 26 3e a4 50 7b bc
       -0.41453975 0.131703 0.16281933 -0.01533905
000030 fb 84 c4 3c 69 66 23 3d ae 2f 2d be 61 f5 be 3d
       0.023989191 0.039892588 -0.1691272 0.09324146
000040 13 89 07 3e 76 d7 84 be dc b7 80 be d0 58 7f be
       0.13235883 -0.25945634 -0.25140274 -0.24936223
000050 e5 86 96 3e 66 b3 ea 3e 12 95 c0 3e 10 83 9c 3e
       0.2939979 0.45839995 0.37613732 0.30568743
000060 7e 96 bd bd d9 be 82 3c 9a 45 12 bd e2 08 dc 3d
       -0.0925722 0.015960144 -0.03571091 0.10743882
000070 81 c1 02 3e 3a 48 b8 3d db 87 f5 3c 15 0b a2 3d
       0.12769128 0.08998151 0.029972007 0.0791227
000080 6c 97 95 3e f7 b3 02 be aa 5d 04 3e c8 c6 38 bf
       0.29217088 -0.12763964 0.12926355 -0.72178316
000090 fd dc 68 3e 74 17 a6 3e cb 50 cf 3e 1f 7e 06 3f
       0.2274055 0.32439768 0.40491328 0.52536196
0000a0 35 08 d0 3d 62 1f 07 3d 3d ec c0 3d 7a 01 c4 3c
       0.10157815 0.032988913 0.09420059 0.023926485
0000b0 e2 b8 1a 3c 65 7f 7a 3e 58 b3 36 be c6 dc 99 bd
       0.009443494 0.2446266 -0.17841852 -0.07512812
0000c0 98 af d5 bd a3 83 00 bf 15 cf a3 3d c3 f3 d9 bd
       -0.104338825 -0.5020086 0.07998482 -0.10642197
0000d0 53 60 19 3e 7a cf d7 3e bf 1e 68 3e 3c 4f de bd
       0.14978151 0.4215048 0.22667979 -0.108549565
0000e0 8a f7 ca be 44 88 0e 3e b4 c2 cd 3c 54 43 8f 3d
       -0.39641982 0.13919169 0.025117256 0.06995264
0000f0 f8 1e 35 be 17 e7 be 3e fc 9c 29 be 87 7a 87 be
       -0.17687595 0.37285683 -0.16563791 -0.26460668

encoder_layer_mhattentions.0.attention_heads.1.V.bias f4 [8]
000000 37 a3 42 3e 75 59 59 bd 2b 2a e4 be b9 b4 21 be
       0.19007574 -0.05306383 -0.44563422 -0.15791596
000010 ef fb d2 be 86 12 9f bc a9 34 b2 be 6d e1 13 3d
       -0.41207835 -0.019418012 -0.34805802 0.036103655

encoder_layer_mhattentions.0.attention_heads.2.Q.weight f4 [8, 8]
000000 16 52 5c bc 9a 90 28 bf a2 e1 cc 3d 94 9e bd be
       -0.013447305 -0.65845644 0.100039735 -0.37035048
000010 51 60 ee 3d 05 55 ae 3d 85 aa 30 3e c4 a5 58 3d
       0.11639465 0.0851231 0.17252548 0.05289246
000020 21 66 8a 3d bd 01 43 3e 04 53 b0 3e 8b f1 10 be
       0.06757761 0.19043632 0.34438336 -0.14154641
000030 7a d1 9a be 4e 15 b7 3c b6 6c ac bd 87 79 16 3e
       -0.30237943 0.022349026 -0.084191725 0.14694797
000040 2d ab 75 be 34 85 42 3f ca 5d 6e be 4a a5 9b 3d
       -0.2399108 0.759845 -0.23277965 0.07599886
000050 c4 6a fb bd ea 9f b9 3e b6 26 e4 3e 51 b3 ea 3d
       -0.12276223 0.36254817 0.44560784 0.11459983
000060 c7 16 27 be 09 a0 7e 3d cb 91 00 3f c1 b5 be be
       -0.16317283 0.06216434 0.5022246 -0.37248042
000070 14 f0 d6 3d 06 78 05 3e aa 03 d9 be 85 40 89 3e
       0.1049501 0.13034067 -0.42385608 0.26807037
000080 c4 8a 0e 3e 2c 98 bf be 9e d3 d9 bd fa a0 81 3f
       0.13920122 -0.37420785 -0.10636066 1.0127251
000090 4f 6f 87 bd 46 fb 4b bf 1e c4 7b bf eb 45 13 bf
       -0.06613027 -0.7968029 -0.98346126 -0.5752856
0000a0 71 e5 d4 bc 51 9c 8f bc fe fb f3 bc 62 49 a8 3d
       -0.025988312 -0.017530592 -0.029783245 0.08217122
0000b0 c5 b9 eb bb bd 03 4d bd 8b 70 98 3b 25 82 2f bc
       -0.0071937763 -0.050052393 0.004652088 -0.010712181
0000c0 a6 df 83 bd f1 f5 5c 3f 6a 9d d6 3e c6 0c 8d 3f
       -0.06439142 0.86312777 0.41916972 1.1019523
0000d0 52 12 90 3d d2 12 5d be 9f 2f 85 bf 80 1b 0b be
       0.07034744 -0.2158921 -1.0405158 -0.13584709
0000e0 28 6b 69 bd 28 2f d6 bd bc 0b bd be ed bb ad be
       -0.056986958 -0.10458213 -0.36923015 -0.33932438
0000f0 3d b0 62 be 7e c2 c6 3e 56 08 8f 3d d4 37 65 3d
       -0.22137542 0.3882026 0.06984012 0.055961445

encoder_layer_mhattentions.0.attention_heads.2.Q.bias f4 [8]
000000 1e 08 16 3d ce c4 b5 3d 37 b2 de 3c 86 24 35 be
       0.036628835 0.08875428 0.027184589 -0.17689714
000010 44 24 60 bc 02 5d 37 3e 70 33 23 bf 68 fe 5f 3f
       -0.013680521 0.17906573 -0.6375036 0.8749757

encoder_layer_mhattentions.0.attention_heads.2.K.weight f4 [8, 8]
000000 aa 28 37 be fa ce 9d 3c 97 1c 8f be 3e 0d 73 3e
       -0.17886606 0.019263733 -0.279515 0.2373552
000010 85 0c dc bd cc 47 07 bf 7f ed b1 3d be 53 8d be
       -0.107445754 -0.5284393 0.08687877 -0.27602953
000020 7e 75 c5 3e 6d 30 14 bf 1f ac 20 3e ca af b2 bb
       0.38566202 -0.5788639 0.15690659 -0.0054530846
000030 3f 86 33 3d 22 7c 2f bc eb 36 83 3d 10 f0 dd 3d
       0.0438292 -0.010710748 0.06406959 0.10836804
000040 21 bf d0 be 7a 7a aa be a8 aa c8 3e 25 cd c0 bd
       -0.4077082 -0.33296567 0.391927 -0.09414128
000050 d9 5b f2 3e 22 87 a6 3e b8 1c 10 be 73 a5 51 be
       0.473357 0.32524973 -0.14073455 -0.2047327
000060 11 99 f0 3d 6b 62 f8 be e4 b8 41 be 9a af d0 3e
       0.11747945 -0.48512587 -0.18918186 0.40758973
000070 9c a8 7a 3e 59 28 f8 be 2c 23 53 3e fc ea 97 bd
       0.24478382 -0.48468283 0.20618886 -0.074178666
000080 77 4d d6 3e 99 20 65 3f 01 7f 1c 3c ce c5 0e 3e
       0.41855976 0.89502865 0.0095517645 0.13942644
000090 94 37 e9 be 50 0e f7 3e 45 c1 bb 3e 4e 56 a9 3e
       -0.45550215 0.48253107 0.3667089 0.33073658
0000a0 42 6c fa 3d 8f 67 5f bc 2b 24 21 bc c4 90 f2 bc
       0.1222768 -0.01363553 -0.009835283 -0.029610045
0000b0 a0 d1 27 bd ab 46 dd 3d 26 93 7a bd f9 37 0f 3d
       -0.0409714 0.108044945 -0.061175488 0.03496549
0000c0 26 d2 2c 3f 41 6b 3b 3f a0 1b ba 3d 73 d1 d0 3d
       0.6750816 0.7321053 0.090873 0.10196199
0000d0 a7 4e 7d 3e bc 9c 2c 3f c0 42 52 3f 9f 2f 0a 3e
       0.24737035 0.6742666 0.821331 0.13494729
0000e0 a6 69 b7 be e0 f4 03 bf 5d d4 76 3e 7a 72 00 3e
       -0.3582279 -0.51545525 0.24104448 0.1254367
0000f0 89 5f 38 3e 2e 17 14 be 1e 18 4e bf 9d 52 03 be
       0.18005194 -0.14461967 -0.8050555 -0.12824483

encoder_layer_mhattentions.0.attention_heads.2.K.bias f4 [8]
000000 21 f0 aa 3e 6f 6c c4 3d 1a 9d ad be 22 9d 0c be
       0.3338633 0.095909946 -0.3390892 -0.13731816
000010 85 e0 17 bc fc 67 98 be 16 dd b3 3e 84 3b de bc
       -0.009269838 -0.29766834 0.35129613 -0.027127989

encoder_layer_mhattentions.0.attention_heads.2.V.weight f4 [8, 8]
000000 b5 29 ab bd 70 28 5b 3e 7f 86 9d 3c 21 4f a1 3e
       -0.08357564 0.21402144 0.019229172 0.31505683
000010 95 c4 91 bd 37 b7 36 3e cd 03 c1 be f0 8e 9f bd
       -0.07117573 0.17843328 -0.37698212 -0.07790935
000020 ac 35 89 3b 0c 1e b5 bd ff 18 04 be be c3 d0 be
       0.0041873064 -0.088436216 -0.1290016 -0.4077434
000030 fb b3 51 3c cd c6 21 3e f5 73 26 3e 27 32 61 3d
       0.012799258 0.15798493 0.16255172 0.05497947
000040 1a cd cc ba 1a 31 ca bb db 73 66 bd 9a 30 96 3b
       -0.001562509 -0.006170404 -0.056262832 0.0045834305
000050 2a 6d 37 bc 63 c3 14 3e 0e 65 d0 3d eb c3 d8 ba
       -0.01119546 0.14527659 0.10175525 -0.001653788
000060 e4 bf ca 3c 58 ab ce 3d f4 2d db bd ab 46 a3 3d
       0.024749704 0.10091275 -0.10702124 0.07972463
000070 3c f5 e6 3d 48 1c a1 3c 18 1a b7 3e 9c 9b 3a 3d
       0.112772435 0.019666806 0.35762095 0.045558557
000080 53 40 28 bd 26 b4 da bd 5b 5d 52 bd c2 57 c8 3d
       -0.04107697 -0.10678892 -0.051358562 0.097823635
000090 8f a1 a6 bd 38 19 bf 3d 0c 4c 16 3d 71 8e 60 be
       -0.081362836 0.09330982 0.036693618 -0.21929337
0000a0 db ad 86 3b 92 1f d3 bd 9d 61 1e be 6a 52 c3 3e
       0.0041100807 -0.10308756 -0.15466924 0.38148814
0000b0 bf 02 86 be ed b3 c3 bd 4b 5c 65 3e ce ca 81 be
       -0.2617397 -0.095558025 0.22398488 -0.2535004
0000c0 38 a5 0a bc dd 95 a5 3e 41 81 c2 bd 55 a5 2b 3e
       -0.008462243 0.323409 -0.094973095 0.16762288
0000d0 47 52 49 3e 19 d2 42 be 66 d6 23 be 25 2e 90 be
       0.19660293 -0.19025458 -0.15999755 -0.28160205
0000e0 95 db e2 3d b0 e2 5d be 70 9b 4f bd 0b 21 0e 3d
       0.11077038 -0.21668506 -0.050685346 0.03469948
0000f0 cd dc 7d 3d ad 68 58 3e ce ac fe bc 14 25 4e 3d
       0.06197815 0.2113368 -0.03108826 0.05032833

encoder_layer_mhattentions.0.attention_heads.2.V.bias f4 [8]
000000 a7 52 c0 3e a9 09 b6 be 7b 60 8a 3c e9 cf 94 bd
       0.3756306 -0.35554245 0.016891709 -0.07266218
000010 ca b1 5b b9 68 75 c9 3e b2 35 0b 3d 83 e0 54 3b
       -0.00020951699 0.39347386 0.033986755 0.0032482452

encoder_layer_mhattentions.0.attention_heads.3.Q.weight f4 [8, 8]
000000 9c 1f 90 3e fe 92 21 be aa a0 2b bf 70 c6 05 bf
       0.28149116 -0.1577873 -0.6704203 -0.52255917
000010 a9 98 16 3f d0 98 89 be c3 ca e2 3d 13 41 2e 3f
       0.5882669 -0.268744 0.1107383 0.68068045
000020 02 de 15 be 6b 73 1e be 0e b3 74 be 02 f9 c1 3e
       -0.1463547 -0.15473716 -0.23896429 0.3788529
000030 71 e3 57 bc cc 58 83 3e 11 05 a9 3d 0f fa 1c 3e
       -0.013176785 0.25653684 0.082529195 0.15329765
000040 45 7e 9c bd 75 f1 70 bc 6d a2 51 be d7 25 39 3e
       -0.076412715 -0.014706005 -0.20472117 0.18080841
000050 4c 9d 94 bd c3 8c 13 3e 2f f6 3e 3e 0b 00 e6 be
       -0.072565645 0.14409165 0.18648599 -0.44921908
000060 ef e9 80 bd 81 68 3d 3e 20 50 92 3d c6 67 08 be
       -0.06294619 0.18496896 0.07144189 -0.13320836
000070 6b 80 c2 bd 97 c1 20 be 4d 64 e9 bd 7b 23 3b 3e
       -0.0949715 -0.15698849 -0.11396084 0.18275253
000080 7d 1d 91 3e 3f 77 4a be 24 d8 80 3e e9 d6 a1 be
       0.2834281 -0.19772051 0.25164902 -0.31609276
000090 05 fc fe 3e 57 a0 d0 bd 15 4e a5 be dd aa 42 be
       0.4980165 -0.101868324 -0.32286134 -0.19010492
0000a0 eb 36 3f 3e c7 22 f6 3e 77 09 35 be 69 71 9b 3d
       0.18673293 0.48073408 -0.17679392 0.07589991
0000b0 b8 6b 9f be 14 8f 94 3e 20 a4 80 3e 15 f9 fb 3d
       -0.3113687 0.2901541 0.25125217 0.12303368
0000c0 ad 04 ab be cc 49 0f bf ef 5f a5 bd 6d f7 6d be
       -0.33402005 -0.5597198 -0.080749385 -0.23238917
0000d0 56 04 9a 3e 6c b9 f6 be 55 93 84 be b8 30 61 3d
       0.30081433 -0.4818834 -0.25893655 0.054978102
0000e0 99 66 0d 3f 85 3a 05 3e b7 54 b5 3e 49 ba 19 bf
       0.55234677 0.13010605 0.35416195 -0.60049874
0000f0 a2 26 d7 3e 66 26 62 be 99 29 a9 be d1 ae 0e be
       0.42021662 -0.2208496 -0.3303955 -0.13933875

encoder_layer_mhattentions.0.attention_heads.3.Q.bias f4 [8]
000000 1e 8c 1c bf a2 cc fb bc b7 1e a4 3d 95 c0 b8 bd
       -0.611513 -0.030737225 0.08013671 -0.09021107
000010 60 73 a3 3e 50 57 13 3f 55 fc e9 be 02 03 34 3f
       0.31923962 0.57555103 -0.45700327 0.7031709

encoder_layer_mhattentions.0.attention_heads.3.K.weight f4 [8, 8]
000000 9f c1 ab be b8 f3 19 3f e1 59 a1 bd 5a fc 7c be
       -0.3354616 0.6013751 -0.07878471 -0.2470564
000010 6e 92 16 bf 7a 61 9d be a2 69 46 bf 43 68 28 bf
       -0.58817184 -0.3073843 -0.7750493 -0.6578409
000020 e4 19 66 b9 e5 04 5e be 97 01 17 3e 63 1a 2c 3f
       -0.00021944154 -0.21681555 0.147467 0.6722776
000030 e4 00 43 3d 5d 87 c5 3e 67 d7 34 3b ef b5 ac be
       0.04760827 0.38579836 0.002759421 -0.33732554
000040 cb 2f 85 be bf 3a aa bd f1 2a 70 bd bf 06 99 3e
       -0.26013026 -0.08311986 -0.058634702 0.2988796
000050 6a d2 32 3e 04 14 1d be 94 97 cb 3e ae f5 a6 be
       0.17463079 -0.15339667 0.39764082 -0.32609314
000060 cc f1 b7 bd e7 68 63 bc 7d b6 20 3d b4 9d 34 be
       -0.08981666 -0.013879991 0.039236534 -0.17638284
000070 15 8b 04 3e f6 d1 01 3c 52 1d 91 bd 65 e0 83 3e
       0.1294368 0.007923594 -0.070856705 0.25757137
000080 e4 c0 e4 3e 72 f5 d5 3e a8 11 12 be 22 f9 e6 be
       0.44678414 0.41788822 -0.14264548 -0.45111948
000090 19 0b 5f be 36 a6 51 be ad 8a 87 bd 08 62 93 3d
       -0.21781577 -0.2047356 -0.06618247 0.07196432
0000a0 9f 17 d7 be e1 fb 25 bf 69 5a d9 be 93 e8 0d 3f
       -0.4201021 -0.6483746 -0.4245179 0.55433005
0000b0 f0 59 34 3e 2e 96 8b 3e 6d 75 43 3e cd a4 05 3d
       0.17612433 0.27263016 0.19087763 0.03262787
0000c0 a4 e9 84 3e 41 f1 32 3f 57 1a d9 3e 61 d1 25 bf
       0.25959504 0.69899374 0.42402908 -0.6477261
0000d0 fe 7a bc be 92 da 2c be 0c b9 57 be ab db d0 bd
       -0.36812586 -0.16880253 -0.21066684 -0.10198148
0000e0 78 f1 2a bd 73 f5 c1 3e 07 82 4d bf 9b a9 0f bf
       -0.04173419 0.37882575 -0.8027653 -0.5611817
0000f0 6c 1c 45 be b2 9b 90 be fb 9c 8e 3e e5 cd 13 3e
       -0.19249123 -0.28243786 0.27854142 0.14434011

encoder_layer_mhattentions.0.attention_heads.3.K.bias f4 [8]
000000 1b 34 49 be f6 f7 bf 3d e2 3d d9 bd e4 ca 89 3e
       -0.19648783 0.09373467 -0.10607506 0.26912606
000010 63 b0 b7 3e d6 42 75 3e e4 aa 19 3e df 13 83 3d
       0.3587676 0.23951277 0.15006596 0.064002745

encoder_layer_mhattentions.0.attention_heads.3.V.weight f4 [8, 8]
000000 1a 56 17 be 88 94 7a bc f4 cf cd bd 98 0d 56 be
       -0.14778939 -0.015294202 -0.100494295 -0.20903623
000010 56 9a 8d 3d 5e 46 92 3d 1c 2b f5 bd e7 ad 12 bd
       0.06914203 0.07142328 -0.11971113 -0.035810377
000020 72 09 ca be 65 40 86 bc c1 a1 fa bd 6d 96 83 3e
       -0.3946033 -0.016388128 -0.12237883 0.25700703
000030 df f7 ac 3e ed 40 10 bd e9 45 17 be 8c 8b 07 be
       0.3378286 -0.035218168 -0.14772762 -0.13236827
000040 d0 55 90 bc 5b 24 28 3e 97 97 53 3e 76 96 56 3e
       -0.017619044 0.16420119 0.20663296 0.20955834
000050 2b 75 bf be ca d1 25 3e a0 1d 0a bd 04 ad e8 3e
       -0.3739408 0.1619331 -0.03371966 0.454445
000060 e2 a0 55 be 5b 50 8d 3c f5 00 95 bc b5 60 c9 3d
       -0.20862153 0.01725023 -0.018188933 0.098328985
000070 7e 3a 62 3d 5a 52 85 bd e8 36 b9 3d db 8a 6b 3d
       0.055231564 -0.06509848 0.09043676 0.05750547
000080 19 54 86 be 3a 61 9a be 59 d6 ce bd f3 38 06 3e
       -0.26236036 -0.30152303 -0.10099477 0.13107662
000090 ba 87 a6 be a8 cb 77 3e 4d a8 c6 3e b7 71 ad 3d
       -0.32525426 0.24198782 0.38800278 0.08468955
0000a0 f0 e7 3a be d4 23 1d be c1 06 69 be 8e 0b a3 3e
       -0.1825254 -0.15345699 -0.22756483 0.31844753
0000b0 dd 7b 6a 3d ca b9 32 3b 2c 4c f0 bc 79 62 d1 be
       0.05724703 0.0027271383 -0.029333197 -0.4089544
0000c0 ea 11 7c 3e 81 47 ef 3e a6 d2 43 be 12 64 65 3e
       0.24616209 0.4673424 -0.19123325 0.22401455
0000d0 0a 10 a5 be 82 9f a6 3d 03 77 b3 be ad f5 61 3e
       -0.322388 0.081358925 -0.35051736 0.22066374
0000e0 96 a2 78 3e c9 75 b5 3d 64 bb bd 3d c0 74 53 3e
       0.24280772 0.08860356 0.092642576 0.20650005
0000f0 a1 32 62 3e 87 8a 82 3c df 65 cf be 31 2c e6 3e
       0.22089626 0.015935196 -0.4050741 0.4495559

encoder_layer_mhattentions.0.attention_heads.3.V.bias f4 [8]
000000 fb 86 be 3d a9 0e 1c 3e 37 c4 f1 bc a2 f2 09 be
       0.09303089 0.15239967 -0.029512508 -0.13471463
000010 2b 38 e0 be 31 d3 b2 3d dc 4c 97 3e cb fe 24 3e
       -0.43792853 0.08731688 0.29550827 0.16112821

encoder_layer_mhattentions.0.output_layer.weight f4 [32, 32]
000000 7b d4 43 bd 1e 83 d3 be ab f4 75 be fd 6b 0c 3f
       -0.04781006 -0.41310972 -0.24019115 0.5485228
000010 e2 c4 8d 3e 30 9f af 3e 2c 4e 02 3f ea 1d 6e 3e
       0.27689272 0.34301138 0.5090053 0.23253599
000020 4e 58 81 3d e0 b8 9e bd 9f 9d 73 bf 8d 9c 16 3f
       0.06315671 -0.07750106 -0.95162386 0.5883263
000030 f1 02 aa bf 1a dd 88 3e 4b 3e 3c bf 5e d3 31 be
       -1.3282148 0.26731187 -0.7353255 -0.17365786
000040 56 9d 5b 3e 97 61 b5 be 82 f2 40 bd 80 ce e9 3e
       0.21446738 -0.35426018 -0.047106273 0.4566536
000050 1f 64 87 3d a7 41 86 be 11 c0 66 3e 83 a1 0a bd
       0.066108935 -0.26221964 0.22534205 -0.033845436
000060 e6 6f f4 be 60 20 a7 3b 09 05 33 be a7 a0 ac bd
       -0.47741622 0.005100295 -0.1748239 -0.084290795
000070 64 88 51 be 4f 52 f6 3e a4 e6 37 3e 6c 3b a0 3d
       -0.20462185 0.4810967 0.17959076 0.07823834
000080 ac 97 36 be 7e d5 06 3f 99 f1 86 3e 7b ee a8 be
       -0.17831296 0.52669513 0.263562 -0.32994446
000090 0e ce f3 3e 21 53 14 bf 59 cc 2a 3e 17 db ae 3d
       0.47618145 -0.57939345 0.16679515 0.08537882
0000a0 57 ff 2c be 3a 9f 96 be 0a 30 12 3f 21 e8 b3 be
       -0.1689428 -0.29418355 0.5710455 -0.35138038
0000b0 6e 15 46 3f d1 e8 92 3e 10 28 9c 3e bf 40 88 be
       0.7737645 0.2869325 0.30499315 -0.26611897
0000c0 fd 09 16 3e 4a 1f 42 bc ac 86 a0 bd 2a fa fc 3e
       0.14652248 -0.01184828 -0.078381866 0.4940961
0000d0 fa 0c 9c be 8c 14 17 be c8 52 0d 3f 99 d4 d0 bc
       -0.3047865 -0.14753932 0.5520444 -0.025492
0000e0 45 fe 54 3d 31 22 a6 3c 32 53 88 be e5 e1 06 bc
       0.052000303 0.020279976 -0.26625973 -0.008232568
0000f0 88 38 56 3e d2 e0 ab 3e e4 94 33 be 11 5e e6 be
       0.20920002 0.33569962 -0.17537266 -0.44993642
000100 4d 22 92 be d2 ac 99 be e2 32 7e 3e 28 18 8a bd
       -0.28541794 -0.30014664 0.24824098 -0.06742889
000110 03 72 aa be d1 10 00 3e a1 45 37 3e 3b 77 69 bc
       -0.3329011 0.12506415 0.17897655 -0.014249618
000120 73 65 b3 3e b6 1f 71 be f7 f5 2b bf ba df a6 bc
       0.35038337 -0.23547253 -0.6717219 -0.020370353
000130 06 4e 6d bf ed 0b 82 be 80 24 f3 3d 32 db ff 3d
       -0.9269718 -0.25399724 0.11872196 0.1249298
000140 50 39 0a be ab 83 b8 3e cf 90 b0 bd 13 c8 eb bd
       -0.13498425 0.36037955 -0.0862137 -0.115127705
000150 8e 19 42 be e4 e3 87 be 7e 45 3e 3d 10 b7 f1 3d
       -0.18955061 -0.26541054 0.04645299 0.118024945
000160 7c e5 92 3d 26 d0 97 bb ca 60 3e be f4 0a fd bd
       0.07172677 -0.0046329675 -0.1859161 -0.12355605
000170 8a a3 a9 be 70 f0 82 bd 4a dd bc 3e 0f 2d 0e 3f
       -0.33132583 -0.06393516 0.3688758 0.55537504
000180 73 d8 1f 3f 4c b1 8c bd fd bc 13 bf ec eb eb be
       0.6243965 -0.06869754 -0.5771025 -0.46078432
000190 9d 53 54 be de ea 31 be 46 70 41 bf 90 c5 23 be
       -0.20735021 -0.17374751 -0.7556194 -0.15993333
0001a0 55 dd 07 3e f5 8e 07 3f c3 5b 79 bd 50 b1 75 3e
       0.13268025 0.5295251 -0.060878526 0.2399342
0001b0 67 f0 4d 3e 37 c9 02 be 72 3f 63 3d db c5 d6 3e
       0.20111237 -0.1277207 0.055480428 0.41947827
0001c0 ca 6e a6 be e3 13 4e 3d e6 47 03 3c 5c 94 cd bd
       -0.325064 0.050311934 0.008012747 -0.10038063
0001d0 c9 79 98 bd c7 e8 c6 be cd 41 05 3f d1 50 50 be
       -0.07445104 -0.3884947 0.5205353 -0.20343329
0001e0 d6 9e 10 3e f1 21 40 3e b9 16 1a be 34 23 80 be
       0.14123091 0.18762948 -0.1504773 -0.25026858
0001f0 10 8d db bd f6 45 5e bd 12 9c c1 bd 55 9f 13 bf
       -0.10720265 -0.05426594 -0.09453596 -0.57664996
000200 16 42 1e 3e 32 d9 d0 bd 23 a2 a3 bd 48 5c 99 bc
       0.15454897 -0.10197677 -0.079899095 -0.018720761
000210 68 3b 13 bc 25 f0 70 3a 44 a7 8d bd 11 8b af bc
       -0.0089863315 0.0009191058 -0.06916669 -0.021428617
000220 67 0c 45 be fb 15 37 bd 2b d0 88 bd 8a cc c4 bd
       -0.19243012 -0.044698697 -0.0668033 -0.09609325
000230 98 e7 ca 3d be 68 ac bc a7 16 45 3e 0c ec 9c 3b
       0.09907454 -0.021046039 0.19246922 0.004788881
000240 0f 1d b3 3d cd 87 c4 bd 51 86 89 3d 2f 80 01 be
       0.08745777 -0.095962144 0.06715072 -0.12646554
000250 d4 a1 7e 3d d5 5a 97 3b 65 c7 76 3d b3 e9 e8 3d
       0.06216605 0.0046189823 0.06024875 0.113726996
000260 4c fd 34 3d 47 0a 93 ba 71 75 93 bd 77 2f 2d bc
       0.044186875 -0.0011218273 -0.072001345 -0.0105703985
000270 fe 83 2f bd 48 59 37 bd 10 e1 92 3c da ba 8f 3c
       -0.042850487 -0.04476288 0.017929584 0.017545152
000280 03 49 c2 3e 5f 50 d3 3d f0 07 f8 bd 04 57 c0 bd
       0.3794633 0.10318064 -0.12110889 -0.09391597
000290 60 5f 07 bf 0d 5d 03 3e 72 54 0b be ae 7e a4 be
       -0.52879906 0.12828465 -0.13606432 -0.321279
0002a0 6e 71 df 3e 2c 9f a5 3e a0 8f eb bd 5a 20 28 3e
       0.43641227 0.32348 -0.11502004 0.16418591
0002b0 37 08 3e bd 32 9c f0 be 84 8a 7d 3c 1e 66 ed 3c
       -0.046394553 -0.46994168 0.015474919 0.028979357
0002c0 4e a8 af be 0b 98 dc bb a7 f3 46 bc cc 1c 40 be
       -0.34308094 -0.006731992 -0.012143052 -0.18760985
0002d0 45 b6 0b be f1 2b fd be f6 8d e8 3e 42 2f 0f 3d
       -0.13643749 -0.49447587 0.45420808 0.034957178
0002e0 dc c6 4f bc 8a 2d 2a 3f a3 98 87 3e 78 55 67 bd
       -0.012681689 0.6647574 0.2648364 -0.056477994
0002f0 9a b5 ef 3d da b8 7d 3e d5 11 9d be a9 4a c6 3e
       0.117045596 0.24777547 -0.30677667 0.38728836
000300 ff bf 05 be 9b 34 bb 3d 2a 6b 4f 3e 6a d0 41 3e
       -0.13061522 0.09140893 0.20255724 0.1892716
000310 78 30 e4 be af b9 28 3e 12 b1 46 3c 46 0f c8 3c
       -0.4456823 0.16477083 0.012127178 0.024421345
000320 54 e0 81 3e 8a 60 2f 3c b1 de 4a bd e5 05 01 be
       0.2536646 0.010704169 -0.04952878 -0.12599905
000330 30 e1 83 be a8 01 0c be 45 d8 32 3c d4 23 89 be
       -0.25757742 -0.13672507 0.0109158205 -0.26785147
000340 75 50 fe bd 4b 5c a6 3e d8 3b 8f 3c 22 0b eb 3d
       -0.1241769 0.3249229 0.01748459 0.11476733
000350 89 57 cb bd 2b 9e bc be 1e c0 57 3d 6b 00 87 3d
       -0.099288054 -0.36839423 0.05267345 0.065918766
000360 1f 85 ac bd 14 a9 99 3e c2 5a 42 3c f3 91 76 be
       -0.08423828 0.3001181 0.011862459 -0.24079113
000370 cb 5e ae be 49 1b 62 bc df 54 2b be 88 c5 d0 3e
       -0.34056696 -0.013800451 -0.16731595 0.40775704
000380 5f 9d 9a be 9e 61 27 3e 1e da 83 be c5 46 c0 3a
       -0.3019819 0.16345832 -0.25752348 0.0014669528
000390 71 9f 6d 3e 05 9d b9 be 00 80 7a be 76 ec 36 be
       0.23205353 -0.3625261 -0.2446289 -0.1786364
0003a0 c8 9d c4 be 93 93 ae 3e 7e 98 a2 3d f9 a0 a2 3e
       -0.38401628 0.34096965 0.07939242 0.31763437
0003b0 1a d6 20 3e 55 f2 09 be 77 11 81 bd e6 ba 62 3e
       0.15706673 -0.13471349 -0.06302159 0.22141609
0003c0 91 1a 6a be 16 1d 81 3e 86 79 b3 bd df f8 75 bc
       -0.22861697 0.25217503 -0.08763413 -0.015012949
0003d0 34 af ff 3d 6b f6 f8 3d 60 7e b0 bd 32 3a 14 be
       0.12484589 0.121563755 -0.08617854 -0.14475325
0003e0 8a b4 eb 3d 11 28 33 3e df ba 4b be 1d 89 11 be
       0.115090445 0.17495753 -0.19895504 -0.14212461
0003f0 17 5d cd bb bf f3 2e 3e 2f 3a bf be 0d e0 03 be
       -0.0062672007 0.1708517 -0.37349078 -0.12878437

encoder_layer_mhattentions.0.output_layer.bias f4 [32]
000000 7d d1 e3 3c b3 2e 4f be 59 0e e8 be e9 d6 de be
       0.027809853 -0.20232658 -0.45323446 -0.43523338
000010 d8 72 31 3d 39 f9 c4 3e aa 56 2a 3e cc 2c c9 be
       0.043322414 0.38471392 0.16634622 -0.3929199
000020 be ea 8e be b2 66 14 3e a3 ed ba 3e c9 28 3a be
       -0.2791347 0.144923 0.36509427 -0.18179621
000030 75 64 37 be 76 18 f6 3e 21 fb e0 3d 78 2d 04 be
       -0.17909415 0.48065537 0.10985399 -0.1290797
000040 76 1f b5 be 40 58 01 3f c4 48 a3 3e c6 b9 4f bf
       -0.35375565 0.50525284 0.31891453 -0.8114284
000050 e1 55 cc 3e da e7 55 be 37 f6 50 3f 97 fe 94 3e
       0.3990927 -0.20889226 0.81625694 0.29100487
000060 4d fd 97 3d 6d cb 18 3f 94 f1 93 3d ee 34 a3 bd
       0.0742136 0.59685403 0.07223812 -0.0796908
000070 ab 40 84 be 02 23 27 3d d7 b7 8d be 79 5e 1b be
       -0.25830588 0.04080487 -0.2767932 -0.15172757

encoder_layer_mhattentions.1.attention_heads.0.Q.weight f4 [8, 8]
000000 2e 7a 73 3f 48 0d 29 bf cc 8a b9 3d 2d 0c 2c bf
       0.95108306 -0.6603589 0.090596765 -0.6720608
000010 36 1d 09 3e 49 14 33 3f 19 96 4f 3e 49 90 fa 3e
       0.1339005 0.6995283 0.20272101 0.48938206
000020 bf a6 eb bb 86 44 b8 3e d2 2d 08 bf 6a cf 93 3e
       -0.0071915085 0.3598978 -0.53194916 0.28869182
000030 d6 2e 62 3e 35 54 d0 be ea 81 ec 3e ef 07 59 be
       0.22088179 -0.40689245 0.46192867 -0.21194433
000040 3b 71 05 be af 97 24 bf bd 7b 1b bf 3a ed 43 3e
       -0.13031475 -0.6429395 -0.60735685 0.19133464
000050 5e db ea bd 3b a2 81 be d5 8c d9 be 04 8d ed 3e
       -0.11467622 -0.25319085 -0.4249026 0.4639665
000060 14 41 0f 3f f0 b7 17 bf 59 ef e6 bd 37 3a 78 3f
       0.55958676 -0.5926504 -0.11276121 0.9696383
000070 74 1c f8 be bd 7f 85 3e 16 85 28 be 03 ea a6 be
       -0.48459208 0.2607402 -0.16457018 -0.32600412
000080 ca 90 67 bc a0 d1 3f 3f 04 8b 34 be e6 cc 62 3d
       -0.0141336415 0.7492924 -0.17631155 0.055371188
000090 c5 3e 36 be 90 d6 88 3e 2a 12 96 be 3c 84 48 be
       -0.17797382 0.26726198 -0.29310733 -0.19581693
0000a0 38 48 0a bf b7 2e a4 be 70 c2 2c bf fb 02 be 3e
       -0.5401645 -0.3206689 -0.6748419 0.3711165
0000b0 9f ca 5f be 13 ca 62 bf 95 f3 a6 3e 85 e3 8a be
       -0.21854638 -0.8858959 0.32607713 -0.2712671
0000c0 0f 3d 1f 3f 21 12 b4 3e df 9e c0 3c da 77 b1 3e
       0.62202543 0.3517008 0.023513256 0.34661752
0000d0 3c 01 da 3d 10 18 c6 3d 1b 4c 49 3e 57 20 1d 3f
       0.10644767 0.09672558 0.19657938 0.6137747
0000e0 b4 a3 9f be 21 89 9c 3c 3f 77 ac 3e 89 f9 70 3e
       -0.31179583 0.019108357 0.33684728 0.2353269
0000f0 79 b8 a3 be 0f 8f 5b bc 3e 74 3c 3f c8 76 af be
       -0.3197668 -0.013400807 0.7361487 -0.3427031

encoder_layer_mhattentions.1.attention_heads.0.Q.bias f4 [8]
000000 41 66 29 be 99 c6 76 bf 2f ae a5 be 40 b0 b7 3c
       -0.16542913 -0.96396786 -0.32359454 0.02242291
000010 c9 e6 b2 bf 96 95 9c 3e fe 79 ab 3d 67 ba 14 3e
       -1.397668 0.30582875 0.083728775 0.14524232

encoder_layer_mhattentions.1.attention_heads.0.K.weight f4 [8, 8]
000000 aa 0d 12 3f 94 18 20 be 9d 8f 41 3d 58 aa 9a bd
       0.570521 -0.15634376 0.0472561 -0.07552022
000010 86 94 b3 3e 3e a4 2d 3e c6 40 68 bf 42 10 c9 be
       0.35074252 0.16957185 -0.90723836 -0.39270216
000020 ce 21 1a be c7 b7 e4 3e 12 7e 67 3f 2e 0f 20 bf
       -0.15051958 0.4467146 0.90426743 -0.6252316
000030 2d d1 6e 3e 13 5d 48 be b5 da 8e be 8b 86 5f be
       0.23321982 -0.19566755 -0.27901235 -0.21828668
000040 22 d2 ec bd 25 7f ea bd af 3e 2c 3f 67 0e 25 3f
       -0.11563517 -0.11450032 0.6728315 0.644751
000050 14 d8 82 be 4f c0 53 3e 5a 96 bf 3d 1f ef b2 be
       -0.2555548 0.20678829 0.09354849 -0.3494806
000060 a8 04 30 3f e2 be 1c 3f 6c a3 92 bd 15 e1 cd be
       0.68757105 0.61228764 -0.071600765 -0.40210786
000070 fc f2 6b bd d9 b9 ed bd 28 99 a2 3d 1b ce 58 bf
       -0.057604775 -0.11607713 0.079393685 -0.8468949
000080 fc a2 76 3d 63 80 35 be c1 40 3f 3e a9 85 07 bd
       0.060214028 -0.17724757 0.18677045 -0.033086453
000090 62 44 b2 3e 0d 2d 94 bf 38 d4 f4 3e 57 9e eb be
       0.34817797 -1.1576248 0.4781816 -0.4601924
0000a0 52 59 8d be ac bc 45 3e 5f 3b 8a 3e 50 6f 47 be
       -0.27607208 0.19310254 0.26998422 -0.19476056
0000b0 90 ac 70 be 13 f8 14 3f bc 89 6a 3e aa 7e f1 3e
       -0.23503327 0.5819103 0.22904104 0.4716695
0000c0 21 b4 1f bf 6e 2b 05 3e e6 2b 1d be ce fa cc bd
       -0.6238423 0.13004848 -0.15348777 -0.10008775
0000d0 92 4a 83 3e 50 e0 0f 3e 2f 28 5f be b2 98 e8 be
       0.2564283 0.14050412 -0.21792673 -0.45428997
0000e0 d2 4c 5e 3e be f9 f9 bd 89 9e 07 3e 11 c7 0b bf
       0.21708992 -0.12205838 0.1324407 -0.54600626
0000f0 9e 01 a6 3e ab c4 e8 3e 6a 3c be 3e a7 0f 9d 3e
       0.3242311 0.45462546 0.37155467 0.30676004

encoder_layer_mhattentions.1.attention_heads.0.K.bias f4 [8]
000000 63 9a 63 3e 0c 70 c7 be f9 29 9c 3e 84 05 5c 3d
       0.22226863 -0.38952672 0.30500773 0.053716198
000010 71 de a4 be 67 45 5a be 35 38 aa 3e b2 b1 bf bd
       -0.3220096 -0.21315537 0.33246008 -0.093600646
