models/model_chkpt_190.pt (torch, 319268 bytes, 387 tensors)

tokenizer.token_embedding.weight f4 [17, 32]
000000 63 a7 29 bf 45 10 19 c0 e0 99 3e 3c 36 c6 51 3f
       -0.66271037 -2.391618 0.011633366 0.8194307
000010 97 b2 00 40 21 20 f8 3e 75 11 71 3f d0 a8 b3 3f
       2.0109003 0.48462012 0.9416726 1.4035892
000020 20 dc c9 bf ed 9d 81 bf 18 42 cd be 08 09 11 3e
       -1.5770302 -1.012632 -0.40089488 0.14163601
000030 b7 0b 60 bf c9 a6 03 bf 06 a1 a3 be 0a 17 da be
       -0.87517875 -0.5142637 -0.3195879 -0.42595702
000040 b7 96 93 be 21 c6 19 3f 2a 5b dd be 94 73 15 be
       -0.28825924 0.60067946 -0.43233615 -0.14594871
000050 f0 c0 d0 bf 04 84 08 c0 7a 96 35 3f 39 f3 55 40
       -1.630888 -2.1330576 0.70932734 3.3429701
000060 36 d9 1b bd 38 eb 1f 3f 5c 17 1d 3f c9 b6 cc 3f
       -0.038048945 0.6246829 0.6136377 1.5993282
000070 d4 6f 2e bf 83 67 59 c0 e5 2c 32 3f a5 1c 76 be
       -0.68139386 -3.3969429 0.69599754 -0.24034365
000080 b0 ea 28 bf f0 d1 ea bf 93 1e c3 3f cb 1e 18 bf
       -0.65983105 -1.8345318 1.5243706 -0.59421986
000090 f8 f1 44 40 0e 05 54 3f bb 1b b9 bd c0 4c 86 3f
       3.0772686 0.8282021 -0.09038492 1.0492172
0000a0 37 c2 b5 bf 82 70 2f bf 45 c4 66 be dd f7 a4 3e
       -1.4199895 -0.6853105 -0.22535808 0.32220355
0000b0 c2 48 54 bf bb ef 07 bf 14 fc 2e bf 0b e2 09 bf
       -0.8292352 -0.53100175 -0.6835339 -0.5386054
0000c0 ed ef f0 3f 0c 9c 21 bf a8 83 dc 3d 75 ce 91 3f
       1.882322 -0.63128734 0.10767299 1.1391131
0000d0 76 80 a3 3f 29 8f b1 3f eb cd 84 3f ee fb 9c 3e
       1.2773578 1.3871814 1.0375341 0.30660957
0000e0 07 03 7d bf f3 73 19 3e 12 c9 d8 3f 7a 5a 34 3f
       -0.98832744 0.14985637 1.6936362 0.70450556
0000f0 ec eb 01 bf 55 7d df bf 9d 76 ac be 7c 47 61 3f
       -0.50750613 -1.7460123 -0.33684245 0.879997
000100 de ee d3 be cf fb 32 3e e1 97 3c be 60 81 c9 bd
       -0.4139318 0.1747887 -0.18417312 -0.098391294
000110 51 d8 87 40 ba 0a 58 3e 09 5d 03 40 50 0f 41 3e
       4.245156 0.21097842 2.0525534 0.18853498
000120 7b d6 af bf ae 97 6c be d7 3e 20 bf 3a 90 2f 3f
       -1.3737329 -0.23104736 -0.62595886 0.6857945
000130 60 d6 8c be 56 0a b0 be 40 bf 16 bf 51 4f db be
       -0.27507305 -0.34382886 -0.58885574 -0.4283395
000140 1f dd f0 3f f1 68 04 40 c0 76 c9 be 28 98 1b c0
       1.8817481 2.068905 -0.39348412 -2.4311619
000150 a8 7f aa bf 8e 4d 25 bf 3a c5 3a be 11 41 0a c0
       -1.3320208 -0.64571464 -0.18239298 -2.1602213
000160 9c ec 85 bf 49 9a 92 3f 13 3c c4 3e 88 39 98 3f
       -1.0462832 1.1453334 0.38327083 1.1892557
000170 6c 7a 18 3f 7a 6b 4f be 04 55 21 bf 3f 45 ea bd
       0.595618 -0.20255843 -0.6302035 -0.11438989
000180 85 b9 77 bf 88 ee fb 3f 54 76 1a 3e 5b 1e 61 bf
       -0.96767455 1.9682169 0.15084201 -0.87936944
000190 f7 78 b6 3d 9b 57 1a bf 1d b7 ea 3f 2d bd a1 3f
       0.08909791 -0.60289925 1.8337132 1.2635857
0001a0 69 9d bf bf 67 4d 63 3f db d7 96 bf aa 60 3c 3f
       -1.4969913 0.8878998 -1.1784624 0.73585
0001b0 9c 0a 95 bd 60 b0 3e bf d8 f8 82 be cd fc e2 be
       -0.07277414 -0.74487877 -0.25580478 -0.44333497
0001c0 2c 00 43 3f 93 16 08 3f 36 8f f6 3f bd 2c 0d bf
       0.7617214 0.53159446 1.9262455 -0.5514639
0001d0 c2 97 09 bf 11 a8 a1 3f cf 6f 90 3f 6b 1d 48 c0
       -0.5374719 1.2629415 1.1284121 -3.1267955
0001e0 ed 39 be bf 5d 70 2f 3f 22 8f 65 3e b5 47 26 3e
       -1.4861428 0.6853083 0.22417882 0.16238292
0001f0 97 79 ae 3e d1 28 6d 3f fe 30 91 bf ef 0a 04 3f
       0.3407714 0.92640406 -1.1343076 0.51579183
000200 54 3f 32 bf 08 fe 09 be c0 d5 f0 bd c9 42 19 3f
       -0.6962788 -0.13475811 -0.117595196 0.5986753
000210 57 89 17 bf cb ba d0 bf 67 69 2f 40 c6 df b0 be
       -0.5919394 -1.6307005 2.7408082 -0.34545726
000220 ba 23 98 bd 47 92 65 be 43 93 2c 3f 7b 21 bb 3f
       -0.07428689 -0.22419082 0.67412204 1.4619592
000230 4a d7 3a be a8 d9 21 bd ff 0e b8 bf d8 09 1d be
       -0.18246189 -0.039514214 -1.4379576 -0.15335786
000240 7b 14 92 3f 76 35 cb 3e 5f ee f9 3f c8 b0 aa bf
       1.14125 0.39689225 1.952587 -1.3335199
000250 84 c4 c8 bf 9d 64 11 3f 5e f1 78 3d e0 e2 9b bf
       -1.5684972 0.5679415 0.06077706 -1.2178612
000260 a5 3a 8b bf 32 c7 e3 3e 5f 33 6e bf cc 01 c2 be
       -1.0877272 0.4448791 -0.93047136 -0.37891996
000270 98 8d 0c 3f d7 dc 14 40 2e 3b ab bf f8 db d8 be
       0.54903555 2.325979 -1.3377435 -0.42355323
000280 b1 26 3c 3f 77 a9 76 3f 89 c9 10 40 e5 50 9b 3e
       0.7349654 0.9635233 2.2623007 0.30335155
000290 c9 36 87 c0 86 af 8f bf b0 0e 44 3f 3f 42 5b 3f
       -4.2254376 -1.122544 0.7658491 0.8564796
0002a0 71 3b 32 be a0 a1 9c 3f 48 26 21 3f 7c af af 3f
       -0.17405488 1.2236824 0.6294904 1.3725429
0002b0 65 73 70 3b fc 6a 6a be ea 9b 87 bf c7 1e c9 3d
       0.0036689874 -0.22892374 -1.0594456 0.098203234
0002c0 e0 1d 10 40 96 6b 5a 3f d5 ca 8c 3e f1 86 21 bf
       2.2518234 0.85320413 0.274985 -0.6309653
0002d0 71 51 e4 3d e5 52 51 bd e0 2b 20 3f f7 07 ca bd
       0.11148346 -0.051104445 0.6256695 -0.098648004
0002e0 07 1b 6d 3e 2a 68 47 bf a4 2a 1d bf 2e 4e 3c be
       0.23154841 -0.77893317 -0.6139319 -0.18389198
0002f0 bc 9f f0 be 18 ed a8 3f 3c 3d a9 bf 9b eb 3a bf
       -0.46996868 1.3197355 -1.3221812 -0.73015755
000300 6b de c3 be 3b 5e dd bf 1e 91 f8 3e f7 43 2b 3f
       -0.3825563 -1.7294382 0.48548216 0.6690058
000310 37 2d d4 bf 49 da f4 bf cb f4 89 3d 99 63 ce bd
       -1.6576298 -1.9129115 0.06736144 -0.100775905
000320 f6 79 60 be 63 23 9d 3f ac 05 3d 3f 37 d5 ae 3f
       -0.21921524 1.2276424 0.7383678 1.3658818
000330 b3 5b 20 3c e5 33 2a be 87 dd 98 bf 34 5a 1b 3e
       0.009787488 -0.16621359 -1.1942605 0.15171129
000340 54 85 96 3f be 94 c8 3e 6a 15 f6 bf 93 5a 5e 3e
       1.1759439 0.3917598 -1.9225285 0.21714239
000350 53 d1 fd 3e 55 9d a5 3e 33 44 d0 be 59 a6 45 40
       0.49573764 0.32346597 -0.40677032 3.088278
000360 be 3b a2 bf 97 eb d3 3e c0 b2 17 bf 2a 12 6f bf
       -1.2674482 0.41390678 -0.59257126 -0.9338709
000370 d5 a9 c0 3e b8 73 3a 40 b8 65 a4 bf 5b 1e dc be
       0.37629572 2.913313 -1.2843542 -0.4299191
000380 51 5f 50 bf ac 24 84 3e a5 11 43 40 af 48 73 3f
       -0.8139544 0.25809228 3.047952 0.9503278
000390 4c 5b 11 3f 57 e7 66 c0 f6 0b 6b c0 07 0a ec be
       0.5677993 -3.6078699 -3.672605 -0.461014
0003a0 90 21 b9 3b bf de 17 40 7d 27 a5 3f 58 cc 97 3f
       0.005649753 2.3729703 1.2902676 1.1859236
0003b0 71 95 d9 3d 7c 34 db be 79 3b 6d bf 67 89 51 3e
       0.10624207 -0.4281348 -0.92668873 0.20462571
0003c0 8a f3 3d 3f fb 3b 97 3e 34 cd ea bf 3f f1 4e 3f
       0.74199736 0.2953795 -1.8343873 0.8083686
0003d0 e8 c1 01 40 bb 0a ad 3f e5 c5 23 3e c1 7a a2 3f
       2.02746 1.35189 0.1599346 1.2693712
0003e0 d2 0c 27 3e 3a d6 9f be 8c f1 72 bf 80 bc 2b 3f
       0.16313484 -0.3121813 -0.9489982 0.67084503
0003f0 92 a3 2a be 92 4a 73 3f ab b0 b9 bf 51 03 ee be
       -0.1666396 0.9503566 -1.450704 -0.46486905

tokenizer.positional_embedding.weight f4 [9, 32]
000000 f0 af f0 3e 44 9a 4f 3e 17 70 c9 be f0 db 65 3e
       0.4700923 0.20273691 -0.3934333 0.22447181
000010 62 a3 6f 3e 66 dd de 3f cc b2 94 bd 52 61 d4 be
       0.2340217 1.7411315 -0.07260665 -0.414805
000020 b6 2b 0e bf 45 02 76 3f 7e 3f 09 40 cc 9c 8e bf
       -0.5553545 0.96097213 2.1445003 -1.1141601
000030 83 3b 8f bf 3c 0f ae bf 69 c6 cc 3e db 6b b8 be
       -1.1190037 -1.3598399 0.39995125 -0.36019787
000040 15 a2 53 3e 2e 45 31 bf 4e 7f c9 3e 11 f2 86 3f
       0.20667298 -0.69246185 0.39354938 1.0542623
000050 70 0d 35 be d0 b5 ca be d8 60 be 3e e7 f3 05 3e
       -0.17680907 -0.39591837 0.3718326 0.13081323
000060 83 22 4d bf 78 5e f4 3e bb 28 0a 40 59 5e d3 be
       -0.80130786 0.47728324 2.158736 -0.4128292
000070 8b 31 42 be 46 6c 8e be b8 2a 6e bf b3 11 56 c0
       -0.18964212 -0.2781698 -0.93033934 -3.3448303
000080 53 0b 52 3f c1 03 57 3f 3e d6 c8 3e 1c 47 28 be
       0.8204853 0.83990103 0.39225954 -0.16433376
000090 b2 38 6d 3f 29 3e e8 3d 85 de 04 3e 52 25 50 3b
       0.92664635 0.11339981 0.1297551 0.0031760526
0000a0 93 6c ea 3f 87 b3 0d 3f 90 9b 81 bf cb e8 63 be
       1.8314384 0.5535206 -1.0125599 -0.22256772
0000b0 2a 44 bf be 72 63 5f 3e fa d4 80 3f 4c e9 5d bf
       -0.37356693 0.21815279 1.0064995 -0.8668411
0000c0 d4 99 d9 bc a5 a3 3a bf c2 5d 43 3f 6e c2 ac bf
       -0.026562609 -0.7290595 0.7631494 -1.3496835
0000d0 52 35 57 3f 85 ba b6 3d 4c 4b 2a 3f 08 db 1c 3f
       0.84065735 0.089222945 0.66521144 0.61271715
0000e0 c9 2b 30 3f 99 e7 06 bf 4a 32 90 3f d8 60 07 c0
       0.6881681 -0.5269714 1.1265347 -2.1152859
0000f0 41 35 19 3f 02 aa 04 3f 04 d4 08 40 09 da 88 bf
       0.59846884 0.5182191 2.1379404 -1.0691539
000100 a6 f4 c5 3d 17 45 65 3f 6f 10 cb bc a0 1a 03 bf
       0.096658036 0.8955855 -0.02478811 -0.512125
000110 3f 5f a0 bd 5b 4b ad be 84 75 b7 3d 09 39 51 3f
       -0.07830667 -0.33846554 0.08957961 0.81727654
000120 1d 45 7c 3f b7 8c b2 3e ae 8b e4 bf 72 30 ea bf
       0.9854296 0.34872982 -1.7855127 -1.8296034
000130 c1 24 e0 3f a2 1c b3 be b2 21 03 c0 47 10 6a 3f
       1.7511216 -0.34982783 -2.0489316 0.9143109
000140 2a cd 12 3f 76 70 21 3f 09 81 fc bd 09 13 42 bf
       0.57344306 0.63062227 -0.12329299 -0.75810295
000150 1a c3 c1 3f fb c4 93 bf d4 a6 29 bf 5f ee 96 be
       1.5137665 -1.1544489 -0.66270185 -0.29478738
000160 f8 d0 3b 3e a9 8e fe be 86 d4 7e be bc 10 ba bf
       0.18341434 -0.49718216 -0.24885759 -1.4536357
000170 e5 b1 12 be 76 9f 04 bf 02 d1 95 3f 4c f0 a0 bf
       -0.14325674 -0.5180582 1.1704409 -1.2573333
000180 0e 3a 73 bf fd 2e a3 bf 02 e1 ac bf 18 42 66 bf
       -0.9501046 -1.2748715 -1.3506167 -0.899446
000190 20 9e 6d be d2 82 8c bf 07 e4 10 3e 03 c3 0f bf
       -0.23204851 -1.0977423 0.14149486 -0.5615694
0001a0 bd 8f 9d bf 48 a9 00 3f 5f 63 18 3e 9a 4c c2 bf
       -1.230949 0.502583 0.14881657 -1.5179627
0001b0 a6 73 d0 3f fd b9 4c bf a3 5e f4 bf 27 ef 1b 3f
       1.6285293 -0.79971296 -1.9091381 0.6091179
0001c0 3a bb a0 be 93 5e 83 bf b4 9a 40 bf d9 f2 10 c0
       -0.31392843 -1.0263237 -0.7523606 -2.2648222
0001d0 79 c5 b6 3f b4 9b e0 3e f8 11 aa 3e 5e f3 85 bf
       1.4279014 0.43868792 0.33216834 -1.0464895
0001e0 f0 d7 d2 3f 8b 9f 03 40 bb d7 0d 3f e4 97 3e bf
       1.6472149 2.0566127 0.55407304 -0.74450517
0001f0 c7 db 20 3f 60 fe ed be ae 26 c8 bf 95 d1 45 bf
       0.62835354 -0.46483135 -1.5636804 -0.7727292
000200 9c 18 92 3f de ea 25 bf a8 4c 5c 3f 01 9a cc bf
       1.141376 -0.64811504 0.8605447 -1.5984498
000210 43 7d 7d be 91 82 e2 bf 85 5b 1b 3f 9d 28 ce 3e
       -0.24754815 -1.7696096 0.6068652 0.4026536
000220 79 d0 65 bf 51 90 6c 3f 00 e8 2a 40 30 d4 55 3d
       -0.8977123 0.9240771 2.6704102 0.05220431
000230 a7 31 01 bf 47 04 99 3d 3d bf 74 bc 26 92 c8 be
       -0.5046639 0.07471519 -0.014938173 -0.39174002
000240 8f d0 f8 3d b2 bb ac bf 85 c9 54 3f 14 c8 1f 3e
       0.121491544 -1.349478 0.83119994 0.15603667
000250 5c e9 27 3c 4f 95 86 3f 6b db 7e bf 94 93 a9 be
       0.010248508 1.0514315 -0.99553555 -0.33120406
000260 35 9f 37 3f 3d 57 e0 3e f8 a7 8c 3d c3 ce ea 3b
       0.71727306 0.43816558 0.06867975 0.007165761
000270 7b 63 db 3f 68 f6 f2 3e 14 bc 85 3f 62 e3 85 3f
       1.7139734 0.47453618 1.0448022 1.0460017
000280 7c 69 d5 be 09 bf be bf 05 61 f2 3f 65 b2 cc bf
       -0.4168204 -1.4902049 1.8935858 -1.5991942
000290 32 9d 6a 3d 40 1f 6f 3f 80 a6 f1 3e d7 c5 6d bf
       0.05727882 0.9340706 0.47197342 -0.92880005
0002a0 53 0c 21 bf 3b cd 0b bf 40 61 3d bd 50 a6 fe 3e
       -0.6290943 -0.5461003 -0.046235323 0.4973626
0002b0 fa 48 05 bf e7 1f be 3f bf 5a 96 3e 82 ee c0 bf
       -0.5206448 1.4853486 0.2936611 -1.5072787
0002c0 06 ff b4 bf f5 70 91 3f 81 64 71 3e 41 7c 36 3f
       -1.4140327 1.1362597 0.23573495 0.71283346
0002d0 ea b8 32 bf 42 8c 30 40 84 83 28 3f fd 25 1a 3f
       -0.69813406 2.7585607 0.65825677 0.60214216
0002e0 f2 32 98 be 7a 7b 27 3f 94 52 28 c0 a9 a8 2f 3e
       -0.29726368 0.65422785 -2.6300402 0.17154182
0002f0 7d 8d 47 bf 96 43 81 be 25 15 8f bf ff 51 4c 3f
       -0.7795027 -0.25246876 -1.1178328 0.79812616
000300 6b 5a 3b bf 00 d7 a5 3e 10 e4 a3 be bc a7 5f 3e
       -0.7318484 0.32390594 -0.32009935 0.2184133
000310 2e 4a 06 3e 56 99 ee be 35 53 d4 bf 4c b7 b8 be
       0.13114235 -0.4660136 -1.6587893 -0.36077344
000320 96 87 03 3f dc 43 b0 bf d0 ec 89 bf 4a cc c6 3e
       0.5137876 -1.3770709 -1.0775394 0.38827735
000330 04 a1 f6 bf fb ce 9c 3f 51 e4 9d be 21 f4 9c 3f
       -1.9267888 1.2250665 -0.30838254 1.2262002
000340 20 0b 64 3f 4b 89 60 be 95 ec f1 bf 08 69 03 3f
       0.89079475 -0.21927373 -1.8900324 0.5133214
000350 07 f5 96 bf 69 8d 37 3f 92 ea a7 3f 1f 07 79 bf
       -1.1793526 0.7170015 1.311846 -0.9727649
000360 d2 2b 0c bf fa 0c 4b 3d 2f 65 6d 3e 7f b7 e5 3f
       -0.54754364 0.049572922 0.2318313 1.7946624
000370 5e f8 cd be 9b a1 5d 3f 83 e6 a6 3f 22 63 b0 3e
       -0.40228552 0.86574715 1.3039097 0.34450632
000380 3e 6a ad bf 39 33 1e 3f f5 03 bb bf 6b 74 c9 3e
       -1.3548048 0.6179691 -1.4610583 0.39346632
000390 9a e3 64 bd 6e 7b 57 3d 84 3f 81 be e7 72 73 3f
       -0.05588112 0.052607946 -0.2524377 0.950972
0003a0 2f 23 77 3f 78 a8 ec bf 26 68 66 bf a9 7f b0 3f
       0.9653806 -1.8488913 -0.9000267 1.3788959
0003b0 7e a8 28 bf bf 09 9b bf 0d 82 d6 3e f7 f8 06 40
       -0.658821 -1.2112349 0.41896096 2.1089456
0003c0 96 38 8e 3f f5 17 9f 3e 44 81 b7 be ac 87 9e bf
       1.1111019 0.31072965 -0.3584081 -1.2385154
0003d0 c0 d0 62 be bf 04 15 3f 8f a1 9e bf de 02 18 bf
       -0.22149944 0.58210367 -1.2393054 -0.59379375
0003e0 7f 5d 52 3f 41 51 02 c0 ee 02 99 bd 90 04 34 bf
       0.82173914 -2.0362093 -0.07471262 -0.7031946
0003f0 b4 0c ea bf e5 e4 82 bf 71 cb 40 bf 2e f5 cf 3f
       -1.8285127 -1.0226103 -0.75310427 1.6246698

encoder_layer_mhattentions.0.attention_heads.0.Q.weight f4 [8, 8]
000000 40 b8 86 3b af 4d 0b 3c 17 2e 20 3d 29 69 e2 3e
       0.00411132 0.008502408 0.039106455 0.44220856
000010 ee 91 4e bd 31 3c b2 bc e0 14 bc bc a8 80 8e 3d
       -0.05043214 -0.021757217 -0.022959173 0.06958133
000020 7c 03 50 be 68 fb 64 bb 52 d7 6f be 0a 4f ca be
       -0.20313829 -0.003493989 -0.23421982 -0.39513427
000030 8b 86 20 3d 88 59 50 be 25 1e e6 bd b9 dd 43 bd
       0.03919081 -0.20346653 -0.11236218 -0.047818873
000040 17 e3 a8 3c fe 1f 6a bd 4d f7 03 be 97 f0 8b be
       0.020616097 -0.057159416 -0.12887307 -0.27331993
000050 c9 69 a5 3c ac 66 50 bd 05 0e 81 3b c4 5f 13 bd
       0.020192044 -0.050879166 0.003938439 -0.03598
000060 b4 52 d5 3c eb 4e 6f 3c d5 15 42 bd 55 75 85 bd
       0.026040412 0.014606218 -0.047384102 -0.0651652
000070 98 fc b7 3d b3 2b 27 bd 17 7c 64 bd f9 49 af bc
       0.08983725 -0.04081316 -0.055782404 -0.021397578
000080 a3 62 98 3c da 55 31 3d 7f ed ef bd 44 cb 5d be
       0.018601721 0.043294765 -0.11715221 -0.21659571
000090 b8 0b b5 3d 67 87 32 be 2c f7 6a bd 67 78 36 3d
       0.08840126 -0.17434464 -0.057364628 0.04454842
0000a0 3b f1 9c bd a8 e9 e4 bc 68 92 9a 3e 79 59 e2 3e
       -0.076631986 -0.027943447 0.30189824 0.44208887
0000b0 49 b9 0f be 2d 57 5c 3e 1b 3e b2 3d e5 93 24 3d
       -0.14035524 0.2151763 0.08703252 0.040180106
0000c0 dc ac 51 be 63 18 d2 3d a6 81 e2 bb bf d6 32 3e
       -0.20476097 0.10258558 -0.006912428 0.17464732
0000d0 a8 b8 22 be 43 d5 d6 3e 4d d5 54 be 62 22 ce be
       -0.15890753 0.4195958 -0.20784493 -0.40260607
0000e0 6d 0d d6 be d7 e4 2d 3e d1 03 1f 3d 42 55 0d 3f
       -0.41807118 0.16981827 0.038822 0.5520822
0000f0 9f 7b 5e 3b c8 f9 f7 3e e8 d0 a6 3c 66 f8 18 bf
       0.0033948196 0.48432755 0.020363286 -0.59754026

encoder_layer_mhattentions.0.attention_heads.0.Q.bias f4 [8]
000000 c6 58 ea bd d6 83 55 bf a6 b5 c4 3d 4c 74 99 bc
       -0.114427134 -0.8340429 0.09604959 -0.018732212
000010 7a dc 37 3e 1e 71 a8 be e7 37 ba 3f 63 a0 2b 3f
       0.17955199 -0.32898802 1.454831 0.67041606

encoder_layer_mhattentions.0.attention_heads.0.K.weight f4 [8, 8]
000000 6e b3 04 3e 78 bb 15 3d 75 31 89 be b4 d8 ee 3d
       0.12959072 0.036555737 -0.26795545 0.116624266
000010 d5 7f 3d 3e 43 97 7b be 37 56 28 3e df 3a 00 be
       0.18505795 -0.2456942 0.16439138 -0.12522458
000020 aa 2b d4 be e9 6f f6 3c 5a 0b da bb e5 17 b7 3e
       -0.41439563 0.03008266 -0.0066541852 0.35760418
000030 b7 30 0f 3e 3a d3 9c bc d6 e3 40 bd 11 b1 a3 3e
       0.13983427 -0.01914369 -0.04709228 0.31971028
000040 b9 72 32 be 4e 24 a7 3c 64 22 9b 3d ab 83 b3 bd
       -0.17426576 0.020403054 0.07574919 -0.08765348
000050 8a d4 b2 bd 9a 90 f8 3d 6c 8a 5f 3b 5b b6 50 ba
       -0.08731945 0.121369556 0.0034109605 -0.00079617434
000060 98 bb eb 3c 4f cb 41 3d 62 7e 46 3c 9f 11 9a 3a
       0.028775975 0.04731303 0.012115093 0.0011754519
000070 59 ab 5f 3d 65 04 c9 3d d4 b9 5f bd e7 24 7a bd
       0.05460677 0.09815291 -0.05462058 -0.06107035
000080 29 42 62 bd 43 03 57 3d ae d4 99 3b c7 25 94 bd
       -0.055238876 0.052493345 0.004694543 -0.07233768
000090 1c 6f 06 bd a4 4c 70 3e 75 1a da 3d 58 59 b2 bd
       -0.032820806 0.23466736 0.106495775 -0.08708447
0000a0 62 9b c7 3d 14 a1 33 bd f2 0a b6 bd 9b 60 f5 3d
       0.09746434 -0.043854788 -0.088888064 0.11981317
0000b0 1c 18 a6 3d 45 80 ea be 47 b9 85 bd 7d 1d 08 be
       0.08110067 -0.45800987 -0.065294795 -0.13292499
0000c0 3b 65 cc 3e 9c 51 14 3e 4e 6f 08 bf d4 01 c2 be
       0.39920983 0.14484257 -0.5329484 -0.3789202
0000d0 eb 0b 16 be 85 78 48 3d c2 bd 9b be d8 c9 03 bd
       -0.14652984 0.04894306 -0.3041821 -0.032174915
0000e0 25 5a 11 3f 99 2f 10 3d 54 95 23 bf c1 04 87 3e
       0.56778175 0.035201643 -0.6389973 0.26370814
0000f0 96 f7 28 3c 62 1f 2c be e7 ea 5a be 4b bc 85 3e
       0.010312935 -0.16808847 -0.2137867 0.2612022

encoder_layer_mhattentions.0.attention_heads.0.K.bias f4 [8]
000000 b9 61 97 3d 2f a4 3a 3e 02 f4 3c 3c cb f9 97 bd
       0.07391686 0.18226694 0.011532785 -0.07420691
000010 54 56 1b be 0f bc 0b be 5f 87 e6 3c e2 5a ff bd
       -0.1516965 -0.13645957 0.028140722 -0.124685064

encoder_layer_mhattentions.0.attention_heads.0.V.weight f4 [8, 8]
000000 bd 8d f3 3e 54 65 a7 3e 3a d0 18 be 9c 85 b4 3d
       0.47569075 0.32694495 -0.14923182 0.088145465
000010 53 bc 37 be d8 c3 a3 bd 4b 56 3f bd 20 61 1e bf
       -0.17942934 -0.079963386 -0.046713155 -0.6186695
000020 e9 7c 52 3d c3 8f fc 3d 7f 97 16 be 88 ff 99 be
       0.051388655 0.12332108 -0.14706229 -0.30077767
000030 27 df 85 3d 00 89 bc 3e 71 e1 ac 3d e8 1e 8b be
       0.065367036 0.36823273 0.08441437 -0.27172017
000040 92 0f bb 3e 69 27 cd 3d 78 73 9f 3d 55 98 a3 bd
       0.36535317 0.100172825 0.07785696 -0.079880394
000050 8c 1e 7c 3d 26 13 84 3e 79 d3 11 be f5 21 22 3d
       0.06155257 0.2579586 -0.14240827 0.039583165
000060 21 64 99 be 69 f9 70 bd b8 b0 33 3e 9f 59 97 3d
       -0.29959205 -0.058831606 0.17547882 0.07390141
000070 49 c0 d8 bc 92 a6 9b be ac 0b a9 3d 90 5c d6 3e
       -0.026458876 -0.3040052 0.08254179 0.41867495
000080 c9 de 23 3e f0 a1 14 be 67 d0 b1 be 28 e8 ac be
       0.16002955 -0.14514899 -0.3472931 -0.3377087
000090 9d ac 03 be a9 33 e2 3d 1d 2f 61 be 95 0a 79 3e
       -0.12858815 0.1104501 -0.21990629 0.24320443
0000a0 01 41 85 be 29 2d 17 be d4 3e 11 bd 8d 42 de 3e
       -0.26026157 -0.14763321 -0.03546031 0.4341015
0000b0 ec 26 ea bd 96 90 91 3e 6c 4b 1f 3e a4 8a 88 3e
       -0.11433205 0.28430623 0.15556115 0.26668274
0000c0 0c 26 29 3e b9 94 fe 3d 21 a2 ee 3c 10 42 14 bd
       0.1651842 0.1243071 0.029130043 -0.036195815
0000d0 56 41 31 be df f5 02 3d d9 b8 f1 bd b9 df c3 3d
       -0.1731008 0.031972762 -0.11802835 0.09564156
0000e0 9a 30 18 be 77 76 47 3d 40 f6 c7 bd d5 b7 68 3e
       -0.1486229 0.04869696 -0.09763765 0.22726376
0000f0 4e 17 6d be 74 d5 11 3e 77 af 40 be fb 49 d4 3e
       -0.23153421 0.14241582 -0.18816935 0.41462693

encoder_layer_mhattentions.0.attention_heads.0.V.bias f4 [8]
000000 ec 1c 6e be a2 56 a1 be bf 01 e0 bd bc b8 a3 3e
       -0.2325322 -0.31511408 -0.10937833 0.3197688
000010 bd 3b 7f bd cc c0 5a 3e a0 43 2e 3d 96 7b 24 3e
       -0.06231283 0.21362609 0.04254496 0.1606277

encoder_layer_mhattentions.0.attention_heads.1.Q.weight f4 [8, 8]
000000 50 81 21 3c 46 4c 15 3d 22 08 5d bd 6e 64 48 bd
       0.009857491 0.036449693 -0.053962834 -0.048923902
000010 2c a1 60 3d 8c ad b4 3c 34 28 3e 3d ee 5d 53 3c
       0.054841205 0.02205541 0.04642506 0.012900813
000020 60 00 60 3d 3a 6d d9 3d 03 5d 3f 3d 68 b0 c8 3e
       0.054687858 0.106165364 0.046719562 0.39197087
000030 cb c1 2d bf 6d 7a 9b 3f cc 38 e6 bd 1f 1a 92 bf
       -0.6787383 1.2146736 -0.11241302 -1.1414222
000040 3d a6 ca be fd 20 51 be 09 32 e5 3e 78 74 8c be
       -0.39579955 -0.2042274 0.44764736 -0.2743261
000050 43 c4 62 3f 02 e2 1a 3f 87 1a c4 bc e6 d3 b0 be
       0.8858072 0.6050111 -0.02393843 -0.34536666
000060 15 17 38 3f 93 22 bc bc 45 f4 e4 3d 5f c7 72 be
       0.7191022 -0.022965705 0.11179403 -0.23708867
000070 1e 01 19 3e 38 f4 77 bf fe 8b 38 3f a1 e8 35 be
       0.14941832 -0.96857023 0.7208861 -0.17764522
000080 4d 9b 8f 3f ab 65 d5 be 5d 9c ec be 86 61 c3 3e
       1.1219269 -0.4167913 -0.46213046 0.38160342
000090 69 f9 13 3d 93 62 41 3e bc 28 24 3f 64 68 40 3f
       0.036126528 0.1888526 0.64124656 0.7515929
0000a0 92 de 9e bd 0a 3e bc bc b5 98 cf 3b 04 a4 e3 3c
       -0.07757296 -0.022978801 0.006335343 0.02778817
0000b0 93 8d 07 be 3c 3b 9b 3e 23 73 68 be 2a 8b 9d ba
       -0.132376 0.3031863 -0.22700171 -0.0012019624
0000c0 5e c9 46 bf 7c e4 32 be 98 6a 48 3f e4 3e c8 3e
       -0.7765101 -0.17469972 0.7828765 0.39110482
0000d0 b9 6f a5 be a1 23 ac bd 1b d7 5b 3e 33 00 ae 3e
       -0.323118 -0.08405233 0.21468775 0.33984527
0000e0 da a7 87 3d c5 52 02 3e 85 5b 48 bd 2a 2f 57 3e
       0.06623812 0.12726887 -0.048915405 0.21014085
0000f0 48 ab d9 3d 3d fe 9b 3d f7 f9 c4 3d a2 09 1f 3e
       0.106283724 0.076168515 0.096179895 0.15531018

encoder_layer_mhattentions.0.attention_heads.1.Q.bias f4 [8]
000000 47 7b 70 3c 07 4f 53 3d d8 5a 48 3d 26 66 23 be
       0.014677829 0.05158904 0.04891476 -0.15956935
000010 0e 83 11 be f5 8f 2d bd 5e 17 00 3e ac e8 75 be
       -0.1421015 -0.042373616 0.12508914 -0.24014539

encoder_layer_mhattentions.0.attention_heads.1.K.weight f4 [8, 8]
000000 7a 92 cd bb be 98 0a 3d 0f cd 3c 3d 16 d0 41 3d
       -0.006273565 0.033837073 0.046093997 0.047317587
000010 26 d6 c9 bc 8c 11 64 3d 8a 4d 2b bd 33 91 83 bb
       -0.024638247 0.055680797 -0.041821994 -0.004015112
000020 2b 30 94 bd c2 74 81 3d ed 2f 12 bf 6b cc 12 be
       -0.0723575 0.06321098 -0.5710438 -0.14335792
000030 33 38 46 be e1 47 a7 3d 39 2c 92 bf ac 75 93 3f
       -0.19357376 0.08168007 -1.1419746 1.1520286
000040 f8 ee 85 bd dc 85 8e 3e 6e ec 58 3d 6c 9e 10 bd
       -0.0653972 0.27836502 0.052959852 -0.035307333
000050 35 80 58 bf e2 d3 73 3f 5d 45 81 3e 2f d1 06 3d
       -0.8457063 0.9524518 0.25248232 0.032914337
000060 6a 27 7e bc 63 fd cf 3e 80 4d 3c be 9a 3a 0c bf
       -0.015512327 0.40623006 -0.18388939 -0.5477692
000070 07 60 09 3f a3 2a 1a 3f c9 31 dd be d9 41 32 bf
       0.5366215 0.6022131 -0.43202046 -0.69631726
000080 f8 17 1b bf 86 7a c8 be 3d 18 bb 3e 55 2a 97 3e
       -0.6058345 -0.39155978 0.3654193 0.29524484
000090 eb e9 82 3f d9 e7 41 3e 54 66 3d 3e fc aa 41 3e
       1.0227636 0.18936099 0.18496066 0.18912882
0000a0 2e 6f 2c bd 39 fe d5 3d ce d2 bc bc 09 b3 83 3e
       -0.042098217 0.1044888 -0.023049738 0.2572253
0000b0 19 7c 84 3d db 17 1e bd d4 81 0c 3e 4f 38 88 3e
       0.06468982 -0.03859697 0.137214 0.2660546
0000c0 26 75 04 3f f1 16 88 be 42 5f e1 be 56 98 2e 3f
       0.51741254 -0.26580003 -0.44017988 0.68201196
0000d0 b7 76 54 bc 5d db a3 3e 0f dc 3b 3f ef a1 92 be
       -0.012967757 0.32003298 0.7338266 -0.2863917
0000e0 f8 77 82 be 28 cd 0e be cf 20 40 3e 45 bc 21 3d
       -0.25482154 -0.13945448 0.18762515 0.03948619
0000f0 a7 f5 1f 3a 1e 1e 11 3c 76 a0 32 be d5 a0 a6 3d
       0.00061019737 0.008857278 -0.17444023 0.08136145

encoder_layer_mhattentions.0.attention_heads.1.K.bias f4 [8]
000000 10 e3 0b be 58 0e 2e 3e 70 e2 d0 bd 17 3f 84 3e
       -0.13660836 0.16997659 -0.101994395 0.25829384
000010 70 ad 42 3e 60 6f 22 be 0c f2 0e be d9 99 0d be
       0.19011474 -0.15862799 -0.13959521 -0.1382822

encoder_layer_mhattentions.0.attention_heads.1.V.weight f4 [8, 8]
000000 5c 46 9c bd f9 32 ba be e9 e3 04 be 91 38 3d bf
       -0.076306075 -0.36367014 -0.12977566 -0.7391444
000010 21 f9 d3 be 56 3d cd be 06 54 f4 bd 31 d4 1a bd
       -0.41401008 -0.40085858 -0.11930089 -0.037800018
000020 09 2a 81 be 42 67 bc 3d c6 2b 10 3e 62 04 09 3c
       -0.25227383 0.09199382 0.14079198 0.008362861
000030 93 2c 8e bd 90 b7 21 3d 9d d8 b5 bd e5 df c0 3d
       -0.069420956 0.0394817 -0.08879206 0.094177045
000040 83 26 ec 3d 26 b3 57 be fc 13 95 be 6f cb 35 be
       0.11530783 -0.21064433 -0.2911681 -0.17753385
000050 76 da 7c 3e b4 39 bf 3e 51 ae e1 3e 37 d0 b2 3e
       0.24692711 0.37348711 0.44078305 0.3492448
000060 f8 97 2f 3d f8 1c bc bc ea 5d 08 3c 77 7e 39 3d
       0.042869538 -0.022963032 0.008323172 0.045286622
000070 28 3f 9c 3c 78 3f 15 3d 44 53 af 3c c3 88 c5 3d
       0.019073084 0.03643748 0.021402009 0.09645226
000080 36 d4 7f 3e 3d 43 1c be 17 fe 3d 3e 62 57 2b bf
       0.24983296 -0.15260024 0.18553959 -0.6693021
000090 3a ff 56 3e 66 73 d8 3e 43 eb e5 3e dc bc 01 3f
       0.20995799 0.42275542 0.44906053 0.506788
0000a0 7f 8b 9d 3e 61 fa ef 3d f4 2c 00 3b 40 75 b8 bd
       0.3077049 0.11717678 0.0019558044 -0.09006739
0000b0 3c bd 1d bd 39 a4 21 3e d2 74 1e be 16 f8 9a bd
       -0.038510546 0.15785302 -0.15474251 -0.0756685
0000c0 9d 86 05 be 69 3b ea be b1 44 c6 3d bc 1f b1 bd
       -0.13039632 -0.4574845 0.096810706 -0.08648631
0000d0 f2 42 b9 3d db 0a 8c 3e ea d3 85 3e aa c8 ae bd
       0.09045972 0.27352032 0.2613824 -0.085343674
0000e0 d4 a7 a6 be 58 5d 3e 3e 17 ba f9 bc 4a e8 f4 bd
       -0.32549918 0.18590295 -0.030484242 -0.11958368
0000f0 1b b6 f4 bc 16 35 de 3e bd 4d 6a be c5 7f 9c be
       -0.02987199 0.43399876 -0.22881217 -0.3056623

encoder_layer_mhattentions.0.attention_heads.1.V.bias f4 [8]
000000 1e 6f 69 3e 2e ab 8f bd 72 58 16 bf 59 09 90 bc
       0.22796294 -0.07015072 -0.58728707 -0.017582582
000010 30 26 1e bf 0c 3f 14 bd 87 52 ed be f2 b8 4e 3d
       -0.6177702 -0.03619294 -0.46352026 0.050469346

encoder_layer_mhattentions.0.attention_heads.2.Q.weight f4 [8, 8]
000000 ef 83 5d 3c e4 aa 03 bf 6b bb c3 3d 2b ca c6 be
       0.013520225 -0.51432633 0.095572315 -0.38826117
000010 e1 53 81 3e dc 41 0d bd 4d 7a c9 3e 06 e3 a0 bd
       0.25259307 -0.034486637 0.3935112 -0.07855801
000020 28 81 a7 3d 8c 9d 46 3e 89 dd dc 3e f1 0f dc 3b
       0.081789315 0.19396037 0.43137768 0.0067157676
000030 0e 0e c1 bd 71 46 13 3d a9 3e 0c be dd 9a 72 3e
       -0.09426509 0.03595585 -0.13695778 0.23691888
000040 1b 39 90 be a1 0a 71 3f 68 2c 6b bd 3b 6c 49 bd
       -0.28168568 0.94156843 -0.057415396 -0.049175482
000050 29 c3 74 be 8d b0 f6 3e 4d e1 b8 3e c8 0d b1 3d
       -0.23902573 0.48181573 0.3610939 0.08645207
000060 23 c2 29 bd 40 e9 70 3d c5 87 e6 3e b7 a3 a8 be
       -0.04144491 0.058816195 0.4502546 -0.32937405
000070 31 ae b6 3e a4 9a 02 3d c9 63 88 be 93 f5 ae 3e
       0.35679772 0.031885758 -0.2663863 0.34171733
000080 a2 bd d6 3d 9f ee 03 bf 9e 53 51 be 21 42 8d 3f
       0.10485388 -0.5153598 -0.20442054 1.1035806
000090 66 0e 53 be 7e 86 55 bf 2e 0f 8c bf 9b c7 1d bf
       -0.20610961 -0.83408344 -1.0942132 -0.616327
0000a0 bd 25 e4 bc cd 1e 6a bd 22 5f ab bc 4e cf 18 3e
       -0.027850026 -0.05715828 -0.020919386 0.1492283
0000b0 71 50 f2 bc 44 a9 a0 3d 69 f3 2d be 70 dc 86 bd
       -0.029579373 0.07844785 -0.16987385 -0.06585014
0000c0 95 46 ba bd 1d df 5f 3f 64 c0 c7 3e 43 44 9a 3f
       -0.09095494 0.8744982 0.3901397 1.2052082
0000d0 3d ce 11 3e 76 7b 44 be 3c 62 95 bf e6 e1 c6 3b
       0.1423883 -0.19187722 -1.1670604 0.0060694097
0000e0 05 1b d0 bd 20 91 df bd 05 a3 c8 be d8 34 a1 be
       -0.101614036 -0.10916352 -0.39186874 -0.3148563
0000f0 07 3f 57 be 49 92 af 3e 9e 42 fa 3d 08 01 10 3e
       -0.21020137 0.34291294 0.122197375 0.14062893

encoder_layer_mhattentions.0.attention_heads.2.Q.bias f4 [8]
000000 dd 28 e0 3d cb e6 84 3e 52 be 19 3e b1 9b bd be
       0.10945294 0.2595733 0.15014008 -0.37032846
000010 a5 ec e7 bd f3 13 e0 3d e2 c6 67 bf 8e 76 83 3f
       -0.11324433 0.10941305 -0.90537846 1.0270555

encoder_layer_mhattentions.0.attention_heads.2.K.weight f4 [8, 8]
000000 aa ed 34 bd 65 ba 2d 3e dc 08 b2 be b9 5d 6f 3e
       -0.044171967 0.16965635 -0.34772384 0.23375596
000010 66 fc d7 bd a0 e6 92 be f2 7c 05 bd a6 58 a6 be
       -0.10546188 -0.28691578 -0.03258986 -0.32489508
000020 cf b8 f8 3e 3a e4 d6 be 4f 9f f0 3d c6 b5 38 be
       0.48578498 -0.41970998 0.11749136 -0.18038091
000030 0b 1e 15 3d f2 a8 f0 bc 0b f4 26 bd ec d7 0b bb
       0.036405604 -0.029377434 -0.04076008 -0.0021338416
000040 ab e0 e2 be 3f b4 f4 be b4 ee e5 3e 83 47 69 be
       -0.44312033 -0.47793767 0.4490868 -0.22781186
000050 3d 9b e2 3e dc 4d 8a 3d 6a 56 3b be 43 6b 86 be
       0.44259062 0.06753132 -0.18294683 -0.2625371
000060 80 a4 3d 3e bf 00 01 bf 65 02 cb be d8 db e8 3e
       0.18519783 -0.50391763 -0.39650264 0.45480227
000070 ab dc 31 3e 3e ad 07 be dd dd 11 3e 32 07 07 be
       0.17369334 -0.1324968 0.1424479 -0.13186339
000080 8c 80 df 3e 2c fd 90 3f f0 bf 7a bd 68 94 0d 3e
       0.4365276 1.1327262 -0.061218202 0.13826144
000090 cb 2c e5 be 0a 4d 12 3f eb ef ae 3e cb 29 cf 3e
       -0.44760737 0.571488 0.34167418 0.40461573
0000a0 b5 54 ac 3d 1d 7a 47 3d 35 0f 03 bd 4b b2 03 bc
       0.08414594 0.04870044 -0.031996924 -0.008038114
0000b0 04 68 85 bc df 94 03 3d e3 49 82 ba c3 34 c5 3d
       -0.01628495 0.032124396 -0.0009940233 0.09629204
0000c0 92 e5 6f 3f 99 f7 3d 3f 15 e6 1b 3d a7 4f d3 3d
       0.9370967 0.7420593 0.03806122 0.10317927
0000d0 bf 9e 54 3e 52 a7 04 3f 8f e4 53 3f 81 66 22 3e
       0.20763682 0.5181781 0.8277063 0.15859415
0000e0 c6 0a b9 be fb 58 db be 68 28 98 3e 14 94 ed 3b
       -0.36141032 -0.42841324 0.29718328 0.0072503183
0000f0 b9 ff 4d 3e 10 7a a6 bd 52 43 74 bf f6 d0 90 bd
       0.20117082 -0.0812875 -0.9541522 -0.07071106

encoder_layer_mhattentions.0.attention_heads.2.K.bias f4 [8]
000000 f3 6f c0 3e 14 73 99 3d 34 da b8 be c0 a1 1a be
       0.3758541 0.074926525 -0.36103976 -0.15100765
000010 f2 31 3e 3c 5c c4 a5 be e0 52 9d 3e 11 cd 8e 3c
       0.011608588 -0.32376373 0.3072729 0.017431768

encoder_layer_mhattentions.0.attention_heads.2.V.weight f4 [8, 8]
000000 19 6d db bd 26 e3 66 3e ad 0a 6f 3d 5e 68 a5 3e
       -0.10714168 0.22547588 0.05835979 0.32306188
000010 bc 17 5d be 4b 94 46 3e f8 3c b3 be 5c 63 03 bb
       -0.21591085 0.19392507 -0.35007453 -0.0020048236
000020 7b f3 95 bd 37 df 5a bd ae de 45 be f3 6f e6 be
       -0.07321831 -0.05343553 -0.19323227 -0.45007285
000030 95 e4 45 3d 94 c2 b3 3d 61 12 d6 3d b6 d5 6b 3d
       0.048313696 0.08777347 0.10452724 0.057576858
000040 9c e4 e5 37 bd f8 a2 bd 82 bf 67 bd 05 eb b9 3c
       2.7405382e-05 -0.07957599 -0.05657912 0.022695074
000050 00 02 93 3d 49 0a cc bc 15 d7 9d bd 57 17 c0 3c
       0.07178116 -0.024907248 -0.07707039 0.02344863
000060 37 0b 4c bd a4 be 6c 3e 1f 67 3b bd c4 da 0c bb
       -0.049815383 0.23119599 -0.04575264 -0.00214927
000070 81 61 d3 3d 57 b6 0b 3d 1e 99 db 3e 94 97 4f bc
       0.10321332 0.03410944 0.42890257 -0.012670416
000080 bb 34 a0 bc 4d 91 27 bd 00 4a a8 bd 53 12 a5 3c
       -0.019556394 -0.040910054 -0.082172394 0.02015034
000090 89 55 46 bc f1 a9 08 bd 3d fe 2b 3c 33 ab df bd
       -0.012105354 -0.033365194 0.010497627 -0.109213255
0000a0 ba 3a 5d bd d7 98 ce bd 76 8d 16 be bd 55 cf 3e
       -0.054011084 -0.10087746 -0.147024 0.404951
0000b0 16 8b 84 be 3e 0f b2 bb 87 b3 ce 3e 17 6c 43 be
       -0.25887364 -0.005433946 0.40371343 -0.19084202
0000c0 fb d0 86 bc 88 89 89 3e 79 53 84 bd 95 a4 ae 3d
       -0.016457072 0.2686274 -0.06461234 0.08527485
0000d0 04 4f c4 3d fd c9 5a be 18 09 20 bd 2f 7a e6 bd
       0.095853835 -0.21366115 -0.039071172 -0.112537734
0000e0 d6 91 0e 3e 41 1f fc bd c7 e5 df bd a3 60 c5 bc
       0.1392282 -0.12310649 -0.109324984 -0.024093932
0000f0 d0 53 95 3d 63 9b 5a 3d 87 ff 0b be 52 db f2 3d
       0.072913766 0.053370845 -0.13671695 0.11858238

encoder_layer_mhattentions.0.attention_heads.2.V.bias f4 [8]
000000 0f 69 ce 3e d5 36 90 be 65 6b e0 bd 58 49 c4 3c
       0.40314528 -0.28166834 -0.10957984 0.023960754
000010 be 79 6a bd 57 f8 e9 3e 42 6b f0 bd d3 65 3d 3e
       -0.05724501 0.4569728 -0.11739208 0.18495874

encoder_layer_mhattentions.0.attention_heads.3.Q.weight f4 [8, 8]
000000 a3 a7 df 3e c6 f0 44 bd 79 1c 1e bf 72 28 0c bf
       0.43682584 -0.048081182 -0.61762196 -0.54749215
000010 5e 39 35 3f cf b5 8f be 69 83 0f 3e aa b8 46 3f
       0.7079066 -0.28068396 0.14014973 0.77625525
000020 14 bb 87 be f6 e1 9d 3c 4a 06 4a be 1e 74 b5 3e
       -0.26509917 0.019272786 -0.19728962 0.35440153
000030 4f 6c 12 be 2b 26 66 3e e3 87 25 3d f3 11 07 3e
       -0.14299129 0.22475497 0.040412795 0.13190441
000040 a9 bc 64 be e7 05 ff 3b c7 a6 97 be 07 16 77 3e
       -0.22337593 0.007782686 -0.2961943 0.24129497
000050 7a b8 79 bd de a9 81 3d c5 78 a4 3d f3 10 1e bf
       -0.060966946 0.06331228 0.080308475 -0.6174461
000060 fd 4c cc 3d 51 9b f0 3d 58 1f b1 3d b2 cd 2e bd
       0.09975622 0.11748374 0.086485565 -0.042676635
000070 21 6e 0f bc d2 f0 f5 3c 77 41 04 bd e3 84 b8 3d
       -0.008754284 0.030022059 -0.032288995 0.09009721
000080 37 22 34 3e d4 ac c5 bd a1 5e b6 3e f0 58 70 be
       0.17591177 -0.09652105 0.3561907 -0.23471427
000090 ec df c7 3e 84 23 01 be 25 f9 ab be 3e 32 90 be
       0.39038026 -0.12611204 -0.3358852 -0.28163332
0000a0 2b f6 4d 3e 3d ea f6 3e 49 10 01 be 04 b3 46 3e
       0.20113437 0.48225585 -0.12603869 0.19404227
0000b0 43 c7 c7 be c1 9c 52 3e 42 8e e8 bc e6 6c 65 3e
       -0.39019212 0.2056761 -0.028388146 0.22404823
0000c0 06 8f c7 be 41 4b d6 be 2f 39 ec bd 43 9a 6f be
       -0.38976306 -0.4185429 -0.115343444 -0.2339869
0000d0 a5 d8 af 3e 80 f4 f9 be cb 63 21 be a0 ac 80 3c
       0.34344974 -0.4881935 -0.15760724 0.015707314
0000e0 48 56 d1 3e eb 68 d8 3d 65 80 e9 3e f5 2e bb be
       0.4088614 0.105668865 0.4560577 -0.36559263
0000f0 74 dd cb 3e ca 58 69 be b7 0d 07 bf 95 29 93 be
       0.39817393 -0.22787777 -0.527553 -0.28742662

encoder_layer_mhattentions.0.attention_heads.3.Q.bias f4 [8]
000000 b4 a9 18 bf 3a 00 e4 bd 41 22 02 3e 76 0e d5 bd
       -0.59633946 -0.11132856 0.1270838 -0.10403149
000010 5b f5 4a 3e 5d a3 11 3f 72 ec f1 be 1b fa 30 3f
       0.19820158 0.568899 -0.47250706 0.6913163

encoder_layer_mhattentions.0.attention_heads.3.K.weight f4 [8, 8]
000000 6f f1 e8 be 6b 37 3f 3f 2a 44 e6 bd d2 e2 bb be
       -0.454967 0.74693936 -0.1124347 -0.36696488
000010 ff 49 3f bf 40 52 58 be 78 bd 43 bf 5e 12 3e bf
       -0.74722284 -0.21125126 -0.7646098 -0.74246776
000020 41 ee 0b 3e e5 03 9c be 29 5b e6 3d 6f cb 17 3f
       0.13665105 -0.3047172 0.11247856 0.5929479
000030 f9 da 27 bc c0 13 6a 3e 3e 66 2d 3b dd 10 2e be
       -0.010245078 0.22859097 0.0026458646 -0.1699862
000040 d7 cd c5 be 17 18 27 3e 2c ce 6c 3d 67 40 66 3d
       -0.38633606 0.16317783 0.05781381 0.056213763
000050 1a 39 a0 3e f9 ce cc 3d b2 cf bd 3e c7 01 87 be
       0.31293565 0.100004144 0.3707252 -0.26368544
000060 33 6d 85 bd c6 7d b3 3c 5f f9 57 3d 6e ff c6 bd
       -0.06514969 0.02191056 0.052728053 -0.09716688
000070 89 77 f5 3d 06 72 04 bd 42 f8 cf bc ef a8 17 3e
       0.1198569 -0.032335304 -0.025386933 0.14810537
000080 f4 7a 30 3e dc 52 fc 3e d6 fa b0 be 13 0e cd be
       0.17234403 0.49281967 -0.34566373 -0.400498
000090 19 d0 69 be e5 a9 de bd d3 d6 33 3d 73 e0 f5 3c
       -0.22833289 -0.108722486 0.043906044 0.030014252
0000a0 d1 5f ec be 78 db 48 bf 41 e7 5d be 3b 70 36 3f
       -0.46166852 -0.7845988 -0.21670248 0.71265
0000b0 e2 7c 7e 3e 26 55 ba 3e 46 d8 f5 3c ce 1a c9 3d
       0.24852327 0.36393088 0.030010354 0.09819566
0000c0 86 a3 e3 3e f2 7f 60 3f d4 7e 8e 3e 89 dc 10 bf
       0.44460696 0.8769523 0.27831137 -0.5658651
0000d0 4a 71 00 bf 6a af 48 be 5d e4 18 bd d7 0f 02 be
       -0.50172865 -0.19598165 -0.03732716 -0.12701355
0000e0 4f 4e 27 be 97 9c d6 3e e3 14 61 bf 9a 40 f6 be
       -0.16338466 0.41916344 -0.87922496 -0.48096162
0000f0 27 ed 71 be 76 a4 5d be e2 d1 cb 3e 03 38 ec bb
       -0.23625623 -0.21644768 0.39808565 -0.0072088256

encoder_layer_mhattentions.0.attention_heads.3.K.bias f4 [8]
000000 cd 31 88 be fa af b7 3d 0d 9d 1b be 5d c7 86 3e
       -0.26600495 0.08969112 -0.15196629 0.26323977
000010 f0 8c c0 3e 3f 36 3a 3e 3d 63 0f 3e ac 7b a9 3d
       0.37607527 0.18184756 0.140027 0.08275542

encoder_layer_mhattentions.0.attention_heads.3.V.weight f4 [8, 8]
000000 7a 61 bd be 11 e0 f3 3b 6d 50 01 bc 35 35 c0 bd
       -0.3698843 0.0074424823 -0.00789271 -0.093851484
000010 bc 33 03 3e d4 24 21 bd d1 62 69 bd 64 c9 72 bc
       0.12812704 -0.039341763 -0.056979004 -0.014818523
000020 e8 9d da be 2d 61 ad 3a 06 de c8 bd 86 47 5f bd
       -0.42698598 0.0013227813 -0.098079726 -0.05451157
000030 0f d2 27 3e 43 ea 11 be d5 dc 62 be 89 47 90 be
       0.16388725 -0.1424952 -0.22154553 -0.28179577
000040 5f 09 e3 3a b6 30 96 3d f5 92 8f 3e 71 f0 f5 3d
       0.0017321518 0.073335096 0.28041807 0.12008751
000050 e8 5c ce be b3 f3 a9 3e bf 7e 27 bd ac 44 d8 3e
       -0.40305257 0.3319374 -0.04089236 0.42239892
000060 95 fb a1 be dc 08 ef bd 27 b6 ae bd 81 a4 01 3e
       -0.31637254 -0.11671612 -0.085308366 0.1266041
000070 ef f7 c1 3d b2 c2 2e be b5 1f ee 3c 25 27 60 3d
       0.09471118 -0.17066458 0.029067853 0.05472483
000080 c7 b0 86 be 32 37 ac be d6 4c 18 be 0e ec 72 3e
       -0.26306745 -0.3363586 -0.1487306 0.2372286
000090 11 37 b3 be b1 e9 c1 3e 1c c2 b8 3e aa 23 9c 3d
       -0.3500295 0.37873605 0.36085594 0.0762399
0000a0 9c 7d 4e be af 19 b3 bd 64 dc 6c be 67 d5 a9 3e
       -0.20165104 -0.08745133 -0.23130947 0.33170626
0000b0 96 1a 04 3e 3e a2 34 be 77 8d 56 be 6f 75 db be
       0.12900767 -0.17640015 -0.20952402 -0.42863032
0000c0 75 ec 44 3e ce 08 bf 3e c2 f1 ce bd b4 a5 76 3e
       0.19230826 0.37311405 -0.101047054 0.24086648
0000d0 8e 52 3c be 84 2c 04 3e fe d5 99 be 63 a8 52 3e
       -0.18390867 0.12907606 -0.30046076 0.20572047
0000e0 9b 68 88 3e 77 71 8a 3d 52 74 10 3e 59 a4 30 3e
       0.26642308 0.06759923 0.14106873 0.17250194
0000f0 83 06 80 3e db 9b 02 bd b0 57 0f bf 92 7a a9 3e
       0.25004968 -0.031886917 -0.55993176 0.33101326

encoder_layer_mhattentions.0.attention_heads.3.V.bias f4 [8]
000000 64 67 a8 3d 67 ef 35 3e 00 35 a4 bd 46 69 cc bd
       0.08222845 0.17767106 -0.080179214 -0.09981017
000010 82 f0 18 bf 76 10 d0 3d 30 39 bc 3e bc c2 44 3e
       -0.59741986 0.1015939 0.3676238 0.1921491

encoder_layer_mhattentions.0.output_layer.weight f4 [32, 32]
000000 6f 6c 5e be 5e dd 78 be 23 e0 57 be 2f b5 0a 3f
       -0.21721052 -0.24303195 -0.21081595 0.54182714
000010 97 4a 55 3e bb 8a a9 3e 55 df d7 3e 9c cb f4 3d
       0.20829235 0.33113655 0.42162576 0.11952898
000020 cf 7e 49 be 9f 62 3b be 72 85 62 bf 7b ce be 3e
       -0.1967728 -0.1829934 -0.8848487 0.37266907
000030 97 93 b4 bf c5 0c b9 3e de dd 32 bf 72 ca 9b bd
       -1.4107541 0.36142555 -0.6986979 -0.07606973
000040 fb c3 8d 3d ff 2e 62 be 38 e2 0b bc 0b 79 19 3f
       0.06922146 -0.2208824 -0.0085378215 0.5995032
000050 37 85 35 bd 11 53 a9 be bd 23 a1 3e 23 c6 1f 3e
       -0.044316497 -0.33071187 0.3147258 0.15602927
000060 6f 91 d1 be 2b 1c d7 bd 6c 0a 79 be 21 79 1a be
       -0.4093127 -0.105034195 -0.24320382 -0.1508527
000070 90 71 d3 be 51 78 8f 3e 23 66 6f 3e ae f0 a6 3e
       -0.4129758 0.28021482 0.23378806 0.326055
000080 a3 4f cd be 5f 64 e1 3e 5b ba 94 3e e9 f2 be bd
       -0.4009982 0.4402189 0.29048428 -0.09323675
000090 6c c4 2e 3f 21 76 0c bf 12 0a b4 3e f8 6a 09 3e
       0.68268466 -0.5486775 0.35163933 0.13419712
0000a0 9b 28 f6 3c 8d b7 04 bf fd 4a 23 3f f5 bb 32 be
       0.03004866 -0.51842576 0.637863 -0.17454512
0000b0 8a 76 59 3f 7c 80 3f 3e a5 b0 a3 3e e6 1d 6c be
       0.849465 0.18701357 0.31970707 -0.2305828
0000c0 60 c7 ee 3d 16 17 7b 3b a0 23 68 bd 97 0c 04 3f
       0.116591215 0.003831332 -0.0566746 0.5158171
0000d0 b5 77 4a bd b8 3c 78 ba 6d 92 53 3e 8e c6 48 be
       -0.049430568 -0.0009469497 0.20661326 -0.19606993
0000e0 97 3c 4a be 22 45 a4 bc 0b 43 87 be a2 75 7f 3c
       -0.19749676 -0.020052496 -0.26418337 0.015592011
0000f0 c5 fd 52 3e c3 81 b9 3e 7f 48 51 be 7e 70 fd be
       0.20604618 0.36231813 -0.20437811 -0.49499887
000100 93 42 bf be 90 4d b9 bd f5 ae 7a 3e 73 b1 a1 bd
       -0.3735548 -0.09047997 0.24480803 -0.07895174
000110 6a 07 1d bf 7c 37 d7 3c 9d 67 6f 3d 44 02 84 be
       -0.6133944 0.026271574 0.058448423 -0.2578298
000120 e0 1c f9 3d b8 c4 90 bd 0f 7d 25 bf 3b 24 11 bb
       0.121637106 -0.07068771 -0.6464395 -0.002214684
000130 5c f8 6a bf 37 c4 ff bd e0 17 cd 3d 00 95 3c 3d
       -0.91785216 -0.12488597 0.100143194 0.046040535
000140 1f 4b 78 be 5f 5b 20 3f 8a 4e 01 3d b9 df 8a be
       -0.24247406 0.6263942 0.03156904 -0.27123812
000150 fc 30 9a be fc 56 01 bf 6c 88 2d 3e d2 99 49 3e
       -0.30115497 -0.5052335 0.16946572 0.19687584
000160 74 27 00 be 84 4b 1e be 68 7f 21 be 52 e2 8a bd
       -0.1251505 -0.15458494 -0.15771258 -0.067814484
000170 a7 0b 43 be d2 36 ee 3d ab ba c6 3e 63 a1 0d 3f
       -0.19047414 0.1163155 0.3881429 0.5532438
000180 bf 17 ec 3e ae 7e e3 bc 36 05 4f bf aa 9f 09 bf
       0.46111867 -0.027770367 -0.80867326 -0.53759253
000190 a5 4f 48 be eb 57 a7 bc d7 af 34 bf 88 fd 03 3c
       -0.19561632 -0.020427665 -0.7058081 0.008056052
0001a0 a1 e9 45 3e 46 18 63 3e 7e 3f 93 bd 53 55 5a 3e
       0.19327404 0.22177228 -0.071898445 0.21321611
0001b0 e3 a0 b5 3e ca 79 9d be 9a 21 dd 3e d2 bb e2 3e
       0.3547431 -0.3075698 0.43189698 0.4428392
0001c0 a8 13 f3 be 7d 04 16 3d 18 76 2e 3e d0 ee 4a be
       -0.47475934 0.036625374 0.17037237 -0.19817662
0001d0 a9 f4 4f 3d 4a 72 dc be 3a 44 e7 3e 27 7f bc be
       0.050770435 -0.43055946 0.4516924 -0.3681576
0001e0 5b a4 e8 3d 03 5d 4d 3e de 20 6c be f2 ed fa bd
       0.11359473 0.20055012 -0.23059413 -0.12252416
0001f0 a6 6b f8 bd 5f 92 46 3d 6b db b5 3d 24 9e 24 bf
       -0.12129907 0.048479434 0.08879741 -0.64303803
000200 ef d4 fa 3d fb bc 1e be 6e e2 68 bd fa a4 5b 3d
       0.12247645 -0.15501778 -0.056856565 0.05362413
000210 1f 4a d2 3c 6e 44 57 3c 63 3b 99 bd f3 4c b2 3d
       0.02567011 0.0131388735 -0.0748203 0.08706083
000220 a1 fd 71 be 8d e5 48 3d 60 38 93 bd d2 00 ef 3b
       -0.23631908 0.04904704 -0.07188487 0.007293799
000230 1d 82 c7 3d b1 25 9e 3b 11 da 53 3e 8e c3 8a 3d
       0.09741614 0.0048262705 0.20688654 0.0677558
000240 c0 12 c3 ba ea 20 4e be 83 bc bc 3d c3 e5 16 be
       -0.0014882907 -0.20129743 0.09215643 -0.14736085
000250 bb 0d 8f 3d bf 13 aa bc 81 62 cd 3c ba 33 0d bd
       0.06985041 -0.020761369 0.025071384 -0.03447316
000260 f5 87 56 3d ce 6a ac 3d 3e 42 85 3d cb 30 79 ba
       0.052375752 0.08418809 0.06506775 -0.0009505867
000270 4f 2c 2d bd ca ba 55 bd f5 74 8d 3d 5a 77 6a 3d
       -0.042278584 -0.05218009 0.069070734 0.05724273
000280 97 f7 23 3f 08 be 12 be 11 c3 df bd 93 c9 58 be
       0.6404967 -0.14330304 -0.10925878 -0.21170644
000290 74 c6 fd be b0 f3 10 3d df c7 49 be 10 4e cb be
       -0.4956547 0.03538865 -0.19705151 -0.39707994
0002a0 15 a5 86 3e a4 02 ec 3e 17 3d c5 bc 73 f6 e6 3d
       0.26297823 0.46095765 -0.024076981 0.11277475
0002b0 9f 6c 91 3b 0a 83 fc be f3 ef 67 3e ae cb 81 3d
       0.0044379975 -0.49318725 0.22650127 0.06337677
0002c0 1b 34 f5 be d3 95 a4 bc 53 41 02 3e 92 63 18 be
       -0.47891316 -0.020090973 0.12720232 -0.14881733
0002d0 32 37 a7 bd 8c 5f 18 bf ae eb c3 3e 43 0c 2e be
       -0.081648245 -0.5952079 0.38265747 -0.16996865
0002e0 2c c9 06 3c 92 71 2f 3f a4 04 26 3d 2b aa 12 be
       0.008226674 0.6853267 0.04053177 -0.14322726
0002f0 1c 20 b9 bd 25 49 ae 3e 49 f5 85 bd b9 a1 90 3e
       -0.090393275 0.3404018 -0.06540925 0.28248385
000300 0b 9c ea 3d 51 31 5d 3d 4d 71 31 3e 72 a1 75 3e
       0.11455544 0.05400211 0.17328377 0.23987368
000310 2f 7c 04 bf 43 73 27 3d 87 db b0 bd f8 8f 70 bd
       -0.5175199 0.040881407 -0.086356215 -0.05873105
000320 bb 58 5c 3e e2 50 85 3d 02 ac b8 3d d6 a0 19 be
       0.21518223 0.06509568 0.09017183 -0.1500276
000330 83 53 6c be 30 15 1f be 3d 5f 28 3d c3 b1 ab be
       -0.23078732 -0.15535426 0.04110645 -0.3353406
000340 b2 45 c1 bd 43 c4 f3 3e 01 7b 4c bd 23 61 0e 3e
       -0.094371215 0.47610673 -0.049921993 0.13904242
000350 89 92 0e be a2 f8 c3 be 90 75 20 3e 1b 42 08 3e
       -0.13923086 -0.3827563 0.15669847 0.13306467
000360 e6 31 6d 3b 27 90 81 3e 00 7c 9d 3d 16 8e c0 be
       0.0036193072 0.25305292 0.07689667 -0.37608403
000370 16 b9 8c be 93 52 72 bd f4 30 8e be ec 67 ef 3e
       -0.2748496 -0.05916078 -0.27771723 0.46758974
000380 76 6a c6 be 8d 02 43 3e 27 66 20 bc b7 34 04 bd
       -0.38753098 0.19043942 -0.00978998 -0.032276835
000390 3a d1 88 3e 6e e3 cf be 70 86 f6 bc e0 d6 e9 bd
       0.26722127 -0.40603203 -0.030093402 -0.11417937
0003a0 40 2e e1 be ad 18 a9 3e fa 30 69 3d 83 a0 2f 3e
       -0.43980598 0.3302664 0.056931473 0.17151074
0003b0 c5 2d 36 3e d9 33 3e be eb 56 f6 bc 09 82 a4 3d
       0.17790897 -0.18574466 -0.030070743 0.08032615
0003c0 d6 12 ca bd 24 5a 8c 3e 5e 03 55 3d c3 cf 1e 3e
       -0.09866874 0.27412522 0.052005164 0.15508942
0003d0 33 9f 68 3e ee be 72 3e 04 85 14 be 9e 08 e3 3d
       0.2271698 0.23705646 -0.14503866 0.11085628
0003e0 cf 91 6c 3e d2 84 5c 3e 49 59 9d bd 3e a0 d7 3d
       0.23102497 0.21535042 -0.076830454 0.10528611
0003f0 58 75 42 bc a8 3d 8e 3e 35 bf ab be c6 96 59 be
       -0.011868797 0.27781415 -0.33544317 -0.21248922

encoder_layer_mhattentions.0.output_layer.bias f4 [32]
000000 5f 9f 6a 3e 6b 10 a8 be 82 e4 06 bf 0e 7c 16 bf
       0.22912358 -0.32825026 -0.52692425 -0.5878304
000010 6a 6c ee 3d c1 3c ed 3e 2e 02 9a 3e f5 cf ff be
       0.11641772 0.46335414 0.30079788 -0.49963346
000020 29 7b b0 be 56 b3 bd 3d 14 34 ca 3e 99 f8 17 be
       -0.34468964 0.09262721 0.39492857 -0.14840926
000030 1e 31 28 bd ab a9 20 3f 9c 49 d7 3d 39 bd b5 bd
       -0.041062467 0.6275889 0.10512087 -0.08873982
000040 17 11 fc be 60 93 ec 3e b8 13 e7 3e d8 ba 6b bf
       -0.4923179 0.46206188 0.45132232 -0.92081976
000050 e6 2a 02 3f 14 3a 6b be b3 3e 76 3f 8c f2 b0 3e
       0.5084671 -0.22971374 0.9618942 0.3456005
000060 ee 89 fb 3c 30 8e 13 3f c1 1f cf 3d 1f 71 49 be
       0.030705418 0.57638836 0.101134785 -0.19672059
000070 97 dd b0 be 9c f3 c6 3d ab 54 6d be de 22 2d be
       -0.3454406 0.097144336 -0.2317683 -0.16907832

encoder_layer_mhattentions.1.attention_heads.0.Q.weight f4 [8, 8]
000000 c9 b2 81 3f 7f 5f 54 bf 97 fe e4 3d 91 18 3e bf
       1.0132686 -0.82958215 0.11181372 -0.74256235
000010 ba 54 8e 3e 5c 5f 2e 3f 6f a5 68 3e a9 f6 67 3e
       0.27799016 0.68114257 0.22719358 0.22652687
000020 d7 93 9a bd b7 fa 2d 3d c0 89 b9 be 37 59 89 3e
       -0.075477295 0.04247543 -0.36237907 0.26825878
000030 9a 3c 77 3e 58 d0 1f bf 6a 11 09 3f 42 4c 9c be
       0.24144211 -0.6242728 0.53542197 -0.3052693
000040 93 51 93 be 05 a0 1d bf c2 8b 08 bf 75 90 fd 3d
       -0.28773174 -0.61572295 -0.53338253 0.123810686
000050 61 6b 27 be 64 30 8d be 23 f3 b7 be 9b 14 d3 3e
       -0.16349556 -0.27575982 -0.35927686 0.41226658
000060 0c a7 ed 3e bb 59 41 bf db 23 58 be 41 1c 90 3f
       0.4641651 -0.7552754 -0.21107428 1.1258622
000070 17 78 dd be a6 ed a5 3e f9 0f 45 be d9 4a f2 be
       -0.43255684 0.32407874 -0.19244374 -0.4732273
000080 d3 17 83 bc 9c 1f 0d 3f 2d 94 37 be 69 09 85 bd
       -0.016002571 0.5512636 -0.17927618 -0.064959355
000090 ee fd 6e be c1 9e 7d 3e 76 36 77 be 0c 11 a7 bd
       -0.23339054 0.24767591 -0.24141869 -0.08157548
0000a0 ad 50 12 bf b1 6f 6d be 86 3e 2f bf 14 9c 03 3f
       -0.5715435 -0.23187138 -0.6845478 0.5141003
0000b0 7c 7e 66 be b7 e1 57 bf cd cf 99 3e 3c b4 26 be
       -0.22509187 -0.8432879 0.30041352 -0.16279691
0000c0 98 49 37 3f 24 1b 02 3f fc 55 70 3d 4b 73 7c 3e
       0.7159667 0.50822663 0.05867575 0.24653356
0000d0 88 c5 32 bb 3d b8 05 3d c8 3a 4c 3e 32 64 39 3f
       -0.0027278382 0.032646406 0.19944298 0.7241851
0000e0 7d 77 af be 2f 5f 0a bd 82 12 c3 3e 06 9b a9 3e
       -0.3427085 -0.03378218 0.38100058 0.33126086
0000f0 59 50 b9 be 64 77 e2 bd 43 ab 52 3f 91 58 82 be
       -0.36194113 -0.11057928 0.82292575 -0.25458196

encoder_layer_mhattentions.1.attention_heads.0.Q.bias f4 [8]
000000 3f 63 96 bd 2e 18 8e bf 85 71 b0 be d8 1f a8 3d
       -0.073431484 -1.1101129 -0.3446161 0.08209199
000010 1a a7 cd bf 01 79 5d 3e 49 ab 0c 3e a1 72 9a 3d
       -1.606662 0.2162819 0.13737215 0.07541395

encoder_layer_mhattentions.1.attention_heads.0.K.weight f4 [8, 8]
000000 ea 31 1f 3f 51 1e 3c be 0e 77 2c 3d 37 cc 3e be
       0.6218554 -0.1837094 0.042105727 -0.1863259
000010 b9 28 b7 3e 64 9b dd 3d 09 5e 52 bf 0c 39 9c be
       0.35773256 0.10820654 -0.82174736 -0.30512273
000020 73 8c 64 be b0 dc c1 3e 87 0c 82 3f cb bf 62 bf
       -0.22319202 0.37863684 1.0160073 -0.885739
000030 8e 4b 7c 3e 01 6d d7 bd 0d fe c9 be 44 8e 09 be
       0.24638197 -0.10518838 -0.39451638 -0.13433176
000040 20 70 07 be a1 5e 5b bc 07 78 44 3f 51 22 1f 3f
       -0.13226366 -0.0133892605 0.7674565 0.6216174
000050 05 c4 29 bd 68 98 52 3e d5 be cd 3a a4 23 c1 be
       -0.041446704 0.20565951 0.0015697131 -0.37722504
000060 40 bf 45 3f d8 2f 32 3f 0c 49 77 3d 63 e1 d9 be
       0.7724495 0.69604254 0.060372397 -0.4255477
000070 77 82 be bc 16 8f 8e bd 8f 34 c0 3d 58 62 1d bf
       -0.02325557 -0.06960885 0.09385025 -0.61478186
000080 c9 14 9f 3d 1b 04 16 be e8 dc a4 3e da 0e 54 3d
       0.07767636 -0.14650004 0.32199788 0.051771976
000090 12 d0 9a 3e d2 7f 97 bf 62 d8 cf 3e 3f d8 f6 be
       0.3023687 -1.1835883 0.40594774 -0.48211858
0000a0 a4 30 73 be b5 b8 62 3e 0b 70 e3 3d 20 19 84 be
       -0.23749024 0.22140773 0.11105355 -0.2580042
0000b0 63 8b 82 be 7d 68 1e 3f bb 44 e9 3d 09 df d6 3e
       -0.2549697 0.61878186 0.113900624 0.41967037
0000c0 10 7d 0b bf 69 6b 41 3d 68 e5 93 be 0e b0 9e 3d
       -0.54487705 0.047221575 -0.2888596 0.077484235
0000d0 ed 59 1c 3e ff 17 af 3e db 42 b0 bd 2a ba df be
       0.15268679 0.34197995 -0.08606502 -0.4369672
0000e0 b0 b6 8c 3e e9 6c 24 be 3c 3d 44 3d 2b c9 18 bf
       0.2748313 -0.16057171 0.04790996 -0.5968196
0000f0 37 8f c0 3e 5b 40 0e 3f 6f e3 c6 3e f2 3d ea 3e
       0.37609264 0.5556695 0.38845393 0.45750386

encoder_layer_mhattentions.1.attention_heads.0.K.bias f4 [8]
000000 d0 1e 8d 3e 34 25 c2 be ae 0d 8f 3e 6e cc 49 3d
       0.2756257 -0.3791901 0.27940124 0.049267225
000010 76 04 c1 be 26 60 48 be 8e 4c a8 3e 05 f9 e4 bd
       -0.37698716 -0.19567928 0.32870907 -0.11180309
