models/model_chkpt_90.pt (torch, 318877 bytes, 387 tensors)

tokenizer.token_embedding.weight f4 [17, 32]
-0.71377695 -2.182007 -0.1409701 0.042263217 1.641919 0.7168188 0.61920625 1.106104
-1.5439166 -1.2971829 -0.14454563 0.26568845 -1.129896 -0.62129325 -0.42346156 -0.42381823
-0.41073397 0.4886214 -0.5643164 -0.526305 -1.2810786 -1.9886255 0.67517126 2.661527
-0.27977318 0.80008155 0.8523603 1.2207699 -0.6384575 -2.9556186 0.5447121 -0.3634934
-0.8431477 -1.547751 1.269941 -0.07893608 2.7558346 0.4188982 -0.15285625 0.9279641
-1.2468848 -0.85610837 -0.39953905 0.4789705 -0.90151805 -0.59276354 -0.5822951 -0.52391773
2.0400906 -0.4901508 0.1415513 1.0898532 1.0592973 0.911569 1.0575325 0.31135923
-1.0280113 0.09022093 1.3575269 0.57353324 -0.7714498 -1.6278379 -0.6415507 0.64780384
-0.19196272 0.6191947 -0.10455932 -0.32130593 3.5781221 0.14921653 1.8313097 0.12423265
-1.2405378 -0.31554434 -0.6180511 0.7810764 -0.35546607 -0.52559274 -0.51713085 -0.5811804
1.2833769 1.954839 -0.33438507 -1.5743989 -0.92477155 -0.4605983 -0.066975966 -1.9596018
-1.3972713 1.3143767 0.24609223 0.60968286 0.48790917 -0.15199026 -0.50894845 -0.067175254
-0.84675246 1.256431 0.2731468 -0.2471002 0.107940786 -0.58262265 1.8873458 0.85084337
-1.2889868 0.83551663 -1.0637006 0.6656104 0.076563686 -0.60815704 -0.1968658 -0.48008782
0.39871448 0.22695258 1.7374002 -0.4915165 -0.526328 1.4940931 0.7175503 -2.4815443
-1.4984205 0.48301896 0.2781542 0.067677386 0.2549559 1.0449094 -1.0183393 0.39742994
-0.37908697 -0.21737051 0.04918759 0.44527796 -0.5186731 -1.6244007 2.3537114 -0.686703
0.027195388 -0.21419834 0.45922837 1.5142721 -0.003886347 0.16091082 -1.278664 -0.026981436
0.8614777 0.6151053 1.5001726 -1.4513558 -1.3852365 0.3409862 0.012055894 -0.9828809
-1.4066862 0.24385972 -1.0612385 -0.23342645 0.4089557 2.0059338 -1.6544263 -0.64144593
0.9793655 0.9679196 1.7256565 0.31498837 -3.2118812 -0.67627364 0.63853425 0.70337546
-0.17998408 1.1483456 0.58297986 1.2272701 0.053302035 -0.20766391 -0.72441274 -0.1329996
1.975998 0.8055887 0.36242962 -0.6022658 0.46643862 -0.3039835 0.48141423 0.027977055
0.020293295 -0.27457213 -0.3195438 -0.25356892 0.02070652 1.5053302 -1.3205537 -0.40229264
-0.17340319 -1.2052587 0.09507192 0.03496566 -1.2493836 -1.4823121 0.09889593 -0.038537197
-0.18640697 0.93822825 0.79563653 1.1447301 -0.33695242 -0.25429872 -0.8808817 0.048701838
0.8860789 0.6037354 -1.7527815 -0.051850174 0.86243165 -0.2005407 -0.1284667 2.2442453
-0.5253114 0.06373186 -0.5432379 -0.8412559 0.22328688 2.307954 -1.2551311 -0.118564606
-0.7684083 0.1883766 2.6800313 0.9927312 0.80906665 -2.8453774 -2.8439872 -0.23703504
0.05677469 1.7083087 0.930132 1.1669476 -0.18772285 -0.30415472 -0.88140625 0.07440722
0.43917233 0.25613204 -1.7797505 0.34115955 1.8422285 1.1866517 -0.17648183 1.2784723
1.067972 -0.48697513 -0.5208228 0.60689384 -0.4974652 0.40528232 -1.1545997 -0.45679328
00000000: 16ba 36bf 01a6 0bc0 775a 10be 321c 2d3d
00000010: 672a d23f 7081 373f 4d84 1e3f d194 8d3f
00000020: 0f9f c5bf 170a a6bf c503 14be 5108 883e
00000030: 6fa0 90bf 130d 1fbf f4cf d8be b4fe d8be
00000040: b94b d2be 962c fa3e 0a77 10bf edbb 06bf
00000050: 62fa a3bf 488b febf 06d8 2c3f 7556 2a40
00000060: 6e3e 8fbe 25d2 4c3f 4934 5a3f 3042 9c3f
00000070: f371 23bf db28 3dc0 4172 0b3f cf1b babe
00000080: 87d8 57bf b41c c6bf 6d8d a23f 3da9 a1bd
00000090: 985f 3040 d379 d63e 5986 1cbe 0e8f 6d3f
000000a0: ec99 9fbf eb29 5bbf 6290 ccbe 9f3b f53e
000000b0: e3c9 66bf 5abf 17bf 4b11 15bf 791f 06bf
000000c0: d890 0240 0cf5 fabe d3f2 103e 4f80 8b3f
000000d0: 0e97 873f 965c 693f 3a5d 873f 7a6a 9f3e
000000e0: e095 83bf c0c5 b83d 71c3 ad3f 13d3 123f
000000f0: bc7d 45bf fe5c d0bf ab3c 24bf 79d6 253f
00000100: e091 44be 8b83 1e3f 3223 d6bd 3682 a4be
00000110: f4ff 6440 38cc 183e 5b68 ea3f b06d fe3d
00000120: f1c9 9ebf 078f a1be 9938 1ebf 9ff4 473f
00000130: a6ff b5be 3f8d 06bf b062 04bf 3dc8 14bf
00000140: b245 a43f 2a38 fa3f 8534 abbe e785 c9bf
00000150: d4bd 6cbf 8ad3 ebbe b22a 89bd 3bd4 fabf
00000160: c9d9 b2bf 7f3d a83f 9aff 7b3e 2d14 1c3f
00000170: 3bcf f93e 56a3 1bbe 724a 02bf 2e93 89bd
00000180: c5c4 58bf bbd2 a03f e6d9 8b3e d607 7dbe
00000190: 0f10 dd3d c226 15bf 8c94 f13f dfd0 593f
000001a0: 85fd a4bf 6be4 553f 5727 88bf 7165 2a3f
000001b0: 6ccd 9c3d 2eb0 1bbf 3097 49be 12ce f5be
000001c0: 4e24 cc3e 4266 683e 2163 de3f 0da8 fbbe
000001d0: 6fbd 06bf 713e bf3f 60b1 373f 9fd1 1ec0
000001e0: 3ecc bfbf 434e f73e 3a6a 8e3e 719a 8a3d
000001f0: 9489 823e 97bf 853f f158 82bf f07b cb3e
00000200: b017 c2be 6096 5ebe ed78 493d 79fb e33e
00000210: c3c7 04bf 5dec cfbf 35a3 1640 c5cb 2fbf
00000220: ddc8 de3c cf56 5bbe fb1f eb3e abd3 c13f
00000230: 15b2 7ebb cec5 243e 43ab a3bf 2c08 ddbc
00000240: cd89 5c3f 8a77 1d3f a805 c03f 07c6 b9bf
00000250: 6e4f b1bf be95 ae3e 1686 453c 159e 7bbf
00000260: 4b0e b4bf 5db6 793e aad6 87bf 5807 6fbe
00000270: a462 d13e 3861 0040 3ec4 d3bf cd35 24bf
00000280: b3b7 7a3f 94c9 773f 50e2 dc3f 2846 a13e
00000290: 768f 4dc0 4520 2dbf fb76 233f 6a10 343f
000002a0: bf4d 38be fdfc 923f 2b3e 153f 3017 9d3f
000002b0: 3c53 5a3d d9a5 54be 1d73 39bf 0c31 08be
000002c0: 81ed fc3f 103b 4e3f 6090 b93e 172e 1abf
000002d0: 0bd1 ee3e baa3 9bbe ed7b f63e 2330 e53c
000002e0: 203e a63c b894 8cbe 3f9b a3be c9d3 81be
000002f0: b8a0 a93c a9ae c03f e707 a9bf 4df9 cdbe
00000300: 9b90 31be eb45 9abf 11b5 c23d 2738 0f3d
00000310: cdeb 9fbf 67bc bdbf f389 ca3d 2ed9 1dbd
00000320: 78e1 3ebe ba2f 703f d6ae 4b3f 8486 923f
00000330: 0785 acbe 7133 82be 7781 61bf 947b 473d
00000340: 11d6 623f 678e 1a3f 255b e0bf d960 54bd
00000350: 52c8 5c3f 8b5a 4dbe c68c 03be b7a1 0f40
00000360: cf7a 06bf d985 823d a411 0bbf 8c5c 57bf
00000370: 51a5 643e 85b5 1340 23a8 a0bf 00d2 f2bd
00000380: 68b6 44bf cce5 403e a285 2b40 a223 7e3f
00000390: fe1e 4f3f aa1a 36c0 e303 36c0 50b9 72be
000003a0: 948c 683d dca9 da3f 211d 6e3f 8a5e 953f
000003b0: 6b3a 40be 2bba 9bbe d7a3 61bf d062 983d
000003c0: 32db e03e bd23 833e ddce e3bf 77ac ae3e
000003d0: 25ce eb3f 34e4 973f a7b7 34be fba4 a33f
000003e0: 4eb3 883f ce54 f9be a554 05bf 655d 1b3f
000003f0: c2b3 febe 2a81 cf3e ecc9 93bf cfe0 e9be

tokenizer.positional_embedding.weight f4 [9, 32]
0.6001745 -0.18841296 -0.45087293 0.3480596 0.35655212 1.6728233 -0.053977106 -0.48785886
-0.57115245 0.7258915 2.0825465 -1.2851124 -1.0335082 -0.76885504 0.5752196 -0.01779227
0.29040277 -0.6384049 0.58340925 1.2975286 -0.22764263 -0.081428096 0.2542063 0.34738997
-0.8921506 0.8573869 1.7615757 -0.04621045 -0.090752125 0.12943919 -0.63090265 -3.0354862
1.0436898 0.5508229 0.58228856 0.24579489 1.1721159 0.22043814 0.27749333 -0.14858265
2.005028 0.6083885 -0.9982495 -0.22032446 -0.3683013 0.36677605 0.97949547 -1.0391816
-0.061172064 -0.83140326 0.57815546 -1.5416286 0.9600974 0.22331953 0.6484478 0.6607964
0.75950235 -0.34352636 1.3624719 -2.0875025 0.6238634 0.5650372 1.8671219 -0.92384166
0.06709498 0.85757613 -0.041730966 -0.68131673 -0.1045532 -0.33886412 -0.17761827 1.0189401
0.7578405 0.42855635 -1.4552821 -1.7300241 1.6596354 -0.097515896 -1.9164333 0.8556801
0.4460168 0.75943476 -0.3557605 -0.694447 1.3485575 -1.2257878 -0.4521442 -0.35921916
-0.038838293 -0.425515 -0.40925276 -1.2139508 -0.18811728 -0.7797394 1.1427971 -1.3414284
-0.78266954 -1.7640282 -1.3886377 -0.66177523 -0.264243 -0.8318308 0.3322462 -0.5207815
-0.8016485 -0.048853453 -0.35003266 -1.6853963 1.7987571 -0.8618756 -1.4368467 0.2244571
-0.45211414 -1.2748528 -0.72533935 -2.5761762 1.5464963 0.5185945 -0.32203016 -1.0897732
1.1876767 1.5651008 0.5393244 -0.7258659 0.5995999 -0.5809183 -1.2242222 -0.7253604
1.2635463 -0.087557524 0.321267 -1.4819791 0.428903 -1.4780393 0.36647585 0.49542505
-0.6074244 0.9120828 2.3719068 0.57339144 -0.61288464 -0.19958177 0.057212844 -0.14391842
0.011819775 -1.2236198 1.0753886 0.33249488 0.17586778 0.8681985 -0.9015545 -0.52726614
0.95484394 0.19655132 -0.24972579 -0.25978008 1.7393025 0.34647697 1.460109 1.406384
-0.58707565 -1.1670027 1.6161209 -1.5211785 -0.073646896 0.7743754 0.6614787 -0.6881842
-0.6989911 -0.14071193 -0.3709935 0.6770147 -0.48108947 1.2510554 0.42140195 -1.4569131
-1.7191483 1.049592 0.3398472 0.72395265 -0.48334956 2.1237411 0.40995985 0.74785376
-0.19731984 0.5407668 -2.23318 -0.09153881 -0.5228942 0.22630407 -0.8927561 0.798765
-0.53577226 0.5364303 -0.07740316 -0.052526105 0.051974088 -0.718252 -1.7379882 -0.6886489
0.2484847 -1.3921614 -1.0811449 -0.037117455 -1.7555375 1.1072115 -0.48822916 1.442736
0.5797878 -0.32153878 -1.639753 0.11920826 -0.7294404 0.95188016 1.4321817 -0.9890852
-0.44586948 0.2809764 0.37944618 1.2894684 -0.6201487 1.0793291 1.0438391 0.42380506
-1.5665709 0.8537349 -1.6194613 0.19547933 -0.0589752 0.5496174 -0.30703136 0.9560364
1.3431745 -1.68128 -0.49344414 1.1782852 -0.7412989 -1.1960546 0.4056452 1.9279631
0.56347555 0.27127716 0.16324514 -1.746798 0.04155257 0.40537602 -0.9697172 -0.61474293
0.6098784 -2.238683 0.050070323 -0.4856226 -1.8927289 -0.8618504 -0.47649062 1.3216342
00000000: 09a5 193f 54ef 40be d1d8 e6be de34 b23e
00000010: 008e b63e 131f d63f 1917 5dbd a3c8 f9be
00000020: 0c37 12bf 06d4 393f 7148 0540 907e a4bf
00000030: ff49 84bf afd3 44bf 9741 133f 18c1 91bc
00000040: acaf 943e 816e 23bf 4f5a 153f 6b15 a63f
00000050: 261b 69be c6c3 a6bd 5427 823e 19dd b13e
00000060: fb63 64bf b57d 5b3f 507b e13f 2b47 3dbd
00000070: 40dc b9bd b58b 043e d682 21bf 6845 42c0
00000080: a197 853f bb02 0d3f dd10 153f a8b1 7b3e
00000090: e507 963f 89ba 613e 9b13 8e3e 0d26 18be
000000a0: 6152 0040 59bf 1b3f 478d 7fbf bc9c 61be
000000b0: fd91 bcbe 12ca bb3e 37c0 7a3f e703 85bf
000000c0: 8f8f 7abd d8d6 54bf ff01 143f 1654 c5bf
000000d0: f1c8 753f e0ad 643e ad00 263f f429 293f
000000e0: bf6e 423f b0e2 afbe 7b65 ae3f a499 05c0
000000f0: 83b5 1f3f 47a6 103f dafd ee3f e380 6cbf
00000100: 1869 893d 1c8a 5b3f 17ee 2abd c66a 2ebf
00000110: fd1f d6bd 997f adbe 90e1 35be a16c 823f
00000120: d601 423f bd6b db3e af46 babf 6e71 ddbf
00000130: ef6e d43f 6ab6 c7bd b04d f5bf da0d 5b3f
00000140: 505c e43e 516a 423f 3e26 b6be 47c7 31bf
00000150: 889d ac3f 9de6 9cbf 727f e7be 93eb b7be
00000160: e714 1fbd 1add d9be 9489 d1be bd62 9bbf
00000170: d1a1 40be 009d 47bf 2d47 923f edb3 abbf
00000180: 085d 48bf adcb e1bf e1be b1bf 1a6a 29bf
00000190: dc4a 87be ddf2 54bf 2d1c aa3e f051 05bf
000001a0: d638 4dbf 8f1a 48bd 7b37 b3be 11bb d7bf
000001b0: ac3d e63f e1a3 5cbf 98ea b7bf 15d8 653e
000001c0: 817b e7be 602e a3bf d7af 39bf 12e0 24c0
000001d0: 97f3 c53f 9cc2 043f 23e1 a4be b07d 8bbf
000001e0: ca05 983f 3955 c83f 2a11 0a3f 59d2 39bf
000001f0: 617f 193f 10b7 14bf 50b3 9cbf 38b1 39bf
00000200: e3bb a13f 5c51 b3bd 1c7d a43e 7eb1 bdbf
00000210: 2d99 db3e 6430 bdbf b9a2 bb3e 5aa8 fd3e
00000220: 2a80 1bbf 427e 693f 52cd 1740 c8c9 123f
00000230: 02e6 1cbf 2a5f 4cbe 0458 6a3d 5a5f 13be
00000240: bba7 413c 939f 9cbf 55a6 893f c53c aa3e
00000250: af16 343e 4242 5e3f 47cc 66bf eafa 06bf
00000260: a770 743f c044 493e 1eb8 7fbe e501 85be
00000270: 77a1 de3f 6e65 b13e dae4 ba3f 6404 b43f
00000280: 974a 16bf 5860 95bf 0ddd ce3f fab5 c2bf
00000290: 2fd4 96bd 773d 463f ab56 293f d72c 30bf
000002a0: 15f1 32bf ca16 10be dcf2 bdbe d650 2d3f
000002b0: 5c51 f6be 9522 a03f ffc1 d73e 217c babf
000002c0: 0d0d dcbf 0859 863f 7400 ae3e f654 393f
000002d0: 9879 f7be 60eb 0740 42e6 d13e 5873 3f3f
000002e0: 360e 4abe b16f 0a3f 6cec 0ec0 b378 bbbd
000002f0: 65dc 05bf 41bc 673e aa8b 64bf dd7b 4c3f
00000300: 5f28 09bf 7f53 093f 8c85 9ebd 9d25 57bd
00000310: c8e2 543d 5ddf 37bf 6676 debf 4b4b 30bf
00000320: c672 7e3e 5832 b2bf f562 8abf 7908 18bd
00000330: 74b5 e0bf 1bb9 8d3f 2cf9 f9be 93ab b83f
00000340: f96c 143f bba0 a4be 6de3 d1bf 7623 f43d
00000350: 9bbc 3abf 6bae 733f bb51 b73f b034 7dbf
00000360: 0149 e4be 24dc 8f3e c546 c23e 4d0d a53f
00000370: 11c2 1ebf 7527 8a3f 859c 853f fafc d83e
00000380: 6585 c8bf 5f8e 5a3f 824a cfbf bc2b 483e
00000390: fb8f 71bd bab3 0c3f 3733 9dbe cdbe 743f
000003a0: 24ed ab3f 2f34 d7bf b6a4 fcbe 0dd2 963f
000003b0: c4c5 3dbf 5118 99bf bab0 cf3e 7fc7 f63f
000003c0: ef3f 103f d7e4 8a3e bc29 273e 1497 dfbf
000003d0: 0733 2a3d 728d cf3e 633f 78bf cb5f 1dbf
000003e0: fe20 1c3f 9546 0fc0 8a16 4d3d 87a3 f8be
000003f0: f144 f2bf 3aa2 5cbf 94f6 f3be 4f2b a93f

encoder_layer_mhattentions.0.attention_heads.0.Q.weight f4 [8, 8]
-0.12601915 0.10336245 -0.13884383 0.30024934 0.020388406 0.14534877 -0.20362866 -0.05987889
0.14074932 -0.030273553 -0.3199909 -0.10972427 0.08759768 -0.13581698 -0.26736912 0.007847254
0.11148106 0.012040854 -0.037635617 -0.17199023 -0.07388069 -0.017420942 -0.021951273 0.040331025
-0.10600338 0.031078035 0.038446244 0.14789304 0.041277923 0.035517965 -0.023201562 -0.016719075
0.09167366 -0.11039325 -0.15497369 -0.09853845 -0.10877452 -0.30490503 0.13280112 0.15090491
-0.30913407 0.04914289 0.13504416 -0.042670015 -0.07315213 0.118698254 0.0014778217 -0.15812178
-0.045623977 0.08469075 0.1603964 -0.09210928 -0.06588276 0.28582585 -0.15726708 -0.4120849
-0.37986302 0.13570984 -0.06723211 0.598025 -0.11842348 0.6194153 0.0019637567 -0.5493381
00000000: 2a0b 01be b1af d33d 142d 0ebe 48ba 993e
00000010: 9605 a73c 4fd6 143e 0884 50be 9143 75bd
00000020: 9720 103e 3e00 f8bc d9d5 a3be 1eb7 e0bd
00000030: 6a66 b33d 9b13 0bbe 9be4 88be c591 003c
00000040: 2f50 e43d 0147 453c ce27 1abd 351e 30be
00000050: c24e 97bd 5db6 8ebc 28d3 b3bc 2532 253d
00000060: 4d18 d9bd 5d97 fe3c cf79 1d3d 4671 173e
00000070: 0a13 293d 497b 113d 3411 bebc 71f6 88bc
00000080: 66bf bb3d db15 e2bd 6cb1 1ebe 87ce c9bd
00000090: 2dc5 debd 831c 9cbe 04fd 073e d186 1a3e
000000a0: d246 9ebe 0e4a 493d 0449 0a3e c1c6 2ebd
000000b0: c9d0 95bd 1218 f33d 78b3 c13a adea 21be
000000c0: 35e0 3abd 5872 ad3d f43e 243e caa3 bcbd
000000d0: 8aed 86bd c457 923e 9f0a 21be cbfc d2be
000000e0: 687d c2be 85f7 0a3e fdb0 89bd 2b18 193f
000000f0: 0288 f2bd 0092 1e3f 5fb2 003b 6ca1 0cbf

encoder_layer_mhattentions.0.attention_heads.0.Q.bias f4 [8]
0.09608988 -0.58895254 -0.013251263 0.0037002494 0.12336946 -0.23865226 0.94394183 0.18393826
00000000: c5ca c43d 98c5 16bf d31b 59bc e27f 723b
00000010: 21a9 fc3d 4261 74be 2ca6 713f 505a 3c3e

encoder_layer_mhattentions.0.attention_heads.0.K.weight f4 [8, 8]
0.20649531 0.24388677 -0.5069035 0.22721778 -0.11604035 -0.03944906 -0.020443419 0.0341167
-0.38303733 -0.069336824 -0.025345167 0.42420337 0.15353078 0.04951245 0.01660381 0.3777798
-0.09327473 -0.06362286 0.03199885 -0.035889067 0.06856361 0.028544564 -0.07008791 0.04108175
0.046334583 0.10961955 -0.025184406 0.043768935 -0.0877864 -0.035051674 0.040092368 -0.044143032
-0.11001742 0.029895507 0.32666796 -0.20110895 -0.11120097 0.18628447 -0.019842755 -0.06905945
0.14402805 0.19693567 -0.25971407 0.14987956 0.06933432 -0.38503033 -0.24168058 -0.095072806
0.1697821 -0.05051498 -0.47682005 -0.4235509 -0.14217058 0.014086309 -0.28500974 -0.16018437
0.46827418 0.04570535 -0.59447396 0.1492952 -0.008488487 -0.35512236 -0.20250723 0.345746
00000000: 8273 533e 74bd 793e 6ec4 01bf c7ab 683e
00000010: 90a6 edbd 5695 21bd f578 a7bc f4bd 0b3d
00000020: 781d c4be 7700 8ebd aba0 cfbc 2f31 d93e
00000030: 2c37 1d3e 91cd 4a3d b704 883c 5b6c c13e
00000040: d206 bfbd b44c 82bd 3a11 033d 6a00 13bd
00000050: 146b 8c3d 4ad6 e93c 408a 8fbd 5645 283d
00000060: 55c9 3d3d 3780 e03d 874f cebc 0e47 333d
00000070: 5bc9 b3bd 5892 0fbd e537 243d 53cf 34bd
00000080: d050 e1bd 6ce7 f43c 0641 a73e 81ef 4dbe
00000090: 56bd e3bd 5bc1 3e3e 468d a2bc 0a6f 8dbd
000000a0: 177c 133e 81a9 493e 3ef9 84be 077a 193e
000000b0: 27ff 8d3d b222 c5be 1d7b 77be 88b5 c2bd
000000c0: 5cdb 2d3e cce8 4ebd c221 f4be aadb d8be
000000d0: 2a95 11be 43ca 663c ccec 91be 5f07 24be
000000e0: a2c1 ef3e 8835 3b3d 722f 18bf d7e0 183e
000000f0: 4c13 0bbc 99d2 b5be 0e5e 4fbe 9f05 b13e

encoder_layer_mhattentions.0.attention_heads.0.K.bias f4 [8]
0.08036293 0.13920084 -0.006465888 -0.09000245 -0.15041941 -0.10821869 -0.047892604 -0.14130342
00000000: 5295 a43d aa8a 0e3e cddf d3bb 3453 b8bd
00000010: 8c07 1abe c3a1 ddbd 092b 44bd d8b1 10be

encoder_layer_mhattentions.0.attention_heads.0.V.weight f4 [8, 8]
0.37574124 0.1764713 -0.17315508 0.13370855 0.05397024 -0.03184365 -0.032592002 -0.6176691
0.1572342 0.1925753 -0.044922203 -0.43917608 -0.053494126 0.47646797 -0.10323741 -0.21041334
0.28233737 0.18695898 0.1205915 -0.034690727 0.31256393 0.20879933 -0.21521531 0.19902241
-0.0541852 -0.017861921 0.13384096 -0.022455908 -0.12274757 -0.27519298 0.14980876 0.5677861
0.16973576 -0.30348077 -0.25849336 -0.34995925 -0.013998473 0.16609518 -0.24756654 0.27464005
-0.22972295 -0.069827475 -0.078280166 0.34043252 0.03528405 0.07466609 0.15549675 0.25523534
-0.19256312 0.13862352 0.027157413 0.17653568 -0.21644326 -0.006320709 -0.30222985 0.35465688
-0.09561951 -0.10427944 -0.10185441 0.1625706 -0.12792432 0.23108745 -0.2361157 0.2691015
00000000: 2861 c03e e4b4 343e 914f 31be e5ea 083e
00000010: e60f 5d3d 7d6e 02bd 317f 05bd 901f 1ebf
00000020: 0102 213e 7632 453e 5800 38bd b0db e0be
00000030: a81c 5bbd 9cf3 f33e 236e d3bd 9876 57be
00000040: 868e 903e 2d72 3f3e adf8 f63d dd17 0ebd
00000050: 6108 a03e 7ecf 553e 6761 5cbe 88cc 4b3e
00000060: 4df1 5dbd 2a53 92bc 9b0d 093e 74f5 b7bc
00000070: 1463 fbbd 18e6 8cbe 7867 193e 6e5a 113f
00000080: 36cf 2d3e d561 9bbe 3e59 84be dc2d b3be
00000090: da59 65bc db14 2a3e 1582 7dbe 9f9d 8c3e
000000a0: 7e3c 6bbe b501 8fbd 5a51 a0bd 2c4d ae3e
000000b0: 0286 103d 89ea 983d 8a3a 1f3e 35ae 823e
000000c0: 442f 45be 53f3 0d3e 3979 de3c c5c5 343e
000000d0: 4da3 5dbe f31d cfbb dfbd 9abe 9695 b53e
000000e0: 29d4 c3bd 7690 d5bd 0b99 d0bd e878 263e
000000f0: 98fe 02be 30a2 6c3e 50c8 71be acc7 893e

encoder_layer_mhattentions.0.attention_heads.0.V.bias f4 [8]
-0.1907576 -0.25906837 -0.11175617 0.17473522 -0.13573739 0.08880526 0.15734716 0.05172127
00000000: f655 43be 9ca4 84be 6be0 e4bd caed 323e
00000010: befe 0abe 88df b53d 9d1f 213e afd9 533d

encoder_layer_mhattentions.0.attention_heads.1.Q.weight f4 [8, 8]
0.08141234 0.07241547 -0.14656243 0.01724036 0.04100339 0.10912788 0.1110295 0.0024170133
0.1413892 0.12749447 -0.104384884 0.2408559 -0.52546704 0.88289243 0.07028287 -0.94734913
-0.23544753 -0.07899593 0.43118525 -0.331916 0.6062117 0.43905312 -0.043955 -0.26864776
0.5751514 0.038372 0.048810784 -0.2634926 0.12967071 -0.6204632 0.4812426 -0.2761688
0.7549893 -0.36627188 -0.28042987 0.06327998 0.19745718 0.25151673 0.35574824 0.534019
-0.09633659 -0.056074463 -0.08707306 0.011413334 -0.17963538 0.4570501 -0.29405394 -0.16711108
-0.4687075 -0.13292289 0.51704 -0.04558457 -0.18896945 -0.06689272 -0.10020748 0.32492658
0.31111115 0.029006267 -0.10002295 0.18399958 0.20202222 0.081096284 0.18740761 -0.04986787
00000000: 83bb a63d 904e 943d 7614 16be a83b 8d3c
00000010: 2cf3 273d 707e df3d 6f63 e33d c166 1e3b
00000020: 55c8 103e e98d 023e bec7 d5bd eea2 763e
00000030: 0285 06bf 3d05 623f 77f0 8f3d 7985 72bf
00000040: 2819 71be 9ec8 a1bd 50c4 dc3e e5f0 a9be
00000050: b130 1b3f 92cb e03e 280a 34bd 338c 89be
00000060: 1f3d 133f f52b 1d3d d1ed 473d 81e8 86be
00000070: 66c8 043e add6 1ebf 6e65 f63e ff65 8dbe
00000080: fb46 413f fd87 bbbe 8194 8fbe ef98 813d
00000090: 3732 4a3e cdc6 803e a224 b63e 78b5 083f
000000a0: 1e4c c5bd 56ae 65bd 5c53 b2bd fefe 3a3c
000000b0: 56f2 37be 7902 ea3e 3d8e 96be 2b1f 2bbe
000000c0: 6efa efbe f01c 08be bc5c 043f e3b6 3abd
000000d0: 3581 41be 0dff 88bd 9439 cdbd c75c a63e
000000e0: f649 9f3e 8d9e ed3c d5d8 ccbd 636a 3c3e
000000f0: eade 4e3e cf15 a63d c8e7 3f3e 4042 4cbd

encoder_layer_mhattentions.0.attention_heads.1.Q.bias f4 [8]
0.0123584 0.14853 0.05330846 -0.00649648 -0.27989003 -0.040496543 -0.22478597 -0.06611825
00000000: e37a 4a3c 4018 183e f959 5a3d 6de0 d4bb
00000010: bf4d 8fbe b4df 25bd 4b2e 66be 0169 87bd

encoder_layer_mhattentions.0.attention_heads.1.K.weight f4 [8, 8]
-0.23808843 0.05844483 0.038667697 -0.04814885 0.1260772 -0.05426903 -0.1001845 0.2238034
-0.13619989 0.053397037 -0.56048054 -0.17082004 -0.12200495 0.13997105 -0.79931 0.96554834
0.07399745 0.10855237 -0.06114531 -0.08763696 -0.715293 0.81791216 0.13766564 -0.043978542
-0.23319751 0.22359434 -0.13873187 -0.36070994 0.24270013 0.59966487 -0.30680558 -0.4417238
-0.49074158 -0.28002596 0.2265841 0.105730936 0.72924125 0.14637104 0.10089042 0.16682798
0.0496815 0.11841003 -0.09996972 0.046112243 0.088517666 -0.10802186 0.016759602 0.37503684
0.4689385 -0.17062914 -0.26806623 0.36471447 -0.13242346 0.114770755 0.590664 -0.22171958
-0.33306143 -0.13160244 0.1984589 0.045886144 0.16000202 0.05443874 -0.2649412 0.11482428
00000000: 74cd 73be d963 6f3d 0562 1e3d bb37 45bd
00000010: 621a 013e 3449 5ebd 882d cdbd b82c 653e
00000020: fc77 0bbe dab6 5a3d a77b 0fbf 73eb 2ebe
00000030: bbdd f9bd 9254 0f3e 959f 4cbf 2d2e 773f
00000040: fa8b 973d b450 de3d 8173 7abd 027b b3bd
00000050: 711d 37bf b162 513f 39f8 0c3e d822 34bd
00000060: 54cb 6ebe eaf5 643e ba0f 0ebe f9ae b8be
00000070: 6286 783e a383 193f 9f15 9dbe 9f29 e2be
00000080: 7b42 fbbe 905f 8fbe aa05 683e 7689 d83d
00000090: 8eaf 3a3f 4ae2 153e a39f ce3d f4d4 2a3e
000000a0: d47e 4b3d f580 f23d edbc ccbd 31e0 3c3d
000000b0: c048 b53d 913a ddbd 6f4b 893c d404 c03e
000000c0: b518 f03e 68b9 2ebe fa3f 89be dbbb ba3e
000000d0: 049a 07be ee0c eb3d c235 173f 750a 63be
000000e0: 0787 aabe cac2 06be cf38 4b3e 1cf3 3b3d
000000f0: 92d7 233e 28fb 5e3d 5fa6 87be fe28 eb3d

encoder_layer_mhattentions.0.attention_heads.1.K.bias f4 [8]
-0.19381663 0.076889336 -0.0983608 0.26015434 0.0937786 -0.189534 0.046720166 -0.16366221
00000000: de77 46be 2878 9d3d 6371 c9bd f332 853e
00000010: ff0e c03d 3315 42be a55d 3f3d 1197 27be

encoder_layer_mhattentions.0.attention_heads.1.V.weight f4 [8, 8]
-0.25646064 -0.37527224 -0.08689345 -0.48559543 -0.36044532 -0.3749826 -0.066878684 0.021860294
-0.40153027 0.1528461 0.123456515 -0.07294264 -0.1746284 0.10855856 -0.052079108 0.16703439
0.18542416 -0.17748465 -0.22801733 -0.37692344 0.28291723 0.4079204 0.4262851 0.30420864
0.003747434 -0.062183794 0.12854248 0.28109118 0.055884246 0.033929102 -0.07330876 0.23608312
0.19673091 -0.08444115 0.1229459 -0.67557526 0.14534613 0.32505727 0.51223445 0.47266445
0.110478945 0.15874197 0.06897545 0.10301098 0.17765522 0.1399222 -0.119929574 -0.013337432
-0.040505175 -0.5189091 0.073542565 -0.21215895 0.12405521 0.27728704 0.43267265 -0.0052989363
-0.36446202 0.1590755 -0.058763705 -0.037727848 -0.34257454 0.24474987 -0.2196924 -0.17858653
00000000: cf4e 83be af23 c0be 31f5 b1bd f79f f8be
00000010: 4a8c b8be b8fd bfbe b1f7 88bd 5c14 b33c
00000020: 6095 cdbe b083 1c3e c5d6 fc3d f362 95bd
00000030: cad1 32be f353 de3d e750 55bd 100b 2b3e
00000040: d5df 3d3e 89be 35be 607d 69be 1cfc c0be
00000050: 87da 903e f1da d03e 0a42 da3e 3cc1 9b3e
00000060: 8297 753b 6fb4 7ebd a4a0 033e 2feb 8f3e
00000070: e1e6 643d 3ef9 0a3d e722 96bd c6bf 713e
00000080: d473 493e 7bef acbd 0fcb fb3d 80f2 2cbf
00000090: 9ed5 143e e86d a63e cc21 033f 1301 f23e
000000a0: c942 e23d 418d 223e 0043 8d3d 6cf7 d23d
000000b0: 40eb 353e c447 0f3e a39d f5bd 3f85 5abc
000000c0: c1e8 25bd 3ad7 04bf 7c9d 963d 3240 59be
000000d0: a810 fe3d 91f8 8d3e 4587 dd3e b3a2 adbb
000000e0: c49a babe b0e4 223e 36b2 70bd 8488 1abd
000000f0: ee65 afbe b69f 7a3e 0bf7 60be 63df 36be

encoder_layer_mhattentions.0.attention_heads.1.V.bias f4 [8]
0.14311028 -0.0780636 -0.37169012 -0.14825024 -0.34761325 -0.0930144 -0.25923082 0.039854836
00000000: 808b 123e cfdf 9fbd 2b4e bebe e9ce 17be
00000010: 5dfa b1be 557e bebd e7b9 84be d33e 233d

encoder_layer_mhattentions.0.attention_heads.2.Q.weight f4 [8, 8]
0.09215813 -0.5908519 0.16001461 -0.14845724 0.08560303 0.01601914 0.09421974 0.031170402
-0.14186652 0.037341837 0.3669581 -0.06257054 -0.033273302 0.20093422 -0.033741873 0.07460436
-0.046598624 0.6596118 -0.24645397 0.16473511 -0.21336396 0.41990823 0.44568148 0.08478043
-0.15680243 0.3073274 0.4489364 -0.22204043 0.12429899 -0.101570405 -0.24068068 0.34854552
0.20578414 -0.3435621 -0.03896937 0.7695559 -0.118529744 -0.72354406 -0.9395351 -0.54379785
0.041984115 0.03756909 0.030171804 -0.07017427 -0.047907352 -0.016332464 -0.04375109 -0.03481186
-0.14559908 0.5504727 0.29743612 0.88660765 0.022917923 -0.413085 -0.8902243 -0.14663982
0.029826766 0.2549694 -0.26427656 -0.3643903 -0.17044571 0.5447011 0.15280433 0.050964717
00000000: 67bd bc3d 1242 17bf dfda 233e 2d05 18be
00000010: a450 af3d 923a 833c 47f6 c03d 1259 ff3c
00000020: 7545 11be c1f3 183d efe1 bb3e fc24 80bd
00000030: 9649 08bd b3c1 4d3e eb34 0abd 2cca 983d
00000040: 33de 3ebd 52dc 283f 6e5e 7cbe 52b0 283e
00000050: 157c 5abe 36fe d63e 5d30 e43e 5da1 ad3d
00000060: d190 20be 045a 9d3e feda e53e 915e 63be
00000070: 7890 fe3d 2504 d0bd ff74 76be 8f74 b23e
00000080: 14b9 523e 5fe7 afbe 599e 1fbd 9e01 453f
00000090: b9bf f2bd 2f3a 39bf 5f85 70bf 5636 0bbf
000000a0: 89f7 2b3d 0ce2 193d dc2a f73c 87b7 8fbd
000000b0: 803a 44bd a9cb 85bc 5834 33bd e296 0ebd
000000c0: ed17 15be c7eb 0c3f 8c49 983e b8f8 623f
000000d0: 5ebe bb3c e17f d3be bde5 63bf c028 16be
000000e0: 4357 f43c 598b 823e 424f 87be 5e91 babe
000000f0: 5289 2ebe 8871 0b3f bd78 1c3e 61c0 503d

encoder_layer_mhattentions.0.attention_heads.2.Q.bias f4 [8]
0.10739081 0.2595526 0.19518317 0.026616182 -0.037340682 -0.011123081 -0.2865979 0.68989336
00000000: b7ef db3d 14e4 843e 19de 473e 2e0a da3c
00000010: 8bf2 18bd 953d 36bc f6bc 92be da9c 303f

encoder_layer_mhattentions.0.attention_heads.2.K.weight f4 [8, 8]
-0.18682866 0.17710556 -0.20414485 0.23806658 -0.14842623 -0.37178078 0.0060576303 -0.37702584
0.21506111 -0.58367157 0.11340223 -0.016970778 -0.04987932 -0.041956224 0.12797306 -0.039162338
-0.5997005 -0.2731551 0.58911294 0.10081627 0.49850866 0.06864877 -0.11360817 -0.16606411
0.22617246 -0.496935 -0.17174405 0.4168489 0.27940488 -0.2827591 0.065929085 -0.36218596
0.38722113 0.7743502 -0.09715754 0.028116355 -0.48181903 0.4714937 0.6363489 0.38812482
0.073179975 0.0026782537 -0.04895576 0.06765246 0.014295482 -0.043222733 -0.009779912 0.050727446
0.49172148 0.55811566 0.1206146 0.07078831 0.2220079 0.6138137 0.78966975 0.13517122
-0.28494126 -0.51825494 0.20729397 0.35303178 0.1237958 -0.21695329 -0.7426678 -0.22067183
00000000: 0350 3fbe 295b 353e 590b 51be bac7 733e
00000010: 0cfd 17be 0d5a bebe 167f c63b 8809 c1be
00000020: fb38 5c3e 806b 15bf 6e3f e83d 4d06 8bbc
00000030: 424e 4cbd 4ada 2bbd 5f0b 033e b068 20bd
00000040: f985 19bf fcda 8bbe 1bd0 163f c378 ce3d
00000050: 873c ff3e ba97 8c3d 66ab e8bd b60c 2abe
00000060: c199 673e 446e febe acdd 2fbe 386d d53e
00000070: 280e 8f3e cdc5 90be d405 873d 7070 b9be
00000080: d941 c63e d13b 463f 88fa c6bd 4554 e63c
00000090: fcb0 f6be 9f67 f13e c3e7 223f 4cb8 c63e
000000a0: 62df 953d a485 2f3b d685 48bd 5f8d 8a3d
000000b0: 9937 6a3c 520a 31bd ed3b 20bc 95c7 4f3d
000000c0: ebc2 fb3e abe0 0e3f ca04 f73d 76f9 903d
000000d0: 0a56 633e e522 1d3f cc27 4a3f 536a 0a3e
000000e0: d2e3 91be 5bac 04bf df44 543e 95c0 b43e
000000f0: a788 fd3d 0129 5ebe 7a1f 3ebf ccf7 61be

encoder_layer_mhattentions.0.attention_heads.2.K.bias f4 [8]
0.30050996 0.08770946 -0.24505268 -0.20676298 -0.10997157 -0.2766102 0.24505165 0.069189295
00000000: 71dc 993e 04a1 b33d 17ef 7abe adb9 53be
00000010: c638 e1bd da9f 8dbe d2ee 7a3e 1eb3 8d3d

encoder_layer_mhattentions.0.attention_heads.2.V.weight f4 [8, 8]
-0.14932348 0.21731587 0.15844874 0.26892844 -0.17115273 0.22104064 -0.26247025 0.00476426
-0.058294795 -0.060230263 -0.22513068 -0.32863587 0.09037287 0.1971132 0.12967898 -0.08589353
0.12024661 0.061376143 -0.09166038 -0.018722516 0.032583 0.06743728 -0.06556229 -0.049182
0.06549942 -0.050462686 -0.28274384 0.1704822 0.2190941 0.11707055 0.23164591 -0.07726193
0.042332638 0.012980246 -0.11477845 -0.014073103 -0.012246381 0.015867028 0.04928227 -0.104390174
-0.08052191 -0.042960018 -0.06907442 0.32075062 -0.2564731 -0.078008205 0.32689658 -0.12985192
-0.021810802 0.23628862 -0.27901626 0.17561828 0.08156436 -0.20240021 -0.09348143 -0.26896867
0.17210092 -0.2676552 0.037463933 -0.024018612 -0.04012501 0.049514256 -0.38654113 0.06013608
00000000: 41e8 18be 0d88 5e3e 6340 223e fdb0 893e
00000010: a942 2fbe 7a58 623e 8062 86be 821d 9c3b
00000020: 86c6 6ebd 02b4 76bd a888 66be f642 a8be
00000030: 6915 b93d 0bd8 493e 91ca 043e f2e8 afbd
00000040: db43 f63d 8d65 7b3d 70b8 bbbd f65f 99bc
00000050: c075 053d 8f1c 8a3d 8645 86bd 1173 49bd
00000060: 8f24 863d f6b1 4ebd cdc3 90be e392 2e3e
00000070: 345a 603e afc2 ef3d 9634 6d3e 813b 9ebd
00000080: fd64 2d3d 19ab 543c f710 ebbd df92 66bc
00000090: 0ba5 48bc 92fb 813c 35dc 493d 84ca d5bd
000000a0: ace8 a4bd d8f6 2fbd e476 8dbd 6d39 a43e
000000b0: 7150 83be c4c2 9fbd fd5e a73e e7f7 04be
000000c0: 91ac b2bc a5f5 713e 38db 8ebe 47d5 333e
000000d0: 370b a73d 0042 4fbe 3173 bfbd 43b6 89be
000000e0: 393b 303e 1a0a 89be c873 193d aec2 c4bc
000000f0: 1f5a 24bd 76cf 4a3d b8e8 c5be 4051 763d

encoder_layer_mhattentions.0.attention_heads.2.V.bias f4 [8]
0.3790796 -0.28576013 0.11750105 -0.054564733 -0.023071257 0.34270042 0.027524823 -0.109765664
00000000: b916 c23e 274f 92be 64a4 f03d 457f 5fbd
00000010: efff bcbc 6e76 af3e bd7b e13c d2cc e0bd

encoder_layer_mhattentions.0.attention_heads.3.Q.weight f4 [8, 8]
0.2351253 -0.10618224 -0.43097237 -0.59665924 0.48290703 -0.36305577 0.26738358 0.5468764
0.05913732 0.17363633 0.054568063 0.36966324 -0.12378228 0.186997 0.019091737 0.20617743
-0.030088859 0.16627318 -0.13762665 0.085496545 0.045869995 0.10797054 0.25253993 -0.36043236
-0.2490049 -0.034694135 -0.041783396 -0.14968763 -0.21648291 -0.12413083 0.1875497 0.07205291
-0.058324132 -0.35979226 0.11011476 -0.15323505 0.5867263 -0.21971561 -0.50430703 -0.13127878
0.18811694 0.53073245 0.0070774485 0.019397527 -0.42842504 0.21862744 0.14330885 0.095723495
-0.33717567 -0.45118776 -0.25595856 -0.31050092 0.49076706 -0.54218334 -0.1421093 0.12629345
0.25640258 0.10229256 0.13557278 -0.5280844 0.5125005 -0.31452563 -0.43262863 -0.08137424
00000000: b0c4 703e 1376 d9bd 69a8 dcbe a9be 18bf
00000010: 973f f73e 72e2 b9be 80e6 883e 1700 0c3f
00000020: f939 723d b9cd 313e c382 5f3d 8044 bd3e
00000030: 9081 fdbd 247c 3f3e 4666 9c3c 2d20 533e
00000040: e97c f6bc 8443 2a3e 00ee 0cbe d018 af3d
00000050: 2de2 3b3d a91f dd3d ea4c 813e 978a b8be
00000060: 24fb 7ebe 701b 0ebd 1125 2bbd b747 19be
00000070: b2ad 5dbe 4e38 febd 070d 403e 7a90 933d
00000080: 49e5 6ebd b136 b8be d983 e13d a6e9 1cbe
00000090: b233 163f 21fd 60be 441a 01bf f26d 06be
000000a0: baa1 403e 15de 073f f1e9 e73b 90e7 9e3c
000000b0: 875a dbbe dfdf 5f3e 8ebf 123e ae0a c43d
000000c0: 4aa2 acbe 1502 e7be 000d 83be faf9 9ebe
000000d0: d245 fb3e 87cc 0abf 1a85 11be 1253 013e
000000e0: 3347 833e c37e d13d 97d3 0a3e 8a30 07bf
000000f0: 3c33 033f 8109 a1be 8081 ddbe 8aa7 a6bd

encoder_layer_mhattentions.0.attention_heads.3.Q.bias f4 [8]
-0.38737124 -0.1269453 0.17157808 -0.28287217 0.20487235 0.56338185 -0.37147048 0.49434477
00000000: 8655 c6be f3fd 01be 2ab2 2f3e 9fd4 90be
00000010: 0fca 513e cb39 103f 6131 bebe c21a fd3e

encoder_layer_mhattentions.0.attention_heads.3.K.weight f4 [8, 8]
-0.44753194 0.44083446 -0.03801324 -0.19541565 -0.38870665 -0.06434591 -0.6648205 -0.53967583
0.15807444 -0.4091261 0.080360815 0.5961366 0.16572227 0.3601212 -0.0929158 -0.13509385
-0.48628458 -0.03383014 -0.17964475 0.035839044 0.3804342 -0.1341379 0.30865955 -0.28907424
-0.0807871 0.094755754 0.24282421 -0.34351036 0.024757601 -0.08058132 -0.22860876 0.16498539
0.530773 0.33136636 -0.23535678 -0.42913035 -0.25115547 -0.06556499 -0.07480948 0.112961054
-0.4105102 -0.5123692 -0.32557556 0.4935836 0.18723762 0.2022793 0.14359426 0.0040898817
0.13184643 0.61779255 0.26236555 -0.51591027 -0.27115 -0.09892657 -0.21519516 -0.06540765
-0.1403079 0.38231033 -0.6637811 -0.45245147 -0.2716493 -0.07801282 0.27618214 -0.023168022
00000000: e822 e5be 0eb5 e13e c5b3 1bbd 0a1b 48be
00000010: 8f04 c7be cac7 83bd ad31 2abf 3228 0abf
00000020: 44de 213e fa78 d1be 3694 a43d 699c 183f
00000030: 19b3 293e ce61 b83e a44a bebd 0b56 0abe
00000040: 4bfa f8be 7991 0abd cbf4 37be f6cb 123d
00000050: 45c8 c23e 725b 09be a008 9e3e 8a01 94be
00000060: b573 a5bd 4e0f c23d e9a6 783e 97e0 afbe
00000070: 74d0 ca3c d207 a5bd 6a18 6abe eef1 283e
00000080: bde0 073f daa8 a93e 5e01 71be f9b6 dbbe
00000090: 7397 80be f046 86bd b635 99bd 2058 e73d
000000a0: 652e d2be a12a 03bf d7b1 a6be fdb6 fc3e
000000b0: 38bb 3f3e 4e22 4f3e 600a 133e 6a04 863b
000000c0: c002 073e a727 1e3f c754 863e b212 04bf
000000d0: 2cd4 8abe 039a cabd 1f5c 5cbe 72f4 85bd
000000e0: e0ac 0fbe 2ebe c33e 8fed 29bf b8a7 e7be
000000f0: 9e15 8bbe 2fc5 9fbd bf67 8d3e ddca bdbc

encoder_layer_mhattentions.0.attention_heads.3.K.bias f4 [8]
-0.23563094 0.010743243 -0.13546813 0.26564598 0.39669412 0.2318981 0.19761668 0.13659994
00000000: 3d49 71be 6d04 303c 28b8 0abe c002 883e
00000010: 7e1b cb3e b276 6d3e 075c 4a3e dbe0 0b3e

encoder_layer_mhattentions.0.attention_heads.3.V.weight f4 [8, 8]
-0.09668885 -0.10925112 -0.0008020901 -0.22050403 0.052652065 -0.122717194 -0.03408696 -0.06376196
-0.27262363 0.038406845 0.001697778 0.08619993 0.24649791 -0.07345804 -0.15066874 -0.15768863
-0.13832465 0.18827529 0.21203835 0.23867142 -0.2648398 0.24842367 -0.04442556 0.3196325
-0.2561968 -0.0687534 -0.0406669 0.12600207 0.030702977 -0.016856272 0.04922772 0.16877033
-0.23028232 -0.28122067 -0.081742585 0.13189746 -0.2784348 0.2577698 0.35761973 -0.02836619
-0.025179444 -0.06274472 -0.2376683 0.1817293 0.053571034 0.020066785 -0.01135448 -0.3779685
0.26760465 0.40525678 -0.16591436 0.097671635 -0.32007995 0.017011652 -0.20616591 0.08544785
0.19352046 0.16353005 0.165466 0.23595457 0.22233796 0.05998321 -0.358346 0.2643375
00000000: ce04 c6bd 0dbf dfbd 5b43 52ba cfcb 61be
00000010: b1a9 573d 2753 fbbd c59e 0bbd a195 82bd
00000020: 5395 8bbe 7f50 1d3d fa87 de3a 9789 b03d
00000030: f369 7c3e 2b71 96bd e848 1abe 2179 21be
00000040: faa4 0dbe 3dcb 403e 9520 593e 4866 743e
00000050: 1599 87be c662 7e3e 93f7 35bd dfa6 a33e
00000060: 3a2c 83be 95ce 8cbd 5692 26bd b006 013e
00000070: cf84 fb3c 2a16 8abc 01a3 493d 21d2 2c3e
00000080: 21cf 6bbe 28fc 8fbe a868 a7bd 2110 073e
00000090: 028f 8ebe 67fa 833e ef19 b73e 3660 e8bc
000000a0: 1f45 cebc 4e80 80bd 525f 73be 3f17 3a3e
000000b0: 4d6d 5b3d 1963 a43c 2408 3abc 1685 c1be
000000c0: 7a03 893e d17d cf3e 74e5 29be 1108 c83d
000000d0: 85e1 a3be 055c 8b3c 281d 53be 48ff ae3d
000000e0: 3a2a 463e 6c74 273e eb6f 293e 139e 713e
000000f0: 90ac 633e f4b0 753d 2079 b7be 3f57 873e

encoder_layer_mhattentions.0.attention_heads.3.V.bias f4 [8]
0.120224215 0.05344361 -0.040642425 -0.13459836 -0.3371653 0.05228952 0.27944556 0.09337382
00000000: 1d38 f63d b0e7 5a3d ac78 26bd 27d4 09be
00000010: eea0 acbe 892d 563d 7d13 8f3e c63a bf3d

encoder_layer_mhattentions.0.output_layer.weight f4 [32, 32]
-0.153134 -0.34312457 -0.02724523 0.6887872 0.15597427 0.1836025 0.25186545 -0.18475291
-0.1286564 -0.01411035 -0.71829957 0.31522828 -0.7903588 0.12712847 -0.54954696 -0.09780724
0.26367077 -0.10957685 -0.16663563 0.15706758 -0.21371856 -0.30155894 0.051647253 -0.13735645
-0.16803125 -0.1112788 -0.10296945 -0.030625505 -0.3685892 0.3004676 0.37402457 0.085568085
-0.12400512 0.48440784 0.29151297 -0.25256684 0.29142886 -0.55742645 0.22539069 0.00066044385
-0.23331444 -0.30429932 0.48849607 -0.5348968 0.6285012 0.0528046 0.29876348 -0.26408318
0.28177536 -0.028258648 -0.043870494 0.47844175 -7.0963564e-05 -0.08237231 0.2954018 -0.1629208
0.058174983 -0.19944526 -0.19240175 -0.18271115 0.2611028 0.20244123 -0.06317294 -0.2850227
-0.42355162 -0.16921012 0.22719091 0.03839447 -0.12307705 0.036451686 0.24246447 -0.03951878
0.2955419 -0.109153755 -0.6958277 -0.16018818 -0.7831732 -0.42380822 0.13254766 0.110647246
-0.33429652 0.33259296 0.15312883 -0.14120252 -0.093374215 0.11634351 0.09596437 0.18281418
-0.30773085 0.06686055 -0.037834372 -0.09179433 -0.21643636 0.062226333 0.109046444 0.3449883
0.4696669 0.29254395 -0.105044104 -0.5833141 -0.3080793 -0.25245348 -0.7529452 -0.2822939
0.09449292 0.52918357 0.00916551 0.09880042 0.21133257 -0.20434757 -0.073723994 0.25551707
-0.16058241 0.083178796 -0.124741845 -0.16585822 -0.054175504 -0.3768378 0.47254 -0.43455124
0.05755369 0.21979669 -0.035068106 -0.3056741 -0.19358692 0.045951307 0.14081097 -0.3670951
0.20500486 -0.12368146 -0.19224697 -0.0565186 -0.14627102 0.029242942 0.106730334 0.097856246
-0.2767728 0.038451485 -0.17712407 0.0075101205 0.13812935 -0.025918344 0.18746068 -0.03896075
0.060929775 -0.101217374 0.13745588 -0.040140748 -0.00525189 -0.019632854 0.13333488 0.21665399
0.019950105 -0.111049645 -0.04203534 0.11180544 0.091576 -0.08171413 -0.0844199 0.08761498
-0.12919258 0.16774322 0.09768783 0.0028627012 -0.34537965 0.14630164 -0.059254218 -0.07331693
0.62002087 0.39157292 -0.052468337 0.18199717 0.07832428 -0.37648222 -0.034026004 0.18591148
-0.010756299 -0.11030267 -0.26087874 -0.38404194 -0.158397 -0.14113934 0.16486043 0.18144439
0.16286363 0.51277274 0.15912777 -0.044773854 0.01661964 0.088909045 -0.26820722 0.18415725
-0.20896506 0.21375029 0.2759327 0.040241588 -0.39785513 0.119170666 0.020564156 -0.11581524
-0.0069829337 0.048632972 -0.10487333 0.10985311 -0.14765781 -0.068588145 -0.17331368 -0.2746318
-0.14476746 0.43998504 0.03625575 0.10277987 -0.113202035 -0.1544616 0.09499612 0.19867535
-0.26640576 0.096400276 -0.008324067 -0.056377992 0.013953867 -0.04449598 -0.18002465 0.24989185
-0.009350647 0.36181965 -0.4022526 -0.15736757 0.4008773 -0.38354504 -0.48987597 -0.16574413
-0.367465 0.3584234 0.110635705 0.22895914 0.31911486 0.17502658 -0.054378256 -0.13153754
-0.27860442 0.35422555 -0.03893396 -0.008349277 0.11466538 0.06685813 0.11988054 -0.04510323
0.05747447 0.17882383 -0.18810792 -0.07239301 0.2329132 0.26715836 -0.2939142 -0.1274464
00000000: 29cf 1cbe 06ae afbe 6331 dfbc 5c54 303f
00000010: b8b7 1f3e 4b02 3c3e 82f4 803e de2f 3dbe
00000020: 81be 03be 192f 67bc 7be2 37bf 9a65 a13e
00000030: f454 4abf f72d 023e 1caf 0cbf 2a4f c8bd
00000040: dbff 863e d469 e0bd 88a2 2abe 53d6 203e
00000050: 0ad9 5abe ef65 9abe 128c 533d 2ba7 0cbe
00000060: 6210 2cbe 24e6 e3bd a6e1 d2bd 57e2 fabc
00000070: b9b7 bcbe e4d6 993e 2680 bf3e 523e af3d
00000080: 65f6 fdbd 4e04 f83e 3041 953e 7150 81be
00000090: 2a36 953e 80b3 0ebf d1cc 663e a321 2d3a
000000a0: fbe9 6ebe 1fcd 9bbe 281c fa3e ffee 08bf
000000b0: 74e5 203f a349 583d 87f7 983e e935 87be
000000c0: dc44 903e ae7e e7bc 8cb1 33bd 51f6 f43e
000000d0: 46d2 94b8 d0b2 a8bd e83e 973e b6d4 26be
000000e0: e448 6e3d 613b 4cbe f704 45be a218 3bbe
000000f0: 44af 853e c14c 4f3e d060 81bd 7fee 91be
00000100: c2db d8be 6b45 2dbe bca4 683e 8543 1d3d
00000110: d20f fcbd 5d4e 153d 9b48 783e 72de 21bd
00000120: 4551 973e 018c dfbd c421 32bf 5f08 24be
00000130: 0a7e 48bf 64fd d8be 93ba 073e 069b e23d
00000140: ea28 abbe a049 aa3e cecd 1c3e 6597 10be
00000150: fb3a bfbd 8245 ee3d f888 c43d a433 3b3e
00000160: e68e 9dbe 2fee 883d 37f8 1abd aafe bbbd
00000170: 7ea1 5dbe 0ae1 7e3d be53 df3d 4ea2 b03e
00000180: 2e78 f03e 52c8 953e 5d21 d7bd 1354 15bf
00000190: 92bc 9dbe 9541 81be 04c1 40bf d388 90be
000001a0: 8185 c13d 9378 073f ef2a 163c e057 ca3d
000001b0: 9167 583e 7d40 51be 9bfc 96bd 22d3 823e
000001c0: b76f 24be a559 aa3d a778 ffbd bdd6 29be
000001d0: 22e7 5dbd e2f0 c0be c3f0 f13e 807d debe
000001e0: 6bbd 6b3d 6212 613e 93a3 0fbd 5181 9cbe
000001f0: a63b 46be 7037 3c3d c030 103e e4f3 bbbe
00000200: cbec 513e b54c fdbd 64dc 44be 0c80 67bd
00000210: 12c8 15be e58e ef3c 6f95 da3d db68 c83d
00000220: 2ab5 8dbe 4e7f 1d3d 0360 35be 7517 f63b
00000230: c871 0d3e b552 d4bc b1f5 3f3e 4f95 1fbd
00000240: 8091 793d 0e4b cfbd 3cc1 0c3e a06a 24bd
00000250: 0c18 acbb 14d5 a0bc f088 083e 8bda 5d3e
00000260: 676e a33c ff6d e3bd 402d 2cbd 40fa e43d
00000270: 338c bb3d bd59 a7bd 57e4 acbd 7c6f b33d
00000280: 0f4b 04be e1c4 2b3e 8f10 c83d 289c 3b3b
00000290: 9ad5 b0be 19d0 153e 8db4 72bd 3027 96bd
000002a0: b0b9 1e3f 3f7c c83e 0ae9 56bd 775d 3a3e
000002b0: 7b68 a03d 47c2 c0be da5e 0bbd 945f 3e3e
000002c0: 303b 30bc 5ee6 e1bd e691 85be 25a1 c4be
000002d0: d332 22be d586 10be 2cd1 283e 8fcc 393e
000002e0: b9c5 263e 1345 033f 64f2 223e ca64 37bd
000002f0: e925 883c f215 b63d 7552 89be b893 3c3e
00000300: f0fa 55be 5be1 5a3e 0d47 8d3e 5dd4 243d
00000310: abb3 cbbe c00f f43d 2976 a83c 8a30 edbd
00000320: 18d1 e4bb 5e33 473d d4c7 d6bd abfa e03d
00000330: 9c33 17be f177 8cbd 2479 31be 8a9c 8cbe
00000340: ec3d 14be b845 e13e e980 143d 417e d23d
00000350: 78d6 e7bd 2f2b 1ebe 538d c23d 8d71 4b3e
00000360: 5666 88be 826d c53d ab61 08bc 9cec 66bd
00000370: c39e 643c 6b41 36bd 6258 38be a6e3 7f3e
00000380: 7533 19bc 6d40 b93e 0ef4 cdbe f724 21be
00000390: ca3f cd3e 0460 c4be 06d1 fabe d4b8 29be
000003a0: 5f24 bcbe 4683 b73e f994 e23d 4474 6a3e
000003b0: 0663 a33e 2b3a 333e bcbb 5ebd c7b1 06be
000003c0: 3da5 8ebe 0d5d b53e 3779 1fbd 68cb 08bc
000003d0: afd5 ea3d eaec 883d ee83 f53d 2abe 38bd
000003e0: 5a6a 6b3d 981d 373e 5d9f 40be c942 94bd
000003f0: cc80 6e3e fbc8 883e ec7b 96be 4f81 02be

encoder_layer_mhattentions.0.output_layer.bias f4 [32]
-0.030937823 -0.299109 -0.29513466 -0.38517216 -0.0042341365 0.17522353 0.01854696 -0.21278168
-0.20807067 0.10834812 0.20125724 -0.20982587 -0.12573469 0.40686065 0.060153663 -0.12379544
-0.15609096 0.23150766 0.2601232 -0.51505977 0.33802933 -0.24628067 0.43992862 0.16979791
0.15769248 0.35979992 -0.061499648 -0.15483643 -0.13800497 -0.2071221 -0.11087498 -0.031984076
00000000: 5171 fdbc d124 99be e41b 97be 4935 c5be
00000010: 83be 8abb cc6d 333e cbef 973c 71e3 59be
00000020: 7a10 55be 9ee5 dd3d 6116 4e3e 98dc 56be
00000030: 98c0 00be 0a50 d03e b063 763d 7788 fdbd
00000040: 4fd6 1fbe 5810 6d3e de2e 853e f5da 03bf
00000050: 2e12 ad3e 0031 7cbe 533e e13e 81df 2d3e
00000060: 237a 213e b237 b83e 0ee7 7bbd 718d 1ebe
00000070: 2d51 0dbe d117 54be 6c12 e3bd bc01 03bd

encoder_layer_mhattentions.1.attention_heads.0.Q.weight f4 [8, 8]
0.8479921 -0.51632595 0.1197362 -0.35818955 0.12228678 0.49607795 0.19143423 0.3683288
0.043724168 0.35445997 -0.4711292 0.45841938 0.18385401 -0.27439392 0.2931565 -0.019436508
-0.1010419 -0.4481957 -0.668517 0.1464563 -0.17565311 -0.14971177 -0.41796264 0.51647764
0.4748622 -0.31894332 -0.07045343 0.7314741 -0.5207551 0.23081611 -0.2544403 -0.27609432
-0.19634362 0.7199243 0.083850436 -0.11271169 -0.143665 0.16421264 -0.36878097 -0.34566823
-0.4546923 -0.118536994 -0.8946404 0.36158785 -0.06805048 -0.5672421 0.2671686 0.080009095
0.35304528 0.19883455 -0.04323401 0.54109544 0.1839555 0.026802715 0.11940503 0.4168985
-0.2977161 0.073807925 0.15753709 0.23775627 -0.2668596 0.033897374 0.6355718 -0.088785194
00000000: 0316 593f f02d 04bf 4138 f53d 9f64 b7be
00000010: 7e71 fa3d eefd fd3e 5607 443e 9895 bc3e
00000020: 1d18 333d c77b b53e d937 f1be f2b5 ea3e
00000030: 3a44 3c3e 5c7d 8cbe 9c18 963e 5039 9fbc
00000040: 0eef cebd e879 e5be ee23 2bbf a4f8 153e
00000050: 69de 33be 0b4e 19be 33ff d5be e137 043f
00000060: 2321 f33e 8a4c a3be e349 90bd e341 3b3f
00000070: 3550 05bf 0f5b 6c3e 0046 82be 3c5c 8dbe
00000080: 4d0e 49be f54c 383f c7b9 ab3d 63d5 e6bd
00000090: eb1c 13be 5c27 283e dcd0 bcbe 6dfb b0be
000000a0: 6ecd e8be 86c3 f2bd 2707 65bf 0b22 b93e
000000b0: 0d5e 8bbd c736 11bf 53ca 883e cfdb a33d
000000c0: 5ac2 b43e 499b 4b3e 2516 31bd 3b85 0a3f
000000d0: d55e 3c3e 5e91 db3c a08a f43d b873 d53e
000000e0: 3f6e 98be 9c28 973d 6751 213e 6176 733e
000000f0: d2a1 88be f9d7 0a3d d5b4 223f 03d5 b5bd

encoder_layer_mhattentions.1.attention_heads.0.Q.bias f4 [8]
-0.2979246 -0.6645362 -0.042474728 -0.034362577 -1.0779327 0.50364256 0.35360402 0.030409737
00000000: 9389 98be 0b1f 2abf fbf9 2dbd c6bf 0cbd
00000010: b3f9 89bf b8ee 003f 960b b53e d71d f93c

encoder_layer_mhattentions.1.attention_heads.0.K.weight f4 [8, 8]
0.45690113 -0.11398172 0.15120018 -0.14425369 0.2413612 0.21585888 -0.86713874 -0.24441057
0.013794597 0.5416892 0.62288296 -0.54985905 0.20129691 -0.24890356 -0.24123135 -0.2219275
-0.09588204 0.17823127 0.44732115 0.6045155 -0.18617947 0.18006387 0.13623339 -0.3427404
0.4748062 0.5711396 0.021924907 -0.28414735 0.16720332 0.07737999 0.2752332 -0.6637608
0.027063584 -0.3661518 0.12369472 -0.14403695 0.35937306 -1.0313344 0.48443484 -0.41948336
-0.14959826 0.42613462 0.2758584 0.026399884 -0.25608793 0.6268666 0.19895406 0.33849072
-0.36149228 0.22890767 -0.19939014 -0.37088123 -0.12678598 0.3345454 -0.20881724 -0.30491346
0.17564215 0.0041138725 0.051222112 -0.22453594 0.28084272 0.39672083 0.36582243 0.28170624
00000000: f2ee e93e 3f6f e9bd 38d4 1a3e 3db7 13be
00000010: 6427 773e 1c0a 5d3e cefc 5dbf c446 7abe
00000020: bc02 623c 25ac 0a3f 4275 1f3f 90c3 0cbf
00000030: c720 4e3e 93e0 7ebe 5a05 77be f640 63be
00000040: ce5d c4bd 4282 363e 4707 e53e 87c1 1a3f
00000050: d5a5 3ebe aa62 383e c480 0b3e ab7b afbe
00000060: cc19 f33e 3436 123f dd9b b33c c37b 91be
00000070: 5937 2b3e 6679 9e3d 5eeb 8c3e 3aec 29bf
00000080: 73b4 dd3c 4078 bbbe a853 fd3d 6c7e 13be
00000090: bfff b73e c402 84bf d807 f83e 86c6 d6be
000000a0: 4930 19be 512e da3e 503d 8d3e 9244 d83c
000000b0: f51d 83be 547a 203f 9dba 4b3e a84e ad3e
000000c0: 8415 b9be c666 6a3e ee2c 4cbe 25e4 bdbe
000000d0: 2fd4 01be 8949 ab3e 30d4 55be 9e1d 9cbe
000000e0: 89db 333e aacd 863b 47ce 513d c0ec 65be
000000f0: 9eca 8f3e fe1e cb3e 144d bb3e cd3b 903e

encoder_layer_mhattentions.1.attention_heads.0.K.bias f4 [8]
0.1913077 -0.32792515 0.34104168 0.09805845 -0.24290782 -0.20500202 0.34281105 -0.10117165
00000000: 2ae6 433e cee5 a7be 049d ae3e ded2 c83d
00000010: d4bc 78be 0dec 51be ee84 af3e 1533 cfbd

encoder_layer_mhattentions.1.attention_heads.0.V.weight f4 [8, 8]
0.038855445 0.036245428 -0.018588653 -0.22558282 -0.113248624 0.24991451 -0.22597605 -0.16328542
-0.056542505 -0.030861171 -0.22586045 -0.28852257 0.04865514 -0.14985284 -0.07885956 -0.20664021
-0.2464254 0.18400222 0.2093869 0.01268285 0.23481815 0.025642402 -0.043559235 -0.16608405
-0.0020277419 -0.23682438 0.14008702 -0.3247139 -0.024167713 0.0025632293 0.059393544 -0.146456
-0.53489596 0.013011827 0.2568866 -0.12287362 0.035105057 -0.04721092 -0.02311932 0.21052074
0.22484335 0.27050546 -0.030838534 -0.13983728 -0.032521203 -0.109011844 -0.09862092 0.20771125
0.16978082 0.23939443 -0.1780759 -0.038290564 -0.026600577 0.050595887 0.025872871 0.14138718
0.082154855 -0.36004037 0.06604374 -0.07234822 0.14965168 -0.08093425 -0.1023734 -0.008777182
00000000: e326 1f3d 1676 143d 3b47 98bc 2fff 66be
00000010: e5ee e7bd 97e9 7f3e 4466 67be 4b34 27be
00000020: 1d99 67bd 91d0 fcbc f647 67be 3bb9 93be
00000030: 9d4a 473d 0673 19be 1f81 a1bd 7e99 53be
00000040: f156 7cbe 146b 3c3e 8569 563e bacb 4f3c
00000050: 2b74 703e 0410 d23c 2b6b 32bd f011 2abe
00000060: dde3 04bb 1782 72be f972 0f3e e640 a6be
00000070: 5efb c5bc dafb 273b a546 733d 90f8 15be
00000080: f1ee 08bf 8f2f 553c a486 833e 2aa5 fbbd
00000090: 52ca 0f3d 3d60 41bd ba64 bdbc c092 573e
000000a0: 563d 663e b17f 8a3e 18a1 fcbc 8131 0fbe
000000b0: f434 05bd 9a41 dfbd c4f9 c9bd 42b2 543e
000000c0: 06db 2d3e d023 753e 8759 36be 91d6 1cbd
000000d0: 74e9 d9bc a23d 4f3d 58f3 d33c cdc7 103e
000000e0: ce40 a83d 3657 b8be f141 873d 4e2b 94bd
000000f0: 4a3e 193e dbc0 a5bd 25a9 d1bd 2bce 0fbc

encoder_layer_mhattentions.1.attention_heads.0.V.bias f4 [8]
-0.09778672 -0.017281935 0.12108369 -0.08267497 0.10386722 0.048234966 0.020682348 -0.049532406
00000000: 6744 c8bd d892 8dbc bafa f73d 7f51 a9bd
00000010: 56b8 d43d 0792 453d 076e a93c 7ee2 4abd

encoder_layer_mhattentions.1.attention_heads.1.Q.weight f4 [8, 8]
-0.28866443 0.15937722 -0.072553955 0.22283587 -0.16495219 -0.048349995 -0.2767251 0.18657584
0.14287883 0.017105332 0.12327734 -0.19462658 -0.5751846 0.15464123 0.33150318 0.3704237
-0.2853802 -0.20204408 0.23591785 0.37728593 -0.58680445 0.14554046 -0.01669137 0.64332986
0.262114 -0.34092823 -0.09421592 -0.17602842 0.10049375 0.22886264 0.10083377 0.08223985
-0.017244766 -0.04223983 -0.482853 0.39070377 0.20266047 0.2568099 -0.4618011 0.24745598
0.24899946 -0.015830953 -0.11253314 0.0755209 -0.67366207 -0.060242504 -0.9113081 0.41142276
-0.29059938 0.023188334 -0.42729455 0.10709673 0.26925102 0.08193538 -0.70561635 0.58755314
-0.4273672 -0.062917925 0.3593691 -0.17736344 0.32045093 -0.38902462 0.07110117 -0.81752044
00000000: d3cb 93be c833 233e 2b97 94bd 162f 643e
00000010: 3ae9 28be a50a 46bd eaae 8dbe bd0d 3f3e
00000020: d44e 123e 7b20 8c3c d478 fc3d 314c 47be
00000030: 4c3f 13bf 455a 1e3e c9ba a93e 2da8 bd3e
00000040: 5b1d 92be a5e4 4ebe 7394 713e 9f2b c13e
00000050: d138 16bf 8f08 153e 57bc 88bc 44b1 243f
00000060: ce33 863e 258e aebe 47f4 c0bd cb40 34be
00000070: abcf cd3d f85a 6a3e f081 ce3d 5e6d a83d
00000080: e544 8dbc ac03 2dbd 8238 f7be 530a c83e
00000090: 3a86 4f3e 967c 833e 3271 ecbe 1a65 7d3e
000000a0: b7f9 7e3e eaaf 81bc c677 e6bd b4aa 9a3d
000000b0: 1e75 2cbf d8c0 76bd 7d4b 69bf 01a6 d23e
000000c0: 71c9 94be 76f5 bd3c 5ac6 dabe 8855 db3d
000000d0: 45db 893e bdcd a73d 46a3 34bf e269 163f
000000e0: e0cf dabe 1ddb 80bd 3aff b73e c39e 35be
000000f0: 2512 a43e 3c2e c7be 7d9d 913d 0549 51bf

encoder_layer_mhattentions.1.attention_heads.1.Q.bias f4 [8]
-0.059673995 -0.20506717 -0.31923532 -0.07461826 0.00816542 -0.55437934 0.20528325 -0.032983497
00000000: b86c 74bd 21fd 51be d072 a3be 75d1 98bd
00000010: 41c8 053c ceeb 0dbf c635 523e b419 07bd

encoder_layer_mhattentions.1.attention_heads.1.K.weight f4 [8, 8]
0.17028265 -0.14703146 -0.08531626 0.1983505 -0.44429073 0.06827197 0.15156619 0.2508892
-0.12674364 -0.13379739 0.2580101 0.045316886 0.28862962 -0.05538803 0.3752818 -0.38661778
0.20322089 -0.3931291 0.17272587 -0.07755981 -0.004381716 0.2979524 0.4625751 -0.027549326
-0.07745872 0.4145498 0.2359474 -0.48062912 0.4126976 0.03704405 0.0993991 -0.27402398
0.20758674 0.07471173 0.24678488 -0.10533768 -0.77417815 0.3732875 0.110517055 0.28420156
0.031326562 -0.111920014 -0.07297062 0.44228378 -0.24139437 0.6122777 0.8421125 0.2572407
0.26039514 -0.0063516404 0.0031201253 0.026312845 -1.0266895 0.4072541 0.2428621 -0.22388591
0.05852964 0.009306438 -0.63991725 0.11154746 0.25663346 -0.25120854 -0.46389028 0.4448319
00000000: 935e 2e3e 6a8f 16be 4bba aebd 651c 4b3e
00000010: 137a e3be 2dd2 8b3d 2b34 1b3e 8d74 803e
00000020: 16c9 01be 2f02 09be e619 843e 339e 393d
00000030: 43c7 933e 8fde 62bd f024 c03e c4f2 c5be
00000040: 2319 503e 3848 c9be 0ddf 303e add7 9ebd
00000050: 7f94 8fbb 388d 983e a5d6 ec3e 20af e1bc
00000060: ada2 9ebd df3f d43e 329c 713e 0515 f6be
00000070: 1a4d d33e 80bb 173d c191 cb3d df4c 8cbe
00000080: 9e91 543e 7702 993d 2db5 7c3e 48bb d7bd
00000090: 8a30 46bf 8a1f bf3e c456 e23d de82 913e
000000a0: 4850 003d 5236 e5bd 9f71 95bd 0573 e23e
000000b0: 1630 77be 3bbe 1c3f af94 573f 0eb5 833e
000000c0: 8352 853e 6c21 d0bb 047b 4c3b 098e d73c
000000d0: 906a 83bf 9c83 d03e d8b0 783e 5942 65be
000000e0: c7bc 6f3d 087a 183c 9ed1 23bf ff72 e43d
000000f0: 7665 833e 689e 80be 0783 edbe 02c1 e33e

encoder_layer_mhattentions.1.attention_heads.1.K.bias f4 [8]
0.033099897 -0.03307947 0.19709845 -0.06266738 -0.058447395 0.14499207 -0.31246933 0.093986385
00000000: c293 073d 577e 07bd 2dd4 493e c157 80bd
00000010: 8966 6fbd cd78 143e fbfb 9fbe ef7b c03d

encoder_layer_mhattentions.1.attention_heads.1.V.weight f4 [8, 8]
0.18331929 0.07635951 0.15568693 -0.22116034 -0.13261344 -0.008049683 0.3267079 -0.0946926
-0.02400977 -0.1136204 0.25132146 0.10005927 -0.34949 -0.056424066 0.028766172 -0.2705606
0.10903266 -0.18761718 -0.046556342 -0.21129148 -0.042677384 0.02316451 -0.0041963602 -0.3118977
0.15753126 0.1353989 -0.35574353 0.32561788 0.1401572 0.14629413 0.046307545 -0.20382759
0.46814412 -0.020018851 -0.18954307 0.010489218 -0.1183492 -0.09058495 0.22918811 0.2293635
-0.19079684 0.15817396 -0.011870591 -0.072339445 0.18064065 -0.1134996 -0.034878887 -0.18383355
0.025219232 0.021837082 0.040571645 -0.0945998 0.2613666 0.02762972 -0.03608731 -0.15604325
-0.33310735 0.4435054 0.05867802 -0.33921558 -0.26352313 0.15123431 -0.116233565 0.018924447
00000000: 0db8 3b3e 6062 9c3d 656c 1f3e db77 62be
00000010: d1cb 07be d1e2 03bc 4246 a73e 32ee c1bd
00000020: 23b0 c4bc d0b1 e8bd 35ad 803e e0eb cc3d
00000030: 5af0 b2be ec1c 67bd 09a7 eb3c eb86 8abe
00000040: 844c df3d b81e 40be ddb1 3ebd cb5c 58be
00000050: 7bce 2ebd 80c3 bd3c 9f81 89bb 0eb1 9fbe
00000060: e04f 213e 02a6 0a3e 0424 b6be 63b7 a63e
00000070: 5e85 0f3e 21ce 153e fbac 3d3d 2eb8 50be
00000080: 96b0 ef3e 93fe a3bc 9417 42be f8da 2b3c
00000090: 1161 f2bd 9a84 b9bd 4ab0 6a3e 44de 6a3e
000000a0: 3f60 43be 5bf8 213e de7c 42bc b426 94bd
000000b0: ddf9 383e 7a72 e8bd 2add 0ebd dd3e 3cbe
000000c0: 9098 ce3c aee3 b23c 742e 263d 8abd c1bd
000000d0: d8d1 853e b957 e23c 4ad0 13bd cdc9 1fbe
000000e0: 0c8d aabe 2413 e33e 5d58 703d aaad adbe
000000f0: 81ec 86be 2bdd 1a3e dd0b eebd 7107 9b3c
