models/model_chkpt_50.pt (torch, 318877 bytes, 387 tensors)

tokenizer.token_embedding.weight f4 [17, 32]
-0.6156372 -1.7089007 -0.06816956 0.15865806 1.5030528 0.97160196 0.545491 0.8112141
-1.3129512 -1.4935106 -0.077489085 0.30444056 -1.1597345 -0.71878535 -0.3425398 -0.23444207
-0.41855583 0.5104118 -0.7036143 -0.42266065 -1.1661893 -2.135779 0.80431396 2.2913833
-0.18120185 0.56708854 0.8961213 1.0683215 -0.70503706 -2.8309453 0.63616824 -0.4213519
-0.96088994 -1.5126185 1.2854193 -0.14681256 2.4657516 0.28914878 -0.3027411 0.5817852
-1.0553291 -1.0155215 -0.29738727 0.48772237 -0.6920466 -0.5937364 -0.5010817 -0.38093022
1.6530094 -0.40723443 0.13307866 1.2596761 0.9212884 0.5097597 1.1390449 0.13545398
-1.0830297 0.026353825 1.4682609 0.3730342 -0.78268135 -1.4441997 -0.611728 0.7513349
0.30636248 0.5024803 -0.15094176 -0.6031599 3.0494301 -0.0049276543 1.5575954 0.17632385
-1.1613244 -0.55032384 -0.56382304 0.9233884 -0.36630237 -0.46663415 -0.42201176 -0.27845365
0.86318177 2.144973 -0.34888068 -1.2837824 -0.8633402 -0.21997479 -0.013612184 -1.9654887
-1.54273 1.2977161 0.450632 0.5336865 0.53911185 -0.09353261 -0.19524677 -0.16810554
-0.77391964 1.0382192 0.19365394 -0.028237395 0.16184036 -0.44578674 1.9953182 0.64165473
-1.1975511 0.93059754 -1.1616502 0.7438666 0.09688657 -0.48946896 -0.175881 -0.38443628
0.16112489 0.20206498 1.5980035 -0.73834866 -0.7263777 1.6175565 0.5993282 -2.012238
-1.399723 0.47995183 0.09276168 -0.11065285 0.41116378 1.0363967 -0.8907315 0.41380024
-0.4291323 -0.26533335 0.20322922 0.21309592 -0.448475 -1.6808358 2.0664473 -0.7553855
0.22185077 -0.20899825 0.1915785 1.8409394 0.312611 0.3514563 -1.3100374 0.15835902
0.8409332 0.36060217 1.2739047 -1.179651 -0.9454851 0.2729284 0.21374537 -0.7062268
-1.4347442 -0.022545155 -1.0784936 -0.21505104 0.32410932 1.9848298 -1.5750343 -0.7233702
1.1038102 0.87718266 1.6576812 0.42793685 -2.8281748 -0.1265918 0.4451905 0.7261268
-0.22212051 1.1046185 0.3305845 0.9679848 -0.13470264 -0.2803996 -0.6624268 -0.29332775
2.0565164 0.4158226 0.48010486 -0.64873487 0.6849447 -0.37449947 0.457977 0.17247392
0.18818422 -0.4373858 -0.24879329 -0.13068932 -0.08974962 1.2356141 -1.1892793 -0.20033666
0.08136992 -1.0460279 0.073625475 -0.28743762 -0.98531693 -1.544695 0.1535598 0.022543851
-0.117636055 0.8797955 0.7040999 1.3471084 -0.19386525 -0.28316775 -0.65918565 0.1871188
0.9648523 0.513063 -1.5755364 -0.17933837 0.74026644 -0.38035187 -0.3087264 2.0780997
-0.37134668 0.16110756 -0.70348585 -0.59697545 0.04469422 2.1238155 -0.660257 -0.32996005
-0.7833031 0.035648085 2.4359357 1.2136941 0.9342983 -2.1691666 -2.2703695 -0.22019233
-0.09731566 1.4140389 0.8645931 0.97483134 -0.22824171 -0.49374002 -0.59047943 -0.05999795
0.4069821 0.12978423 -1.6219299 0.12616755 1.8230567 0.8315961 -0.37588313 1.0805886
1.1549052 -0.36654165 -0.40208805 0.38572156 -0.60489285 0.41374326 -1.0617616 -0.44056377
00000000: 669a 1dbf 42bd dabf 7b9c 8bbd 4277 223e
00000010: 0964 c03f e8ba 783f 4ca5 0b3f baab 4f3f
00000020: c90e a8bf 5b2b bfbf 99b2 9ebd a2df 9b3e
00000030: 2e72 94bf 5102 38bf 6061 afbe 9511 70be
00000040: f34c d6be 59aa 023f 1120 34bf fa66 d8be
00000050: b145 95bf 9ab0 08c0 85e7 4d3f 06a6 1240
00000060: fa8c 39be b72c 113f 3568 653f c2be 883f
00000070: 4f7d 34bf 352e 35c0 ecdb 223f 70bb d7be
00000080: e2fc 75bf 7c9d c1bf 9f88 a43f 0856 16be
00000090: e0ce 1d40 4f0b 943e e200 9bbe e0ef 143f
000000a0: 0615 87bf 9cfc 81bf 2543 98be bfb6 f93e
000000b0: f729 31bf 1cff 17bf e446 00bf 4909 c3be
000000c0: d095 d33f 0881 d0be c645 083e 113d a13f
000000d0: 8ed9 6b3f 9d7f 023f 39cc 913f 73b4 0a3e
000000e0: b8a0 8abf fae3 d73c f9ef bb3f 57fe be3e
000000f0: ce5d 48bf 89db b8bf 359a 1cbf 7c57 403f
00000100: 8bdb 9c3e 8da2 003f 7a90 1abe b068 1abf
00000110: dd29 4340 2978 a1bb 495f c73f 3d8e 343e
00000120: 47a6 94bf 06e2 0cbf b556 10bf 2f63 6c3f
00000130: fc8b bbbe acea eebe ed11 d8be 7a91 8ebe
00000140: 7bf9 5c3f 3d47 0940 7da0 b2be fb52 a4bf
00000150: dd03 5dbf 1241 61be a305 5fbc 2295 fbbf
00000160: 2d78 c5bf 901b a63f 3db9 e63e ae9f 083f
00000170: 3c03 0a3f 068e bfbd c5ee 47be dc23 2cbe
00000180: 991f 46bf 5ee4 843f 384d 463e 1c52 e7bc
00000190: 7bb9 253e 293e e4be 9666 ff3f 7c43 243f
000001a0: 5b49 99bf a43b 6e3f f4b0 94bf 0b6e 3e3f
000001b0: 776c c63d ad9b fabe 261a 34be d5d4 c4be
000001c0: ecfd 243e 1fea 4e3e 618b cc3f 6b04 3dbf
000001d0: e4f3 39bf 170c cf3f 936d 193f 82c8 00c0
000001e0: 202a b3bf 3fbc f53e d6f9 bd3d f69d e2bd
000001f0: 0f84 d23e a6a8 843f fb06 64bf a0dd d33e
00000200: 3bb7 dbbe c6d9 87be 521b 503e d135 5a3e
00000210: 849e e5be a125 d7bf ac40 0440 f260 41bf
00000220: d92c 633e a303 56be 282d 443e e7a3 eb3f
00000230: 8d0e a03e 15f2 b33e 4eaf a7bf de28 223e
00000240: 6647 573f d9a0 b83e 4f0f a33f cefe 96bf
00000250: 500b 72bf 45bd 8b3e 11e0 5a3e 48cb 34bf
00000260: b3a5 b7bf 9eb0 b8bc 140c 8abf 5736 5cbe
00000270: a8f1 a53e e70e fe3f b99a c9bf ca2e 39bf
00000280: a749 8d3f 0b8f 603f e62e d43f 8a1a db3e
00000290: d100 35c0 48a1 01be 02f0 e33e 72e3 393f
000002a0: 8f73 63be 2464 8d3f 5f42 a93e dacd 773f
000002b0: 7def 09be 8990 8fbe ce94 29bf 0e2f 96be
000002c0: f79d 0340 b3e6 d43e 4ed0 f53e 7d13 26bf
000002d0: 8958 2f3f 65be bfbe f67b ea3e 019d 303e
000002e0: 5db3 403e 08f1 dfbe abc3 7ebe 6cd3 05be
000002f0: a6ce b7bd 9a28 9e3f 4e3a 98bf 0e25 4dbe
00000300: 46a5 a63d 3ee4 85bf f4c8 963d 062b 93be
00000310: bb3d 7cbf 91b8 c5bf c83e 1d3e e2ad b83c
00000320: 2ceb f0bd 473a 613f e43f 343f 0c6e ac3f
00000330: 9d84 46be 5dfb 90be 64c0 28bf 129c 3f3e
00000340: 8f00 773f 1958 033f 2dab c9bf 7aa4 37be
00000350: 1a82 3d3f 7bbd c2be 6311 9ebe 96ff 0440
00000360: 2721 bebe 61f9 243e a617 34bf 62d3 18bf
00000370: 4911 373d 98ec 0740 9a06 29bf 86f0 a8be
00000380: 8d86 48bf ba03 123d 5fe6 1b40 545a 9b3f
00000390: 2c2e 6f3f a0d3 0ac0 bc4d 11c0 197a 61be
000003a0: 6f4d c7bd 3aff b43f f955 5d3f 8c8e 793f
000003b0: 32b8 69be 7ecb fcbe a929 17bf 69c0 75bd
000003c0: f55f d03e 28e6 043e 669b cfbf 1132 013e
000003d0: ec59 e93f 7be3 543f c173 c0be ba50 8a3f
000003e0: efd3 933f 59ab bbbe 7cde cdbe 4c7d c53e
000003f0: 42da 1abf 28d6 d33e cee7 87bf 9391 e1be

tokenizer.positional_embedding.weight f4 [9, 32]
0.7917888 -0.29938304 -0.24380304 0.4661984 0.37167108 1.8091502 0.008401151 -0.63258356
-0.56862634 0.5281382 2.2172036 -1.2178217 -0.88967425 -0.4813982 0.46930975 0.058118958
0.04378947 -0.5778954 0.8031108 1.1976045 0.080191515 0.06574044 0.17077345 0.54241014
-0.8101215 0.83145463 1.5917059 0.04065379 -0.21090874 0.2625945 -0.49275053 -2.7269518
1.2651019 0.4287219 0.6694486 0.5871915 1.4094385 0.28382543 0.32287258 -0.21367057
2.0949762 0.5005959 -1.0370011 -0.18124884 -0.3783291 0.4580002 0.9884033 -1.1663338
-0.03692023 -0.8326531 0.4265477 -1.3985789 0.97512954 0.22475421 0.6430946 0.61293024
0.80947554 -0.19075131 1.4741209 -2.0404427 0.5680241 0.5662069 1.801 -0.6656984
0.05549143 0.9921582 0.06023029 -1.2676328 -0.108434156 -0.44677797 -0.5072228 1.1557393
0.8613805 0.48291048 -1.4656956 -1.8712996 1.6560749 -0.061494287 -1.8071467 0.89540493
0.44904643 0.7514842 -0.52111775 -0.75829154 1.4290435 -1.2109783 -0.6220659 -0.24704696
-0.12825207 -0.54008317 -0.359182 -1.0260478 -0.1197776 -0.7921132 1.1669369 -1.3932531
-0.73528385 -1.7909708 -1.5605559 -0.37618315 -0.2915623 -0.6681913 0.36497903 -0.6524513
-0.6455315 -0.07317522 -0.43301475 -1.3940482 1.7400821 -0.82311004 -1.24218 0.2089195
-0.7236054 -1.5006436 -0.47010446 -2.6308537 1.6394279 0.60872626 -0.315458 -1.2714553
1.0169578 1.3567736 0.39962575 -0.6896558 0.36709884 -0.49794996 -1.1349502 -0.59826326
1.2456161 0.09776773 0.15164638 -1.2609793 0.4835385 -1.120749 0.21574177 0.35327336
-0.4091957 0.85091245 2.2329173 0.67551476 -0.60966736 -0.12364217 0.103307724 -0.033023078
0.20366459 -1.0496125 1.2083241 0.40644193 0.25959915 0.7103159 -0.62286216 -0.35401225
1.0128235 0.09124718 -0.30672434 -0.30429193 1.807795 0.32377514 1.5284468 1.3389124
-0.24172385 -1.0244176 1.2699556 -1.5053397 -0.1214053 0.6174165 0.79557526 -0.6943055
-0.6197726 0.0012883942 -0.5208709 0.7624623 -0.48807144 1.3326846 0.48887044 -1.3400639
-1.5830165 0.8236333 0.21671279 0.7248866 -0.4569364 1.7732806 0.30600342 0.68620855
0.21219687 0.59980613 -2.4061852 -0.12688726 -0.20426258 0.3250698 -0.5517059 0.7563574
-0.34515023 0.5715558 -0.14327504 -0.18274865 -0.016932234 -1.0285726 -2.015019 -0.60831136
-0.016032675 -1.6235389 -1.0223063 -0.14160894 -1.8178452 1.0311542 -0.4072056 1.504864
0.44725236 -0.7935449 -1.5410652 -0.030635282 -0.52690035 0.88691545 1.3685789 -1.0370822
-0.48054412 0.1623844 0.548533 1.0626217 -0.5102371 1.2902322 1.1721209 0.5105638
-1.6477251 0.8307428 -1.831433 0.24550599 -0.22530195 0.68264186 -0.17444019 0.98510903
1.572657 -1.3697504 -0.38065246 1.2060946 -0.6963566 -1.1472198 0.28436953 1.8405081
0.26264784 0.24891694 0.223834 -1.8494834 0.19918469 0.474771 -0.8091128 -0.7998081
0.37388578 -2.3872604 0.021128012 -0.5138742 -2.0645447 -0.71976537 -0.23204058 1.0745513
00000000: acb2 4a3f bc48 99be 81a7 79be 8fb1 ee3e
00000010: ac4b be3e 3c92 e73f fba4 093c fff0 21bf
00000020: 7f91 11bf 1134 073f aae6 0d40 95e1 9bbf
00000030: b1c1 63bf d379 f6be 5e49 f03e 250e 6e3d
00000040: 965c 333d f4f0 13bf ab98 4d3f 1b4b 993f
00000050: 733b a43d eca2 863d 3cdf 2e3e 64db 0a3f
00000060: 1f64 4fbf 36da 543f 05bd cb3f 9784 263d
00000070: 76f8 57be c972 863e cc49 fcbe 6186 2ec0
00000080: dcee a13f 7081 db3e fc60 2b3f 2f52 163f
00000090: 7b68 b43f 9151 913e 8e4f a53e 75cc 5abe
000000a0: 1714 0640 0e27 003f 74bc 84bf 4c99 39be
000000b0: 5ab4 c1be 017f ea3e 0008 7d3f 6d4a 95bf
000000c0: ab39 17bd c128 55bf 7664 da3e a204 b3bf
000000d0: 17a2 793f f825 663e d9a1 243f ffe8 1c3f
000000e0: ca39 4f3f 5054 43be feaf bc3f 9d96 02c0
000000f0: 076a 113f eff2 103f 2b87 e63f 366b 2abf
00000100: fb4a 633d 14fe 7d3f 09b4 763d cb41 a2bf
00000110: ba12 debd 15c0 e4be 5ad9 01bf 44ef 933f
00000120: 6f83 5c3f 0b40 f73e ea9b bbbf bf86 efbf
00000130: 43fa d33f 6fe1 7bbd 9550 e7bf 4239 653f
00000140: 6ae9 e53e 4561 403f f967 05bf 651f 42bf
00000150: e6ea b63f 5601 9bbf b63f 1fbf e1f9 7cbe
00000160: 8354 03be e442 0abf b4e6 b7be 8955 83bf
00000170: f54d f5bd eec7 4abf 305e 953f 1e56 b2bf
00000180: 903b 3cbf 883e e5bf 4cc0 c7bf 149b c0be
00000190: a747 95be 960e 2bbf 88de ba3e 0c07 27bf
000001a0: 8d41 25bf e4dc 95bd 1cb4 ddbe 2c70 b2bf
000001b0: 03bb de3f 57b7 52bf c1ff 9ebf feee 553e
000001c0: 343e 39bf 1715 c0bf 88b1 f0be e85f 28c0
000001d0: c6d8 d13f 7cd5 1b3f b683 a1be 0cbf a2bf
000001e0: ac2b 823f c2aa ad3f bf9b cc3e 488d 30bf
000001f0: 61f4 bb3e 4cf3 febe 0c46 91bf c827 19bf
00000200: 5970 9f3f 733a c83d 3049 1b3e c567 a1bf
00000210: 5c92 f73e b474 8fbf 69eb 5c3e 3fe0 b43e
00000220: 1982 d1be 66d5 593f 1ee8 0e40 89ee 2c3f
00000230: 2913 1cbf 1b38 fdbd 0093 d33d 3543 07bd
00000240: 738d 503e b459 86bf 5daa 9a3f 2819 d03e
00000250: 2eea 843e 43d7 353f e573 1fbf 1841 b5be
00000260: 33a4 813f cddf ba3d f90a 9dbe 27cc 9bbe
00000270: d465 e73f dbc5 a53e 25a4 c33f 7b61 ab3f
00000280: 7586 77be 1e20 83bf e88d a23f f9ae c0bf
00000290: 58a3 f8bd 020f 1e3f d2aa 4b3f 01be 31bf
000002a0: 6ba9 1ebf 56df a83a cc57 05bf bb30 433f
000002b0: 80e4 f9be 6995 aa3f 3a4d fa3e 3787 abbf
000002c0: 49a0 cabf a2d9 523f f5e9 5d3e 2b92 393f
000002d0: 91f3 e9be dcfa e23f 7bac 9c3e 5dab 2f3f
000002e0: 234a 593e e58c 193f f0fe 19c0 bcee 01be
000002f0: 362a 51be 8c6f a63e 993c 0dbf a3a0 413f
00000300: 88b7 b0be 7b51 123f b1b6 12be 7622 3bbe
00000310: 78b5 8abc 44a8 83bf 12f6 00c0 4bba 1bbf
00000320: f556 83bc 1fd0 cfbf efda 82bf ef01 11be
00000330: 27af e8bf dcfc 833f 417d d0be 629f c03f
00000340: 43fe e43e c225 4bbf a041 c5bf d8f6 fabc
00000350: f1e2 06bf e40c 633f 982d af3f 1cbf 84bf
00000360: e109 f6be 1948 263e a96c 0c3f fd03 883f
00000370: e69e 02bf 5426 a53f 0f08 963f 4fb4 023f
00000380: a8e8 d2bf 8fab 543f 666c eabf ec65 7b3e
00000390: 8eb5 66be 9ec1 2e3f 73a0 32be 1b30 7c3f
000003a0: d34c c93f fb53 afbf e1e4 c2be 4f61 9a3f
000003b0: 6d44 32bf 19d8 92bf e298 913e c595 eb3f
000003c0: c779 863e 15e4 7e3e bd34 653e dfbb ecbf
000003d0: 12f7 4b3e 2f15 f33e 0422 4fbf 39c0 4cbf
000003e0: f56d bf3e e0c8 18c0 a714 ad3c 428d 03bf
000003f0: 8021 04c0 8b42 38bf 0c9c 6dbe e68a 893f

encoder_layer_mhattentions.0.attention_heads.0.Q.weight f4 [8, 8]
-0.008190158 0.10513505 -0.26539 0.40293345 0.034432877 0.13270877 -0.14854012 -0.24355453
0.186792 -0.102629036 -0.43576723 0.027918568 -0.08663737 -0.22884308 -0.29682112 -0.02962998
0.0010089797 -0.01514434 0.030229729 0.10276699 -0.05121412 -0.048590783 0.113605954 -0.049862184
-0.040632974 0.056355044 -0.02225966 -0.028525842 0.029321017 0.09090053 -0.048774965 0.060085054
-0.06758285 -0.40795276 -0.14940536 -0.19891936 -0.076638654 -0.23526333 0.03629555 0.2480929
-0.3756654 -0.10358194 0.25792697 -0.11952289 -0.16041549 0.24401742 0.11476934 -0.24892019
-0.025520185 -0.029711375 0.14277597 -0.18567069 -0.09071619 0.104813814 -0.12771042 -0.4935177
-0.2475541 0.020851621 -0.15406966 0.4887985 -0.14995833 0.63216555 -0.03310525 -0.5329986
00000000: 0330 06bc 0c51 d73d 33e1 87be 4b4d ce3e
00000010: 7d09 0d3d cfe4 073e e71a 18be 5c66 79be
00000020: 6746 3f3e 2c2f d2bd e21c dfbe 7bb5 e43c
00000030: ef6e b1bd d755 6abe f0f8 97be 92ba f2bc
00000040: be3f 843a f71f 78bc 56a4 f73c 8077 d23d
00000050: e6c5 51bd 2107 47bd 3daa e83d 4a3c 4cbd
00000060: c36e 26bd 8cd4 663d e459 b6bc 07af e9bc
00000070: a132 f03c 0f2a ba3d 42c8 47bd bf1b 763d
00000080: e168 8abd 2fdf d0be b8fd 18be 84b1 4bbe
00000090: baf4 9cbd dfe8 70be a5aa 143d 110c 7e3e
000000a0: 3757 c0be c522 d4bd 010f 843e 6bc8 f4bd
000000b0: f543 24be b4df 793e 300c eb3d efe4 7ebe
000000c0: b50f d1bc 4565 f3bc dd33 123e 7520 3ebe
000000d0: 69c9 b9bd a0a8 d63d 85c6 02be 5aae fcbe
000000e0: d27e 7dbe 05d1 aa3c 70c4 1dbe cc43 fa3e
000000f0: ad8e 19be 9ad5 213f 5f99 07bd 9972 08bf

encoder_layer_mhattentions.0.attention_heads.0.Q.bias f4 [8]
0.25914788 -0.40590465 0.066975005 0.012044563 0.0017556865 -0.123691946 0.7825389 0.06883057
00000000: 08af 843e bcd2 cfbe 312a 893d 8f56 453c
00000010: 101f e63a 3452 fdbd 7854 483f 0bf7 8c3d

encoder_layer_mhattentions.0.attention_heads.0.K.weight f4 [8, 8]
0.22068161 0.20709188 -0.6491611 0.1717732 -0.121879734 0.084650435 0.09848899 0.25668892
-0.413431 0.015469321 -0.065949485 0.35380343 0.3527483 0.069332056 0.21105404 0.45854586
-0.012502784 0.05326984 -0.12933661 0.043206275 0.101719424 0.048112083 -0.12921272 0.054324962
0.105908096 -0.051135104 -0.002600116 0.0071363715 -0.033085387 -0.016140137 0.014132833 0.023901425
-0.2287289 0.25081313 0.32205874 -0.038707938 -0.31830356 -0.10678169 0.11565024 -0.043564297
-0.033492718 0.2944002 -0.37713587 0.21229416 0.1288294 -0.3509663 -0.3180714 -0.30402458
0.11611777 -0.029342217 -0.4366201 -0.37346366 -0.16148312 0.12846202 -0.2501127 -0.18747403
0.38493672 -0.0700767 -0.4398618 0.08601233 0.17019768 -0.2727771 -0.24171227 0.5258967
00000000: 5cfa 613e e50f 543e 6c2f 26bf 50e5 2f3e
00000010: 159c f9bd 355d ad3d 98b4 c93d bb6c 833e
00000020: 3aad d3be 0973 7d3c 8610 87bd b925 b53e
00000030: 6d9b b43e f7fd 8d3d 8d1e 583e 86c6 ea3e
00000040: 7ad8 4cbc 7a31 5a3d d170 04be 10f9 303d
00000050: 4652 d03d 2d11 453d 5750 04be da83 5e3d
00000060: 58e6 d83d 0b73 51bd b566 2abb 39d8 e93b
00000070: 8b84 07bd 5238 84bc 668d 673c eccc c33c
00000080: e937 6abe 946a 803e e2e4 a43e 378c 1ebd
00000090: aff8 a2be 5cb0 dabd 08da ec3d 7a70 32bd
000000a0: a92f 09bd 9fbb 963e f417 c1be a463 593e
000000b0: dbeb 033e dbb1 b3be 41da a2be 1ca9 9bbe
000000c0: 27cf ed3d 175f f0bc ab8c dfbe a136 bfbe
000000d0: d55b 25be 8c8b 033e c60e 80be 31f9 3fbe
000000e0: 6d16 c53e 5f84 8fbd 9135 e1be 3c27 b03d
000000f0: 4d48 2e3e 71a9 8bbe 6c83 77be 2ba1 063f

encoder_layer_mhattentions.0.attention_heads.0.K.bias f4 [8]
0.07265362 0.16191524 -0.0048787855 -0.093984455 -0.14606783 -0.0971089 -0.09657727 -0.13382742
00000000: 6ccb 943d 1ccd 253e 38de 9fbb ec7a c0bd
00000010: ce92 15be 08e1 c6bd 4eca c5bd 0e0a 09be

encoder_layer_mhattentions.0.attention_heads.0.V.weight f4 [8, 8]
0.29810354 0.1258315 -0.16246048 0.16565228 0.10785347 -0.07150483 0.031323545 -0.5319075
-0.024978358 0.26998496 -0.08824752 -0.47657079 -0.06293139 0.3656699 -0.15335771 -0.27789068
0.19235827 0.08814545 0.15283929 -0.11609188 0.21148568 0.20746736 -0.1080826 0.18556261
-0.11573274 0.016807184 0.031119855 -0.022378564 -0.1144005 -0.19450673 0.1455441 0.53851235
0.31266007 -0.22465655 -0.15698066 -0.23770171 -0.031500384 0.041360937 -0.29683265 0.16548589
-0.21285203 -0.09434291 -0.06864074 0.40115494 0.0022372534 0.053757872 0.21715215 0.17757902
-0.21320228 0.051701766 0.073368594 0.17989506 -0.26057756 -0.043789864 -0.16779925 0.1153817
-0.12758675 -0.11690659 -0.13708736 0.19000235 -0.15665929 0.1191782 -0.21132834 -0.005962287
00000000: 07a1 983e f9d9 003e 0a5c 26be c0a0 293e
00000010: 48e2 dc3d 2071 92bd 1e4d 003d 172b 08bf
00000020: 6a9f ccbc 783b 8a3e 1ebb b4bd 1601 f4be
00000030: 2ce2 80bd 1639 bb3e ce09 1dbe b047 8ebe
00000040: 91f9 443e 9a85 b43d e781 1c3e 94c1 edbd
00000050: b48f 583e 5372 543e 695a ddbd 2004 3e3e
00000060: 4905 edbd 38af 893c 11ef fe3c 4053 b7bc
00000070: cf4a eabd c62c 47be 8309 153e f2db 093f
00000080: fb14 a03e 5e0c 66be 8abf 20be 1468 73be
00000090: 8c06 01bd 166a 293d 73fa 97be 2275 293e
000000a0: e2f5 59be db36 c1bd 8493 8cbd 2e64 cd3e
000000b0: e29e 123b 3731 5c3d 225d 5e3e 46d7 353e
000000c0: b351 5abe 3bc5 533d 4642 963d 6936 383e
000000d0: 6c6a 85be 005d 33bd 91d3 2bbe 3e4d ec3d
000000e0: 1aa6 02be b96c efbd a160 0cbe fa8f 423e
000000f0: 4b6b 20be b313 f43d 7566 58be 4a5f c3bb

encoder_layer_mhattentions.0.attention_heads.0.V.bias f4 [8]
-0.16620538 -0.24436629 -0.14148259 0.21411514 -0.1526146 0.14052226 0.24718669 0.06758017
00000000: be31 2abe 283b 7abe d0e0 10be 0041 5b3e
00000010: 0047 1cbe 11e5 0f3e 821e 7d3e 7967 8a3d

encoder_layer_mhattentions.0.attention_heads.1.Q.weight f4 [8, 8]
0.07998992 0.07677255 -0.16500653 -0.12503539 0.19434868 0.085201904 -0.055455573 -0.07988382
0.18182224 0.11824748 -0.14831471 0.095268995 -0.42015064 0.6561846 -0.005225817 -0.74806315
-0.32339248 0.002758153 0.44920695 -0.22927214 0.60210776 0.25843656 0.042964615 -0.35157084
0.41953778 0.1264015 0.028699959 -0.10392601 0.20887932 -0.4997913 0.44385654 -0.24458334
0.49733016 -0.2209428 -0.14637487 0.089483075 0.1872738 0.28053394 0.41138712 0.41881093
-0.014640553 0.0007808932 0.022513244 -0.12517963 -0.08928469 0.42658442 -0.38938594 -0.25634572
-0.51736414 -0.00148421 0.32200938 -0.079068996 -0.046052855 -0.022050386 -0.184962 0.20102586
0.30380565 -0.08573629 -0.13579005 0.020346232 0.28013083 0.19984378 0.07450271 0.009232999
00000000: c1d1 a33d ed3a 9d3d 79f7 28be 4709 00be
00000010: 5703 473e 567e ae3d 6225 63bd 219a a3bd
00000020: 9c2f 3a3e bc2b f23d d0df 17be 641c c33d
00000030: fc1d d7be b7fb 273f 553d abbb 1181 3fbf
00000040: b393 a5be 21c2 343b 74fe e53e 51c6 6abe
00000050: bc23 1a3f cc51 843e aafb 2f3d 1801 b4be
00000060: a8cd d63e 656f 013e 2d1c eb3c 29d7 d4bd
00000070: 76e4 553e a5e4 ffbe 2a41 e33e 0e74 7abe
00000080: 0fa2 fe3e d43e 62be 4be3 15be e742 b73d
00000090: b4c4 3f3e 25a2 8f3e 55a1 d23e 636e d63e
000000a0: eede 6fbc dbb4 4c3a b26d b83c 172f 00be
000000b0: e4da b6bd 4669 da3e 985d c7be bf3f 83be
000000c0: fa71 04bf d389 c2ba 6ade a43e edee a1bd
000000d0: eba1 3cbd 03a3 b4bc ae66 3dbe b9d9 4d3e
000000e0: 6a8c 9b3e 8296 afbd 8c0c 0bbe 24ad a63c
000000f0: 4f6d 8f3e d9a3 4c3e e094 983d 0146 173c

encoder_layer_mhattentions.0.attention_heads.1.Q.bias f4 [8]
0.02107401 0.093712695 -0.044181544 0.029040046 -0.411471 -0.05991423 -0.3599436 -0.023740003
00000000: 67a3 ac3c 71ec bf3d b5f7 34bd 64e5 ed3c
00000010: 54ac d2be a068 75bd 874a b8be 657a c2bc

encoder_layer_mhattentions.0.attention_heads.1.K.weight f4 [8, 8]
-0.25277558 0.17627937 0.22776198 0.03712335 -0.0024228245 0.043421492 0.013832211 0.17540975
-0.15998383 0.08421275 -0.5260964 -0.30581453 -0.11539775 0.107911915 -0.65226114 0.6996714
0.12991244 0.0886473 -0.10423768 -0.1615559 -0.5983544 0.6465133 0.25180784 0.011932668
-0.2569837 0.23448162 -0.04837688 -0.23204106 0.16109572 0.45544758 -0.28114018 -0.41073456
-0.47686958 -0.20066705 0.21880768 0.1591557 0.5618884 0.028780455 0.106962584 0.18666673
-0.013047075 0.10235292 -0.052166414 0.030834379 -0.10017712 -0.0108742835 0.06775512 0.40062732
0.3854117 -0.09196737 -0.21397033 0.3076378 -0.09898637 0.07943838 0.5600736 -0.03525097
-0.33132097 -0.17034228 0.2698441 0.011664113 0.1768894 0.09288005 -0.05601143 0.08682027
00000000: cd6b 81be 9482 343e 703a 693e a70e 183d
00000010: 40c8 1ebb bcda 313d 7fa0 623c 9d9e 333e
00000020: cdd2 23be bc77 ac3d 41ae 06bf b993 9cbe
00000030: a855 ecbd ec00 dd3d 96fa 26bf aa1d 333f
00000040: c407 053e b78c b53d 917a d5bd e96e 25be
00000050: c12d 19bf e581 253f f5ec 803e 3d81 433c
00000060: 5e93 83be f31b 703e d626 46bd 2c9c 6dbe
00000070: 47f6 243e 6d30 e93e 9bf1 8fbe cd4b d2be
00000080: 4028 f4be aa7b 4dbe 1f0f 603e b6f9 223e
00000090: ebd7 0f3f fdc4 eb3c 330f db3d 9025 3f3e
000000a0: 66c3 55bc 689e d13d 73ac 55bd 6198 fc3c
000000b0: a929 cdbd 0d2a 32bc 32c3 8a3d 061f cd3e
000000c0: af54 c53e 6359 bcbd 0a1b 5bbe b482 9d3e
000000d0: 5eb9 cabd 97b0 a23d fc60 0f3f 5263 10bd
000000e0: e7a2 a9be 356e 2ebe 0229 8a3e d61a 3f3c
000000f0: 7f22 353e e537 be3d 3e6c 65bd d3ce b13d

encoder_layer_mhattentions.0.attention_heads.1.K.bias f4 [8]
-0.2339367 0.03615078 -0.17442536 0.21042211 0.011466209 -0.21672368 0.13521883 -0.21550693
00000000: 1a8d 6fbe d712 143d 909c 32be e578 573e
00000010: c4dc 3b3c d0ec 5dbe ce76 0a3e d9ad 5cbe

encoder_layer_mhattentions.0.attention_heads.1.V.weight f4 [8, 8]
-0.20412159 -0.34410977 -0.038644224 -0.35757002 -0.3800555 -0.29273584 -0.1793758 0.103933774
-0.44024748 0.060392767 0.24708824 -0.105116755 -0.081515774 -0.026841607 -0.016937234 0.13705094
0.13047329 -0.24474236 -0.25371343 -0.40908557 0.26595786 0.4683426 0.4097141 0.31228068
-0.049603533 -0.060907338 0.0034438963 0.4706508 0.015876332 -0.062472496 -0.050137572 0.35908228
0.12831679 -0.09460938 0.14557147 -0.60181665 0.14564249 0.2892966 0.4296734 0.45772865
0.07282289 0.18653566 0.18172859 -0.13591185 0.29234332 0.13774098 0.07553355 -0.05118423
-0.080218956 -0.42065412 0.08111411 -0.25150305 0.1664444 0.23508197 0.3697519 -0.13980755
-0.30771694 0.08059155 -0.15901285 0.15625499 -0.28009635 0.20622009 -0.26551417 -0.27052924
00000000: 4005 51be 282f b0be 6849 1ebd 6b13 b7be
00000010: a296 c2be 79e1 95be 4aae 37be 3bdb d43d
00000020: 1e68 e1be 685e 773d b304 7d3e 7447 d7bd
00000030: bef1 a6bd eee2 dbbc f4bf 8abc 1557 0c3e
00000040: ca9a 053e be9d 7abe bae6 81be aa73 d1be
00000050: a12b 883e 9aca ef3e 0cc6 d13e 41e3 9f3e
00000060: 132d 4bbd f979 79bd feb2 613b 24f9 f03e
00000070: 150f 823c 29e3 7fbd 0e5d 4dbd a2d9 b73e
00000080: 7a65 033e 90c2 c1bd b010 153e a810 1abf
00000090: 4e23 153e af1e 943e 27fe db3e 695b ea3e
000000a0: 2b24 953d 3403 3f3e 0f17 3a3e 7a2c 0bbe
000000b0: 06ae 953e f90b 0d3e 55b1 9a3d 8ea6 51bd
000000c0: d649 a4bd fa5f d7be 281f a63d 02c5 80be
000000d0: 6770 2a3e 54b9 703e 1f50 bd3e b629 0fbe
000000e0: 138d 9dbe 2f0d a53d 44d4 22be 4f01 203e
000000f0: ca68 8fbe 5c2b 533e 79f1 87be cf82 8abe

encoder_layer_mhattentions.0.attention_heads.1.V.bias f4 [8]
0.101752855 -0.12859653 -0.2773464 -0.16614503 -0.2545006 -0.00090234145 -0.24586675 -0.0036694568
00000000: cd63 d03d cfae 03be 5900 8ebe ec21 2abe
00000010: e74d 82be 1c8b 6cba 7ec4 7bbe 457b 70bb

encoder_layer_mhattentions.0.attention_heads.2.Q.weight f4 [8, 8]
0.27948156 -0.24752872 -0.044496316 -0.12952064 -0.12923951 -0.112248674 0.21981888 0.30521688
-0.033525523 -0.13697399 0.083617136 -0.3007428 -0.016922928 0.12395185 0.059671354 0.04318549
-0.07036492 0.36392865 -0.09856401 0.14372514 -0.23286554 0.3397848 0.53078765 0.008769169
-0.00021822054 0.34925663 0.26037255 -0.24008554 0.03464145 -0.06801229 -0.076415874 0.40759346
0.09075051 -0.3169589 -0.10931875 0.52394956 -0.120704986 -0.60580724 -0.8301054 -0.40887854
0.07481358 0.026697427 -0.00039347942 -0.0084013725 -0.0036866597 0.05477391 -0.036133725 0.008193912
-0.14845797 0.33223057 0.25816065 0.6346841 0.023196155 -0.32041192 -0.7272183 -0.13962454
0.08517834 0.51292235 -0.29910553 -0.33715844 -0.026757378 0.39792478 0.22582705 0.07406958
00000000: 3518 8f3e 2b78 7dbe c541 36bd 0fa1 04be
00000010: 5d57 04be a2e2 e5bd 3318 613e 6345 9c3e
00000020: 0f52 09bd e942 0cbe 763f ab3d f6fa 99be
00000030: f4a1 8abc 78da fd3d f369 743d 45e3 303d
00000040: 7c1b 90bd db54 ba3e eddb c9bd af2c 133e
00000050: 4e74 6ebe 46f8 ad3e b3e1 073f 90ac 0f3c
00000060: 21d2 64b9 c4d1 b23e 8d4f 853e fcd8 75be
00000070: 31e4 0d3d 074a 8bbd ed7f 9cbd 17b0 d03e
00000080: 67db b93d 7048 a2be 82e2 dfbd 8f21 063f
00000090: 2d34 f7bd 2f16 1bbf ca81 54bf 8758 d1be
000000a0: dd37 993d 90b4 da3c ea4b ceb9 e9a5 09bc
000000b0: e39b 71bb 9c5a 603d f500 14bd c23f 063c
000000c0: 5e05 18be 201a aa3e a22d 843e a87a 223f
000000d0: dd05 be3c 080d a4be fa2a 3abf bcf9 0ebe
000000e0: fb71 ae3d e14e 033f 5c24 99be 08a0 acbe
000000f0: 4a32 dbbc ccbc cb3e 353f 673e cbb1 973d

encoder_layer_mhattentions.0.attention_heads.2.Q.bias f4 [8]
0.20142952 0.031797547 0.22127353 0.15292342 -0.07132436 0.019261748 -0.17479196 0.58471465
00000000: 8a43 4e3e 253e 023d 8795 623e f597 1c3e
00000010: 8212 92bd d0ca 9d3c aafc 32be dcaf 153f

encoder_layer_mhattentions.0.attention_heads.2.K.weight f4 [8, 8]
-0.17999002 0.026733838 -0.24738424 0.15882532 0.03269674 -0.59310526 -0.040226884 -0.39669466
0.19143909 -0.2964055 0.031754084 -0.088782296 -0.18254717 -0.0947231 -0.22247991 -0.03366705
-0.55864847 -0.26094946 0.5417653 0.13838983 0.25748426 0.06649514 0.019583672 -0.2605309
0.111531265 -0.31200498 -0.136086 0.34942517 0.2700475 -0.4816321 0.14693512 -0.27984113
0.30793965 0.46286407 -0.12810399 0.06259324 -0.5314377 0.5710082 0.6178129 0.26477233
0.07826754 0.045761976 -0.055940222 0.00013776854 0.056870732 0.007350754 -0.11137469 0.07793615
0.1698865 0.6463579 0.15880987 0.018738145 0.04846479 0.49381506 0.72640705 0.18082929
-0.23095259 -0.55139714 0.12757203 0.3473627 0.0725645 -0.293615 -0.66993004 -0.2687753
00000000: 4e4f 38be ec00 db3c 4b52 7dbe 1ba3 223e
00000010: 04ed 053d bfd5 17bf f2c4 24bd 901b cbbe
00000020: 9c08 443e 76c2 97be 9210 023d 7ed3 b5bd
00000030: a5ed 3abe 2ffe c1bd c6d1 63be 76e6 09bd
00000040: 9603 0fbf 2b9b 85be 21b1 0a3f 10b6 0d3e
00000050: fad4 833e 9b2e 883d f06d a03c 4e64 85be
00000060: 816a e43d 1ebf 9fbe 215a 0bbe dbe7 b23e
00000070: aa43 8a3e 7c98 f6be 2976 163e 5647 8fbe
00000080: 44aa 9d3e 85fc ec3e b12d 03be e230 803d
00000090: 4d0c 08bf 982d 123f fc28 1e3f 3d90 873e
000000a0: bb4a a03d e970 3b3d 9321 65bd f675 1039
000000b0: 49f1 683d 98de f03b 6a18 e4bd fd9c 9f3d
000000c0: baf6 2d3e b677 253f 0e9f 223e bd80 993c
000000d0: 0483 463d 54d5 fc3e d0f5 393f 502b 393e
000000e0: d67e 6cbe 5d28 0dbf 3ea2 023e 86d9 b13e
000000f0: b29c 943d b554 96be 8980 2bbf eb9c 89be

encoder_layer_mhattentions.0.attention_heads.2.K.bias f4 [8]
0.30022174 0.07664959 -0.22262678 -0.18933013 -0.101303406 -0.27647802 0.2567074 0.07806832
00000000: aab6 993e 76fa 9c3d 46f8 63be c2df 41be
00000010: 2978 cfbd 878e 8dbe 276f 833e 49e2 9f3d

encoder_layer_mhattentions.0.attention_heads.2.V.weight f4 [8, 8]
-0.19652452 0.3223984 0.12856671 0.37805387 -0.08703774 0.22687401 -0.3125463 -0.010009493
-0.16998243 -0.16401993 -0.2462521 -0.31383303 0.011898237 0.32901433 0.024027703 -0.050195634
0.07681168 -0.13543245 -0.071778655 0.041410115 -0.1258575 0.16540577 -0.14191167 -0.121079884
0.047464605 -0.08956768 -0.25930527 0.2541588 0.06792369 0.15700062 0.089495465 0.062236086
-0.097521886 -0.055050142 -0.016615767 0.10512178 -0.053510677 0.010410593 0.19851017 -0.33954015
-0.038793225 -0.107670516 -0.12376396 0.23710732 -0.3554283 -0.13640724 0.32387576 -0.09955619
-0.03367936 0.3214027 -0.24096854 0.124555334 0.019898603 -0.308134 0.119357035 -0.096113175
0.13729922 -0.2508174 -0.067335695 -0.064659856 0.011663806 0.018624961 -0.32642424 0.21224566
00000000: b93d 49be 6711 a53e fea6 033e 4790 c13e
00000010: d840 b2bd a951 683e 1206 a0be dbfe 23bc
00000020: e00f 2ebe d7f4 27be 8329 7cbe b9ae a0be
00000030: d3f0 423c 9174 a83e bfd5 c43c f099 4dbd
00000040: 714f 9d3d ceae 0abe b000 93bd a79d 293d
00000050: cae0 00be 2160 293e 4b51 11be bbf8 f7bd
00000060: 3f6a 423d 436f b7bd a9c3 84be 1a21 823e
00000070: 931b 8b3d c5c4 203e 6649 b73d 44eb 7e3d
00000080: 8eb9 c7bd 427c 61bd ca1d 88bc 164a d73d
00000090: 032e 5bbd 3191 2a3c 4046 4b3e 35d8 adbe
000000a0: a5e5 1ebd 5c82 dcbd f677 fdbd 43cc 723e
000000b0: b3fa b5be 57ae 0bbe 0bd3 a53e 1ee4 cbbd
000000c0: 5ef3 09bd e58e a43e 75c0 76be de16 ff3d
000000d0: 6502 a33c bdc3 9dbe 7671 f43d fcd6 c4bd
000000e0: 2b98 0c3e 236b 80be 4ce7 89bd 636c 84bd
000000f0: 8c19 3f3c 6093 983c 1421 a7be ed56 593e

encoder_layer_mhattentions.0.attention_heads.2.V.bias f4 [8]
0.33024222 -0.27851272 0.17080055 -0.042448018 0.007976342 0.45223802 0.07800256 -0.12452119
00000000: 8215 a93e 3899 8ebe 57e6 2e3e f9dd 2dbd
00000010: 34af 023c be8b e73e cebf 9f3d f704 ffbd

encoder_layer_mhattentions.0.attention_heads.3.Q.weight f4 [8, 8]
0.16071258 -0.060372338 -0.34864762 -0.6573711 0.36122602 -0.23041615 0.25114053 0.46921384
0.21484512 0.29670203 -0.041050803 0.38138607 -0.19808818 0.16824576 -0.017607069 0.27933407
-0.09470242 0.1108646 -0.099742845 0.12786861 0.012923818 0.13707915 0.2848248 -0.38203883
0.014597708 -0.09546982 -0.16187933 -0.024222318 -0.35444582 0.057052474 0.28248632 0.017981578
0.11046815 -0.35649922 0.10006028 0.019893479 0.57737607 -0.119788915 -0.40898618 -0.012432424
0.010103397 0.4587943 0.051762953 -0.08749863 -0.46267185 0.11882477 0.1123341 0.018933427
-0.2301002 -0.4081024 -0.3280659 -0.22190395 0.40309638 -0.53087693 -0.08506843 0.13531893
0.12598269 0.21345179 0.17297482 -0.52096146 0.3224215 -0.27955872 -0.3995113 -0.13804822
00000000: d791 243e fc48 77bd f181 b2be 7949 28bf
00000010: 9ef2 b83e 36f2 6bbe 7e95 803e cc3c f03e
00000020: 5c00 5c3e 54e9 973e e324 28bd 0945 c33e
00000030: a1d7 4abe 9e48 2c3e b33c 90bc e004 8f3e
00000040: 58f3 c1bd fb0c e33d fa45 ccbd fdef 023e
00000050: 6cbe 533c 7a5e 0c3e 8ed4 913e 989a c3be
00000060: 3a2b 6f3c ae85 c3bd b2c3 25be e26d c6bc
00000070: ec79 b5be dbaf 693d 0ca2 903e 1a4e 933c
00000080: 203d e23d 1187 b6be 67ec cc3d a6f7 a23c
00000090: ebce 133f e453 f5bd a366 d1be 5eb1 4bbc
000000a0: b888 253c 16e7 ea3e 6405 543d 7b32 b3bd
000000b0: 53e3 ecbe 675a f33d 6c0f e63d 461a 9b3c
000000c0: 639f 6bbe ccf2 d0be 41f8 a7be ca3a 63be
000000d0: a662 ce3e 8de7 07bf 5b38 aebd 0c91 0a3e
000000e0: 9b01 013e 1b93 5a3e 5020 313e bb5d 05bf
000000f0: 6e14 a53e 5222 8fbe bf8c ccbe 835c 0dbe

encoder_layer_mhattentions.0.attention_heads.3.Q.bias f4 [8]
-0.2594868 -0.026085308 0.08203071 -0.41117772 0.2042072 0.36935115 -0.15099731 0.20820424
00000000: 74db 84be dbb0 d5bc b8ff a73d e385 d2be
00000010: b11b 513e 981b bd3e 0a9f 1abe 7e33 553e

encoder_layer_mhattentions.0.attention_heads.3.K.weight f4 [8, 8]
-0.29547846 0.37682882 -0.026829623 -0.22844827 -0.34301233 0.021359013 -0.54648626 -0.4475081
0.27115905 -0.30711675 0.11435697 0.4106825 0.054381885 0.36738113 -0.079607114 -0.22870304
-0.5033768 0.044390604 -0.12363607 0.025158718 0.34770304 -0.06272219 0.3729314 -0.15774421
-0.10361007 0.036390893 0.21454994 -0.37410137 0.13517918 0.08035174 -0.13139923 0.080028206
0.37587792 0.2964131 -0.20564944 -0.2372535 -0.21473408 -0.12223385 -0.21027763 -0.003108934
-0.28039756 -0.46736655 -0.18527643 0.3936353 0.10008174 0.13494304 0.16594228 -0.049075343
0.03242494 0.55520386 0.120802805 -0.4290424 -0.15424542 -0.067474715 -0.22554421 -0.013581252
-0.17571151 0.18892534 -0.5482899 -0.45762715 -0.37332794 -0.05370684 0.27201512 -0.018113025
00000000: f448 97be b5ef c03e ccc9 dbbc 58ee 69be
00000010: 509f afbe 19f9 ae3c 86e6 0bbf c81f e5be
00000020: 5cd5 8a3e 683e 9dbe fd33 ea3d fa44 d23e
00000030: 8abf 5e3d 6119 bc3e 0e09 a3bd 2131 6abe
00000040: 4ddd 00bf ecd2 353d e834 fdbd a819 ce3c
00000050: 2206 b23e 7e74 80bd ddf0 be3e b387 21be
00000060: 8431 d4bd 9e0e 153d fbb2 5b3e 378a bfbe
00000070: 696c 0a3e 748f a43d 858d 06be d4e5 a33d
00000080: 1273 c03e 75c3 973e c495 52be 95f2 72be
00000090: 40e3 5bbe be55 fabd 0553 57be 42bf 4bbb
000000a0: 4590 8fbe ab4a efbe 1bb9 3dbe 918a c93e
000000b0: a8f7 cc3d 822e 0a3e c6ec 293e 3a03 49bd
000000c0: 04d0 043d d721 0e3f 7667 f73d 72ab dbbe
000000d0: 83f2 1dbe 2f30 8abd 10f5 66be e683 5ebc
000000e0: b8ed 33be a575 413e ba5c 0cbf 1b4e eabe
000000f0: d724 bfbe b4fb 5bbd 9145 8b3e c461 94bc

encoder_layer_mhattentions.0.attention_heads.3.K.bias f4 [8]
-0.30759147 0.025254104 -0.123164184 0.27007258 0.3553635 0.28116223 0.13126366 0.10675874
00000000: a17c 9dbe b2e1 ce3c 813d fcbd f446 8a3e
00000010: 34f2 b53e 7ff4 8f3e fb69 063e 54a4 da3d

encoder_layer_mhattentions.0.attention_heads.3.V.weight f4 [8, 8]
-0.25945532 -0.0797895 -0.11952927 -0.28098157 0.09550328 -0.18003145 -0.023725059 -0.10340373
-0.28979543 0.15226577 -0.0140952375 0.12219841 0.38761902 -0.16954939 -0.14773819 -0.083864115
-0.18118007 0.2825468 0.12642072 0.29329458 -0.26315683 0.26230583 -0.0694563 0.23391981
-0.21898341 -0.13470963 0.024706392 0.15753146 0.098851174 -0.028928697 0.06279458 0.079840995
-0.25913462 -0.269384 -0.08648375 0.19104508 -0.32064083 0.16642122 0.35214996 -0.034428846
0.07291819 -0.00092735636 -0.38242304 0.3860413 0.02514856 0.12678877 -0.09781902 -0.33834255
0.19075133 0.4099731 -0.16773579 0.23078837 -0.36596736 0.06191879 -0.2553875 0.13144419
0.23916328 0.1433981 0.12687618 0.26685038 0.3083757 -0.020147357 -0.36662942 0.22975542
00000000: 54d7 84be ad68 a3bd c3cb f4bd d1dc 8fbe
00000010: 3997 c33d 2a5a 38be 0e5b c2bc 56c5 d3bd
00000020: 1160 94be 8feb 1b3e b6ef 66bc 2943 fa3d
00000030: 0076 c63e 5b9e 2dbe ae48 17be f3c0 abbd
00000040: 4587 39be f9a9 903e 6f74 013e b52a 963e
00000050: 7ebc 86be f34c 863e 1b3f 8ebd ad88 6f3e
00000060: 303d 60be 52f1 09be 0f65 ca3c ed4f 213e
00000070: 7c72 ca3d e0fb ecbc 729a 803d ad83 a33d
00000080: 4bad 84be b3ec 89be 641e b1bd 52a1 433e
00000090: 092b a4be 536a 2a3e 004d b43e 4305 0dbd
000000a0: 2256 953d d519 73ba f4cc c3be 35a7 c53e
000000b0: 5a04 ce3c ead4 013e 5755 c8bd 3c3b adbe
000000c0: 5154 433e ffe7 d13e eec2 2bbe c953 6c3e
000000d0: 1360 bbbe 8f9e 7d3d 27c2 82be 4e99 063e
000000e0: 38e7 743e f4d6 123e d4eb 013e 9da0 883e
000000f0: 6be3 9d3e 120c a5bc dab6 bbbe 0145 6b3e

encoder_layer_mhattentions.0.attention_heads.3.V.bias f4 [8]
0.056206416 0.03492378 -0.06433175 -0.25255966 -0.36324397 0.12838508 0.30700028 0.1093832
00000000: b338 663d 3d0c 0f3d 5dc0 83bd 804f 81be
00000010: 1dfb b9be 6177 033e 242f 9d3e 4d04 e03d

encoder_layer_mhattentions.0.output_layer.weight f4 [32, 32]
-0.042506646 -0.17952092 -0.004208646 0.27431354 0.031675726 0.11083884 0.18623541 -0.13606432
-0.11520679 -0.113708265 -0.4674986 0.27996376 -0.53380495 -0.009093849 -0.4513867 -0.14006422
0.3729697 -0.045734998 0.0017405997 0.20549218 -0.21931235 -0.14768744 0.03978122 -0.10087115
-0.1298026 -0.08918701 -0.024064044 -0.16822712 -0.4881704 0.15449993 0.24773254 0.16698532
-0.17761108 0.3969841 0.14170949 -0.32366318 0.2709387 -0.46416178 0.076487325 0.07457086
-0.2383438 -0.032691136 0.40920165 -0.61959285 0.6463563 0.26507208 0.18360254 -0.2294335
0.16363317 -0.24030158 -0.14110652 0.5241728 -0.15872332 0.14787412 0.41119418 -0.23580655
-0.008419873 -0.3107348 -0.17978097 0.056026295 0.3305861 0.13565534 -0.07134211 -0.28941113
-0.26382387 0.068995155 0.19854029 0.094622664 -0.15240686 -0.1421619 0.36911473 -0.14773522
0.29769742 -0.15076552 -0.609474 -0.19147411 -0.53483313 -0.33670107 0.18032806 0.11256594
-0.39590937 0.20724988 0.36829042 -0.12471966 -0.28693116 0.17030427 0.012217966 0.27620453
-0.22574235 0.010801646 -0.124137305 -0.12783349 -0.12779534 -0.000673038 0.02993394 0.22510087
0.40583065 0.18413572 -0.1723738 -0.44279906 -0.21414582 -0.124639615 -0.45738712 0.003124415
-0.0062771505 0.5228721 0.16228774 0.11885539 0.27068147 -0.061494604 0.0101092495 0.16775239
-0.17829436 0.05532191 -0.051310755 -0.12029346 -0.11857661 -0.27711427 0.16840227 -0.35849434
0.13898265 0.07799694 0.019639155 -0.3633689 -0.23872069 -0.27877218 0.12885885 -0.33720934
0.16016409 -0.18989643 -0.21252495 -0.048978046 -0.13600218 -0.04346192 0.17295666 -0.024269037
-0.2761634 0.05535899 -0.23734914 0.037116453 -0.023880754 -0.011748639 0.06409795 -0.10610097
0.06741859 -0.029682264 0.100307494 0.0069986642 -0.04126598 -0.14692707 -0.032999612 0.09099457
-0.01857307 -0.03041955 0.003500468 0.12393867 0.0367856 -0.040639482 -0.033706225 0.07601427
0.15025215 0.279414 0.13949357 -0.20459993 -0.4338239 0.28013632 -0.05582722 0.07059444
0.46781608 0.3274887 -0.16527823 0.15040511 0.0135555705 -0.33597144 -0.14769667 0.19555299
0.15439376 -0.117943786 -0.114977315 -0.27930635 -0.38822213 -0.065635376 0.081511036 0.25105897
0.12218232 0.48879206 0.060178693 0.05600656 0.056082554 0.12923008 -0.21150519 0.18123284
-0.10487903 0.08661739 0.15814348 -0.16929477 -0.37778923 0.12175607 -0.10942932 -0.04309299
0.058141258 0.05302722 -0.047183584 0.06418853 -0.063265756 -0.11993935 -0.039266903 -0.36457697
-0.22994147 0.42994988 0.17044681 0.1381584 -0.034610637 -0.054254144 -0.165155 0.1144995
-0.36040822 0.1667258 -0.02318505 -0.03537448 0.043454524 -0.1949204 -0.14147098 0.124074675
0.002087289 0.4236807 -0.10199055 -0.09136465 0.27902812 -0.33235186 -0.31706405 -0.15727621
-0.25789252 0.36472815 0.1428263 0.117793724 0.29973063 0.26839444 0.16857085 -0.19675928
-0.37019333 0.42013788 0.07533525 0.13766725 0.15180412 0.03703305 0.03950558 -0.17828868
0.22681761 0.16810979 -0.3127007 0.17848717 0.15567453 0.03343127 -0.3659127 -0.09917599
00000000: 731b 2ebd 55d4 37be aee8 89bb d372 8c3e
00000010: 68be 013d 79ff e23d 7fb4 3e3e 7254 0bbe
00000020: 8af1 ebbd e1df e8bd fa5b efbe 6957 8f3e
00000030: 71a7 08bf 5efe 14bc 281c e7be ff6c 0fbe
00000040: e2f5 be3e 9f54 3bbd d624 e43a 8b6c 523e
00000050: 6b93 60be 603b 17be a2f1 223d 8995 cebd
00000060: f9ea 04be aea7 b6bd f521 c5bc bb43 2cbe
00000070: 78f1 f9be 3b35 1e3e 99ad 7d3e 33fe 2a3e
00000080: aedf 35be 8041 cb3e 4b1c 113e 2eb7 a5be
00000090: 7ab8 8a3e 9da6 edbe 63a5 9c3d 9bb8 983d
000000a0: 6610 74be 24e7 05bd e182 d13e a39d 1ebf
000000b0: 9b77 253f 87b7 873e 4e02 3c3e 9ef0 6abe
000000c0: 748f 273e 9e11 76be 3a7e 10be 3030 063f
000000d0: 5e88 22be 506c 173e 0b88 d23e 4677 71be
000000e0: 82f3 09bc a218 9fbe 8118 38be d47b 653d
000000f0: 9542 a93e 3ce9 0a3e d01b 92bd b22d 94be
00000100: ec13 87be 554d 8d3d 254e 4b3e 87c9 c13d
00000110: 8b10 1cbe e492 11be 9bfc bc3e e747 17be
00000120: cc6b 983e 4762 1abe 7d06 1cbf ca11 44be
00000130: d3ea 08bf 1564 acbe eba7 383e f988 e63d
00000140: a2b4 cabe 5039 543e 9090 bc3e 056d ffbd
00000150: a4e8 92be 3e64 2e3e dd2d 483c ae6a 8d3e
00000160: 0129 67be 63f9 303c b33b febd c8e6 02be
00000170: c8dc 02be d16e 30ba 0638 f53c d880 663e
00000180: 09c9 cf3e 138e 3c3e c282 30be 8fb6 e2be
00000190: 0b49 5bbe 0e43 ffbd a52e eabe fcc2 4c3b
000001a0: 8eb0 cdbb f2da 053f c22e 263e 746a f33d
000001b0: c396 8a3e c4e1 7bbd 44a1 253c 48c7 2b3e
000001c0: cc92 36be 3a99 623d 3a2b 52bd 6b5c f6bd
000001d0: 4bd8 f2bd ece1 8dbe a571 2c3e 928c b7be
000001e0: 7851 0e3e dcbc 9f3d 4be2 a03c 7d0b babe
000001f0: 3273 74be 3abb 8ebe 93f3 033e b4a6 acbe
00000200: 0e02 243e 3674 42be 24a0 59be 349d 48bd
00000210: 2844 0bbe 2005 32bd 8d1b 313e dccf c6bc
00000220: 4a65 8dbe 1cc0 623d a70b 73be 6c07 183d
00000230: 92a1 c3bc 5d7d 40bc c945 833d 774b d9bd
00000240: c212 8a3d 3828 f3bc 046e cd3d 0d55 e53b
00000250: 8406 29bd 0d74 16be 9a2a 07bd 5c5b ba3d
00000260: 8d26 98bc 6c32 f9bc 1c68 653b 8fd3 fd3d
00000270: 7fac 163d 9675 26bd 8a0f 0abd 5fad 9b3d
00000280: b3db 193e 5a0f 8f3e 67d7 0e3e a582 51be
00000290: 2b1e debe 076e 8f3e 15ab 64bd d193 903d
000002a0: 9785 ef3e 99ac a73e b23e 29be cc03 1a3e
000002b0: 2f18 5e3c 7304 acbe cc3d 17be 0b3f 483e
000002c0: 6619 1e3e 838c f1bd 3a79 ebbd 3e01 8fbe
000002d0: 0dc5 c6be d76b 86bd 42ef a63d cd8a 803e
000002e0: b93a fa3d f442 fa3e ef7d 763d 2267 653d
000002f0: d2b6 653d e454 043e d194 58be 1a95 393e
00000300: d1ca d6bd 7564 b13d 5df0 213e 9c5b 2dbe
00000310: 976d c1be 3f5b f93d 7b1c e0bd 4682 30bd
00000320: 8725 6e3d 1233 593d 9343 41bd 4775 833d
00000330: 7a91 81bd c3a2 f5bd 55d6 20bd d5a9 babe
00000340: c775 6bbe 6422 dc3e 9c89 2e3e 6579 0d3e
00000350: e2c3 0dbd 9839 5ebd 641e 29be b77e ea3d
00000360: 6d87 b8be 2bba 2a3e 93ee bdbc d5e4 10bd
00000370: 5ffd 313d 3799 47be c5dd 10be dd1a fe3d
00000380: e6ca 083b adec d83e 6ce0 d0bd 641d bbbd
00000390: c6dc 8e3e 062a aabe 3856 a2be 040d 21be
000003a0: 7d0a 84be a6bd ba3e 0f41 123e d63d f13d
000003b0: 4b76 993e ff6a 893e d69d 2c3e 447b 49be
000003c0: fb89 bdbe 501c d73e 5e49 9a3d a5f8 0c3e
000003d0: 8a72 1b3e f8af 173d 9ad0 213d 4f91 36be
000003e0: e042 683e f924 2c3e 4e1a a0be 57c5 363e
000003f0: 2569 1f3e 3aef 083d e958 bbbe c81c cbbd

encoder_layer_mhattentions.0.output_layer.bias f4 [32]
0.03934232 -0.27435523 -0.20444526 -0.2474546 -0.10843703 0.11082027 0.031998683 -0.14686318
-0.1645117 0.143124 0.090681985 -0.09797551 -0.15803479 0.29340154 -0.033047978 -0.004916421
-0.014011585 0.26867366 0.25498593 -0.20113535 0.19503242 -0.14823326 0.44096243 0.13609457
0.13859852 0.23489632 0.14915079 -0.09240485 -0.18113443 -0.2384558 -0.16508342 -0.040211022
00000000: 6a25 213d 4a78 8cbe 195a 51be bd64 7dbe
00000010: 3c14 debd bdf5 e23d 0d11 033d 4d63 16be
00000020: c175 28be 198f 123e 7ab7 b93d 62a7 c8bd
00000030: dfd3 21be ba38 963e 515d 07bd ee19 a1bb
00000040: d990 65bc 988f 893e 848d 823e 6df6 4dbe
00000050: 94b6 473e 76ca 17be d4c5 e13e 605c 0b3e
00000060: c5ec 0d3e a988 703e fcba 183e c13e bdbd
00000070: 4e7b 39be c22d 74be a10b 29be 50b4 24bd

encoder_layer_mhattentions.1.attention_heads.0.Q.weight f4 [8, 8]
0.83343107 -0.27935913 -0.08876263 -0.23885679 0.13709271 0.3767133 0.14130557 0.39327654
0.15572985 0.21541981 -0.35580027 0.4427463 0.09876795 -0.002563526 0.2358953 0.07325396
-0.15932582 -0.5135843 -0.4060774 0.17928162 -0.27893716 -0.20599747 -0.33542508 0.5584687
0.4171139 -0.2775051 -0.17036794 0.6728895 -0.3595114 0.35686263 -0.08014699 -0.23646991
-0.39569938 0.5385576 0.017707208 -0.035473876 -0.062931366 0.21146873 -0.271215 -0.2537878
-0.24013974 -0.0992148 -0.48126215 0.26599178 -0.14155026 -0.4327917 0.14657104 0.10236837
0.17540224 -0.035463553 0.04456765 0.32670343 0.20804974 0.0069433376 0.12739794 0.19027388
-0.26158434 -0.03429418 0.11245005 0.20551412 -0.20943914 0.057725746 0.59537834 -0.058493763
00000000: bd5b 553f 2908 8fbe 2fc9 b5bd e096 74be
00000010: 0862 0c3e 91e0 c03e 68b2 103e 8b5b c93e
00000020: a577 1f3e 0397 5c3e 742b b6be a5af e23e
00000030: da46 ca3d d400 28bb 8a8e 713e 2c06 963d
00000040: 4f26 23be 437a 03bf 61e9 cfbe 9a95 373e
00000050: dad0 8ebe 00f1 52be d6bc abbe cef7 0e3f
00000060: f48f d53e 2615 8ebe ef74 2ebe 7c42 2c3f
00000070: e111 b8be b3b6 b63e 1b24 a4bd 2b25 72be
00000080: 1c99 cabe e9de 093f b50e 913c 0e4d 11bd
00000090: 29e2 80bd 428b 583e b1dc 8abe 79f0 81be
000000a0: 31e7 75be 2131 cbbd fe67 f6be 1330 883e
000000b0: 8df2 10be e096 ddbe b816 163e 82a6 d13d
000000c0: a59c 333e 3b42 11bd 918c 363d ac45 a73e
000000d0: fe0a 553e f084 e33b 9b74 023e 28d7 423e
000000e0: 62ee 85be 0e78 0cbd 364c e63d 4b72 523e
000000f0: 3777 56be d571 6c3d b76a 183f 2897 6fbd

encoder_layer_mhattentions.1.attention_heads.0.Q.bias f4 [8]
-0.3667086 -0.27884793 -0.09793367 -0.06402449 -0.61170703 0.4658015 0.16915844 -0.010334057
00000000: 3bc1 bbbe 28c5 8ebe 7391 c8bd 461f 83bd
00000010: d598 1cbf 897d ee3e df37 2d3e 2d50 29bc

encoder_layer_mhattentions.1.attention_heads.0.K.weight f4 [8, 8]
0.3388605 0.008606664 0.2006606 -0.23109894 0.25515872 0.2816506 -0.73792654 -0.22586505
0.07822033 0.37849653 0.23224962 -0.45154032 0.22439714 -0.2405726 -0.24156539 -0.23179863
-0.16838396 0.2362697 0.41366458 0.68750143 -0.052149273 0.2053567 0.047671773 -0.39227363
0.26545084 0.50438553 0.12037238 -0.23338768 0.124072425 0.20682992 0.27100283 -0.59689426
0.036764298 -0.29367346 0.08128196 -0.11581634 0.29534307 -0.6360457 0.34447107 -0.31725475
-0.09453459 0.31700948 0.22428952 0.113324896 -0.18657033 0.37800202 0.26176912 0.21261628
-0.120237224 0.12875156 -0.052758295 -0.34971943 -0.077066414 0.11867601 -0.1936135 -0.032664172
0.09223024 -0.021855168 0.08930031 -0.16778634 0.30643007 0.2933627 0.42120707 0.19918568
00000000: 207f ad3e f702 0d3c f979 4d3e 33a5 6cbe
00000010: 2aa4 823e 8234 903e c1e8 3cbf 2b49 67be
00000020: fb31 a03d 4cca c13e d8d2 6d3e 4b30 e7be
00000030: 5dc8 653e aa58 76be eb5c 77be 9f5c 6dbe
00000040: d86c 2cbe aff0 713e d8cb d33e 1800 303f
00000050: 7a9a 55bd 0749 523e 7a43 433d 17d8 c8be
00000060: 2ce9 873e 691f 013f cb85 f63d 2efd 6ebe
00000070: af19 fe3d 39cb 533e e2c0 8a3e 10ce 18bf
00000080: 2996 163d 5e5c 96be 2877 a63d 1e31 edbd
00000090: 3537 973e e4d3 22bf 835e b03e 376f a2be
000000a0: 5a9b c1bd 114f a23e 27ac 653e e216 e83d
000000b0: 4b0c 3fbe 7b89 c13e 9a06 863e 15b8 593e
000000c0: ef3e f6bd 73d7 033e 1519 58bd 6d0e b3be
000000d0: ffd4 9dbd 680c f33d 9e42 46be deca 05bd
000000e0: 35e3 bc3d 9c09 b3bc 15e3 b63d 2fd0 2bbe
000000f0: 67e4 9c3e a333 963e 74a8 d73e 55f7 4b3e

encoder_layer_mhattentions.1.attention_heads.0.K.bias f4 [8]
0.1455491 -0.33650076 0.34090942 0.059129965 -0.2226211 -0.2204719 0.32917178 -0.109705105
00000000: d30a 153e d449 acbe ae8b ae3e 4332 723d
00000010: c9f6 63be 63c3 61be 3489 a83e 12ad e0bd

encoder_layer_mhattentions.1.attention_heads.0.V.weight f4 [8, 8]
0.025084773 0.16685896 0.005818129 -0.25759768 -0.11508249 0.21049012 -0.33059615 -0.1850364
-0.2100194 -0.067139864 -0.15328053 -0.28514224 -0.03533169 -0.28780666 -0.17839988 -0.2257606
-0.22433418 0.19300215 0.15818633 -0.0117805265 0.23063047 -0.014956349 -0.04885322 -0.048490975
-0.07289331 -0.36984545 0.06507253 -0.32409185 -0.10188266 0.098090746 -0.08544249 -0.14449042
-0.6073896 -0.014008682 0.2501981 -0.21343789 -0.11269097 0.06502056 -0.10776623 0.46698028
0.228441 0.37261346 0.15142842 -0.114076465 -0.023173407 -0.06254444 -0.03688039 0.17853667
0.239389 0.3377949 -0.2403547 -0.24446322 0.026581692 0.17394593 -0.004517964 0.153238
0.20235878 -0.54137033 0.14317986 -0.031856313 0.12931348 -0.115258954 -0.13434815 0.07088836
00000000: 957e cd3c 13dd 2a3e 01a6 be3b d8e3 83be
00000010: 5eb0 ebbd b98a 573e e643 a9be 2f7a 3dbe
00000020: 530f 57be a080 89bd 92f5 1cbe 2afe 91be
00000030: f6b7 10bd 655b 93be 75ae 36be c92d 67be
00000040: dcb7 65be 5ba2 453e 99fb 213e 1c03 41bc
00000050: 652a 6c3e 790b 75bc 501a 48bd 799e 46bd
00000060: 1649 95bd 625c bdbe bf44 853d 5eef a5be
00000070: dba7 d0bd cde3 c83d 79fc aebd 4cf5 13be
00000080: e37d 1bbf ac84 65bc f719 803e 768f 5abe
00000090: 86ca e6bd 8029 853d 8bb4 dcbd 0a18 ef3e
000000a0: 70ec 693e 31c7 be3e 0d10 1b3e eca0 e9bd
000000b0: 28d6 bdbc 4d17 80bd e40f 17bd 51d2 363e
000000c0: 6422 753e 74f3 ac3e 8b1f 76be 9154 7abe
000000d0: d9c1 d93c e21e 323e 6e0b 94bb 6cea 1c3e
000000e0: 2437 4f3e 3f97 0abf be9d 123e c47b 02bd
000000f0: c16a 043e e30c ecbd 9092 09be eb2d 913d

encoder_layer_mhattentions.1.attention_heads.0.V.bias f4 [8]
-0.045366365 -0.04997054 0.07976504 -0.059671417 0.1218997 0.10721771 -0.11583396 0.08913652
00000000: 15d2 39bd e9ad 4cbd da5b a33d 046a 74bd
00000010: 8da6 f93d f594 db3d 5b3a edbd 358d b63d

encoder_layer_mhattentions.1.attention_heads.1.Q.weight f4 [8, 8]
-0.29394326 0.07901778 -0.19736023 0.2349419 -0.16319561 -0.01719521 -0.31554905 0.20486216
0.12565465 -0.10346866 0.17306958 -0.32379845 -0.5141536 0.044729825 0.19094044 0.38440248
-0.21715556 -0.32464427 0.12993614 0.24341746 -0.5819807 0.1317356 0.10905706 0.52011764
0.3089587 -0.38729718 -0.07908904 -0.09924007 0.15672326 0.19349135 0.19310573 0.0028915317
0.04855668 -0.03788898 -0.50299424 0.3472543 0.22911388 0.3028051 -0.3354091 0.24098301
0.2915906 -0.15634772 -0.11027764 0.08438933 -0.7204599 -0.18846682 -0.7879255 0.20936441
-0.13105561 0.18575615 -0.42879727 0.09488036 0.15042385 -0.0023111897 -0.5822764 0.5943973
-0.35719806 -0.10442705 0.31882882 -0.2191234 0.34592783 -0.15278742 0.050250735 -0.7267171
00000000: bb7f 96be 13d4 a13d cd18 4abe 9c94 703e
00000010: c01c 27be f8dc 8cbc a58f a1be 63c7 513e
00000020: 9dab 003e 60e7 d3bd 2739 313e e9c8 a5be
00000030: 929f 03bf 9f36 373d e485 433e 67d0 c43e
00000040: 075e 5ebe c637 a6be fb0d 053e 6d42 793e
00000050: b0fc 14bf b2e5 063e 4f59 df3d 6e26 053f
00000060: d62f 9e3e d14b c6be 6ff9 a1bd 613e cbbd
00000070: 107c 203e 9922 463e 82bd 453e da7f 3d3b
00000080: 5fe3 463d 7a31 1bbd 3bc4 00bf 51cb b13e
00000090: d49c 6a3e 4509 9b3e beba abbe 40c4 763e
000000a0: 5d4b 953e 9e19 20be 3ed9 e1bd 50d4 ac3d
000000b0: 0f70 38bf 72fd 40be 7cb5 49bf a063 563e
000000c0: 7133 06be dc36 3e3e 518b dbbe a250 c23d
000000d0: b608 1a3e 5477 17bb 1110 15bf 6c2a 183f
000000e0: aae2 b6be d9dd d5bd 883d a33e e261 60be
000000f0: 741d b13e 4e74 1cbe b7d3 4d3d 220a 3abf

encoder_layer_mhattentions.1.attention_heads.1.Q.bias f4 [8]
-0.15319052 0.0106888 -0.17934602 0.06020736 0.0039190734 -0.3831589 0.24367064 -0.2746312
00000000: fadd 1cbe 1420 2f3c 7ca6 37be fe9b 763d
00000010: 926b 803b 672d c4be cc84 793e 769c 8cbe

encoder_layer_mhattentions.1.attention_heads.1.K.weight f4 [8, 8]
0.122753076 -0.15228263 -0.2575796 0.2584913 -0.40241048 0.11182406 0.16308273 0.24746579
-0.18665951 -0.14557719 0.4366687 0.036841203 0.2968559 -0.023730027 0.56857246 -0.23392338
0.12421076 -0.39525723 0.15015483 -0.0692951 0.035434004 0.3129322 0.41683206 0.1409507
-0.117249146 0.24319285 0.29350635 -0.32821828 0.42539132 0.114102714 -0.013859131 0.11211428
0.13187839 -0.0043302095 0.20567179 0.09376737 -0.7450598 0.35495552 0.012161528 0.39148998
-0.062275223 -0.22543855 -0.15964834 0.539241 -0.119828835 0.55505615 0.8384967 0.08986899
0.090346865 -0.122900434 -0.0073084733 0.16527422 -1.0101137 0.2982276 0.16891852 -0.09971701
0.1524131 0.052929282 -0.5500828 -0.012520088 0.36879027 -0.16131708 -0.51996374 0.23499131
00000000: f765 fb3d faef 1bbe 79e1 83be f958 843e
00000010: bf08 cebe 0304 e53d 29ff 263e ac67 7d3e
00000020: ac23 3fbe 3012 15be 0a93 df3e cde6 163d
00000030: 7ffd 973e 7965 c2bc f78d 113f 9c89 6fbe
00000040: 3662 fe3d 285f cabe 30c2 193e 97ea 8dbd
00000050: 3f23 113d a638 a03e 036b d53e 6155 103e
00000060: 5220 f0bd 8c07 793e 7746 963e 3a0c a8be
00000070: e4cc d93e afae e93d 6911 63bc 2c9c e53d
00000080: 210b 073e 6ee4 8dbb a09b 523e 1b09 c03d
00000090: 3dbc 3ebf bbbc b53e 2541 473c 6071 c83e
000000a0: 4e14 7fbd 5dd9 66be db7a 23be b30b 0a3f
000000b0: d268 f5bd 2918 0e3f b8a7 563f 3c0d b83d
000000c0: c707 b93d 39b3 fbbd eb7b efbb a53d 293e
000000d0: 684b 81bf 4ab1 983e faf8 2c3e 6f38 ccbd
000000e0: 2e12 1c3e 60cc 583d 3ad2 0cbf 0e21 4dbc
000000f0: 14d2 bc3e 4e30 25be 581c 05bf 90a1 703e

encoder_layer_mhattentions.1.attention_heads.1.K.bias f4 [8]
0.04279974 -0.05984271 0.20705512 -0.065680735 -0.010400363 0.13991559 -0.31221178 0.06581008
00000000: c84e 2f3d a11d 75bd 4206 543e 9f83 86bd
00000010: 4966 2abc 0846 0f3e 39da 9fbe 6fc7 863d

encoder_layer_mhattentions.1.attention_heads.1.V.weight f4 [8, 8]
0.27671564 0.10501258 0.16184166 -0.30215135 -0.16551442 -0.032302376 0.40274704 -0.11698535
0.1097531 0.05043697 0.24121405 0.20014448 -0.24657223 -0.12233049 -0.10806865 -0.15686467
0.21492858 -0.20087361 -0.1501206 -0.11084057 -0.14070718 0.052128527 0.10356527 -0.19640048
0.0370499 0.094933964 -0.43710682 0.4433654 0.14387673 0.15894204 0.16215242 -0.12004435
0.45289493 -0.12866646 -0.2024187 0.018709898 -0.080221415 -0.08081506 0.3252571 0.27990544
-0.3065401 0.19509174 0.004402011 -0.20977004 -0.045115914 -0.14408031 -0.09479809 -0.17291276
-0.007441639 0.16666107 0.018480266 -0.06895636 0.13965367 0.026726674 0.008694283 -0.20929433
-0.25885552 0.3929787 -0.022630611 -0.33113515 -0.3330281 0.15567316 -0.03356751 0.054226503
00000000: acad 8d3e d610 d73d d2b9 253e 95b3 9abe
00000010: 9d7c 29be 7f4f 04bd dc34 ce3e 0496 efbd
00000020: 3cc6 e03d ff96 4e3d d100 773e adf2 4c3e
00000030: 6e7d 7cbe 6888 fabd 1953 ddbd 22a1 20be
00000040: 3d16 5c3e d0b1 4dbe 37b9 19be 6100 e3bd
00000050: 8b15 10be b984 553d 071a d43d 351d 49be
00000060: a3c1 173d bd6c c23d 77cc dfbe ca00 e33e
00000070: 6c54 133e b4c1 223e 490b 263e d0d9 f5bd
00000080: d8e1 e73e 24c1 03be d946 4fbe 8045 993c
00000090: 204b a4bd 5e82 a5bd 1988 a63e c44f 8f3e
000000a0: d3f2 9cbe 21c6 473e bf3e 903b f5cd 56be
000000b0: 77cb 38bd ca89 13be 8025 c2bd 0b10 31be
000000c0: fed8 f3bb 33a9 2a3e ed63 973c fe38 8dbd
000000d0: 5f01 0f3e e6f1 da3c 7772 0e3c 4151 56be
000000e0: b688 84be 8134 c93e d563 b9bc 8c8a a9be
000000f0: a982 aabe c968 1f3e 167e 09bd 9c1c 5e3d
