models/model_chkpt_60.pt (torch, 318877 bytes, 387 tensors)

tokenizer.token_embedding.weight f4 [17, 32]
000000 6e 89 23 bf f5 3c f5 bf b2 7b b9 bd ef d3 ce 3d
       -0.63881576 -1.9159228 -0.09056796 0.10099017
000010 82 7f c5 3f 5f 65 6a 3f 50 79 21 3f 47 8b 64 3f
       1.5429537 0.9156093 0.63075733 0.8927502
000020 c3 1a ae bf 73 08 ba bf 19 c0 70 bd b9 64 9a 3e
       -1.3601917 -1.4533828 -0.05877695 0.3015497
000030 e0 09 93 bf d6 01 3e bf e4 ab c7 be f5 7d 47 be
       -1.1487389 -0.7422155 -0.3899833 -0.19481643
000040 ae 62 d3 be 0b ed f9 3e 6c 1b 2c bf 1e 7a e2 be
       -0.41286224 0.48813662 -0.6722934 -0.44233793
000050 23 b1 99 bf 19 40 02 c0 27 96 4e 3f 3b fe 19 40
       -1.2007183 -2.0351622 0.80697864 2.406142
000060 e3 14 1d be ae 84 20 3f 80 87 57 3f 88 db 88 3f
       -0.15339999 0.62702453 0.8419113 1.0691996
000070 0f 3b 2c bf 3f 74 39 c0 65 99 1b 3f 04 9a 97 be
       -0.67277616 -2.89772 0.60780936 -0.29609692
000080 55 11 73 bf c3 dc bd bf fb f2 9c 3f e7 f2 09 be
       -0.9494832 -1.4832996 1.2261652 -0.13471566
000090 2c e9 25 40 39 74 a9 3e a1 9d a1 be 6f 7e 1f 3f
       2.5923567 0.33096483 -0.31565574 0.623023
0000a0 f7 5d 8d bf 8a 80 76 bf 79 f4 c3 be 86 ed 0d 3f
       -1.1044301 -0.96289885 -0.38272455 0.55440557
0000b0 f2 3c 45 bf 2a 43 1b bf 47 09 02 bf 5a 34 bc be
       -0.7704612 -0.6064936 -0.50795406 -0.3675869
0000c0 5a 56 e1 3f 85 d5 d7 be 58 0e 16 3e f7 a3 9c 3f
       1.7604477 -0.4215509 0.14653909 1.2237538
0000d0 3c 1f 84 3f cf 79 13 3f 82 04 92 3f ce f0 e2 3d
       1.0322032 0.5760774 1.1407626 0.11081086
0000e0 b0 ea 85 bf d1 c3 7a 3d 86 2b b7 3f 54 4e e7 3e
       -1.0462246 0.0612219 1.4310157 0.45176947
0000f0 a4 80 3f bf 9f bf bc bf 4c 14 2a bf aa 64 48 3f
       -0.74805665 -1.4745978 -0.6643722 0.782786
000100 5c cb bb 3d 3a 44 08 3f b8 89 ac bd 51 ea f4 be
       0.09169647 0.53229105 -0.08424705 -0.4783502
000110 7c f5 49 40 b6 e1 56 3c 70 b0 d2 3f e6 eb 49 3e
       3.1556082 0.013115337 1.6460094 0.19718894
000120 af 99 92 bf 3c cd 02 bf 64 09 16 bf 0a b0 61 3f
       -1.145315 -0.5109441 -0.5860808 0.8815924
000130 5b fa b4 be 0e 43 06 bf c3 4d e6 be e8 e5 c6 be
       -0.35347256 -0.5244607 -0.44981202 -0.3884728
000140 1b 8f 78 3f 9b 0a 04 40 96 3c cb be bc d7 b0 bf
       0.9709336 2.0631473 -0.3969466 -1.3815837
000150 79 a3 68 bf ab 3a 99 be c1 7d 16 bc e1 28 fd bf
       -0.9087444 -0.29927573 -0.0091852555 -1.97781
000160 db ee b4 bf b4 be a6 3f ee 29 ba 3e ca 3d eb 3e
       -1.4135393 1.3026948 0.36360115 0.4594558
000170 60 37 fc 3e 6b 51 d4 bd f7 b5 99 be f6 27 76 be
       0.49260998 -0.10367092 -0.3002164 -0.24038681
000180 60 23 34 bf aa ef 92 3f 20 ab 3b 3e e7 37 3f bd
       -0.7036648 1.147939 0.18326998 -0.046684172
000190 97 8e 28 3e 21 09 f4 be ac 93 f9 3f 0f e2 41 3f
       0.16460644 -0.47663215 1.9498191 0.75735563
0001a0 ea 53 9a bf 71 98 62 3f 57 85 94 bf 2f be 42 3f
       -1.2056859 0.8851386 -1.1603192 0.7607145
0001b0 df 7a 8b 3d bc 1d 13 bf a2 f9 31 be 24 29 dc be
       0.06810545 -0.57467246 -0.17380384 -0.43000138
0001c0 d8 c1 4e 3e 5b a3 2d 3e 1f 92 d2 3f 5d e8 28 bf
       0.20191133 0.16956846 1.6450843 -0.6597956
0001d0 70 c2 1f bf 81 26 cf 3f dd 31 13 3f 33 6b 0f c0
       -0.62406063 1.6183625 0.5749796 -2.240918
0001e0 8e 9c b5 bf df 9c fd 3e b9 75 fb 3d 14 a9 61 bd
       -1.4188402 0.49533746 0.12278313 -0.055092886
0001f0 04 d7 b3 3e 87 78 84 3f 24 51 78 bf a0 2f d5 3e
       0.3512498 1.0349282 -0.9699881 0.41637897
000200 36 17 db be 30 e6 7c be c6 96 f1 3d 33 a7 83 3e
       -0.42791146 -0.24697185 0.11796336 0.257135
000210 cc 0c f1 be 84 5d cf bf 79 37 04 40 98 87 47 bf
       -0.47080076 -1.6200414 2.0658858 -0.77941275
000220 d7 f2 55 3e a9 46 f4 bd 09 95 9d 3e 7e 1a d9 3f
       0.20893417 -0.1192754 0.30777767 1.696121
000230 9f 53 4b 3e 2a 7d a0 3e a1 92 9f bf 1a 01 d6 3d
       0.19856118 0.31345493 -1.2466623 0.10449429
000240 61 e1 5c 3f 59 d5 ee 3e 6d d2 a9 3f 9a 09 98 bf
       0.862814 0.46647146 1.3267342 -1.187793
000250 c6 2e 90 bf 51 01 8f 3e c5 e0 56 3e 23 78 46 bf
       -1.1264274 0.27930692 0.2098418 -0.77527064
000260 d6 dc b6 bf 94 ff a4 3d e5 27 8b bf 56 a1 47 be
       -1.4286144 0.0805656 -1.087155 -0.19495139
000270 31 f8 ab 3e c4 02 02 40 34 b7 ca bf 00 e8 17 bf
       0.33587793 2.0314188 -1.5837159 -0.5933838
000280 98 3f 87 3f 43 6d 66 3f 52 f5 d3 3f 4c 38 03 3f
       1.0566282 0.9001047 1.6559241 0.5125778
000290 1a 8c 43 c0 38 3e 77 be 80 2d 03 3f c1 e9 3b 3f
       -3.0554261 -0.24144828 0.512413 0.73403555
0002a0 f1 06 57 be f4 52 8e 3f 28 69 ba 3e bb b3 8a 3f
       -0.20998742 1.1119065 0.36408353 1.0836099
0002b0 7d ed df bd ec 5c be be e8 7e 20 bf 53 b8 3d be
       -0.10933969 -0.3718027 -0.62693644 -0.18527345
0002c0 5a 38 f5 3f bf 44 fe 3e c0 6c 03 3f d2 45 04 bf
       1.9157822 0.49661824 0.51337814 -0.5166904
0002d0 95 ff 2e 3f ac 60 f5 be 41 1a 95 3e d2 de 47 3e
       0.6835874 -0.47925317 0.29121593 0.19518593
0002e0 22 bc 03 3e 2d 2f 9d be cd 20 2d be 0e 07 22 be
       0.12864736 -0.30700055 -0.16907044 -0.15823004
0002f0 48 af 70 bd 52 fa a9 3f 32 b2 a1 bf d9 74 95 be
       -0.05876091 1.3279517 -1.2632506 -0.2919071
000300 ab 30 02 bd 13 bb 98 bf 8e 8a c7 3d a7 3d 3a be
       -0.031784695 -1.193209 0.09743224 -0.18187581
000310 3c fa 82 bf e0 09 c9 bf 87 ff 2f 3e 8d b6 93 bc
       -1.0232615 -1.5706139 0.1718732 -0.018031383
000320 c0 fd 46 be 45 8d 66 3f 03 fa 4e 3f 56 a3 99 3f
       -0.19432735 0.9005931 0.8085024 1.2002971
000330 aa 25 45 be 7b 92 53 be ba 98 35 bf 85 25 99 3e
       -0.19252649 -0.20661347 -0.7093617 0.29911438
000340 f0 3d 7d 3f cb ad 0b 3f 1f 84 d2 bf 14 2d 97 bd
       0.98922634 0.5456206 -1.644657 -0.07381645
000350 b1 ee 43 3f f2 05 d5 be 08 76 b6 be 2f 8b 08 40
       0.7653609 -0.41606098 -0.35636926 2.133495
000360 13 2f c1 be dd 68 00 3e 11 91 3f bf eb 4d 28 bf
       -0.37731227 0.12540002 -0.7483073 -0.65743893
000370 0c f6 9a 3d 38 fe 08 40 a7 cc 49 bf d7 36 b6 be
       0.07566461 2.1405163 -0.788279 -0.35588714
000380 1f 58 5b bf d3 8b 1f 3c ad 5f 20 40 38 8b 8e 3f
       -0.8568134 0.009737927 2.5058396 1.1136236
000390 f6 eb 6a 3f f1 55 1a c0 33 9a 19 c0 ca 2b 04 be
       0.917663 -2.4114954 -2.4000366 -0.12907329
0003a0 f2 a8 a5 bd 6f be bc 3f 98 1f 61 3f 20 6b 87 3f
       -0.080888644 1.4745616 0.87938833 1.0579567
0003b0 29 db ce bd c3 fb f9 be 03 09 35 bf e1 5f ca bc
       -0.10100395 -0.4882489 -0.70716876 -0.024703922
0003c0 fe 5a df 3e 47 24 84 3e 69 2d da bf c6 41 69 3e
       0.4362411 0.25808927 -1.7045108 0.22778997
0003d0 db 2e e7 3f 50 e6 87 3f 14 d3 4f be 1d 52 9d 3f
       1.8061174 1.0617161 -0.20295364 1.2290684
0003e0 1d 3a 94 3f fc 18 e3 be a2 78 ca be bc 4f bf 3e
       1.1580235 -0.44355 -0.3954516 0.3736552
0003f0 b2 8c 22 bf 8e 08 d0 3e 52 f5 8a bf b9 0c df be
       -0.63495934 0.40631527 -1.0856116 -0.43564394

tokenizer.positional_embedding.weight f4 [9, 32]
000000 06 65 38 3f ea 09 61 be c0 ae b1 be 60 6a ea 3e
       0.7202915 -0.21976438 -0.34703636 0.45784283
000010 75 9a d8 3e 76 f7 e3 3f e0 c0 c3 3c 9b 19 04 bf
       0.4230534 1.7809894 0.02389568 -0.5160157
000020 db ca 07 bf 41 ca 1c 3f 44 86 08 40 ed 96 9c bf
       -0.5304391 0.61246115 2.133195 -1.2233559
000030 1b 7b 6a bf 0a e9 0c bf 8c ec 06 3f f3 46 9d bd
       -0.91594094 -0.5504309 0.5270469 -0.07679548
000040 16 62 85 3d b0 da 1e bf 2a 2b 2b 3f 53 5e 94 3f
       0.06512849 -0.6205244 0.6686274 1.1591285
000050 6b 9b 53 3d 8a b2 3d 3d f7 df 6f 3e 26 d5 fd 3e
       0.05166189 0.046312846 0.2342528 0.49576682
000060 36 95 50 bf 7a bc 4e 3f 36 61 d0 3f 6b 1e cd 3d
       -0.8147768 0.8075634 1.6279666 0.100155674
000070 c6 e7 85 be bc 0b a5 3e 4e ae 08 bf b5 3b 2e c0
       -0.26153392 0.32235515 -0.5339097 -2.7223942
000080 3e f8 a6 3f 5e 5b 03 3f 2a ec 1c 3f 40 fb ff 3e
       1.3044508 0.5131129 0.6129786 0.49996376
000090 19 f3 ab 3f 4c 3c 9c 3e 3c ef 95 3e 22 62 8b be
       1.3433563 0.30514753 0.29284084 -0.27223307
0000a0 9e 41 05 40 c6 60 0c 3f 95 f1 83 bf 66 0b 7a be
       2.08213 0.54835165 -1.03081 -0.2441841
0000b0 75 db c0 be 74 1b d5 3e d8 50 7f 3f 57 83 8e bf
       -0.37667432 0.41622508 0.9973273 -1.1133832
0000c0 af 0b 53 bd c0 45 56 bf 5d 90 f7 3e 02 f3 bb bf
       -0.051524814 -0.8370018 0.48352328 -1.4683535
0000d0 d9 78 76 3f 9a 13 7f 3e a2 ca 2a 3f 7b 6d 29 3f
       0.9627815 0.24909821 0.66715443 0.6618268
0000e0 4c 9e 48 3f 7e 42 4f be d3 b2 be 3f 89 2d 07 c0
       0.7836654 -0.20240209 1.4898323 -2.1121542
0000f0 7d 33 14 3f 2f da 10 3f 0a b1 e9 3f 89 8a 3a bf
       0.57891065 0.5658292 1.8257153 -0.7286764
000100 a1 c1 8e 3d c3 48 76 3f 40 ff 62 bc 27 96 8b bf
       0.069705255 0.96204776 -0.013854802 -1.0905198
000110 0c 38 d5 bd ec db f4 be 37 3c db be 4d af 95 3f
       -0.10411081 -0.47824037 -0.42819378 1.1694123
000120 15 9d 55 3f fa 0a d9 3e cf 97 bb bf 4d 16 ed bf
       0.83442813 0.42391187 -1.4655703 -1.8522431
000130 be 5e cc 3f fa 91 d1 bc dc 76 e7 bf 19 2f 5b 3f
       1.5966413 -0.025582302 -1.8083148 0.8561874
000140 a1 75 fa 3e 92 15 29 3f 8b 24 eb be af 8e 47 bf
       0.4891787 0.6604854 -0.45926318 -0.7795209
000150 be 62 ba 3f 7c 12 98 bf 9c 6a 0c bf 6e 75 98 be
       1.4561384 -1.1880641 -0.54850173 -0.29777092
000160 83 fb 9c bd 37 44 07 bf e1 01 b6 be 7f be 89 bf
       -0.076651596 -0.5283846 -0.35548308 -1.076126
000170 86 90 10 be 3c d1 4b bf ed 4a 91 3f 30 2b ae bf
       -0.14117631 -0.7961614 1.135099 -1.360693
000180 7e 76 35 bf 6a c0 db bf 4a 18 b9 bf 92 87 c7 be
       -0.7088393 -1.7168095 -1.4460537 -0.3897062
000190 e3 7c ad be 48 f6 3f bf 50 d6 d0 3e 5d fd 1b bf
       -0.33884344 -0.7498517 0.40788507 -0.60933477
0001a0 50 d4 35 bf ec 70 8d bd ad 9c ba be ac cc c1 bf
       -0.7102709 -0.06906304 -0.3644766 -1.5140586
0001b0 69 93 e5 3f 9c 9c 4b bf 78 72 a3 bf 29 d8 91 3e
       1.7935611 -0.7953584 -1.2769308 0.2848523
0001c0 12 6e 18 bf 25 cf b7 bf 54 a8 18 bf 7c ac 25 c0
       -0.59542954 -1.436009 -0.5963185 -2.5886526
0001d0 ad 5b ca 3f df 8e 0e 3f df a1 97 be b5 ae 9b bf
       1.5809227 0.55686754 -0.29615685 -1.2162691
0001e0 2b 9b 85 3f 90 0a bd 3f ba 80 cc 3e 02 ca 45 bf
       1.0437979 1.4768848 0.3994196 -0.77261364
0001f0 42 82 06 3f 16 7e 17 bf 31 ff 90 bf 45 11 32 bf
       0.5254251 -0.59176767 -1.1327878 -0.695576
000200 2a 91 99 3f 1f 50 19 bc bc ba 40 3e cc a8 a4 bf
       1.1997426 -0.009357481 0.18821234 -1.2864013
000210 1a 6a db 3e ae c6 a7 bf 41 7f 79 3e 2f 31 e1 3e
       0.42854387 -1.3107507 0.2436495 0.43982837
000220 a9 d4 e3 be 75 5c 72 3f 22 82 14 40 5c 69 36 3f
       -0.44498184 0.9467233 2.3204427 0.71254516
000230 4d 20 2c bf 9c 96 7a be cd 79 a8 3d 0d fa 45 bd
       -0.6723679 -0.24471515 0.08226357 -0.04833417
000240 58 58 ed 3d ce 81 91 bf 43 72 99 3f 75 d1 f1 3e
       0.11589116 -1.1367738 1.1987995 0.47230116
000250 56 69 a9 3e 27 c2 42 3f 24 28 4b bf 78 6c c6 be
       0.33088177 0.760775 -0.79358125 -0.3875463
000260 98 1d 8a 3f a7 57 30 3e 7a 20 6e be 30 64 7f be
       1.0790281 0.17220937 -0.23254576 -0.24940562
000270 c2 99 e8 3f d3 3c b9 3e e8 ee bc 3f 35 b7 ad 3f
       1.8171923 0.36179218 1.4760408 1.3571535
000280 67 e3 8f be 82 94 82 bf ec e2 ae 3f cf f4 c1 bf
       -0.28103182 -1.0201571 1.3663001 -1.5152835
000290 12 0c 83 bd fe 65 3c 3f 99 ed 44 3f 83 b6 32 bf
       -0.063987866 0.7359313 0.76925045 -0.6980974
0002a0 71 ed 2b bf 9e 68 73 bd c9 7a 01 bf cd 4e 3c 3f
       -0.6715918 -0.059425943 -0.5057798 0.7355774
0002b0 aa ba 03 bf 60 c5 af 3f bd 4b eb 3e bf d8 b0 bf
       -0.514567 1.3732109 0.4595622 -1.3816146
0002c0 33 da dd bf 55 c7 5f 3f e7 f7 81 3e 72 60 43 3f
       -1.7332214 0.8741353 0.25384447 0.7631904
0002d0 bb 16 ea be 6f be e6 3f d7 55 77 3e 02 a2 2f 3f
       -0.45720467 1.8026866 0.24153839 0.6860658
0002e0 8c b5 07 3e a6 4e 11 3f a3 99 15 c0 bd f7 ef bd
       0.13252848 0.56760633 -2.3375022 -0.11717174
0002f0 3e ce 90 be 5b 84 a8 3e b6 fc 30 bf 59 d3 3c 3f
       -0.2828235 0.3291348 -0.69135606 0.7375999
000300 c0 40 af be 05 08 02 3f d1 75 31 be 69 6c fd bd
       -0.34229088 0.50793487 -0.173301 -0.12374193
000310 52 4f 7c bc 87 8a 81 bf 9c cd f1 bf f3 fd 14 bf
       -0.015399771 -1.01204 -1.8890872 -0.58199996
000320 55 f6 da 3c af 8e ca bf ac 54 8c bf 38 dd 11 be
       0.026728788 -1.5824794 -1.096334 -0.14244545
000330 a7 47 e8 bf e8 20 8a 3f 5b 92 e0 be 5e b2 c4 3f
       -1.8146867 1.0791292 -0.4386166 1.5366933
000340 6f 94 ce 3e 01 7b 2a bf 28 de ce bf 17 4e 1f 3e
       0.4034762 -0.6659394 -1.6161547 0.15557133
000350 d1 27 19 bf 54 5d 5f 3f f3 e8 b3 3f b2 13 87 bf
       -0.5982638 0.8725178 1.4055465 -1.0552886
000360 6a df f1 be 85 cc 4d 3e 29 15 0c 3f 84 c2 8d 3f
       -0.47240764 0.2009755 0.5471979 1.1074986
000370 c2 80 11 bf e5 a8 96 3f ed 2e 8e 3f 64 6b dd 3e
       -0.56837094 1.1770293 1.1108071 0.43245995
000380 47 e0 d8 bf fc 8f 4a 3f 58 b6 dc bf 5e fd 61 3e
       -1.6943444 0.7912595 -1.7243147 0.22069308
000390 04 e7 39 be 81 ae 2f 3f 0b 16 8f be 2d 9a 78 3f
       -0.18154532 0.68625647 -0.27946505 0.97110254
0003a0 75 21 bf 3f 07 ec b9 bf 35 2f b3 be 4c a6 9e 3f
       1.4932085 -1.4525155 -0.34996954 1.23945
0003b0 ce b0 2c bf b9 a2 9c bf 97 e8 9b 3e bb 34 ec 3f
       -0.6745728 -1.2237159 0.3045089 1.8453592
0003c0 b5 62 a5 3e 89 c7 73 3e a9 49 2c 3e 40 80 e5 bf
       0.3230187 0.23806585 0.16824974 -1.7929764
0003d0 81 a5 38 3e 68 ba cb 3e 1b 65 5d bf 96 f7 38 bf
       0.18031885 0.39790654 -0.864824 -0.72252786
0003e0 52 f2 d8 3e 78 27 17 c0 03 86 81 bc d3 c8 ea be
       0.42372376 -2.361784 -0.015810972 -0.45856342
0003f0 ea b1 02 c0 2c 1b 31 bf 64 78 92 be 18 b1 95 3f
       -2.042109 -0.69182086 -0.28607476 1.169467

encoder_layer_mhattentions.0.attention_heads.0.Q.weight f4 [8, 8]
000000 1d 8f 23 bd 65 79 0e 3e c7 19 80 be 54 89 a2 3e
       -0.039931405 0.13913496 -0.25019667 0.31745398
000010 f3 44 e0 3b 87 25 77 3d 29 39 52 be 08 f1 29 be
       0.006844157 0.060338523 -0.20529617 -0.16595852
000020 ef ae 01 3e 54 ce 0a 3c bf 13 c7 be 62 eb df bd
       0.12664388 0.008472044 -0.38882253 -0.109335676
000030 e5 4f 83 bd 9e 99 7b be f5 98 90 be 5a eb 3d bd
       -0.06411723 -0.24570319 -0.28241697 -0.046367027
000040 dc 92 9a 3b ad 83 d0 bc 50 a9 81 3d a5 07 1a 3e
       0.004717214 -0.025453413 0.06331122 0.15041979
000050 55 7b da 39 85 71 b1 3a fe c5 0f 3d d9 24 67 bc
       0.0004167209 0.001353786 0.03510093 -0.014107906
000060 8c 2c 05 bd 9e 25 1a 3d 51 08 c5 3c f0 be 18 3d
       -0.032513186 0.03763353 0.024051817 0.037291467
000070 1d 59 b0 bc a7 c7 ea bc 87 5a e3 bb 5e 3f 0f 3d
       -0.021526868 -0.028659655 -0.006938282 0.03497254
000080 ba d7 ac 3d 89 e2 ca be 3e 6f 08 be a5 43 3b be
       0.08439584 -0.39625958 -0.13323686 -0.18287523
000090 37 96 0d be 87 c4 4e be b3 99 20 3d 30 86 95 3e
       -0.13826834 -0.20192157 0.03920908 0.2920394
0000a0 6a 97 c0 be 78 ee 04 bd 19 3f 66 3e 1b bf 3c bd
       -0.3761552 -0.032453984 0.22485007 -0.04608069
0000b0 2e 6a d3 bd b1 1e 22 3e 2f e0 5d 39 7e de a6 be
       -0.103229865 0.1583202 0.00021159717 -0.32591623
0000c0 ea c8 41 bd 33 29 b7 bc f5 2d c0 3d fb 4c ef bd
       -0.047310747 -0.022358513 0.093837656 -0.11684605
0000d0 b5 74 4b bd 44 ae 14 3e 5d f2 09 be 55 98 f0 be
       -0.049671847 0.14519602 -0.1347136 -0.4699122
0000e0 47 01 b6 be e3 f5 09 3d cc d5 1d be d3 6c 0e 3f
       -0.3554785 0.03368176 -0.15413588 0.556348
0000f0 8a f7 95 bd cd 29 20 3f b8 f0 d0 bc 76 af 0b bf
       -0.07322605 0.6256378 -0.025505409 -0.5456461

encoder_layer_mhattentions.0.attention_heads.0.Q.bias f4 [8]
000000 3a 6e 85 3e bf ea e1 be ba 73 dc 3c 79 a4 d4 3c
       0.2606066 -0.4412441 0.026910651 0.025957333
000010 af 8d 9c 3d c4 4d 3c be b3 5c 49 3f 92 80 cd 3d
       0.076442115 -0.1838904 0.7865707 0.100342885

encoder_layer_mhattentions.0.attention_heads.0.K.weight f4 [8, 8]
000000 71 75 58 3e 79 a3 41 3e cd a1 26 bf 63 ac 27 3e
       0.2113855 0.18910016 -0.6509064 0.16374354
000010 c7 91 7f bd 4a d7 9b bb 48 a1 c7 3b af b0 7a 3e
       -0.062394883 -0.004755889 0.0060922243 0.24481462
000020 9b 8b f4 be 8d ca 41 bd 69 1e 0a be 2f ab af 3e
       -0.4776276 -0.047312308 -0.13488163 0.3431029
000030 29 7b 84 3e ca 02 45 bc eb 83 22 3e 03 ea b4 3e
       0.25875214 -0.012024591 0.15870635 0.35334787
000040 82 ec 21 3d 06 52 a7 3d c9 f7 5e bd a0 c6 7a 3b
       0.039532192 0.081699416 -0.054435525 0.0038265362
000050 02 2d 67 3d 6f 81 05 3c 6e 81 7d bd 5d 87 ac 3c
       0.056439407 0.008148535 -0.061891012 0.02106064
000060 d4 dd b0 bc 38 5a 67 bd 7f 1e 69 3c d3 38 e4 bc
       -0.02159015 -0.056482524 0.014228462 -0.027859127
000070 ab c6 5c bc 7d 96 bb bc 08 9b f6 3c a8 49 e1 3c
       -0.0134751005 -0.022898907 0.030103222 0.027500942
000080 d8 5f fe bd 1a a6 67 3e 36 52 b2 3e 2a bc c9 bd
       -0.124206245 0.22621956 0.34828347 -0.098503426
000090 08 32 b7 be 63 27 21 3c 24 ca 26 3e ee 8a 80 bd
       -0.35780358 0.009836051 0.16288048 -0.06276499
0000a0 2a c0 5e bb ff 99 85 3e 59 15 b4 be 34 31 2c 3e
       -0.003398905 0.26094052 -0.35172537 0.16815645
0000b0 25 a2 13 3e d9 fd bf be 6f 2a 98 be 5e c2 13 be
       0.14417322 -0.37498358 -0.29719874 -0.14429614
0000c0 3e da da 3d f8 6d 70 bc 54 63 ce be ec 7e aa be
       0.10686158 -0.014674656 -0.40310156 -0.3329996
0000d0 dc ea 68 be 5a df be 3d 62 ad 8c be 68 55 0c be
       -0.22745842 0.09319945 -0.2747603 -0.13704455
0000e0 0c fe dd 3e b2 c9 3d bd 5c 70 d2 be e2 c0 94 3d
       0.43357885 -0.04633493 -0.41101348 0.07263352
0000f0 16 63 53 3e 84 8e 85 be c2 be 94 be 88 f9 05 3f
       0.20643267 -0.26085293 -0.29051787 0.5233388

encoder_layer_mhattentions.0.attention_heads.0.K.bias f4 [8]
000000 9d e0 a2 3d 8f 53 31 3e ca 0a ce ba 20 e5 c3 bd
       0.07952998 0.17317031 -0.0015719768 -0.095651865
000010 aa 71 10 be 14 98 cd bd 9e 3c c0 bd 5e ad 1c be
       -0.1410586 -0.10038772 -0.09386562 -0.1530051

encoder_layer_mhattentions.0.attention_heads.0.V.weight f4 [8, 8]
000000 27 e8 a1 3e f9 37 1d 3e d1 9c fa bd 4d 7f f7 3d
       0.3162243 0.15353383 -0.122369416 0.120848276
000010 8a b9 f3 3d 63 fb f9 bc cf bf 7d bc d2 24 f2 be
       0.11900623 -0.030515378 -0.015487625 -0.47293717
000020 43 af a4 bc 55 d0 87 3e 22 8f 4e bd bf 65 05 bf
       -0.020103103 0.26526132 -0.05042947 -0.5210838
000030 a0 ca 98 bc 33 f8 bb 3e ae 96 bd bd b6 b9 b2 be
       -0.018651307 0.36712798 -0.092572555 -0.3490731
000040 61 61 4b 3e d9 58 38 3e 25 38 f5 3d f4 6b 75 bd
       0.19861366 0.18002643 0.11973599 -0.059917405
000050 0e 1b 6d 3e 6e bc 79 3e 15 20 65 be c0 ea 25 3e
       0.23154852 0.24388286 -0.2237552 0.16202831
000060 1a 8f 03 bd 31 1f 40 3d bc aa 16 3d 93 5f 4d ba
       -0.032118894 0.046904746 0.03678392 -0.0007834371
000070 90 c8 1c be 1a 43 58 be 67 d4 4b 3e 9f c6 04 3f
       -0.15310884 -0.21119347 0.19905244 0.5186557
000080 0c 05 99 3e 7d 37 6f be 5c 7e 25 be 4e a4 83 be
       0.29886663 -0.23361011 -0.16161484 -0.25711292
000090 0b 2b 3a bd 34 a5 a1 3c 51 0b 3a be 49 c7 6c 3e
       -0.045451205 0.019732095 -0.1816838 0.23122896
0000a0 51 21 09 be 14 0e 98 bd c5 0d 8a bd c1 eb d8 3e
       -0.13391615 -0.0742456 -0.067409076 0.42367366
0000b0 64 ab 07 bd aa dc d3 3d e8 22 47 3e 2e 4a 64 3e
       -0.033122435 0.10344823 0.1944691 0.22293922
0000c0 d7 07 d4 bd 09 cc 0b 3e 90 e3 8e 3d 15 ca 63 3e
       -0.10353058 0.13652052 0.06976998 0.22245057
0000d0 13 ff 8c be bf 11 60 3d a9 1f 91 be 6d 41 5d 3e
       -0.27538356 0.054704424 -0.28344467 0.21606989
0000e0 25 9a 4c bd df cb a9 bd 2b d8 0a be f2 87 51 3e
       -0.04995169 -0.082908385 -0.13559024 0.20462015
0000f0 5d 16 68 be 05 53 1b 3e 53 bc 0a be 85 db b2 3d
       -0.22664781 0.15168388 -0.13548402 0.08733276

encoder_layer_mhattentions.0.attention_heads.0.V.bias f4 [8]
000000 8e 8e 25 be f0 da 86 be 59 1c 10 be 69 68 65 3e
       -0.16167662 -0.2633891 -0.14073314 0.2240311
000010 9b f4 1d be 86 c1 1a 3e dc 1b 86 3e 22 12 46 3d
       -0.15425341 0.15112886 0.2619313 0.048357137

encoder_layer_mhattentions.0.attention_heads.1.Q.weight f4 [8, 8]
000000 30 d2 c8 3d cd 82 9b 3d 10 a9 3a be 72 cb cc bd
       0.09805715 0.07593308 -0.18228555 -0.099997416
000010 cb 38 48 3e 05 ab ab 3d 31 05 01 bd b0 0b 57 bd
       0.19552915 0.08382229 -0.03149909 -0.05250138
000020 d7 81 16 3e 16 36 04 3e f0 2c 24 be 5f d6 dc 3d
       0.14697967 0.12911257 -0.16032767 0.107830755
000030 d7 87 ea be 4f d9 3c 3f 43 fc 88 3d 62 e4 52 bf
       -0.45806763 0.73769087 0.0668874 -0.82379735
000040 12 9f 92 be a7 fd c8 bc ca 26 00 3f 10 b7 6f be
       -0.28636986 -0.024535013 0.5005919 -0.23409677
000050 5c 4b 20 3f 48 3a 9e 3e ae f3 1a 3d 72 dd 9c be
       0.6261499 0.3090384 0.037830047 -0.306377
000060 2c ee d3 3e d5 ea e2 3d 88 79 2b 3d 58 f3 dc bd
       0.41392648 0.11079947 0.041863948 -0.10788602
000070 9e df 44 3e a8 c1 0d bf 9e b5 06 3f 53 b2 83 be
       0.19225928 -0.5537362 0.52620876 -0.25721988
000080 ce aa 1b 3f 18 7d 90 be 37 a4 36 be 0e 57 d5 3d
       0.608075 -0.2822044 -0.1783608 0.10416995
000090 b5 13 6e 3e f1 5b 74 3e 71 91 cc 3e 65 91 c6 3e
       0.23249705 0.23863198 0.39954713 0.38782802
0000a0 15 73 fe 3c 98 57 30 bc 66 00 b0 bb e3 50 3f be
       0.031060735 -0.0107630715 -0.0053711412 -0.186832
0000b0 8f 22 84 bd 6d 00 e8 3e 6a bc d0 be d0 1c 8b be
       -0.06451904 0.45312825 -0.4076875 -0.2717042
0000c0 32 ef 04 bf ee 58 dd 3c 60 7f b9 3e 84 5d 83 bd
       -0.51927483 0.027019944 0.36229992 -0.06414321
0000d0 08 ba 08 be 58 d9 0c bd b5 b4 39 be 03 7f 80 3e
       -0.13352215 -0.034386963 -0.1813534 0.25096902
0000e0 58 0b b6 3e 07 65 13 be 20 08 26 be 5c af f6 3d
       0.3555553 -0.14394008 -0.16214037 0.12045166
0000f0 3a ed 68 3e 2b 85 1b 3e dc 6a 0c 3e 76 fb af 3c
       0.22746745 0.15187518 0.13712639 0.02148221

encoder_layer_mhattentions.0.attention_heads.1.Q.bias f4 [8]
000000 4f 17 6a bc 43 ab f2 3d 47 72 95 3b f9 ed 1b 3d
       -0.014287784 0.11849072 0.004560742 0.038068745
000010 94 cf a5 be 98 32 85 bd 3d 82 aa be bf cf f8 bc
       -0.32384932 -0.065037906 -0.3330249 -0.030372499

encoder_layer_mhattentions.0.attention_heads.1.K.weight f4 [8, 8]
000000 ba 07 6d be f5 67 6b 3e 3f dc 31 3e e9 e1 85 3c
       -0.23147479 0.22988875 0.17369173 0.016343074
000010 bf c9 a3 3d d4 bb c8 bc ca 8b 94 bd d2 4f 45 3e
       0.079974644 -0.024503626 -0.07253225 0.1926873
000020 86 ac 49 be ac 0b c2 3d 44 6c 11 bf bc 78 86 be
       -0.19694719 0.094748825 -0.56805825 -0.26263988
000030 b4 7f 10 be 6b e6 cc 3d be d6 36 bf 16 a7 4a 3f
       -0.14111215 0.10004886 -0.7142142 0.791612
000040 5a 72 e2 3d 3e 6b ec 3d 10 e1 02 be 8a 39 0b be
       0.11056967 0.11543892 -0.12781167 -0.13596168
000050 51 9a 23 bf 98 e3 30 3f 6f a7 83 3e 7e b2 66 bb
       -0.63907343 0.6909728 0.2571368 -0.0035201604
000060 b0 4c 5e be 64 57 4c 3e e6 67 a2 bc 17 9c a2 be
       -0.21708941 0.19955212 -0.019824933 -0.31759712
000070 54 7a 5f 3e 30 fd 04 3f 24 e0 75 be cb 9c d0 be
       0.21824008 0.51948833 -0.24011284 -0.40744624
000080 33 7a 03 bf 16 13 6d be 3e 33 70 3e 8c 84 1f 3e
       -0.51358336 -0.23151812 0.23457047 0.15577906
000090 27 bc 21 3f 48 65 64 3d 7b 3f d5 3d 53 44 4b 3e
       0.6317772 0.05576065 0.104124986 0.19850282
0000a0 03 24 b9 3d c3 ea 8d 3d 5b ed 8b bd 29 64 c1 3b
       0.09040072 0.06929543 -0.06832381 0.0059018326
0000b0 2c 5c a5 bd 6b d9 f7 bc ad 2a 1a 3d 49 4d fb 3e
       -0.08074221 -0.03025504 0.037638355 0.490824
0000c0 49 89 da 3e 6f 90 a5 bd 3b bb 78 be 73 9b a9 3e
       0.42682865 -0.08084189 -0.24290173 0.3312641
0000d0 3a f1 27 be 6c 40 92 3d 3f 6b 15 3f a2 df a5 bd
       -0.16400614 0.07141194 0.5836677 -0.08099295
0000e0 4f 5c be be 75 1e dc bd b4 eb 74 3e 63 75 2b 3d
       -0.371798 -0.10747997 0.23918039 0.041859996
0000f0 91 ab 51 3e a8 ea 30 3d be 2f 47 be fd 28 af 3d
       0.20475604 0.043192536 -0.19451806 0.0855274

encoder_layer_mhattentions.0.attention_heads.1.K.bias f4 [8]
000000 3f 83 5c be 4e 3d 7c 3c bc 0d 30 be 20 78 6d 3e
       -0.21534441 0.015395476 -0.17192739 0.23190355
000010 7e 36 02 3d 56 ed 5c be 9a 69 f8 3d 37 b5 54 be
       0.03179025 -0.21574911 0.12129517 -0.20772253

encoder_layer_mhattentions.0.attention_heads.1.V.weight f4 [8, 8]
000000 5e e4 1d be fb 2b b1 be ad c3 5f bd de 9d d9 be
       -0.15419146 -0.34603867 -0.05462997 -0.42503256
000010 e2 62 c6 be 51 d3 9c be 49 10 2a be 4a 2a 99 3d
       -0.38747317 -0.30629972 -0.16607775 0.07478769
000020 90 1f be be d8 c6 9f 3d ed ac 5b 3e d9 b6 01 be
       -0.37133455 0.07801598 0.21452685 -0.12667407
000030 37 6a c6 bd 7d 24 0b bd 3c 0a 08 bd 50 7d 21 3e
       -0.096882276 -0.033970345 -0.033212885 0.15770459
000040 21 57 67 3e 4b 3f 87 be 53 ac 84 be 48 78 e7 be
       0.22591831 -0.26415476 -0.25912723 -0.45208955
000050 70 2c 9a 3e 85 85 de 3e e8 6e d1 3e c4 86 ab 3e
       0.30112028 0.43461242 0.40904927 0.33501256
000060 df c7 ff bc 93 39 d4 bd 63 64 ab 3d 3a d6 e8 3e
       -0.031223236 -0.10362544 0.083687566 0.45475942
000070 eb 85 8c 3d 2f 2e 13 bc 83 3c 3a bd 02 2d 8e 3e
       0.0686148 -0.008983179 -0.045467865 0.27768713
000080 37 6d 58 3e 12 e4 ff bd 7e ba 14 3e 50 a7 20 bf
       0.21135412 -0.12494673 0.14524266 -0.627553
000090 58 24 22 3e 0c 05 93 3e 09 05 e1 3e a4 bd ef 3e
       0.15834177 0.28714788 0.43949154 0.46824372
0000a0 15 94 b1 3d ae db 2a 3e a8 d5 2c 3e c8 14 bb bd
       0.086708225 0.16685364 0.16878378 -0.09134823
0000b0 db 63 92 3e 08 e1 f5 3d e5 75 2b 3d e4 8a 89 bc
       0.2859181 0.12005812 0.04186048 -0.016789861
0000c0 be ac ed bc 26 a2 d7 be 04 a2 32 3d 1e ce 90 be
       -0.029013034 -0.42115897 0.04361154 -0.28282255
0000d0 47 65 17 3e 23 bb 4b 3e ef f3 d0 3e f8 c2 d3 bd
       0.14784728 0.19895606 0.40811107 -0.10339922
0000e0 33 ae 9e be c9 a1 db 3d 98 a4 14 be 64 dc 3e 3d
       -0.30992278 0.107242174 -0.14515913 0.0465969
0000f0 a8 c9 85 be 12 ec 4d 3e 16 4c 8f be 19 27 55 be
       -0.26130414 0.20109585 -0.27987736 -0.20815696

encoder_layer_mhattentions.0.attention_heads.1.V.bias f4 [8]
000000 47 26 db 3d 85 7a c6 bd 03 b2 9a be e2 74 1a be
       0.1070066 -0.096913375 -0.30213937 -0.1508365
000010 20 fd 89 be 1b 8e 6e bd 4f c1 6f be 36 e8 cf 3c
       -0.26950932 -0.05824099 -0.23413585 0.025379281

encoder_layer_mhattentions.0.attention_heads.2.Q.weight f4 [8, 8]
000000 ac 20 83 3e 5e 8a a4 be 58 5a c0 bb 2d f3 2c be
       0.25610864 -0.32136816 -0.005870145 -0.16889639
000010 a5 a9 f0 bd 5b 77 39 be dd 60 68 3e 9f 95 73 3e
       -0.11751107 -0.18111937 0.226932 0.23787545
000020 e2 ff 92 3c b4 5a f4 bc f7 ad c4 3d 18 f1 92 be
       0.01794428 -0.029828407 0.09603494 -0.28699565
000030 4a 6d 01 3d 0f cc 0b 3e 41 eb 9c 3d 5e 59 d6 3d
       0.031598367 0.13652061 0.076620586 0.10466264
000040 97 a3 dc bc 2a b2 c8 3e 1f c3 d5 bd c7 3c 2d 3e
       -0.026933474 0.39198428 -0.10437607 0.16917716
000050 75 21 4c be 56 45 a0 3e 9a 7e 13 3f 05 b6 82 3d
       -0.19934638 0.313029 0.57615054 0.06382374
000060 da ad 74 3d b5 25 b9 3e 1f 41 b6 3e 48 21 31 be
       0.05973611 0.3616158 0.35596558 -0.17297852
000070 7b 72 10 3c 9e 34 9c bd d6 26 9c bd 67 a3 e1 3e
       0.008816357 -0.076272234 -0.07624595 0.4406998
000080 3e 0b 15 3e 0e ab a3 be 94 02 95 bd 10 bf 19 3f
       0.1455507 -0.31966442 -0.07275882 0.60057163
000090 18 c3 08 be 0a 3c 17 bf 93 ec 68 bf 85 62 eb be
       -0.13355672 -0.5907599 -0.90985984 -0.45973602
0000a0 0a 26 08 bd 85 39 5c 3d 85 69 19 3b fa f1 93 bd
       -0.033239402 0.053765792 0.0023408842 -0.07223888
0000b0 59 9d e5 3c e5 7b a1 3c 75 a9 1e bd c4 c1 d7 3c
       0.02802913 0.019712398 -0.038735826 0.026337512
0000c0 9f 9d 89 bd 6d 4c d2 3e 5b ad 95 3e 23 93 2d 3f
       -0.06719517 0.41073933 0.29233822 0.6780264
0000d0 b4 66 85 bc c3 bb 89 be 98 a7 4a bf 36 97 06 be
       -0.016284324 -0.26901063 -0.7916198 -0.1314362
0000e0 2f c3 3d 3d 94 05 d5 3e 20 77 ad be 60 4e bc be
       0.04632872 0.41605818 -0.33879948 -0.36778545
0000f0 3e 6f 74 bd 96 bb d1 3e 68 77 8b 3e 0b e2 e8 3d
       -0.0596764 0.4096343 0.27239537 0.11371239

encoder_layer_mhattentions.0.attention_heads.2.Q.bias f4 [8]
000000 2f 15 4b 3e 91 7b 88 3d 26 18 19 3e ff 90 e9 3d
       0.198323 0.066641934 0.14950618 0.11404609
000010 29 65 61 3d 15 11 a7 3b de b4 5a be b9 ab 10 3f
       0.055028114 0.005098472 -0.21358058 0.5651203

encoder_layer_mhattentions.0.attention_heads.2.K.weight f4 [8, 8]
000000 db 14 ef bd 1a 3e e7 3d ee 86 7a be 37 92 4f 3e
       -0.116739 0.11291142 -0.24465534 0.2027062
000010 15 0e e3 3c dc df 15 bf e5 1c 62 bd 9a 3a a9 be
       0.027716676 -0.5854471 -0.055203337 -0.33052522
000020 75 19 76 3e ee 76 97 be 26 5e d5 3c 72 37 43 bd
       0.24033149 -0.29582924 0.02604587 -0.0476603
000030 36 c4 6b be e2 ab 21 bd 89 ec 28 bd 52 c7 b4 bd
       -0.23024067 -0.03947056 -0.041241203 -0.0882708
000040 76 d6 19 bf cb d5 89 be 61 cf 05 3f 21 ff 40 3e
       -0.60092866 -0.26920924 0.5226956 0.18847324
000050 12 38 ab 3e 26 6c df 3d 31 f4 4c bc ff 1d 77 be
       0.33441216 0.109092996 -0.012509392 -0.24132536
000060 de f7 24 3e 13 a0 ce be 18 75 32 be 16 ea d0 3e
       0.16110179 -0.40356502 -0.1742748 0.40803593
000070 b0 19 9d 3e f0 7e cb be 4a d1 55 3e 0f ad 9d be
       0.3068366 -0.39745283 0.20880619 -0.30796096
000080 2d 30 b0 3e 8a d8 11 3f e9 f3 db bd 46 a6 75 3c
       0.34411755 0.5697104 -0.107398815 0.014993256
000090 18 4a 01 bf e7 53 05 3f 14 11 25 3f f3 74 8f 3e
       -0.50503683 0.5208115 0.64479184 0.28018913
0000a0 74 0e a5 3d 32 43 21 bd 88 86 7c bc d5 63 4d 39
       0.08059397 -0.039370723 -0.015412934 0.00019587514
0000b0 c2 ea e6 bc 5f 2b 71 3d 0c f8 b2 3c 68 a8 c8 bb
       -0.028188113 0.058879253 0.021846794 -0.006123591
0000c0 56 69 83 3e 5a 12 11 3f 3c fe ff 3d 19 48 a0 3c
       0.25666302 0.5666863 0.12499663 0.019565629
0000d0 4d 18 b4 3d 38 1f 11 3f 86 2d 4d 3f c3 42 04 3e
       0.087936975 0.5668826 0.8014759 0.12916093
0000e0 8a 00 3d be 6a 61 fc be 54 d7 1e 3e 56 8b a6 3e
       -0.18457237 -0.4929307 0.15511829 0.3252818
0000f0 34 d3 a3 3d ed c7 8f be 66 b0 27 bf 50 53 9b be
       0.07999268 -0.2808222 -0.6550354 -0.30337

encoder_layer_mhattentions.0.attention_heads.2.K.bias f4 [8]
000000 e4 81 98 3e 16 56 a0 3d 88 f7 78 be 4d 2d 43 be
       0.297866 0.078289196 -0.24313176 -0.1906025
000010 5e 5a ab bd 9d 6a 8e be b9 23 83 3e 9a 5b 6c 3d
       -0.083668455 -0.27815714 0.25613192 0.057704546

encoder_layer_mhattentions.0.attention_heads.2.V.weight f4 [8, 8]
000000 d5 eb 45 be 29 1f ad 3e 55 0b b1 3d c2 11 cf 3e
       -0.19328244 0.33812836 0.086447395 0.40443236
000010 45 59 e6 bd 67 89 70 3e 1b 16 90 be e5 f2 39 b9
       -0.112474956 0.23489915 -0.28141865 -0.0001773346
000020 35 77 09 be b4 b4 00 be ac ce 4f be c8 33 97 be
       -0.1342438 -0.12568933 -0.20293683 -0.29531693
000030 e9 ae 5b 3d d3 37 83 3e 6d e4 75 3d 71 82 0a bd
       0.053633604 0.25628528 0.060032297 -0.033815805
000040 07 d6 36 3d ad 71 57 bd 82 50 4b bd 44 29 94 3c
       0.044637706 -0.052598644 -0.049637325 0.018086083
000050 c4 2a 0c be 2e 61 35 3e 3b 7b e7 bd c1 92 f3 bd
       -0.13688189 0.17712852 -0.11302801 -0.118932255
000060 f4 f5 47 3b 6e 4e b7 bd 76 e9 8a be d0 c9 9d 3e
       0.003051159 -0.08950506 -0.27131242 0.30818033
000070 17 b7 e6 3d c3 4b 1f 3e 8e 61 49 3e b6 0c 04 3d
       0.1126539 0.15556245 0.1966612 0.032238685
000080 40 e3 60 bd 3a f4 11 bd 93 bc 13 3d 9e b7 1c 3e
       -0.054904222 -0.035633303 0.03606851 0.1530442
000090 d8 4a 02 bd 30 5c b0 bc 5e 2f 84 3e 03 8a 78 be
       -0.031809658 -0.021528333 0.25817388 -0.24271397
0000a0 d3 9c 9d bd 57 a6 1f bd 57 5c 0b be b2 18 84 3e
       -0.076959275 -0.038976993 -0.13609444 0.2580009
0000b0 47 e6 bc be bd dd db bd 25 ed da 3e c7 68 15 be
       -0.36894438 -0.107356526 0.42759052 -0.1459075
0000c0 8e f9 d4 bb b2 91 8c 3e 32 a1 3e be 59 d6 f5 3d
       -0.006499476 0.27454907 -0.18616179 0.12003774
0000d0 b4 17 4c 3d c7 53 79 be 1a 7a 02 3e 41 98 03 be
       0.049827293 -0.24348365 0.1274189 -0.12851049
0000e0 5b 15 11 3e fd e3 63 be cb 2a 5a bd 26 ae ef bd
       0.14168303 -0.2225494 -0.053263467 -0.11703138
0000f0 bc fc 9a 3c cf 50 c6 bc bc e9 c0 be 1a 30 1f 3e
       0.018919341 -0.024208454 -0.37678325 0.15545693

encoder_layer_mhattentions.0.attention_heads.2.V.bias f4 [8]
000000 84 74 b9 3e 44 e3 99 be 87 0f 24 3e 1c 95 d6 3c
       0.36221707 -0.30056202 0.16021548 0.026194148
000010 98 17 03 bd 10 91 dd 3e ec a9 7a 3d 05 95 27 be
       -0.032004923 0.43274736 0.061197206 -0.1636544

encoder_layer_mhattentions.0.attention_heads.3.Q.weight f4 [8, 8]
000000 05 0b 6b 3e 3d 8a b4 3c 2b 32 c0 be 7a 71 21 bf
       0.22953422 0.022038573 -0.37538275 -0.63063776
000010 5e 68 ba 3e f6 af 86 be 45 aa 86 3e f8 a6 f6 3e
       0.3640775 -0.26306123 0.2630178 0.48174262
000020 a5 35 bb 3d cd 89 88 3e ca 4e af bd ab d4 df 3e
       0.09141091 0.26667634 -0.0855995 0.4371694
000030 e3 ab 0b be 68 89 ec 3d 80 30 a3 bc fc cd 6f 3e
       -0.13639788 0.11549646 -0.019920588 0.2341842
000040 ed a0 19 be ab 42 d9 3d 95 20 db bd 52 77 8d 3d
       -0.15002795 0.10608419 -0.10699574 0.06907524
000050 75 a6 83 bc b7 ae 00 3e 4e 3d 56 3e ca 5c b2 be
       -0.016070584 0.12566648 0.20921823 -0.34836417
000060 00 ad de bd 98 53 44 be 3a 75 2e be 04 62 3b bd
       -0.10872841 -0.19172513 -0.17036906 -0.04574777
000070 85 3a 94 be 92 e6 98 3d 2e c7 a6 3e 9d a3 7d 3c
       -0.28950897 0.07465853 0.32573837 0.015480903
000080 89 b9 07 3e d4 16 9f be 89 f4 1a 3e a9 46 11 bd
       0.1325437 -0.31072104 0.15132345 -0.035467777
000090 0e b6 06 3f 6f e6 d5 bd 66 cd cf be 60 b4 cb 3c
       0.52621543 -0.10444342 -0.40586394 0.024866283
0000a0 6d d0 db bc c3 28 d9 3e 72 77 16 3d 60 e7 8e bd
       -0.026832784 0.4241391 0.036735006 -0.06977725
0000b0 f9 c0 e0 be ac c6 c0 3d 77 bb 0b 3e 62 82 69 3d
       -0.43897226 0.09412894 0.13645731 0.05700911
0000c0 34 cb 13 be dd 3d ac be d6 1b a0 be 10 97 7e be
       -0.14432985 -0.33640948 -0.31271237 -0.24862313
0000d0 ec 7d cd 3e d6 2b 00 bf 1e dc e3 bd e4 53 02 3e
       0.40135133 -0.5006689 -0.111259684 0.12727314
0000e0 4b 79 41 3e 9e 0f 7c 3e 00 1d 49 3e 94 a4 0a bf
       0.18893926 0.24615332 0.19639969 -0.54157376
0000f0 26 f7 98 3e 67 a5 8c be cb b9 cf be 5e 56 ee bd
       0.2987606 -0.27469942 -0.40571436 -0.11637567

encoder_layer_mhattentions.0.attention_heads.3.Q.bias f4 [8]
000000 d0 ee ac be 4f 8c eb bd 33 a1 be 3d b7 5e bc be
       -0.3377595 -0.11501371 0.0930809 -0.36791012
000010 88 2f 6e 3e 6d a4 e7 3e c1 3c 81 be 64 9f a8 3e
       0.23260319 0.45242634 -0.25241664 0.32934105

encoder_layer_mhattentions.0.attention_heads.3.K.weight f4 [8, 8]
000000 1b cb ad be 3d 3a c0 3e 5e 45 0f bd 7d ef 4b be
       -0.3394402 0.37544432 -0.034978263 -0.19915576
000010 55 52 ba be 53 d3 17 3c c1 89 12 bf a4 f0 de be
       -0.3639094 0.009266692 -0.57241446 -0.4354297
000020 88 24 8d 3e 31 b0 6a be cc 89 36 3d 8a 82 03 3f
       0.27566934 -0.22918774 0.044565007 0.5137106
000030 a5 e6 20 bc e5 91 b7 3e ae 34 2a bd 7e 29 2e be
       -0.009820615 0.35853496 -0.041554146 -0.17008016
000040 c5 3e ed be fd fb ab bc dc 98 28 be 70 6e 7d bd
       -0.46336952 -0.02099418 -0.16464561 -0.0618729
000050 fd 1e a5 3e 2a 2e 78 bd ed 52 ae 3e 08 31 2a be
       0.32250205 -0.0605909 0.34047642 -0.16620266
000060 36 d4 c7 bd 12 3f 32 bc a5 a6 57 3e 65 43 d7 be
       -0.09757273 -0.010879295 0.21059664 -0.42043605
000070 ee 42 0d 3e a0 7d 66 3d 60 0d 20 be a6 53 99 3d
       0.13795063 0.05627215 -0.15630102 0.07486658
000080 65 ce b5 3e 8e 78 8e 3e b3 80 0a be 64 8e 4e be
       0.3550903 0.2782635 -0.13525657 -0.20171505
000090 b9 ed 15 be 29 d0 29 be 76 fc 76 be 5b 6b 81 3c
       -0.14641465 -0.16583313 -0.24119744 0.015798261
0000a0 a2 a4 92 be 1b 67 e3 be 36 a8 91 be 15 56 c0 3e
       -0.2864123 -0.444146 -0.28448647 0.37565675
0000b0 61 98 65 3d 11 1d 4c 3e 9f d7 4c 3e a7 33 52 3c
       0.056053523 0.19932963 0.20004128 0.012829698
0000c0 08 b6 b8 3c da 12 09 3f 52 92 40 3e f8 44 de be
       0.022547737 0.5354439 0.18805817 -0.43411994
0000d0 f7 34 22 be f7 5a 00 be 87 88 62 be 09 01 40 bd
       -0.15840517 -0.125347 -0.22122394 -0.046875987
0000e0 aa cc 2b be ce 78 8a 3e ef 1f 1d bf 9c cf cc be
       -0.16777292 0.27045292 -0.6137685 -0.40002143
0000f0 3c aa ba be d6 35 c6 bc 6b 81 8b 3e 41 8a 72 bc
       -0.36458004 -0.024195593 0.27247176 -0.01480347

encoder_layer_mhattentions.0.attention_heads.3.K.bias f4 [8]
000000 44 d9 97 be 48 8d 2b 3d e8 3f 0c be 65 0a 83 3e
       -0.29657948 0.041882783 -0.13696253 0.25593868
000010 82 8e b2 3e 7f 3d 8d 3e a3 6d dc 3d 22 2c ee 3d
       0.3487435 0.2758598 0.10763099 0.116295114

encoder_layer_mhattentions.0.attention_heads.3.V.weight f4 [8, 8]
000000 6e e8 1d be 58 70 f6 bc 01 93 34 bd 9f ac 9e be
       -0.15420696 -0.030082867 -0.044085506 -0.30991074
000010 89 96 af 3d d3 cd 39 be 91 80 c2 3c 9b 6a 0e be
       0.08573634 -0.18144922 0.023742946 -0.13907854
000020 8d cd 91 be b7 94 18 3e 9f 59 de bc 36 35 eb 3d
       -0.28477135 0.1490048 -0.027142344 0.114847586
000030 fc 2b a9 3e 59 71 d0 bd 66 9c f3 bd 12 98 d0 bd
       0.3304137 -0.10177869 -0.11895065 -0.10185255
000040 21 18 43 be e0 53 7f 3e 4c a1 0c 3e 19 90 9f 3e
       -0.19052173 0.2493434 0.13733405 0.31164625
000050 33 03 7a be 55 1b 93 3e f8 06 91 bd 29 40 87 3e
       -0.24415283 0.2873179 -0.07081407 0.26416138
000060 bf ac 3b be a6 68 ec bd 4c d6 0a bd a8 29 37 3e
       -0.18327616 -0.115433976 -0.033895776 0.17886984
000070 20 7f 2c 3c c5 12 48 3d dd 61 60 3c 63 08 e5 3d
       0.010528356 0.048846025 0.013695207 0.1118324
000080 8e 7c 6b be 40 07 a8 be d7 7e a3 bd 3e 88 87 3e
       -0.22996733 -0.3281803 -0.07983177 0.26471132
000090 86 12 9a be 95 a8 54 3e 4f d3 a2 3e ce 61 cc bc
       -0.30092257 0.20767434 0.3180184 -0.02494898
0000a0 5c a0 a7 3d 90 9a 4f 3b f4 46 aa be 3d 90 98 3e
       0.08184883 0.003167782 -0.33257258 0.29797545
0000b0 a0 df 31 3d 04 5f e7 bc b2 eb ef bd 4d c5 b8 be
       0.043426156 -0.02824355 -0.11714877 -0.3608803
0000c0 ed 60 31 3e c1 3b c5 3e 92 73 15 be ff 4a 26 3e
       0.1732213 0.3852215 -0.14594868 0.16239546
0000d0 c5 a2 b1 be 80 a8 87 3d ad 9a 85 be 48 66 d1 3d
       -0.34694496 0.06623936 -0.2609457 0.10224587
0000e0 ea 17 61 3e d1 c5 28 3e c3 81 09 3e b7 26 6f 3e
       0.21981779 0.16481711 0.13428406 0.23354612
0000f0 ba f6 56 3e f4 0b 32 3d 80 22 bb be 46 91 5e 3e
       0.20992556 0.04346843 -0.3654976 0.21735105

encoder_layer_mhattentions.0.attention_heads.3.V.bias f4 [8]
000000 50 fb b6 3b e7 e4 52 3c 4d 40 3d bd ff b2 6a be
       0.005584158 0.012871957 -0.0462039 -0.22919844
000010 49 de c0 be fd e9 87 3d ba 11 98 3e ab 02 17 3e
       -0.3766959 0.066364266 0.29701024 0.14747111

encoder_layer_mhattentions.0.output_layer.weight f4 [32, 32]
000000 74 c2 b1 bb 39 52 80 be 21 f4 10 3d 86 6b d2 3e
       -0.005424792 -0.2506273 0.03538907 0.4109766
000010 85 25 ac 3d 6b 74 1c 3e 9e 39 9e 3e 61 38 43 bd
       0.08405594 0.15278785 0.30903333 -0.04766119
000020 be 12 9b bd c0 6e 46 bd 80 d4 08 bf e0 4c 7c 3e
       -0.07571934 -0.048445463 -0.5344925 0.246387
000030 76 c2 17 bf 5c 69 32 3d 7e 45 ec be 3e 2e 1d be
       -0.592811 0.04355751 -0.46146768 -0.15349671
000040 24 37 be 3e b5 c2 76 3d b6 d2 b0 bd da e9 45 3e
       0.37151444 0.06024428 -0.0863394 0.19327489
000050 02 3f 80 be 73 cc 25 be 2c d7 d4 3d 21 40 cb bd
       -0.2504807 -0.16191272 0.10392603 -0.09924341
000060 3c 33 6c be eb 0c 34 be 28 ff 87 3d 27 dd 50 be
       -0.2306642 -0.17583053 0.06640464 -0.20396863
000070 ea b4 07 bf 76 d6 50 3e a2 5a e9 3e 6c e4 16 3e
       -0.5301043 0.2039431 0.4557696 0.14735574
000080 4b 43 6a be b4 55 bf 3e 0e c7 5a 3e 89 11 80 be
       -0.22877233 0.37370074 0.21364996 -0.25013378
000090 59 56 80 3e 4d 5a ef be 2e 57 19 3e f0 29 0d 3d
       0.25065878 -0.46748582 0.14974663 0.034463823
0000a0 32 33 69 be b6 13 a4 bd 3b ab 05 3f 5b 7b 0d bf
       -0.22773436 -0.08011572 0.522144 -0.5526635
0000b0 e0 8f 3c 3f 27 48 9b 3e 05 8b 6e 3e a8 31 9c be
       0.73657036 0.30328485 0.23295219 -0.30506635
0000c0 4c 74 5b 3e 6f e6 16 be 74 af 40 bd e3 4b f0 3e
       0.21431082 -0.14736341 -0.047042325 0.46932897
0000d0 d7 a2 b7 bd 7e 6a 1a 3e 5c 70 8d 3e 93 7b 4d be
       -0.08966606 0.15079686 0.27624786 -0.20066671
0000e0 d2 ef 6c 3d 00 1f 89 be 9a 9a 69 be 41 c8 0a 3d
       0.057845898 -0.26781464 -0.22812882 0.033882383
0000f0 ec 73 9f 3e 9d 57 1a 3e 4c 9a ca bd cd 23 aa be
       0.3114313 0.15072484 -0.09892711 -0.3323044
000100 76 e9 4f be ad 3a fc 3d 0d b8 32 3e 96 50 97 3d
       -0.20303902 0.12315879 0.17453022 0.073884174
000110 87 0e fe bd 5f 74 31 be 2e a3 cb 3e 3a 06 24 be
       -0.124051146 -0.17329548 0.39772934 -0.16018
000120 f3 2b a0 3e 7b 55 88 bd 9f b1 2e bf d6 24 0c be
       0.3128353 -0.06656929 -0.6823978 -0.13685927
000130 39 0a 20 bf 8c de d3 be a4 5d 2a 3e 90 7b 0e 3e
       -0.625156 -0.41380727 0.16637284 0.13914323
000140 61 39 b9 be fd ef 6e 3e e8 0e 76 3e 1b 68 4f be
       -0.3617659 0.23333736 0.24029124 -0.20254557
000150 fd 55 51 be e5 41 ff 3d 45 77 ec 3c 8c bf 8c 3e
       -0.20442958 0.1246374 0.028865466 0.2748989
000160 51 29 7d be a0 5f d5 3c 40 b1 d9 bd 19 5a 2b be
       -0.24722792 0.026046574 -0.10629511 -0.16733588
000170 87 b0 64 be 25 af d7 3c 09 a0 38 3d c6 2e 8a 3e
       -0.22332965 0.026328633 0.045074496 0.2698881
000180 d2 59 e8 3e 4a b8 14 3e e0 0a 22 be f5 a6 00 bf
       0.45381027 0.14523426 -0.15824461 -0.50254756
000190 d5 ec 9f be 5a 4c fc bd 2e 30 18 bf f1 18 21 be
       -0.31235376 -0.123192504 -0.59448516 -0.1573217
0001a0 df 46 09 bc fd ec 02 3f cd 08 0c 3e 08 b9 f0 3d
       -0.008378713 0.51142865 0.13675232 0.11754042
0001b0 06 e4 9d 3e 31 7c 57 bd 21 37 34 bd b4 40 53 3e
       0.3083803 -0.052608673 -0.043997888 0.20630151
0001c0 dc c9 cc bd 74 9b 66 bd b9 ab 5d 3d 38 c0 2d be
       -0.09999439 -0.056300595 0.054118846 -0.16967857
0001d0 30 8c b2 bc 9b 48 51 be d5 72 47 3e 73 73 8d be
       -0.021795362 -0.20437853 0.19477399 -0.27627143
0001e0 f5 e0 71 3e 60 05 18 3e f6 fe 70 3d 32 d9 95 be
       0.2362097 0.148458 0.0588369 -0.2926727
0001f0 be d8 12 be 86 0e 54 be a6 db fb 3d f1 a9 c0 be
       -0.14340493 -0.20708665 0.12297754 -0.37629655
000200 42 af 26 3e 82 68 43 be 5e 1c 40 be 34 2e 3b bd
       0.16277793 -0.19082835 -0.18760821 -0.04569836
000210 39 5d f3 bd a2 93 7d bc 37 fc 1a 3e 79 77 e5 3c
       -0.11883015 -0.015477093 0.15135275 0.02801107
000220 a5 0f 91 be 2d a9 86 3d 50 b4 8e be e7 60 8c 3c
       -0.28332248 0.065752365 -0.27871943 0.01713605
000230 85 af 50 bd 70 0e 38 3c 60 2c 84 3d 22 26 c9 bc
       -0.05094864 0.011233911 0.06453776 -0.024554316
000240 0f 7f 07 3d bc 75 44 bd e6 19 29 3e 34 c1 ae 3c
       0.033080157 -0.047963843 0.16513786 0.02133236
000250 a5 f0 eb bc 45 55 7b bd 70 77 d4 bc 33 e9 54 3d
       -0.028801272 -0.061360616 -0.025935858 0.05198021
000260 da 6a c4 bd 23 77 1f bd af 90 c3 3c a6 3a cd 3d
       -0.09590693 -0.038931977 0.023872701 0.10020952
000270 3b 24 9d 3d 55 a2 3b bc 98 f9 35 bd 06 1c c5 3d
       0.07672926 -0.011452277 -0.044427484 0.09624486
000280 ed 8d 4b 3e 4b 6c 74 3e 50 cd bc bc ba 50 19 be
       0.19878359 0.23869435 -0.02304712 -0.14972201
000290 c0 50 fc be 0f 5b 84 3e 05 4d ae 3d 72 16 9e 3d
       -0.49280357 0.25850722 0.08510784 0.07719125
0002a0 ee 70 f7 3e d4 68 9a 3e 17 0c e5 bd 19 37 fd 3d
       0.48328346 0.30158103 -0.111839466 0.12364025
0002b0 6d 6c 4d 3d 2d 1a 8a be af 76 21 be 45 93 4e 3e
       0.05015223 -0.26973096 -0.1576793 0.20173366
0002c0 ed 9e ec 3c 98 a7 41 bd 23 0d 11 be 51 bb ba be
       0.028884375 -0.04727897 -0.14165168 -0.36471036
0002d0 23 e9 97 be 2f 37 18 be 9e 5a 19 3d 2d 6f 92 3e
       -0.29670057 -0.14864801 0.037439935 0.28600445
0002e0 32 19 26 3e d4 88 d6 3e c5 e9 99 3d 68 db 78 3d
       0.16220549 0.41901267 0.07515291 0.060756117
0002f0 d4 b2 ed 3d d9 bb 61 3e 32 ca ed bd 94 f7 2e 3e
       0.116063744 0.22044314 -0.11610831 0.17086631
000300 5d 8b ca bd 31 da 4e 3e ca 4a 6b 3e 31 a1 21 be
       -0.09889863 0.20200421 0.22977749 -0.15784146
000310 96 ff af be c9 38 fb 3d 28 3e 51 be 2e ba 00 be
       -0.34374684 0.1226669 -0.20433867 -0.12571022
000320 b7 11 94 3d 6b be fa 3c d8 59 71 bd 0b d5 1b 3e
       0.07229941 0.030608376 -0.058923572 0.15217988
000330 26 6d d8 bd cf 2f 38 be 57 4b 94 bd 23 01 a6 be
       -0.105676934 -0.17986988 -0.072409324 -0.32422742
000340 25 c2 52 be 10 f2 f3 3e 22 b9 ad 3d 76 05 64 3d
       -0.20581873 0.47645617 0.08482577 0.05566927
000350 f1 26 2d be ee b1 ef bd 2b 1b 4f bd b9 b4 12 3e
       -0.16909386 -0.11703859 -0.05056302 0.14326753
000360 65 ef a8 be cf 6f 21 3e 0c 80 91 bd e7 02 62 3b
       -0.32995144 0.15765308 -0.07104501 0.0034486593
000370 8b da 3d 3d 12 a0 04 be bd 8c 47 be f7 8e 3b 3e
       0.046350997 -0.12951687 -0.19487281 0.18316256
000380 7c d9 c1 3c f5 86 cc 3e 42 08 78 be aa c8 41 be
       0.023663275 0.39946714 -0.242219 -0.18924204
000390 88 cc ab 3e b3 b8 a9 be 93 1b 03 bf d7 13 69 be
       0.33554482 -0.33148727 -0.5121395 -0.22761475
0003a0 73 db 53 be d8 5b b9 3e c6 3f 2b 3e 62 b1 ac 3e
       -0.20689182 0.36202884 0.16723546 0.33729082
0003b0 8a 7e a1 3e 3c 1a 10 3e 04 6c b5 3d 8d 20 5d be
       0.31541854 0.14072508 0.08858493 -0.21594448
0003c0 97 96 fd be 63 1f db 3e e9 38 aa bd 1e cc 62 3d
       -0.49528953 0.42797384 -0.08311636 0.055370443
0003d0 d5 1d 30 3e 61 5c 41 bc f6 7b 82 3d 40 bc 53 be
       0.1719888 -0.01180181 0.063713 -0.2067728
0003e0 93 80 0c 3e 74 fb 6d 3d 7a 39 b5 be 1a 34 c4 3d
       0.13720922 0.058101133 -0.35395414 0.0958025
0003f0 74 d8 28 3e f7 eb f1 bc 15 aa ca be 5a a2 1a be
       0.1648882 -0.029531462 -0.39582887 -0.15100995

encoder_layer_mhattentions.0.output_layer.bias f4 [32]
000000 b1 37 53 3c 06 bb 85 be 62 8f 78 be 40 8f 91 be
       0.012891696 -0.2611925 -0.24273446 -0.28429604
000010 4e 7f 95 bd 64 26 13 3e 01 90 3a 3b d8 79 54 be
       -0.07299672 0.14370114 0.002846718 -0.20749605
000020 bb 72 0e be 5c b0 03 3e d1 a8 1a 3e d0 bc 53 be
       -0.13910954 0.12860245 0.15103461 -0.20677495
000030 1e 62 38 be 85 82 aa 3e 16 c5 30 3c 5b a4 9d bd
       -0.18006179 0.33302703 0.010789176 -0.07697364
000040 05 e3 b6 bd 3f 8a 85 3e 41 0a 78 3e 44 70 75 be
       -0.08930019 0.26082036 0.24222662 -0.23968607
000050 12 e5 86 3e ab 8e 1a be a8 b5 ff 3e cd 42 27 3e
       0.26346642 -0.15093486 0.4994328 0.16334076
000060 c0 92 fd 3d fb 90 82 3e 5a e5 fd 3d b1 d1 fe bd
       0.12381506 0.25501236 0.12397261 -0.12442339
000070 1a 94 13 be 14 71 6f be de 91 25 be 58 57 40 bd
       -0.14411965 -0.2338298 -0.16168925 -0.046958297

encoder_layer_mhattentions.1.attention_heads.0.Q.weight f4 [8, 8]
000000 2d 97 47 3f f1 86 dc be 65 0b 66 bc af e1 6f be
       0.7796505 -0.43071702 -0.014040803 -0.23425935
000010 13 55 e4 3d 3b 92 c3 3e 74 5f 3d 3e c6 fb c0 3e
       0.11149039 0.38197502 0.18493444 0.37692088
000020 35 b3 33 3e f7 fb 29 3e cb 0b cc be 15 09 01 3f
       0.17548831 0.16600023 -0.39852747 0.50404483
000030 5b 5b 17 3e 3c 4e 97 bd c3 84 71 3e d9 09 3d 3d
       0.14780943 -0.07387969 0.23585801 0.04615197
000040 fd 56 1f be 97 c8 ff be b5 46 05 bf f5 f4 20 3e
       -0.15560527 -0.49957725 -0.52061015 0.15718444
000050 9d 73 70 be 53 09 28 be 93 eb ba be 7b bb 10 3f
       -0.23481603 -0.16409807 -0.36507854 0.5653607
000060 d3 df cb 3e 5c 6d aa be 0d 86 32 be 69 97 2f 3f
       0.39819202 -0.3328656 -0.17433949 0.6859041
000070 fd 17 d2 be 90 dd c9 3e 26 d0 de bd 2d e5 47 be
       -0.41033927 0.3942685 -0.10879545 -0.19521017
000080 b1 3f 80 be df 45 05 3f 80 2c 67 3d 0d ee 23 bd
       -0.25048593 0.5205974 0.056438923 -0.040021945
000090 6d df 62 bd 7c d7 75 3e 50 26 a0 be 36 e6 8d be
       -0.055388857 0.24007982 -0.3127923 -0.277147
0000a0 9b 57 a0 be 54 60 a5 bd 18 90 18 bf cb e5 95 3e
       -0.31316838 -0.08075014 -0.5959487 0.2927688
0000b0 e5 b9 c3 bd ec 3b 12 bf fc 52 29 3e 9e 53 d4 3d
       -0.09556941 -0.57122684 0.16535562 0.10367511
0000c0 d1 9c 78 3e ab 03 b7 3d a1 1a 67 3d 76 d1 ce 3e
       0.2427857 0.089362465 0.05642188 0.4039418
0000d0 dd a9 22 3e a9 a6 d8 bd 81 a9 34 3e 1c 53 43 3e
       0.1588511 -0.10578663 0.17642786 0.19074672
0000e0 84 ac 87 be e6 fe 98 bb fc 8b 38 3e 19 84 77 3e
       -0.26498806 -0.004669058 0.1802215 0.24171485
0000f0 f6 81 6f be c2 7b 8c 3c f1 09 1d 3f 20 58 76 3c
       -0.2338942 0.017148856 0.61343294 0.015035659

encoder_layer_mhattentions.1.attention_heads.0.Q.bias f4 [8]
000000 de a9 ae be bb f5 c1 be 4d fe 5c bd 7e ef 20 bd
       -0.34113973 -0.3788279 -0.053953458 -0.039290898
000010 96 a4 34 bf e4 5f 02 3f 33 b3 62 3e f6 b0 14 bc
       -0.7056364 0.5092757 0.22138672 -0.009075394

encoder_layer_mhattentions.1.attention_heads.0.K.weight f4 [8, 8]
000000 56 6f dc 3e 28 db 14 3c ac 33 52 3e 3a 34 1d be
       0.43053693 0.009085454 0.20527524 -0.15351954
000010 cf b8 92 3e e9 de 4e 3e 2b f3 3a bf ad 8b 82 be
       0.28656623 0.20202221 -0.73027295 -0.2549719
000020 80 c7 9c 3d 11 59 f1 3e f9 6c 8b 3e aa 24 d2 be
       0.07655239 0.47138265 0.27231577 -0.41043597
000030 7b 90 87 3e 0f d1 8b be 4f 34 8b be bf 89 83 be
       0.26477417 -0.27307937 -0.27188346 -0.2569103
000040 71 cc e1 bd 2b bb 8c 3e fb f1 dd 3e e6 c2 37 3f
       -0.11025322 0.27486548 0.4334868 0.71781766
000050 06 1b a1 bc 93 8d 42 3e 23 03 42 3d f2 f3 bf be
       -0.019666206 0.18999319 0.047366273 -0.37490803
000060 d5 39 aa 3e c3 c7 06 3f 56 9d 2b 3e 7d ae 8a be
       0.33247247 0.5264856 0.16759238 -0.2708625
000070 2c 02 06 3e 20 2a ce 3d 1b b4 9f 3e 50 4b 23 bf
       0.13086766 0.100666285 0.31192097 -0.6378679
000080 9f a1 ee 3c c3 bd 6e be 89 ad 27 bd 01 c2 b8 bd
       0.029129801 -0.23314576 -0.04093698 -0.09021378
000090 26 09 a3 3e e8 98 39 bf b3 9b af 3e 24 68 99 be
       0.31842917 -0.7249894 0.34298477 -0.29962265
0000a0 a7 20 0f be 9c 0a be 3e 32 97 8c 3e 3b 9e 8a 3d
       -0.139773 0.3711747 0.27459103 0.06768461
0000b0 a0 de 36 be 5f a1 fa 3e f0 50 48 3e 4c 0f 74 3e
       -0.17858362 0.4895124 0.19562125 0.2383396
0000c0 07 17 6e be 0a ad c5 3d 7c 4b 81 bc 39 c8 ac be
       -0.23250972 0.09652145 -0.015783064 -0.33746508
0000d0 03 95 93 bd c6 b7 3e 3e 4b b0 14 be c9 18 47 be
       -0.07206156 0.18624792 -0.14520375 -0.19443049
0000e0 bb 0b db 3d 51 0c 90 bd 83 53 d0 3d b8 57 82 be
       0.10695597 -0.07033599 0.101721786 -0.2545755
0000f0 a6 5c 9d 3e f2 ea bb 3e d1 b2 cf 3e ed 4c 41 3e
       0.30734748 0.36702687 0.40566114 0.18877001

encoder_layer_mhattentions.1.attention_heads.0.K.bias f4 [8]
000000 5c 34 1a 3e 5c 5c a7 be b1 d5 ac 3e d5 e7 93 3d
       0.15059036 -0.32687652 0.33756784 0.07221953
000010 3d a8 55 be b3 56 69 be f6 92 a6 3e 84 89 d6 bd
       -0.20864959 -0.2278698 0.32533997 -0.10475448
