models/model_chkpt_30.pt (torch, 318877 bytes, 387 tensors)

tokenizer.token_embedding.weight f4 [17, 32]
0	0xbf1418b1	-0.57850176
1	0xbfc61c4c	-1.5477386
2	0xbc617bbc	-0.013762411
3	0x3f109a55	0.5648549
4	0x3fc03e07	1.5018929
5	0x3f8ffefa	1.1249688
6	0x3efa2ffc	0.48864734
7	0x3f555548	0.83333254
8	0xbfb38deb	-1.4027685
9	0xbfc97d4a	-1.574136
10	0xbdd58a73	-0.10426798
11	0x3e5de58a	0.21669593
12	0xbf8e4012	-1.1113303
13	0xbf407267	-0.75174564
14	0xbec883ce	-0.3916306
15	0xbdd9ce9a	-0.10635109
16	0xbf08cf5f	-0.53441423
17	0x3ec234cd	0.3793091
18	0xbf34fc01	-0.7069703
19	0xbea984f6	-0.33109254
20	0xbf939099	-1.1528503
21	0xc0084763	-2.129357
22	0x3f835d08	1.0262766
23	0x3ffa1ae2	1.9539454
24	0xbe7cc059	-0.2468275
25	0x3f1221a8	0.57082605
26	0x3f61c918	0.8819747
27	0x3f67a95f	0.90492815
28	0xbf3b09e4	-0.73061967
29	0xc02faf3b	-2.7450702
30	0x3f4355ff	0.76303095
31	0xbf0e836e	-0.55669296
32	0xbf4cd40c	-0.8001106
33	0xbfc3d2a2	-1.5298655
34	0x3fa7017e	1.304733
35	0xbe9b637e	-0.30349344
36	0x40141183	2.3135688
37	0x3e9417e4	0.28924477
38	0xbed8e249	-0.42360142
39	0x3ed3795e	0.41303533
40	0xbf7767ee	-0.9664296
41	0xbf952c55	-1.1654154
42	0xbe3f662a	-0.18691316
43	0x3e868657	0.26274368
44	0xbf2d2364	-0.67632127
45	0xbe7f9e36	-0.24962696
46	0xbf0bafaf	-0.54564947
47	0xbeb50314	-0.3535391
48	0x3fbf338a	1.4937603
49	0xbea37daf	-0.31931826
50	0x3d3b2b4b	0.045695584
51	0x3f99d6e2	1.2018702
52	0x3f40768b	0.7518088
53	0x3eba7796	0.36419362
54	0x3f969373	1.1763748
55	0x3e60eab8	0.21964538
56	0xbf8e435f	-1.111431
57	0x3d8908a3	0.066911004
58	0x3fb39c0e	1.4031999
59	0x3ea3f33d	0.32021514
60	0xbf54cb35	-0.8312257
61	0xbfb532b5	-1.41561
62	0xbf0460b7	-0.51710075
63	0x3f456c01	0.77117926
64	0x3ee73219	0.4515541
65	0x3f09bfb3	0.53808135
66	0x3d43875a	0.047736503
67	0xbf30198d	-0.6878899
68	0x402b46b5	2.6761906
69	0x3da94e54	0.08266893
70	0x3fa94f60	1.3227348
71	0x3e851043	0.2598897
72	0xbf888739	-1.0666267
73	0xbf1ae491	-0.60505015
74	0xbf1f4731	-0.62218004
75	0x3f75648a	0.95856535
76	0xbe5fa5bf	-0.21840571
77	0xbeeb84b8	-0.45999694
78	0xbed5d156	-0.41761273
79	0xbc93d946	-0.01804794
80	0x3f3f0f8d	0.74633104
81	0x400e5aff	2.224304
82	0xbe90c7a2	-0.28277308
83	0xbf8e062a	-1.1095631
84	0xbf263ea6	-0.64939344
85	0xbdaf0966	-0.085467145
86	0x3e2d13aa	0.16902032
87	0xbff73f75	-1.931624
88	0xbfaf2a6a	-1.3684819
89	0x3fb2aefc	1.3959651
90	0x3ededc87	0.43527624
91	0x3ef772d0	0.48329782
92	0x3f004c27	0.501162
93	0xbd553ba4	-0.05205883
94	0xbe12be33	-0.14330368
95	0xbe4c4326	-0.1994749
96	0xbf38a1c5	-0.7212184
97	0x3f600a17	0.87515396
98	0x3d59d7ff	0.053184506
99	0x3cb81f40	0.022475839
100	0x3e658a3c	0.22416013
101	0xbf06a12f	-0.52589697
102	0x400c5c29	2.193125
103	0x3f2a9a2c	0.666415
104	0xbf94be3b	-1.1620554
105	0x3f715e6d	0.9428471
106	0xbfac3bc8	-1.3455744
107	0x3f4fcec2	0.8117486
108	0x3dc36b0a	0.095419005
109	0xbea6beac	-0.32567346
110	0xbeb4668d	-0.3523449
111	0xbea02d57	-0.31284592
112	0x3d690096	0.056885324
113	0x3e99295e	0.29914373
114	0x3faed8d2	1.3659918
115	0xbf2c9755	-0.67418414
116	0xbf45d787	-0.77281994
117	0x3fb5170a	1.4147656
118	0x3f19dc4f	0.6010179
119	0xbfd91192	-1.6958487
120	0xbfcb0268	-1.5860109
121	0x3eec0c48	0.4610312
122	0x3e2aba76	0.16672692
123	0xbdfc04c9	-0.123056
124	0x3ef6c5da	0.48197824
125	0x3f83b2bb	1.0288919
126	0xbf299c19	-0.6625381
127	0x3eeada8f	0.45869872
128	0xbf1d8742	-0.6153451
129	0xbec6f88a	-0.38861495
130	0x3e932ae7	0.2874367
131	0x3ed63e93	0.41844615
132	0xbedc4643	-0.43022355
133	0xbfd06b1d	-1.6282688
134	0x3feddf9c	1.8583865
135	0xbf44c5ba	-0.76864207
136	0x3e99fd5a	0.30076104
137	0xbe004685	-0.12526901
138	0x3b27360f	0.00255144
139	0x3ff79875	1.9343401
140	0x3edd9e63	0.43284902
141	0x3ef05a90	0.46944094
142	0xbfb7fa38	-1.4373236
143	0x3e99386a	0.29925853
144	0x3f24e419	0.6441055
145	0x3d03537d	0.032062043
146	0x3f8d4ed4	1.1039681
147	0xbf831afb	-1.0242609
148	0xbf437c40	-0.76361465
149	0x3f3352cd	0.7004822
150	0x3e895633	0.26823577
151	0xbf0c7107	-0.54859966
152	0xbfb53323	-1.4156231
153	0xbdb71ca5	-0.089410104
154	0xbf87366e	-1.0563486
155	0xbe49dba5	-0.19712694
156	0x3ddb1324	0.1069701
157	0x3fe2cd2a	1.7718861
158	0xbfcbd5b9	-1.5924598
159	0xbf2be14a	-0.6714064
160	0x3fa7c9aa	1.3108418
161	0x3f594339	0.848682
162	0x3fcab9ef	1.5837992
163	0x3f194c2a	0.5988184
164	0xc00f6034	-2.2402468
165	0x3e764784	0.24050719
166	0x3e8f7e4f	0.28026053
167	0x3f3e85d3	0.7442295
168	0xbe53b020	-0.20672655
169	0x3f48504a	0.7824751
170	0x3e931f87	0.2873499
171	0x3f822441	1.0167314
172	0xbe93ffca	-0.2890609
173	0xbe625679	-0.22103299
174	0xbedf2567	-0.43583223
175	0xbe335dca	-0.17516246
176	0x40111194	2.266698
177	0x3ed1e775	0.409969
178	0x3ef7cc25	0.48397937
179	0xbf4d8ae2	-0.80290043
180	0x3f43cf5a	0.7648827
181	0xbef4840d	-0.47756997
182	0x3f03c38b	0.5147025
183	0x3e3dd9a5	0.18540056
184	0x3e2cf43f	0.16890047
185	0xbed558a7	-0.416692
186	0x3cdc7123	0.026909417
187	0xbe43b797	-0.19113003
188	0xbe3654f3	-0.17805843
189	0x3f89a106	1.0752265
190	0xbf9996e6	-1.1999176
191	0xbe8f4f16	-0.27990025
192	0x3e9ac461	0.3022795
193	0xbf3742c7	-0.7158627
194	0x3e32f4c7	0.17476188
195	0xbefbb7e7	-0.49163744
196	0xbf4635ca	-0.77425826
197	0xbfb8f374	-1.4449296
198	0x3d7b9706	0.061423324
199	0xbd80ec5b	-0.06295081
200	0xbdda216e	-0.106509075
201	0x3f758c3c	0.95917106
202	0x3f3f6b58	0.7477317
203	0x3fa4b648	1.2868128
204	0xbe91ed0d	-0.28501168
205	0xbed79aef	-0.42110392
206	0xbef831d9	-0.4847553
207	0x3e308eca	0.1724197
208	0x3f6145a8	0.8799691
209	0x3e95e8c4	0.2927915
210	0xbfa77d97	-1.3085202
211	0xbe8a3579	-0.2699392
212	0x3f5063f4	0.81402516
213	0xbee0c3af	-0.43899295
214	0xbea69e2b	-0.32542548
215	0x3feb407e	1.8379056
216	0xbee7008e	-0.4511761
217	0x3e47b459	0.19502391
218	0xbf493800	-0.78601074
219	0xbf1f2f8c	-0.62181926
220	0xbd483d9b	-0.048886877
221	0x3ff1879c	1.886951
222	0xbf083de0	-0.53219414
223	0xbe79ea48	-0.24405777
224	0xbf28e492	-0.6597377
225	0x3d15d248	0.036577493
226	0x400a8079	2.1640913
227	0x3f86d48b	1.0533613
228	0x3f759ddb	0.95943993
229	0xbfe76977	-1.807906
230	0xbff97e20	-1.9491615
231	0xbe663321	-0.22480442
232	0x3cbcfeb1	0.023070665
233	0x3f82081a	1.0158722
234	0x3f71dec7	0.94480556
235	0x3f623a07	0.8836979
236	0xbebdb665	-0.37053218
237	0xbf14c5f4	-0.5811455
238	0xbe1eda1a	-0.15512887
239	0xbe923e26	-0.2856304
240	0x3ea14756	0.31499738
241	0xbdcd7b4b	-0.10033282
242	0xbfcd0b94	-1.6019158
243	0xbe0b45f0	-0.13600898
244	0x3fdfd92c	1.7488151
245	0x3f1af553	0.60530585
246	0xbec6ef83	-0.38854608
247	0x3f88b062	1.0678828
248	0x3f9c4a5e	1.2210195
249	0xbee5b55d	-0.44864932
250	0xbf0e8953	-0.5567829
251	0x3ec11d13	0.37717494
252	0xbf212268	-0.62943125
253	0x3efdf5a1	0.49601462
254	0xbf86b749	-1.0524684
255	0xbf0a9607	-0.54135174

tokenizer.positional_embedding.weight f4 [9, 32]
0	0x3f57caba	0.8429371
1	0xbec6342b	-0.38711676
2	0xbd9d6478	-0.076851785
3	0x3ef2ab1f	0.4739618
4	0x3e826043	0.25464067
5	0x3fe40c6e	1.7816293
6	0x3c691e99	0.014228486
7	0xbf156c06	-0.58367956
8	0xbf191602	-0.59799206
9	0x3e88604f	0.26635978
10	0x400b8795	2.1801503
11	0xbf93f2fa	-1.1558526
12	0xbf18480f	-0.5948495
13	0xbe9c9750	-0.30584192
14	0x3ece5f84	0.40307248
15	0x3e758d99	0.23979796
16	0xbd6ff2ed	-0.05858128
17	0xbf0f11b4	-0.5588639
18	0x3f837a47	1.0271691
19	0x3f8b7f29	1.0898181
20	0x3e782e24	0.24236351
21	0x3d565486	0.0523267
22	0x3de9010d	0.113771535
23	0x3f1d4ce5	0.61445457
24	0xbf1f30a6	-0.62183607
25	0x3f4f78a6	0.8104347
26	0x3fbfa3fc	1.4971919
27	0x3db6767c	0.08909318
28	0xbe537ccc	-0.20653075
29	0x3e3b5107	0.18292628
30	0xbec3ad40	-0.38218117
31	0xc016fd56	-2.3592124
32	0x3fb8d4cf	1.4439944
33	0x3e97f320	0.29677677
34	0x3f502b5b	0.81316155
35	0x3f40c410	0.7529917
36	0x3fd6c364	1.6778378
37	0x3e62ae84	0.22136885
38	0x3ea23865	0.3168365
39	0xbe82e48d	-0.25564995
40	0x40074c18	2.1140194
41	0x3eb02c49	0.34408787
42	0xbf857074	-1.0424943
43	0xbe322d52	-0.17400101
44	0xbeb26e87	-0.3484995
45	0x3f008246	0.5019878
46	0x3f7fdfbe	0.9995078
47	0xbfa5ab21	-1.2942849
48	0xbddf193f	-0.10893487
49	0xbf87d3f4	-1.0611558
50	0x3e97b737	0.2963197
51	0xbfbdd99c	-1.4832034
52	0x3f84f5c9	1.0387508
53	0x3e8a62d0	0.27028513
54	0x3f573a47	0.840733
55	0x3f1eb7ef	0.6199941
56	0x3f54a736	0.83067644
57	0xbda3aea3	-0.07992294
58	0x3fc7eb4c	1.5618682
59	0xc007dcae	-2.1228442
60	0x3f01b5c4	0.5066798
61	0x3f0d70d6	0.552503
62	0x3ff52233	1.9151062
63	0xbf1e6421	-0.61871535
64	0xbb326682	-0.0027221744
65	0x3f88b7c4	1.0681081
66	0x3e310909	0.17288603
67	0xbfb1f715	-1.3903528
68	0xbda4b952	-0.080431595
69	0xbeff4db2	-0.49863964
70	0xbf21ed63	-0.6325285
71	0x3fa1166d	1.2584969
72	0x3f71e541	0.9449044
73	0x3f0684f5	0.52546626
74	0xbfc4a26c	-1.5362067
75	0xc0069f15	-2.1034596
76	0x3fcfc30f	1.6231402
77	0x3dac87d6	0.08424346
78	0xbfe749c1	-1.8069383
79	0x3f8d4194	1.1035638
80	0x3eabc12d	0.3354582
81	0x3f3ddad8	0.74162054
82	0xbf1c8a94	-0.61148953
83	0xbf13182b	-0.5745875
84	0x3fc176ad	1.5114342
85	0xbf97f502	-1.1871645
86	0xbf460ec8	-0.77366304
87	0xbe99233d	-0.29909697
88	0xbe2ccbb0	-0.16874576
89	0xbf001fb4	-0.50048375
90	0xbea9aca2	-0.3313952
91	0xbf7d8dd9	-0.9904457
92	0xbe09670a	-0.13418213
93	0xbf4ce997	-0.8004393
94	0x3f862913	1.0481285
95	0xbfba0a76	-1.4534442
96	0xbf19f2c9	-0.60136086
97	0xbfecbbb9	-1.8494788
98	0xbfc94984	-1.572556
99	0xbed03891	-0.40668157
100	0xbe8d3304	-0.27577984
101	0xbf208d33	-0.6271545
102	0x3ec3db5a	0.3825329
103	0xbf47f0e1	-0.7810193
104	0xbf13dc48	-0.57758
105	0xbe243b7f	-0.16038321
106	0xbeba36b2	-0.36369854
107	0xbf97ef3a	-1.1869881
108	0x3fed6f80	1.8549652
109	0xbf82836d	-1.0196358
110	0xbf930916	-1.1487148
111	0x3e31e06a	0.17370763
112	0xbf4829be	-0.78188694
113	0xbfcf98cd	-1.6218506
114	0xbec81120	-0.39075565
115	0xc0287538	-2.6321545
116	0x3fd5c4a0	1.670063
117	0x3f1083aa	0.56450903
118	0xbea4b01b	-0.32165608
119	0xbfb50976	-1.4143512
120	0x3f5c8a93	0.8614895
121	0x3f9eb7f5	1.2399889
122	0x3eb68e8b	0.35655627
123	0xbf3cb53e	-0.73714054
124	0x3ea6caae	0.32576507
125	0xbeec2d50	-0.4612832
126	0xbf88db0e	-1.069185
127	0xbf202aeb	-0.6256549
128	0x3fa14192	1.2598135
129	0x3e9e645e	0.3093595
130	0x3e00ca9e	0.12577292
131	0xbf98b3dc	-1.1929889
132	0x3f1405f5	0.5782159
133	0xbf7c3e87	-0.9853291
134	0x3d5d3674	0.05400701
135	0x3e5d806e	0.21631023
136	0xbe386105	-0.1800576
137	0x3f6818f5	0.9066308
138	0x400261cb	2.0372188
139	0x3f023596	0.50863016
140	0xbef7ecdb	-0.48422894
141	0xbe53c5fe	-0.20680997
142	0x3d135a81	0.035974983
143	0x3d3fcf7d	0.046828736
144	0x3e967a3e	0.29390138
145	0xbf40f762	-0.75377476
146	0x3fac4b65	1.3460509
147	0x3ebb0d50	0.36533594
148	0x3ea96d76	0.33091325
149	0x3f36131b	0.711229
150	0xbf22c049	-0.63574654
151	0xbec4b023	-0.38415632
152	0x3f6e8351	0.9316912
153	0x3dc06f08	0.093961775
154	0xbee9a624	-0.45634568
155	0xbe9279b9	-0.28608492
156	0x3ff1bced	1.888578
157	0x3ed79453	0.4210535
158	0x3fc979aa	1.5740254
159	0x3fc775b4	1.5582795
160	0xbe78e5dd	-0.24306436
161	0xbf8028bf	-1.0012435
162	0x3f87e74a	1.0617459
163	0xbfb840e6	-1.4394805
164	0xbe57a5d0	-0.21059346
165	0x3f1c0ef2	0.60960305
166	0x3f72a33b	0.9478032
167	0xbf130caf	-0.5744123
168	0xbf0de7da	-0.554319
169	0x3d9c5ab8	0.07634491
170	0xbee3a80a	-0.4446414
171	0x3f38e4fc	0.722244
172	0xbf101191	-0.56276804
173	0x3f9ca330	1.2237301
174	0x3f167405	0.5877078
175	0xbfa64d77	-1.299239
176	0xbfbcd97e	-1.4753873
177	0x3f08fa0e	0.53506553
178	0x3cab151e	0.020884093
179	0x3f4b09ab	0.7931163
180	0xbef7ae10	-0.48374987
181	0x3fdd949e	1.7310979
182	0x3e5d298e	0.21597883
183	0x3f3eb612	0.7449657
184	0x3e0fe1f5	0.1405104
185	0x3f01c0b4	0.50684667
186	0xc01d4449	-2.4572928
187	0xbdb0f702	-0.08640863
188	0xbe178a3c	-0.14798826
189	0x3ed7f26a	0.42177135
190	0xbeaed93c	-0.34150112
191	0x3f3bc930	0.7335386
192	0xbeac2774	-0.3362385
193	0x3f09289a	0.5357758
194	0xbe5b5122	-0.21417668
195	0xbde7585a	-0.112961486
196	0xbce798da	-0.028271127
197	0xbf9502af	-1.1641444
198	0xc00d0bb5	-2.2038395
199	0xbf0eb685	-0.5574725
200	0xbe42afbe	-0.19012353
201	0xbff2ee78	-1.8979025
202	0xbf688132	-0.90822136
203	0xbd5ae9dd	-0.053445686
204	0xbfe96947	-1.8235253
205	0x3f8546f5	1.0412279
206	0xbe65d401	-0.22444154
207	0x3fc6fa24	1.5545087
208	0x3ede08e7	0.43366167
209	0xbf5a6bde	-0.8532084
210	0xbfc6b65c	-1.5524402
211	0xbe25bb6d	-0.16184779
212	0xbef66014	-0.48120177
213	0x3f8472f4	1.0347581
214	0x3fbeca1f	1.4905432
215	0xbf5e1755	-0.8675435
216	0xbef6e656	-0.48222607
217	0x3db44759	0.08802671
218	0x3f3b7388	0.7322316
219	0x3f673791	0.9031916
220	0xbf037406	-0.5134891
221	0x3fc58b20	1.5433083
222	0x3f9a1a4d	1.2039276
223	0x3f04472d	0.51671106
224	0xbfd17c77	-1.6366109
225	0x3f754161	0.95802885
226	0xbffb3af6	-1.9627368
227	0x3e4014e6	0.18757972
228	0xbe9c6086	-0.30542392
229	0x3f6b6804	0.9195559
230	0xbe540eb3	-0.20708732
231	0x3f845a42	1.0340044
232	0x3fbda56a	1.4816105
233	0xbf9c3968	-1.2205019
234	0xbef07645	-0.46965232
235	0x3fa20d00	1.2660217
236	0xbf7019c5	-0.9378932
237	0xbf7cddff	-0.9877624
238	0x3dac0be1	0.08400703
239	0x3fecc7a3	1.8498424
240	0x3e162a4d	0.14664574
241	0x3ea47b0a	0.3212512
242	0x3ed17076	0.40906113
243	0xbffcf871	-1.9763318
244	0x3e37d812	0.17953518
245	0x3f10718c	0.5642326
246	0xbf6426aa	-0.89121497
247	0xbf6d55e1	-0.92709166
248	0x3dc7a10a	0.09747513
249	0xc019df57	-2.4042566
250	0xbd8500de	-0.06494306
251	0xbee0a5f6	-0.43876618
252	0xc0069d0a	-2.103335
253	0xbf21b9c4	-0.6317408
254	0xbe0f0bff	-0.1396942
255	0x3f67e6a0	0.9058628

encoder_layer_mhattentions.0.attention_heads.0.Q.weight f4 [8, 8]
0	0xbdc5d9fb	-0.09660717
1	0x3de57dfc	0.1120567
2	0xbe9b1c14	-0.3029486
3	0x3ea8e5f0	0.32987928
4	0x3c19f6a5	0.009397184
5	0x3e28f780	0.16500664
6	0xbe5274cf	-0.20552371
7	0xbe7b3809	-0.24533094
8	0x3e8189f8	0.25300574
9	0xbe6897a3	-0.22714095
10	0xbed8e187	-0.42359564
11	0x3de34481	0.110970505
12	0xbe322d1c	-0.1740002
13	0xbe608af3	-0.21928005
14	0xbec0b4eb	-0.3763803
15	0x3c2bb6cd	0.010480595
16	0xbda98e16	-0.08279054
17	0x3e1a9adc	0.15098137
18	0x3cb39ccd	0.021925354
19	0x3da333a7	0.07968836
20	0xbe511294	-0.20417243
21	0x3da89817	0.08232134
22	0x3dc4a392	0.09601511
23	0xbe64a1b4	-0.2232731
24	0xbe24afc5	-0.16082676
25	0x3d4251f0	0.047441423
26	0x3dde6f3e	0.108610615
27	0xbc518234	-0.0127873905
28	0xbd762b64	-0.060099974
29	0x3b96ccfb	0.0046020723
30	0x3defd7cf	0.11711084
31	0x3ce89715	0.028392354
32	0xbd8f6c38	-0.07003063
33	0xbeeb5712	-0.45964867
34	0xbdde5e06	-0.10857777
35	0xbdc7c107	-0.09753614
36	0xbc1b821b	-0.009491469
37	0xbeac639a	-0.3366974
38	0x3de9be63	0.114132665
39	0x3e31f647	0.17379104
40	0xbec89eaa	-0.3918355
41	0xbd7ddd68	-0.061978728
42	0x3e279135	0.16363986
43	0xbe747951	-0.23874404
44	0xbe7eb303	-0.24872975
45	0x3e220e08	0.15825665
46	0x3d3c33dd	0.0459479
47	0xbe9523af	-0.29128787
48	0xbd3f9859	-0.04677615
49	0x3b821a45	0.0039704167
50	0x3da61be5	0.08110789
51	0xbe8a7a88	-0.2704661
52	0xbddd6d88	-0.10811907
53	0x3ddc26eb	0.107496105
54	0xbe08f898	-0.13376081
55	0xbee71bdc	-0.45138443
56	0xbe81ffd8	-0.25390506
57	0xbddf5f12	-0.10906805
58	0xbdcefcaa	-0.101067856
59	0x3ea25aac	0.31709802
60	0xbe58babb	-0.21164982
61	0x3f38804c	0.72070765
62	0xbdbcc4d4	-0.092172295
63	0xbf1117b1	-0.56676775

encoder_layer_mhattentions.0.attention_heads.0.Q.bias f4 [8]
0	0x3e3a3744	0.18185145
1	0xbe92457f	-0.28568646
2	0x3e25f4e9	0.16206707
3	0x3ca69e00	0.020339012
4	0xbd5512c8	-0.052019864
5	0xbe0a0792	-0.1347945
6	0x3f2ccfdf	0.67504686
7	0xbd21bda1	-0.039487485

encoder_layer_mhattentions.0.attention_heads.0.K.weight f4 [8, 8]
0	0x3e02631f	0.12733124
1	0x3e658eb1	0.22417714
2	0xbf0b0fe0	-0.543211
3	0x3dfdf8a1	0.12400938
4	0xbe2ac140	-0.16675282
5	0x3e06d8e5	0.13168676
6	0x3ddfd101	0.10928536
7	0x3e9567fe	0.29180902
8	0xbedaca24	-0.42732346
9	0x3cb93242	0.022606973
10	0xbe114e39	-0.14189996
11	0x3ecce0d1	0.4001527
12	0x3ed53cdc	0.41647995
13	0x3d7b849c	0.061405763
14	0x3e9cfff8	0.3066404
15	0x3ed2bf22	0.41161448
16	0x3e0d3d33	0.13792877
17	0xbd18d94b	-0.0373166
18	0xbe0e0b47	-0.1387149
19	0x3d561c7f	0.05227327
20	0x3ddf511d	0.10904143
21	0x3db29897	0.087205105
22	0xbe56e1f5	-0.20984633
23	0x3d8523cc	0.06500968
24	0x3dd31a45	0.10307745
25	0x3d5a69e8	0.053323656
26	0xbd922015	-0.071350254
27	0x3c8df3a7	0.017328097
28	0x3d91ae65	0.07113341
29	0xbc7e2e93	-0.015514034
30	0xbd266c24	-0.040630475
31	0xbd977776	-0.07395832
32	0xbe6b1a8f	-0.2295935
33	0x3e86a55a	0.26298028
34	0x3e6367ad	0.22207518
35	0x3db15fa5	0.08660821
36	0xbe0ff46e	-0.14058086
37	0xbe7fea11	-0.24991633
38	0x3e16750e	0.1469309
39	0xbe0732f5	-0.13203032
40	0x3d5aad53	0.05338795
41	0x3e7d78d7	0.24753128
42	0xbebd1e70	-0.36937284
43	0x3e998e87	0.29991552
44	0x3e20c68f	0.15700744
45	0xbec29be4	-0.3800956
46	0xbe7efc31	-0.24900891
47	0xbe917097	-0.28406212
48	0x3df2e47e	0.11859988
49	0xbdf97d45	-0.121820964
50	0xbeb87656	-0.36027783
51	0xbeafc432	-0.34329373
52	0xbd8833b2	-0.06650485
53	0x3e013f6a	0.12621847
54	0xbe9f503f	-0.3111591
55	0xbe2b2a57	-0.1671537
56	0x3ebea527	0.37235376
57	0xbd07c27d	-0.033144463
58	0xbe7baa9d	-0.24576803
59	0xbd194078	-0.037414998
60	0x3e753c1c	0.23948711
61	0xbea0b3ff	-0.31387326
62	0xbe8c4600	-0.27397156
63	0x3f2911d3	0.6604282

encoder_layer_mhattentions.0.attention_heads.0.K.bias f4 [8]
0	0x3d469993	0.048486304
1	0x3e33d3f8	0.17561328
2	0xbc180460	-0.009278387
3	0xbdc7244d	-0.09723721
4	0xbe13a3c4	-0.1441794
5	0xbddb15c8	-0.10697514
6	0xbde5f513	-0.11228385
7	0xbe2d6e08	-0.16936505

encoder_layer_mhattentions.0.attention_heads.0.V.weight f4 [8, 8]
0	0x3e9054a9	0.2818959
1	0x3e4ca245	0.19983776
2	0xbe5c6314	-0.2152217
3	0x3db20a1b	0.08693334
4	0x3d0b9de6	0.03408613
5	0xbcfa18ee	-0.030529466
6	0x3de0371e	0.10948013
7	0xbee74e88	-0.45177102
8	0xbe66bc62	-0.225328
9	0x3e761a58	0.24033487
10	0xbd0979ec	-0.03356354
11	0xbee86512	-0.4538961
12	0xbd0e4872	-0.034737058
13	0x3ea964d2	0.33084732
14	0xbdbaac68	-0.09114915
15	0xbeb10672	-0.3457523
16	0xbbc768c9	-0.0060854894
17	0x3ca58334	0.020204164
18	0x3e5dd1c5	0.21662052
19	0xbe1a16f4	-0.15047818
20	0x3e8915e5	0.26774517
21	0x3e02d46d	0.12776347
22	0xbdaf7fa6	-0.08569269
23	0x3e12b2df	0.14326046
24	0xbd719167	-0.058976557
25	0xbba57fbf	-0.005050629
26	0xbca6baf5	-0.02035282
27	0x3c9a7de8	0.018858865
28	0xbba05c1e	-0.0048937937
29	0xbe71f6c4	-0.2362929
30	0x3d9ec1be	0.07751797
31	0x3f015292	0.5051662
32	0x3eae4292	0.34035164
33	0xbe2cc9dc	-0.16873878
34	0xbe31cf00	-0.1736412
35	0xbe327ce6	-0.17430457
36	0x3d91aa88	0.071126044
37	0x3dbbcac9	0.091695376
38	0xbe710de1	-0.2354045
39	0x3e3425c1	0.17592527
40	0xbe2c4ea7	-0.16826878
41	0xbd4c0e3d	-0.049818266
42	0xbe101de2	-0.140739
43	0x3ebb5fae	0.36596435
44	0x3c972159	0.018448519
45	0x3d4eeb9c	0.050517663
46	0x3e1200a5	0.14258058
47	0x3e85d5ec	0.26139772
48	0xbe0a4419	-0.1350254
49	0x3d5a5eb9	0.05331299
50	0x3d828031	0.06372107
51	0x3e35e470	0.17762923
52	0xbe8a2adc	-0.26985824
53	0xbd7eb911	-0.06218821
54	0xbe6005c1	-0.21877195
55	0x3e167ab0	0.14695239
56	0xbe1af488	-0.15132344
57	0xbe193e74	-0.1496523
58	0xbe20fde4	-0.15721852
59	0x3e231167	0.15924607
60	0xbe469711	-0.19393565
61	0x3e4e6a51	0.20157744
62	0xbe481f1e	-0.1954312
63	0x3d2af384	0.04173614

encoder_layer_mhattentions.0.attention_heads.0.V.bias f4 [8]
0	0xbe221884	-0.15829664
1	0xbe65ca9d	-0.22440572
2	0xbe422725	-0.18960245
3	0x3e81c20e	0.25343364
4	0xbe2cfd03	-0.16893391
5	0x3e3139aa	0.17307153
6	0x3e8a28aa	0.2698415
7	0x3d83bdac	0.064326614

encoder_layer_mhattentions.0.attention_heads.1.Q.weight f4 [8, 8]
0	0x3e05d190	0.13068223
1	0x3cf2468b	0.029574653
2	0xbe107254	-0.14106113
3	0xbe539e58	-0.20665872
4	0x3e7d3fbc	0.24731344
5	0x3c982611	0.018572839
6	0xbd985e91	-0.07439912
7	0xbdc2888b	-0.094987
8	0x3db05f2e	0.08611904
9	0x3dd5a2e6	0.10431461
10	0xbe076f53	-0.1322606
11	0x3db39b57	0.08769863
12	0xbe87f5bf	-0.26554677
13	0x3f1c4fd1	0.6105929
14	0x3c44933c	0.011997994
15	0xbf223071	-0.63355166
16	0xbe5aa94a	-0.21353641
17	0xbbada394	-0.005299041
18	0x3f02f91b	0.51161355
19	0xbe848e1e	-0.25889677
20	0x3f133608	0.5750432
21	0x3e7f4b4c	0.24931067
22	0x3e4fb52f	0.2028396
23	0xbe8dbefa	-0.27684766
24	0x3ea03ec1	0.31297877
25	0x3d5ae636	0.053442203
26	0x3d5b0b83	0.053477775
27	0xbd971a8b	-0.073781095
28	0x3e8a05de	0.269576
29	0xbecc2b9f	-0.3987703
30	0x3ebc93e5	0.36831585
31	0xbe920649	-0.2852042
32	0x3ea41654	0.32048285
33	0xbdad6103	-0.08465769
34	0xbe6307f2	-0.22171
35	0x3e5d1c37	0.21592794
36	0x3dd75ae1	0.10515381
37	0x3e82ccf1	0.25546983
38	0x3e9aaa40	0.30208015
39	0x3eb35bec	0.35031068
40	0xbd48322f	-0.048875984
41	0x3cba95e0	0.022776544
42	0x3dbed8df	0.09318709
43	0xbdf3df64	-0.11907843
44	0xbccd136d	-0.025033677
45	0x3ecd8808	0.40142846
46	0xbeb97b6d	-0.3622698
47	0xbe9ba468	-0.3039887
48	0xbeda1422	-0.42593485
49	0xbd1bedda	-0.03806863
50	0x3e9eda68	0.31026006
51	0xbdfbcf86	-0.12295441
52	0x3d32bf73	0.04363961
53	0x3df3ec9d	0.11910365
54	0xbcdc62dc	-0.026902609
55	0x3e6fa5b5	0.23403056
56	0x3e7a84bb	0.24464695
57	0x3d2b1e8d	0.041777182
58	0xbdab7f5a	-0.083739
59	0xbdb2c099	-0.08728141
60	0x3e9cb576	0.30607194
61	0x3e5d99cf	0.21640705
62	0xbbf3c79e	-0.0074395677
63	0x3cd73bcb	0.026273629

encoder_layer_mhattentions.0.attention_heads.1.Q.bias f4 [8]
0	0x3de5b851	0.11216796
1	0x3d8a6c73	0.06758966
2	0xbcc8a832	-0.024494264
3	0x3de7d9e6	0.11320858
4	0xbf011791	-0.50426584
5	0xbdd5e457	-0.10443943
6	0xbec69e3c	-0.38792598
7	0x3da8146c	0.0820702

encoder_layer_mhattentions.0.attention_heads.1.K.weight f4 [8, 8]
0	0xbd454a03	-0.048166286
1	0x3e652b13	0.22379713
2	0x3e93f11e	0.28894895
3	0x3d0294f9	0.031880353
4	0x3de83162	0.11337544
5	0x3d8e66e9	0.06953222
6	0x3d82802a	0.063721016
7	0x3e3f95ab	0.18709438
8	0xbe34de54	-0.17662936
9	0xbd0ac232	-0.033876605
10	0xbef6a472	-0.48172337
11	0xbe9957b4	-0.29949725
12	0xbdfa2d52	-0.122156754
13	0x3d723ec6	0.059141897
14	0xbee61c73	-0.4494358
15	0x3f13d14b	0.5774123
16	0x3e5c340c	0.2150423
17	0x3de71f4c	0.11285266
18	0xbe38a729	-0.18032517
19	0xbe361f71	-0.17785431
20	0xbeeb8c1a	-0.46005327
21	0x3f16c57d	0.58895093
22	0x3e8a3d8c	0.27000082
23	0x3d314354	0.0432771
24	0xbe626160	-0.22107458
25	0x3e6dedda	0.23235264
26	0x3a43bad5	0.00074665
27	0xbe9636ae	-0.29338592
28	0x3e075eeb	0.13219802
29	0x3ed709b1	0.4199958
30	0xbe1f9145	-0.1558276
31	0xbed4fd66	-0.41599578
32	0xbf020ed6	-0.5080389
33	0xbe0cb579	-0.13741101
34	0x3dee1d25	0.11626653
35	0x3e474a52	0.19461945
36	0x3ecf6a12	0.40510613
37	0x3c3d87fe	0.011568068
38	0x3e0d6954	0.1380971
39	0x3e49010a	0.19629303
40	0x3cdda052	0.027053986
41	0x3dc10dad	0.094264366
42	0xbdd49539	-0.103800245
43	0x3db9d516	0.09073846
44	0xbdbcf673	-0.09226694
45	0x3ca4ff2c	0.020141207
46	0x3e2b8fe9	0.16754116
47	0x3eda8610	0.42680407
48	0x3ea154a3	0.31509885
49	0xbcb17b65	-0.021665284
50	0xbe26f3b3	-0.16303901
51	0x3ea67fad	0.32519284
52	0xbe0f8a80	-0.14017677
53	0x3dc3cb09	0.0956021
54	0x3f06faf3	0.5272667
55	0x3cddca90	0.027074128
56	0xbe979b46	-0.29610652
57	0xbe07ae2c	-0.13250035
58	0x3e594b44	0.21220118
59	0x3cc6d301	0.024270536
60	0x3e4c12c0	0.19929028
61	0x3e078604	0.13234717
62	0x3bac4e71	0.0052583744
63	0x3da4f252	0.080540314

encoder_layer_mhattentions.0.attention_heads.1.K.bias f4 [8]
0	0xbe744501	-0.23854448
1	0x3d590e89	0.052992377
2	0xbe53bee5	-0.20678289
3	0x3e6a3829	0.22872986
4	0x3d61a36b	0.05508749
5	0xbe6439b5	-0.22287638
6	0x3e242aca	0.16031948
7	0xbe49c324	-0.19703346

encoder_layer_mhattentions.0.attention_heads.1.V.weight f4 [8, 8]
0	0xbe76c56e	-0.24098751
1	0xbea6318c	-0.32459676
2	0xbca7699c	-0.0204361
3	0xbeb13e08	-0.3461764
4	0xbecdce7c	-0.40196598
5	0xbe8e0baa	-0.27743274
6	0xbe1bfed3	-0.15233926
7	0x3dbc5063	0.0919502
8	0xbee41511	-0.44547322
9	0xbc5c31fc	-0.013439652
10	0x3e898286	0.26857394
11	0xbddf5f71	-0.10906876
12	0xbd520606	-0.051275276
13	0x3d9c7339	0.076391645
14	0xbd93bb80	-0.07213497
15	0x3d442501	0.047886852
16	0x3d964f7a	0.07339378
17	0xbe59e750	-0.21279645
18	0xbe98af6a	-0.2982133
19	0xbecff9a4	-0.40620148
20	0x3e4dcc02	0.20097354
21	0x3edf9258	0.4366634
22	0x3ecafa57	0.3964412
23	0x3e9d0176	0.30665177
24	0xbdcaef7d	-0.0990896
25	0xbd99e508	-0.07514387
26	0x3d6824e6	0.056675814
27	0x3ef7ce5a	0.4839962
28	0x3d99bf3a	0.07507177
29	0xbe255e6f	-0.16149305
30	0xbcc7f36b	-0.024408063
31	0x3edc6acc	0.4305023
32	0x3e0961e7	0.13416253
33	0xbde16222	-0.110050455
34	0x3d8f2e54	0.06991258
35	0xbf0bba50	-0.54581165
36	0x3deb46fe	0.1148815
37	0x3e955c88	0.29172158
38	0x3ea5d476	0.32388657
39	0x3ebc7625	0.36808887
40	0x3df3b988	0.11900622
41	0x3e5a574e	0.21322367
42	0x3e34a69f	0.17641686
43	0xbdcea7dc	-0.100906104
44	0x3eab9293	0.33510265
45	0x3e4da4ff	0.20082472
46	0x3daffc73	0.08593073
47	0xbdfd6e84	-0.12374595
48	0xbdbfb42a	-0.093605354
49	0xbeb13f17	-0.34618446
50	0x3e218c8b	0.15776269
51	0xbe8c7f35	-0.274408
52	0x3d730b70	0.05933708
53	0x3e8c7927	0.27436182
54	0x3e8ad82f	0.2711806
55	0xbe259efb	-0.16173927
56	0xbe9bf826	-0.3046276
57	0x3dd03586	0.10166459
58	0xbe53165a	-0.20613995
59	0x3e09817d	0.13428302
60	0xbe7688ac	-0.24075574
61	0x3e3afde3	0.18260913
62	0xbe396fa7	-0.18108998
63	0xbe3db24c	-0.18525046

encoder_layer_mhattentions.0.attention_heads.1.V.bias f4 [8]
0	0x3d9c12e1	0.07620788
1	0xbdeabd0d	-0.1146184
2	0xbe5cc407	-0.21559153
3	0xbe18fc63	-0.14940028
4	0xbe673134	-0.22577363
5	0x3c01720e	0.007900728
6	0xbe246a00	-0.16056061
7	0xbd32c2d9	-0.043642852

encoder_layer_mhattentions.0.attention_heads.2.Q.weight f4 [8, 8]
0	0x3dfc9fb3	0.12335148
1	0xbe7a7fa6	-0.24462757
2	0xbdbb4cd9	-0.09145517
3	0xbe678d15	-0.22612412
4	0xbe1d54bf	-0.1536436
5	0xbe7dccf6	-0.24785218
6	0x3e673f14	0.22582656
7	0x3e90a9c7	0.2825453
8	0xbe590a6b	-0.2119538
9	0xbe069181	-0.13141443
10	0xbcf0e677	-0.02940677
11	0xbec37af5	-0.38179746
12	0xbd6e4426	-0.05817046
13	0x3d5990ec	0.053116724
14	0x3d040977	0.03223559
15	0xbdd0861f	-0.101818316
16	0x3c4452c3	0.011982623
17	0x3eb18629	0.3467267
18	0xbe0023ce	-0.12513658
19	0x3e220244	0.15821177
20	0xbe35a321	-0.1773801
21	0x3e9f86a7	0.3115742
22	0x3ede1e15	0.43382326
23	0x3cc23d29	0.023710804
24	0x3de6f173	0.112765215
25	0x3e016387	0.12635623
26	0x3e195dd4	0.14977199
27	0xbe59fe6d	-0.21288462
28	0xbd43af27	-0.04777446
29	0x38a110be	7.680197e-05
30	0x3c569e2e	0.013099236
31	0x3ef2db81	0.47433093
32	0x3e123400	0.14277649
33	0xbe3d20fb	-0.18469612
34	0xbda6fa23	-0.081531785
35	0x3ee71be9	0.4513848
36	0xbe277826	-0.16354427
37	0xbf117ac9	-0.5682798
38	0xbf3b07cd	-0.7305878
39	0xbeeb68d5	-0.45978418
40	0x3d360ff5	0.04444881
41	0x3e08c3f9	0.13356008
42	0xbd9678b4	-0.07347241
43	0x3e09c776	0.13454995
44	0xbaa261dc	-0.0012388784
45	0x3dbbf8a4	0.09178284
46	0xbd42198b	-0.04738764
47	0xbd6af40e	-0.057361655
48	0xbdb92155	-0.09039561
49	0x3e912db8	0.28355193
50	0x3e649aba	0.22324648
51	0x3f13d397	0.57744735
52	0x3da713b3	0.08158054
53	0xbe74cf6d	-0.23907252
54	0xbf3e859d	-0.7442263
55	0xbdcfe0c6	-0.10150294
56	0xbcac00f8	-0.020996556
57	0x3efaf641	0.49016002
58	0xbeeda8a6	-0.4641773
59	0xbea23de7	-0.31687853
60	0x3df6434d	0.12024555
61	0x3ea364c2	0.3191281
62	0x3e4d59d6	0.20053801
63	0x3e1d4c98	0.1536125

encoder_layer_mhattentions.0.attention_heads.2.Q.bias f4 [8]
0	0x3e2ac575	0.16676886
1	0xbd8d43f1	-0.068977244
2	0x3e5f0cf7	0.2178229
3	0x3d8e8a9c	0.069600314
4	0xbdc74f87	-0.097319655
5	0x3d8eec01	0.06978608
6	0xbdc49ba4	-0.095999986
7	0x3ec7da24	0.39033616

encoder_layer_mhattentions.0.attention_heads.2.K.weight f4 [8, 8]
0	0xbe2ab40a	-0.16670242
1	0xbd997fcb	-0.07495078
2	0xbe8c994c	-0.27460706
3	0x3e0bb329	0.13642563
4	0x3c17974a	0.009252379
5	0xbf112d47	-0.5670971
6	0xbcf870ea	-0.03032728
7	0xbeb16592	-0.34647804
8	0x3e0aae5a	0.13543072
9	0xbe48036c	-0.19532555
10	0xbc9c46c6	-0.019076716
11	0xbe15a50f	-0.14613746
12	0xbe8a9e76	-0.2707402
13	0xbe470a4c	-0.19437522
14	0xbead1851	-0.33807614
15	0xbdd648ab	-0.10463079
16	0xbeef64c1	-0.46756557
17	0xbead9bac	-0.3390783
18	0x3ed2ac64	0.4114715
19	0x3cb0cafa	0.021581162
20	0x3e7f2d19	0.24919547
21	0x3e09142a	0.13386598
22	0x3d0bac8b	0.034100097
23	0xbe666b9b	-0.22501986
24	0x3c206430	0.009789512
25	0xbe6a9d47	-0.22911559
26	0xbe295109	-0.16534819
27	0x3e92c119	0.28662947
28	0x3e3039e4	0.17209584
29	0xbeccb898	-0.39984584
30	0x3e223a95	0.1584266
31	0xbe683306	-0.22675714
32	0x3e95373c	0.29143703
33	0x3ebf4bb8	0.37362456
34	0xbe0775a2	-0.13228467
35	0x3dcf59c5	0.10124544
36	0xbef9091d	-0.48639765
37	0x3f22391f	0.6336841
38	0x3f27ef86	0.6559986
39	0x3de93ecd	0.113889314
40	0xbc6dc46d	-0.014512164
41	0x3d00a2cf	0.031405266
42	0x3e096ab5	0.13419612
43	0x3e145ae0	0.14487791
44	0xbcd25acf	-0.025678067
45	0x3ea5b7b3	0.32366714
46	0xbd8d6519	-0.069040485
47	0xbdfdef8c	-0.123992056
48	0x3e0ff4b0	0.14058185
49	0x3f343ca4	0.7040503
50	0x3e39c31d	0.18140836
51	0x3dc7d742	0.09757854
52	0xbd6b10fd	-0.05738925
53	0x3ef4458e	0.47709316
54	0x3f2eba3e	0.68252933
55	0x3e47386e	0.1945512
56	0xbe80a582	-0.25126272
57	0xbef92db8	-0.48667693
58	0x3e0d16d9	0.13778247
59	0x3eb32912	0.34992272
60	0xbd4f9150	-0.05067569
61	0xbe432806	-0.19058236
62	0xbf182099	-0.5942474
63	0xbe8900b2	-0.26758343

encoder_layer_mhattentions.0.attention_heads.2.K.bias f4 [8]
0	0x3e9ecc34	0.3101517
1	0x3da8366c	0.08213505
2	0xbe45e92f	-0.19327234
3	0xbe577496	-0.21040568
4	0xbdc31e45	-0.09527258
5	0xbe8bc86d	-0.2730135
6	0x3e6e17f0	0.23251319
7	0x3dcf4fd4	0.10122648

encoder_layer_mhattentions.0.attention_heads.2.V.weight f4 [8, 8]
0	0xbe76d99a	-0.24106446
1	0x3e9b2d9b	0.30308232
2	0xbc19434e	-0.009354426
3	0x3ea1ccd7	0.31601593
4	0xbd88cdca	-0.06679876
5	0x3e6602c8	0.22461998
6	0xbec0ab3d	-0.37630644
7	0x3dbb854d	0.091562845
8	0xbe4cf3c0	-0.20014858
9	0xbd547014	-0.0518647
10	0xbe8ffd6e	-0.2812304
11	0xbe861509	-0.26187924
12	0x3cb1225b	0.021622827
13	0x3eb93b2c	0.36177957
14	0xbcadf78c	-0.021236204
15	0xbda1f367	-0.079077534
16	0x3cedde98	0.029036805
17	0xbe31b4f2	-0.17354181
18	0xbe0b0dd3	-0.13579492
19	0xbcc9d035	-0.024635414
20	0xbe24d217	-0.16095768
21	0x3d8b4d90	0.06801903
22	0x3d52f590	0.051503718
23	0xbd1c8807	-0.038215663
24	0x3bbac8d2	0.005700209
25	0xbdf4148a	-0.1191798
26	0xbeaecb18	-0.34139323
27	0x3e5a1ba0	0.212996
28	0x3dc5309b	0.096284114
29	0x3e895126	0.26819724
30	0x3d030f49	0.031997
31	0x3e32d93f	0.17465685
32	0xbdc43e06	-0.095821425
33	0xbdbf94fb	-0.09354588
34	0x3d7c5931	0.061608497
35	0x3e0f7cae	0.14012405
36	0xbdc75e89	-0.09734828
37	0x3bf780a8	0.007553179
38	0x3e70cada	0.23514882
39	0xbe9002c2	-0.28127104
40	0xbdaa9ffe	-0.08331297
41	0xbe31106e	-0.17291424
42	0xbd6e6847	-0.058204915
43	0x3e3a4efa	0.1819419
44	0xbebd3a54	-0.36958563
45	0xbe5d2881	-0.21597482
46	0x3eb13537	0.34610912
47	0xbd89b0a3	-0.06723144
48	0xbdcbc631	-0.099499114
49	0x3e7cd209	0.24689497
50	0xbdf5b426	-0.11997251
51	0x3db12538	0.08649677
52	0x3c91d3db	0.017801216
53	0xbe8eecee	-0.27915138
54	0x3e69ef68	0.22845232
55	0xbe499c1b	-0.19688456
56	0x3dde9fc0	0.10870314
57	0xbe32344d	-0.17402764
58	0xbd707c25	-0.058712143
59	0xbde9eca5	-0.114220895
60	0x3ba4635b	0.005016727
61	0xbcf3b5f4	-0.029749848
62	0xbe9a7fb9	-0.3017557
63	0x3e265876	0.16244683

encoder_layer_mhattentions.0.attention_heads.2.V.bias f4 [8]
0	0x3eada9d3	0.33918628
1	0xbe842b50	-0.25814295
2	0x3de8b7e3	0.113631986
3	0xbcb3074e	-0.02185407
4	0x3d484713	0.048895907
5	0x3ed4ce99	0.41563872
6	0x3d65b4ae	0.056080513
7	0xbe292e54	-0.16521579

encoder_layer_mhattentions.0.attention_heads.3.Q.weight f4 [8, 8]
0	0x3e339708	0.17538083
1	0xbdd81f6e	-0.1055287
2	0xbea19582	-0.31559378
3	0xbf1665bc	-0.58748984
4	0x3e9d1a05	0.30683914
5	0xbe785f25	-0.24255045
6	0x3e99437d	0.29934302
7	0x3ebaef5b	0.3651074
8	0x3e70ad89	0.23503698
9	0x3e750919	0.23929252
10	0x3cf86ccb	0.030325314
11	0x3ef4ba64	0.47798455
12	0xbe943f22	-0.28954417
13	0x3e3a9b64	0.1822334
14	0xbd6c1c88	-0.057644397
15	0x3ea7cba3	0.3277255
16	0x3cd1cc67	0.025610162
17	0x3e0feef0	0.14055991
18	0xbd63b931	-0.055596534
19	0xbd0f7a75	-0.035028894
20	0xbd99e338	-0.07514042
21	0x3e301f8e	0.17199537
22	0x3e904f94	0.28185713
23	0xbed9489e	-0.42438215
24	0x3c96e910	0.01842168
25	0xbd0127d1	-0.031532113
26	0xbe1cc5d4	-0.1530984
27	0xbdb99beb	-0.09062942
28	0xbeaac788	-0.33355355
29	0x3dd3e5f8	0.103465974
30	0x3e5f181a	0.21786538
31	0x3d08e1a6	0.03341832
32	0x3e16b374	0.14716893
33	0xbebebc78	-0.37253165
34	0x3ca269a6	0.019825768
35	0xbbc23a5e	-0.005927368
36	0x3ee5f08c	0.44910085
37	0xbd859f89	-0.065245695
38	0xbecf2318	-0.40456462
39	0xbb93707d	-0.0044994936
40	0xbba8db48	-0.0051530935
41	0x3ed2d1d8	0.41175723
42	0x3daf3f7c	0.085570306
43	0x3cd4059f	0.025881587
44	0xbefdc8e0	-0.49567318
45	0x3d9df935	0.07713548
46	0x3e4b0e87	0.1982976
47	0x3c157428	0.009121932
48	0xbe593c9c	-0.21214527
49	0xbec66fdd	-0.3875722
50	0xbeadb82d	-0.33929577
51	0xbe904d9c	-0.2818421
52	0x3ebca86f	0.36847255
53	0xbf0cae70	-0.5495367
54	0xbdc813df	-0.09769415
55	0x3e3f1e9e	0.18664023
56	0x3dff06af	0.12452447
57	0x3eb6cd7d	0.3570365
58	0x3da8fbe7	0.082511716
59	0xbef6731a	-0.4813469
60	0x3ea6d9b2	0.32587963
61	0xbe85e65b	-0.2615231
62	0xbed574fa	-0.4169081
63	0xbd704262	-0.058657058

encoder_layer_mhattentions.0.attention_heads.3.Q.bias f4 [8]
0	0xbe6d5fa9	-0.23181023
1	0xbbc8cd00	-0.0061279535
2	0x3d91b2cf	0.07114183
3	0xbefd23f6	-0.494415
4	0x3e89a033	0.26880035
5	0x3eadaa51	0.33919004
6	0xbd7b51b4	-0.061357215
7	0x3e91df30	0.2849059

encoder_layer_mhattentions.0.attention_heads.3.K.weight f4 [8, 8]
0	0xbe999a95	-0.3000075
1	0x3eaac42d	0.33352795
2	0xbc580441	-0.013184608
3	0xbeaf3016	-0.34216374
4	0xbec9f7c7	-0.39446852
5	0x3c97fb0c	0.018552326
6	0xbf077e7d	-0.5292738
7	0xbeb40611	-0.35160878
8	0x3e88102a	0.26574832
9	0xbe8319fb	-0.2560576
10	0x3e07a4c9	0.13246454
11	0x3ecb4170	0.39698362
12	0x3d00b7e2	0.031425364
13	0x3ee63533	0.44962463
14	0x3b47c3ca	0.003048169
15	0xbe1cbb7b	-0.15305893
16	0xbedecd5b	-0.4351605
17	0xbc86fd36	-0.016478162
18	0xbddcff63	-0.10790899
19	0x3d9b93dd	0.07596562
20	0x3eab0856	0.33404797
21	0xbe112ba2	-0.14176801
22	0x3ee3476e	0.44390434
23	0x3bc7fb5b	0.006102962
24	0xbe2b23e5	-0.16712911
25	0xbe1fa6ed	-0.15591021
26	0x3ea7298d	0.32648888
27	0xbeaababd	-0.33345595
28	0x3da43cf0	0.080194354
29	0xbb1c1447	-0.0023815797
30	0xbe296710	-0.16543221
31	0xbc28ec9e	-0.01031032
32	0x3eaae565	0.3337814
33	0x3e9f64be	0.31131548
34	0xbe4f5c4d	-0.20250054
35	0xbe91eba7	-0.285001
36	0xbe2e4f6c	-0.17022485
37	0xbdc09991	-0.094042905
38	0xbe947093	-0.28992137
39	0xbdcc5dbc	-0.09978816
40	0xbe58cad8	-0.21171129
41	0xbed87166	-0.42274016
42	0xbe85d87d	-0.2614173
43	0x3ed01794	0.4064299
44	0x3e1859fa	0.14878073
45	0x3e1ade42	0.15123847
46	0x3e475481	0.1946583
47	0xbd9dcb85	-0.07704834
48	0xbd377efa	-0.04479883
49	0x3f023a24	0.50869966
50	0x3def0921	0.11671663
51	0xbef230ea	-0.47302943
52	0xbe597668	-0.21236575
53	0xbe4ad954	-0.19809467
54	0xbe80599f	-0.25068375
55	0xbcbeb952	-0.023281727
56	0xbe233a4b	-0.15940206
57	0x3e781231	0.2422569
58	0xbf0d94c4	-0.55305123
59	0xbf00ecd9	-0.503614
60	0xbe770cd8	-0.24125993
61	0xbd0f8327	-0.035037186
62	0x3e8f0cf3	0.27939567
63	0x3ce749c5	0.028233418

encoder_layer_mhattentions.0.attention_heads.3.K.bias f4 [8]
0	0xbe9209c0	-0.28523064
1	0xbb3bfb85	-0.0028683853
2	0xbde9943b	-0.11405226
3	0x3e9b106a	0.3028596
4	0x3eadb79c	0.33929145
5	0x3e912cd5	0.28354517
6	0x3e231e18	0.15929449
7	0x3dc619a4	0.09672859

encoder_layer_mhattentions.0.attention_heads.3.V.weight f4 [8, 8]
0	0xbe20b8b5	-0.1569546
1	0xbe409b92	-0.18809345
2	0xbdaab274	-0.083348185
3	0xbec92bff	-0.3929138
4	0x3e17592b	0.14780109
5	0xbe5aeacf	-0.21378635
6	0xbcde855f	-0.027163206
7	0xbdca64b0	-0.09882486
8	0xbe971ebe	-0.29515642
9	0x3e153fa6	0.14575061
10	0x3d21f4f4	0.039540246
11	0x3e062aa8	0.1310221
12	0x3eb60fed	0.35559025
13	0xbea49009	-0.3214114
14	0xbdcffb0e	-0.10155307
15	0xbd19ac8f	-0.03751808
16	0xbe622cc4	-0.22087389
17	0x3e78a344	0.24281031
18	0x3d91e379	0.07123465
19	0x3e9d93e0	0.30776882
20	0xbe726fd0	-0.23675466
21	0x3e157580	0.14595604
22	0xbd9df8fc	-0.077135056
23	0x3e964dec	0.29356325
24	0xbe38c878	-0.18045223
25	0xbe452d29	-0.19255508
26	0x3d5b6c76	0.053570233
27	0x3e2447b3	0.16042976
28	0x3d6410a3	0.05567993
29	0xbcac0571	-0.020998688
30	0x3d3cebd2	0.046123333
31	0x3dcb4672	0.09925546
32	0xbe83f57f	-0.25773236
33	0xbe922525	-0.28543964
34	0xbb2d95e9	-0.0026487058
35	0x3e6abf82	0.22924617
36	0xbeb59c57	-0.3547084
37	0x3e0963e5	0.13417013
38	0x3ea3db7b	0.32003388
39	0xbd0ffc95	-0.03515299
40	0x3e1aab25	0.15104349
41	0xbd5d0ce2	-0.053967364
42	0xbeb4a0d9	-0.35278967
43	0x3eacb96e	0.33735222
44	0xbddcf390	-0.10788643
45	0x3dd4f81a	0.10398884
46	0xbe596997	-0.21231686
47	0xbe8781ed	-0.26466313
48	0x3dfc565a	0.12321158
49	0x3eb08134	0.34473574
50	0xbe31bcc5	-0.17357166
51	0x3e8f0912	0.27936608
52	0xbea16401	-0.3152161
53	0xbcb5d5ca	-0.02219667
54	0xbe5fda00	-0.21860504
55	0x3e20d423	0.15705924
56	0x3e738d42	0.23784354
57	0x3e1d7d5e	0.15379855
58	0x3dba386d	0.090927936
59	0x3e57a13f	0.21057604
60	0x3e72a999	0.23697509
61	0xbd090ad1	-0.03345758
62	0xbebb40c8	-0.36572862
63	0x3e45ac2b	0.19303958

encoder_layer_mhattentions.0.attention_heads.3.V.bias f4 [8]
0	0x3e0d0852	0.13772705
1	0x3d463354	0.048388794
2	0xbd57d4cf	-0.052693184
3	0xbea41096	-0.32043904
4	0xbea7185a	-0.32635766
5	0x3e139775	0.14413245
6	0x3eaa7277	0.33290455
7	0x3da4951e	0.08036254

encoder_layer_mhattentions.0.output_layer.weight f4 [32, 32]
0	0xbe0ae27b	-0.13562958
1	0xbe0263cf	-0.12733386
2	0x3e0246f2	0.12722376
3	0x3e6a587d	0.22885318
4	0x3be0a0ea	0.00685512
5	0x3c0ebb7e	0.008711694
6	0x3e036e53	0.12835054
7	0xbe9929a2	-0.29914576
8	0x3d648eec	0.055800363
9	0xbd7a019b	-0.061036687
10	0xbe96e591	-0.2947202
11	0x3e412caf	0.18864702
12	0xbed094a3	-0.407384
13	0xbe33b168	-0.17548144
14	0xbebc1f7f	-0.3674278
15	0xbcac8ad1	-0.021062287
16	0x3ea4d888	0.3219645
17	0x3e3ec322	0.18629125
18	0x3e05fc12	0.13084438
19	0x3eb610dd	0.3555974
20	0xbe948dbb	-0.29014382
21	0xbe0672eb	-0.13129775
22	0x3b9391d3	0.0045034676
23	0xbd7e6926	-0.062111996
24	0xbdff829b	-0.12476083
25	0xbdcfe8b0	-0.101518035
26	0xbde6c66b	-0.11268314
27	0xbe7d64fb	-0.24745552
28	0xbf20a116	-0.627458
29	0x3e4f790a	0.20261016
30	0x3e69e76f	0.22842191
31	0x3e43f6a8	0.1913706
32	0xbead2af8	-0.33821845
33	0x3e21ee0a	0.15813461
34	0x3e19576f	0.1497476
35	0xbe9c4134	-0.30518496
36	0x3e0583e6	0.13038597
37	0xbe725ac3	-0.23667435
38	0x3d9e5cf6	0.07732575
39	0x3e36a112	0.17834881
40	0xbe8775f0	-0.26457167
41	0xbc69c580	-0.014268279
42	0x3e86da5f	0.2633848
43	0xbf0d2953	-0.5514118
44	0x3efe9800	0.49725342
45	0x3e97c3bd	0.29641524
46	0x3e46e22a	0.19422212
47	0xbea2f175	-0.31824842
48	0x3da0c4e6	0.078500554
49	0xbe356589	-0.17714514
50	0xbd860761	-0.06544376
51	0x3edbe393	0.42947063
52	0xbd7c46e3	-0.06159104
53	0x3d9c962f	0.07645833
54	0x3eb5885b	0.35455593
55	0xbe6a4890	-0.22879243
56	0x3df94bdd	0.12172673
57	0xbed5e165	-0.41773525
58	0xbe6d2c85	-0.23161514
59	0x3d3bdd5b	0.045865398
60	0x3e6d328e	0.23163816
61	0x3e1890a6	0.14898929
62	0xbda6a75b	-0.08137389
63	0xbe3eb5c4	-0.18624026
64	0xbeb3f65d	-0.35148898
65	0x3c853e69	0.016265111
66	0x3dec1543	0.11527493
67	0x3d966b88	0.07344729
68	0xbe436d30	-0.1908462
69	0xbe427983	-0.18991666
70	0x3ef6bfa8	0.48193097
71	0xbe544c0c	-0.20732135
72	0x3e8d6b10	0.27620745
73	0xbce6cdcc	-0.028174303
74	0xbf209f57	-0.62743133
75	0xbe479cdd	-0.19493432
76	0xbee4aaa4	-0.44661438
77	0xbe3259ca	-0.17417064
78	0x3dbd487c	0.09242341
79	0x3e208dc6	0.15679082
80	0xbee9a4db	-0.45633587
81	0x3e000490	0.1250174
82	0x3ea25cb1	0.31711343
83	0xbe36d6c5	-0.17855366
84	0xbe7d85b7	-0.2475804
85	0x3e40c508	0.18825161
86	0x3db75f5c	0.08953735
87	0x3e072db7	0.13201033
88	0xbe20902e	-0.1568
89	0xbdd97fd3	-0.10620084
90	0xbe430f25	-0.19048746
91	0xbe36afb0	-0.17840457
92	0xbdb1ebdb	-0.08687564
93	0x3c01d547	0.007924384
94	0x3da608bf	0.08107137
95	0x3deccc1d	0.11562369
96	0x3edbe7ba	0.4295023
97	0x3e64a104	0.22327048
98	0xbe92f2cd	-0.28700867
99	0xbedff0c5	-0.4373838
100	0xbec54cd5	-0.3853518
101	0xbe242ba5	-0.16032274
102	0xbe61418c	-0.2199766
103	0xbe0f4b83	-0.13993649
104	0x3db1d822	0.08683802
105	0x3eefcfd1	0.4683824
106	0x3e13cde8	0.14434016
107	0x3bcb0bba	0.0061964663
108	0x3e29c0d4	0.16577464
109	0xbdcaffce	-0.09912072
110	0x3dad47c8	0.08460957
111	0x3e2fdd1a	0.17174187
112	0x3d6f6a1a	0.058450796
113	0x3c119c60	0.00888738
114	0xbd8ad100	-0.06778145
115	0x3dbe6863	0.09297254
116	0x3da336ba	0.07969423
117	0xbd929473	-0.07157221
118	0x3d7b8a3c	0.061411127
119	0xbea94139	-0.33057573
120	0x3e5d13be	0.21589562
121	0x3d1f2956	0.03885778
122	0x3db6f5c1	0.089335926
123	0xbea8755d	-0.3290204
124	0xbe4466f3	-0.19179897
125	0xbe99bbea	-0.3002618
126	0x3d845f21	0.06463457
127	0xbeb80f99	-0.359494
128	0x3e3b0da8	0.18266928
129	0xbe60d336	-0.2195557
130	0xbe8260fe	-0.25464624
131	0xbd123a5f	-0.0357002
132	0xbdb01f68	-0.0859974
133	0xbd20114c	-0.039078996
134	0x3dc02332	0.09381713
135	0xbceb158b	-0.028696796
136	0xbe98688a	-0.29767257
137	0x3d5beac1	0.053690676
138	0xbe55e643	-0.20888619
139	0x3da9f812	0.08299269
140	0xbda7b2c5	-0.081883945
141	0x3ce2bc5e	0.027677711
142	0x3cf401cd	0.029786015
143	0xbd5e9f48	-0.05435112
144	0x3ce3b93f	0.027798293
145	0x3cc04c08	0.023473755
146	0x3d8bfa33	0.06834831
147	0x3db15ff6	0.08660881
148	0xbdc3399a	-0.09532471
149	0xbdcfd77a	-0.10148521
150	0xbd0a699a	-0.033792116
151	0x3da82d4c	0.08211765
152	0xbce9729f	-0.028497038
153	0x3b5b9dc6	0.0033510788
154	0xbc2e9010	-0.010654464
155	0x3d9029eb	0.07039245
156	0x3d402999	0.04691467
157	0xbd77fbb0	-0.060542762
158	0x3aa7970d	0.0012786106
159	0x3d46ac61	0.048504237
160	0x3d7f0698	0.062262148
161	0x3ec49f87	0.3840296
162	0x3e9f0f81	0.31066516
163	0xbe84eaef	-0.2596049
164	0xbefaf2a2	-0.4901324
165	0x3e9e4d52	0.30918366
166	0xbb38fe2b	-0.0028227668
167	0xbd4a00ee	-0.049317293
168	0x3ef3d870	0.47626066
169	0x3e5c9dd9	0.21544589
170	0xbdd6659c	-0.10468599
171	0x3dfde07a	0.12396331
172	0x3c910988	0.01770474
173	0xbeb76c6a	-0.358249
174	0xbe19faa6	-0.15037021
175	0x3e7a02d2	0.24415138
176	0x3e6e4cf6	0.23271546
177	0xbddc4777	-0.10755818
178	0xbe0f5c9c	-0.14000171
179	0xbec0f6e6	-0.3768837
180	0xbe0e250f	-0.13881324
181	0x3d58b303	0.052905094
182	0x3e0702bb	0.13184635
183	0x3d5515dc	0.0520228
184	0x3e04c6b9	0.12966432
185	0x3e66122c	0.2246787
186	0x3c852c40	0.016256452
187	0x3d79e86a	0.061012663
188	0x3e43a3dc	0.19105476
189	0x3dbf431d	0.09338973
190	0xbe7d4921	-0.24734928
191	0x3ba471c7	0.005018446
192	0xbdc659eb	-0.09685119
193	0x3da152f4	0.0787715
194	0xbd341196	-0.043962084
195	0xbddf2024	-0.10894802
196	0xbe3d0195	-0.18457635
197	0x3ded6b68	0.11592752
198	0xbe1e10c8	-0.15436089
199	0x3e29741b	0.16548197
200	0x3dc703dd	0.09717534
201	0x3d227e17	0.03967103
202	0xbd7439ab	-0.05962531
203	0xbc8b33a0	-0.01699239
204	0xbdc186bd	-0.094495274
205	0xbe3e3d60	-0.185781
206	0xbd91e4e7	-0.07123738
207	0xbe4b0f7c	-0.19830126
208	0xbe65276e	-0.22378322
209	0x3ec50e25	0.38487354
210	0x3e491563	0.19637065
211	0x3d365aca	0.044520177
212	0xbde3536b	-0.11099895
213	0x3c52d2ab	0.01286761
214	0xbde020c2	-0.10943748
215	0x3dbbd7f9	0.09172053
216	0xbeb34d13	-0.3501974
217	0x3e2aadda	0.16667882
218	0x3d3a6617	0.045507517
219	0xba07bd7b	-0.0005178076
220	0x3dcb8763	0.09937932
221	0xbe68767e	-0.22701451
222	0xbe152351	-0.14564253
223	0x3c6c9043	0.014438692
224	0x3ca54240	0.020173192
225	0x3ee54eee	0.4478678
226	0xbdbca336	-0.092108175
227	0xbe625146	-0.22101316
228	0x3e718f63	0.23589854
229	0xbea8c2f5	-0.3296124
230	0xbe85c241	-0.26124766
231	0xbc5b7460	-0.013394445
232	0xbe7d7171	-0.24750306
233	0x3ea2ba90	0.3178296
234	0x3ce4bee6	0.027923059
235	0x3bfd15e0	0.007723555
236	0x3e652a05	0.2237931
237	0x3e4f1b83	0.20225339
238	0x3e3c668e	0.18398497
239	0xbdb68b17	-0.08913248
240	0xbee8e1ce	-0.45484775
241	0x3e901af3	0.2814556
242	0x3d8f881d	0.070083834
243	0x3e4170f0	0.18890738
244	0x3e32fb13	0.1747859
245	0xbe423cde	-0.18968531
246	0xbcb3a7a5	-0.021930525
247	0xbdc1a76a	-0.0945576
248	0x3e2b3aa2	0.16721585
249	0x3de570dc	0.11203167
250	0xbeb85365	-0.36001125
251	0x3e596db8	0.2123326
252	0x3e1b1476	0.15144524
253	0x3db8b798	0.09019393
254	0xbed7c1a8	-0.42139935
255	0xbcb55e48	-0.022139683

encoder_layer_mhattentions.0.output_layer.bias f4 [32]
0	0x3d428eb4	0.047499374
1	0xbe4f8f16	-0.20269427
2	0xbe5e8463	-0.21730189
3	0xbdffb4b3	-0.124856375
4	0xbdbe43ae	-0.092902526
5	0x3ccc982c	0.024974905
6	0x3c97e6e1	0.018542709
7	0xbdd9dd74	-0.10637942
8	0xbd2ed05a	-0.04267917
9	0x3e2af245	0.16693981
10	0xbcab801e	-0.020935114
11	0xbddf73bf	-0.10910749
12	0xbe0e5f4f	-0.13903545
13	0x3e55c6bb	0.20876591
14	0xbd30c56f	-0.043157037
15	0xbca04e2f	-0.01956853
16	0x3d4d111d	0.05006515
17	0x3e969a7a	0.2941473
18	0x3e19d24c	0.15021628
19	0xbda3347a	-0.079689935
20	0x3d628a71	0.05530781
21	0xbdca36f2	-0.09873761
22	0x3e9f3cfc	0.31101215
23	0x3df76588	0.120799124
24	0x3dfd34c6	0.12363581
25	0x3e1fc488	0.15602314
26	0x3e1525f9	0.14565267
27	0xbd98534d	-0.07437763
28	0xbde9dc64	-0.11418989
29	0xbe887258	-0.26649737
30	0xbe4605d0	-0.19338155
31	0x3d133fbc	0.035949454

encoder_layer_mhattentions.1.attention_heads.0.Q.weight f4 [8, 8]
0	0x3f282bbf	0.6569175
1	0xbe8bea4b	-0.2732719
2	0xbe296136	-0.1654099
3	0xbe65c441	-0.22438146
4	0x3e2a1afd	0.16611858
5	0x3ead2989	0.3382075
6	0x3e0431d2	0.1290963
7	0x3ea4d1d7	0.32191345
8	0x3e89130b	0.2677234
9	0x3e2bbdfc	0.16771692
10	0xbecb8630	-0.39750814
11	0x3eaab0ee	0.33338112
12	0xbd0a2157	-0.0337232
13	0x3df9c744	0.1219621
14	0x3e8e4eaa	0.2779439
15	0x3dc381a3	0.095462106
16	0xbe58fd53	-0.21190386
17	0xbf1520e0	-0.5825329
18	0xbea4433c	-0.32082546
19	0x3e0f636e	0.14002773
20	0xbe4df929	-0.20114578
21	0xbd341b43	-0.04397131
22	0xbe31c2f1	-0.1735952
23	0x3ef3c344	0.47609913
24	0x3edc1c66	0.42990416
25	0xbe32dddf	-0.1746745
26	0xbda91914	-0.082567364
27	0x3f233e95	0.6376737
28	0xbec6d851	-0.3883691
29	0x3e482014	0.19543487
30	0xbc852705	-0.016253958
31	0xbe93411b	-0.2876061
32	0xbe943a0b	-0.28950533
33	0x3eed2105	0.46314254
34	0x3d89b807	0.067245536
35	0xbdd0070b	-0.10157593
36	0xbdc8f050	-0.09811461
37	0x3e4464eb	0.19179122
38	0xbe6880c6	-0.22705373
39	0xbeae13ca	-0.33999473
40	0xbe645a2d	-0.22300024
41	0xbdc19a06	-0.09453206
42	0xbea9da27	-0.3317425
43	0x3e419aab	0.18906657
44	0xbe72d5ed	-0.23714419
45	0xbea394aa	-0.3194936
46	0x3e3ccb6f	0.18436979
47	0x3e9390c9	0.288214
48	0x3e7a68b0	0.24453998
49	0xbe62361a	-0.2209095
50	0x3c5740a7	0.013137973
51	0x3eb00c8f	0.3438458
52	0x3e20686f	0.15664838
53	0x3d8d228a	0.068913534
54	0x3e5cfe03	0.21581273
55	0x3da26326	0.07929067
56	0xbe96d038	-0.29455733
57	0xbe076c79	-0.13224973
58	0x3e281a9e	0.16416404
59	0x3e222b95	0.15836938
60	0xbe824576	-0.2544362
61	0xbd4aeedf	-0.04954421
62	0x3f274aab	0.6534831
63	0x3c3cff01	0.011535407

encoder_layer_mhattentions.1.attention_heads.0.Q.bias f4 [8]
0	0xbedb45ce	-0.42826694
1	0xbe306335	-0.17225344
2	0xbd37a0db	-0.044831138
3	0xbd5a2c8a	-0.053265132
4	0xbef24a17	-0.4732215
5	0x3ef15b8c	0.47140157
6	0x3e9f757c	0.3114432
7	0xbe780c0f	-0.2422335

encoder_layer_mhattentions.1.attention_heads.0.K.weight f4 [8, 8]
0	0x3e2fb077	0.1715716
1	0xbcfd2f50	-0.03090635
2	0x3e79cc4f	0.24394344
3	0xbe85843d	-0.26077452
4	0x3e8cb69e	0.27483076
5	0x3e824176	0.25440568
6	0xbf321c21	-0.6957417
7	0xbe3aa9de	-0.18228862
8	0x3d6c5253	0.057695698
9	0x3eb1da53	0.3473688
10	0x3e32afe7	0.17449914
11	0xbed2f2d1	-0.4120088
12	0x3eb09da2	0.34495264
13	0xbe4a7976	-0.19772896
14	0xbe7d2b35	-0.24723513
15	0xbdd324c9	-0.103097506
16	0xbe08157b	-0.13289444
17	0x3eb3b13e	0.35096163
18	0x3eb2346e	0.34805626
19	0x3f1b187e	0.6058425
20	0xbc8ecd6c	-0.017431937
21	0x3e78f5d9	0.24312533
22	0x3cc499f3	0.02399919
23	0xbe8e6eaa	-0.27818805
24	0x3e4071dc	0.18793434
25	0x3ede22d5	0.4338595
26	0x3de95b8b	0.113944136
27	0xbe621a9a	-0.2208046
28	0x3d5b1d70	0.05349487
29	0x3e83c46e	0.257358
30	0x3e8a0c9d	0.26962748
31	0xbf1f308b	-0.62183446
32	0x3e4efd90	0.20213914
33	0xbe8a9fee	-0.27075142
34	0x3e0619cf	0.13095783
35	0xbe20cbe1	-0.15702774
36	0x3e9858a3	0.29755124
37	0xbeee537e	-0.46548074
38	0x3eadf329	0.3397458
39	0xbe2c944a	-0.16853443
40	0xbe3a769d	-0.1820931
41	0x3ec0a060	0.37622356
42	0x3e75c036	0.23999104
43	0x3dc65bf9	0.09685511
44	0xbe46bb27	-0.1940733
45	0x3e701385	0.23444946
46	0x3e57d612	0.21077755
47	0x3e61273a	0.2198762
48	0xbe3e48bc	-0.18582433
49	0x3e1fde59	0.15612163
50	0xbe438398	-0.19093168
51	0xbe232d7b	-0.15935318
52	0xbe1652e1	-0.14680053
53	0x3e05d966	0.13071212
54	0xbe4f4550	-0.20241284
55	0xbcda8d9f	-0.026678858
56	0xbe10b77d	-0.14132495
57	0xbdc28335	-0.09497682
58	0x3e0d43c4	0.13795382
59	0xbe69bf0e	-0.22826788
60	0x3ece5dd4	0.4030596
61	0x3ed302c8	0.4121306
62	0x3edd0687	0.43169042
63	0x3dd37ee7	0.10326939

encoder_layer_mhattentions.1.attention_heads.0.K.bias f4 [8]
0	0x3e436043	0.1907969
1	0xbeab60bb	-0.33472237
2	0x3eb2a31b	0.34890065
3	0x3d022b5d	0.031779636
4	0xbe80fa35	-0.25190893
5	0xbe64962f	-0.22322915
6	0x3eb23142	0.34803206
7	0xbdc95490	-0.09830582

encoder_layer_mhattentions.1.attention_heads.0.V.weight f4 [8, 8]
0	0x3d590eb5	0.05299254
1	0x3dd42622	0.10358836
2	0xbdb0627f	-0.08612537
3	0xbe24d48f	-0.1609671
4	0xbdd8d107	-0.10586744
5	0x3e69e9ff	0.22843169
6	0xbe9f13cb	-0.31069788
7	0xbe431780	-0.19051933
8	0xbe980008	-0.29687524
9	0x3d460861	0.048347834
10	0xbd572d07	-0.052533176
11	0xbe46ae23	-0.19402365
12	0xbd26a4b5	-0.04068442
13	0xbe82bb81	-0.2553368
14	0xbe18c42c	-0.14918584
15	0xbe675b76	-0.22593483
16	0xbe4043cd	-0.18775864
17	0x3e425e4b	0.18981282
18	0x3e6f8f0f	0.23394416
19	0xbd87fe3b	-0.066402875
20	0x3e920775	0.28521314
21	0x3d44624a	0.0479453
22	0xbd5e120a	-0.054216422
23	0xbe046fcc	-0.12933272
24	0xbc95a748	-0.018268242
25	0xbe90d1a8	-0.28284955
26	0x3d987d7b	0.074458085
27	0xbeae9933	-0.34101257
28	0xbdd92c09	-0.10604102
29	0x3c3ba431	0.0114527205
30	0xbd97271f	-0.07380509
31	0xbe3ceb84	-0.18449217
32	0xbf1b401b	-0.6064469
33	0xbc12d091	-0.008960859
34	0x3e21c978	0.1579951
35	0xbe98484e	-0.29742664
36	0xbe234a82	-0.15946391
37	0x3c784f69	0.015155652
38	0xbe02ff20	-0.12792635
39	0x3f0d601c	0.55224776
40	0x3e4863db	0.19569342
41	0x3e9af02d	0.30261365
42	0x3e5f5e64	0.21813351
43	0xbdfb226f	-0.12262427
44	0xbd289465	-0.041157145
45	0xbd500fbe	-0.050796263
46	0x3d04d5bb	0.03243039
47	0x3e8467d3	0.25860462
48	0x3e1c4cb4	0.15263635
49	0x3eab3cb5	0.33444753
50	0xbeaa8d9b	-0.3331116
51	0xbea4dcd3	-0.32199726
52	0x3dfec073	0.124390505
53	0x3e85e1dd	0.26148883
54	0x3bc48ba0	0.00599809
55	0x3db5891d	0.08864043
56	0x3e321398	0.17390287
57	0xbee76e62	-0.45201403
58	0x3e15e957	0.14639793
59	0x3db6a4c6	0.08918147
60	0x3dc3e84c	0.095657915
61	0xbdcbf6d5	-0.09959189
62	0xbdc630b2	-0.09677257
63	0x3dfa9ef3	0.122373484

encoder_layer_mhattentions.1.attention_heads.0.V.bias f4 [8]
0	0xbd33af8e	-0.043868594
1	0xbe154c64	-0.14579922
2	0x3df35e81	0.118832596
3	0xbd7c7173	-0.06163163
4	0x3de5ed90	0.11226952
5	0x3d63fb6c	0.055659696
6	0xbe134c8b	-0.14384668
7	0x3e0d4220	0.13794756

encoder_layer_mhattentions.1.attention_heads.1.Q.weight f4 [8, 8]
0	0xbe8264cc	-0.25467527
1	0x3d3fa67c	0.04678963
2	0xbe11c22c	-0.14234227
3	0x3e0bab39	0.13639535
4	0xbb056e15	-0.0020359803
5	0x3dd0c64a	0.10194071
6	0xbe707fc7	-0.23486243
7	0x3e40fe2e	0.18846962
8	0x3e2149a1	0.15750743
9	0xbddf4148	-0.10901123
10	0x3de95e69	0.113949604
11	0xbea9e05b	-0.33178982
12	0xbf019c49	-0.506291
13	0x3e23b473	0.15986805
14	0x3decd2e7	0.11563664
15	0x3f0d9b8d	0.55315477
16	0xbe6effd7	-0.23339783
17	0xbe7ed77c	-0.24886888
18	0x3e21fedb	0.15819876
19	0x3df82404	0.121162444
20	0xbefd2003	-0.49438486
21	0x3e5babc7	0.21452247
22	0xbd28ae9b	-0.04118214
23	0x3eff77cd	0.49896088
24	0x3e0ff787	0.14059268
25	0xbebad254	-0.36488593
26	0xbc61ee15	-0.013789673
27	0xbd221109	-0.039567027
28	0x3d2985bf	0.041387316
29	0x3d145b00	0.036219597
30	0x3dc92cf6	0.09823029
31	0x3e0e8373	0.13917331
32	0x3d327a92	0.043573923
33	0xbdd1ce82	-0.10244466
34	0xbeaf838f	-0.3428006
35	0x3f02a509	0.51033074
36	0x3dcad7d8	0.0990445
37	0x3d13ad5f	0.03605401
38	0xbe94efaf	-0.29089114
39	0x3e1a33d6	0.15058836
40	0x3ed6c5ea	0.4194787
41	0xbd82cf1a	-0.06387158
42	0xbe15915e	-0.14606234
43	0x3e17e92d	0.14835043
44	0xbf37d768	-0.7181306
45	0xbe2c9040	-0.16851902
46	0xbf0aaaf3	-0.541671
47	0x3e35bef6	0.17748627
48	0xbe079061	-0.1323867
49	0x3b297856	0.002585908
50	0xbec9877a	-0.39361173
51	0x3e19c8f8	0.1501807
52	0x3d8650b1	0.065583594
53	0xbd5d6bf2	-0.054058023
54	0xbecb6721	-0.3972712
55	0x3f057244	0.5212748
56	0xbe71bea3	-0.23607878
57	0x3dd2e00b	0.10296639
58	0x3e8675be	0.26261705
59	0xbe986854	-0.29767096
60	0x3ee55e7f	0.44798657
61	0xbd1164b9	-0.035496447
62	0xbd0415ec	-0.03224747
63	0xbf47d6c5	-0.7806209

encoder_layer_mhattentions.1.attention_heads.1.Q.bias f4 [8]
0	0xbe45eefc	-0.19329447
1	0x3df0e918	0.11763209
2	0xbe2c70f3	-0.16839962
3	0x3e3b5318	0.18293417
4	0x3cbdccfb	0.023169031
5	0xbdffcb34	-0.1248993
6	0x3e6d5147	0.23175536
7	0xbe934fbe	-0.28771776
