models/model_chkpt_70.pt (torch, 318877 bytes, 387 tensors)

tokenizer.token_embedding.weight f4 [17, 32]
00000000: 491c 17bf df8d f5bf 1394 04be d9cc c83d
00000010: 6b58 c83f d3c7 613f 82dd 1e3f 4405 723f
00000020: 3703 b5bf 8898 b9bf 27fa 09bd 8dd4 803e
00000030: 04cb 86bf f3d4 23bf 0423 9ebe a145 93be
00000040: d7ff cdbe c11d 083f 9c45 26bf 1cec f9be
00000050: 98c0 96bf 488b 01c0 66f1 393f 0c72 2140
00000060: 8e67 52be 2f3b 393f 7b25 553f 71e3 873f
00000070: cd16 37bf 2640 39c0 1ced 133f 9dc6 a8be
00000080: 86b1 80bf 555b bebf 5d73 a73f 8416 11be
00000090: 267b 2e40 de22 b53e a3b4 70be 213c 3c3f
000000a0: 3c06 8ebf a992 74bf df29 bebe 3882 073f
000000b0: 58c0 37bf e593 1bbf cf83 0fbf 04af c7be
000000c0: 7fee fb3f 2ab7 13bf c8da 073e c14c 913f
000000d0: dec6 823f bdaa 133f f549 8b3f c1a6 be3d
000000e0: a50e 8cbf 3631 893d dfc3 b63f 51e3 0e3f
000000f0: 548c 41bf 65c7 c0bf 94fc 15bf cbdf 333f
00000100: 4e65 40bd e024 073f 3cc8 b9bd 0632 f7be
00000110: ce37 5540 d0ae 603d 19fc d23f 32c5 6a3e
00000120: 0663 94bf 1f9c d8be 49cb 12bf efef 4f3f
00000130: 1cb0 c0be 3403 0cbf 4a4e 0bbf f065 aebe
00000140: af74 8d3f f017 fd3f 6445 cebe ceb9 c0bf
00000150: f662 5ebf bc04 d8be 4a51 d4bc e354 fdbf
00000160: a6f0 b2bf ecea ac3f 1115 a53e 9f3a 013f
00000170: 1779 e53e 6f1c e9bd c275 abbe ccf6 38be
00000180: 9db4 25bf df27 8f3f 06b1 983e dfe0 8abd
00000190: fb56 1b3e 3f19 01bf 1962 f03f f814 3a3f
000001a0: 4db6 a7bf 5d8d 553f a75a 98bf 17e9 423f
000001b0: 75c9 e13d c79e 1abf df9f 65be 950d dfbe
000001c0: b506 823e 964d 563e aa27 d93f a164 16bf
000001d0: 1b3f 1ebf 0ebc ce3f d606 133f e56b 17c0
000001e0: 1641 b6bf 104a 0b3f 9b40 843e 69a8 ea3c
000001f0: 393a 8b3e b70e 843f 7f3f 8cbf f2ab e33e
00000200: a794 c8be 22f7 5fbe 3e61 493d 19eb a03e
00000210: a790 ddbe 1ba2 cfbf b512 1140 5812 40bf
00000220: 34b3 093e 42de e3bd fb5b d13e abe3 ce3f
00000230: 0c3a 0c3e b375 4e3e 23df a8bf d49b df3d
00000240: c98d 443f 11c8 0a3f 286e b43f f6c0 a4bf
00000250: e09a 94bf f2df 813e 2756 a73d d2e2 5cbf
00000260: b3c3 b6bf 23e6 ea3d 5f23 94bf 17a0 64be
00000270: 762f c23e 9f2a 0240 ba7b cebf 3794 15bf
00000280: b0fb 7a3f cd37 713f e689 d33f 29f1 e93e
00000290: d9f8 47c0 f597 cebe e70e 083f 004a 3b3f
000002a0: cdfe 55be 7b43 8c3f 0ae9 f73e 9ef2 8e3f
000002b0: 90e4 e5bd 335b b7be 1137 2bbf c615 ccbd
000002c0: 40fb fa3f 3f79 1e3f 41d2 e93e 3258 1bbf
000002d0: eaf8 163f d2ba 9abe a51f d43e a72f 483e
000002e0: 9102 ae3d d1ee 93be a9a0 1cbe 98ff 79be
000002f0: f850 cebd b187 b43f b2a9 a4bf 70cf acbe
00000300: ce67 f7bd 551f a7bf 4f31 2f3e d2b5 57be
00000310: 3815 93bf 1cfc cdbf bff2 653e 24c2 18bd
00000320: 23a6 55be 9457 613f 5d28 4b3f cfd9 8b3f
00000330: 0222 4fbe 65ec 79be 9480 63bf 70e4 b13e
00000340: aa6a 843f 9c7d 173f c244 d6bf 0ee3 f1bd
00000350: 4e56 5c3f b113 afbe 0a29 5ebe 8cb9 0a40
00000360: 0e71 d9be 105a e73d 4a4f 22bf 2eee 1cbf
00000370: 2fcc a73d 89b8 0940 0496 57bf a843 93be
00000380: 015a 47bf 4b22 693d 87a2 2240 c487 893f
00000390: 528b 5e3f 04d2 22c0 a2ed 26c0 19eb 66be
000003a0: aaa4 883b 00ee cf3f 5f65 763f b302 8b3f
000003b0: e3c5 36be 55c0 c5be cf10 2abf 707c 4fbc
000003c0: b1f8 a03e eaf7 6b3e b22b dfbf 2adb ae3e
000003d0: c36a e93f 3930 823f 4e2c 8dbe 15df a63f
000003e0: 451f 953f b5d7 edbe d18f ffbe ae3f ce3e
000003f0: ae58 0bbf b962 ba3e d515 86bf fa99 a0be
-0.59027535 -1.9183921 -0.12947111 0.098046966 1.5651983 0.8819553 0.62056744 0.94539285
-1.4141606 -1.4499674 -0.03368583 0.25162163 -1.0530705 -0.6399681 -0.3088609 -0.2876406
-0.40234253 0.531704 -0.64949965 -0.4881295 -1.1777525 -2.024126 0.7263397 2.5225859
-0.20547315 0.7235593 0.83260316 1.0616285 -0.71519166 -2.8945403 0.57783675 -0.3296403
-1.0054176 -1.4871622 1.3082081 -0.14168745 2.7262664 0.35378164 -0.23506407 0.7352925
-1.1095653 -0.95536286 -0.3714132 0.52933073 -0.7177787 -0.60772544 -0.560605 -0.39000714
1.9682158 -0.5770136 0.13267052 1.1351548 1.021694 0.576824 1.0881945 0.093091495
-1.0941969 0.06698839 1.4278525 0.5581561 -0.7560475 -1.506085 -0.5858853 0.70263356
-0.04697161 0.5279064 -0.09071395 -0.48280352 3.331531 0.054854214 1.6483184 0.22926787
-1.159272 -0.4230661 -0.5734144 0.81225485 -0.3763436 -0.5469239 -0.54416335 -0.34062147
1.1051234 1.977293 -0.40287316 -1.5056703 -0.8686975 -0.42191112 -0.025917668 -1.979153
-1.397969 1.3509192 0.32242635 0.50480074 0.44818947 -0.113823764 -0.3348828 -0.18062896
-0.6472872 1.1184043 0.29822558 -0.06781172 0.15169899 -0.5042915 1.8779937 0.72688246
-1.3102509 0.8341883 -1.1902665 0.76136917 0.11024753 -0.60398525 -0.22424267 -0.4356505
0.25395742 0.20928034 1.696523 -0.587473 -0.6181504 1.615114 0.57432306 -2.3659604
-1.4238613 0.54409885 0.2583054 0.028644757 0.27192858 1.0316991 -1.0956877 0.4446712
-0.39175913 -0.21871617 0.049165003 0.31429365 -0.43274423 -1.6221346 2.2667668 -0.7502799
0.13447267 -0.11126377 0.40890488 1.6163229 0.13694018 0.20162086 -1.3193096 0.10918394
0.76778847 0.5421153 1.4096117 -1.2871387 -1.1609764 0.2536617 0.08170729 -0.862836
-1.4278473 0.11469676 -1.1573294 -0.22326694 0.37926835 2.0338514 -1.6131508 -0.5842928
0.98040295 0.9422577 1.6526458 0.45691803 -3.1245635 -0.4035031 0.5314774 0.7315979
-0.2089798 1.0958093 0.48419982 1.1167791 -0.112252355 -0.35811767 -0.668809 -0.099650905
1.9607925 0.61903757 0.45668224 -0.6068145 0.5897356 -0.30220658 0.41430393 0.19549428
0.08496583 -0.2889314 -0.15295662 -0.24413908 -0.10074037 1.410391 -1.2864287 -0.33752012
-0.12080346 -1.3056437 0.17108653 -0.21065453 -1.149085 -1.6092563 0.22455882 -0.037294522
-0.20864157 0.8802426 0.79358464 1.0925845 -0.20227817 -0.24406584 -0.8886807 0.34744596
1.0345051 0.5917604 -1.6739733 -0.11810885 0.8606919 -0.3419471 -0.21695343 2.167575
-0.42469066 0.11296475 -0.63402236 -0.61300933 0.08193242 2.1518881 -0.8421328 -0.28762555
-0.7787171 0.05691747 2.54117 1.0744557 0.86931336 -2.5440683 -2.608254 -0.2255062
0.00417002 1.6244507 0.9624843 1.0860199 -0.17848925 -0.386233 -0.664319 -0.012663946
0.31439736 0.2304379 -1.743521 0.34151584 1.8235706 1.0170966 -0.27572864 1.3036829
1.1650168 -0.46453634 -0.4991441 0.4028296 -0.5443219 0.36403444 -1.0475413 -0.31367475

tokenizer.positional_embedding.weight f4 [9, 32]
00000000: 517e 273f cfde 76be 95d1 adbe 1f9c d63e
00000010: 6839 d63e d471 e23f 26a1 bf3c 3f70 01bf
00000020: e47c 10bf 86e8 233f 4623 0740 1e1f a2bf
00000030: a9ec 81bf 8f8e 23bf 6db3 113f 297e 23bd
00000040: 426f 2f3e c849 31bf acfe 303f 593d 9a3f
00000050: 6ffa debc eea7 b8bb 3911 583e 0e77 dd3e
00000060: fce5 5abf dfc4 4a3f 7969 df3f 90c7 aa3d
00000070: 46eb 81be ec76 883e ffff 1dbf 7a01 35c0
00000080: 2313 9e3f d1d7 0a3f 71dc 193f db0d 933e
00000090: 5be1 a33f 13b5 8c3e 6c8a 953e acb1 62be
000000a0: c30e 0140 a353 073f 5a9c 79bf 41be 95be
000000b0: 44cd b8be eeb3 cd3e 9ff4 7e3f 5905 8bbf
000000c0: 67ef 84bd 239f 63bf 7887 083f 58d4 c2bf
000000d0: 1f07 723f e28b 8b3e 9db9 303f e9c8 2b3f
000000e0: f3d8 3d3f 8cc0 97be 0b07 b83f b8a2 06c0
000000f0: cef3 123f d334 143f a650 f23f 6ed1 3fbf
00000100: 0cdc de3d 3baa 693f af08 2bbd 8eeb 6ebf
00000110: 3666 afbd 6f52 e7be eb84 a4be af0c 963f
00000120: 33c1 463f a54e cb3e 088f b6bf 7a52 e1bf
00000130: 3b36 da3f c77b 6cbd 95da ebbf a242 5d3f
00000140: 53f1 e03e cb0f 313f 7600 ccbe de04 58bf
00000150: f5ca b43f af39 9abf 8b08 0dbf 1321 8dbe
00000160: 3837 86bd 2132 fdbe e662 afbe 0d2e 85bf
00000170: 5c25 29be 1095 49bf d6d8 9d3f ad24 a9bf
00000180: 9abc 38bf 3a89 dabf 22e0 b9bf 3df4 f9be
00000190: 1a89 adbe 72d7 45bf 8a2b a93e 63e8 14bf
000001a0: dc08 2bbf 3044 a4bd 65e6 d7be 1c96 ccbf
000001b0: 16fc ef3f b2bc 64bf 120f aabf aa5f 8d3e
000001c0: 9335 f6be 818d afbf b0f1 2cbf 1c6b 1fc0
000001d0: fb6c ce3f b52f 053f b62c 93be d13a 97bf
000001e0: 3b8a 993f 4c04 cf3f b0e7 da3e e3d1 5fbf
000001f0: 5614 0c3f 7529 19bf de05 9cbf dbad 42bf
00000200: b4b8 973f aece 133b ff57 6b3e 5c3b a9bf
00000210: 4096 0b3f 15ce acbf 9f96 b73e d7af c93e
00000220: c9e7 f9be 9854 6f3f cd32 1340 115e 383f
00000230: 4a82 1fbf 4e2e 43be 704e 8d3d 9a26 fcbd
00000240: 939c a33d 501d 95bf 64b3 8e3f a33e bf3e
00000250: d14b 5f3e da0d 5b3f 9971 43bf 1732 f5be
00000260: f6b5 7d3f acf2 fd3d ce36 7cbe 7abb 6fbe
00000270: 4afc e83f 112d bd3e c02c c23f c801 ad3f
00000280: cc10 c1be 9a3c 8dbf 332d bc3f 3e41 c1bf
00000290: 775f 58bd 4c5e 303f f704 433f bf4a 44bf
000002a0: 5517 22bf ba13 a9bd 7d8c ffbe 159e 473f
000002b0: a347 08bf 35e3 b53f 9a23 d53e 9b37 b5bf
000002c0: 3855 e3bf 0ce2 5a3f 10af a13e 8309 383f
000002d0: 2022 e9be 55e2 f93f cbb9 853e bbb7 273f
000002e0: 955c 91bc 416b 093f 1fc8 10c0 68d4 00be
000002f0: 9718 9ebe f620 793e 66e8 41bf 5f74 3c3f
00000300: 22fa c9be 8e46 f93e b731 1bbe 02e8 7dbd
00000310: 07a7 5dbd 877c 7fbf 2076 ebbf 6330 06bf
00000320: 2912 123e 4c10 c0bf 82c8 82bf ebb8 2abe
00000330: 5e97 edbf dcfe 8a3f 29e0 d2be 4b7c c33f
00000340: 2c78 f03e 7cc4 0ebf 85df cbbf c2b8 f13d
00000350: 7986 27bf 1973 6a3f 2b20 aa3f 4d46 7abf
00000360: 720c f2be bd89 963e 805c 0f3f 6e94 9b3f
00000370: 6c08 1ebf c486 8e3f 1965 8c3f 4fbe dc3e
00000380: b778 d1bf 4056 4a3f 098f cabf 6c34 e33d
00000390: cf1e 21be f4fa 153f 98c2 81be 3bf9 623f
000003a0: da3f b23f 58ae c1bf 64da b5be 7d4c 963f
000003b0: 2d7e 2bbf f9c0 a2bf 4560 a43e c7e1 f43f
000003c0: 358a d23e b14e 803e 25d9 193e b068 e8bf
000003d0: e2f2 113e e0eb be3e 05b9 4abf 251b 30bf
000003e0: e83c f43e 152f 18c0 ed0d 95bd 3bcf e8be
000003f0: c44e ffbf 9d43 44bf d3a8 cbbe 8f47 9c3f
0.6542712 -0.24108432 -0.3394896 0.41915986 0.41840672 1.7690988 0.023392271 -0.505619
-0.5644057 0.6402668 2.111528 -1.2665746 -1.0150348 -0.638894 0.56914407 -0.039915238
0.17132285 -0.69253206 0.691386 1.2049972 -0.027219025 -0.005635253 0.2110032 0.43254894
-0.8550718 0.7920665 1.7454063 0.08338845 -0.25374812 0.2665323 -0.61718744 -2.8282151
1.234959 0.5423556 0.6010199 0.28721508 1.2803148 0.274819 0.2920717 -0.22138089
2.016526 0.52861995 -0.975042 -0.29246715 -0.36094105 0.40176338 0.9959201 -1.0861007
-0.06490975 -0.889147 0.5333171 -1.5221052 0.94542116 0.2725516 0.69033223 0.6710344
0.74159163 -0.2963909 1.4377149 -2.1036816 0.57403266 0.57893103 1.8930862 -0.7492894
0.10881814 0.91275376 -0.04175633 -0.9332818 -0.08564417 -0.4518008 -0.32132658 1.1722621
0.7763855 0.3970844 -1.42624 -1.7603295 1.70478 -0.05773523 -1.8426081 0.864298
0.43934116 0.69164723 -0.39844102 -0.84382427 1.4124438 -1.2048854 -0.5509116 -0.27564296
-0.06553501 -0.49452308 -0.3425514 -1.0404679 -0.16518158 -0.78743076 1.2331798 -1.3214318
-0.72162783 -1.7073128 -1.4521525 -0.48819152 -0.33893663 -0.7728187 0.3304103 -0.58167094
-0.66810393 -0.08020818 -0.42167965 -1.598331 1.8748806 -0.89350426 -1.3285849 0.27612048
-0.4808775 -1.3715059 -0.67556286 -2.4909124 1.6127008 0.5202592 -0.2874505 -1.1814824
1.199531 1.6173186 0.4275489 -0.87429637 0.5471853 -0.59828883 -1.218929 -0.7604653
1.1853242 0.002255361 0.22982787 -1.322124 0.5452614 -1.3500391 0.35857102 0.39391968
-0.4880965 0.93488455 2.2999756 0.72018534 -0.6230818 -0.19060633 0.068997264 -0.1231205
0.079888485 -1.164957 1.1148496 0.37352476 0.21806265 0.8556801 -0.7634521 -0.47889778
0.99105775 0.123998016 -0.24630281 -0.2341136 1.8201993 0.36948445 1.5169907 1.3516169
-0.37708127 -1.1034119 1.4701294 -1.5098035 -0.052825417 0.68893886 0.7617945 -0.76676553
-0.6331685 -0.08255716 -0.49911872 0.7797559 -0.5323431 1.4209963 0.41628724 -1.4157594
-1.7760382 0.8550117 0.31578875 0.71889514 -0.45533848 1.9522196 0.2611831 0.65514725
-0.017744342 0.5367928 -2.2622144 -0.12581027 -0.30878136 0.2432898 -0.75745237 0.7361507
-0.3944865 0.4868664 -0.15155683 -0.061988838 -0.054114368 -0.9979939 -1.8395424 -0.5241758
0.1426474 -1.5004973 -1.021744 -0.16672103 -1.8561819 1.0859027 -0.41186646 1.5272306
0.46966684 -0.5576856 -1.5927588 0.11802818 -0.65439564 0.91581875 1.3291067 -0.9776352
-0.4727512 0.2940196 0.5600052 1.2154672 -0.617316 1.1134877 1.0968353 0.43113944
-1.6364964 0.7903786 -1.5824901 0.11093983 -0.15734409 0.5858605 -0.25343776 0.88661546
1.3925736 -1.513133 -0.3551818 1.1742092 -0.66989404 -1.271514 0.32104698 1.9131402
0.4112107 0.25060037 0.1502424 -1.8156948 0.14252809 0.37289333 -0.7918857 -0.6879142
0.47702718 -2.3778737 -0.07278047 -0.45470604 -1.9945912 -0.7666567 -0.3977724 1.2209338

encoder_layer_mhattentions.0.attention_heads.0.Q.weight f4 [8, 8]
00000000: 0dce 3abd e793 bb3d efa1 0cbe 448d 7e3e
00000010: 3eca 55bd de99 ec3d 3249 34be 3b73 29be
00000020: 265d 0a3e c6ce 7b3d 2ecc c8be 9ce2 62be
00000030: 5d70 13bc a442 57be 4036 51be efb1 ac3c
00000040: c244 61bd b023 bbbc 700f 793d 18a7 ec3d
00000050: 2dcd 71bb bd55 4d3d de20 28bb dcd9 a93d
00000060: a47b 0b3d b1f0 8b3b 636e a6bd 2850 1abc
00000070: a1d1 dcb9 72c2 aabd 4c46 2d3c 94ce 03be
00000080: 5c38 933d 6bf0 a4be a9a2 dcbd de17 4e3d
00000090: 721c 0bbe 1d43 54be 441e 463d 3e76 7f3e
000000a0: a83d 8fbe 4812 8ebd 39df 773e 4216 cfbd
000000b0: eb49 e0bd d4dc 7c3e b595 0bbd 1df6 61be
000000c0: 14c3 0ebd 1a8e abbc 9dc7 283e 9f9f 4abd
000000d0: f5c8 7bbd e3d7 693e a4f1 48be a24b d2be
000000e0: bd96 9fbe b5bd b13d 597a a5bd 8155 f83e
000000f0: 641b 5bbe 2ae3 0f3f c833 3e3a 068c f9be
-0.04560666 0.091590695 -0.13733648 0.24858576 -0.052194826 0.11552785 -0.17606047 -0.16547863
0.13512096 0.06147649 -0.39218277 -0.22156757 -0.008998957 -0.21021515 -0.20430851 0.02108094
-0.054997213 -0.022844166 0.060805738 0.11555308 -0.0036895976 0.050130595 -0.0025654356 0.082935065
0.03405346 0.004270636 -0.08126523 -0.009418525 -0.00042117856 -0.08337869 0.010575842 -0.12871772
0.07188484 -0.32214674 -0.107732125 0.05031573 -0.1358507 -0.20728727 0.048368707 0.2494745
-0.27976727 -0.069370806 0.24206246 -0.10111667 -0.10951599 0.24693614 -0.03407832 -0.22066541
-0.03485401 -0.020941783 0.16482396 -0.049468633 -0.061470944 0.2283626 -0.19623429 -0.41073328
-0.31169692 0.08678762 -0.080799766 0.48502734 -0.21397167 0.56206 0.0007255641 -0.48739642

encoder_layer_mhattentions.0.attention_heads.0.Q.bias f4 [8]
00000000: 5253 6f3e 6a43 ecbe 8d39 923b de26 973d
00000010: e179 f53d 9750 80be 06b2 543f 71ea 093e
0.23371628 -0.46145183 0.004462427 0.0738046 0.11986137 -0.25061485 0.8308414 0.13468339

encoder_layer_mhattentions.0.attention_heads.0.K.weight f4 [8, 8]
00000000: 7f78 6d3e ba3f 623e 228b 13bf e74a 0a3e
00000010: 24fc 79bd 9f63 f2bc 5f28 5b3d 0976 363e
00000020: 854e c4be 3b7e cabd b452 6ebd efbd c53e
00000030: d527 843e 96cf 01bd aa2b 893d b036 ad3e
00000040: 0052 9cbd 499e 253d 0a92 efbc eb98 a3bd
00000050: b190 7bbd a234 9ebd 4aa0 3e3d 64f4 273c
00000060: bf19 fc3c af25 a6bd e63c 9f3c 9111 ea3c
00000070: 5b78 e53d b45c 973d 794b 8bba 4f9b 0abd
00000080: 1168 f4bd 99a8 143e ff85 b13e bbde 14be
00000090: 273c 72be 3234 dc3d 6da0 ff3d 2b31 8cbd
000000a0: 5af5 a53d 8414 8a3e 3f18 c1be c5d9 303e
000000b0: dd83 2a3d eb49 b2be 5535 5dbe d1c2 0ebe
000000c0: 0b35 063e be97 cebc 6428 f8be 0976 b0be
000000d0: d489 64be cc23 1a3e fdd2 85be 2961 0dbe
000000e0: f4a5 d53e 60d4 ac3c 6529 eebe 3269 b13d
000000f0: c016 cd3d d0f4 a2be d0f8 6ebe e69d f43e
0.23190497 0.22094622 -0.57634175 0.13505135 -0.061031476 -0.029588519 0.053505298 0.17818464
-0.38341156 -0.09887358 -0.05818434 0.3862147 0.2581164 -0.03169211 0.066977814 0.33830786
-0.07632828 0.040434156 -0.029244442 -0.07988151 -0.061417285 -0.07724883 0.046539582 0.010251138
0.030773995 -0.08112656 0.019438218 0.02857283 0.112045966 0.073907286 -0.0010627351 -0.03383952
-0.119339116 0.1451744 0.34672543 -0.1453809 -0.23655759 0.10752143 0.12481771 -0.068453155
0.08103438 0.26968777 -0.3771381 0.17270572 0.04162966 -0.3482202 -0.21602376 -0.13941504
0.13106172 -0.02521884 -0.48468316 -0.34465054 -0.22318202 0.15052718 -0.26137534 -0.13806595
0.41728175 0.021097362 -0.46515957 0.086626425 0.10014105 -0.31827402 -0.23337102 0.47776717

encoder_layer_mhattentions.0.attention_heads.0.K.bias f4 [8]
00000000: 4d81 a23d eccf 2e3e 374c 46bb 7237 c2bd
00000010: 913f 10be a68e eabd 0154 babd 0470 1bbe
0.079348184 0.17071503 -0.003025783 -0.094832316 -0.14086749 -0.11452989 -0.09098054 -0.1517945

encoder_layer_mhattentions.0.attention_heads.0.V.weight f4 [8, 8]
00000000: e8d7 c03e 459c c63d 0707 2ebe 9e39 1a3e
00000010: 39ef bb3b 7038 b3bd 64b3 f53d d6d0 f5be
00000020: 94a5 243d 57f2 7d3e 999b 92bd 4c3f f8be
00000030: d344 8abd d85a d43e 28fa 94bd 5eda 9dbe
00000040: 9c43 553e b986 403e 2208 ce3d c6ef 6dbd
00000050: 5598 963e a6f1 5b3e b30c 8cbe 390f 653e
00000060: c34d a4bd cec0 e13c 235a 983d 971e 37bd
00000070: 7f1c f7bd 3b25 96be 4d0c 813d fdb2 043f
00000080: 5b14 923e b74d 51be 0ce9 15be c9c1 a4be
00000090: 7cf0 40bd 4a6f d73d 19a2 64be 1776 733e
000000a0: 0928 48be 9718 a0bd 4903 c6bd cf4a d13e
000000b0: a9f9 333c 8d91 873d 30f1 5e3e 0810 633e
000000c0: 1925 1ebe 4191 033e f587 8d3d d007 4f3e
000000d0: 1ab4 98be 3348 5fbc d3fe acbe 1618 623e
000000e0: a1b7 82bd c1d1 c3bd 213f eabd 6341 023e
000000f0: d9cf 3fbe fcd2 663e 27ab 18be 2e80 0f3d
0.37664723 0.09697775 -0.16994868 0.15061042 0.0057353047 -0.08750999 0.11997107 -0.48010892
0.04019697 0.24799477 -0.07158584 -0.48485792 -0.067514084 0.41475558 -0.07274276 -0.30830663
0.20826572 0.18801393 0.10060145 -0.058089994 0.29413095 0.214789 -0.2735344 0.22369088
-0.08022644 0.027557757 0.07439067 -0.044706907 -0.12065982 -0.2932528 0.06301174 0.51835614
0.28531155 -0.20439802 -0.14639682 -0.32179096 -0.047104344 0.105192736 -0.2232746 0.23775516
-0.19546522 -0.0781719 -0.09668595 0.40877387 0.010984817 0.066195585 0.21771693 0.22174084
-0.15443839 0.12848379 0.06910697 0.20217824 -0.29824907 -0.0136280535 -0.33788165 0.220795
-0.06382681 -0.09561492 -0.11437822 0.12720256 -0.18731631 0.22541422 -0.1490904 0.03503435

encoder_layer_mhattentions.0.attention_heads.0.V.bias f4 [8]
00000000: 9edf 4fbe 8bee 8dbe 79ba 00be eaaf 2f3e
00000010: 25a9 07be 261c 013e 78bd 5b3e a102 793d
-0.20300147 -0.27721056 -0.12571134 0.1715695 -0.13248117 0.12608394 0.21458995 0.060793523

encoder_layer_mhattentions.0.attention_heads.1.Q.weight f4 [8, 8]
00000000: 711a df3d 5aab d33d 323f 42be e8ae 38bc
00000010: 7315 1b3e b807 103e 0cac 0e3d 7a29 c4bd
00000020: 637e c33d d0a5 893d f8cc 0cbe 8f06 173e
00000030: e2ab 01bf 37c3 4f3f e0aa 083e 7c44 64bf
00000040: e596 97be 8f6f dfbd d98a ff3e 98cd 93be
00000050: 5ff6 193f 84d2 b33e 97ce 903c 2471 95be
00000060: 6c49 053f 31bb 683d f26e 663d 31c1 3ebe
00000070: 38b0 493e 2754 14bf 2b2c 0a3f 9388 74be
00000080: db3c 2d3f 69e0 80be e25f 3dbe 8440 963d
00000090: aa6f 743e 23b8 973e 9e21 c43e a837 da3e
000000a0: 77d7 ee3c 76b6 b4bb c8f0 383d c3bf e0bd
000000b0: 6948 11be e1dd 013f fd92 adbe fef4 84be
000000c0: ae68 f3be 03ed a939 61de d23e baaa d9bd
000000d0: 51a6 4dbe d0bf a5bd 1cbe 24be a57d a03e
000000e0: b232 8b3e 0d1a c3bd e0f1 27be 8754 273e
000000f0: 6235 673e 1c15 4c3e cc77 433e e177 d8bc
0.10893715 0.10335417 -0.1896942 -0.01127217 0.15144901 0.14065444 0.034832045 -0.095782235
0.09545591 0.06721079 -0.13750064 0.14748596 -0.506529 0.8115725 0.13346434 -0.89167
-0.2960731 -0.1090995 0.4991062 -0.28867793 0.6014156 0.35121548 0.017676635 -0.29187882
0.5206516 0.056819145 0.05625815 -0.18628384 0.19696128 -0.57940906 0.53973645 -0.23880224
0.67670983 -0.2517121 -0.18493608 0.07336524 0.23870721 0.29632673 0.38306898 0.42620587
0.029155476 -0.005514915 0.045151502 -0.10974076 -0.14187779 0.50729185 -0.33901206 -0.25968164
-0.47540802 0.0003241078 0.41185287 -0.10628267 -0.20082976 -0.08093226 -0.16088146 0.3134586
0.27187115 -0.09526453 -0.16400862 0.16340838 0.22578958 0.19929928 0.19088668 -0.02642435

encoder_layer_mhattentions.0.attention_heads.1.Q.bias f4 [8]
00000000: f1ef 973c a015 003e 944b 063d 3396 563b
00000010: 70c8 a4be e834 51bc f539 aabe b781 583c
0.01854703 0.1250825 0.03278692 0.0032743334 -0.32184172 -0.0127689615 -0.33247343 0.01321452

encoder_layer_mhattentions.0.attention_heads.1.K.weight f4 [8, 8]
00000000: 2162 6cbe d3b3 453e 072c ec3d ffd0 9fbc
00000010: 74c6 133e 81fa 84bd 09fd 2bbe dfc8 0f3e
00000020: b506 5dbe 20f9 2b3e d16c 12bf 0dad 2fbe
00000030: 0c3f 0abe 11d0 b03d e6d0 3abf 0cbf 5a3f
00000040: 09b8 053e a8c7 9f3d 07f6 f4bd 17a4 19be
00000050: b913 1dbf aad1 433f c532 833e f0e6 b43b
00000060: bd10 46be 960b 453e 45fe b1bd 9d83 bdbe
00000070: a595 803e dfcf 0b3f e8a1 79be 2fe5 ddbe
00000080: 97b0 0dbf 9779 93be 5195 503e e93a ce3d
00000090: 06e4 283f 588b e63d e474 db3d 8068 c93d
000000a0: 6661 0b3d b88b a93d 30a3 8fbd 2fb5 173d
000000b0: 6711 31bd 207c 77bd d7d6 983d 6385 d83e
000000c0: d72a ea3e efc5 1dbe aed0 89be 4b80 923e
000000d0: 1f42 eabd 7476 103e acb3 243f 7a82 52bd
000000e0: 32bb adbe 942f d5bd 041d 453e 6e02 3a3d
000000f0: e77d 643e 3e1a b63c d7b3 91be 576d b53b
-0.23084308 0.19306879 0.11531835 -0.019508837 0.14431173 -0.06493092 -0.16795744 0.1404147
-0.2158459 0.16794252 -0.5719729 -0.17155857 -0.13500613 0.086334355 -0.72975004 0.85447764
0.13058485 0.07801753 -0.119609885 -0.15004002 -0.6135822 0.76491797 0.25624672 0.005520694
-0.19342323 0.19242701 -0.08691076 -0.37014475 0.2511417 0.5461406 -0.24378169 -0.43338916
-0.5534758 -0.28803703 0.2036946 0.1006983 0.65972936 0.112570465 0.107156545 0.09834385
0.034028433 0.08278602 -0.070135474 0.037038025 -0.043229487 -0.06042111 0.074628524 0.42289266
0.4573581 -0.15407537 -0.26917022 0.28613505 -0.11438393 0.14107686 0.6433666 -0.051393963
-0.3393188 -0.104094654 0.1924935 0.045412473 0.22313653 0.02222931 -0.2845752 0.005536716

encoder_layer_mhattentions.0.attention_heads.1.K.bias f4 [8]
00000000: 0a1a 60be b22d da3c f2e0 35be b8cf 7e3e
00000010: ac5b 9a3d 87cd 67be 87b8 f83d 5a8d 3cbe
-0.21884933 0.026633117 -0.17761591 0.24883926 0.07537016 -0.22636996 0.12144571 -0.18413296

encoder_layer_mhattentions.0.attention_heads.1.V.weight f4 [8, 8]
00000000: baba 18be 857c bebe a79d a7bd 734c dbbe
00000010: 1a1a a6be f338 adbe a5e2 15be 46a8 b5bb
00000020: 9657 b1be 3d92 2f3d c43b 383e a82f c8bd
00000030: 987b d9bd 10d6 d93b 9087 6fbd 7a0e 513e
00000040: 397c 303e 7ecf 80be 38d4 75be 8f0f d7be
00000050: 2bf8 803e c085 d43e 9d26 cb3e bfad c23e
00000060: df16 c5bd bb31 7ebd 7772 af3d 6f9a af3e
00000070: 1bc5 b83d 72ad 2c3d 73aa 263d ab5e 623e
00000080: beeb 5c3e d193 fdbd aecb 133e 1e73 26bf
00000090: b014 c63d 7235 953e a6ed e83e 4ca8 0a3f
000000a0: 1755 1f3e 76a1 033e 5f0b 213e 68e0 96bd
000000b0: 27cc 193e 8332 ee3d 6214 8bbd 979c ee3d
000000c0: 162c 41b9 6649 e3be 20dc 203d a5ed 99be
000000d0: c620 0c3e 4fc1 653e dd77 d63e 67ab 87bd
000000e0: e7a1 86be 5f2f ac3d 910a e9bd 997c d53d
000000f0: f413 7cbe 4a17 3a3e e268 8dbe 2e90 84be
-0.1491498 -0.37204376 -0.08184367 -0.42831764 -0.3244179 -0.3383251 -0.1463724 -0.0055437414
-0.34637135 0.042864073 0.17991549 -0.09774715 -0.10619277 0.0066478327 -0.05847889 0.20415679
0.17234887 -0.25158304 -0.24006736 -0.42004058 0.25189337 0.41508293 0.39677897 0.38023183
-0.09623503 -0.062059145 0.08566754 0.3429751 0.0902197 0.042157598 0.040689897 0.22106425
0.21574304 -0.12381709 0.14433166 -0.65019405 0.096719146 0.29142338 0.4549381 0.5416305
0.15559803 0.12854561 0.15726994 -0.07367021 0.15019284 0.11630728 -0.06790997 0.11650961
-0.00018422338 -0.44391936 0.039272428 -0.3006412 0.13684377 0.22437023 0.41888323 -0.06624489
-0.26295397 0.08407473 -0.113789685 0.10424156 -0.24616987 0.18172947 -0.27619082 -0.2589125

encoder_layer_mhattentions.0.attention_heads.1.V.bias f4 [8]
00000000: 033e 0c3e dd7b e7bd 2b1d a4be acae 26be
00000010: 8f6e 92be 8c5a d7bd ab36 73be 95b1 e5bc
0.1369553 -0.11302922 -0.32053503 -0.1627757 -0.28599975 -0.10515317 -0.23751323 -0.02803878

encoder_layer_mhattentions.0.attention_heads.2.Q.weight f4 [8, 8]
00000000: e796 133e 97fc 5bbe cb97 773d 0924 b4bd
00000010: 0090 6cbd fcb1 d6bd 08c6 873e 80f0 683e
00000020: 003e 313d 957e b0bd d092 8b3e cee9 45be
00000030: 4556 c43d db39 0b3e 3b16 6c3d e4df bd3d
00000040: 0256 9abc 590f 083f 5a82 43be ceda 313e
00000050: 9693 64be 3e94 ad3e f0f4 063f 485f 5e3d
00000060: 1154 1abd 4736 bc3e af58 ad3e b25c 25be
00000070: 9c26 4e3e 5e3f a5bd f341 22be 451d e03e
00000080: 916a 423e 4ede c6be 8112 44bd 055b 2d3f
00000090: 7caf fdbd 1b95 2abf fb37 58bf 1134 dcbe
000000a0: a037 25bd 220a 85bc 8486 bebb 7837 84bd
000000b0: 2907 4e3d 7ccd b6bc 74f9 bdbd ad1c 4f3a
000000c0: d066 1abe 3bce a73e 856a 8a3e 07f3 443f
000000d0: ebbe aabc 52a0 99be 968c 3dbf 151b 7fbd
000000e0: abb6 a53d 9a1d e83e b5b3 9fbe c731 c9be
000000f0: b8c7 02be 2980 dc3e c80a 6d3e c3d2 4fbc
0.14413033 -0.21483074 0.060447495 -0.08795936 -0.057754517 -0.104831666 0.26518273 0.22747993
0.04327202 -0.086178936 0.27260447 -0.1932747 0.09586767 0.13596289 0.057638388 0.092712194
-0.01883984 0.5314842 -0.19092694 0.17368624 -0.22321925 0.33902162 0.52717495 0.054290086
-0.03767783 0.3676016 0.33856723 -0.16148642 0.20131916 -0.08068727 -0.1584547 0.4377233
0.18985964 -0.3884148 -0.04786921 0.6771701 -0.123869866 -0.66633767 -0.8446042 -0.43008474
-0.04033625 -0.016240183 -0.0058143754 -0.06455892 0.050299797 -0.02231478 -0.09276095 0.00079006964
-0.15078282 0.3277453 0.27034393 0.7693333 -0.02084299 -0.30005127 -0.7404264 -0.062281687
0.08091482 0.45335084 -0.31191793 -0.3929579 -0.12771499 0.43066528 0.23148644 -0.012684527

encoder_layer_mhattentions.0.attention_heads.2.Q.bias f4 [8]
00000000: 623f 903e 7c91 a33d 946e 7f3d 778b 0a3e
00000010: f14f 973d c0ce 84bd 15d6 6cbe c1fa 123f
0.28173357 0.07986733 0.062361315 0.13529764 0.073882945 -0.06484747 -0.23128541 0.5741387

encoder_layer_mhattentions.0.attention_heads.2.K.weight f4 [8, 8]
00000000: 8772 84bd bf6e 673e fdc0 91be 2222 833e
00000010: cc13 00bd 8661 d1be 0220 edbd 4e64 9cbe
00000020: 5b9a 633e a69d dcbe d58e e53b 3492 cabc
00000030: f7ba 2fbe 78b0 a7bc e975 b2bb 6654 8abd
00000040: cd7f 22bf 8379 32be 0763 1f3f ebec 273e
00000050: 0f45 ad3e 440c b63c 8d84 6cbd a95f 90be
00000060: ee55 0b3e 2c6f d3be fd98 67be 2309 c03e
00000070: d473 7e3e ac9f bfbe bda4 3e3e 9662 c5be
00000080: c5cc bd3e 54b2 133f eea2 b6bd 87eb b83c
00000090: 6597 e7be dda3 0d3f 1186 2a3f e49a c63e
000000a0: 14aa 43bd 6dcb d3bd 5e4b 15bd adb2 2f3c
000000b0: c33c 573d d30a 233d 7ce3 463d 029f 1b3c
000000c0: 4da5 a93e a7dd 063f 5047 233e b7b6 0cbd
000000d0: f9c5 ea3d dca0 fe3e b420 523f a291 bb3d
000000e0: e5f1 a1be ea0f ddbe 3bb7 243e 3896 ba3e
000000f0: 40d6 c53d 9136 92be 2141 3cbf d35d 73be
-0.06467157 0.2260084 -0.2846755 0.2561198 -0.03126888 -0.40894717 -0.11578371 -0.30545276
0.2222685 -0.43089026 0.0070055523 -0.024727918 -0.17161165 -0.020469889 -0.005446185 -0.06754379
-0.6347626 -0.17429166 0.6226048 0.16398971 0.3384175 0.022222646 -0.057743598 -0.28197983
0.13606998 -0.41295755 -0.22616954 0.3750697 0.24848872 -0.37426507 0.1861753 -0.38551778
0.3707029 0.5769398 -0.08917795 0.022573246 -0.45232692 0.5532816 0.6661082 0.38790047
-0.04776962 -0.10341535 -0.03644883 0.010723752 0.05254818 0.039805245 0.04855679 0.00949836
0.33133927 0.52681965 0.15945172 -0.034353938 0.114635415 0.497321 0.8208115 0.09158637
-0.31629863 -0.43176204 0.16085522 0.36442733 0.096600056 -0.28557256 -0.7353688 -0.2376626

encoder_layer_mhattentions.0.attention_heads.2.K.bias f4 [8]
00000000: 9653 9f3e 153e bd3d ab9d 7fbe 51ea 44be
00000010: 68b2 f7bd 3ca1 8fbe 9ab6 5e3e cc7a 9f3d
0.31118459 0.09240357 -0.2496249 -0.1923001 -0.12094575 -0.280527 0.21749344 0.077870935

encoder_layer_mhattentions.0.attention_heads.2.V.weight f4 [8, 8]
00000000: 97cf 28be 0f59 a03e 0945 103e 0242 a23e
00000010: f6e8 cabd 0241 403e 569d b2be 2d69 4abc
00000020: 0798 20be c2b9 13be 0354 4ebe 7e91 8dbe
00000030: 09d7 a13c f23b ae3e b65d 0a3e 02df 7ebd
00000040: 152a d13c e7d4 7abc a3fa dd3c 37ac b3bc
00000050: 3d75 97bd bb3c 1f3e d5dc 49be 4a73 b5bd
00000060: 115d 253d a251 c4bd 16d4 8cbe 3bd0 a13e
00000070: 6e0a 973d b43c 313e a867 7c3e 4099 90bc
00000080: 58d9 fabb d80f a6bd 0b72 963c 88e6 0a3e
00000090: 16b1 debc f1fb a7bd e50c 073e 72d9 19be
000000a0: a5f2 bdbd 1d6c e2bd b098 2fbd b0e2 ab3e
000000b0: cf05 bbbe 1554 c9bd e9e2 aa3e 3557 34be
000000c0: 8ac2 a7bb 213b 723e d3f6 5cbe 0397 163e
000000d0: 5902 ce3d 5751 98be 7dd5 bcbb cbbe 2ebe
000000e0: ed5c 1e3e f6bf 52be 0f79 4ebd efdc 03be
000000f0: fbf6 963c 0d99 20bc e831 bebe b6ab 243e
-0.16485439 0.31317946 0.14088835 0.31690985 -0.09907715 0.18774799 -0.34885663 -0.012354177
-0.15682994 -0.1442633 -0.20149235 -0.27650064 0.019755857 0.3403011 0.1351231 -0.062224396
0.025532762 -0.015309549 0.027097052 -0.021932704 -0.07395408 0.1555051 -0.19713147 -0.0885988
0.04037196 -0.09585883 -0.2750556 0.3160418 0.07375036 0.17308313 0.24648917 -0.0176512
-0.007655304 -0.08108491 0.018364927 0.13564503 -0.02718405 -0.08202351 0.13188513 -0.15024355
-0.092747964 -0.11055777 -0.042870224 0.33571386 -0.3652787 -0.098304905 0.33376244 -0.17611392
-0.0051196264 0.23655368 -0.21578531 0.14706044 0.100590415 -0.29749557 -0.0057627545 -0.17064969
0.15465136 -0.2058104 -0.05040842 -0.12877248 0.018428316 -0.009802115 -0.3714745 0.16081128

encoder_layer_mhattentions.0.attention_heads.2.V.bias f4 [8]
00000000: 86e1 a03e 17d1 77be 369d 063e 7094 ddbc
00000010: e88a 38bc 84b4 bd3e 4bdd d53c 7ac1 ecbd
0.3142206 -0.24200855 0.13145909 -0.02704832 -0.011263587 0.37051785 0.026106497 -0.1156034

encoder_layer_mhattentions.0.attention_heads.3.Q.weight f4 [8, 8]
00000000: 41f5 7b3e f49a 7dbc 3d66 d5be f617 2cbf
00000010: 03c4 c43e 169e 9bbe 0ef9 9d3e daee 0e3f
00000020: 8b32 0f3d cb92 733e 290f 04bd 57a7 d13e
00000030: 3d9f c7bd 689b 2f3e 34b4 c83d 4898 933e
00000040: af82 84bd 86fc 3c3e 1b5b c6bd beae 193e
00000050: 6771 ac3b eaa2 103d eae6 413e 1e9e 06bf
00000060: 353e 77be 6a05 13be cf6f b3bd 0274 c0bd
00000070: 0289 78be 130b 43bc ddbe 323e 94d0 113e
00000080: 19e1 b13d 7257 c5be 4708 e63d 6312 b5bd
00000090: 7456 1d3f e6e3 efbd a69a d4be 8946 68bd
000000a0: 0fd1 f63c 11f1 053f 6a5f f03c 8999 8fbc
000000b0: 2362 f6be d281 4b3e 3b7b 023e 95a3 0cbc
000000c0: 7a01 54be 16f5 debe a67d 9fbe 2190 8cbe
000000d0: 1377 ea3e d982 11bf 0b50 05be a993 353e
000000e0: 6236 9d3e 61dd 733e 73bf ec3d a480 09bf
000000f0: 12a1 b23e f2f1 8abe 17d9 c6be 5d49 32be
0.24605276 -0.015478838 -0.41679564 -0.6722406 0.38430795 -0.30394047 0.30854076 0.5583321
0.03496031 0.23786466 -0.03224102 0.40947983 -0.09747169 0.17149127 0.09799996 0.2882712
-0.064702384 0.18455705 -0.09685346 0.15008065 0.005262542 0.035311617 0.18935743 -0.5258502
-0.24144824 -0.14357534 -0.0876156 -0.09397127 -0.24271014 -0.011904496 0.17455621 0.14239722
0.08685512 -0.38543278 0.112320475 -0.088413976 0.6146004 -0.1171339 -0.41524237 -0.056707893
0.030128984 0.52320963 0.029342372 -0.017529266 -0.48121747 0.19873741 0.12742321 -0.008583923
-0.20703688 -0.4354636 -0.3115055 -0.27453712 0.4579397 -0.5684028 -0.13018815 0.17732109
0.30705553 0.23814918 0.115599535 -0.53711915 0.34888512 -0.27137715 -0.388375 -0.17410798

encoder_layer_mhattentions.0.attention_heads.3.Q.bias f4 [8]
00000000: 4df7 c1be d806 f8bd 0eda 793d b0c7 c4be
00000010: 80b0 3b3e f692 023f 144a a0be 3c42 c03e
-0.37883988 -0.1211068 0.06099897 -0.384336 0.18329048 0.51005495 -0.31306517 0.37550533

encoder_layer_mhattentions.0.attention_heads.3.K.weight f4 [8, 8]
00000000: a12d 97be 677e c33e b942 283c abcf 78be
00000010: e955 c2be 898d 2e3d 0840 14bf ed13 13bf
00000020: 3e41 543e 9476 9abe 496c 163d 7244 093f
00000030: 5b6a 5b3b a26c b63e 4c25 6ebd 5130 4ebe
00000040: 53fe e7be b593 00bd e444 85be f6c6 00bd
00000050: ffc0 c63e 4760 3dbd 7421 bd3e e8a7 49be
00000060: 0953 a8bd f6a0 a43d 6a24 633e f376 a1be
00000070: 5ca3 993d 994e 373d 969a 55be c759 bd3d
00000080: 4e6a d93e d3d9 973e 8175 3cbe d8ab 67be
00000090: 4599 dcbd f745 3dbe 0abd 3dbe 3154 c43d
000000a0: 962b afbe 62d7 03bf afc4 a0be 678e b83e
000000b0: d34b 153d 2eee 483e 1d26 833e 7b95 0c3d
000000c0: baf9 4e3d e2d5 1c3f e570 8d3e 220e c1be
000000d0: 87c3 1bbe 30af c1bd e399 7abe fe57 6bbd
000000e0: 6234 34be 6720 5b3e 6e6b 1ebf 0c42 febe
000000f0: cd16 a0be 50b7 f1bc 2a08 a53e fb79 4ebd
-0.29527 0.38182375 0.010269814 -0.24297969 -0.3795617 0.042615447 -0.57910204 -0.5745228
0.20728013 -0.30168593 0.036724363 0.53620064 0.003348014 0.35629755 -0.058141038 -0.20135619
-0.4531122 -0.031390864 -0.26029122 -0.031439744 0.3881912 -0.046234395 0.36939585 -0.19692957
-0.08218963 0.08038513 0.2218186 -0.31536064 0.075018615 0.04475269 -0.20859751 0.09245639
0.42463917 0.29658374 -0.18404199 -0.22624147 -0.10771421 -0.1848372 -0.18529144 0.09586371
-0.3421294 -0.51500523 -0.31400058 0.36046144 0.036449265 0.19622108 0.25615016 0.034322243
0.050531127 0.6126386 0.27625194 -0.37706095 -0.15211307 -0.094572425 -0.24472766 -0.057456963
-0.17598107 0.2139908 -0.61882675 -0.49659765 -0.31267396 -0.029506356 0.3223279 -0.0504093

encoder_layer_mhattentions.0.attention_heads.3.K.bias f4 [8]
00000000: ac40 7abe 7897 853d 1405 13be c11b 813e
00000010: 5bf1 b23e 6a28 8d3e 9e80 f73d 2a27 da3d
-0.24438733 0.06523031 -0.14357406 0.25216487 0.34949765 0.27569896 0.12085079 0.10652001

encoder_layer_mhattentions.0.attention_heads.3.V.weight f4 [8, 8]
00000000: 4473 22be a2db 7fbd d391 91bd ddb5 11be
00000010: 1ec0 433e 077a 3cbe c194 953c 2ffa 05be
00000020: f07b aebe 159b 823d 82bc 39bd 3f9f 0a3e
00000030: 15bb b03e 6573 c2bd f530 28be 9b9c 7abd
00000040: 75ff 0cbe c807 543e 94ba 093e b98d 8d3e
00000050: 02f1 90be 9da8 a13e f962 87bd 6d74 6d3e
00000060: 6259 71be 5c3e afbd 33dc a0bc 449c 1f3e
00000070: 7f0d c43d 990a 01bc cff5 6ebd 61c7 5c3d
00000080: 4003 90be ce0d 9abe bbcb f6bc 9e22 353e
00000090: d950 74be 154b 1d3e 5409 a13e e253 b5bd
000000a0: 1219 a43d 2a4d afbd 311b 9ebe 6a8e 9e3e
000000b0: 654d bd3d c11d 563c 0d55 19bd 6a52 b8be
000000c0: 7a9a 673e 6865 ba3e 1f19 2fbe 0266 103e
000000d0: c728 bdbe 1f7c c73d 6952 4fbe 6b29 d43d
000000e0: 43cf 803e 6011 233e e2d7 cf3d 76f3 8a3e
000000f0: 7df7 643e 14c3 803d e705 cbbe 1899 803e
-0.15864283 -0.062465318 -0.07107892 -0.14229532 0.19116256 -0.18405925 0.018259408 -0.13083719
-0.34078932 0.06377236 -0.04534579 0.1353731 0.34517732 -0.09494666 -0.16424926 -0.061184507
-0.13769324 0.20706093 0.1345008 0.27647188 -0.28308874 0.31573954 -0.066106744 0.23188944
-0.23569253 -0.08556816 -0.01963625 0.15586954 0.09572887 -0.007876062 -0.05833989 0.05390108
-0.2812748 -0.30088657 -0.030126443 0.17688987 -0.23858966 0.15360673 0.3145243 -0.0885389
0.08012594 -0.0855964 -0.3088012 0.30968028 0.092432775 0.013068617 -0.037434626 -0.36000377
0.22617522 0.36405492 -0.17099427 0.14101413 -0.36945173 0.09740471 -0.2024628 0.10359462
0.25158128 0.15924597 0.10148598 0.2713887 0.22360034 0.06287208 -0.3965294 0.251168

encoder_layer_mhattentions.0.attention_heads.3.V.bias f4 [8]
00000000: 5893 3cbc 1c5f 46bc a554 8cbd 5653 61be
00000010: a94a b9be a0d3 df3d b458 903e fa25 d03d
-0.011509739 -0.012107637 -0.06852082 -0.22004446 -0.36189774 0.10929036 0.28192675 0.101634935

encoder_layer_mhattentions.0.output_layer.weight f4 [32, 32]
00000000: f51a 653d 2364 23be 13e3 2c3e d1ce 0a3f
00000010: 27ee 1b3e c786 1b3d b6a6 803e 6755 5ebe
00000020: 1e31 39be 702b 08bd db4d 11bf bada ab3e
00000030: 29d9 15bf 3fe1 403e 1e6c cdbe b057 6abe
00000040: e4d6 d53e ea9d 71bd b9a9 7b3c 3878 323e
00000050: f8bb b7be a726 3cbe 83b1 b63d 3d4a d5bc
00000060: 4d61 4ebe 61b5 c6bd 2318 b9bc 69fe 9dbd
00000070: a82a f6be 4c83 883e 4266 d13e ed70 5a3e
00000080: 3d8e 00be ba1a c43e 70bb fe3d 1185 79be
00000090: e34c 5c3e b844 eebe dc37 693e 71ad 4e3d
000000a0: 6e16 63be 7c57 2bbe c3f1 033f 352d 06bf
000000b0: 421e 363f 9dff 5b3e 7bc7 953e 8687 8dbe
000000c0: af55 503e eab9 cebd deb7 d4bd 49a3 f03e
000000d0: de0a edbd 2715 31bc 9386 943e ab53 52be
000000e0: ba5b 27bd d6df 96be 1d1d 85be 20b9 9cbd
000000f0: 3608 9a3e 8d1f 373e f41f c2bd 06cc 98be
00000100: 9c37 86be 1c8f cb3c 05a1 573e 5e74 603d
00000110: 1c6b a9bd ae1a 2abe bbf3 b33e 5e5b 34be
00000120: c24d 9b3e 7356 2ebe 3f8d 1dbf 94f0 4dbe
00000130: a67a 29bf c8dd c9be a144 4b3e 7a3d 233d
00000140: 6e34 8bbe c13d 953e 98c8 b53e 8157 87be
00000150: 61de b7bd 03cf f83d c4c7 b7bd e5c5 7f3e
00000160: 0ce9 90be 54ae 433c bf12 1fbd 0768 60be
00000170: f0f6 90be 5461 843d 94f8 1d3e 84f2 a43e
00000180: 9d8f eb3e 9759 5f3e 3a58 5fbe 70e6 03bf
00000190: 0bd5 8abe cff6 37be ba9a 2fbf 300b 20be
000001a0: 31fb ee3d 8609 133f 3370 453d c982 423e
000001b0: 490e a73e 9a97 7fbd d034 2cbe 7969 503e
000001c0: 19b8 20be 7a55 6ebd 5402 8dbd d91b 7cbe
000001d0: bb52 87bd 4e46 abbe 7ae7 883e 1db6 61be
000001e0: 5fb6 203e 94aa 833e a3d8 a63d 4fd3 99be
000001f0: 6d81 63be a63e 44be 4e5d 1d3e 8fc1 96be
00000200: 4e08 4c3e 3af9 3bbe 5a03 93be 911a debc
00000210: ce48 47be 1e54 a73c 02c9 183e 2bc8 2f3d
00000220: a83e a2be 42c3 bcbb 0679 2bbe ca9b ae3b
00000230: fc18 4f3d 91b7 303d 8c49 203e b2e7 89bd
00000240: 823a 203d 2db6 0ebe 75e6 023e a70c 4ebc
00000250: a4d6 5dbd 07ba 203d 13f6 e73c b3ba 973d
00000260: a4f1 833d 6c01 8a3c 39c6 a8bc 2e02 b83d
00000270: 2119 8e3d 6ae0 873a 5a90 b0bd 296d d93d
00000280: f799 b63c f8ff 433e d6ad f13c 9c76 03be
00000290: e123 f4be a2f8 703e 14c5 bd3d 9817 9c3d
000002a0: 024b f33e 8fb7 803e cdfc 6bbd a5ce 033e
000002b0: 8c81 ce3d 45cd 9fbe 5a03 9dbd 6528 373e
000002c0: 2cf6 d43d eaf9 a5bd c340 4bbe 1710 6fbe
000002d0: 9ea1 6abe 18b2 acbc 6e7a 1c3d a0ad ca3d
000002e0: 6584 823e 8409 293f a994 003d 1119 a83d
000002f0: c1fe 76bb d658 593e a2ff 68be 1a6b 933e
00000300: 3810 38be cc7d 553e feab 643e ce81 15be
00000310: e70f b7be fec6 263e 407c 42be 7b1d a0bd
00000320: 2ed3 ab3c 0008 773d 7b01 c2bd a94a 0e3e
00000330: ef97 2cbe dd3e 16be ad49 efbd b174 82be
00000340: 1d8e 44be d68d ef3e 0434 9a3d 1edb c13d
00000350: 2fce f7bd 3aa1 11be a0ae e3bc f5bf 513e
00000360: 6b82 75be 735d 6a3d e226 493d 8557 19bd
00000370: 5877 3b3d e40f 3ebe 0fa1 e8bd d611 f93d
00000380: 62b4 b9bd e514 b83e 81f1 b2be 98f1 2fbe
00000390: 83e7 a93e 215b ccbe 9718 06bf 981f 8bbe
000003a0: ab67 73be f012 a53e 2937 603e f9e3 743e
000003b0: ff72 c53e 78c6 2c3e aec9 0e3d 1d30 6cbe
000003c0: 4442 b7be 6e9a 993e 4ff6 2bbd 02c1 a23d
000003d0: c623 923d 3dc8 863d e9a2 d63b d761 e4bd
000003e0: 635c 173e 8376 cc3d 9932 babe aa52 ca3d
000003f0: ba43 313e 77e6 9b3c db4a cdbe bf9a 0abe
0.05593391 -0.15956168 0.16883497 0.54221827 0.15227567 0.03797033 0.2512719 -0.21712266
-0.18085143 -0.03324455 -0.56759423 0.33565313 -0.58534485 0.18835925 -0.4012155 -0.22885013
0.4176551 -0.05898849 0.015360289 0.17428672 -0.35885596 -0.1837412 0.089205764 -0.026036376
-0.20154305 -0.09702564 -0.022594517 -0.077145405 -0.4807942 0.26662672 0.4089833 0.2133214
-0.1255426 0.3830164 0.124380946 -0.24367167 0.21513705 -0.46536803 0.22775215 0.050458375
-0.22176525 -0.16732591 0.51540774 -0.5241273 0.7113992 0.21484227 0.29253754 -0.2764246
0.20345186 -0.10094054 -0.103866324 0.46999577 -0.115743384 -0.010808266 0.29008922 -0.2053973
-0.04085896 -0.29467648 -0.25998774 -0.07652497 0.3008439 0.1788313 -0.09478751 -0.29843158
-0.26214302 0.024848513 0.21057518 0.054798476 -0.082723826 -0.1661174 0.3514689 -0.17612979
0.30332762 -0.17025165 -0.6154365 -0.20111305 -0.6620277 -0.39427018 0.19850399 0.03985355
-0.27188438 0.29148677 0.35504603 -0.26433948 -0.08977962 0.12148859 -0.08973649 0.24977835
-0.283028 0.0119434185 -0.038836237 -0.21914683 -0.28313398 0.06463876 0.15426856 0.32216275
0.46008006 0.2181152 -0.21811 -0.51523495 -0.27115664 -0.17965244 -0.6859547 -0.15629268
0.11669005 0.57436407 0.048202705 0.18995203 0.32628086 -0.062400438 -0.16817021 0.20352735
-0.15695228 -0.058186986 -0.0688521 -0.24619998 -0.066075765 -0.33452076 0.26739103 -0.22042127
0.15694569 0.25716078 0.08146789 -0.30044028 -0.22217341 -0.19164523 0.15367624 -0.29444548
0.19925043 -0.18356791 -0.28713495 -0.027112277 -0.19461367 0.020425852 0.14920428 0.042915504
-0.31688428 -0.005760581 -0.16745386 0.00532863 0.050560936 0.043143813 0.15653056 -0.067336455
0.039118297 -0.13936682 0.12783225 -0.012576259 -0.054159775 0.03923991 0.02831558 0.07408657
0.06442574 0.016846381 -0.020602332 0.08984791 0.06938387 0.0010366563 -0.08621283 0.10616524
0.022290213 0.19140613 0.029501837 -0.12838215 -0.47683623 0.23532346 0.09266105 0.07621688
0.47518164 0.25140044 -0.057614136 0.12871797 0.10083303 -0.31211296 -0.07666655 0.17886503
0.10398516 -0.08104308 -0.19848923 -0.23345982 -0.22913215 -0.021081015 0.038202696 0.098963976
0.25491634 0.66030145 0.031391773 0.08207906 -0.0037688466 0.21225294 -0.22753766 0.2879265
-0.17974937 0.20848769 0.22331235 -0.14600298 -0.3575432 0.16286847 -0.1899271 -0.07818123
0.020974722 0.060310364 -0.094729386 0.13895668 -0.16854833 -0.14672418 -0.116839744 -0.25479653
-0.19194837 0.467879 0.075294524 0.094656214 -0.12099873 -0.1422166 -0.027793229 0.20483382
-0.23975532 0.057218026 0.049109347 -0.03743698 0.045768112 -0.1856075 -0.113588445 0.12161605
-0.090676084 0.3595344 -0.34949878 -0.17182004 0.33184442 -0.39913276 -0.5238127 -0.27172542
-0.23770015 0.3224101 0.21896042 0.2391509 0.38564298 0.16872585 0.034860305 -0.23065229
-0.35792744 0.30000633 -0.041982945 0.079469696 0.071357295 0.06581161 0.006550182 -0.11151474
0.14781336 0.09983542 -0.36366728 0.09879048 0.17310992 0.019030793 -0.40096173 -0.13535593

encoder_layer_mhattentions.0.output_layer.bias f4 [32]
00000000: 7862 46bc 72b8 96be 2887 56be f064 babe
00000010: d205 50bd bb1e ed3d ecf8 0b3d 9e84 4bbe
00000020: 3740 edbd 77f6 de3d 596b 5a3e 69c8 25be
00000030: 67f6 26be 56b0 a73e d428 86bc d97f 82bd
00000040: 5cf4 a1bd 6279 a03e cd75 7d3e 3797 b8be
00000050: fdd0 9a3e db47 23be 312b 003f 59f2 323e
00000060: 23af e13d ea8e 993e 51ba 363d c6fc 21be
00000070: 94a2 10be 01c3 59be e077 56be 1e44 a3bd
-0.012108438 -0.29437596 -0.20949996 -0.36405134 -0.0507868 0.11578127 0.034172937 -0.19874808
-0.11584514 0.10886853 0.21330012 -0.16189732 -0.16304933 0.3275172 -0.01637689 -0.06372041
-0.07907936 0.31342608 0.24751969 -0.36052868 0.3023757 -0.1594538 0.50065905 0.17475261
0.11019733 0.29991847 0.04461128 -0.15819082 -0.14124519 -0.21265794 -0.20944166 -0.07971977

encoder_layer_mhattentions.1.attention_heads.0.Q.weight f4 [8, 8]
00000000: 2940 4f3f ddd8 e4be c7bd e93c 23be 86be
00000010: 3f26 0e3e 9061 db3e 2b35 443e 7631 ce3e
00000020: 3fba 5f3e 790d 5c3e f5cd babe 33aa 053f
00000030: 1296 c73d 64ff 38be b324 843e a23f a6bd
00000040: 20e8 06be 9dcd d2be e9dc 11bf 4a26 153e
00000050: 3ed4 3abe b177 2dbe 20ce e5be c6ec f93e
00000060: 10e8 eb3e 57d7 c9be ac69 58bd 6210 423f
00000070: 205f f4be 3311 ad3e 2e2d 25be 127d 66be
00000080: c6a2 5fbe 676a 1d3f 6d49 603d 52bb a3bd
00000090: bb92 d9bd 35d5 833e 9015 a5be e826 84be
000000a0: f762 a6be 156a a9bd b46a 38bf f87a ae3e
000000b0: a57e 84bd 62ef 27bf 2904 143e d277 983b
000000c0: 962a ae3e 781f 103e d7b9 783d 6ca4 d93e
000000d0: 5e15 0a3e 6522 2bbe 12a2 103e e31a 7b3e
000000e0: 1898 45be f669 f43b bb23 253e d68f 9b3e
000000f0: cdac 76be 6d08 99b9 42b1 243f e115 c53c
0.80957276 -0.44696704 0.028532876 -0.26316938 0.13881777 0.42847872 0.19160907 0.4027211
0.21848391 0.21489514 -0.36485258 0.5221283 0.097454205 -0.18066174 0.2580925 -0.08117606
-0.13174486 -0.41172495 -0.5697771 0.14565387 -0.18245026 -0.1694019 -0.44883823 0.48813456
0.46075487 -0.39422104 -0.05283515 0.7580625 -0.47728825 0.33802184 -0.16130516 -0.22508648
-0.21839437 0.6149048 0.054757524 -0.07994713 -0.1062369 0.25748602 -0.32243013 -0.25810933
-0.3249738 -0.08272187 -0.72037816 0.34078193 -0.06469468 -0.65599644 0.14454712 0.0046529556
0.34016865 0.14074504 0.060724106 0.42508256 0.13484713 -0.16712339 0.14124325 0.24521975
-0.192963 0.0074589206 0.16126911 0.30383176 -0.24089356 -0.00029188712 0.64332974 0.024058284

encoder_layer_mhattentions.1.attention_heads.0.Q.bias f4 [8]
00000000: a485 a0be 89b7 ddbe f24b 82bd 1281 f9bc
00000010: 3864 4dbf abb9 fc3e c901 7f3e 7288 ad3d
-0.3135196 -0.4330409 -0.06362142 -0.030457053 -0.80231047 0.49360403 0.24903025 0.084732905

encoder_layer_mhattentions.1.attention_heads.0.K.weight f4 [8, 8]
00000000: 9a20 e93e dc00 62bd d326 173e dad2 33be
00000010: 448f 973e f8f6 423e 2d2e 40bf 0afc 8bbe
00000020: 6b77 803d b94b e53e fbc1 cc3e 74d4 eebe
00000030: e7e6 7d3e ec7f 6cbe aaac 7cbe 8266 86be
00000040: c716 c9bd e8a2 213e 6e33 d83e cfec 313f
00000050: 8cdd cdbd fa4e 313e 06c1 9b3d 6504 cabe
00000060: 7b0b ca3e 5d5f 163f 1cb2 9d3d a0b4 8abe
00000070: f89c 553e 2f5a 5e3d 3f16 b23e 0130 28bf
00000080: 9e69 8d3c 5910 7dbe 0024 a039 2551 79bd
00000090: c67a 783e 6737 58bf af6f af3e 5494 abbe
000000a0: 1acd 0abe 5f49 6e3e b305 b63e 6bbb 943c
000000b0: 8d51 3cbe d783 0c3f ef28 493e 2b99 883e
000000c0: 68a2 9ebe 9095 fe3d 02e1 10bc b7fd a8be
000000d0: 8c68 8abd 4852 873e 63dc f4bd 17cc 94be
000000e0: b872 203e a132 0bbd 65b5 b13c db7f 9abe
000000f0: 1d74 ba3e 0a7b c03e 75ed c83e b52c 783e
0.45532686 -0.0551766 0.14760904 -0.17560902 0.2960149 0.19039524 -0.7507046 -0.27340728
0.06272777 0.44784334 0.39991745 -0.46646464 0.24795114 -0.23095673 -0.24675241 -0.26250082
-0.098187976 0.157848 0.42226738 0.69501966 -0.10052022 0.17315283 0.07605176 -0.39456478
0.39461884 0.5873926 0.07699987 -0.2709093 0.2086066 0.054285225 0.34782597 -0.6569825
0.017262276 -0.24713267 0.000305444 -0.0608684 0.24265584 -0.8445954 0.34264895 -0.33511603
-0.13554803 0.23270176 0.35551223 0.018155774 -0.18390484 0.5488867 0.19644521 0.26679358
-0.3098328 0.124308705 -0.008842709 -0.3300607 -0.06758222 0.26429963 -0.11956098 -0.29061958
0.15668762 -0.03398383 0.021692941 -0.3017567 0.36416712 0.3759387 0.39243665 0.24235804

encoder_layer_mhattentions.1.attention_heads.0.K.bias f4 [8]
00000000: f6de 423e ca35 a3be 564b ae3e 9c13 bc3d
00000010: 6516 6abe fe80 6dbe e94d a63e f342 edbd
0.19030365 -0.31876975 0.34041852 0.09183428 -0.22860105 -0.23193738 0.32481316 -0.11585035

encoder_layer_mhattentions.1.attention_heads.0.V.weight f4 [8, 8]
00000000: eb11 b13d 4065 8f3d c6ac 173d 7bc2 80be
00000010: ee15 afbd 1ab2 833e 7e62 6ebe f17e 14be
00000020: 111e 20be ee55 b0bd a53a c5bd de4a 9cbe
00000030: 8cec f2bc f233 60be 33ed 0bbe 8570 6cbe
00000040: 5147 67be ab3f 573e 4c02 413e 2679 e03c
00000050: 6a3b 663e 755e 853d d735 dabd 054a b4bd
00000060: eefb aebd 681f 4ebe 4c79 1d3b e85a a0be
00000070: fe3d 6ebc b448 0cbd 8ed7 6ebd b96e 43be
00000080: 3237 12bf 0f04 9b3c c684 893e 7975 29be
00000090: ab8c 48bd cf05 173d b4a4 15ba ed03 a03e
000000a0: 8ced 543e d64a 823e bf8a 9d3d b3e4 f7bd
000000b0: 3b42 d2bc e351 e5bd 2c9c 063d d318 1a3e
000000c0: 6211 4a3e 09ac 2a3e eac7 62be cc7e 1fbd
000000d0: ccb8 06bc 7baa dc3d dca0 aa3c 34ec 4a3e
000000e0: 1d3c e03d 0a0d aebe 963d a33d eff6 ecbd
000000f0: 5db2 233e 45a2 9dbd 3fdb e4bd 4f1a f03c
0.08645996 0.07001734 0.037030004 -0.25148377 -0.08549105 0.25721818 -0.2327976 -0.1450155
-0.1563647 -0.0861014 -0.09630326 -0.3052587 -0.02965381 -0.21894816 -0.13664703 -0.23089798
-0.22585799 0.21020381 0.18848532 0.027401518 0.22483602 0.06512157 -0.106548004 -0.088031806
-0.085441455 -0.20129168 0.0024028597 -0.31319356 -0.014541147 -0.034249023 -0.058311038 -0.19085206
-0.5711547 0.018922834 0.2685911 -0.16548719 -0.048962276 0.036870774 -0.00057084416 0.31252995
0.20793742 0.2544772 0.07692479 -0.12104168 -0.025666347 -0.11197259 0.03286378 0.15048532
0.19733194 0.16667189 -0.22146574 -0.038939282 -0.00822277 0.10774704 0.020828657 0.19816667
0.10948966 -0.33994323 0.07970731 -0.11570536 0.15986009 -0.07696966 -0.111746304 0.02930942

encoder_layer_mhattentions.1.attention_heads.0.V.bias f4 [8]
00000000: 10f0 8dbd ea6d d2bc e0c4 953d 5f90 17bd
00000010: b251 ee3d b461 943d 6eaf 9ebd 5969 ea3c
-0.06930554 -0.025687177 0.073129416 -0.037002917 0.11636676 0.07245198 -0.07748304 0.028614687

encoder_layer_mhattentions.1.attention_heads.1.Q.weight f4 [8, 8]
00000000: c060 96be b00d 943d cde0 9abd b4a9 583e
00000010: 1dd6 4ebe 6555 ebbb a2c9 bfbe 65d1 5e3e
00000020: eb27 b63d 0a21 103d 5d7f 4d3e 02f0 21be
00000030: a016 0dbf 6fd5 923d 763a 9e3e 7f1b a13e
00000040: 25eb 8abe ab2c 15be ea8b 9a3e cd9c ea3e
00000050: 7354 0bbf 00f8 193e 8874 833c d847 1b3f
00000060: 7690 a03e 2f80 a4be 29c7 87bd 510f 7bbd
00000070: 0498 563e c25e 603e 3dee 623e 4972 14bd
00000080: b16a ab3d bd3b c1bd 1254 fbbe dd40 c63e
00000090: 9aa0 623e bf17 a03e 6fd6 c7be d55c 9a3e
000000a0: c9af 4f3e 99c2 01be c5ea 6fbd ee11 013e
000000b0: 3964 2abf 0097 dbbd 5342 57bf 4854 9d3e
000000c0: 6b2d 61be 73a5 2e3e 1943 d2be 3786 ab3d
000000d0: 1d36 403e 46a4 d7bc c67f 35bf 35a1 333f
000000e0: 9b78 b0be 66d4 c0bd 3104 a43e 0712 93be
000000f0: 1794 aa3e af95 85be c9ac d43c 712b 41bf
-0.2937069 0.07229173 -0.075624086 0.21158487 -0.20198865 -0.0071818107 -0.3745852 0.21759565
0.088943325 0.03518776 0.20068116 -0.15814212 -0.5511265 0.071696155 0.30903977 0.3146629
-0.27132526 -0.1456782 0.3018487 0.45822755 -0.54425734 0.1503601 0.016046777 0.606565
0.31360215 -0.32129046 -0.06629784 -0.061293904 0.20956427 0.21911147 0.22161193 -0.036241803
0.08369959 -0.09435222 -0.49087578 0.38721362 0.22131577 0.31268117 -0.39030787 0.3014895
0.202819 -0.1267189 -0.058573503 0.12604496 -0.6655918 -0.1072216 -0.8408558 0.30728364
-0.21989982 0.17055301 -0.41066816 0.08375209 0.18770643 -0.026323449 -0.7089809 0.7016786
-0.34467015 -0.09415512 0.32034448 -0.2872469 0.3331611 -0.26090762 0.025961297 -0.7545691

encoder_layer_mhattentions.1.attention_heads.1.Q.bias f4 [8]
00000000: 5037 f9bd db43 dfbd 5520 8bbe 263d 31bc
00000010: 3f3b 19bd 75e8 00bf c8da 273e 52ed dcbd
-0.12168753 -0.10901614 -0.27173105 -0.010817802 -0.037410017 -0.503547 0.16392052 -0.10787453

encoder_layer_mhattentions.1.attention_heads.1.K.weight f4 [8, 8]
00000000: ff76 da3d f021 48be b02f 48be 2674 713e
00000010: f3d7 e0be f05b 143e 500b 3d3e 0236 483e
00000020: 3982 2abe 4d68 62bd 37ff e43e 8a3b 633c
00000030: e7a6 843e 5fa3 3a3d 1c0b e23e 879e 97be
00000040: 71d4 123e 2399 cbbe ca47 3d3e b964 2abe
00000050: 7639 14bc 9829 9f3e 4544 e73e 6dfb 073e
00000060: 81c5 57bd 182c be3e 7b28 973e 667d aebe
00000070: 6fa8 fd3e 3821 03bd ec51 433d a346 893d
00000080: 21ed 623e 5064 ab3c 2924 853e f211 6c3d
00000090: 3197 3bbf 0394 c33e a8a3 c23d c9b7 c63e
000000a0: 07c9 2abd 54ed 48be a54a 0fbe 8c56 043f
000000b0: 9531 65be 3a9c 1c3f 769e 553f 9593 4f3e
000000c0: ba48 583e 2bae d4bd 1384 fdbc a505 063e
000000d0: 3481 85bf 203c dc3e 398b 723e be8a 98be
000000e0: 87e2 843d 960e 963d ece1 31bf dfef 783b
000000f0: 9ba5 983e 916b 6bbe ce12 f8be ed5b 893e
0.10667228 -0.19544196 -0.19549441 0.23579463 -0.43914756 0.14488196 0.18461347 0.19551852
-0.16651239 -0.05527525 0.44725963 0.013869176 0.25908586 0.04556596 0.441491 -0.29613134
0.14338852 -0.39765272 0.18484417 -0.16639985 -0.009046903 0.3108642 0.45169273 0.13279505
-0.05267859 0.37143016 0.29523072 -0.34080046 0.49542567 -0.0320141 0.04768555 0.06702926
0.2216077 0.020921856 0.2600415 0.0576343 -0.73277575 0.3819886 0.09503871 0.38812092
-0.04169562 -0.19621783 -0.13993318 0.5169456 -0.22382195 0.6117588 0.8344492 0.20271142
0.21121493 -0.103847824 -0.030946767 0.1308809 -1.0430055 0.43014622 0.23685922 -0.29793352
0.06488519 0.07327001 -0.69485354 0.0037984771 0.29813847 -0.22990252 -0.48451847 0.26827946

encoder_layer_mhattentions.1.attention_heads.1.K.bias f4 [8]
00000000: 40a8 943d f9ca a6bd 6b7f 523e 30d4 c6bd
00000010: 32b3 86bb 55fa 313e 0e1c 8ebe b0b8 b63d
0.07258654 -0.08144183 0.20556419 -0.0970844 -0.004110717 0.1738065 -0.2775578 0.08921945

encoder_layer_mhattentions.1.attention_heads.1.V.weight f4 [8, 8]
00000000: d09e 513e 8424 193e 691c 1d3e 6dc7 79be
00000010: 474a 64be f3fe d3bc 742b be3e 9934 39bd
00000020: a4a9 d03d beaf b13c 1871 633e e083 833e
00000030: 4d1a d5be ed34 03be d6af 13be 35a1 f8bd
00000040: 58f7 813e fee3 2cbe cef2 85bd 6011 e6bd
00000050: 2ed5 25be 43dc 8e3d cc15 26bc e501 eebd
00000060: c355 0b3e ad7d 883d 115e dfbe 5fef c33e
00000070: e9cf 3e3e 18be 463e f655 cc3d 3898 08be
00000080: ac23 e93e c645 9bbd c0bc 20be 81bc 8c3c
00000090: b4e3 04be c111 d4bd e238 933e eb92 8b3e
000000a0: 400a a9be b257 613e 50e8 ebbd 1b95 a2bd
000000b0: 842f 9c3d b8a7 fdbd 2880 afbc 584a 13be
000000c0: f27b 03bc e0a6 013e 5442 9cbd a1fb ccbc
000000d0: 5d1f c33d 7366 fbbb e1e2 413d e876 28be
000000e0: 8e5e c9be 91a6 ca3e 7545 593c d237 94be
000000f0: 40b9 73be 2918 f33d 207f 023c 7954 72bd
0.20470738 0.14955336 0.15342869 -0.24392481 -0.2229396 -0.025878405 0.37142527 -0.045216177
0.101886064 0.021690246 0.2221111 0.2568655 -0.41621628 -0.12813158 -0.14422545 -0.12140123
0.2538402 -0.16883847 -0.06540452 -0.11233783 -0.16194603 0.06975605 -0.010137033 -0.11621455
0.13606934 0.06664596 -0.43626454 0.38268563 0.18633999 0.19408453 0.09977333 -0.13339317
0.45535028 -0.075816676 -0.15697002 0.01717973 -0.12977487 -0.10354949 0.28754336 0.27260527
-0.33015633 0.2200611 -0.115189195 -0.07938596 0.076262504 -0.123855054 -0.021423414 -0.14383829
-0.008025156 0.12661314 -0.076298386 -0.02502233 0.095274664 -0.007672125 0.04733551 -0.16451609
-0.39329952 0.39580205 0.013261189 -0.28948838 -0.23801136 0.118698426 0.007964879 -0.05916259
