models/model_chkpt_110.pt (torch, 319268 bytes, 387 tensors)

tokenizer.token_embedding.weight f4 [17, 32]
-0.7984686 -2.2402039 -0.13759032 0.23080084 1.7259738 0.70595694 0.8199081 1.1361934
-1.6727756 -1.1854626 -0.18409026 0.26416418 -0.9825652 -0.5722622 -0.43186724 -0.3874557
-0.33315542 0.5094181 -0.62882936 -0.3450301 -1.3232081 -2.0369399 0.5602004 2.7756696
-0.25841466 0.6839358 0.8716173 1.3699932 -0.63763255 -3.0333245 0.61062175 -0.24467158
-0.8456883 -1.6522391 1.2298044 -0.21416458 2.879393 0.5030637 -0.2038053 0.8452267
-1.2938957 -0.85245454 -0.3093132 0.40157545 -0.81865185 -0.5628659 -0.6412649 -0.45952687
2.067802 -0.58889073 0.19622158 1.0900198 1.1564513 1.034422 1.1304798 0.38952598
-1.0348742 0.13760957 1.4827795 0.43556508 -0.7910363 -1.6679298 -0.43313503 0.68877155
-0.28786808 0.43079773 -0.222537 -0.2464507 3.6958046 0.11581155 1.7464846 0.18235078
-1.3218993 -0.19146393 -0.56247497 0.75218785 -0.31824577 -0.46595007 -0.5835475 -0.46158057
1.4081709 1.8977815 -0.23111868 -1.6973636 -1.0848706 -0.53555447 -0.19367236 -1.8781967
-1.385737 1.3237135 0.2423562 0.74312073 0.48773378 -0.1671831 -0.58437395 -0.03570407
-0.863838 1.3412591 0.18180555 -0.34465966 0.121422455 -0.6484136 1.9914011 0.97532797
-1.4246982 0.85604566 -1.0250432 0.6901168 -0.043286476 -0.72819227 -0.33940455 -0.4502537
0.5372197 0.22324793 1.7333217 -0.4748555 -0.48694405 1.499442 0.91742575 -2.7076037
-1.5436692 0.6963068 0.30950367 0.096447244 0.024162114 1.0013946 -1.11731 0.49520776
-0.2594448 -0.084657766 -0.0974363 0.40860912 -0.46280488 -1.6279638 2.3659837 -0.62605125
-0.08507591 -0.27033255 0.566348 1.4304757 -0.01418266 0.08544031 -1.2227367 -0.14195137
0.9045783 0.569757 1.6692177 -1.3086145 -1.4376214 0.31604946 -0.03615883 -1.1851813
-1.2361482 0.21276446 -0.9576324 -0.23928009 0.45268205 2.0568438 -1.5552846 -0.5273782
0.90011233 0.93281376 1.7802813 0.36525095 -3.4789057 -0.7532827 0.61876684 0.7633022
-0.08438788 1.1539986 0.66467416 1.256352 -0.063125 -0.3853473 -0.683459 -0.004777891
1.9134396 0.8416141 0.28572407 -0.63087773 0.27978635 -0.43456754 0.556745 -0.05124779
0.14317487 -0.4129724 -0.28394207 -0.2425318 -0.07955753 1.515648 -1.4420257 -0.55535084
-0.4061652 -1.1914248 0.22090924 0.037873447 -1.3349323 -1.6330154 0.17667276 -0.013144087
-0.1547598 1.0006534 0.90014654 1.1142598 -0.24216133 -0.24698628 -1.0119326 0.057208296
1.0138944 0.4940852 -1.8416517 0.09563696 0.72919655 -0.08285321 -0.3474907 2.5165946
-0.7046433 0.1436841 -0.5534494 -0.84436953 0.30203506 2.26231 -1.2782136 -0.18117061
-0.72180635 0.30964345 2.752509 1.0065778 0.72755635 -2.9628768 -3.0999303 -0.28470454
-0.004436863 1.7227184 0.9004401 1.2143408 -0.08461886 -0.4226289 -0.88155806 0.08552543
0.41516697 0.27642825 -1.7564869 0.50707 1.8089447 1.3066522 -0.015026994 1.1219386
0.740417 -0.28043142 -0.66546637 0.6350902 -0.4921245 0.45902574 -1.3171192 -0.5019528
00000000: 7068 4cbf 805f 0fc0 7ae4 0cbe 0e57 6c3e
00000010: b6ec dc3f 98b9 343f 7fe5 513f c96e 913f
00000020: 831d d6bf 3dbd 97bf 2882 3cbe 8740 873e
00000030: 6589 7bbf c77f 12bf b41d ddbe 9860 c6be
00000040: 5993 aabe 3969 023f f6fa 20bf c9a7 b0be
00000050: e25e a9bf 395d 02c0 4b69 0f3f 92a4 3140
00000060: ed4e 84be 6b16 2f3f 5022 5f3f f05b af3f
00000070: e33b 23bf fd21 42c0 b551 1c3f 308b 7abe
00000080: 077f 58bf 927c d3bf 3b6a 9d3f f64d 5bbe
00000090: fa47 3840 c8c8 003f 56b2 50be c760 583f
000000a0: 609e a5bf 763a 5abf 4d5e 9ebe 4c9b cd3e
000000b0: 2b93 51bf fb17 10bf f029 24bf 1b47 ebbe
000000c0: de56 0440 8bc1 16bf 4fee 483e c585 8b3f
000000d0: 9906 943f f167 843f 90b3 903f f36f c73e
000000e0: c276 84bf 86e9 0c3e b8cb bd3f 6302 df3e
000000f0: 5b81 4abf b97e d5bf e0c3 ddbe 5553 303f
00000100: 7263 93be 8591 dc3e bde0 63be 935d 7cbe
00000110: 1088 6c40 9b2e ed3d cf8c df3f 2aba 3a3e
00000120: ff33 a9bf 1f0f 44be 5cfe 0fbf 628f 403f
00000130: 1cf1 a2be 0291 eebe 5e63 15bf 4a54 ecbe
00000140: f23e b43f 81ea f23f 60aa 6cbe 3643 d9bf
00000150: 0add 8abf 191a 09bf 0c52 46be c068 f0bf
00000160: d45f b1bf 726f a93f 392c 783e 293d 3e3f
00000170: 3eb8 f93e 0c32 2bbe 8899 15bf 6e3e 12bd
00000180: 7d24 5dbf 61ae ab3f 3c2b 3a3e 3b77 b0be
00000190: 56ac f83d 6ffe 25bf 3be6 fe3f 18af 793f
000001a0: 835c b6bf cf25 5b3f 9e34 83bf 7fab 303f
000001b0: 294d 31bd cf6a 3abf 6fc6 adbe a787 e6be
000001c0: 3b87 093f 1b9b 643e 7cdd dd3f 4320 f3be
000001d0: bb50 f9be b7ed bf3f 6adc 6a3f 6149 2dc0
000001e0: f496 c5bf 2a41 323f 4477 9e3e 2286 c53d
000001f0: a0ef c53c b32d 803f 0404 8fbf df8b fd3e
00000200: f3d5 84be 0d61 adbd af8c c7bd 3735 d13e
00000210: c3f4 ecbe 1e61 d0bf 476c 1740 e544 20bf
00000220: 473c aebd 0769 8abe 2ffc 103f d419 b73f
00000230: 635e 68bc 54fb ae3d a382 9cbf b35b 11be
00000240: 7292 673f 98db 113f eda8 d53f ae80 a7bf
00000250: fa03 b8bf 3cd1 a13e 481b 14bd 05b4 97bf
00000260: 1b3a 9ebf edde 593e 6627 75bf d705 75be
00000270: f1c5 e73e 54a3 0340 9113 c7bf 4202 07bf
00000280: c36d 663f e2cc 6e3f 42e0 e33f 2c02 bb3e
00000290: 64a6 5ec0 23d7 40bf 8167 1e3f c667 433f
000002a0: 8ed3 acbd 3ab6 933f 1628 2a3f 24d0 a03f
000002b0: ae47 81bd 3e4c c5be 2bf7 2ebf db8f 9cbb
000002c0: 97eb f43f 0674 573f 6d4a 923e 3481 21bf
000002d0: 2840 8f3e a37f debe d786 0e3f 34e9 51bd
000002e0: 6f9c 123e 1e71 d3be db60 91be 425a 78be
000002f0: 0fef a2bd c100 c23f 4c94 b8bf 792b 0ebf
00000300: e3f4 cfbe 9c80 98bf 0836 623e 3021 1b3d
00000310: 10df aabf a606 d1bf b4e9 343e 4c5a 57bc
00000320: 5a79 1ebe 6915 803f 0170 663f 11a0 8e3f
00000330: 24f9 77be f9e9 7cbe 0287 81bf 3f53 6a3d
00000340: 4bc7 813f bcf8 fc3e 3ebb ebbf 4fdd c33d
00000350: a0ac 3a3f f2ae a9bd 4dea b1be e30f 2140
00000360: 8163 34bf ed21 133e dcae 0dbf 9a28 58bf
00000370: 57a4 9a3e b0c9 1040 819c a3bf ca84 39be
00000380: 4dc8 38bf 9689 9e3e 1c29 3040 8bd7 803f
00000390: 2241 3a3f c69f 3dc0 4265 46c0 cbc4 91be
000003a0: 1b63 91bb 0982 dc3f 3e83 663f 856f 9b3f
000003b0: a74c adbd d162 d8be caad 61bf f527 af3d
000003c0: c490 d43e 0188 8d3e 90d4 e0bf 57cf 013f
000003d0: 808b e73f 6140 a73f c833 76bc af9b 8f3f
000003e0: f88b 3d3f b594 8fbe 015c 2abf 4595 223f
000003f0: bef7 fbbe 6c05 eb3e 5d97 a8bf fb7f 00bf

tokenizer.positional_embedding.weight f4 [9, 32]
0.57203585 -0.08932587 -0.5402803 0.3746635 0.26804492 1.839092 -0.08987884 -0.4209251
-0.6011042 0.74794495 2.1225731 -1.23846 -1.0306181 -1.0176023 0.5318608 -0.050344624
0.30134642 -0.6996758 0.54532176 1.1836754 -0.17829463 -0.109109916 0.370369 0.35778293
-0.81088823 0.66390145 1.8514022 -0.108316675 -0.0014676646 -0.023957858 -0.8299073 -3.1103184
1.093065 0.60234904 0.43030638 0.1097513 1.1308283 0.13342464 0.22199741 -0.1071197
2.0374951 0.6287159 -0.9192443 -0.25789028 -0.3140782 0.31789294 1.0013659 -0.9606555
-0.1259319 -0.8009271 0.62860376 -1.5198612 0.91129094 0.236045 0.6941354 0.6826682
0.6252261 -0.51217234 1.2520952 -2.26754 0.63956493 0.5795545 2.0099554 -0.85073596
0.14896783 0.8200903 -0.110866256 -0.7031016 -0.12188552 -0.27334303 -0.07099882 1.0363979
0.74110967 0.35895756 -1.5259087 -1.7405437 1.5985581 -0.2144339 -2.004377 0.9358295
0.48600724 0.7183259 -0.353329 -0.6832094 1.3785071 -1.2636418 -0.5118658 -0.36549258
0.12419822 -0.38928482 -0.31914902 -1.2161329 -0.1800266 -0.75398886 1.1481012 -1.3976786
-0.8459765 -1.5531136 -1.4528656 -0.7524123 -0.26450387 -0.8381574 0.30275527 -0.52413714
-1.0091312 0.023839813 -0.2559153 -1.7885334 1.9044433 -0.74716145 -1.5559545 0.28626147
-0.44006065 -1.2252496 -0.77255315 -2.547377 1.540063 0.3653403 -0.15566254 -0.9961086
1.3238201 1.7705572 0.6128101 -0.7109573 0.69887006 -0.7140186 -1.3598896 -0.76376534
1.1351761 -0.16890086 0.49625692 -1.5090405 0.3216285 -1.5535041 0.44550422 0.41073212
-0.7848191 1.075035 2.5622675 0.54470515 -0.67311126 -0.093973115 0.030056674 -0.2867197
0.05582573 -1.1514693 1.0811355 0.26304057 0.13799945 0.93140316 -0.90995127 -0.3730532
1.0483185 0.31829235 -0.23459448 -0.28932092 1.7723836 0.46012977 1.3524547 1.1921128
-0.6542882 -1.2776495 1.7747532 -1.5777738 -0.13041277 0.7589884 0.6513157 -0.66922957
-0.73561156 -0.23818476 -0.28345498 0.55814946 -0.49315524 1.1937755 0.32560477 -1.5251871
-1.6117371 0.9387784 0.27116308 0.68003213 -0.56196374 2.1706047 0.48377967 0.68565613
-0.21716616 0.5948388 -2.209744 -0.12010138 -0.60498977 0.07714652 -1.0755342 0.7585653
-0.55944616 0.44476584 -0.22337654 -0.08537015 0.0660232 -0.8264792 -1.7157644 -0.64610034
0.2827782 -1.3680325 -1.0353932 0.038827397 -1.8474556 1.1904032 -0.4711489 1.3727525
0.5712384 -0.21878368 -1.6922896 0.30724514 -0.8977033 0.88389385 1.3092781 -0.9243677
-0.4731589 0.26339886 0.32162932 1.2602208 -0.62068707 0.9277528 1.099014 0.4526109
-1.63006 0.69776416 -1.3252248 0.32341784 -0.008039828 0.31604463 -0.3104026 0.99043137
1.3614784 -1.7228838 -0.57325417 1.2642367 -0.7244812 -1.2931901 0.4272771 2.0143988
0.71111107 0.23493765 0.036940098 -1.5931747 0.088441044 0.49835774 -1.0480101 -0.57173604
0.72512096 -2.1312509 0.13791017 -0.5768257 -1.9619895 -0.9081208 -0.628132 1.405134
00000000: f170 123f 7bf0 b6bd cf4f 0abf e5d3 bf3e
00000010: 2f3d 893e 5e67 eb3f 6612 b8bd 7f83 d7be
00000020: f7e1 19bf 5279 3f3f 3dd8 0740 db85 9ebf
00000030: 4beb 83bf cb40 82bf 0828 083f 2a36 4ebd
00000040: 144a 9a3e f41d 33bf 359a 0b3f ad82 973f
00000050: de92 36be 0575 dfbd 01a1 bd3e 532f b73e
00000060: 5f96 4fbf 72f5 293f bffa ec3f 22d5 ddbd
00000070: a75e c0ba 4543 c4bc ce74 54bf 750f 47c0
00000080: 8ee9 8b3f 8c33 1a3f 1e51 dc3e 4ac5 e03d
00000090: fbbe 903f 78a0 083e 4a53 633e 9361 dbbd
000000a0: 5266 0240 86f3 203f 9853 6bbf 320a 84be
000000b0: dcce a0be ddc2 a23e c22c 803f 85ed 75bf
000000c0: 4bf4 00be 8f09 4dbf 2dec 203f d08a c2bf
000000d0: 5d4a 693f c8b5 713e dcb2 313f 58c3 2e3f
000000e0: d10e 203f ba1d 03bf a844 a03f 601f 11c0
000000f0: 87ba 233f af5d 143f 1ca3 0040 d5c9 59bf
00000100: 068b 183e 70f1 513f d90d e3bd 77fe 33bf
00000110: 1e9f f9bd 9ef3 8bbe d467 91bd b0a8 843f
00000120: 5db9 3d3f 49c9 b73e fa50 c3bf 23ca debf
00000130: 8d9d cc3f 8f94 5bbe b647 00c0 8692 6f3f
00000140: f1d5 f83e 35e4 373f 8ae7 b4be d0e6 2ebf
00000150: ec72 b03f 04bf a1bf a309 03bf d821 bbbe
00000160: a35b fe3d 5750 c7be 8067 a3be 3eaa 9bbf
00000170: e558 38be 6a05 41bf fbf4 923f 22e7 b2bf
00000180: ea91 58bf 6dcc c6bf 80f7 b9bf 189e 40bf
00000190: 0d6d 87be 7c91 56bf bd02 9b3e da2d 06bf
000001a0: 362b 81bf b64b c33c 5507 83be aaee e4bf
000001b0: ccc4 f33f f945 3fbf 8429 c7bf dd90 923e
000001c0: a14f e1be fbd4 9cbf 0bc6 45bf 3a08 23c0
000001d0: c920 c53f e20d bb3e 0066 1fbe f900 7fbf
000001e0: f072 a93f 9ea1 e23f 1fe1 1c3f 4c01 36bf
000001f0: 26e9 323f ecc9 36bf dd10 aebf 2086 43bf
00000200: 734d 913f 59f4 2cbe 6315 fe3e 3d28 c1bf
00000210: 7eac a43e 39d9 c6bf 2119 e43e 7b4b d23e
00000220: e8e9 48bf bf9a 893f 31fc 2340 cc71 0b3f
00000230: 0551 2cbf fa74 c0bd 6a39 f63c edcc 92be
00000240: 85a9 643d 5963 93bf a662 8a3f 41ad 863e
00000250: ba4f 0d3e 7070 6e3f 91f2 68bf d400 bfbe
00000260: 4d2f 863f 37f7 a23e 8939 70be df21 94be
00000270: 77dd e23f 2196 eb3e 3c1d ad3f 2797 983f
00000280: 6e7f 27bf 058a a3bf 1d2b e33f 7ef4 c9bf
00000290: ed8a 05be 104d 423f a0bc 263f a152 2bbf
000002a0: 0a51 3cbf b5e6 73be 0321 91be e2e2 0e3f
000002b0: d87e fcbe a3cd 983f abb5 a63e 5539 c3bf
000002c0: 674d cebf c853 703f e3d5 8a3e 9616 2e3f
000002d0: dbdc 0fbf 30eb 0a40 f8b1 f73e 2987 2f3f
000002e0: ce60 5ebe 5b47 183f 726c 0dc0 b6f7 f5bd
000002f0: 9ce0 1abf fffe 9d3d 1bab 89bf 5631 423f
00000300: dd37 0fbf 59b8 e33e d2bc 64be 8cd6 aebd
00000310: 2c37 873d 2494 53bf 2b9e dbbf d566 25bf
00000320: 4ec8 903e b01b afbf c487 84bf 7a09 1f3d
00000330: 6d79 ecbf 225f 983f 6e3a f1be 5bb6 af3f
00000340: ae3c 123f d408 60be f29c d8bf 3c4f 9d3e
00000350: e2cf 65bf de46 623f 6d96 a73f 5da3 6cbf
00000360: e241 f2be 37dc 863e 99ac a43e ea4e a13f
00000370: 59e5 1ebf 3581 6d3f 7eac 8c3f 9ebc e73e
00000380: cea5 d0bf aca0 323f f7a0 a9bf 0697 a53e
00000390: 7cb9 03bc 9ad0 a13e 17ed 9ebe e98c 7d3f
000003a0: ed44 ae3f 7587 dcbf c9c0 12bf 82d2 a13f
000003b0: 9a77 39bf 4187 a5bf 10c4 da3e e9eb 0040
000003c0: 600b 363f 7f93 703e 804e 173d 26ed cbbf
000003d0: 9420 b53d bf28 ff3e 3225 86bf 4b5d 12bf
000003e0: 87a1 393f 6a66 08c0 5338 0d3e d9aa 13bf
000003f0: 7922 fbbf 9b7a 68bf 42cd 20bf 6edb b33f

encoder_layer_mhattentions.0.attention_heads.0.Q.weight f4 [8, 8]
-0.034504984 0.032258783 -0.063498974 0.1585127 -0.07659058 0.06922862 -0.0014793895 -0.09370259
0.037463304 -0.016093226 -0.29073176 -0.12552556 0.015718434 -0.17828153 -0.23028892 -0.039102174
-0.06406203 0.0709895 -0.04897082 -0.1399059 0.015098791 -0.011845272 -0.002947512 0.036712408
-0.029031033 0.068581864 -0.089850664 0.008476078 0.025081562 0.1280737 0.0012873095 -0.047491465
0.14621422 -0.052735653 -0.17446767 0.11617291 0.022347946 -0.0480094 -0.050967887 0.18133165
-0.28176102 -0.01273682 0.2430102 -0.02267228 -0.091790214 0.09509446 -0.032560006 -0.20627168
-0.09653909 0.11541235 0.13329804 -0.1112205 -0.091850415 0.26405728 -0.24392445 -0.36395225
-0.47960785 0.24868901 -0.17412545 0.5240982 -0.0929539 0.55254394 0.067698546 -0.54756105
00000000: 1955 0dbd c921 043d c00b 82bd 2751 223e
00000010: 86db 9cbd bcc7 8d3d 13e8 c1ba 25e7 bfbd
00000020: 1f73 193d f1d5 83bc cbda 94be c689 00be
00000030: f2c3 803c 6f8f 36be dcd0 6bbe 9a29 20bd
00000040: f432 83bd f162 913d a095 48bd 7e43 0fbe
00000050: eb60 773c ac12 42bc 0c2b 41bb c05f 163d
00000060: 7dd2 edbc a674 8c3d a003 b8bd 3fdf 0a3c
00000070: d977 cd3c c125 033e f0ba a83a 6986 42bd
00000080: 2eb9 153e 5701 58bd a7a7 32be 10ec ed3d
00000090: 0a13 b73c 81a5 44bd b4c3 50bd 01af 393e
000000a0: fb42 90be 18ae 50bc aad7 783e 38bb b9bc
000000b0: 82fc bbbd e2c0 c23d a45d 05bd e238 53be
000000c0: 49b6 c5bd 4f5d ec3d 487f 083e 93c7 e3bd
000000d0: 121c bcbd 8432 873e 55c7 79be f357 babe
000000e0: 298f f5be 55a8 7e3e f14d 32be 4d2b 063f
000000f0: 9d5e bebd 8573 0d3f 89a5 8a3d f62c 0cbf

encoder_layer_mhattentions.0.attention_heads.0.Q.bias f4 [8]
0.16574432 -0.61654776 0.03913762 0.029316643 0.18358475 -0.17249809 1.0136234 0.38326165
00000000: e1b8 293e 13d6 1dbf c54e 203d 7529 f03c
00000010: a4fd 3b3e 57a3 30be 69be 813f df3a c43e

encoder_layer_mhattentions.0.attention_heads.0.K.weight f4 [8, 8]
0.24518661 0.16142875 -0.35731447 0.1758457 -0.015882278 -0.092422456 -0.017376373 0.008446098
-0.44970933 -0.16677116 -0.0686295 0.3721008 0.052063707 -0.07478625 -0.095042214 0.38135394
-0.020886805 -0.13309073 0.029302688 -0.03299508 0.033516645 -0.025725096 0.0013814373 0.100071214
0.15527746 -0.031040551 -0.02395988 0.012975469 -0.05891729 -0.025613101 -0.022119874 0.04349632
-0.13618068 -0.082165934 0.15273194 -0.11627624 -0.2674821 0.10860478 0.14193769 0.034450043
0.16324855 0.069387585 -0.21324915 0.2437994 0.11047752 -0.2317362 -0.29397172 -0.14053921
0.28122792 0.015078798 -0.48539567 -0.36922488 -0.033826273 0.047355633 -0.35100657 -0.20667143
0.5320998 0.047909357 -0.6448224 0.17272167 0.004915621 -0.22816299 -0.23738874 0.3299334
00000000: 3312 7b3e 944d 253e ecf1 b6be e510 343e
00000010: 8d1b 82bc fc47 bdbd e558 8ebc 8161 0a3c
00000020: 4d40 e6be 0fc6 2abe a08d 8cbd ff83 be3e
00000030: c140 553d 8929 99bd 7ea5 c2bd d340 c33e
00000040: ce1a abbc f048 08be 310c f03c d925 07bd
00000050: c048 093d 70bd d2bc 5811 b53a 23f2 cc3d
00000060: 0e01 1f3e c148 febc 8347 c4bc 1097 543c
00000070: 4253 71bd 91d2 d1bc bd34 b5bc 3229 323d
00000080: f372 0bbe 9d46 a8bd c365 1c3e 3d22 eebd
00000090: 6af3 88be 2f6c de3d 1d58 113e 7d1b 0d3d
000000a0: a12a 273e 141b 8e3d fc5d 5abe 8da6 793e
000000b0: 0a42 e23d 414c 6dbe 7683 96be 83e9 0fbe
000000c0: 1bfd 8f3e 100d 773c c885 f8be 0b0b bdbe
000000d0: 6b8d 0abd fbf7 413d 22b7 b3be ada1 53be
000000e0: b137 083f 9a3c 443d 1513 25bf f3dd 303e
000000f0: 3813 a13b 8fa3 69be 0916 73be 08ed a83e

encoder_layer_mhattentions.0.attention_heads.0.K.bias f4 [8]
0.096957445 0.13686225 -0.009785615 -0.086773306 -0.16478015 -0.096133895 0.0015295655 -0.062388014
00000000: a091 c63d 9e25 0c3e d853 20bc 34b6 b1bd
00000010: 21bc 28be d9e1 c4bd b47b c83a 938a 7fbd

encoder_layer_mhattentions.0.attention_heads.0.V.weight f4 [8, 8]
0.5283296 0.10354 -0.14999211 0.1006994 -0.0024680772 -0.013607078 -0.06481969 -0.57657295
0.17768551 0.21560758 -0.1436613 -0.39751843 -0.03574625 0.46765354 -0.069806315 -0.18929099
0.32894304 0.102079 0.14660756 -0.072474845 0.24174625 0.2275138 -0.35013822 0.16617723
-0.13491046 -0.010790143 0.19256079 0.10057102 0.0228701 -0.3063891 0.1361252 0.4796611
0.20030881 -0.25487375 -0.3396866 -0.33939767 -0.010018752 0.054291297 -0.23439424 0.3246518
-0.22197022 -0.037193835 -0.09108973 0.39010072 -0.0023045223 0.19022912 0.23863131 0.22861181
-0.063025676 0.10071014 0.043046042 0.16874747 -0.2648846 0.13989724 -0.26890796 0.3612614
-0.14849016 -0.014136477 -0.16797522 0.25020716 -0.10988661 0.3096921 -0.13673727 0.24744587
00000000: 9c40 073f c80c d43d 8897 19be 7d3b ce3d
00000010: 77bf 21bb 39f0 5ebc 30c0 84bd 499a 13bf
00000020: 31f3 353e 3cc8 5c3e f31b 13be 8987 cbbe
00000030: a96a 12bd 4970 ef3e 9df6 8ebd 7fd5 41be
00000040: 396b a83e cb0e d13d 4b20 163e b16d 94bd
00000050: 548c 773e 61f9 683e 5145 b3be 5d2a 2a3e
00000060: f825 0abe 24c9 30bc a82e 453e 2ef8 cd3d
00000070: 135a bb3c 08df 9cbe 6864 0b3e 2496 f53e
00000080: c11d 4d3e d07e 82be 67eb adbe 88c5 adbe
00000090: b125 24bc 8d60 5e3d 0b05 70be c338 a63e
000000a0: 294c 63be 9058 18bd 418d babd 48bb c73e
000000b0: 7807 17bb 6ccb 423e c45b 743e 3719 6a3e
000000c0: 9b13 81bd 1e41 ce3d 0c51 303d 23cc 2c3e
000000d0: f49e 87be 3941 0f3e 4eae 89be 41f7 b83e
000000e0: ce0d 18be af9c 67bc b201 2cbe 271b 803e
000000f0: 3b0c e1bd f78f 9e3e db04 0cbe 7362 7d3e

encoder_layer_mhattentions.0.attention_heads.0.V.bias f4 [8]
-0.22954407 -0.24303153 -0.1572691 0.20848317 -0.13042581 0.17945139 0.16704863 0.06590857
00000000: 9a0d 6bbe 42dd 78be 270b 21be 9d7c 553e
00000010: 588e 05be 1bc2 373e cc0e 2b3e 13fb 863d

encoder_layer_mhattentions.0.attention_heads.1.Q.weight f4 [8, 8]
0.074618176 0.048412964 -0.07537114 -0.025489263 -0.0071390667 0.027535155 0.12760033 -0.021235947
0.10398793 0.07855158 -0.1322433 0.25397646 -0.59308517 0.90932417 0.051645454 -0.9952396
-0.30022916 -0.091841936 0.43748114 -0.2803808 0.74565303 0.44341344 -0.05024375 -0.30212128
0.5463261 0.00086508127 -0.004427943 -0.33055738 0.030920902 -0.7014422 0.6227658 -0.2487577
0.9277188 -0.440761 -0.2714103 0.14449744 0.10632016 0.24219303 0.35086575 0.6043751
0.027731743 0.01035466 0.0074519054 -0.032583937 -0.11639631 0.4080967 -0.25548553 -0.109322816
-0.5867632 -0.07175147 0.55553246 -0.0074329395 -0.1213667 -0.048380133 -0.05657842 0.3785983
0.29477075 -0.101934865 -0.09350325 0.20078072 0.10253479 0.06746055 0.24526373 0.011488159
00000000: 6ad1 983d ac4c 463d 2f5c 9abd dcce d0bc
00000010: d5ee e9bb 6891 e13c a9a9 023e 02f7 adbc
00000020: a0f7 d43d a7df a03d ca6a 07be 3409 823e
00000030: 6ed4 17bf 78c9 683f 2f8a 533d 06c8 7ebf
00000040: a3b7 99be a017 bcbd 87fd df3e 128e 8fbe
00000050: 1ee3 3e3f 1607 e33e 64cc 4dbd a4af 9abe
00000060: 07dc 0b3f 9fc6 623a 4718 91bb d13e a9be
00000070: d54d fd3c b791 33bf 946d 1f3f 57ba 7ebe
00000080: fb7e 6d3f 6dab e1be 4af6 8abe 23f7 133e
00000090: 62be d93d 7301 783e ada4 b33e 54b8 1a3f
000000a0: ae2d e33c 98a6 293c 1d2f f43b bc76 05bd
000000b0: 3061 eebd 0df2 d03e 00cf 82be a4e4 dfbd
000000c0: 1d36 16bf 6ff2 92bd 6037 0e3f 0490 f3bb
000000d0: 1b8f f8bd 3f2a 46bd c6be 67bd a3d7 c13e
000000e0: 31ec 963e 3ac3 d0bd a27e bfbd 7699 4d3e
000000f0: c3fd d13d c228 8a3d 6a26 7b3e d538 3c3c

encoder_layer_mhattentions.0.attention_heads.1.Q.bias f4 [8]
0.029293662 0.07200658 0.09294845 -0.09973857 -0.14437215 0.027424805 -0.06449976 -0.05024415
00000000: 43f9 ef3c 3078 933d c25b be3d bc43 ccbd
00000010: 4bd6 13be fca9 e03c 7318 84bd cfcc 4dbd

encoder_layer_mhattentions.0.attention_heads.1.K.weight f4 [8, 8]
-0.1250423 0.08811676 -0.002197032 -0.03236414 0.15639524 0.09479825 -0.034127362 0.11693865
-0.18175644 0.03916872 -0.60179925 -0.16223025 -0.18834798 0.11015067 -0.8004963 0.96850437
0.013956772 0.141078 -0.08483815 -0.06787928 -0.7633488 1.0038819 0.16243199 -0.026643766
-0.22450122 0.2955621 -0.112514906 -0.42476577 0.38298866 0.6080365 -0.27963868 -0.48956862
-0.4552127 -0.3128493 0.32829937 0.07739537 0.8166719 0.10287375 0.0384641 0.19908033
-0.0009372643 0.07909079 -0.051308047 0.08599106 0.0369684 -0.078844935 0.03916367 0.30294108
0.45304686 -0.28425622 -0.3369557 0.38070023 -0.06142481 0.1442483 0.65633196 -0.20857798
-0.28367957 -0.17271197 0.17521112 0.0045370418 0.16371706 0.058594342 -0.24520443 0.11794535
00000000: 170b 00be 8f76 b43d 15fc 0fbb 4390 04bd
00000010: 1326 203e 9625 c23d 22c9 0bbd 887d ef3d
00000020: 5c1e 3abe 616f 203d 840f 1abf b01f 26be
00000030: 4bde 40be ad96 e13d 53ed 4cbf e7ef 773f
00000040: f2aa 643c c076 103e a0bf adbd 4b04 8bbd
00000050: d46a 43bf 347f 803f 9254 263e 0744 dabc
00000060: a6e3 65be ea53 973e 376e e6bd e67a d9be
00000070: 1717 c43e 48a8 1b3f cd2c 8fbe bda8 fabe
00000080: a411 e9be c92d a0be db16 a83e 7781 9e3d
00000090: 6911 513f 79af d23d 888c 1d3d b7db 4b3e
000000a0: beb2 75ba 5afa a13d 6328 52bd 151c b03d
000000b0: 2d6c 173d 7479 a1bd 166a 203d 181b 9b3e
000000c0: c2f5 e73e 088a 91be 7585 acbe 24eb c23e
000000d0: 9598 7bbd d4b5 133e 5f05 283f 7795 55be
000000e0: 733e 91be 68db 30be 8b6a 333e 77ab 943b
000000f0: 72a5 273e 9f00 703d df16 7bbe 558d f13d

encoder_layer_mhattentions.0.attention_heads.1.K.bias f4 [8]
-0.18779759 0.063995235 -0.027659304 0.22350203 0.094209224 -0.15181324 0.05411028 -0.17482674
00000000: 034e 40be ef0f 833d c495 e2bc b7dd 643e
00000010: c4f0 c03d ee74 1bbe bea2 5d3d c805 33be

encoder_layer_mhattentions.0.attention_heads.1.V.weight f4 [8, 8]
-0.16968767 -0.3525149 -0.11483965 -0.60255957 -0.4053334 -0.37895003 -0.07049759 0.017443068
-0.43771052 0.12516299 0.18807787 -0.059927467 -0.08377611 0.040117774 -0.18011104 0.18130551
0.16487342 -0.18972869 -0.20375769 -0.32114765 0.32152885 0.41229197 0.4343028 0.3363876
0.08229864 -0.041483626 0.19196755 0.21217823 0.1496885 0.024901703 0.03097117 0.21427204
0.20718925 -0.07207706 0.14563638 -0.7049582 0.19773272 0.30516127 0.44359407 0.55742687
0.098890215 0.058757998 0.09379683 0.05276624 0.11006343 0.098381 -0.21810059 -0.05450459
-0.019990068 -0.5029752 0.03704423 -0.15211494 0.12949508 0.32534093 0.40966493 0.007914313
-0.32604066 0.19013755 -0.1298721 -0.028345296 -0.21958831 0.2260646 -0.26953626 -0.21267413
00000000: 9bc2 2dbe d57c b4be 0d31 ebbd 5841 1abf
00000010: dc87 cfbe bd05 c2be 0a61 90bd c4e4 8e3c
00000020: 981b e0be ba2a 003e 7c97 403e 8176 75bd
00000030: cf92 abbd 8952 243d 076f 38be 27a8 393e
00000040: 94d4 283e 3d48 42be dba5 50be 776d a4be
00000050: 6e9f a43e ef17 d33e f05c de3e ff3a ac3e
00000060: 308c a83d bcea 29bd 2493 443e 4045 593e
00000070: f147 193e a8fe cb3c 40b7 fd3c 216a 5b3e
00000080: 6b29 543e 239d 93bd b421 153e 2478 34bf
00000090: 727a 4a3e 193e 9c3e c31e e33e 87b3 0e3f
000000a0: f486 ca3d 3aac 703d 8d18 c03d 6a21 583d
000000b0: f068 e13d fa7b c93d c355 5fbe 3440 5fbd
000000c0: 36c2 a3bc fcc2 00bf b1bb 173d 05c4 1bbe
000000d0: 5c9a 043e 1693 a63e 9abf d13e 09ab 013c
000000e0: cdee a6be 6bb3 423e 31fd 04be 6534 e8bc
000000f0: c2db 60be 7a7d 673e a800 8abe 3fc7 59be

encoder_layer_mhattentions.0.attention_heads.1.V.bias f4 [8]
0.112744614 -0.052285384 -0.35404986 -0.113004826 -0.37042663 -0.039536513 -0.26556966 0.030859092
00000000: a6e6 e63d 3329 56bd 0646 b5be 136f e7bd
00000010: 8fa8 bdbe 0af1 21bd bff8 87be 35cc fc3c

encoder_layer_mhattentions.0.attention_heads.2.Q.weight f4 [8, 8]
0.18757236 -0.49827322 0.058415204 -0.16338249 0.08187746 0.09867273 0.18065925 0.10160577
0.03440447 0.24251385 0.21024808 -0.12675613 -0.12037133 0.2816496 -0.13234732 0.26425532
-0.13804097 0.57412755 -0.10069368 0.17412125 -0.16499017 0.2959117 0.52148247 0.010817481
-0.075372614 0.38937822 0.49273396 -0.18287332 0.14312997 0.05618654 -0.19921389 0.24663948
0.2284878 -0.34449983 -0.05910625 0.8423375 -0.18005966 -0.6713365 -0.9789797 -0.5001304
0.0694379 0.073313944 0.05963007 -0.04254614 -0.15766564 -0.05477473 -0.03248669 -0.011578137
-0.11755064 0.55995876 0.3901546 1.0252416 -0.027246028 -0.3326207 -0.96767265 -0.169016
0.02616704 0.18198827 -0.2006828 -0.38009214 -0.14742716 0.4871368 0.21314216 -0.049425345
00000000: f812 403e ab1d ffbe c844 6f3d bd4d 27be
00000010: 5faf a73d ee14 ca3d bdfe 383e b016 d03d
00000020: b4eb 0c3d 8d55 783e 464b 573e 5ccc 01be
00000030: 3e85 f6bd 6034 903e 0e86 07be 794c 873e
00000040: 9d5a 0dbe 06fa 123f 7d38 cebd d74c 323e
00000050: 2ff3 28be bd81 973e e07f 053f ce3b 313c
00000060: f55c 9abd 955c c73e a047 fc3e 2543 3bbe
00000070: aa90 123e db23 663d bafe 4bbe 0f8f 7c3e
00000080: b5f8 693e 4862 b0be 6519 72bd 6ea3 573f
00000090: 8f61 38be b5dc 2bbf 6a9e 7abf 8c08 00bf
000000a0: 7535 8e3d 9f25 963d a93e 743d dc44 2ebd
000000b0: 1a73 21be 785b 60bd c310 05bd 3ab2 3dbc
000000c0: 64be f0bd 7559 0f3f 58c2 c73e 1e3b 833f
000000d0: 1033 dfbc 434d aabe 65b9 77bf 8812 2dbe
000000e0: 435c d63c 225b 3a3e cb7f 4dbe 709b c2be
000000f0: 25f7 16be ff69 f93e f041 5a3e 3b72 4abd

encoder_layer_mhattentions.0.attention_heads.2.Q.bias f4 [8]
0.008616686 0.050364096 0.053642415 -0.028059408 -0.0086784195 0.056143295 -0.42610016 0.7820432
00000000: 002d 0d3c 954a 4e3d 26b8 5b3d d8dc e5bc
00000010: ee2f 0ebc 83f6 653d cd29 dabe fc33 483f

encoder_layer_mhattentions.0.attention_heads.2.K.weight f4 [8, 8]
-0.07789872 0.19403912 -0.22554727 0.17624739 -0.06309373 -0.4683661 0.046418037 -0.35886344
0.3693073 -0.44837958 0.076459125 0.06869542 -0.02560409 -0.15330587 0.08956137 0.027569642
-0.4331035 -0.25449204 0.63763726 0.10352901 0.5056298 0.11926665 -0.081398845 -0.16701105
0.3593177 -0.5205029 -0.15081917 0.4211968 0.23370327 -0.3732343 0.04094704 -0.31587484
0.31720313 0.73147726 -0.09854501 0.08353972 -0.4734723 0.58285046 0.53828794 0.449454
0.082013704 -0.0013738547 -0.052700073 0.062330075 0.04984979 0.08151135 0.03277565 0.13518251
0.58083117 0.53308374 0.1822994 0.10605965 0.28101137 0.6565472 0.80358833 0.18224408
-0.22214624 -0.5277559 0.052519534 0.33458722 0.047377292 -0.11866094 -0.82895416 -0.14626262
00000000: 5d89 9fbd 31b2 463e ddf5 66be 327a 343e
00000010: 4937 81bd aecd efbe d720 3e3d f3bc b7be
00000020: d915 bd3e 0292 e5be 9a96 9c3d 2fb0 8c3d
00000030: abbf d1bc 37fc 1cbe f46b b73d bbd9 e13c
00000040: bebf ddbe c84c 82be 323c 233f 0507 d43d
00000050: f470 013f 1342 f43d 70b4 a6bd f204 2bbe
00000060: 7df8 b73e ae3f 05bf 5770 1abe 1ba7 d73e
00000070: e94f 6f3e 9118 bfbe 15b8 273d 59ba a1be
00000080: 7368 a23e 1842 3b3f f7d1 c9bd df16 ab3d
00000090: f66a f2be b035 153f 3dcd 093f d61e e63e
000000a0: cdf6 a73d ea12 b4ba 08dc 57bd d24d 7f3d
000000b0: 4b2f 4c3d 6cef a63d c33f 063d 496d 0a3e
000000c0: 5ab1 143f 2d78 083f b2ac 3a3e cd35 d93d
000000d0: b9e0 8f3e 7a13 283f f7b7 4d3f 319e 3a3e
000000e0: 4e7a 63be 031b 07bf b91e 573d 044f ab3e
000000f0: b10e 423d 8204 f3bd 5736 54bf dec5 15be

encoder_layer_mhattentions.0.attention_heads.2.K.bias f4 [8]
0.2982906 0.09611133 -0.26605964 -0.18774626 -0.0966322 -0.27794445 0.28476506 0.051430203
00000000: 8cb9 983e 04d6 c43d f838 88be 8e40 40be
00000010: 1ae7 c5bd bc4e 8ebe bacc 913e 7aa8 523d

encoder_layer_mhattentions.0.attention_heads.2.V.weight f4 [8, 8]
-0.116692126 0.20006421 0.0978629 0.21977837 -0.18505566 0.1803038 -0.2446751 -0.029784525
-0.06642745 -0.065971725 -0.11802166 -0.3434327 0.055678338 0.25070742 0.17755297 -0.024163894
-0.011772501 0.01797808 0.0675695 0.033073742 0.0928996 0.039278407 -0.07336694 0.00041416002
0.023103945 0.027133597 -0.21732461 0.11773446 0.20241535 0.05545919 0.24868229 -0.06442317
-0.0011918049 -0.08965861 -0.030323695 0.029948324 -0.06155558 0.026666686 0.0019188365 -0.01767978
-0.028852358 -0.038070064 -0.0386872 0.34276098 -0.2565039 0.0051371767 0.38471353 -0.1700982
0.041968755 0.39639053 -0.2441578 0.21489692 0.1510824 -0.18741201 -0.12969537 -0.17374967
0.12987201 -0.21242645 -0.042773444 -0.16509703 -0.012902932 0.08899166 -0.18665448 0.06301588
00000000: 48fc eebd a2dd 4c3e 586c c83d 950d 613e
00000010: 3b7f 3dbe 8fa1 383e 1c8c 7abe adfe f3bc
00000020: 1d0b 88bd 2f1c 87bd 57b5 f1bd 69d6 afbe
00000030: f80e 643d b95c 803e 72d0 353e 5cf3 c5bc
00000040: 73e1 40bc c446 933c e161 8a3d 5578 073d
00000050: 2542 be3d 65e2 203d 6841 96bd 9e23 d939
00000060: 7c44 bd3c 4747 de3c 588a 5ebe c41e f13d
00000070: f845 4f3e 2d29 633d 92a6 7e3e 4cf0 83bd
00000080: 5636 9cba ef9e b7bd 6669 f8bc 3056 f53c
00000090: b421 7cbd 1874 da3c 7881 fb3a 30d5 90bc
000000a0: c85b ecbc 5bef 1bbd 7876 1ebd 5e7e af3e
000000b0: 7b54 83be c355 a83b 2cf9 c43e 392e 2ebe
000000c0: 6ee7 2b3d b3f3 ca3e 8104 7abe f00d 5c3e
000000d0: 58b5 1a3e efe8 3fbe ddce 04be 6feb 31be
000000e0: 2bfd 043e 5286 59be 3533 2fbd 320f 29be
000000f0: d266 53bc 4241 b63d 5a22 3fbe 780e 813d

encoder_layer_mhattentions.0.attention_heads.2.V.bias f4 [8]
0.35558504 -0.28783974 0.048538715 -0.029821899 0.0036508492 0.3148917 -0.008852054 -0.020170754
00000000: 3e0f b63e bb5f 93be 88d0 463d 0e4d f4bc
00000010: 1643 6f3b 7c39 a13e 3508 11bc 233d a5bc

encoder_layer_mhattentions.0.attention_heads.3.Q.weight f4 [8, 8]
0.36426473 -0.079986304 -0.5216651 -0.5565277 0.5388404 -0.293167 0.14905162 0.6867299
0.121355325 0.0444806 -0.09421559 0.30628654 -0.16732287 0.29964274 0.12903345 0.17888072
0.053646654 0.15091202 -0.102286965 0.11058579 -0.029877953 0.24947259 0.22482845 -0.41315585
-0.13257904 -0.051543806 0.027489789 -0.0018242573 -0.07046838 -0.15264714 -0.0029679856 0.117560185
-0.1526638 -0.33706123 0.107632235 -0.21277814 0.65819705 -0.29761428 -0.3464176 -0.13393763
0.19219922 0.57832295 0.028672153 0.018133748 -0.47623584 0.20381242 0.14296396 0.14240992
-0.29785138 -0.5388106 -0.29502803 -0.28128034 0.54417443 -0.48970437 -0.17563623 0.06741194
0.24990073 0.10637446 0.23881209 -0.45831004 0.57557714 -0.28607765 -0.30069324 -0.0841508
00000000: e880 ba3e dccf a3bd d88b 05bf 9978 0ebf
00000010: 72f1 093f fc19 96be fda0 183e 88cd 2f3f
00000020: 2489 f83d 4a31 363d 1af4 c0bd 97d1 9c3e
00000030: b056 2bbe c66a 993e 5821 043e 822c 373e
00000040: 98bc 5b3d ae88 1a3e d47b d1bd cd7a e23d
00000050: 9cc2 f4bc be75 7f3e 6e39 663e 2a89 d3be
00000060: cdc2 07be 991f 53bd 4432 e13c eb1b efba
00000070: ba51 90bd 884f 1cbe 8982 42bb 65c3 f03d
00000080: e653 1cbe 4a93 acbe 4a6e dc3d 83e2 59be
00000090: 9a7f 283f e660 98be a65d b1be f226 09be
000000a0: dfcf 443e f90c 143f dde1 ea3c 3a8d 943c
000000b0: 2fd5 f3be 34b4 503e 2565 123e e8d3 113e
000000c0: fa7f 98be 7eef 09bf ea0d 97be fa03 90be
000000d0: 044f 0b3f 88ba fabe fcd9 33be 450f 8a3d
000000e0: fae5 7f3e dada d93d 288b 743e 9da7 eabe
000000f0: 0659 133f c578 92be 77f4 99be 4157 acbd

encoder_layer_mhattentions.0.attention_heads.3.Q.bias f4 [8]
-0.4717124 -0.08196737 0.0777707 -0.2064057 0.2960306 0.5495262 -0.42578346 0.5360023
00000000: 4a84 f1be 82de a7bd 3f46 9f3d 045c 53be
00000010: 5391 973e c0ad 0c3f 4a00 dabe 7237 093f

encoder_layer_mhattentions.0.attention_heads.3.K.weight f4 [8, 8]
-0.32548428 0.4671464 -0.040248588 -0.22109725 -0.4710251 -0.3075752 -0.809176 -0.5518515
0.15275991 -0.24548407 -0.003662226 0.60464793 0.09745479 0.35567477 -0.056323446 -0.23875692
-0.31026664 0.014462351 -0.17520134 0.11307541 0.32984015 -0.1102712 0.4445772 -0.25254774
-0.121177256 0.06260007 0.113106534 -0.2785156 0.01717011 0.021795 -0.110199094 0.12335037
0.4029205 0.33005768 -0.18260849 -0.46011677 -0.31581566 -0.072439194 -0.09045631 0.17144118
-0.38733837 -0.5618733 -0.3031783 0.5118908 0.22434567 0.23013367 0.11582039 -0.024278346
0.22394362 0.606762 0.26712093 -0.6077285 -0.3258154 -0.19450392 -0.2779252 -0.020670246
-0.22026725 0.23068684 -0.60050654 -0.52296174 -0.17027846 -0.13050213 0.18449302 0.068478584
00000000: e0a5 a6be d02d ef3e b4db 24bd 5167 62be
00000010: 342a f1be 7f7a 9dbe 2926 4fbf 2446 0dbf
00000020: 186d 1c3e 2d60 7bbe f501 70bb 35ca 1a3f
00000030: 6096 c73d 011b b63e 6ab3 66bd b27c 74be
00000040: 45db 9ebe 7ff3 6c3c fb67 33be 1594 e73d
00000050: cfe0 a83e ded5 e1bd 9f9f e33e f04d 81be
00000060: c82b f8bd 7734 803d 66a4 e73d 9999 8ebe
00000070: 55a8 8c3c 6e8b b23c 10b0 e1bd 1e9f fc3d
00000080: 994b ce3e 52fd a83e b8fd 3abe 6d94 ebbe
00000090: 97b2 a1be 005b 94bd 2841 b9bd 478e 2f3e
000000a0: 3751 c6be eed6 0fbf 303a 9bbe 470b 033f
000000b0: dfba 653e 29a8 6b3e 3e33 ed3d 62e3 c6bc
000000c0: 7a51 653e c154 1b3f 13c4 883e 1894 1bbf
000000d0: 47d1 a6be 092c 47be 364c 8ebe a654 a9bc
000000e0: bd8d 61be 2c39 6c3e ccba 19bf d2e0 05bf
000000f0: 7a5d 2ebe 5aa2 05be bdeb 3c3e 803e 8c3d

encoder_layer_mhattentions.0.attention_heads.3.K.bias f4 [8]
-0.33644086 0.040391803 -0.0880597 0.26356798 0.3085518 0.3050319 0.06624769 0.072958104
00000000: fa41 acbe e071 253d a558 b4bd 62f2 863e
00000010: 80fa 9d3e 242d 9c3e deac 873d 0f6b 953d

encoder_layer_mhattentions.0.attention_heads.3.V.weight f4 [8, 8]
-0.22839606 -0.10142215 -0.009615478 -0.1335965 0.13560191 0.0012940525 -0.026164083 -0.031725716
-0.1734253 0.054590873 -0.01702046 0.20997536 0.32890671 -0.040662173 -0.23251386 -0.050028138
-0.02754409 0.20744966 0.110287756 0.28211653 -0.32771266 0.2791227 -0.08196039 0.2886001
-0.16074274 0.010915561 -0.038832776 0.06906394 0.028898371 -0.14723836 0.014308425 0.13216369
-0.2562783 -0.2699796 -0.105857745 0.085343204 -0.32805306 0.2350449 0.38473716 -0.051046353
0.024949737 -0.0732591 -0.26078478 0.26335475 0.101874165 0.08156539 0.007585925 -0.28578112
0.3371717 0.38802364 -0.17115256 0.12900719 -0.35151678 0.081253566 -0.20120743 0.07451096
0.17552811 0.21761625 0.17768008 0.27474388 0.1897466 0.062081475 -0.45365205 0.32620707
00000000: a8e0 69be 6bb6 cfbd 3d8a 1dbc 85cd 08be
00000010: 3adb 0a3e 329d a93a 0f56 d6bc d3f2 01bd
00000020: 6796 31be ae9a 5f3d 7e6e 8bbc c803 573e
00000030: 7666 a83e 618d 26bd 1d18 6ebe 4eea 4cbd
00000040: 25a4 e1bc af6d 543e 8cde e13d 9471 903e
00000050: f4c9 a7be 2ce9 8e3e d9da a7bd 64c3 933e
00000060: bf99 24be 2ed7 323c 1e0f 1fbd 6571 8d3d
00000070: 47bc ec3c a7c5 16be e26d 6a3c eb55 073e
00000080: e936 83be c43a 8abe f2cb d8bd 6bc8 ae3d
00000090: 92f6 a7be 9caf 703e 45fc c43e fb15 51bd
000000a0: 6463 cc3c de08 96bd 9585 85be 6fd6 863e
000000b0: 67a3 d03d c10b a73d 5a93 f83b e751 92be
000000c0: c5a1 ac3e 09ab c63e 9e42 2fbe 761a 043e
000000d0: 02fa b3be 4568 a63d 5209 4ebe 3499 983d
000000e0: a4bd 333e cbd6 5e3e c4f1 353e 3bab 8c3e
000000f0: ef4c 423e 2549 7e3d 1545 e8be 9d04 a73e

encoder_layer_mhattentions.0.attention_heads.3.V.bias f4 [8]
0.036135934 0.047581974 -0.05608024 -0.17338254 -0.38163042 -0.009407509 0.26614437 0.085796945
00000000: 4603 143d 51e5 423d 65b4 65bd 318b 31be
00000010: 1065 c3be f421 1abc 1344 883e 4fb6 af3d

encoder_layer_mhattentions.0.output_layer.weight f4 [32, 32]
-0.0656286 -0.43329477 -0.13985983 0.63799405 0.1748977 0.28931904 0.31742677 -0.0047543603
-0.09812972 -0.14483416 -0.84797496 0.21856055 -0.9802601 0.20097452 -0.63318145 -0.05650323
0.331263 -0.22136964 -0.018572869 0.11703476 -0.07516211 -0.2334402 0.250837 -0.17691009
-0.39620653 0.048067763 -0.19438255 0.072292805 -0.3046993 0.42415553 0.40927818 0.18971203
-0.12535165 0.44808134 0.21932942 -0.33587798 0.23453479 -0.4647267 0.30518118 0.11553404
-0.23616254 -0.39429414 0.59336215 -0.45031253 0.72018516 0.10052625 0.32260573 -0.33413848
0.27708405 -0.051001817 0.036784094 0.5082939 -0.2362067 -0.095066085 0.36503026 -0.19483705
0.12947771 -0.063189186 -0.20496923 -0.102113135 0.28481093 0.32622457 -0.039217867 -0.27502707
-0.27721325 -0.22915378 0.37123036 0.031796128 -0.19152944 -0.052876793 0.12334101 -0.24977799
0.25737733 -0.14590146 -0.71449775 -0.019505976 -0.8036163 -0.39159915 0.112541474 0.10508453
-0.30809054 0.32521263 -0.03378167 -0.16042314 0.02887186 -0.027024452 0.03053392 0.22805725
-0.23691222 0.039009683 0.0766035 -0.24808808 -0.32560554 -0.009984389 0.27814612 0.4033182
0.3542069 0.078638 -0.22058015 -0.49613845 -0.29041538 -0.20674275 -0.79267335 -0.3989859
0.31818414 0.72641444 -0.103199266 0.33051464 0.22527614 -0.25524476 -0.21478538 0.3539523
-0.20741658 -0.014594123 0.04249411 -0.18595129 -0.022879783 -0.39648622 0.49076173 -0.26516855
0.3028894 0.35087296 -0.12450881 -0.39687362 -0.16426551 0.1944388 0.13746437 -0.5363642
0.29173076 -0.1456714 -0.10454654 -0.06399007 -0.10561057 -0.023239251 0.0022246076 -0.011571458
-0.25627446 0.019775076 -0.15711938 -0.049505953 0.109100536 -0.08587862 0.21242958 -0.020952556
0.047852054 -0.1362965 -0.02301477 -0.027900571 0.0814688 -0.0031126926 0.18045154 0.17007655
-0.023990538 -0.1075346 -0.028754504 0.033296607 0.04399551 -0.12429519 -0.08259112 0.05070601
0.19820528 0.13676183 0.025293397 -0.13426438 -0.38891572 0.110536404 -0.056274015 -0.088044666
0.4496877 0.34488457 -0.028945822 0.14101511 0.1058916 -0.31028277 0.048333015 0.09456522
-0.16856457 -0.013846935 -0.18214886 -0.13890603 -0.11508907 -0.23882498 0.3514458 0.16620858
0.04352661 0.5448595 0.17831485 -0.071935475 0.087798126 0.16800348 -0.23021537 0.26420566
-0.27717116 0.20368023 0.116071194 0.0956487 -0.42609656 0.10100465 -0.0677953 -0.0946183
0.08207468 0.005273991 -0.12776111 -0.047523957 -0.13869818 -0.14907554 -0.10822126 -0.29691494
-0.13585065 0.44754443 -0.0493172 0.06360105 -0.15905279 -0.3070305 0.055835538 0.1687139
-0.28019172 0.09964059 0.08829753 -0.18496197 0.07909114 -0.026342409 -0.16963506 0.27341688
-0.18696412 0.3404198 -0.35547695 -0.028093675 0.31469375 -0.49116498 -0.32403928 -0.27813417
-0.31046864 0.3476213 0.069010906 0.31902757 0.34267825 -0.009238177 -0.03783795 0.0034264019
-0.29367757 0.3616634 -0.07101443 0.105855145 -0.040907867 0.17020057 -0.05646073 -0.13522649
-0.010722683 0.28989822 -0.09535683 -0.12802029 0.17464323 0.14153142 -0.36336902 -0.116191156
00000000: 4a68 86bd d0d8 ddbe 6a37 0fbe 9453 233f
00000010: 6218 333e a021 943e c385 a23e 77ca 9bbb
00000020: 3cf8 c8bd 684f 14be e314 59bf 56ce 5f3e
00000030: 53f2 7abf 44cc 4d3e 2e18 22bf ee6f 67bd
00000040: 4e9b a93e b9ae 62be 2126 98bc ecaf ef3d
00000050: 98ee 99bd f30a 6fbe b56d 803e eb27 35be
00000060: 95db cabe b4e2 443d 380c 47be 400e 943d
00000070: 8c01 9cbe ea2a d93e e98c d13e df43 423e
00000080: 2f5c 00be eb6a e53e e497 603e 33f8 abbe
00000090: e329 703e a8f0 edbe b540 9c3e 1c9d ec3d
000000a0: 98d4 71be ece0 c9be 95e6 173f 5d8f e6be
000000b0: 0e5e 383f b5e0 cd3d 942c a53e 3314 abbe
000000c0: f6dd 8d3e 48e7 50bd ebaa 163d 8d1f 023f
000000d0: 2be0 71be 02b2 c2bd 3fe5 ba3e 5d83 47be
000000e0: ce95 043e 5569 81bd 74e3 51be b120 d1bd
000000f0: bdd2 913e e806 a73e eaa2 20bd 59d0 8cbe
00000100: e5ee 8dbe 4aa7 6abe e811 be3e a83c 023d
00000110: 4b20 44be 5695 58bd 369a fc3d cdc5 7fbe
00000120: f6c6 833e 3167 15be 53e9 36bf ffca 9fbc
00000130: ccb9 4dbf af7f c8be 257c e63d 8f36 d73d
00000140: 0bbe 9dbe 4582 a63e a65e 0abd f745 24be
00000150: ae84 ec3c 6262 ddbc 4522 fa3c d787 693e
00000160: 1e99 72be 9ec8 1f3d 4ce2 9c3d cd0a 7ebe
00000170: c5b5 a6be 9095 23bc 2b69 8e3e b97f ce3e
00000180: 9b5a b53e f60c a13d c3df 61be dc05 febe
00000190: 53b1 94be 5fb4 53be a4ec 4abf e147 ccbe
000001a0: 08e9 a23e 4cf6 393f 235a d3bd 3739 a93e
000001b0: caae 663e 71af 82be b3f0 5bbe 3c39 b53e
000001c0: 0365 54be 301c 6fbc 4e0e 2e3d 046a 3ebe
000001d0: 626e bbbc 3e00 cbbe 1f45 fb3e 2cc4 87be
000001e0: 5214 9b3e 9fa5 b33e 7afe febd 0533 cbbe
000001f0: 3835 28be f71a 473e 76c3 0c3e 2a4f 09bf
00000200: bc5d 953e e22a 15be 7f1c d6bd 3a0d 83bd
00000210: 5b4a d8bd 3e60 bebc b9ca 113b 3696 3dbc
00000220: 6836 83be 57ff a13c e7e3 20be c1c6 4abd
00000230: 1a70 df3d 21e1 afbd 2487 593e b2a4 abbc
00000240: 8400 443d 4f91 0bbe 7989 bcbc bd8f e4bc
00000250: 1dd9 a63d 51fe 4bbb 4ac8 383e 8c28 2e3e
00000260: ce87 c4bc 1a3b dcbd 918e ebbc 0662 083d
00000270: a334 343d 7a8e febd 8825 a9bd 1bb1 4f3d
00000280: 53f6 4a3e 4b0b 0c3e 1934 cf3c 9a7c 09be
00000290: f61f c7be e960 e23d 957f 66bd c350 b4bd
000002a0: 773d e63e b694 b03e ca1f edbc 4466 103e
000002b0: b2dd d83d 62dd 9ebe d7f8 453d 69ab c13d
000002c0: 319c 2cbe 41de 62bc 3b85 3abe 623d 0ebe
000002d0: d1b3 ebbd 898e 74be b4f0 b33e 9532 2a3e
000002e0: f548 323d ea7b 0b3f 2b98 363e e852 93bd
000002f0: 81cf b33d 1b09 2c3e 94bd 6bbe f745 873e
00000300: 61e9 8dbe 8d91 503e bcb6 ed3d 77e3 c33d
00000310: 5429 dabe 87db ce3d 43d8 8abd 3dc7 c1bd
00000320: c516 a83d 71d1 ac3b cfd3 02be 7ba8 42bd
00000330: e506 0ebe 42a7 18be 1ca3 ddbd 3c05 98be
00000340: 6f1c 0bbe 8b24 e53e d500 4abd 4441 823d
00000350: bcde 22be 1a33 9dbe ceb3 643d 56c3 2c3e
00000360: 4a75 8fbe 5e10 cc3d 56d5 b43d ac66 3dbe
00000370: 89fa a13d 09cc d7bc d0b4 2dbe 4cfd 8b3e
00000380: 8673 3fbe 814b ae3e 1301 b6be b524 e6bc
00000390: 8a1f a13e fa79 fbbe 7ae8 a5be 9a67 8ebe
000003a0: bff5 9ebe 6bfb b13e 9755 8d3d 9557 a33e
000003b0: 8673 af3e b95b 17bc f7fb 1abd 7c8d 603b
000003c0: e85c 96be f22b b93e 0370 91bd 95ca d83d
000003d0: 028f 27bd 0f49 2e3e 5e43 67bd d078 0abe
000003e0: 31ae 2fbc 8a6d 943e 714a c3bd c017 03be
000003f0: add5 323e 9ded 103e 810b babe a1f5 edbd

encoder_layer_mhattentions.0.output_layer.bias f4 [32]
-0.049513914 -0.2688525 -0.27894968 -0.4570068 -0.012266689 0.2723081 0.08242472 -0.17128938
-0.16247268 0.09098249 0.22257355 -0.2592152 -0.13032319 0.41964352 0.051834263 -0.15394835
-0.2341063 0.35489306 0.22190422 -0.5444284 0.37273812 -0.27970514 0.48672244 0.22845593
0.16078927 0.4583916 0.046259068 -0.16123958 -0.092002556 -0.1940569 -0.24226333 -0.10955705
00000000: 1acf 4abd 09a7 89be 7ed2 8ebe ccfc e9be
00000010: 39fa 48bc f86b 8b3e 4bce a83d 7c66 2fbe
00000020: 3d5f 26be 0755 ba3d 52ea 633e dbb7 84be
00000030: 7173 05be 84db d63e 2a50 543d a3a4 1dbe
00000040: 90b9 6fbe 8bb4 b53e dc3a 633e a95f 0bbf
00000050: 88d7 be3e 8335 8fbe af33 f93e 5af0 693e
00000060: f1a5 243e 4eb2 ea3e 267a 3d3d fd1b 25be
00000070: d66b bcbd dab6 46be e113 78be 725f e0bd

encoder_layer_mhattentions.1.attention_heads.0.Q.weight f4 [8, 8]
0.8249439 -0.56532097 0.10074867 -0.5262244 0.12933661 0.60848665 0.25296557 0.29292604
0.0781151 0.3211879 -0.50683534 0.48483902 0.21377687 -0.40516835 0.31952092 -0.067827076
-0.065228276 -0.48675385 -0.62835586 0.17147753 -0.17422481 -0.24135503 -0.42927352 0.51139337
0.61846304 -0.46314633 -0.072254926 0.8092985 -0.46184826 0.22519818 -0.25224742 -0.24125165
-0.07421117 0.6624224 -0.038220678 0.029901119 -0.20976765 0.17672744 -0.33112764 -0.21566397
-0.5751114 -0.049442872 -0.7868207 0.3333509 -0.14866439 -0.7364493 0.22697474 -0.02229208
0.54414165 0.2797678 -0.05859451 0.5792346 0.15382963 -0.07805735 0.23125127 0.46124858
-0.40831932 0.11261588 0.12671481 0.24903679 -0.26780683 -0.003533009 0.6811864 -0.16509844
00000000: 862f 533f e0b8 10bf 5255 ce3d a4b6 06bf
00000010: d170 043e c8c5 1b3f b484 813e 67fa 953e
00000020: cffa 9f3d be72 a43e f6bf 01bf d23c f83e
00000030: 53e8 5a3e 3a72 cfbe 3f98 a33e ece8 8abd
00000040: 6796 85bd cd37 f9be eedb 20bf ce97 2f3e
00000050: fd67 32be c625 77be bdc9 dbbe adea 023f
00000060: 9853 1e3f 8421 edbe 64fa 93bd 302e 4f3f
00000070: 6077 ecbe 5a9a 663e 9326 81be ac0a 77be
00000080: 07fc 97bd 8494 293f 498d 1cbd 31f3 f43c
00000090: 55cd 56be 0af8 343e 9089 a9be 04d7 5cbe
000000a0: 803a 13bf 9c84 4abd 156d 49bf f8ac aa3e
000000b0: 7a3b 18be f187 3cbf 116c 683e e19d b6bc
000000c0: de4c 0b3f ba3d 8f3e cc00 70bd b848 143f
000000d0: 8485 1d3e 88dc 9fbd 22cd 6c3e c628 ec3e
000000e0: 3b0f d1be 28a3 e63d 87c1 013e 8003 7f3e
000000f0: fa1d 89be 0e8a 67bb 3b62 2e3f 910f 29be

encoder_layer_mhattentions.1.attention_heads.0.Q.bias f4 [8]
-0.21762991 -0.83119553 -0.20352891 0.032284085 -1.1206092 0.4003464 0.2834678 0.11243512
00000000: 60da 5ebe 3bc9 54bf e269 50be 513c 043d
00000010: 1f70 8fbf 34fa cc3e b122 913e 6244 e63d

encoder_layer_mhattentions.1.attention_heads.0.K.weight f4 [8, 8]
0.5251966 -0.1609677 0.11606228 -0.030005598 0.2713287 0.16740507 -0.9031017 -0.3369814
-0.11611132 0.6410797 0.90837276 -0.50991064 0.24450989 -0.26278812 -0.2860222 -0.1801227
-0.08788146 0.12219806 0.56494397 0.59061295 -0.25172985 0.08678743 0.18149567 -0.3991193
0.5140009 0.5639136 -0.06159749 -0.3382754 0.15089718 -0.06517617 0.30382493 -0.7893347
0.10928307 -0.29202113 0.1872068 -0.07380642 0.31744102 -1.0680382 0.4651433 -0.38909996
-0.19578458 0.29429302 0.3445228 -0.121138275 -0.25684536 0.64449936 0.24603176 0.25092936
-0.54054946 0.2979418 -0.21748176 -0.33715063 -0.036458455 0.27615458 -0.12859602 -0.5079772
0.12826844 -0.11431661 0.094493754 -0.29968974 0.337344 0.48832512 0.3502395 0.31980544
00000000: 4973 063f b7d4 24be 10b2 ed3d 4dce f5bc
00000010: 98eb 8a3e 3c6c 2b3e ac31 67bf d388 acbe
00000020: c6cb edbd cd1d 243f 1e8b 683f 8189 02bf
00000030: cd60 7a3e 2a8c 86be 8071 92be 1672 38be
00000040: 32fb b3bd fa42 fa3d 2ba0 103f 6932 173f
00000050: bce2 80be 9cbd b13d 00da 393e 5d59 ccbe
00000060: 9095 033f a45c 103f a64d 7cbd 6f32 adbe
00000070: ca84 1a3e 157b 85bd f18e 9b3e d711 4abf
00000080: cdcf df3d cb83 95be 24b3 3f3e d227 97bd
00000090: a187 a23e 7ab5 88bf 4327 ee3e 1c38 c7be
000000a0: c17b 48be 93ad 963e 4b65 b03e 5817 f8bd
000000b0: 3c81 83be e9fd 243f c0ef 7b3e d079 803e
000000c0: 7361 0abf d48b 983e 8ab3 5ebe 029f acbe
000000d0: 7655 15bd 2264 8d3e adae 03be cb0a 02bf
000000e0: cd58 033e d41e eabd f185 c13d ef70 99be
000000f0: 5ab8 ac3e c005 fa3e 9752 b33e 8abd a33e

encoder_layer_mhattentions.1.attention_heads.0.K.bias f4 [8]
0.20786272 -0.35007715 0.33669904 0.111413576 -0.26382956 -0.2172554 0.32199943 -0.09677149
00000000: f7d9 543e 503d b3be d163 ac3e cd2c e43d
00000010: ab14 87be 3378 5ebe 1cdd a43e 2230 c6bd

encoder_layer_mhattentions.1.attention_heads.0.V.weight f4 [8, 8]
0.12377163 0.0073322193 0.08788499 -0.26529452 -0.0755497 0.23526296 -0.19538099 -0.04411516
-0.098698564 -0.034115672 -0.114697926 -0.21481934 -0.035473526 -0.0835222 -0.023321358 -0.22127914
-0.18894754 0.16764756 0.20046635 0.053643562 0.18081251 -0.044908393 -0.038411386 -0.061568115
0.019432208 -0.10021252 0.008980528 -0.3159027 0.005623575 -0.046259914 -0.05426553 -0.12987334
-0.51528203 -0.055987295 0.19136801 -0.07970834 -0.022895345 0.0142618 0.02668945 0.21088466
0.2270654 0.20616886 0.037949435 -0.03170625 0.014012355 -0.20820537 -0.11527336 0.14825654
0.09115296 0.16715798 -0.06516769 0.031164886 0.09570735 0.047537256 0.009025899 0.08066812
0.022243094 -0.15422778 0.0779406 -0.057212733 0.12873308 -0.13916813 -0.10183158 -0.053899843
00000000: fb7b fd3d 1d43 f03b 0cfd b33d afd4 87be
00000010: cdb9 9abd c6e8 703e f411 48be 19b2 34bd
00000020: 7922 cabd e0bc 0bbd bfe6 eabd 9af9 5bbe
00000030: b04c 11bd b00d abbd 6f0c bfbc 0097 62be
00000040: 777b 41be cdab 2b3e 0d47 4d3e 5ab9 5b3d
00000050: ea26 393e ddf1 37bd 4255 1dbd d92e 7cbd
00000060: 4b30 9f3c 393c cdbd 1123 133c 00be a1be
00000070: f745 b83b 097b 3dbd 8845 5ebd 84fd 04be
00000080: 86e9 03bf ef52 65bd faf5 433e 203e a3bd
00000090: 058f bbbc 53aa 693c d5a3 da3c 26f2 573e
000000a0: d583 683e ee1d 533e de70 1b3d 6ade 01bd
000000b0: 1494 653c ca33 55be 7014 ecbd 90d0 173e
000000c0: 67ae ba3d 762b 2b3e a376 85bd 814d ff3c
000000d0: 3702 c43d 6db6 423d 5de1 133c 5435 a53d
000000e0: 2637 b63c e3ed 1dbe 529f 9f3d e657 6abd
000000f0: 9bd2 033e 1782 0ebe 138d d0bd 15c6 5cbd

encoder_layer_mhattentions.1.attention_heads.0.V.bias f4 [8]
-0.118572526 -0.004671278 0.100270905 -0.017147152 0.093445145 0.045846924 -0.009915258 -0.005974384
00000000: 27d6 f2bd 8511 99bb d55a cd3d 2f78 8cbc
00000010: 2b60 bf3d fcc9 3b3d 9b73 22bc c4c4 c3bb

encoder_layer_mhattentions.1.attention_heads.1.Q.weight f4 [8, 8]
-0.23926792 0.049166594 -0.15239114 0.36287394 -0.18505771 0.031360198 -0.33867237 -0.0758568
0.07000091 -0.025315957 0.22440247 -0.33417034 -0.470262 0.09599044 0.3158797 0.32668564
-0.32987013 -0.21216255 0.22819981 0.36839265 -0.5830636 0.095112726 0.013817941 0.6350058
0.24629037 -0.22630264 0.04231637 -0.30473733 0.07153682 0.14120507 0.17143416 0.2649027
-0.07484655 0.05023832 -0.49653798 0.29034925 0.15301895 0.37261274 -0.46461585 0.25077114
0.095347114 -0.07850462 -0.32247525 0.1634605 -0.71879613 -0.14221293 -0.9604034 0.44609386
-0.31813857 -0.033687633 -0.41746396 0.042283934 0.30984792 0.07143994 -0.79038763 0.6132278
-0.353731 -0.07407521 0.26987052 0.0021327874 0.4004765 -0.39757848 0.04766459 -0.9326434
00000000: a602 75be e962 493d 6c0c 1cbe 9dca b93e
00000010: c57f 3dbe 8d73 003d 7766 adbe cf5a 9bbd
00000020: a35c 8f3d 6963 cfbc c3c9 653e 6018 abbe
00000030: 2ec6 f0be a396 c43d fcba a13e 5743 a73e
00000040: bde4 a8be 2441 59be 36ad 693e f69d bc3e
00000050: a843 15bf 76ca c23d a564 623c bd8f 223f
00000060: 8b33 7c3e e1bb 67be ee53 2d3d 8806 9cbe
00000070: e581 923d 1098 103e 708c 2f3e 54a1 873e
00000080: 2649 99bd b2c6 4d3d 3a3a febe a8a8 943e
00000090: 00b1 1c3e 19c7 be3e 21e2 edbe 1365 803e
000000a0: 5945 c33d 08c7 a0bd 7a1b a5be 3062 273e
000000b0: 0603 38bf 44a0 11be ffdc 75bf 6a66 e43e
000000c0: 0fe3 a2be 0bfc 09bd d6bd d5be eb31 2d3d
000000d0: 63a4 9e3e 1a4f 923d d856 4abf 7ffc 1c3f
000000e0: 3b1c b5be beb4 97bd 782c 8a3e 3cc6 0b3b
000000f0: 410b cd3e 688f cbbe f23b 433d b8c1 6ebf

encoder_layer_mhattentions.1.attention_heads.1.Q.bias f4 [8]
-0.1320294 -0.024759628 -0.3059967 0.051184256 -0.08863412 -0.61827064 0.10388483 -0.095302925
00000000: b732 07be b4d4 cabc 99ab 9cbe 95a6 513d
00000010: ce85 b5bd fc46 1ebf 92c1 d43d 2e2e c3bd

encoder_layer_mhattentions.1.attention_heads.1.K.weight f4 [8, 8]
0.13341331 -0.06666876 -0.18221393 0.32647538 -0.33532667 0.10170179 0.1836004 0.1282171
-0.09904647 -0.11559835 0.35691187 -0.13230994 0.12839156 -0.03286407 0.19672132 -0.34003145
0.22045738 -0.35566944 0.17115809 -0.023968557 0.010388214 0.33148858 0.47430646 -0.08393789
-0.037770923 0.386318 0.22061567 -0.4268096 0.28699088 -0.049845207 0.09530009 -0.1975721
0.18530107 -0.021797663 0.047364227 0.072141886 -0.7474491 0.3914406 0.006855263 0.29527095
-0.05012323 -0.18125618 -0.23420176 0.53854907 -0.34567937 0.68651164 0.95358574 0.17325528
0.2520084 -0.010135238 -0.13547748 0.10998709 -0.99006814 0.51250756 0.36249843 -0.3253744
0.07730925 -0.021381482 -0.7193466 0.12817043 0.39565423 -0.2632338 -0.38666126 0.4019366
00000000: 809d 083e a189 88bd 4a96 3abe c827 a73e
00000010: f0af abbe 0749 d03d be01 3c3e 584b 033e
00000020: e0d8 cabd d4be ecbd 27bd b63e 427c 07be
00000030: 1479 033e 7a9c 06bd 5071 493e 9a18 aebe
00000040: 94bf 613e 4e1a b6be 1144 2f3e b559 c4bc
00000050: 5433 2a3c dfb8 a93e 4cd8 f23e a1e7 abbd
00000060: afb5 1abd 79cb c53e 13e9 613e ca86 dabe
00000070: 78f0 923e 7d2a 4cbd b22c c33d 5750 4abe
00000080: 90bf 3d3e 0391 b2bc fe00 423d 20bf 933d
00000090: d358 3fbf e76a c83e 1da2 e03b c12d 973e
000000a0: 044e 4dbd 389b 39be 96d2 6fbe 5ade 093f
000000b0: e3fc b0be 3abf 2f3f 321e 743f d569 313e
000000c0: 3f07 813e 450e 26bc 9cba 0abe e940 e13d
000000d0: 1b75 7dbf b233 033f 6599 b93e 7997 a6be
000000e0: 5054 9e3d 3828 afbc 1927 38bf 1c3f 033e
000000f0: 3193 ca3e 95c6 86be 77f8 c5be a2ca cd3e

encoder_layer_mhattentions.1.attention_heads.1.K.bias f4 [8]
0.010723006 -0.025404058 0.1674536 -0.05133709 -0.08484837 0.10990628 -0.31378445 0.073042355
00000000: 8caf 2f3c 2c1c d0bc f578 2b3e d746 52bd
00000010: fbc4 adbd 8b16 e13d 5ba8 a0be 3b97 953d

encoder_layer_mhattentions.1.attention_heads.1.V.weight f4 [8, 8]
0.1629215 -0.038634133 0.21490023 -0.12672803 -0.24051283 0.06522822 0.43334478 0.06725439
0.014682547 -0.03855561 0.20703954 0.3333396 -0.327121 -0.18157226 -0.08974601 -0.26483145
0.13580622 -0.09381226 -0.055256434 -0.31664008 -0.07748672 0.09675693 -0.008053061 -0.28785822
0.1503612 0.13162118 -0.32471812 0.1970638 0.19160338 0.20388079 0.1962682 -0.1639218
0.5012404 -0.07849198 -0.17969158 0.08689371 -0.14539096 -0.03916983 0.30854902 0.15420872
-0.26839378 0.08371104 -0.14623737 -0.012795776 0.04539477 -0.06803989 -0.0381773 -0.24309915
-0.020476062 0.041591268 0.0058487365 -0.007639167 0.17671423 0.026781954 0.02789117 -0.020535227
-0.42125782 0.43921474 0.06557449 -0.3503551 -0.38443935 0.07332229 -0.06578297 0.16213916
00000000: e5d4 263e d33e 1ebd ce0e 5c3e fec4 01be
00000010: ff48 76be 5f96 853d 5edf dd3e abbc 893d
00000020: 118f 703c 7dec 1dbd 2c02 543e 7dab aa3e
00000030: 677c a7be 14ee 39be c2cc b7bd fd97 87be
00000040: c910 0b3e a420 c0bd 9254 62bd a61e a2be
00000050: 5cb1 9ebd 7f28 c63d fcf0 03bc 2762 93be
00000060: 49f8 193e b4c7 063e 7441 a6be 18cb 493e
00000070: ad33 443e 20c6 503e 88fa 483e 1edb 27be
00000080: 4a51 003f 67c0 a0bd 1201 38be 54f5 b13d
00000090: 5ee1 14be 8b70 20bd 23fa 9d3e e4e8 1d3e
000000a0: e96a 89be b270 ab3d 40bf 15be 60a5 51bc
000000b0: deef 393d 7f58 8bbd cd5f 1cbd fcee 78be
000000c0: 6abd a7bc 9b5b 2a3d c2a6 bf3b fa51 fabb
000000d0: 93f4 343e d465 db3c 067c e43c 7e39 a8bc
000000e0: 1baf d7be c1e0 e03e eb4b 863d be61 b3be
000000f0: 3cd5 c4be ff29 963d 39b9 86bd cf07 263e
