models/model_chkpt_0.pt (torch, 318486 bytes, 387 tensors)

tokenizer.token_embedding.weight f4 [17, 32]
0	0xbf10587d	-0.5638502
1	0xbf9e3087	-1.2358559
2	0x3ea4d284	0.3219186
3	0x3f8eb3e9	1.1148654
4	0x3fa252dd	1.2681538
5	0x3f585a17	0.84512466
6	0x3ed83159	0.4222515
7	0x3f28c19f	0.6592044
8	0xbfe8f769	-1.8200504
9	0xbfaba6ac	-1.3410239
10	0xbe63e5d9	-0.22255649
11	0x3c3fd2cf	0.0117079755
12	0xbf910224	-1.1328778
13	0x3c273ed3	0.01020785
14	0xbe44e144	-0.19226557
15	0x3e435cd1	0.19078375
16	0xbf39156c	-0.7229831
17	0x3d8d95ef	0.06913363
18	0xbf3f5a5d	-0.7474726
19	0xbe8b0fc0	-0.27160454
20	0xbec88e8b	-0.39171252
21	0xbff1bda5	-1.8886
22	0x3f9a9891	1.207781
23	0x3fa28d67	1.2699403
24	0xbef7430d	-0.48293343
25	0x3f4a4f8d	0.79027635
26	0x3f9c4d19	1.2211028
27	0x3e896fed	0.26843205
28	0xbf81c62f	-1.0138606
29	0xc0062d78	-2.0965252
30	0x3f8d6b76	1.104842
31	0xbfbd27c1	-1.4777757
32	0xbf356225	-0.7085288
33	0xbf88497c	-1.0647426
34	0x3f848c05	1.035523
35	0xbf7b32fa	-0.9812466
36	0x3fbfbc68	1.4979372
37	0x3cad7631	0.021174522
38	0xbf2fb77b	-0.68639344
39	0xbe1e75d9	-0.15474643
40	0xbf14d975	-0.58144313
41	0xbfc93967	-1.5720643
42	0xbd8fcd10	-0.070215344
43	0xbe07340e	-0.13203451
44	0xbf889d19	-1.0672942
45	0xbe2f80b0	-0.17138934
46	0xbf2d6032	-0.6772491
47	0xbc84fbd9	-0.016233372
48	0x3f9da62f	1.231634
49	0xbf4afd29	-0.7929254
50	0xbf13ea95	-0.5777982
51	0x3f4a4d7d	0.7902449
52	0x3f406b15	0.75163394
53	0x3e446a9e	0.19181296
54	0x3f3299d5	0.6976598
55	0x3f7c6bd5	0.9860204
56	0xbfa10545	-1.2579733
57	0xbf5976b2	-0.8494674
58	0x3f43fe49	0.76559883
59	0x3e18bbf3	0.14915447
60	0xbf9bc101	-1.2168275
61	0xbf82f607	-1.0231332
62	0xbea8cb07	-0.32967398
63	0x3fa1ce4c	1.2641082
64	0x3f0f395e	0.5594691
65	0x3f727eb6	0.94724596
66	0x3d53f56f	0.051747736
67	0xbf2992cb	-0.66239613
68	0x3ff52964	1.9153256
69	0x3e7af273	0.2450655
70	0x3ed8011e	0.42188352
71	0xbf0bcc4a	-0.54608595
72	0xbf0f7531	-0.56038195
73	0xbf6a7965	-0.91591483
74	0xbec35b06	-0.38155383
75	0x3fc86160	1.5654716
76	0xbe81bef4	-0.25340998
77	0xbfc0454f	-1.5021151
78	0x3e32c847	0.17459212
79	0x3dba7c6d	0.091057636
80	0x3e83b220	0.25721836
81	0x3fe6dec1	1.8036729
82	0xbf36e5e0	-0.7144451
83	0xbfa143d8	-1.2598829
84	0x3e1f7754	0.15572864
85	0xbe596fdf	-0.21234082
86	0x3e47cdfa	0.19512168
87	0xbfdc53db	-1.7213091
88	0xbf15243a	-0.582584
89	0x3fb0c256	1.3809307
90	0x3ecaf297	0.39638206
91	0x3f932bb5	1.1497713
92	0x3f7270d8	0.94703436
93	0x3da550f2	0.0807208
94	0xbd219d72	-0.039456792
95	0xbf28dbf3	-0.65960616
96	0xbf9ae84d	-1.2102143
97	0x3ee2f29e	0.44325727
98	0xbebe65b4	-0.37186968
99	0xbbceae82	-0.006307424
100	0x3f09542d	0.5364407
101	0xbf253370	-0.6453161
102	0x400dadc4	2.2137308
103	0x3ea0b33b	0.31386742
104	0xbf9be989	-1.2180644
105	0x3f73e453	0.9527027
106	0xbfd6fefd	-1.6796566
107	0x3fb3e17b	1.4053186
108	0x3ef61386	0.4806177
109	0x3ed818d6	0.42206448
110	0xbeff1c80	-0.4982643
111	0xbdd0318e	-0.10165702
112	0xbed12532	-0.4084869
113	0x3f0212c6	0.50809896
114	0x3f3d3727	0.7391228
115	0xbeb984ff	-0.3623428
116	0xbf4a243b	-0.78961533
117	0x3f634ac5	0.88785964
118	0x3f2ac937	0.6671328
119	0xbf46411b	-0.77443093
120	0xbfd407a5	-1.6564833
121	0x3f10af98	0.56517935
122	0x3eaa11de	0.33216757
123	0xbeb0e01a	-0.34545976
124	0x3e153d98	0.14574277
125	0x3f6db2e7	0.9285111
126	0x3ea6567a	0.3248785
127	0x3f296873	0.66175
128	0xbf8a4f86	-1.0805519
129	0xbf83a2f1	-1.0284101
130	0x3f2cf56d	0.6756199
131	0x3f46e981	0.7770005
132	0xbe70c1aa	-0.23511377
133	0xbf9e22df	-1.2354392
134	0x3fb0f2bd	1.3824078
135	0xbf3df68a	-0.74204314
136	0x3f198e76	0.59983003
137	0xbee0bfc0	-0.43896294
138	0x3cf4f3d5	0.029901424
139	0x3ffa338f	1.9546984
140	0x3dcb9fb2	0.09942569
141	0x3f1d7e41	0.61520773
142	0xbfbffca3	-1.4998974
143	0x3f3e039c	0.7422426
144	0xbd1131d7	-0.03544792
145	0xbf7a3511	-0.9773722
146	0x3f6dcc0b	0.9288947
147	0xbe733048	-0.23748887
148	0xbf793d80	-0.97359467
149	0x3f8a8999	1.0823241
150	0xbea5f3da	-0.32412606
151	0xbeeddb33	-0.46456298
152	0xbfb900b5	-1.4453341
153	0xbea0c18e	-0.3139767
154	0xbf9c745f	-1.2223014
155	0x3e23bb40	0.15989399
156	0xbe5e6b57	-0.21720634
157	0x3fb78b9b	1.4339479
158	0xbfed70d2	-1.8550055
159	0xbfa6b458	-1.3023787
160	0x3f7d089c	0.9884126
161	0x3f2d8336	0.67778337
162	0x3fcb816d	1.5898873
163	0x3f335670	0.7005377
164	0xbf0c51c5	-0.5481227
165	0x3f7feb93	0.9996883
166	0xbe26d6d0	-0.16292882
167	0x3fd47003	1.6596683
168	0x3c56007e	0.013061641
169	0x3ef0431e	0.46926206
170	0x3ec9640d	0.39334145
171	0x3f073b45	0.52824813
172	0xbe9a62bf	-0.30153462
173	0x3ebb54be	0.3658809
174	0x3ef63252	0.48085266
175	0x3e8e166c	0.27751482
176	0x40112404	2.2678232
177	0x3f10372d	0.5633419
178	0x3ebf579a	0.37371522
179	0xbf65cd07	-0.8976597
180	0x3f51cf4d	0.8195694
181	0xbf7a79f5	-0.9784234
182	0x3db068f2	0.08613767
183	0x3f1ba715	0.6080182
184	0x3efe7e89	0.49705914
185	0xbed5443f	-0.4165363
186	0x3e197b93	0.14988546
187	0x3e8d9d5f	0.27659127
188	0xbe8d3a48	-0.27583528
189	0x3eb11e42	0.34593397
190	0xbfa95eab	-1.3232015
191	0xbf4aceeb	-0.7922198
192	0x3f39c63a	0.72568095
193	0xbf6f7f50	-0.9355364
194	0xbee06d87	-0.43833563
195	0xbf9ad942	-1.2097552
196	0xbeb63878	-0.35589957
197	0xbf83269e	-1.024616
198	0xbe85dbed	-0.26144353
199	0xbee7c966	-0.45270842
200	0xbf3132b3	-0.69217986
201	0x3f103ad0	0.5633974
202	0x3f2b9d28	0.67036676
203	0x3e97be3b	0.29637322
204	0xbde1de26	-0.110286996
205	0xbe415151	-0.18878676
206	0xbf00f2f5	-0.50370723
207	0x3d216976	0.039407216
208	0x3f367590	0.71273136
209	0x3f4873d0	0.78301716
210	0xbf0a4984	-0.54018426
211	0x3ed58800	0.41705322
212	0x3f4d8659	0.80283123
213	0xbe3f124b	-0.18659322
214	0x3f338570	0.70125484
215	0x3f9e286d	1.2356087
216	0xbf552e48	-0.83273745
217	0x3edc8d73	0.43076667
218	0xbe00185c	-0.12509292
219	0xbf168323	-0.5879385
220	0xbe0e0854	-0.13870364
221	0x3fde0e4b	1.7348112
222	0x3ea8d4d1	0.32974866
223	0x3effd5e2	0.49967867
224	0xbeee338b	-0.465237
225	0x3ebf30a7	0.37341806
226	0x4001c22d	2.0274765
227	0x3f5ce073	0.8627998
228	0x3f8a719c	1.0815921
229	0xbfe60393	-1.7969841
230	0xbf7c9789	-0.98668724
231	0xbf0e581e	-0.55603206
232	0x3f24353f	0.6414375
233	0xba1302e4	-0.0005608036
234	0x3f576846	0.84143484
235	0x3ea6f718	0.32610393
236	0xbf145cf4	-0.57954335
237	0xbf413b7c	-0.7548139
238	0x3f110727	0.5665154
239	0xbf8f2475	-1.1183001
240	0x3f1b36c4	0.6063044
241	0x3d9174c8	0.071023524
242	0xbf915c9e	-1.135639
243	0xbf1339c8	-0.5751004
244	0x3f8a8e39	1.0824653
245	0x3cf79f91	0.030227454
246	0x3e1ff185	0.15619476
247	0xbe66c759	-0.22536983
248	0x3f607329	0.8767572
249	0xbee3e3a1	-0.44509605
250	0xbe875134	-0.2642914
251	0x3e50e645	0.20400341
252	0xbf95cec8	-1.170373
253	0x3edb51f0	0.4283595
254	0xbf041e66	-0.51608884
255	0xbf3ee64d	-0.7457016

tokenizer.positional_embedding.weight f4 [9, 32]
0	0x3f56bbe3	0.8388044
1	0xbf1f577b	-0.6224286
2	0x3d332301	0.043734554
3	0x3f60ec23	0.87860316
4	0xbd3c89d6	-0.046029888
5	0x3ff64aee	1.9241617
6	0xbc033b17	-0.008009694
7	0xbf299fad	-0.6625927
8	0xbe33f363	-0.17573313
9	0xbdec3de0	-0.11535239
10	0x400994fa	2.1497178
11	0xbfbbb071	-1.4663221
12	0xbed0700b	-0.40710482
13	0x3eaf0786	0.34185427
14	0x3f000d85	0.5002063
15	0x3f3a3869	0.72742325
16	0xbe2a513d	-0.16632552
17	0xbf42593b	-0.75917405
18	0x3facec35	1.3509585
19	0x3f598702	0.8497163
20	0x3f394f4f	0.7238664
21	0xbd9cc123	-0.076540254
22	0xbe07f3fc	-0.13276666
23	0x3f5885f7	0.84579414
24	0xbed1b50f	-0.4095845
25	0x3f771a7c	0.96524787
26	0x3fa07c6d	1.2537972
27	0x3e181de1	0.14855148
28	0xbf343261	-0.7038937
29	0x3e47c014	0.19506866
30	0xbe0a3b28	-0.13499129
31	0xbfcd69a1	-1.604786
32	0x3fb8dc98	1.444232
33	0xbd40e825	-0.04709639
34	0x3f82090c	1.0159011
35	0x3f8c6b0d	1.0970169
36	0x400bbff9	2.183592
37	0x3dffed76	0.12496464
38	0x3ea23f7c	0.3168906
39	0xbf10e306	-0.5659641
40	0x40012d2b	2.0183818
41	0xbe17ed2c	-0.14836568
42	0xbf84b1b9	-1.0366737
43	0xbe421789	-0.1895429
44	0xbed6fc23	-0.4198924
45	0x3f0018d1	0.50037867
46	0x3f965779	1.1745445
47	0xbfa41c38	-1.2821112
48	0xbd665a06	-0.056238197
49	0xbfd03758	-1.626689
50	0x3e3f68c9	0.18692316
51	0xbfc6791f	-1.5505713
52	0x3fadb482	1.3570712
53	0x3df162cf	0.11786424
54	0x3f857c63	1.0428585
55	0x3f003577	0.5008158
56	0x3f258aee	0.64665115
57	0x3eba5e17	0.3639991
58	0x3fee0b37	1.8597172
59	0xbfb62049	-1.4228603
60	0x3e9f81a9	0.3115361
61	0x3f26c837	0.65149254
62	0x400b2371	2.1740382
63	0xbeaa38dc	-0.33246505
64	0xbe19ad30	-0.15007472
65	0x3f9e9f7b	1.239242
66	0x3e989b11	0.29805806
67	0xbfd452e5	-1.6587797
68	0xbe885150	-0.26624537
69	0xbf1cdf6a	-0.612784
70	0xbf55f229	-0.8357263
71	0x3f95eb57	1.1712445
72	0x3f8aed6f	1.0853709
73	0x3f2a4f63	0.66527385
74	0xbfaa375e	-1.3298147
75	0xc004d9f6	-2.0758033
76	0x3fb7f93d	1.4372936
77	0x3ea82682	0.3284188
78	0xbfcc2b0a	-1.5950634
79	0x3fb7f6ff	1.4372252
80	0x3ccc5596	0.024943154
81	0x3ec09c42	0.37619215
82	0xbf75c534	-0.96004033
83	0xbe8bff1a	-0.27343065
84	0x3fafe26f	1.3740977
85	0xbf689621	-0.9085408
86	0xbf6f4ce4	-0.934767
87	0xbdcfc1cb	-0.10144385
88	0x3d18cc3c	0.037304148
89	0xbf08057f	-0.53133386
90	0xbf01f73f	-0.5076789
91	0xbf9208b1	-1.1408902
92	0xbed71fd4	-0.4201647
93	0xbf7e0fe4	-0.99243
94	0x3f0ec445	0.55768234
95	0xbfea162f	-1.828802
96	0xbe82a460	-0.25516033
97	0xc0025a8b	-2.0367763
98	0xbfc4afa6	-1.5366104
99	0xbeae9da0	-0.34104633
100	0xbe4b9823	-0.19882254
101	0xbe8abb70	-0.27096128
102	0x3f08dbc9	0.53460366
103	0xbf8b5711	-1.0885946
104	0xbee3153a	-0.44352132
105	0xbee4abaf	-0.44662234
106	0xbe9038c6	-0.28168315
107	0xbfa6f43b	-1.3043283
108	0x3fff5e04	1.9950566
109	0xbfac5c9d	-1.3465763
110	0xbf8c42c6	-1.0957878
111	0xbe370b44	-0.17875391
112	0xbf947be1	-1.1600305
113	0xbfe5ad7f	-1.7943572
114	0xbd52861b	-0.051397424
115	0xc02d110b	-2.7041652
116	0x3fdd594e	1.7292879
117	0x3e6c72fb	0.23090737
118	0xbf0323a0	-0.51226234
119	0xbfb62728	-1.42307
120	0x3ed07e07	0.4072115
121	0x3f3b6edc	0.73216033
122	0x3ee158a5	0.44012943
123	0xbf48aaa8	-0.783854
124	0x3cfcdc69	0.030866819
125	0x3dd8a021	0.10577417
126	0xbeb246c8	-0.34819627
127	0xbf191234	-0.597934
128	0x3f8edbfd	1.1160885
129	0x3efb341c	0.49063194
130	0x3ebd0f4e	0.3692574
131	0xbf695759	-0.91148907
132	0x3f385f27	0.7202019
133	0xbf643a1c	-0.8915117
134	0xbe4de2bc	-0.20106024
135	0x3dc8628d	0.09784422
136	0xbe3ee443	-0.18641762
137	0x3f18bd0d	0.5966347
138	0x3f95d29a	1.1704895
139	0x3f2049e0	0.62612724
140	0xbf06580d	-0.52478105
141	0xbe37c62c	-0.1794669
142	0xbd0bbf2b	-0.03411786
143	0x3e152b21	0.14567234
144	0x3f4a820d	0.7910469
145	0xbf3c1e3c	-0.73483634
146	0x3f93f47c	1.1558986
147	0x3e847cc9	0.25876454
148	0x3f87d15d	1.0610768
149	0x3f3b9d2c	0.732867
150	0xbeb8c5dc	-0.36088455
151	0xbe60e531	-0.2196243
152	0x3f13467c	0.57529426
153	0xbe593ed2	-0.2121537
154	0xbec86aa6	-0.39143866
155	0xbd632d93	-0.055463385
156	0x4001cd4e	2.0281558
157	0x3e66eb56	0.22550711
158	0x3fa3a655	1.2785136
159	0x3fbbcee6	1.4672515
160	0xbdc9710b	-0.09836014
161	0xbf2affcc	-0.66796565
162	0x3f3bdfab	0.73388165
163	0xbf80f222	-1.0073893
164	0xbe4d174f	-0.20028423
165	0x3eb226e7	0.34795305
166	0x3fb1f5f0	1.3903179
167	0x3cf0440b	0.02932932
168	0xbedb95c5	-0.42887703
169	0x3ee3e830	0.44513083
170	0xbeab498e	-0.33454555
171	0x3eccd559	0.4000652
172	0x3e1bd887	0.15219317
173	0x3f278c07	0.6544804
174	0x3ef2277d	0.47295752
175	0xbf981292	-1.1880667
176	0xbfca859c	-1.5822024
177	0x3da65a7f	0.081227295
178	0xbef10dcb	-0.47080836
179	0x3f728471	0.9473334
180	0xbe86b15e	-0.26307195
181	0x3fb5f476	1.4215229
182	0xbe3a8731	-0.18215634
183	0x3f3ab9c1	0.7293969
184	0x3e838945	0.25690666
185	0x3ea33c63	0.3188201
186	0xc03387e8	-2.80517
187	0xbd15c54c	-0.03656511
188	0x3e5dd40e	0.21662924
189	0x3f166405	0.5874637
190	0x3d07d812	0.033165045
191	0x3eebc363	0.46047506
192	0xbe9156f2	-0.28386647
193	0x3f00b0ed	0.5026997
194	0x3da7c3c7	0.081916384
195	0xbf0133f2	-0.5046989
196	0x3e9c509b	0.30530247
197	0xbfb30443	-1.3985676
198	0xc035eefe	-2.842712
199	0xbf4d4ce2	-0.8019544
200	0xbf2e7acc	-0.68156123
201	0xc00c7adc	-2.1949987
202	0xbf1b8848	-0.60754824
203	0xbdb536e2	-0.08848359
204	0xbfd7dee4	-1.6864896
205	0x3f8c7d8d	1.0975815
206	0xbe39216a	-0.18079153
207	0x3fd132fc	1.6343684
208	0x3f309ad1	0.6898623
209	0xbf78492b	-0.96986645
210	0xbfd45dd6	-1.6591136
211	0xbe734773	-0.23757724
212	0xbf0aff00	-0.5429535
213	0x3fa45dc5	1.2841116
214	0x3fe62bac	1.7982078
215	0xbf1d1c83	-0.6137163
216	0xbeb9dae4	-0.36299813
217	0xbd99a31e	-0.07501815
218	0x3f7a6c98	0.9782195
219	0x3e862a54	0.2620417
220	0xbee3759c	-0.44425666
221	0x3fee2ea0	1.8607979
222	0x3fc3f72d	1.5309807
223	0x3e5c9d93	0.21544485
224	0xbfd0e0e6	-1.6318634
225	0x3fa4d005	1.2875983
226	0xc01187ae	-2.2739062
227	0xbe599397	-0.21247707
228	0xbecb73ec	-0.3973688
229	0x3f7ab704	0.9793551
230	0x3dbd1740	0.0923295
231	0x3f9613be	1.1724775
232	0x3fcc4a4f	1.5960177
233	0xbf87987a	-1.0593407
234	0xbf19cb24	-0.60075593
235	0x3fcdab8c	1.6067977
236	0xbfa59c7e	-1.2938383
237	0xbf26417d	-0.6494368
238	0xbebb7a16	-0.36616582
239	0x3fa44b35	1.2835451
240	0x3d94914d	0.072542764
241	0x3f88aac6	1.0677116
242	0x3f823401	1.017212
243	0xc019d9b5	-2.4039128
244	0x3e0b65d5	0.13613065
245	0x3f2cef08	0.6755223
246	0xbf783f12	-0.9697124
247	0xbfc4bfed	-1.5371071
248	0xbe3c715d	-0.1840262
249	0xc021e1e2	-2.5294118
250	0x3cfb40c7	0.030670537
251	0xbe9f0aaf	-0.31062838
252	0xbfeaea84	-1.8352818
253	0xbe63bf3e	-0.22240922
254	0x3d8a57c1	0.06755019
255	0x3f5c58a3	0.8607275

encoder_layer_mhattentions.0.attention_heads.0.Q.weight f4 [8, 8]
0	0xbc9e1c6d	-0.019300664
1	0x3e83d76a	0.25750285
2	0xbe048ebe	-0.12945077
3	0x3e87c84c	0.26520002
4	0xbd9f5446	-0.07779746
5	0x3de7c0c6	0.113160655
6	0xbe9f4b1c	-0.3111199
7	0xbe14d20e	-0.14533255
8	0x3dc89c37	0.097954206
9	0xbdf006e3	-0.117200635
10	0xbe4dd124	-0.20099312
11	0x3c27942b	0.010228197
12	0xbdc58ebe	-0.096463665
13	0xbe2f6a28	-0.17130339
14	0xbe86389d	-0.26215068
15	0x3e3048e5	0.17215307
16	0x3d8158d8	0.06315774
17	0x3e6c347e	0.23066899
18	0x3e9ecc29	0.31015137
19	0x3e252eac	0.16131085
20	0x3d680e04	0.05665399
21	0xbe14bbd4	-0.14524776
22	0x3dc07f9f	0.09399342
23	0xbe3a73e5	-0.18208273
24	0xbe95f723	-0.29290113
25	0x3e435831	0.19076611
26	0x3e1a9b0a	0.15098205
27	0xbd72c341	-0.05926824
28	0x3e8ff92b	0.28119788
29	0x3db7ac1c	0.08968374
30	0xbe08695e	-0.13321444
31	0x3c87e397	0.016588015
32	0xbd071aa8	-0.032984406
33	0xbe9b6855	-0.30353037
34	0xbed7bc61	-0.4213591
35	0xbe2bccca	-0.1677734
36	0xbddda37f	-0.108222
37	0xbe5a3cf2	-0.21312311
38	0x3e5dd2b0	0.21662402
39	0x3e1e8b75	0.15482886
40	0xbe8d2124	-0.27564347
41	0x3d13a66f	0.036047395
42	0xbe21fe52	-0.15819672
43	0xbe763518	-0.24043691
44	0xbdaca107	-0.08429151
45	0xbdc26e07	-0.09493642
46	0xbe72b0f5	-0.23700316
47	0x3d7dc85a	0.06195865
48	0x3eae7368	0.34072423
49	0xbd80c28d	-0.062871076
50	0x3d9c67c5	0.0763698
51	0xbed01a00	-0.40644836
52	0xbd702228	-0.058626324
53	0x3d08f362	0.033435233
54	0xbe405db6	-0.18785748
55	0xbee4d3f0	-0.44692945
56	0xbe0452fd	-0.12922283
57	0xbe007d53	-0.12547807
58	0xbe50341b	-0.20332377
59	0x3e717798	0.23580778
60	0xbe82cd0e	-0.2554707
61	0x3e9852d6	0.297507
62	0x3e1165a7	0.14198934
63	0xbeb7133f	-0.3575687

encoder_layer_mhattentions.0.attention_heads.0.Q.bias f4 [8]
0	0xbddac87e	-0.10682772
1	0xbda3cc3e	-0.079979405
2	0x3e7dabda	0.24772587
3	0xbc96cd3c	-0.01840841
4	0x3de325a5	0.110911645
5	0x3e3301ae	0.1748111
6	0x3effe203	0.4997712
7	0xbe857c89	-0.26071575

encoder_layer_mhattentions.0.attention_heads.0.K.weight f4 [8, 8]
0	0xbe9f078c	-0.31060445
1	0x3ebd3d97	0.36961052
2	0xbe9449c4	-0.2896253
3	0x3d9e0af7	0.07716935
4	0xbe56fc58	-0.20994699
5	0x3e14eddc	0.14543861
6	0xbb5f161c	-0.0034040278
7	0xb98659a2	-0.00025625253
8	0xbe7f0497	-0.24904095
9	0x3dd47e37	0.10375636
10	0xbe34a5d1	-0.17641379
11	0x3ecbf363	0.39834127
12	0x3e2e55d8	0.17024934
13	0x3e52bc6d	0.20579691
14	0x3e542ef6	0.20721039
15	0x3ed55209	0.4166415
16	0xbe195657	-0.14974342
17	0xbd2d2b16	-0.042277418
18	0xbe53139a	-0.20612946
19	0x3d8a4512	0.06751455
20	0x3e25d5ec	0.16194886
21	0x3e70f9b2	0.23532751
22	0xbea38550	-0.31937647
23	0x3dc11e00	0.0942955
24	0xbe180d0e	-0.1484873
25	0x3df98d87	0.12185197
26	0x3d48b0d6	0.04899677
27	0xbe6ae189	-0.22937597
28	0x3ed0f78b	0.4081386
29	0x3d943e49	0.072384425
30	0xbeab591b	-0.3346642
31	0xbec52cde	-0.38510793
32	0xbda86bac	-0.08223662
33	0x3ebf87e7	0.37408373
34	0x3dfa94a7	0.122353844
35	0x3e6751e2	0.2258983
36	0xbe5cb4b6	-0.21553311
37	0xbe92d681	-0.28679278
38	0xbda1d608	-0.07902151
39	0xbc85726c	-0.016289912
40	0x3e08c965	0.13358076
41	0x3e7fb3fe	0.24971005
42	0xbe826704	-0.2546922
43	0x3e900b4d	0.28133622
44	0xbe19b9e8	-0.15012324
45	0xbdcc681f	-0.09980797
46	0xbd988a9f	-0.07448315
47	0xbeabc35a	-0.3354748
48	0x3d9f00d3	0.07763829
49	0xbd9d2518	-0.07673091
50	0xbe3af673	-0.18258075
51	0xbe5e2f95	-0.21697839
52	0x3c496ee7	0.012294508
53	0x3eaa3358	0.33242297
54	0xbeb8e266	-0.36110228
55	0xbedf7962	-0.43647295
56	0x3e4d344d	0.20039482
57	0xbddddf75	-0.10833637
58	0x3e834dfa	0.2564543
59	0xbe5a800e	-0.21337911
60	0x3e3b76a2	0.18306974
61	0xbe8e76b2	-0.27824932
62	0xbe474c13	-0.19462614
63	0x3ebc6a0e	0.36799663

encoder_layer_mhattentions.0.attention_heads.0.K.bias f4 [8]
0	0x3d49c565	0.049260516
1	0x3e3d3849	0.18478502
2	0xbc31f063	-0.010860535
3	0xbdbf3a9d	-0.093373515
4	0xbe1a3cb9	-0.15062226
5	0xbdf429ad	-0.119220115
6	0xbdb7a8b9	-0.08967728
7	0xbe49ebb1	-0.19718815

encoder_layer_mhattentions.0.attention_heads.0.V.weight f4 [8, 8]
0	0x3e8743d9	0.2641895
1	0x3e0050f9	0.12530889
2	0xbe7b3419	-0.24531592
3	0x3e61514c	0.22003669
4	0xbddd236a	-0.1079777
5	0xba3b71a8	-0.000715042
6	0x3e8fc03e	0.28076357
7	0xbdb3a091	-0.0877086
8	0xbed712d8	-0.42006564
9	0x3e21d18b	0.1580259
10	0xbe878236	-0.2646653
11	0xbe9d40f8	-0.3071363
12	0x3d2a33e3	0.04155339
13	0x3e7716ed	0.24129839
14	0x3d7918d5	0.060814697
15	0xbcc9d53e	-0.024637815
16	0xbea6a3a2	-0.32546717
17	0x3ea3d36d	0.31997243
18	0x3e8b4e2f	0.27208087
19	0xbe43f317	-0.191357
20	0x3eb6d2f6	0.35707825
21	0xbda85d89	-0.082209654
22	0xbd4020f5	-0.04690643
23	0x3e72b689	0.23702444
24	0x3cc1bd4e	0.023649838
25	0x3cf19a37	0.02949248
26	0xbe2ad87c	-0.16684145
27	0xbe6b6d6d	-0.22990961
28	0xbdd0dd3d	-0.10198448
29	0x3bcf76c2	0.0063312957
30	0x3d7a8e20	0.061170697
31	0x3e820c51	0.25400022
32	0x3ee3c672	0.4448734
33	0xbea294a5	-0.31754032
34	0xbe792084	-0.2432881
35	0xbcb82c13	-0.022481954
36	0xbd43e88d	-0.0478292
37	0x3d577868	0.052605063
38	0xbe05b4e1	-0.13057281
39	0x3eaf7277	0.34267017
40	0xbe81c6e4	-0.25347054
41	0xbe5e66f2	-0.21718958
42	0xbe1b9c99	-0.15196456
43	0x3ea1b3bf	0.31582448
44	0xbe89419c	-0.26807868
45	0x3e04fc3b	0.12986843
46	0xbe78f56c	-0.24312371
47	0x3e1ded9b	0.1542267
48	0xbddfb359	-0.1092288
49	0x3e7cf7dc	0.24703926
50	0x3e56640a	0.209366
51	0x3dce5da7	0.100764565
52	0xbeb4a160	-0.3527937
53	0x3e95aab3	0.29231796
54	0xbe402a1a	-0.1876606
55	0x3ebf3e04	0.37352002
56	0xbe6973cc	-0.22798079
57	0xbea2f668	-0.31828618
58	0xbd71c29e	-0.059023492
59	0x3de969a2	0.11397101
60	0xbd8d215d	-0.06891129
61	0x3e3ac4f7	0.18239199
62	0xbeaba66c	-0.33525407
63	0x3ddc0ae0	0.10744262

encoder_layer_mhattentions.0.attention_heads.0.V.bias f4 [8]
0	0xbe8376b7	-0.2567651
1	0xbdfa6edf	-0.12228178
2	0xbe83f790	-0.25774813
3	0x3e4b9b53	0.1988347
4	0xbe8830ff	-0.2659988
5	0xbd257330	-0.040393054
6	0x3e302be0	0.17204237
7	0x3e10f255	0.14154942

encoder_layer_mhattentions.0.attention_heads.1.Q.weight f4 [8, 8]
0	0x3e0547a6	0.13015613
1	0x3e42cde2	0.1902385
2	0xbd821530	-0.063516974
3	0xbeb69895	-0.35663286
4	0x3e54e175	0.2078913
5	0xbdb182a4	-0.08667496
6	0xbe625edb	-0.22106497
7	0xbdc20976	-0.09474461
8	0xbdec384a	-0.11534174
9	0xbd872a4e	-0.06599866
10	0xbe32ea00	-0.17472076
11	0x3e300aeb	0.17191665
12	0xbeb22591	-0.34794286
13	0x3f039077	0.5139231
14	0x3e87c689	0.26518658
15	0xbeca5c90	-0.39523745
16	0xbe92a686	-0.28642672
17	0xbd998ecb	-0.07497939
18	0x3e80cdfd	0.25157157
19	0xbe6633cb	-0.22480695
20	0x3e8f848e	0.2803082
21	0x3eb2743b	0.34854302
22	0x3ee78784	0.45220578
23	0x3ded1905	0.11577038
24	0x3df837d2	0.12120022
25	0x3ddcfe10	0.10790646
26	0x3cff3d72	0.03115723
27	0x3c3bf724	0.011472497
28	0x3df003f9	0.11719508
29	0xbe8b939c	-0.27261055
30	0xbd43230b	-0.04764084
31	0xbea38af9	-0.31941965
32	0x3ecb52ce	0.39711612
33	0x3dbaab4e	0.09114705
34	0x3e540034	0.20703202
35	0x3e79cb70	0.24394011
36	0xbdbff75f	-0.09373354
37	0x3c9bfab4	0.019040443
38	0x3e8fa89b	0.28058323
39	0x3e1ca3c5	0.15296848
40	0xbe3bccf8	-0.18339908
41	0x3e307879	0.17233457
42	0x3e088ac0	0.13334179
43	0xbddedcf1	-0.10881985
44	0xbd389f0c	-0.045073554
45	0x3e844fd6	0.2584216
46	0xbdbb4d32	-0.09145583
47	0xbeb4d1c8	-0.353163
48	0xbebc9a6b	-0.36836562
49	0x3e46f0ea	0.19427839
50	0xbdba3cb8	-0.090936124
51	0xbde124e6	-0.10993366
52	0x3ec8d84e	0.39227527
53	0x3c91b683	0.017787224
54	0x3e95bce0	0.29245663
55	0x3e800688	0.25004983
56	0x3e38cdc3	0.18047242
57	0x3e925942	0.28583723
58	0xbc7196d7	-0.014745436
59	0xbe3cf3cc	-0.18452376
60	0x3e72712f	0.23675989
61	0x3de9ffd2	0.11425747
62	0xbd0ef4f4	-0.034901574
63	0xbe272b1b	-0.16325037

encoder_layer_mhattentions.0.attention_heads.1.Q.bias f4 [8]
0	0x3c4da8ee	0.012552483
1	0xbd8c49ea	-0.068500355
2	0xbe1f8c67	-0.15580903
3	0xbe360895	-0.17776711
4	0xbeb13bdd	-0.34615985
5	0xbdf3784b	-0.118881784
6	0xbdc146f0	-0.094373584
7	0x3e42f804	0.19039923

encoder_layer_mhattentions.0.attention_heads.1.K.weight f4 [8, 8]
0	0x3e86262d	0.26201
1	0x3e9f78ac	0.31146753
2	0x3e76e88e	0.2411215
3	0x3e142340	0.14466572
4	0x3e74cbe9	0.2390591
5	0x3dc251cb	0.09488257
6	0x3d4c8052	0.049927063
7	0xbd35f80f	-0.04442602
8	0xbe839642	-0.25700575
9	0xbe7b2337	-0.24525152
10	0xbeb87287	-0.36024877
11	0xbe671179	-0.22565259
12	0xbecb47dd	-0.39703265
13	0x3e14e664	0.14541012
14	0xbe81204b	-0.2521995
15	0x3e181b26	0.14854106
16	0x3e5ec224	0.21753746
17	0x3e534a42	0.20633796
18	0xbd8cdc17	-0.06877916
19	0xbe69a9dc	-0.22818702
20	0xbe9f6745	-0.31133476
21	0x3ec4200a	0.38305694
22	0x3dfac201	0.122440346
23	0x3ea6b04b	0.32556376
24	0xbe831ff8	-0.25610328
25	0x3e61267e	0.2198734
26	0x3e869fa0	0.2629366
27	0xbe8d83c9	-0.27639607
28	0x3e29ec48	0.1659404
29	0x3e7ed3a9	0.2488543
30	0xbd71c2ec	-0.059023783
31	0xbec4a425	-0.38406482
32	0xbed3d2f8	-0.41371894
33	0xbd01258d	-0.03152995
34	0xbe0334d7	-0.12813126
35	0x3dfbbe7b	0.12292191
36	0xbca00006	-0.019531261
37	0xbdce9d19	-0.10088558
38	0x3e9f17d1	0.31072858
39	0x3e32370a	0.17403808
40	0xbe6b6030	-0.22985911
41	0x3e339d76	0.17540535
42	0x3e1f38c7	0.15549003
43	0x3c80310f	0.015648393
44	0xbd1befe3	-0.03807057
45	0x3e81c1ff	0.2534332
46	0x3e9917dc	0.29901016
47	0x3e120cf5	0.14262755
48	0x3ec347ad	0.38140622
49	0xbc213d44	-0.009841267
50	0xbe72c688	-0.23708546
51	0x3e7490e9	0.23883404
52	0x3ce8a7aa	0.028400261
53	0x3c33919f	0.010960012
54	0x3ecc8aee	0.39949745
55	0x3e64ee2a	0.22356477
56	0xbe642276	-0.22278771
57	0xbe8550ed	-0.26038304
58	0x3eb49522	0.3527003
59	0xbc8575dc	-0.016291551
60	0x3da46174	0.080264
61	0x3c8aae15	0.016928712
62	0x3e62656b	0.22109
63	0xbdd615e9	-0.10453398

encoder_layer_mhattentions.0.attention_heads.1.K.bias f4 [8]
0	0xbe8338d2	-0.25629288
1	0x3dd32b3f	0.10310983
2	0xbe4afa16	-0.19821963
3	0x3e5f9b11	0.21836497
4	0x3cbd14c8	0.023081198
5	0xbe61c787	-0.2204877
6	0x3e3e8e15	0.18608887
7	0xbe5ed030	-0.21759105

encoder_layer_mhattentions.0.attention_heads.1.V.weight f4 [8, 8]
0	0x3d98486f	0.074356906
1	0xbe955616	-0.2916724
2	0xbb3f8bf4	-0.0029227706
3	0xbe051df9	-0.12999715
4	0xbeb9b038	-0.36267257
5	0xbe8831ba	-0.26600438
6	0xbe13ea04	-0.14444739
7	0x3be450f9	0.0069676605
8	0xbea16bc7	-0.3152754
9	0x3ea58bf5	0.3233334
10	0x3ebd155f	0.36930367
11	0xbda13afb	-0.07872578
12	0xbdf0d603	-0.117595695
13	0x3e814fae	0.25256103
14	0xbe922cde	-0.28549856
15	0x3d9998f8	0.074998796
16	0x3e86b9af	0.2631354
17	0x3cae40e0	0.02127117
18	0xbdc71a59	-0.09721822
19	0xbe43a04b	-0.19104116
20	0xbd2fcbcb	-0.04291896
21	0x3e8d72a7	0.27626535
22	0x3f013e2f	0.5048551
23	0x3dccf6e8	0.10008031
24	0x3c554755	0.013017495
25	0xbd8babd5	-0.06819884
26	0x3e20bcdd	0.15697046
27	0x3e50ca4e	0.20389673
28	0x3d08df3b	0.033416014
29	0xbe649572	-0.22322634
30	0xbe1f61f9	-0.15564717
31	0x3ee3b27a	0.44472104
32	0x3e6e7134	0.23285371
33	0x3dfe422b	0.12414964
34	0xbc7396f3	-0.014867532
35	0xbe6ba472	-0.2301195
36	0xbdc821f6	-0.097721025
37	0x3e8a8fd9	0.27062872
38	0x3eaf1815	0.3419806
39	0x3e49fe2d	0.19725867
40	0x3da37ca7	0.0798276
41	0x3e200fcf	0.1563103
42	0x3ebe2264	0.37135613
43	0x3d06ac7e	0.032879345
44	0x3eb47ccd	0.35251465
45	0x3e8897a7	0.26678202
46	0x3cd16d9e	0.025564965
47	0xbdbecd96	-0.09316556
48	0xbe4bdf32	-0.19909361
49	0xbe38dd5d	-0.18053193
50	0x3e9f8812	0.311585
51	0xbe5319e5	-0.20615347
52	0x3de057f2	0.10954274
53	0x3e5ea781	0.21743585
54	0x3cfa1e50	0.030532032
55	0xbe41b905	-0.18918236
56	0xbed0dbf9	-0.40792826
57	0xbe18e2b1	-0.14930226
58	0x3d74a04b	0.05972318
59	0xbd201acc	-0.039088055
60	0xbeb06839	-0.34454516
61	0x3dd28058	0.10278386
62	0xbe6b8a34	-0.23001939
63	0xbe700ebf	-0.23443125

encoder_layer_mhattentions.0.attention_heads.1.V.bias f4 [8]
0	0x3d2c0180	0.041993618
1	0xbe653758	-0.22384393
2	0xbd2c7dd2	-0.04211218
3	0xbe92e19f	-0.2868776
4	0xbe7a9d1c	-0.24473995
5	0x3e10e098	0.14148176
6	0x3e37751c	0.17915767
7	0x3d5e4ca8	0.054272324

encoder_layer_mhattentions.0.attention_heads.2.Q.weight f4 [8, 8]
0	0xbd01f2e5	-0.031725783
1	0x3d35035d	0.04419266
2	0xbf0094b8	-0.50226927
3	0x3d7819bd	0.06057142
4	0xbe80ceb7	-0.2515771
5	0xbe9cf95f	-0.30659005
6	0x3d8f63c5	0.070014514
7	0x3d196c4a	0.037456788
8	0xbed1d304	-0.40981305
9	0x3d89ddd1	0.06731761
10	0x3e35dae8	0.17759287
11	0xbe96abe6	-0.29428023
12	0xbdad043b	-0.084480725
13	0x3e6e3186	0.23261079
14	0xbe5198ad	-0.20468397
15	0x3da33741	0.07969523
16	0x3d6c6957	0.057717647
17	0x3e8a74b7	0.2704217
18	0xbe3c3007	-0.18377696
19	0x3deada5b	0.11467429
20	0xbd631d64	-0.05544795
21	0xbcac7455	-0.021051565
22	0x3e608bff	0.21928404
23	0xbe39ae08	-0.18132794
24	0x3ddf2242	0.10895206
25	0x3e7c1f95	0.24621423
26	0xbe7979a3	-0.24362807
27	0xbd941b9f	-0.07231831
28	0x3df214b7	0.11820357
29	0x3d2a6675	0.041601617
30	0xbe4a02b2	-0.1972759
31	0x3ca2860a	0.019839305
32	0xbdde2c57	-0.10848301
33	0xbe2792eb	-0.16364639
34	0xbc4b8efe	-0.012424229
35	0x3ed2c4a7	0.4116566
36	0xbe59bd44	-0.21263605
37	0xbed6baa3	-0.41939268
38	0xbef6cb31	-0.48201898
39	0xbe511f37	-0.20422064
40	0xbd30a347	-0.043124463
41	0xbe9188a5	-0.28424564
42	0x3ea180a8	0.3154347
43	0x3e983ed5	0.29735437
44	0x3d4885b7	0.048955645
45	0x3e326f63	0.17425303
46	0x3e874cf8	0.2642591
47	0xbdcd83d1	-0.100349076
48	0xbe743068	-0.2384659
49	0x3dcadc5f	0.09905314
50	0x3ebda0ac	0.37036645
51	0x3ebda766	0.37041777
52	0xbc2fcd61	-0.0107301185
53	0xbdeefc2e	-0.11669193
54	0xbee4830a	-0.44631225
55	0xbc926ab7	-0.017873151
56	0xbe669391	-0.2251723
57	0x3ebdf0e6	0.37097853
58	0xbf05e88d	-0.5230797
59	0xbe092232	-0.1339195
60	0x3eab1db3	0.33421096
61	0x3df4f4ba	0.119607404
62	0x3e0ce5f4	0.13759595
63	0xbda32985	-0.079669036

encoder_layer_mhattentions.0.attention_heads.2.Q.bias f4 [8]
0	0x3e3ce533	0.18446808
1	0x3e190a60	0.14945364
2	0x3dda10f5	0.106477655
3	0xbdbc6ac4	-0.092000514
4	0x3e31ab4d	0.17350502
5	0xbe4e6485	-0.20155533
6	0xbd7bdbd2	-0.061488934
7	0x3e15da54	0.14634067

encoder_layer_mhattentions.0.attention_heads.2.K.weight f4 [8, 8]
0	0xbea7f1d6	-0.32801694
1	0xbca53359	-0.020166086
2	0xbe6b3df3	-0.2297285
3	0x3e07aae5	0.13248785
4	0xbb908efa	-0.0044115754
5	0xbead6131	-0.33863214
6	0xbcd61102	-0.026131157
7	0xbe81f771	-0.25384095
8	0xbe3a0523	-0.18166022
9	0xbe345e2d	-0.1761405
10	0xbe0fde99	-0.14049758
11	0xbe1f0e90	-0.15532899
12	0xbee16f46	-0.44030207
13	0x3e03f4eb	0.12886398
14	0xbdb5f8c9	-0.08885343
15	0xbe16e30b	-0.14735048
16	0xbeae7b13	-0.34078273
17	0xbee4cb41	-0.4468632
18	0x3e66fdb5	0.22557719
19	0xbdc87005	-0.09786991
20	0x3ea32ab0	0.31868505
21	0xbdd3501d	-0.10318015
22	0xbe17cde2	-0.14824632
23	0xbe6ec822	-0.23318532
24	0xbe11f68d	-0.14254208
25	0xbd808048	-0.06274468
26	0xbe78e87b	-0.24307434
27	0x3d92e591	0.071726926
28	0x3e41ea83	0.18937115
29	0xbe64e87e	-0.22354314
30	0x3ab803f0	0.0014039259
31	0xbd5be803	-0.05368806
32	0x3cf7a850	0.030231625
33	0x3e0d74fc	0.13814157
34	0xbe7b1eb3	-0.2452343
35	0x3dae71e2	0.08517815
36	0xbe9a519d	-0.3014039
37	0x3ee33363	0.44375142
38	0x3efb9262	0.4913512
39	0x3d0dfbec	0.03466408
40	0x3c4fd15f	0.012684195
41	0x3ce3c12e	0.027802076
42	0x3e14c0e8	0.14526713
43	0x3e9082da	0.28224832
44	0xbe3805d1	-0.17970969
45	0x3e372987	0.17886935
46	0xbe2853d9	-0.16438235
47	0xbe059d06	-0.13048181
48	0x3d9c53d2	0.07633175
49	0x3f1786f6	0.5919031
50	0x3ddf99fa	0.109180406
51	0x3ce0821b	0.02740579
52	0xbe0f61eb	-0.14002196
53	0x3e273ee1	0.1633258
54	0x3ef2c4f4	0.47415888
55	0x3d989747	0.07450729
56	0xbe7e826a	-0.24854437
57	0xbf0c08a6	-0.54700696
58	0xbd3d3f48	-0.046202928
59	0x3e910f4f	0.28331992
60	0xbdd434ca	-0.10361631
61	0xbe235c82	-0.15953258
62	0xbeb70f51	-0.35753873
63	0xbe7664c2	-0.24061874

encoder_layer_mhattentions.0.attention_heads.2.K.bias f4 [8]
0	0x3e9aeb09	0.30257443
1	0x3dd25b78	0.102713525
2	0xbe341b6a	-0.17588583
3	0xbe58cb63	-0.21171336
4	0xbdf4a47c	-0.119454354
5	0xbe8906ca	-0.26762992
6	0x3e66dc29	0.22544922
7	0x3df83369	0.12119181

encoder_layer_mhattentions.0.attention_heads.2.V.weight f4 [8, 8]
0	0xbe96a3f8	-0.29421973
1	0x3e805972	0.2506824
2	0x3d3414b5	0.04396506
3	0x3e9618e3	0.29315862
4	0xb9c2adf4	-0.0003713217
5	0x3d1ca9f4	0.038248017
6	0xbe34b795	-0.17648156
7	0x3e384ea0	0.17998743
8	0xbe0812cd	-0.13288422
9	0xbbff47d3	-0.0077905445
10	0xbea524fc	-0.3225478
11	0xbe3946cf	-0.18093418
12	0xbcf67fbe	-0.03009021
13	0xbd353541	-0.04424024
14	0xbe967630	-0.29387045
15	0xbe5e1097	-0.21686016
16	0x3d430d29	0.047619972
17	0xbe4113c4	-0.18855196
18	0xbe943070	-0.28943205
19	0xbe399a44	-0.18125254
20	0xbec433c9	-0.3832076
21	0x3e062dd3	0.13103418
22	0xbd4871de	-0.048936717
23	0xbe091f96	-0.13390955
24	0x3bfa79d3	0.007643917
25	0xbc71fccc	-0.014769744
26	0xbefbc680	-0.4917488
27	0x3e8bb6d9	0.2728794
28	0x3c132165	0.00898013
29	0x3e4fc0b0	0.20288348
30	0x3e692055	0.2276624
31	0x3e8d5c26	0.27609366
32	0xbe17bc3f	-0.14817904
33	0xbe53e329	-0.20692123
34	0xbd3a00d0	-0.04541093
35	0x3e7b1391	0.24519183
36	0x3d8f4b66	0.06996803
37	0xbd00d7dd	-0.031455863
38	0x3eab5c2f	0.33468768
39	0x3e0d36ae	0.1379039
40	0x3d895c98	0.06707114
41	0xbe00a9c2	-0.12564757
42	0x3db03dd5	0.086055435
43	0x3d210c19	0.039318178
44	0xbeaecd13	-0.34140834
45	0xbd2b0eba	-0.04176209
46	0x3e27419b	0.1633362
47	0xbbd2a419	-0.0064282534
48	0x3accc9de	0.0015624126
49	0x3e16863d	0.14699645
50	0xbe8687c0	-0.26275444
51	0xbcfb90ff	-0.030708788
52	0xbd47f3a8	-0.048816353
53	0x3d6999d6	0.057031475
54	0x3e84e652	0.2595697
55	0x3d98ec18	0.07466906
56	0x3da91308	0.08255583
57	0xbe454e55	-0.19268163
58	0x3e44b4f5	0.19209655
59	0xbe18293e	-0.14859483
60	0xbd372272	-0.044710584
61	0xbde58357	-0.11206692
62	0xbebae0e3	-0.364997
63	0xbe537c4e	-0.20652887

encoder_layer_mhattentions.0.attention_heads.2.V.bias f4 [8]
0	0x3d9f618f	0.0778228
1	0xbe2bb1eb	-0.16767089
2	0xbe95fc6e	-0.2929415
3	0x3cb18a4e	0.021672394
4	0x3e9c3717	0.3051078
5	0x3e817a20	0.25288486
6	0x3e35b057	0.1774305
7	0xbe4c1795	-0.19930871

encoder_layer_mhattentions.0.attention_heads.3.Q.weight f4 [8, 8]
0	0x3cbc6fd4	0.023002543
1	0xbe2c5651	-0.16829802
2	0xbe394c15	-0.18095429
3	0xbe85a4ba	-0.2610224
4	0x3e84cbdc	0.25936782
5	0xbe52a773	-0.2057169
6	0x3e9ec834	0.31012118
7	0x3e096716	0.1341823
8	0x3d95bf6d	0.07311902
9	0x3eb7902a	0.35852176
10	0x3df7f4d9	0.12107248
11	0x3e1e76d5	0.15475018
12	0xbe6a37de	-0.22872874
13	0x3d8ad5f5	0.0677909
14	0xbd26c62f	-0.040716346
15	0x3ec095b6	0.3761422
16	0x3e2ac52b	0.16676776
17	0xbd09e6cc	-0.03366737
18	0xbd9a0c0a	-0.075218275
19	0xbea664f7	-0.32498905
20	0xbe95a5a8	-0.29227948
21	0x3e904744	0.2817937
22	0x3e9a1d30	0.30100393
23	0xbe3a5a26	-0.18198451
24	0xbc4e26a6	-0.012582457
25	0xbddabd10	-0.10680592
26	0x3d5426bd	0.051794756
27	0xbd0ebf53	-0.03485043
28	0xbebb6df6	-0.3660733
29	0xbe18a7c8	-0.14907753
30	0x38e23814	0.00010786965
31	0x3db63ca4	0.08898285
32	0x3e9128ca	0.28351432
33	0xbedce9cb	-0.4314712
34	0xbd8a4785	-0.067519225
35	0x3de7ff96	0.11328046
36	0x3e8c7984	0.2743646
37	0x3e3c943c	0.18415922
38	0xbeb890a2	-0.36047846
39	0x3de30810	0.11085522
40	0xbe30cf9b	-0.17266695
41	0x3ebfc3c8	0.37454057
42	0xbc0b6daa	-0.008510033
43	0x3cb57f97	0.022155566
44	0xbef5cf6b	-0.4800981
45	0xbe1badbd	-0.15202995
46	0x3e217e05	0.15770729
47	0xbe4de2e7	-0.20106088
48	0xbd61845c	-0.05505787
49	0xbec95ae8	-0.39327168
50	0xbee9332d	-0.45546857
51	0x3dae47f1	0.085098155
52	0x3b8bea70	0.0042698905
53	0xbeff11ab	-0.49818167
54	0xbe442bff	-0.19157408
55	0x3ea16f7e	0.31530374
56	0x3dbc208c	0.09185895
57	0x3e6c13e3	0.23054461
58	0x3d1fd8ee	0.03902524
59	0xbe8c2172	-0.27369267
60	0x3ebb73e0	0.36611843
61	0x399d49fa	0.0003000049
62	0xbe78a1ee	-0.24280521
63	0x3e40b00f	0.18817161

encoder_layer_mhattentions.0.attention_heads.3.Q.bias f4 [8]
0	0xbe253853	-0.16134767
1	0x3e1bb04d	0.15203972
2	0x3df49ea5	0.119443215
3	0xbe14c9fa	-0.14530173
4	0x3e179b2b	0.14805286
5	0x3e7e84ac	0.24855298
6	0x3c5ae808	0.013360985
7	0xbdb96696	-0.0905277

encoder_layer_mhattentions.0.attention_heads.3.K.weight f4 [8, 8]
0	0xbe426573	-0.18984012
1	0x3e0bfe71	0.1367128
2	0xbde74597	-0.1129257
3	0xbd3d8221	-0.04626668
4	0xbeeea5d6	-0.46610898
5	0x3e89aa08	0.26887536
6	0xbe9b4831	-0.30328515
7	0xbe829db6	-0.2551095
8	0x3e103992	0.14084461
9	0xbe92f5da	-0.28703195
10	0x3e795c27	0.2435156
11	0x3d807d20	0.06273866
12	0x3dba98c0	0.09111166
13	0x3ea28fb4	0.31750262
14	0x3d4bf7e2	0.049796946
15	0x3e355059	0.17706431
16	0xbe964c92	-0.29355294
17	0x3d66ec9a	0.056377985
18	0xbe4b4e9b	-0.19854204
19	0x3e57cdc3	0.21074586
20	0x3eb8a4ef	0.36063334
21	0xbe77fcba	-0.24217501
22	0x3ec7e37d	0.39040747
23	0x3e6190a2	0.2202783
24	0x3dfe658f	0.124217145
25	0xbdd1923f	-0.10232972
26	0xbc2bfd1d	-0.010497359
27	0xbe874ecb	-0.26427302
28	0x3e3d8647	0.18508254
29	0xbd92aa64	-0.07161406
30	0xbe478bd0	-0.19486928
31	0xbe4e658e	-0.20155928
32	0x3ead36a6	0.33830756
33	0x3eb42a9a	0.35188752
34	0xbec2c0f0	-0.38037825
35	0xbea7d463	-0.32779226
36	0xbd8da27d	-0.06915758
37	0xbea3b42f	-0.31973407
38	0xbe61a74a	-0.22036472
39	0xbe218b8f	-0.15775894
40	0xbea8696a	-0.32892925
41	0xbed0936c	-0.40737474
42	0xbcfbd984	-0.030743368
43	0x3ed2ab2b	0.41146216
44	0x3e6be4ec	0.23036546
45	0x3e1790a6	0.14801273
46	0xbdee11d0	-0.11624491
47	0xbcec6bf9	-0.02886008
48	0xbe1ef978	-0.15524852
49	0x3ed22309	0.41042355
50	0xbc92aa8a	-0.017903585
51	0xbea74656	-0.3267085
52	0xbe11c051	-0.14233519
53	0xbd8a9203	-0.06766131
54	0xbe5d3ba2	-0.2160478
55	0x3e497322	0.19672826
56	0xbddb5cb6	-0.107110426
57	0x3e6f0a27	0.23343717
58	0xbeb847fc	-0.3599242
59	0xbeac8e00	-0.33702087
60	0xbd63dafa	-0.055628754
61	0xbdb83dd8	-0.08996171
62	0x3dc76437	0.09735911
63	0x3dcf0f5c	0.101103514

encoder_layer_mhattentions.0.attention_heads.3.K.bias f4 [8]
0	0xbe8baf26	-0.27282065
1	0xbc22aa8c	-0.009928357
2	0xbda4fd0e	-0.08056079
3	0x3ea98b0a	0.3311389
4	0x3e8d5a73	0.2760807
5	0x3e9883e3	0.29788122
6	0x3dae8ca3	0.08522918
7	0x3d5171c5	0.05113389

encoder_layer_mhattentions.0.attention_heads.3.V.weight f4 [8, 8]
0	0x3e044391	0.129164
1	0xbe19cb8b	-0.15019052
2	0xbe5d9c55	-0.21641667
3	0xbe98aed5	-0.29820886
4	0xbd1dd7d7	-0.03853592
5	0xbe83c4c2	-0.25736052
6	0xbcd40d28	-0.02588518
7	0xbd939d5a	-0.07207747
8	0xbdb7ce7d	-0.089749314
9	0x3e538f39	0.20660104
10	0x3df7e12d	0.12103496
11	0x3e5df999	0.21677245
12	0x3edd6373	0.43239936
13	0xbea823e6	-0.32839888
14	0x3ddf05fd	0.10889814
15	0x3e40e7e9	0.18838467
16	0xbe83e275	-0.2575871
17	0x3e0aa207	0.13538371
18	0x3eaf74a4	0.34268677
19	0x3e224706	0.15847406
20	0xbe99b990	-0.30024385
21	0x3de59c80	0.11211491
22	0xbe29937b	-0.16560166
23	0x3dbbd06d	0.091706134
24	0xbe9fde89	-0.31224468
25	0xbe8bbd0f	-0.27292678
26	0x3e7f9a7d	0.24961276
27	0x3eaf5f63	0.34252462
28	0x3e5d21f8	0.2159499
29	0xbe13e256	-0.14441809
30	0xbd2cb135	-0.042161185
31	0x3e95a1cd	0.29225007
32	0xbea38c30	-0.31942892
33	0xbe9ab6da	-0.3021763
34	0x3e68d516	0.22737536
35	0x3e94aeb2	0.29039532
36	0xbe8439de	-0.258254
37	0x3d5971d4	0.05308707
38	0x3e2feb95	0.17179711
39	0xbe2ad45e	-0.16682574
40	0x3e839258	0.2569759
41	0x3d8a2bf7	0.06746667
42	0xbe8fc55a	-0.28080255
43	0x3e68c541	0.22731496
44	0xbea70bb1	-0.32626107
45	0xbd790cce	-0.060803227
46	0xbe620761	-0.22073127
47	0xbe94b769	-0.2904618
48	0x3e30c5a2	0.17262891
49	0x3e7c07ba	0.24612322
50	0x3d1daf80	0.038497448
51	0x3e65f4f2	0.2245672
52	0xbeaf2e86	-0.34215182
53	0x3c8c35f7	0.017115576
54	0xbe235db9	-0.15953721
55	0xbddc16d1	-0.107465394
56	0x3e7df6de	0.24801204
57	0x3dab6b6d	0.08370099
58	0xbdb9136f	-0.0903691
59	0x3e482e7e	0.19548985
60	0x3e9a4a50	0.3013482
61	0x3d702b71	0.05863518
62	0xbe9a614b	-0.30152354
63	0x3eabd62d	0.3356184

encoder_layer_mhattentions.0.attention_heads.3.V.bias f4 [8]
0	0x3d45db60	0.048304915
1	0xbcc435e7	-0.023951484
2	0xbe05e88a	-0.13076988
3	0xbea6a91c	-0.32550895
4	0xbe818a5d	-0.25300875
5	0x3e60f7ef	0.21969579
6	0x3ec3693a	0.3816622
7	0xbd9e2510	-0.07721913

encoder_layer_mhattentions.0.output_layer.weight f4 [32, 32]
0	0xbe19957e	-0.14998433
1	0xbe1ea036	-0.15490803
2	0xbd9c6964	-0.07637289
3	0x3aaa461d	0.0012990866
4	0xbd485718	-0.048911184
5	0x3dbf198c	0.093310446
6	0x3d667176	0.05626055
7	0xbe1607a3	-0.1465135
8	0x3cb3f0c1	0.021965386
9	0xbe0de26d	-0.13855906
10	0xbd9b5470	-0.075844646
11	0xbe0f8a65	-0.14017637
12	0xbe57c39e	-0.21070716
13	0xbe22f20e	-0.15912649
14	0xbdef24a2	-0.11676909
15	0x3e1e0db4	0.15434915
16	0xbc12c870	-0.008958921
17	0x3d976e4a	0.07394083
18	0x3e0b0127	0.13574658
19	0x3e07da6b	0.13266914
20	0xbd92075d	-0.07130311
21	0xbde7f343	-0.11325695
22	0xbe231275	-0.1592501
23	0xbddf3642	-0.10899021
24	0x3e0f59ab	0.1399905
25	0xbda0ccc5	-0.07851557
26	0xbe4dafa4	-0.20086533
27	0x3db9fd8d	0.09081564
28	0xbeba41ae	-0.36378235
29	0x3e4767a7	0.19473134
30	0x3dc073d3	0.09397092
31	0x3e7da192	0.24768665
32	0xbcb38c86	-0.021917593
33	0xbdba7aac	-0.09105429
34	0xbcbdb135	-0.023155788
35	0xbe36eff8	-0.17864978
36	0xbe4ffd00	-0.20311356
37	0xbe16d2f3	-0.14728908
38	0x3d212124	0.039338246
39	0xbe44a069	-0.19201817
40	0xbe6895f4	-0.22713453
41	0x3e1336e6	0.14376411
42	0x3d462df0	0.048383653
43	0xbe3de0f4	-0.18542844
44	0x3e852fa6	0.26012915
45	0x3d1f1635	0.038839538
46	0x3e0f5aff	0.13999556
47	0xbe055fd3	-0.13024835
48	0x3da07811	0.07835401
49	0xbe9b0678	-0.30278373
50	0xbe131fb6	-0.14367566
51	0xbd1c655f	-0.038182613
52	0xbe1dc0fd	-0.1540565
53	0xbd0713e5	-0.032977957
54	0xbdef82d9	-0.11694879
55	0x3d72cc1f	0.059276696
56	0xbc1d10c3	-0.009586516
57	0xbe83ff90	-0.25780916
58	0xbd35b5fe	-0.044363014
59	0x3e2bf3d7	0.16792236
60	0x3d88d9da	0.06682177
61	0x3d3c1aca	0.045923986
62	0xbdee4d53	-0.11635842
63	0x3d654d36	0.055981837
64	0xbdf92be2	-0.12166573
65	0xbe284654	-0.16433078
66	0xbd724ed1	-0.059157196
67	0xbe833723	-0.25628003
68	0xbdf177c9	-0.11790425
69	0xbdcaa8d4	-0.09895483
70	0x3d500e6b	0.050795
71	0xbe29aeaa	-0.16570535
72	0xbdc36ca6	-0.095422074
73	0x3e2b7f53	0.16747789
74	0xbe308373	-0.17237644
75	0x3e47c0da	0.19507161
76	0x3d20eaf4	0.03928657
77	0x3e2c8b94	0.1685012
78	0x3de4b7e4	0.11167887
79	0xbda8fbe8	-0.08251172
80	0x3bbf5d0e	0.0058399504
81	0xbc526893	-0.012842315
82	0x3e12c54b	0.14333074
83	0xbe10b75c	-0.14132446
84	0x3c1ac7ea	0.009447077
85	0x3e814a63	0.25252065
86	0xbc17424b	-0.009232114
87	0x3df17b59	0.11791105
88	0xbe2cd0cf	-0.16876529
89	0xbe332d57	-0.17497765
90	0xbd355b38	-0.044276446
91	0xbe5a9c98	-0.21348798
92	0x3db5ecee	0.088830814
93	0xbcbdc9fb	-0.0231676
94	0x3e873e30	0.26414633
95	0xbc555f17	-0.0130231595
96	0x3dbbed2c	0.09176096
97	0x3e03a66f	0.12856458
98	0xbe028640	-0.12746525
99	0xbd755582	-0.059896
100	0xbd3ffdbd	-0.046872843
101	0xbe1f0323	-0.1552854
102	0x3d25b459	0.040455196
103	0xbe3b5504	-0.1829415
104	0xbdb5ecaa	-0.08883031
105	0x3e469012	0.19390896
106	0xbc8d0ad2	-0.017217074
107	0xbd4c3ab0	-0.049860656
108	0xbde318b4	-0.11088696
109	0x3d216102	0.039399154
110	0x3d0d67d5	0.03452285
111	0x3da2b39c	0.07944414
112	0x3e080972	0.13284853
113	0x3e29cdda	0.16582432
114	0xbe035679	-0.12825955
115	0xbb03133d	-0.002000048
116	0xbc191398	-0.00934305
117	0xbe36bb28	-0.17844832
118	0x3be4b9dd	0.0069801644
119	0xbe22b612	-0.15889767
120	0x3dec6a20	0.11543679
121	0x3d34b909	0.044121776
122	0x3e21434b	0.15748326
123	0xbd904817	-0.07045
124	0xbdfed828	-0.12443572
125	0xbdf9de1a	-0.12200566
126	0x3dc8ca2a	0.09804185
127	0xbe2e4b19	-0.17020835
128	0x3e3e5865	0.18588407
129	0x3de90fc4	0.1137996
130	0x3c38a9fa	0.011270994
131	0xbca60cef	-0.02026984
132	0xbe0ccdef	-0.13750432
133	0xbe333dd7	-0.17504059
134	0xbdb616f5	-0.088910975
135	0xbe10aecf	-0.14129184
136	0xbd88cb0e	-0.066793546
137	0x3de74357	0.11292141
138	0x3dd1a15f	0.10235857
139	0xbdf991df	-0.12186026
140	0x3d8bc8c0	0.068253994
141	0x3c5d6873	0.013513672
142	0x3d10cf67	0.035354044
143	0xbe312066	-0.17297515
144	0x3e1bcec9	0.15215601
145	0x3df90f88	0.121611655
146	0x3dd0a7fb	0.1018829
147	0x3ba49050	0.005022086
148	0xbdb62668	-0.08894044
149	0xbdf140fc	-0.11779973
150	0xbd52c67d	-0.051458824
151	0x3cc05df0	0.023482293
152	0xbc3f957e	-0.011693357
153	0x3d8440c3	0.06457665
154	0x3e4382cc	0.19092864
155	0xbdaa2dc0	-0.08309507
156	0x3d03bfd6	0.03216537
157	0xbdb7954d	-0.08964024
158	0x3dd5f9a5	0.104480065
159	0xbe000a96	-0.12504038
160	0x3da9dd3d	0.08294151
161	0x3dd06644	0.101757556
162	0x3e0c4900	0.13699722
163	0xbe4c1c18	-0.19932592
164	0xbdf61edb	-0.12017604
165	0x3e23f1ef	0.16010259
166	0x3d00b703	0.031424534
167	0x3bdbe193	0.00671024
168	0x3e371449	0.17878832
169	0x3d4f90e6	0.050675295
170	0x3d1c1250	0.0381034
171	0x3dfb226f	0.12262427
172	0xbcd6dc17	-0.026227994
173	0xbd01d347	-0.03169563
174	0x3e1c8fad	0.15289183
175	0x3db96327	0.09052115
176	0x3e0e6320	0.13905
177	0x3d3964cd	0.045262147
178	0xbca2d1d5	-0.019875446
179	0xbe5103ce	-0.20411608
180	0xbd248f4b	-0.040175717
181	0x3d655e52	0.055998154
182	0x3cfa3333	0.030541992
183	0xbd5ef6f7	-0.054434743
184	0x3cafb9ac	0.02145084
185	0x3e36f157	0.17865501
186	0x3e584139	0.2111863
187	0x3cc5b9e5	0.024136493
188	0x3d95bae5	0.07311038
189	0x3d525636	0.05135175
190	0xbde2f1a0	-0.110812426
191	0x3da9877b	0.08277794
192	0xbad53103	-0.0016265217
193	0xbcada0a9	-0.021194773
194	0xbdd38a42	-0.10329105
195	0xbe24eee1	-0.1610675
196	0xbe1223ea	-0.14271513
197	0xbd89cfa3	-0.06729057
198	0xbd124731	-0.035712425
199	0x3e14f34c	0.14545935
200	0x3c592446	0.013253277
201	0x3db9e24d	0.090763666
202	0xbdd84dad	-0.105616905
203	0x3de0a603	0.10969164
204	0xbc53e80f	-0.012933745
205	0xbe720367	-0.2363411
206	0xbe33bdac	-0.17552823
207	0xbddb2e84	-0.107022315
208	0xbddc3b2e	-0.10753475
209	0x3e1815ac	0.14852017
210	0xbce39fa7	-0.02778609
211	0xbdbc9a0a	-0.09209068
212	0xbe16e0ec	-0.14734238
213	0x3da69a11	0.081348546
214	0x3d855867	0.06511002
215	0xbe132d74	-0.14372808
216	0xbe6261bf	-0.221076
217	0x3d256ab3	0.04038496
218	0x3e41591a	0.18881646
219	0xbd85a3ec	-0.06525406
220	0x3d2b4036	0.041809283
221	0xbe43c032	-0.19116285
222	0xbbfed7ba	-0.0077771815
223	0x3d814d90	0.06313622
224	0x3df6d4e1	0.12052322
225	0x3d93404b	0.07189997
226	0xbe3e06a7	-0.18557225
227	0xbdb2e00b	-0.08734139
228	0x3dde09e2	0.10841729
229	0xbc3849a7	-0.011248029
230	0xbd4b037f	-0.04956388
231	0x3d893ac2	0.0670066
232	0xbe2df3f8	-0.16987598
233	0x3d1040f5	0.035218198
234	0xbd6b2d19	-0.057416055
235	0x3ddebdbd	0.108760335
236	0xbac73802	-0.0015199187
237	0xbbfd3385	-0.007727089
238	0x3ddbb1eb	0.107272945
239	0xbe285610	-0.1643908
240	0xbe17ab82	-0.14811519
241	0x3dd254ae	0.102700576
242	0xbdbe2377	-0.09284108
243	0x3e3bd84e	0.18344232
244	0x3dfb98a1	0.12284971
245	0xbe528a9c	-0.20560688
246	0x3da59ce2	0.08086564
247	0xbd90ac53	-0.07064118
248	0xbcb75b44	-0.022382386
249	0x3ca75d90	0.020430356
250	0xbe479f95	-0.1949447
251	0x3d4037b3	0.04692812
252	0xbd2d36e1	-0.042288665
253	0x3dabf88a	0.083970144
254	0xbd4990b7	-0.049210276
255	0x3e01fb7c	0.1269359

encoder_layer_mhattentions.0.output_layer.bias f4 [32]
0	0x3b4a6bc8	0.0030886997
1	0xbdc1fdf1	-0.094722636
2	0xbe111837	-0.14169393
3	0x3daca1f6	0.08429329
4	0xbdb11d0b	-0.08648118
5	0xbca4c698	-0.020114228
6	0xbd0f3994	-0.03496702
7	0xbd1cf1de	-0.0383166
8	0x3dcc19e3	0.09965875
9	0x3d147a43	0.03624941
10	0xbe2eb29b	-0.1706032
11	0xbd882fdb	-0.06649753
12	0xbe130e06	-0.14360818
13	0x3d58da74	0.052942708
14	0xbd623b14	-0.055232123
15	0x3d8a2c94	0.06746784
16	0x3de5c68a	0.11219509
17	0xbc0ce3f7	-0.008599273
18	0x3d4dd483	0.050251495
19	0xbb646a60	-0.0034853444
20	0x3c01fd1d	0.007933882
21	0xbcbfed07	-0.023428453
22	0x3e0b3b7e	0.13596913
23	0x3dc861b8	0.09784263
24	0x3db05ee9	0.08611853
25	0x3e070b35	0.13187869
26	0x3e220425	0.15821894
27	0x3bd5e48f	0.0065274904
28	0xbddff6ba	-0.10935731
29	0xbe38acd6	-0.18034682
30	0xbdbec820	-0.093155146
31	0x3cfb70a8	0.030693367

encoder_layer_mhattentions.1.attention_heads.0.Q.weight f4 [8, 8]
0	0x3eb36d10	0.35044146
1	0xbeaeb4fe	-0.3412246
2	0x3e2590d0	0.16168523
3	0x3e9a112e	0.30091232
4	0x3e7f0c03	0.24906926
5	0x3cbc4d6e	0.02298614
6	0xbbc96b12	-0.006146797
7	0x3e6ab324	0.22919899
8	0x3e6a59ef	0.2288587
9	0x3de7a732	0.11311187
10	0xbd5a8ecc	-0.053358838
11	0x3e9b4aef	0.30330607
12	0xbd1d9d2c	-0.03847997
13	0xbe6124ae	-0.21986648
14	0x3dbddb05	0.0927029
15	0x3e29b259	0.1657194
16	0xbe1ebcd7	-0.15501724
17	0xbe984f91	-0.29748204
18	0xbeb5b1c8	-0.354872
19	0x3e83f357	0.2577159
20	0xbdfb1368	-0.12259561
21	0xbeb6b50a	-0.35684997
22	0x3e82c287	0.25539038
23	0x3df05820	0.117355585
24	0x3ea7aa13	0.32746944
25	0x3ce5e920	0.028065264
26	0xbe8a98f6	-0.27069825
27	0x3ec50132	0.38477474
28	0xbe24449e	-0.160418
29	0x3eca1f67	0.39477083
30	0x3ecbc263	0.39796743
31	0x3cad71f3	0.0211725
32	0xbe84af09	-0.2591479
33	0x3e3425b8	0.17592514
34	0x3e983d05	0.29734054
35	0xbe8d1d95	-0.27561632
36	0x3dddfdeb	0.10839447
37	0x3e898853	0.2686182
38	0xbdcd94d8	-0.10038155
39	0xbe18d9d6	-0.14926848
40	0xbed57c53	-0.41696414
41	0xbe3268bc	-0.17422765
42	0xbe5a5a17	-0.21323429
43	0x3d8323e0	0.06403327
44	0xbe4e6e5f	-0.2015929
45	0x3e3573b6	0.17719921
46	0x3dce4e94	0.10073581
47	0x3eaf2ade	0.34212393
48	0x3e5539eb	0.20822875
49	0xbea1455f	-0.31498238
50	0xbe58412c	-0.21118611
51	0x3e7484d1	0.2387879
52	0x3e45b072	0.1930559
53	0x3e73eb2f	0.23820184
54	0x3e64d7d4	0.22347957
55	0x3dbd9375	0.09256641
56	0xbed39918	-0.4132774
57	0xbea456e1	-0.32097533
58	0x3e5728e7	0.21011697
59	0x3e95f9db	0.29292187
60	0xbd4c7312	-0.049914427
61	0x3dae4a2e	0.085102424
62	0x3ebdaa79	0.37044123
63	0x3c689b81	0.014197231

encoder_layer_mhattentions.1.attention_heads.0.Q.bias f4 [8]
0	0xbe82b996	-0.25532216
1	0x3dd27cc1	0.10277701
2	0xbd43cd4f	-0.04780322
3	0x3dd3103a	0.10305829
4	0xbe3d6606	-0.1849595
5	0x3e250f25	0.16119058
6	0x3e76e0fa	0.24109259
7	0xbe73d504	-0.23811728

encoder_layer_mhattentions.1.attention_heads.0.K.weight f4 [8, 8]
0	0x3e8ce713	0.27520046
1	0xbdd2e69c	-0.102978915
2	0x3e394ef8	0.1809653
3	0xbe4fe7a7	-0.20303212
4	0x3c98876c	0.018619262
5	0x3e6c6861	0.23086692
6	0xbe2867dd	-0.1644587
7	0xbd82a02b	-0.06378206
8	0xbc55ebe0	-0.013056725
9	0x3dd22675	0.10261241
10	0xbe4014a0	-0.18757868
11	0xbe7ac6de	-0.24489924
12	0x3eb04eea	0.34435207
13	0xbdff0ccf	-0.12453615
14	0xbe2a96d1	-0.16659094
15	0xbdf99b0e	-0.121877775
16	0x3e23ec51	0.16008116
17	0x3ea628ee	0.32453102
18	0x3df40eda	0.11916895
19	0x3e95ce7f	0.29259107
20	0xbc61707b	-0.013759728
21	0x3e472da7	0.19451009
22	0x3d82e4bf	0.06391286
23	0xbedd1f90	-0.43188143
24	0x3e27da7d	0.1639194
25	0x3e95dcf8	0.29270148
26	0x3e64bafc	0.22336954
27	0x3e93968f	0.28825805
28	0x3d7c395a	0.061578132
29	0x3ebd78c8	0.3700621
30	0x3e712f19	0.23553123
31	0xbed2e2bb	-0.41188607
32	0x3e9e1998	0.308789
33	0xbe230ce4	-0.15922886
34	0x3ea5574e	0.3229317
35	0xbe9d92ea	-0.3077615
36	0x3b93694b	0.004498636
37	0xbe0e98d0	-0.13925481
38	0x3e09c6cf	0.13454746
39	0xbcc90eda	-0.024543215
40	0xbe2f5c2c	-0.17125005
41	0x3e3f31a3	0.18671279
42	0x3e9415ba	0.28922826
43	0xbdbb2835	-0.09138528
44	0xbe241af2	-0.16025904
45	0xbc33c106	-0.010971313
46	0xbe36def2	-0.17858484
47	0x3e53d80a	0.20687881
48	0xbe9ca612	-0.30595452
49	0x3d097413	0.033557963
50	0xbe971cc2	-0.29514128
51	0x3d416eac	0.047224686
52	0x3d89e81c	0.067337245
53	0x3e89e616	0.26933354
54	0x3e27371e	0.1632962
55	0x3d90c924	0.070696145
56	0xbea4514f	-0.32093284
57	0xbdf63248	-0.12021309
58	0x3d63cf45	0.05561759
59	0xbeb2277f	-0.34795758
60	0x3e857884	0.2606851
61	0x3e7d82d2	0.24756935
62	0x3c621b6e	0.013800485
63	0x3d76649e	0.06015455

encoder_layer_mhattentions.1.attention_heads.0.K.bias f4 [8]
0	0x3e3c2745	0.18374355
1	0xbea4908b	-0.32141528
2	0x3ead85d5	0.33891168
3	0x3d1f5277	0.038897004
4	0xbe800722	-0.25005442
5	0xbe628dae	-0.22124359
6	0x3eb29810	0.3488164
7	0xbdd2c15e	-0.10290788

encoder_layer_mhattentions.1.attention_heads.0.V.weight f4 [8, 8]
0	0x3da40708	0.080091536
1	0xbd83b7c6	-0.064315364
2	0xbbeba94a	-0.0071918117
3	0xbcd8eb6f	-0.026479451
4	0xbe72a146	-0.23694333
5	0x3e7bb4d1	0.24580695
6	0x3caaf0d1	0.020866783
7	0xbe834f78	-0.25646567
8	0xbe446714	-0.19179946
9	0xbe819edd	-0.25316516
10	0x3d8f65f5	0.07001869
11	0xbeab9c2a	-0.3351758
12	0xbe772bc0	-0.24137783
13	0xbcdddb1c	-0.027082019
14	0xbe8edbd0	-0.2790208
15	0xbed43656	-0.41447705
16	0xbe450e18	-0.19243658
17	0x3e0f9a20	0.14023638
18	0x3e803055	0.25036874
19	0xbec247c0	-0.37945366
20	0x3e28a96d	0.16470881
21	0xbdfc99d0	-0.12334025
22	0xbe230df5	-0.15923293
23	0xbe9dc3f6	-0.3081357
24	0x3e2abbf6	0.16673264
25	0xbe62cdb0	-0.22148776
26	0x3e3ea779	0.18618573
27	0xbecfcd3d	-0.40586272
28	0x3db9f364	0.09079626
29	0xbe8ce0db	-0.275153
30	0xbe01182b	-0.12606876
31	0xbe325e0e	-0.17418692
32	0xbe9448d7	-0.28961822
33	0xbe8dc03a	-0.2768572
34	0xbdb11248	-0.08646065
35	0xbea4bfdd	-0.3217763
36	0xbdc73847	-0.09727531
37	0xbde30790	-0.11085427
38	0xbe0ef3d9	-0.13960208
39	0x3e57c1af	0.21069978
40	0xbdaa2645	-0.083080806
41	0x3d1675e3	0.03673352
42	0x3de0f795	0.109847225
43	0xbdb09972	-0.08623017
44	0xbe0634b6	-0.13106045
45	0x3d475c47	0.048671987
46	0x3e0759ec	0.13217896
47	0xbceb0220	-0.028687537
48	0x3d950de1	0.07278038
49	0x3e988450	0.29788446
50	0xbeaf2f48	-0.3421576
51	0xbeb4ad52	-0.35288483
52	0x3ea285cd	0.31742707
53	0xbc87ac63	-0.016561693
54	0xbe29c440	-0.1657877
55	0x3d8b204a	0.06793268
56	0x3e416aab	0.18888347
57	0xbeb28004	-0.34863293
58	0x3e322706	0.17397699
59	0xbdb6ea91	-0.08931459
60	0x3dc1cbf9	0.09462733
61	0xbe415363	-0.18879466
62	0x3e52c164	0.20581585
63	0x3e2c51c6	0.16828069

encoder_layer_mhattentions.1.attention_heads.0.V.bias f4 [8]
0	0x3dbbb66c	0.091656536
1	0xbea34dbf	-0.31895253
2	0xbdc2e905	-0.09517101
3	0x3bbc96e3	0.005755292
4	0x3e6cf8e6	0.23141822
5	0x3e60c36d	0.21949549
6	0xbe817b56	-0.2528941
7	0x3ea00b2a	0.31258518

encoder_layer_mhattentions.1.attention_heads.1.Q.weight f4 [8, 8]
0	0xbe90a8c5	-0.2825376
1	0x3e75c106	0.23999414
2	0xbe70d7a9	-0.23519768
3	0x3e61a9b2	0.2203739
4	0xbdbb682e	-0.0915073
5	0xbe03cab1	-0.1287029
6	0xbe23b675	-0.1598757
7	0x3eafcd48	0.34336305
8	0x3e1cc8c8	0.15310967
9	0x3b38603e	0.0028133537
10	0xbcd52ae4	-0.026021428
11	0xbeb6d59c	-0.35709846
12	0xbefa70ea	-0.48914272
13	0x3e5fa4b1	0.21840169
14	0x3e505e23	0.2034841
15	0x3e5400d3	0.2070344
16	0xbe868f09	-0.26281002
17	0xbe2f5cf4	-0.17125303
18	0x3db609d2	0.08888592
19	0x3c64436f	0.013932093
20	0xbeef7619	-0.4676979
21	0x3c232bc1	0.009959162
22	0x3d24fcf3	0.040280294
23	0x3eacdaab	0.3376058
24	0x3ed81361	0.42202285
25	0xbeff0b4e	-0.49813312
26	0x3e48cf43	0.19610314
27	0xbdf1ca64	-0.11806181
28	0x3e2605fd	0.16213222
29	0x3da77cf5	0.081781305
30	0x3d77cbf7	0.06049725
31	0x3e392702	0.18081287
32	0xbd0fd191	-0.035111967
33	0x3db20133	0.08691635
34	0xbe844cf7	-0.2583997
35	0x3f00c733	0.50303954
36	0xbd8cd4fe	-0.068765625
37	0x3e25bb93	0.16184835
38	0xbece2b32	-0.4026733
39	0x3b80dcd3	0.0039325743
40	0x3ee022f3	0.43776664
41	0xbe8793a2	-0.26479822
42	0x3c424734	0.011857796
43	0x3e46592e	0.19369957
44	0xbeec7a95	-0.46187273
45	0xbebeb127	-0.37244532
46	0xbe06d741	-0.1316805
47	0x3e4af4ac	0.19819897
48	0xbe35fef3	-0.17773037
49	0x3d0d6996	0.034524523
50	0xbebaabab	-0.36459097
51	0x3d91a9b8	0.071124494
52	0x3e493b9f	0.1965165
53	0xbe9727f6	-0.29522675
54	0xbe6e4a84	-0.23270613
55	0x3ecbdd20	0.39817142
56	0xbd258961	-0.040414218
57	0xbd59f72e	-0.053214245
58	0x3de9e9f0	0.11421573
59	0xbeca96e1	-0.39568236
60	0x3ee03208	0.4378817
61	0xbe37f2bf	-0.17963694
62	0x3cae918b	0.021309635
63	0xbf0e645a	-0.55621874

encoder_layer_mhattentions.1.attention_heads.1.Q.bias f4 [8]
0	0xbe3d8752	-0.18508652
1	0x3e8995c1	0.26872066
2	0xbe0f8e01	-0.14019014
3	0xbdb6eb4f	-0.089316
4	0x3d236e4b	0.039900105
5	0x3dbd762f	0.09251057
6	0x3eca4b71	0.39510682
7	0xbeaeeb1f	-0.34163758
