models/model_chkpt_160.pt (torch, 319268 bytes, 387 tensors)

tokenizer.token_embedding.weight f4 [17, 32]
-0.7433898 -2.4281645 0.009024013 0.57377106 1.8818737 0.65830356 0.9389316 1.2271286
-1.6714215 -1.0629723 -0.2248508 0.14256696 -0.9908923 -0.52800757 -0.26878473 -0.4606428
-0.27445632 0.5342305 -0.48961213 -0.29077175 -1.5199974 -2.1660903 0.7392272 3.1663866
-0.12295559 0.8020818 0.611355 1.696155 -0.58553046 -3.2931263 0.59892946 -0.26958647
-0.62753963 -1.738191 1.3821596 -0.27353382 2.9499588 0.7639778 -0.045392253 1.0297073
-1.3488204 -0.8289618 -0.2581732 0.43616548 -0.7664279 -0.565217 -0.65265775 -0.51573527
1.7960453 -0.6096262 0.066026956 1.1613587 1.2043934 1.2310922 1.0083288 0.35610458
-0.957132 0.2660451 1.5473602 0.69331676 -0.6740254 -1.7001921 -0.44789812 0.67028916
-0.6278265 0.22504413 -0.32391298 -0.13467336 4.0386815 0.15042135 2.0351748 0.13378385
-1.2853338 -0.203284 -0.6375468 0.77778023 -0.2525038 -0.36823365 -0.5688488 -0.45232832
1.756075 1.8988036 -0.36189103 -2.2146745 -1.2657273 -0.5492884 -0.21277219 -2.0317385
-1.173204 1.2768267 0.34827223 1.006569 0.5461387 -0.23442973 -0.75955087 -0.0808478
-0.83376914 1.8628982 0.14667395 -0.7500824 0.084213324 -0.46857527 1.7974595 0.98805344
-1.4793624 0.85060227 -1.1009259 0.67598146 -0.091098905 -0.75821924 -0.2718438 -0.46746185
0.6959561 0.46731654 1.8350985 -0.4695813 -0.4639181 1.3662177 1.1148039 -2.9170775
-1.4223312 0.74936247 0.27178168 0.075995706 0.23205192 0.95244443 -1.1690328 0.43559843
-0.52613294 -0.27989158 0.07790015 0.5391874 -0.5499625 -1.6607386 2.664165 -0.3768548
-0.007183533 -0.19270083 0.5019666 1.4859552 -0.2628402 -0.00012133941 -1.327515 -0.13528
1.0282681 0.4405949 1.9616021 -1.3706043 -1.5706763 0.56635 -0.09490595 -1.2169472
-1.0750167 0.42392564 -0.9294791 -0.38570908 0.45194113 2.2210746 -1.434316 -0.45491526
0.64631224 0.9239922 2.1595712 0.45918915 -3.889244 -1.1036825 0.7139476 0.9277014
-0.29311147 1.3249661 0.75113165 1.370712 -0.024605189 -0.31513503 -0.98811996 0.002006996
2.1424944 0.69074076 0.23977605 -0.58377963 0.05231032 -0.11333053 0.7471123 -0.183543
0.32930285 -0.7251831 -0.44416204 -0.32080275 -0.42278334 1.3795418 -1.390114 -0.80531025
-0.41649032 -1.4624879 0.3365311 0.34455898 -1.5106568 -1.6574796 0.09656363 -0.14006142
-0.25414222 1.0571651 0.710868 1.2919594 -0.15755624 -0.25505295 -1.1195545 0.039207354
1.0769069 0.34505922 -1.9376323 0.24655014 0.59804446 0.1277299 -0.4141787 2.907754
-1.0765549 0.4179662 -0.60273594 -0.9419121 0.46171433 2.753713 -1.5179846 -0.27795258
-0.8938657 0.32093915 3.0168023 0.90815145 0.66410273 -3.543095 -3.533867 -0.42305842
0.12937541 2.1120846 1.1565498 1.3008523 0.03743279 -0.41218087 -0.8299246 0.09957468
0.7295878 0.20017074 -1.8631612 0.65254396 2.194642 1.3228676 0.11009642 1.1685507
0.18761064 -0.237317 -0.73642635 0.6284066 -0.33382317 0.9015678 -1.376638 -0.47878066
00000000: cb4e 3ebf 0c67 1bc0 74d9 133c a9e2 123f
00000010: 3de1 f03f 9586 283f d25d 703f 8d12 9d3f
00000020: 24f1 d5bf 7a0f 88bf 4a3f 66be 13fd 113e
00000030: 1eab 7dbf 812b 07bf 279e 89be 60d9 ebbe
00000040: 8a85 8cbe 54c3 083f 71ae fabe 09e0 94be
00000050: 468f c2bf 39a1 0ac0 fe3d 3d3f 14a6 4a40
00000060: 24d0 fbbd 3c55 4d3f c381 1c3f 9b1b d93f
00000070: 53e5 15bf 95c2 52c0 7153 193f 3d07 8abe
00000080: 70a6 20bf 0b7d debf 9bea b03f a00c 8cbe
00000090: 20cc 3c40 0d94 433f 3aed 39bd 73cd 833f
000000a0: 26a6 acbf d736 54bf 472f 84be 1551 df3e
000000b0: 9e34 44bf 10b2 10bf 9414 27bf 3a07 04bf
000000c0: d0e4 e53f 7610 1cbf 2439 873d 67a7 943f
000000d0: 9029 9a3f 6e94 9d3f eb10 813f 5753 b63e
000000e0: 9a06 75bf 1037 883e e60f c63f 357d 313f
000000f0: ee8c 2cbf e59f d9bf e752 e5be 1298 2b3f
00000100: 3db9 20bf f871 663e ecd7 a5be d0e7 09be
00000110: e13c 8140 0e08 1a3e 4e40 0240 a2fe 083e
00000120: d185 a4bf ae29 50be 4436 23bf 9b1c 473f
00000130: 2e48 81be 1f89 bcbe 13a0 11bf 9497 e7be
00000140: 11c7 e03f ff0b f33f c849 b9be 3abd 0dc0
00000150: 5a03 a2bf 2a9e 0cbf f4e0 59be 0108 02c0
00000160: 8c2b 96bf 0f6f a33f bd50 b23e 41d7 803f
00000170: bfcf 0b3f 590e 70be ed71 42bf 8893 a5bd
00000180: e571 55bf 7373 ee3f b231 163e 6605 40bf
00000190: 0978 ac3d 19e9 efbe 2713 e63f 12f1 7c3f
000001a0: bf5b bdbf 12c1 593f 24eb 8cbf 1f0d 2d3f
000001b0: 1092 babd a81a 42bf 1c2f 8bbe 2957 efbe
000001c0: 2e2a 323f 1d44 ef3e 82e4 ea3f f66c f0be
000001d0: ac86 edbe 39e0 ae3f e5b1 8e3f 66b1 3ac0
000001e0: f30e b6bf 38d6 3f3f f826 8b3e a3a3 9b3d
000001f0: 059f 6d3e 66d3 733f dea2 95bf c206 df3e
00000200: a6b0 06bf f34d 8fbe 1d8a 9f3d 2f08 0a3f
00000210: 58ca 0cbf 1593 d4bf ae81 2a40 1df3 c0be
00000220: d863 ebbb 5e53 45be e280 003f c833 be3f
00000230: fe92 86be 9a77 feb8 03ec a9bf d786 0abe
00000240: 4a9e 833f a895 e13e c715 fb3f f66f afbf
00000250: ec0b c9bf 50fc 103f 0d5e c2bd edc4 9bbf
00000260: 269a 89bf c80c d93e 58f2 6dbf a97b c5be
00000270: d464 e73e 1626 0e40 ab97 b7bf a7ea e8be
00000280: b874 253f c18a 6c3f 6a36 0a40 d71a eb3e
00000290: 60e9 78c0 7845 8dbf 45c5 363f d77d 6d3f
000002a0: b512 96be 7d98 a93f 2a4a 403f 7e73 af3f
000002b0: d290 c9bc 6159 a1be 6ef5 7cbf ce87 033b
000002c0: a11e 0940 63d4 303f da87 753e 9572 15bf
000002d0: 5943 563d d619 e8bd c042 3f3f b2f2 3bbe
000002e0: 629a a83e 9aa5 39bf 3569 e3be 4240 a4be
000002f0: 0f77 d8be d394 b03f 41ef b1bf d028 4ebf
00000300: 383e d5be ce32 bbbf ce4d ac3e 096a b03e
00000310: 345d c1bf 4b28 d4bf 27c3 c53d 436c 0fbe
00000320: ee1e 82be 3051 873f 72fb 353f ed5e a53f
00000330: 6c56 21be 4d96 82be 904d 8fbf e497 203d
00000340: 16d8 893f 9aab b03e 5604 f8bf a477 7c3e
00000350: 7119 193f a0cb 023e 3b0f d4be a418 3a40
00000360: 8dcc 89bf aaff d53e e74c 1abf 2721 71bf
00000370: d265 ec3e d53c 3040 524d c2bf cd4f 8ebe
00000380: 62d4 64bf 2352 a43e 4a13 4140 9d7c 683f
00000390: a302 2a3f 12c2 62c0 e02a 62c0 1d9b d8be
000003a0: fd7a 043e 652c 0740 d309 943f 5482 a63f
000003b0: 2053 193d 5f09 d3be f075 54bf cfed cb3d
000003c0: 44c6 3a3f 8ff9 4c3e 117c eebf 1f0d 273f
000003d0: 0475 0c40 ba53 a93f 3b7a e13d 1293 953f
000003e0: 011d 403e 3a03 73be 7086 3cbf 41df 203f
000003f0: dfea aabe 26cd 663f ad35 b0bf bd22 f5be

tokenizer.positional_embedding.weight f4 [9, 32]
0.5506452 0.030618606 -0.45734495 0.32285815 0.2694548 1.7892132 -0.0699245 -0.37932032
-0.65953696 0.8901478 2.1785638 -1.1670095 -1.0092237 -1.2122763 0.44620475 -0.22315323
0.11194567 -0.67642605 0.3845677 1.055079 -0.2122505 -0.34774393 0.33596167 0.18609709
-0.74242264 0.5933729 2.1250284 -0.25820237 -0.15498663 -0.11315378 -0.9814866 -3.208189
0.7117592 0.7271339 0.53599375 -0.0133402515 0.9948475 0.10191875 0.18840396 -0.047744945
1.9437406 0.62773794 -1.0000447 -0.24803612 -0.42030987 0.21163383 0.9295612 -0.7925367
-0.09408824 -0.76513225 0.76152974 -1.3791653 0.8860266 0.13738912 0.62736326 0.6496705
0.67375284 -0.5427594 1.1593553 -2.1959686 0.6901871 0.5672344 2.0461917 -0.94352543
-0.11612775 1.0095431 -0.03870195 -0.41541803 -0.11371537 -0.22330774 -0.032364063 0.8271976
0.86261106 0.37515652 -1.7026813 -1.8612316 1.6898446 -0.24262159 -2.0643291 0.9073574
0.5221222 0.6556288 -0.14374045 -0.6199762 1.460018 -1.3185861 -0.73047715 -0.3933899
0.14747158 -0.5120241 -0.36051628 -1.3567656 -0.1668758 -0.59473944 1.1617405 -1.3040226
-1.0014422 -1.3216867 -1.4278154 -0.84801286 -0.26476198 -1.0922824 0.29173318 -0.6535166
-1.201631 0.14452648 0.0015150938 -1.6367136 1.6913176 -0.69284713 -1.6364402 0.51926506
-0.37387574 -1.0319166 -0.82459736 -2.4167013 1.4638025 0.46482733 0.12549105 -0.9660482
1.6422192 1.9314893 0.6426742 -0.82364917 0.66718805 -0.42322645 -1.6539348 -0.6564385
1.129238 -0.40950018 0.7192592 -1.6101972 -0.19769296 -1.752955 0.62485194 0.40618291
-0.9251448 1.1782516 2.6329734 0.32620472 -0.7287445 -0.04067552 -0.008600176 -0.33471778
0.22182187 -1.3450122 1.0882316 0.17147012 0.20592777 0.9593275 -0.9133799 -0.3329616
0.73512745 0.24354088 -0.06045338 -0.091213755 1.8375359 0.3417138 1.2304932 1.0859557
-0.5047566 -1.4061219 2.0044324 -1.5825161 -0.081903964 0.94155496 0.63319534 -0.7260535
-0.63728803 -0.47977403 -0.20771785 0.57940674 -0.5399182 1.2763588 0.14118542 -1.5727342
-1.5009995 1.1655416 0.19475994 0.543919 -0.6157934 2.5424345 0.77164024 0.554299
-0.3125252 0.7085347 -2.5204945 0.17374986 -0.6664841 -0.18001439 -1.20425 0.89509517
-0.6057114 0.34963474 -0.23349765 0.08756199 0.061365657 -0.6218978 -1.6181086 -0.57913625
0.47625476 -1.3572906 -1.057852 0.2220378 -1.8597825 1.2176062 -0.4166558 1.3270389
0.74623054 -0.2689476 -1.9675616 0.37767398 -1.110694 0.7357487 1.2130079 -1.0829207
-0.5909188 0.12670042 0.20037451 1.4426564 -0.45433494 0.7154937 1.0861834 0.34184027
-1.3259215 0.5857463 -1.3677515 0.3135674 -0.0049433955 0.15421976 -0.43619555 1.0184919
1.0090196 -1.7883272 -0.8613254 1.2546524 -0.7674448 -1.2927748 0.35043916 1.9891486
1.0449343 0.22837816 -0.14157043 -1.3567826 -0.062876716 0.6089281 -1.0851756 -0.46799815
0.7759526 -2.1341794 -0.07997563 -0.5382228 -1.7692937 -0.86666745 -0.61016583 1.5499234
00000000: 15f7 0c3f dfd3 fa3c 1e29 eabe aa4d a53e
00000010: fbf5 893e f004 e53f 9434 8fbd 4636 c2be
00000020: 6ad7 28bf bae0 633f 976d 0b40 9160 95bf
00000030: 3e2e 81bf df2b 9bbf f374 e43e 4882 64be
00000040: c543 e53d 422a 2dbf 0fe6 c43e d40c 873f
00000050: 3258 59be 7e0b b2be 2b03 ac3e 3c90 3e3e
00000060: 690f 3ebf 49e7 173f 7700 0840 1a33 84be
00000070: d1b4 1ebe 2bbd e7bd b542 7bbf f852 4dc0
00000080: da35 363f 7325 3a3f e336 093f 1291 5abc
00000090: 53ae 7e3f c7ba d03d f8ec 403e 3490 43bd
000000a0: 7ecc f83f 6fb3 203f 7701 80bf 2efd 7dbe
000000b0: db32 d7be 8ab6 583e b9f7 6d3f afe3 4abf
000000c0: 56b1 c0bd b5df 43bf 9df3 423f 7d88 b0bf
000000d0: a4d2 623f bcaf 0c3e e19a 203f ce50 263f
000000e0: 117b 2c3f 48f2 0abf c165 943f c08a 0cc0
000000f0: 1ab0 303f 4636 113f cef4 0240 e28a 71bf
00000100: 63d4 edbd b538 813f f085 1ebd acb1 d4be
00000110: 9be3 e8bd c9aa 64be 2e90 04bd 39c3 533f
00000120: 14d4 5c3f 8414 c03e 76f1 d9bf d63c eebf
00000130: d44c d83f cb71 78be f81d 04c0 9348 683f
00000140: cda9 053f 4ad7 273f b230 13be c3b6 1ebf
00000150: dfe1 ba3f 6ec7 a8bf 8d00 3bbf 676a c9be
00000160: ca02 173e 0314 03bf 9795 b8be 7faa adbf
00000170: 7de1 2abe d840 18bf eab3 943f 36ea a6bf
00000180: 422f 80bf 082d a9bf a8c2 b6bf 5f17 59bf
00000190: e28e 87be e9cf 8bbf 0d5e 953e dd4c 27bf
000001a0: 0bcf 99bf c0fe 133e 1d96 c63a d57f d1bf
000001b0: 187d d83f 6e5e 31bf df76 d1bf 8eee 043f
000001c0: a46c bfbe d815 84bf d018 53bf 3cab 1ac0
000001d0: e15d bb3f d9fd ed3e ba80 003e ef4e 77bf
000001e0: 3d34 d23f 0b3b f73f 4c86 243f acda 52bf
000001f0: d6cc 2a3f 23b1 d8be 23b4 d3bf 5b0c 28bf
00000200: df8a 903f 02aa d1be 5f21 383f f11a cebf
00000210: 0670 4abe d460 e0bf 4cf6 1f3f 35f7 cf3e
00000220: 4ad6 6cbf f3d0 963f a382 2840 4e04 a73e
00000230: 008f 3abf 609b 26bd c1e7 0cbc 2160 abbe
00000240: 4625 633e 5c29 acbf 2c4b 8b3f dd95 2f3e
00000250: bbde 523e 7d96 753f 44d3 69bf f179 aabe
00000260: 5031 3c3f c862 793e f79d 77bd 47ce babd
00000270: 6034 eb3f 1cf5 ae3e cd80 9d3f 9900 8b3f
00000280: bb37 01bf cdfb b3bf 9f48 0040 e38f cabf
00000290: 44bd a7bd bf09 713f 1719 223f a4de 39bf
000002a0: 4f25 23bf f1a4 f5be fdb3 54be 0054 143f
000002b0: 1438 0abf ba5f a33f e992 103e 5b4f c9bf
000002c0: c020 c0bf 7830 953f 266f 473e 473e 0b3f
000002d0: a3a4 1dbf 3fb7 2240 378a 453f 8ae6 0d3f
000002e0: 4e03 a0be 8862 353f c84f 21c0 7ceb 313e
000002f0: b49e 2abf b155 38be dd24 9abf f524 653f
00000300: e70f 1bbf 5303 b33e 021a 6fbe b353 b33d
00000310: 8e5a 7b3d b234 1fbf 2f1e cfbf 4642 14bf
00000320: aad7 f33e b3bb adbf b267 87bf e15d 633e
00000330: 5a0d eebf 85da 9b3f e953 d5be 69dc a93f
00000340: f708 3f3f 80b3 89be 0fd9 fbbf 7c5e c13e
00000350: 392b 8ebf 075a 3c3f d843 9b3f 259d 8abf
00000360: 7446 17bf c1bd 013e fa2e 4d3e f7a8 b83f
00000370: 979e e8be 982a 373f 0f08 8b3f b005 af3e
00000380: ccb7 a9bf 78f3 153f 7b12 afbf e88b a03e
00000390: 35fc a1bb c9eb 1d3e 0655 dfbe f15d 823f
000003a0: 8e27 813f e8e7 e4bf d27f 5cbf 7398 a03f
000003b0: 4377 44bf a579 a5bf c36c b33e 6c9c fe3f
000003c0: 68c0 853f f7db 693e d7f7 10be 0dab adbf
000003d0: 82c5 80bd b6e2 1b3f 09e7 8abf 749d efbe
000003e0: d4a4 463f 6596 08c0 43ca a3bd f8c8 09bf
000003f0: 3778 e2bf ebdd 5dbf d433 1cbf e463 c63f

encoder_layer_mhattentions.0.attention_heads.0.Q.weight f4 [8, 8]
0.058200944 0.006767282 0.028145457 0.19817057 0.06134065 0.10676759 -0.05639008 -0.098798074
-0.011123418 -0.029162385 -0.27418077 -0.15157004 0.053796742 -0.119448856 -0.16013758 0.05275216
-0.037910867 0.017959286 -0.13643926 -0.10975993 -0.13038193 -0.07218587 0.07433218 0.0044824616
0.04243598 -0.123334214 -0.00341779 0.120953195 -0.018725153 -0.00084191986 -0.0073098047 0.009067614
0.16517183 -0.13659044 -0.1167321 -0.07001605 -0.05239175 -0.10789946 -0.04244921 0.012668136
-0.2269046 -0.01019913 0.31041119 0.09245872 -0.046040464 0.12819338 0.16015677 -0.16348185
-0.257398 0.08684298 0.099429786 0.042558547 -0.14570001 0.4061153 -0.20958239 -0.46568778
-0.5439807 0.3149865 -0.032659076 0.5814753 -0.0628247 0.47058263 -0.0019228715 -0.48618513
00000000: 1d64 6e3d 13c0 dd3b 4d91 e63c 3aed 4a3e
00000010: 5540 7b3d f7a8 da3d 49f9 66bd a556 cabd
00000020: ff3e 36bc f4e5 eebc 6c61 8cbe 2d35 1bbe
00000030: f959 5c3d 9aa1 f4bd 1bfb 23be a612 583d
00000040: 6d48 1bbd 5a1f 933c bcb6 0bbe d0c9 e0bd
00000050: d782 05be 2fd6 93bd 783b 983d 9de1 923b
00000060: 5ad1 2d3d a696 fcbd 00fd 5fbb 4fb6 f73d
00000070: 7e65 99bc 49b4 5cba 1687 efbb 5490 143c
00000080: ce22 293e 5dde 0bbe 3d11 efbd 9364 8fbd
00000090: bb98 56bd 64fa dcbd 39df 2dbd 038e 4f3c
000000a0: ae59 68be 401a 27bc 37ee 9e3e ff5a bd3d
000000b0: ed94 3cbd 2045 033e 2300 243e c967 27be
000000c0: acc9 83be bbda b13d d8a1 cb3d df51 2e3d
000000d0: 6232 15be 58ee cf3e c49c 56be a16e eebe
000000e0: 5242 0bbf e945 a13e 86c5 05bd 91db 143f
000000f0: 3caa 80bd 35f0 f03e dc08 fcba 42ed f8be

encoder_layer_mhattentions.0.attention_heads.0.Q.bias f4 [8]
-0.004577637 -0.8786896 0.11497402 0.10217031 0.24478015 -0.20833467 1.3473369 0.5768513
00000000: 0100 96bb cdf1 60bf 8077 eb3d ab3e d13d
00000010: a6a7 7a3e af55 55be 8975 ac3f 87ac 133f

encoder_layer_mhattentions.0.attention_heads.0.K.weight f4 [8, 8]
0.23697655 0.0373294 -0.30709955 0.24558058 0.23336804 -0.06400483 -0.06183642 -0.07529753
-0.40226746 -0.05857838 0.00017771745 0.38163924 0.07957581 -0.11555766 -0.14900918 0.44177705
-0.14719383 -0.16471942 0.14470372 -0.0975116 -0.28757706 0.065635286 0.027298586 -0.040854752
0.031758662 0.1178739 0.08066862 0.018392337 -0.112305366 0.05440386 0.0910379 -0.016207013
-0.04590404 -0.047044165 0.17942674 -0.08860246 -0.18993394 0.04992231 0.10705475 -0.11209433
0.05293342 0.002587865 -0.17335522 0.08660804 0.2997851 -0.19232206 -0.3225231 -0.14682136
0.31832987 0.04480695 -0.56410074 -0.4263304 0.035286825 0.06235069 -0.33026525 -0.14553411
0.53007895 -0.01999363 -0.70408684 0.15646023 0.008535409 -0.3081753 -0.1630054 0.2859524
00000000: fba9 723e b7e6 183d 273c 9dbe 7a79 7b3e
00000010: 08f8 6e3e f714 83bd 3048 7dbd 9735 9abd
00000020: 00f6 cdbe e2ef 6fbd aa59 3a39 3866 c33e
00000030: a4f8 a23d 7fa9 ecbd dd95 18be 9a30 e23e
00000040: fbb9 16be 35ac 28be 362d 143e 29b4 c7bd
00000050: 4d3d 93be cb6b 863d 49a1 df3c 5057 27bd
00000060: 5f15 023d df67 f13d 9735 a53d 87ab 963c
00000070: 5b00 e6bd 95d6 5e3d 1472 ba3d 92c4 84bc
00000080: e005 3cbd 62b1 40bd a5bb 373e 3575 b5bd
00000090: 0b7e 42be 567b 4c3d 853f db3d b691 e5bd
000000a0: b7d0 583d 2c99 293b 0884 31be 8e5f b13d
000000b0: 6f7d 993e 13f0 44be bf21 a5be 5758 16be
000000c0: 22fc a23e 7e87 373d e868 10bf fa47 dabe
000000d0: eb88 103d 7063 7f3d 8718 a9be e506 15be
000000e0: 41b3 073f aec9 a3bc 093f 34bf 1c37 203e
000000f0: 1ad8 0b3c 27c9 9dbe e3ea 26be 5a68 923e

encoder_layer_mhattentions.0.attention_heads.0.K.bias f4 [8]
0.07949706 0.1419145 0.008180037 -0.09192352 -0.147448 -0.111246 0.020283889 -0.10616741
00000000: 5bcf a23d 0952 113e 9005 063c 6642 bcbd
00000010: 9cfc 16be f1d4 e3bd 662a a63c 4d6e d9bd

encoder_layer_mhattentions.0.attention_heads.0.V.weight f4 [8, 8]
0.3090331 0.33198142 -0.23334928 0.087829605 -0.020134678 0.017130623 -0.06916596 -0.70872283
0.058402095 0.17427 -0.1782089 -0.3597464 0.0059549515 0.42364952 0.008407668 -0.1489391
0.49434465 -0.014557058 0.09959968 -0.010539797 0.040478162 0.26270044 -0.11525197 -0.060088772
-0.058473118 -0.03419674 0.16667195 0.03386277 -0.1240699 -0.3094209 0.041050784 0.4936039
0.18126678 -0.087352715 -0.37932307 -0.3234011 -0.14896384 0.069528714 -0.29308322 0.32561296
-0.14515218 -0.11177266 0.018384313 0.3773732 0.004464081 0.28954875 0.20838377 0.27096117
0.10226748 0.03397208 0.05928368 0.078102365 -0.16474828 0.14361215 -0.2992085 0.26056796
-0.10442375 -0.08432653 -0.120971486 0.22980566 -0.19068712 0.33723366 -0.21152468 0.4222375
00000000: 9639 9e3e 78f9 a93e 1df3 6ebe 02e0 b33d
00000010: 7bf1 a4bc 8555 8c3c e2a6 8dbd dc6e 35bf
00000020: 0937 6f3d d673 323e 657c 36be ae30 b8be
00000030: c121 c33b 97e8 d83e 51c0 093c 7e83 18be
00000040: be1a fd3e ba80 6ebc ebfa cb3d 1daf 2cbc
00000050: 6ecc 253d ac80 863e 3a09 ecbd a51f 76bd
00000060: 8281 6fbd e111 0cbd 0dac 2a3e b0b3 0a3d
00000070: 5c18 febd 6b6c 9ebe de24 283d a6b9 fc3e
00000080: 009e 393e fbe5 b2bd a236 c2be d494 a5be
00000090: fa89 18be 1265 8e3d 010f 96be beb6 a63e
000000a0: c6a2 14be 10e9 e4bd b39a 963c 0f37 c13e
000000b0: 6d47 923b bc3f 943e 8e62 553e 6cbb 8a3e
000000c0: 9d71 d13d 4f26 0b3d 72d3 723d 22f4 9f3d
000000d0: c6b3 28be 100f 133e db31 99be 2a69 853e
000000e0: 1edc d5bd 63b3 acbd e6bf f7bd 2d52 6b3e
000000f0: 7c43 43be e4a9 ac3e ed99 58be 832f d83e

encoder_layer_mhattentions.0.attention_heads.0.V.bias f4 [8]
-0.16271947 -0.24264409 -0.07709277 0.21673915 -0.09877097 0.17058925 0.063766524 0.08698361
00000000: ef9f 26be b177 78be d0e2 9dbd def0 5d3e
00000010: 6f48 cabd f3ae 2e3e 0698 823d 7724 b23d

encoder_layer_mhattentions.0.attention_heads.1.Q.weight f4 [8, 8]
-0.08216145 -0.07191167 -0.04898912 0.034800105 -0.084884085 -0.021861963 0.11851591 0.029966045
0.021243112 0.10042155 -0.0233902 0.28666648 -0.55407995 1.0700157 0.00064342184 -1.1621071
-0.29261556 -0.20182842 0.44696635 -0.300654 0.8102618 0.5672653 -0.025478112 -0.37254095
0.62982213 0.009535535 0.1007738 -0.26858488 0.047885943 -0.9350661 0.79815763 -0.24219656
0.99293435 -0.47966596 -0.4910199 0.37060234 0.043042142 0.21846446 0.49392146 0.7670327
-0.22783178 -0.09016057 -0.19884153 -0.062311992 -0.14403205 0.42016357 -0.13676816 0.009195156
-0.68016917 -0.0743538 0.7533788 0.3117486 -0.2977186 -0.058051877 0.03868857 0.3852987
0.16854873 0.0046200794 -0.06796008 0.35831925 0.13675162 -0.005579103 0.15980239 0.0632145
00000000: 4344 a8bd 6d46 93bd d1a8 48bd 8e8a 0e3d
00000010: b5d7 adbd dc17 b3bc 78b8 f23d 5a7b f53c
00000020: 0906 ae3c d0a9 cd3d ce9c bfbc f3c5 923e
00000030: 2fd8 0dbf 46f6 883f 4fab 283a edbf 94bf
00000040: b5d1 95be 1cac 4ebe c6d8 e43e 52ef 99be
00000050: 516d 4f3f 4c38 113f 79b7 d0bc b0bd bebe
00000060: 063c 213f ef3a 1c3c 7e62 ce3d f583 89be
00000070: 0d24 443d 7e60 6fbf 0f54 4c3f 6002 78be
00000080: f230 7e3f c796 f5be f666 fbbe 97bf bd3e
00000090: f54c 303d 26b5 5f3e 46e3 fc3e 415c 443f
000000a0: bc4c 69be 1ba6 b8bd 1d9d 4bbe dc3a 7fbd
000000b0: 237d 13be ae1f d73e f40c 0cbe 48a7 163c
000000c0: 911f 2ebf ce46 98bd 6fdd 403f 839d 9f3e
000000d0: 936e 98be cec7 6dbd e877 1e3d df45 c53e
000000e0: 0a98 2c3e 0964 973b a82e 8bbd 9f75 b73e
000000f0: 9e08 0c3e e8d0 b6bb 3da3 233e 9b76 813d

encoder_layer_mhattentions.0.attention_heads.1.Q.bias f4 [8]
0.1005066 -0.017386433 0.093411446 -0.18857908 -0.055112995 -0.13230136 0.034440536 -0.09333181
00000000: 68d6 cd3d fe6d 8ebc 804e bf3d e01a 41be
00000010: 2abe 61bd 027a 07be 8511 0d3d bf24 bfbd

encoder_layer_mhattentions.0.attention_heads.1.K.weight f4 [8, 8]
-0.1277436 -0.0767516 -0.01125791 -0.06447994 0.018060917 -0.07166929 0.11385792 0.03329931
-0.103107765 0.06705489 -0.54363865 -0.17291047 -0.20593378 0.12621552 -0.9524746 1.160569
-0.085051864 0.11404822 -0.04025016 -0.044643175 -0.9485488 1.0220145 0.25155035 -0.018384282
-0.099847294 0.33844268 -0.2468942 -0.45565683 0.47980958 0.6633637 -0.4272448 -0.62545836
-0.5205644 -0.40941098 0.34683177 0.1415124 1.005985 0.19181263 0.17219655 0.16890052
-0.08095029 0.09397767 -0.0019484439 0.20036861 0.16814998 -0.077489264 0.2613791 0.35923025
0.3938736 -0.20521583 -0.3841921 0.5563417 0.10771135 0.2702603 0.7853801 -0.32926214
-0.21804126 -0.31355396 0.19986401 -0.047168866 0.08751369 0.059273124 -0.311604 0.06773645
00000000: 38cf 02be f12f 9dbd 1973 38bc 0f0e 84bd
00000010: 7df4 933c 59c7 92bd 572e e93d db64 083d
00000020: 2a2a d3bd 1354 893d e72b 0bbf 710f 31be
00000030: 4ee0 52be a43e 013e 60d5 73bf 868d 943f
00000040: ac2f aebd 1d92 e93d 5add 24bd c3db 36bd
00000050: 18d4 72bf 5fd1 823f 35cb 803e a29a 96bc
00000060: bd7c ccbd 5c48 ad3e d5d1 7cbe da4b e9be
00000070: 9aa9 f53e 34d2 293f d5bf dabe 0a1e 20bf
00000080: b543 05bf 519e d1be ef93 b13e a0e8 103e
00000090: 1ec4 803f 886a 443e 4b54 303e 42f4 2c3e
000000a0: 44c9 a5bd 5d77 c03d ee62 ffba 6e2d 4d3e
000000b0: 822f 2c3e b1b2 9ebd 7bd3 853e 07ed b73e
000000c0: cda9 c93e 1924 52be d4b4 c4be 696c 0e3f
000000d0: c597 dc3d 8f5f 8a3e ac0e 493f 0c95 a8be
000000e0: 3546 5fbe 258a a0be 27a9 4c3e 2434 41bd
000000f0: 613a b33d 60c8 723d 8f8a 9fbe 68b9 8a3d

encoder_layer_mhattentions.0.attention_heads.1.K.bias f4 [8]
-0.17464186 0.14876959 -0.022058142 0.20560928 0.15174916 -0.16252948 -0.041481543 -0.16154744
00000000: 51d5 32be 0e57 183e 47b3 b4bc 3d8b 523e
00000010: 2264 1b3e 216e 26be 8de8 29bd b16c 25be

encoder_layer_mhattentions.0.attention_heads.1.V.weight f4 [8, 8]
-0.03617253 -0.3338071 -0.17994805 -0.71891814 -0.35312912 -0.46424937 -0.12276486 -0.06308626
-0.44952196 0.15907319 0.19753507 0.0069707716 0.019692749 0.038900744 -0.120691784 0.08096211
0.102795266 -0.22711895 -0.2730156 -0.20209265 0.27971712 0.5020787 0.38455546 0.41474566
-0.048168648 -0.0141283395 -0.035058066 0.119171426 0.06015626 0.070138425 0.024369303 0.13184461
0.23899071 -0.091901906 0.16577789 -0.6733268 0.21705502 0.3771102 0.45040104 0.5609967
0.07622618 0.050593466 0.015742267 -0.09059764 -0.003842653 0.20571415 -0.19537532 -0.028827194
-0.021192439 -0.48946077 0.082024835 -0.12215446 0.1526059 0.36704692 0.2796209 -0.116652966
-0.4206195 0.19246835 0.055742722 -0.044911627 -0.10619941 0.45238227 -0.18622366 -0.23347078
00000000: a629 14bd c4e8 aabe 4d44 38be 050b 38bf
00000010: 57cd b4be 18b2 edbe 256c fbbd 5e33 81bd
00000020: be27 e6be 15e4 223e a246 4a3e 126b e43b
00000030: b052 a13c 6356 1f3d 412d f7bd 76cf a53d
00000040: 5386 d23d df91 68be b3c8 8bbe 60f1 4ebe
00000050: 1537 8f3e 3b88 003f 74e4 c43e 8b59 d43e
00000060: 7d4c 45bd 8d7a 67bc 0c99 0fbd 2610 f43d
00000070: 6966 763d bca4 8f3d 22a2 c73c 4602 073e
00000080: fbb9 743e 1137 bcbd aec1 293e 255f 2cbf
00000090: ac43 5e3e 9714 c13e f79a e63e 7b9d 0f3f
000000a0: 791c 9c3d 183b 4f3d edf5 803c 418b b9bd
000000b0: 05d5 7bbb bba6 523e 7810 48be 0227 ecbc
000000c0: c49b adbc 9a9a fabe a3fc a73d 1e2c fabd
000000d0: b944 1c3e 93ed bb3e 782a 8f3e c0e7 eebd
000000e0: 705b d7be 6c16 453e 7b52 643d 41f5 37bd
000000f0: 147f d9bd a69e e73e 6ab1 3ebe f712 6fbe

encoder_layer_mhattentions.0.attention_heads.1.V.bias f4 [8]
0.17063627 0.011030321 -0.4411356 -0.08186007 -0.41950354 -0.07817883 -0.3602406 0.03640482
00000000: 46bb 2e3e 85b8 343c 86dc e1be 41a6 a7bd
00000010: 2bc9 d6be 391c a0bd 7571 b8be 381d 153d

encoder_layer_mhattentions.0.attention_heads.2.Q.weight f4 [8, 8]
-0.014888407 -0.68915665 0.03413916 -0.40805337 0.23949419 0.036997017 0.18028784 0.062690966
0.048981033 0.1688787 0.4025433 -0.016604334 -0.21743537 0.03750984 -0.03477871 0.2551236
-0.23220313 0.8567434 -0.21579951 0.04512841 -0.22858636 0.39297628 0.48523626 0.016729487
-0.22119753 -0.040172882 0.45846593 -0.35409194 0.22234043 0.0849803 -0.542913 0.33789155
0.16127415 -0.38039425 -0.11710013 0.9992202 -0.15086879 -0.8634092 -1.0398749 -0.5031185
0.15815578 -0.021713436 -0.05333644 0.081246935 -0.018996747 -0.0032871263 -0.039178684 0.033606637
-0.057564322 0.8280577 0.3930999 1.0333207 0.13946234 -0.2909911 -1.1949126 -0.049635142
0.05958376 -0.08719471 -0.41348448 -0.21536404 -0.29057726 0.40205777 0.23118624 0.05598989
00000000: 81ee 73bc 926c 30bf 81d5 0b3d 5fec d0be
00000010: f73d 753e 2f8a 173d 609d 383e 1f64 803d
00000020: 56a0 483d 8aee 2c3e 281a ce3e d005 88bc
00000030: 61a7 5ebe eba3 193d 1f74 0ebd 8f9f 823e
00000040: a8c6 6dbe 8953 5b3f 8cfa 5cbe 91d8 383d
00000050: 8b12 6abe 3034 c93e e370 f83e 470c 893c
00000060: 9b81 62be 528c 24bd 0cbc ea3e 8a4b b5be
00000070: 36ad 633e 270a ae3d 59fc 0abf 1f00 ad3e
00000080: 0d25 253e 09c3 c2be 31d2 efbd e5cc 7f3f
00000090: 597d 1abe 6308 5dbf 9f1a 85bf 60cc 00bf
000000a0: 97f3 213e 60e0 b1bc 5077 5abd cb64 a63d
000000b0: 119f 9bbc d46c 57bb d479 20bd 1da7 093d
000000c0: 91c8 6bbd 97fb 533f 6444 c93e da43 843f
000000d0: 37cf 0e3e c9fc 94be e5f2 98bf 384e 4bbd
000000e0: 1a0e 743d 2493 b2bd 3db4 d3be 6488 5cbe
000000f0: 8bc6 94be 84da cd3e 16bc 6c3e a855 653d

encoder_layer_mhattentions.0.attention_heads.2.Q.bias f4 [8]
0.0063640187 0.1886824 0.02904883 -0.14206877 -0.06976498 0.18984216 -0.7051567 0.8923563
00000000: 4289 d03b f635 413e d0f7 ed3c 7a7a 11be
00000010: f1e0 8ebd fc65 423e 2685 34bf 7671 643f

encoder_layer_mhattentions.0.attention_heads.2.K.weight f4 [8, 8]
-0.10224936 0.09855673 -0.37793002 0.1681004 -0.010992924 -0.53556085 0.08654147 -0.26638168
0.396044 -0.4790796 0.2635278 0.08917558 0.0026279173 0.14351875 0.08013958 0.2015581
-0.49355885 -0.4666288 0.43436864 -0.1095306 0.48918933 0.23029017 -0.077035785 -0.2162591
0.23149663 -0.5162622 -0.27763075 0.41235837 0.32573482 -0.35057718 0.19565101 -0.10413874
0.44123676 0.9394657 -0.06809732 0.15828718 -0.5654361 0.564713 0.34474218 0.30172566
0.04772709 -0.02525315 0.00870898 0.022208475 -0.06720317 0.086745195 -0.17314579 -0.0085824225
0.85516465 0.76443094 0.16396959 0.10954015 0.2170602 0.60377735 0.7457046 0.15496193
-0.53295946 -0.6096564 0.22589143 0.14289135 0.19194546 -0.002358509 -0.76382506 -0.09492991
00000000: 1d68 d1bd 1cd8 c93d 0b80 c1be 8322 2c3e
00000010: aa1b 34bc 841a 09bf a73c b13d 2e63 88be
00000020: 47c6 ca3e ec49 f5be 1eed 863e b0a1 b63d
00000030: 2339 2c3b 94f6 123e 3820 a43d 3f65 4e3e
00000040: bfb3 fcbe f8e9 eebe 9165 de3e 9451 e0bd
00000050: 0677 fa3e 30d1 6b3e f0c4 9dbd 0773 5dbe
00000060: 740d 6d3e c229 04bf 9e25 8ebe a320 d33e
00000070: b7c6 a63e da7e b3be bd58 483e b146 d5bd
00000080: c9e9 e13e d380 703f 9c76 8bbd 0916 223e
00000090: 6cc0 10bf 0891 103f 0c82 b03e c97b 9a3e
000000a0: 7b7d 433d b2df cebc 1cb0 0e3c 8cee b53c
000000b0: d1a1 89bd 77a7 b13d 214d 31be 4a9d 0cbc
000000c0: 12ec 5a3f bfb1 433f a5e7 273e 9656 e03d
000000d0: 0745 5e3e 2791 1a3f 7fe6 3e3f 57ae 1e3e
000000e0: 0870 08bf 7112 1cbf 1550 673e 1c52 123e
000000f0: 5a8d 443e 3791 1abb 0a8a 43bf 9d6a c2bd

encoder_layer_mhattentions.0.attention_heads.2.K.bias f4 [8]
0.336531 0.093748465 -0.33620536 -0.130286 0.012428324 -0.30258873 0.37011188 -0.042092506
00000000: cb4d ac3e 32ff bf3d 1c23 acbe b169 05be
00000010: 2ba0 4b3c e9ec 9abe 4e7f bd3e 3169 2cbd

encoder_layer_mhattentions.0.attention_heads.2.V.weight f4 [8, 8]
-0.05122716 0.25855443 0.08773129 0.31949034 -0.12891246 0.056321327 -0.4122758 0.030311543
-0.02828555 -0.10154823 -0.2264846 -0.41103786 0.015285037 0.18657635 0.14409502 -0.034756854
0.033392526 -0.039603345 -0.0056831534 -0.012883855 -0.033657525 0.05349044 0.05904952 -0.043998647
0.031707473 0.11262812 -0.1648608 0.047058593 0.11051141 0.052651156 0.34632567 -0.07862646
-0.01816062 -0.08639565 -0.023155967 0.11755692 -0.023543239 0.087441854 0.09084442 -0.25457534
0.0070076403 -0.07706811 -0.17461632 0.38414013 -0.296837 -0.047804683 0.2564196 -0.24237482
0.055475343 0.29399776 -0.042101715 0.15068315 0.2764538 -0.1654008 -0.075803295 -0.27163875
0.09849742 -0.21051039 -0.014663893 0.020483809 -0.025793158 0.010353137 -0.10449909 0.058076095
00000000: 92d3 51bd 3f61 843e 76ac b33d 3d94 a33e
00000010: a101 04be 31b1 663d d015 d3be ea4f f83c
00000020: 19b7 e7bc 85f8 cfbd 94eb 67be 8e73 d2be
00000030: 186e 7a3c df0d 3f3e a58d 133e 345d 0ebd
00000040: 9ac6 083d 1e37 22bd bf39 babb ce16 53bc
00000050: 79dc 09bd cb18 5b3d e9dd 713d ed37 34bd
00000060: b2df 013d 92a9 e63d 45d1 28be 83c0 403d
00000070: ce53 e23d bda8 573d 9951 b13e e906 a1bd
00000080: 95c5 94bc 34f0 b0bd 95b1 bdbc afc1 f03d
00000090: c0dd c0bc b714 b33d a40c ba3d b357 82be
000000a0: 59a0 e53b e3d5 9dbd 9fce 32be 04ae c43e
000000b0: 05fb 97be d8ce 43bd 6e49 833e 1b31 78be
000000c0: 1d3a 633d e086 963e d972 2cbd af4c 1a3e
000000d0: 5a8b 8d3e d45e 29be c23e 9bbd 3c14 8bbe
000000e0: 04b9 c93d 0990 57be d340 70bc a9cd a73c
000000f0: 2c4c d3bc 34a0 293c 9e03 d6bd 33e1 6d3d

encoder_layer_mhattentions.0.attention_heads.2.V.bias f4 [8]
0.35853878 -0.2966857 0.030540042 -0.061678577 -0.088239625 0.35268834 0.08286699 0.056269567
00000000: 6592 b73e 30e7 97be 1c2f fa3c ada2 7cbd
00000010: fab6 b4bd 9193 b43e 2bb6 a93d eb7a 663d

encoder_layer_mhattentions.0.attention_heads.3.Q.weight f4 [8, 8]
0.31323716 -0.15689991 -0.6259567 -0.4886562 0.6319992 -0.37090418 0.20322812 0.6637416
-0.20326859 -0.072943546 -0.23269817 0.28036913 -0.081680305 0.1688275 0.03193892 0.19520785
0.011058998 -0.0095608905 -0.2632621 0.1732854 -0.08247822 0.08709378 0.15919697 -0.3924377
-0.04479233 0.10520536 0.03336045 -0.07644834 -0.005673448 0.039954346 0.005275963 0.086599976
0.19393767 -0.2508106 0.38987714 -0.18021671 0.5708966 -0.06412555 -0.32715103 -0.20308776
0.2190895 0.5125803 -0.19862325 0.050603054 -0.41985714 0.20441513 0.0947037 0.10829666
-0.3099297 -0.5065666 -0.10916544 -0.19953674 0.36630124 -0.4832095 -0.21018375 0.051523626
0.53635 0.022860015 0.38667277 -0.46875516 0.42526656 -0.24764071 -0.39595464 -0.20965667
00000000: 9f60 a03e 5faa 20be b33e 20bf 2531 fabe
00000010: b3ca 213f 27e7 bdbe 081b 503e f8ea 293f
00000020: a425 50be 6d63 95bd 6e48 6ebe 8b8c 8f3e
00000030: 0148 a7bd 1ee1 2c3e 63d2 023d 91e4 473e
00000040: cd30 353c 48a5 1cbc 4aca 86be ba71 313e
00000050: 57ea a8bd 395e b23d 8804 233e 98ed c8be
00000060: 2a78 37bd e875 d73d f8a4 083d f390 9cbd
00000070: 55e8 b9bb 2ba7 233d fce1 ac3b 545b b13d
00000080: 9997 463e 3f6a 80be fa9d c73e bb8a 38be
00000090: 4826 123f 4254 83bd 5780 a7be 3df6 4fbe
000000a0: ff58 603e 7638 033f e563 4bbe 2645 4f3d
000000b0: 84f7 d6be 3352 513e 03f4 c13d a4ca dd3d
000000c0: 1baf 9ebe 59ae 01bf 2192 dfbd 5c53 4cbe
000000d0: d68b bb3e 3c67 f7be 693a 57be 700a 533d
000000e0: 3c4e 093f ed44 bb3c f9f9 c53e ad00 f0be
000000f0: 8abc d93e 8795 7dbe 91ba cabe 3db0 56be

encoder_layer_mhattentions.0.attention_heads.3.Q.bias f4 [8]
-0.56205684 0.053225253 0.086518876 -0.17001049 0.31594664 0.56112176 -0.47904268 0.62518376
00000000: f5e2 0fbf b902 5a3d cf30 b13d 3b17 2ebe
00000010: c2c3 a13e ada5 0f3f 1545 f5be 0b0c 203f

encoder_layer_mhattentions.0.attention_heads.3.K.weight f4 [8, 8]
-0.3916955 0.71721977 0.010633155 -0.38584396 -0.5962011 -0.2771603 -0.71537507 -0.7213927
0.19571032 -0.20464854 0.10059791 0.6038554 0.15955132 0.2697532 -0.039744403 -0.28968868
-0.33004296 0.01874342 -0.027339673 0.2790997 0.24358645 0.0141831795 0.32608542 -0.3005845
-0.05548638 0.048897456 0.010369339 -0.025225269 -0.036095195 0.043754786 -0.005456593 0.18963823
0.36007476 0.41407362 -0.21050355 -0.49653462 -0.20604171 -0.23721506 -0.080154985 0.04072682
-0.37687132 -0.72958374 -0.31450942 0.60379773 0.18279003 0.32457837 0.22660169 -0.006728547
0.26285237 0.801046 0.31155366 -0.643536 -0.3929323 -0.21188325 -0.2327946 -0.058841553
-0.1780303 0.33838755 -0.8076791 -0.5686619 -0.24450444 -0.27144557 0.30139214 0.07204126
00000000: 508c c8be b79b 373f af36 2e3c 578d c5be
00000010: a3a0 18bf f4e7 8dbe d222 37bf 31ad 38bf
00000020: 4968 483e 638f 51be 4706 ce3d 4496 1a3f
00000030: 6c61 233e 171d 8a3e 07cb 22bd 1352 94be
00000040: 64fb a8be cd8b 993c 73f7 dfbc 28e6 8e3e
00000050: ba6e 793e 9160 683c abf4 a63e 36e6 99be
00000060: b045 63bd b348 483d 29e4 293c 39a5 cebc
00000070: 8ed8 13bd 3838 333d 38cd b2bb 8630 423e
00000080: b85b b83e 7501 d43e 3e8e 57be c939 febe
00000090: 99fc 52be 81e8 72be 4c28 a4bd 2ad1 263d
000000a0: 47f5 c0be 00c6 3abf 6107 a1be 7d92 1a3f
000000b0: 4f2d 3b3e 232f a63e 460a 683e 257b dcbb
000000c0: 9694 863e 5a11 4d3f f683 9f3e c6be 24bf
000000d0: 6c2e c9be ecf7 58be b561 6ebe d703 71bd
000000e0: 934d 36be 2241 ad3e 0fc4 4ebf d493 11bf
000000f0: 5f5f 7abe eafa 8abe 1250 9a3e 5e8a 933d

encoder_layer_mhattentions.0.attention_heads.3.K.bias f4 [8]
-0.27807513 0.077864595 -0.11733841 0.26940957 0.3606818 0.27262202 0.10267078 0.08038334
00000000: dd5f 8ebe 7977 9f3d 1f4f f0bd 0df0 893e
00000010: 49ab b83e 1d95 8b3e 0f45 d23d 05a0 a43d

encoder_layer_mhattentions.0.attention_heads.3.V.weight f4 [8, 8]
-0.2865016 -0.07243083 -0.0024730857 -0.12406593 0.06594244 0.13006997 -0.0969715 -0.051473476
-0.4384137 0.04502316 -0.100739986 0.073751435 0.22158846 -0.17238072 -0.29693642 -0.18674916
-0.060597442 0.12157933 0.23999435 0.20500675 -0.42501575 0.22036584 -0.044637542 0.44392252
-0.272089 -0.023075521 -0.06051184 0.04474851 0.07216633 -0.21518022 0.02168943 0.029266687
-0.29552603 -0.34121478 -0.080142036 0.14843342 -0.31185785 0.2874943 0.3944974 0.026676591
-0.13705987 -0.07147716 -0.23381683 0.2594125 0.012371144 -0.094115816 -0.13497771 -0.4684179
0.27754775 0.42860618 -0.061840862 0.23658305 -0.31389832 0.19989064 -0.3126149 0.1740473
0.25704753 0.10905662 0.059565403 0.14798121 0.21809247 -0.09822626 -0.4565605 0.46468768
00000000: 56b0 92be 9d56 94bd 7e13 22bb 4716 febd
00000010: d40c 873d 1031 053e fe98 c6bd dad5 52bd
00000020: c377 e0be 346a 383d c450 cebd fe0a 973d
00000030: 16e8 623e 9284 30be 0d08 98be 2c3b 3fbe
00000040: 0635 78bd 95fe f83d 14c1 753e 4aed 513e
00000050: aa9b d9be 95a7 613e dbd5 36bd d049 e33e
00000060: 404f 8bbe e008 bdbc 43db 77bd 374a 373d
00000070: f1cb 933d 3458 5cbe 08ae b13c b1c0 ef3c
00000080: 304f 97be b4b3 aebe 8221 a4bd eefe 173e
00000090: d5ab 9fbe 7432 933e 90fb c93e de88 da3c
000000a0: 6c59 0cbe 9e62 92bd ae6d 6fbe b7d1 843e
000000b0: 57b0 4a3c cbbf c0bd 9937 0abe 79d4 efbe
000000c0: bd1a 8e3e 4572 db3e d84c 7dbd d442 723e
000000d0: 48b7 a0be 22b0 4c3e 0f0f a0be 7539 323e
000000e0: bc9b 833e 1459 df3d dafa 733d 6388 173e
000000f0: a253 5f3e d92a c9bd 4cc2 e9be 8beb ed3e

encoder_layer_mhattentions.0.attention_heads.3.V.bias f4 [8]
0.057239972 0.17376183 -0.01389559 -0.2018045 -0.5091443 0.088318534 0.25468886 0.14149004
00000000: 7674 6a3d 9fee 313e 54aa 63bc d7a5 4ebe
00000010: 4857 02bf 59e0 b43d 9466 823e c4e2 103e

encoder_layer_mhattentions.0.output_layer.weight f4 [32, 32]
-0.06450117 -0.39717984 -0.19026491 0.53030413 0.23738807 0.36822283 0.44356808 0.14095704
-0.12460645 -0.019715298 -0.9314582 0.51007444 -1.403993 0.3252158 -0.7123471 -0.06927597
0.18974787 -0.3867691 0.04464797 0.5545963 -0.044534247 -0.2634464 0.252586 0.07766383
-0.41348454 -0.0036838772 -0.29198444 -0.14308606 -0.24384013 0.51756096 0.23027721 -0.007758971
-0.24180096 0.61846286 0.26650015 -0.29825616 0.54686964 -0.6217075 0.13805693 0.10772442
-0.13997087 -0.33200625 0.6492624 -0.3482321 0.83609444 0.3051512 0.35892114 -0.158741
0.122781545 0.0062418524 -0.066313334 0.60422593 -0.2186564 -0.06854975 0.3495971 -0.19739284
0.0039567514 0.0072507076 -0.19653343 0.04541823 0.232916 0.3388415 -0.13510638 -0.39515844
-0.32877064 -0.39747143 0.09440951 0.044230457 -0.37727037 0.12780088 0.11083089 0.004359021
0.28840503 -0.2626301 -0.6574242 -0.0033049693 -0.96778494 -0.24285573 0.07414181 0.0664537
-0.1788017 0.37750968 -0.10805832 -0.19337252 -0.23761629 -0.34874773 0.21619344 0.09649639
-0.0518947 -0.096392766 -0.13232408 -0.20174797 -0.26377523 -0.09202205 0.4073379 0.52881306
0.5221074 -0.07183445 -0.59035605 -0.4787981 -0.19236664 -0.101113856 -0.6801565 -0.059378285
0.19558093 0.579359 -0.061520126 0.058567833 0.21657375 -0.120886475 0.10712604 0.57625556
-0.42577317 0.14826952 0.13282798 -0.067485236 -0.100298665 -0.46945047 0.5750666 -0.3189995
0.027690774 0.18409126 -0.19982521 -0.2765052 -0.20935953 0.010210149 0.12511098 -0.5859076
0.054806665 -0.08417987 -0.1328535 -0.013734857 -0.052909017 0.04150938 -0.059924748 0.050474662
-0.23560157 0.0022244183 -0.13834909 -0.08468451 0.13303693 -0.106926896 0.20989321 0.04964153
0.03542798 -0.099284075 -0.038906865 -0.17872189 0.04220943 -0.08755718 0.24944973 -0.009786303
0.09219516 -0.044598356 0.011188573 -0.017428888 0.022316864 -0.13200451 0.03959022 0.07808471
0.4077863 0.12052035 -0.20459664 -0.18345454 -0.3871319 -0.02439207 -0.3133643 -0.39959338
0.30536625 0.41631982 -0.0718919 0.23884626 -0.05393504 -0.42806938 0.06596204 0.05180785
-0.28455648 -0.12265532 0.03038973 -0.088768095 -0.12284354 -0.366995 0.46477738 0.007876671
0.10330464 0.6143504 0.2364407 -0.12305515 0.0030775485 0.15935053 -0.1588651 0.30875102
0.0013319391 -0.043256387 0.19978935 0.22124116 -0.44259867 0.012596853 -0.059147444 -0.09290607
0.30188856 -0.09042661 0.06629974 -0.077450454 -0.25223824 -0.13096339 0.038167916 -0.32835355
-0.14210658 0.33836824 0.015148998 -0.013496403 -0.03323676 -0.46608284 0.10245438 0.13766935
-0.121568136 0.27499235 0.079887174 -0.15961368 -0.2937089 -0.09854219 -0.15285757 0.4471127
-0.3484326 0.1840517 -0.18207893 0.07742938 0.2666717 -0.41020316 -0.10805794 -0.17584562
-0.41821367 0.2954172 0.17936666 0.26525798 0.14195542 -0.0060289875 -0.023154946 0.23173022
-0.19426697 0.32091123 0.06041821 0.12559432 0.17604378 0.2711799 -0.07117944 -0.075242266
0.19223744 0.112009026 -0.20696527 -0.17287414 -0.063356936 0.13548201 -0.35506502 -0.13057448
00000000: 3019 84bd 285b cbbe ced4 42be 03c2 073f
00000010: dc15 733e b487 bc3e 5b1b e33e 0b57 103e
00000020: ab31 ffbd fa81 a1bc 0b74 6ebf 3d94 023f
00000030: 0bb6 b3bf af82 a63e 615c 36bf 8fe0 8dbd
00000040: 444d 423e 9906 c6be cae0 363d 06fa 0d3f
00000050: 8b69 36bd 72e2 86be f452 813e 370e 9f3d
00000060: 3fb4 d3be 346d 71bb fc7e 95be 2785 12be
00000070: 3ab1 79be e07e 043f cacd 6b3e f73e febb
00000080: ac9a 77be 9553 1e3f b572 883e 08b5 98be
00000090: a6ff 0b3f 3928 1fbf cc5e 0d3e 9f9e dc3d
000000a0: 8654 0fbe b9fc a9be 1036 263f 7a4b b2be
000000b0: 490a 563f c73c 9c3e 83c4 b73e 008d 22be
000000c0: e474 fb3d 7488 cc3b 49cf 87bd 8dae 1a3f
000000d0: 77e7 5fbe d063 8cbd 64fe b23e 5921 4abe
000000e0: a3a7 813b 5897 ed3b 0f40 49be 7708 3a3d
000000f0: 8881 6e3e a27c ad3e 5459 0abe 3552 cabe
00000100: a054 a8be 6081 cbbe c659 c13d ff2a 353d
00000110: 9529 c1be 3cde 023e 4efb e23d 1ed6 8e3b
00000120: d3a9 933e 7477 86be f44c 28bf 2f98 58bb
00000130: c1c0 77bf 2caf 78be a9d7 973d e118 883d
00000140: cb17 37be f348 c13e ae4d ddbd 7203 46be
00000150: af51 73be 108f b2be d061 5d3e e69f c53d
00000160: 898f 54bd 9269 c5bd f77f 07be 0597 4ebe
00000170: 8c0d 87be 0e76 bcbd 988e d03e 4b60 073f
00000180: d5a8 053f f11d 93bd 9321 17bf 0625 f5be
00000190: c3fb 44be c814 cfbd bd1e 2ebf a536 73bd
000001a0: 5e46 483e df50 143f 87fc 7bbd d3e4 6f3d
000001b0: 82c5 5d3e 5493 f7bd e664 db3d 7c85 133f
000001c0: f1fe d9be f7d3 173e 0f04 083e b335 8abd
000001d0: 6369 cdbd d05b f0be 9137 133f e753 a3be
000001e0: c3d7 e23c 6b82 3c3e fb9e 4cbe 1792 8dbe
000001f0: 5862 56be 7848 273c 181d 003e 0afe 15bf
00000200: f47c 603d 7f66 acbd bf0a 08be 2a08 61bc
00000210: 20b7 58bd bd05 2a3d a773 75bd 85be 4e3d
00000220: 8a41 71be 8cc7 113b 62ab 0dbe 136f adbd
00000230: d53a 083e 7dfc dabd 3fee 563e eb54 4b3d
00000240: ee1c 113d 7355 cbbd ce5c 1fbd df02 37be
00000250: cce3 2c3d 2e51 b3bd c06f 7f3e bb56 20bc
00000260: d1d0 bc3d c4ac 36bd 4750 373c 07c7 8ebc
00000270: dbd1 b63c 312c 07be 5b29 223d e0ea 9f3d
00000280: 5ec9 d03e 60d3 f63d c881 51be 82db 3bbe
00000290: 2736 c6be e1d1 c7bc 4971 a0be 8197 ccbe
000002a0: f758 9c3e df27 d53e 0f3c 93bd 1d94 743e
000002b0: fdea 5cbd e92b dbbe 1b17 873d 7834 543d
000002c0: 63b1 91be b632 fbbd e2f3 f83c 0ccc b5bd
000002d0: 6595 fbbd c5e6 bbbe 4df7 ed3e 270d 013c
000002e0: 6291 d33d 1146 1d3f 831d 723e 5704 fcbd
000002f0: b2b0 493b c92c 233e 88ad 22be 9d14 9e3e
00000300: 7694 ae3a 9c2d 31bd 9495 4c3e 0b8d 623e
00000310: 4b9c e2be 0863 4e3c 9744 72bd 8a45 bebd
00000320: 2391 9a3e 9631 b9bd 28c8 873d 589e 9ebd
00000330: 5f25 81be 441b 06be f655 1c3d f51d a8be
00000340: 6384 11be 9a3e ad3e 8133 783c 0420 5dbc
00000350: 4523 08bd 69a2 eebe 9ad3 d13d 32f9 0c3e
00000360: b7f8 f8bd cccb 8c3e e39b a33d c571 23be
00000370: 0361 96be 7dd0 c9bd b286 1cbe f5eb e43e
00000380: c265 b2be 0d78 3c3e e672 3abe 4b93 9e3d
00000390: 3189 883e 2606 d2be 7b4d ddbd e010 34be
000003a0: 1a20 d6be ec40 973e e5ab 373e e5cf 873e
000003b0: c35c 113e d08e c5bb 71af bdbc b04a 6d3e
000003c0: eced 46be 7a4e a43e 1679 773d cc9b 003e
000003d0: d244 343e 18d8 8a3e 87c6 91bd 9e18 9abd
000003e0: e4d9 443e fd64 e53d b4ee 53be eb05 31be
000003f0: 48c1 81bd ccbb 0a3e 15cb b5be 51b5 05be

encoder_layer_mhattentions.0.output_layer.bias f4 [32]
0.0015375477 -0.25912112 -0.47686353 -0.44288042 0.12610053 0.41236433 0.18062392 -0.43382844
-0.28932464 0.06957261 0.32469466 -0.17263214 -0.2196138 0.52668846 0.14366359 -0.12060692
-0.3399913 0.5022562 0.3177292 -0.8226902 0.4723828 -0.25448796 0.85431755 0.3469021
0.036354598 0.47380316 0.026710596 -0.013987319 -0.30379164 0.011878571 -0.2478417 -0.10176221
00000000: 8a87 c93a 86ab 84be 7527 f4be 39c1 e2be
00000010: 7f20 013e 6b21 d33e 7af5 383e c31e debe
00000020: 5c22 94be 167c 8e3d 613e a63e 7bc6 30be
00000030: 71e2 60be 0ed5 063f 8c1c 133e c300 f7bd
00000040: 5713 aebe dd93 003f 67ad a23e d39b 52bf
00000050: 29dc f13e 3f4c 82be 8eb4 5a3f 279d b13e
00000060: 8fe8 143d 5496 f23e 2ed0 da3c 112b 65bc
00000070: 948a 9bbe 569e 423c 37ca 7dbe b568 d0bd

encoder_layer_mhattentions.1.attention_heads.0.Q.weight f4 [8, 8]
0.9514894 -0.6132952 0.10101291 -0.6810617 0.208497 0.7145848 0.21627724 0.426873
-0.08025369 0.41896725 -0.52397865 0.32000872 0.21175376 -0.5655969 0.51379466 -0.18435207
-0.17056209 -0.72110707 -0.5566505 0.19622038 -0.17820165 -0.3531671 -0.35826924 0.5259299
0.5379112 -0.6214566 -0.2110277 1.050263 -0.28735334 0.38662243 -0.20462042 -0.38942662
0.0054023685 0.7009849 -0.1741199 0.016873611 -0.20196918 0.19065098 -0.31266737 -0.06454455
-0.5976086 -0.2956092 -0.6234484 0.45815405 -0.20999353 -0.8574747 0.39505237 -0.26455507
0.6473456 0.43674833 0.023419539 0.37318453 -0.008247615 -0.069395535 0.28091204 0.6867746
-0.3138905 0.09141974 0.3029863 0.3368253 -0.30782187 -0.01875117 0.7151501 -0.33435923
00000000: cf94 733f ea00 1dbf dbdf ce3d 0f5a 2ebf
00000010: 3d80 553e 08ef 363f c877 5d3e 198f da3e
00000020: 0c5c a4bd e082 d63e 7723 06bf 2fd8 a33e
00000030: fad5 583e f5ca 10bf 0c88 033f cac6 3cbe
00000040: d4a7 2ebe 799a 38bf a680 0ebf ffed 483e
00000050: 7e7a 36be 51d2 b4be 116f b7be 58a3 063f
00000060: 8cb4 093f c817 1fbf a517 58be 056f 863f
00000070: fa1f 93be 60f3 c53e 0488 51be ed62 c7be
00000080: 5a06 b13b bf73 333f 7d4c 32be 873a 8a3c
00000090: 02d1 4ebe 033a 433e f015 a0be ef2f 84bd
000000a0: e1fc 18bf 175a 97be 509a 1fbf 2b93 ea3e
000000b0: 8b08 57be 7683 5bbf 4e44 ca3e c373 87be
000000c0: 71b8 253f 7a9d df3e 55da bf3c 0b12 bf3e
000000d0: 0121 07bc 3f1f 8ebd b4d3 8f3e 76d0 2f3f
000000e0: 41b6 a0be 463a bb3d 0521 9b3e 5e74 ac3e
000000f0: d49a 9dbe 0e9c 99bc 1414 373f 2231 abbe

encoder_layer_mhattentions.1.attention_heads.0.Q.bias f4 [8]
-0.10393891 -1.0496778 -0.3686078 0.11327525 -1.4869858 0.24922319 0.12718299 0.07928797
00000000: ecdd d4bd d85b 86bf 29ba bcbe dbfc e73d
00000010: 8d55 bebf 5d34 7f3e 423c 023e bb61 a23d

encoder_layer_mhattentions.1.attention_heads.0.K.weight f4 [8, 8]
0.547162 -0.23468697 0.024221066 -0.08209315 0.31861988 0.10848342 -0.787387 -0.40777403
-0.13761427 0.4510779 0.92566025 -0.74172455 0.2918505 -0.112520225 -0.30016822 -0.19393548
-0.16258858 -0.17844523 0.7917934 0.65517926 -0.21832506 0.102258414 0.13353084 -0.3318589
0.6549481 0.6384214 -0.08383154 -0.35500404 0.0028788988 -0.082932405 0.10999545 -0.80801946
0.09114384 -0.15661964 0.29753566 -0.027565049 0.37804306 -1.2192969 0.48747963 -0.43441024
-0.38070464 0.26953468 0.2564093 -0.18467554 -0.20062493 0.64146364 0.13696519 0.48395485
-0.6145341 0.11613391 -0.17182212 -0.06886381 0.3119163 0.25859213 -0.12851895 -0.5462973
0.12188596 -0.10122688 0.0662124 -0.51445377 0.3499308 0.48808625 0.3434274 0.31441423
00000000: cf12 0c3f c851 70be 426b c63c 7420 a8bd
00000010: 2522 a33e 8e2c de3d 3292 49bf c2c7 d0be
00000020: c1ea 0cbe aff3 e63e 12f8 6c3f a9e1 3dbf
00000030: 6e6d 953e 0171 e6bd a6af 99be 0697 46be
00000040: 9f7d 26be 59ba 36be f9b2 4a3f d4b9 273f
00000050: 9b90 5fbe dc6c d13d 4fbc 083e 69e9 a9be
00000060: aeaa 273f 966f 233f dfaf abbd 17c3 b5be
00000070: e8ab 3c3b 77d8 a9bd 4b45 e13d 5dda 4ebf
00000080: 9fa9 ba3d e660 20be 9856 983e 19d0 e1bc
00000090: dc8e c13e ec11 9cbf ee96 f93e 056b debe
000000a0: b8eb c2be 7300 8a3e 1448 833e 961b 3dbe
000000b0: 9f70 4dbe f636 243f 9a40 0c3e eec8 f73e
000000c0: 1b52 1dbf 9ed7 ed3d 23f2 2fbe 7808 8dbd
000000d0: 7eb3 9f3e 3066 843e 799a 03be 24da 0bbf
000000e0: 599f f93d 0a50 cfbd 5e9a 873d 3eb3 03bf
000000f0: 212a b33e 71e6 f93e b7d5 af3e e7fa a03e

encoder_layer_mhattentions.1.attention_heads.0.K.bias f4 [8]
0.21629134 -0.367285 0.29555005 0.022150168 -0.32294428 -0.21167408 0.34196925 -0.095061325
00000000: 7a7b 5d3e c80c bcbe 5652 973e 4574 b53c
00000010: f458 a5be 17c1 58be 9816 af3e 83af c2bd

encoder_layer_mhattentions.1.attention_heads.0.V.weight f4 [8, 8]
0.24842091 -0.06387344 0.008019852 -0.3125265 -0.115677215 0.15868486 -0.27057955 -0.06588469
-0.14799608 -0.08623751 -0.1356628 -0.18088982 0.014185576 -0.043752346 -0.057952043 -0.27854258
-0.23711523 0.08069936 0.11455149 0.16369236 0.101643 0.009675625 0.037999816 0.028758014
0.06544003 0.038856294 0.069525056 -0.25779006 0.018228134 -0.11243176 -0.06011449 -0.031173099
-0.47717005 -0.081493326 0.15778556 0.009573436 -0.01089141 -0.082927614 0.0167039 0.17270643
0.1341039 0.12339792 0.024584465 -0.028184136 0.0011091086 -0.049767278 -0.10806344 0.1483308
0.10997568 0.10401835 -0.20118442 -0.18708903 0.043443836 0.03360328 -0.06034995 0.06842353
-0.05491015 -0.25418013 0.084303334 0.10405339 0.07082694 -0.043105766 -0.056963827 -0.09999288
00000000: 0d62 7e3e 14d0 82bd b365 033c 7903 a0be
00000010: 2de8 ecbd 497e 223e 6789 8abe 8dee 86bd
00000020: 498c 17be 4b9d b0bd 30eb 0abe 2e3b 39be
00000030: 9e6a 683c a935 33bd 1f5f 6dbd 229d 8ebe
00000040: 56ce 72be b545 a53d f999 ea3d f89e 273e
00000050: 352a d03d 8386 1e3c b2a5 1b3d ed95 eb3c
00000060: 6c05 863d c727 1f3d 2763 8e3d 0ffd 83be
00000070: 2b53 953c 9f42 e6bd 9d3a 76bd ba5e ffbc
00000080: a24f f4be f9e5 a6bd 8a92 213e e7d9 1c3c
00000090: e271 32bc f4d5 a9bd 9ed6 883c f4d9 303e
000000a0: 8852 093e 0cb8 fc3d 5c65 c93c 6be2 e6bc
000000b0: 825f 913a c6d8 4bbd 5d50 ddbd 07e4 173e
000000c0: ee3a e13d 9307 d53d 4a03 4ebe 4494 3fbe
000000d0: 2af2 313d 98a3 093d 8231 77bd a321 8c3d
000000e0: 77e9 60bd e623 82be 3aa7 ac3d f219 d53d
000000f0: b70d 913d ac8f 30bd e752 69bd 11c9 ccbd

encoder_layer_mhattentions.1.attention_heads.0.V.bias f4 [8]
-0.15001038 -0.0044137496 0.08008474 0.0028197095 0.124618724 0.005342899 -0.042732053 0.046974182
00000000: 529c 19be 37a1 90bb 7803 a43d e0ca 383b
00000010: 1a38 ff3d 7c13 af3b ce07 2fbd 0068 403d

encoder_layer_mhattentions.1.attention_heads.1.Q.weight f4 [8, 8]
-0.36868048 -0.0800907 -0.08978621 0.46466032 -0.10634083 -0.02560587 -0.37561083 -0.13037224
0.20531604 -0.10462277 0.34431207 -0.3849577 -0.8125976 -0.023976782 0.26938927 0.14727357
-0.46431136 -0.15326585 0.41033617 0.47437158 -0.6878893 0.1224923 0.075377196 0.4936612
0.21843758 -0.2559896 0.34850755 -0.56092787 0.18947107 0.1393301 0.24112763 0.27945182
-0.21332388 -0.0602692 -0.47476754 0.33866698 0.4170766 0.32406306 -0.41160437 0.1589309
0.26770395 -0.058366627 -0.3650458 0.2754256 -0.5838721 -0.01187433 -1.120722 0.48667186
-0.28710148 -0.042464003 -0.30719057 0.11655147 0.30332267 -0.05740449 -0.79146963 0.586244
-0.5850045 0.080441 -0.0028589133 0.24737538 0.41515657 -0.5488221 -0.009314645 -0.7901717
00000000: b0c3 bcbe 9806 a4bd d5e1 b7bd f5e7 ed3e
00000010: 39c9 d9bd 67c3 d1bc 1050 c0be 4d80 05be
00000020: 5e3e 523e 7644 d6bd ac49 b03e 2d19 c5be
00000030: 6506 50bf f56a c4bc 64ed 893e e2ce 163e
00000040: 38ba edbe b9f1 1cbe 9517 d23e d5e0 f23e
00000050: 8319 30bf 3edd fa3d 5c5f 9a3d 29c1 fc3e
00000060: 1aae 5f3e 1211 83be 956f b23e f898 0fbf
00000070: b404 423e 8dac 0e3e 29ea 763e 4f14 8f3e
00000080: 9371 5abe d6dc 76bd bb14 f3be c265 ad3e
00000090: 108b d53e 98eb a53e cfbd d2be c8be 223e
000000a0: 7e10 893e d811 6fbd 48e7 babe 9604 8d3e
000000b0: a478 15bf 8d8c 42bc d273 8fbf 0e2d f93e
000000c0: f7fe 92be bcee 2dbd 1548 9dbe 89b2 ee3d
000000d0: 1c4d 9b3e f820 6bbd c19d 4abf 1614 163f
000000e0: dbc2 15bf 40be a43d 9b5c 3bbb f94f 7d3e
000000f0: 678f d43e 9b7f 0cbf 749c 18bc b148 4abf

encoder_layer_mhattentions.1.attention_heads.1.Q.bias f4 [8]
-0.0307245 0.17879173 -0.38209027 -0.10926845 -0.32017857 -0.4667173 0.20363021 -0.3083764
00000000: f2b1 fbbc 2e15 373e 56a1 c3be 23c8 dfbd
00000010: 72ee a3be 92f5 eebe 7084 503e 83e3 9dbe

encoder_layer_mhattentions.1.attention_heads.1.K.weight f4 [8, 8]
0.23050359 -0.1967449 -0.2819374 0.41779438 -0.36083525 0.09762847 0.025941368 -0.09668671
-0.10143652 -0.057706818 0.42325792 0.013776693 0.10436668 -0.09088296 0.15977709 -0.50741464
0.27652475 -0.5332924 0.18897344 -0.045064922 0.034587167 0.3277757 0.1202752 -0.27576178
0.0024109082 0.3588628 0.44820064 -0.69053435 0.3330707 -0.12850773 0.12951484 0.14470871
0.18218082 -0.1425414 -0.18003938 0.0045179375 -0.7162069 0.5351404 -0.11537879 0.5645868
-0.055074736 -0.17608728 -0.37841967 0.7788107 -0.28730172 0.82986885 0.91172284 0.051713753
0.35537523 0.08321193 -0.30819005 0.12861319 -1.0719318 0.38967493 0.40530133 -0.382464
0.18407552 -0.1127054 -0.7744013 0.11170377 0.33110034 -0.18639283 -0.4042717 0.44586134
00000000: 2209 6c3e 7f77 49be 195a 90be 25e9 d53e
00000010: 66bf b8be 6ff1 c73d fe82 d43c af03 c6bd
00000020: f3bd cfbd fc5d 6cbd 43b5 d83e a3b7 613c
00000030: 33be d53d d820 babd 9b9c 233e ede5 01bf
00000040: a794 8d3e da85 08bf 4182 413e ff95 38bd
00000050: 46ab 0d3d 37d2 a73e d852 f63d a630 8dbe
00000060: 5400 1e3b ddbc b73e 8e7a e53e dcc6 30bf
00000070: 3e88 aa3e 8897 03be 8a9f 043e 852e 143e
00000080: 9c8d 3a3e 5ff6 11be 3e5c 38be 350b 943b
00000090: 5659 37bf f6fe 083f b74b ecbd c388 103f
000000a0: 0c96 61bd 3950 34be 39c0 c1be 2360 473f
000000b0: 3619 93be 4972 543f ab66 693f cdd1 533d
000000c0: bef3 b53e 046b aa3d 16cb 9dbe 2db3 033e
000000d0: 1035 89bf 7983 c73e a883 cf3e 52d2 c3be
000000e0: 4b7e 3c3e 17d2 e6bd 2a3f 46bf f2c4 e43d
000000f0: fc85 a93e c3dd 3ebe b3fc cebe f047 e43e

encoder_layer_mhattentions.1.attention_heads.1.K.bias f4 [8]
-0.007077771 -0.022842124 0.15569307 -0.07199803 -0.08596854 0.10054617 -0.3577261 0.06291166
00000000: a5ec e7bb 681f bbbc 016e 1f3e b473 93bd
00000010: 4610 b0bd 26eb cd3d e027 b7be d4d7 803d

encoder_layer_mhattentions.1.attention_heads.1.V.weight f4 [8, 8]
0.130153 -0.0631079 0.18959117 -0.18569697 -0.2076571 0.12911038 0.36530378 0.0273116
0.18781659 0.05466452 0.27216944 0.2397938 -0.4971464 -0.12814003 -0.07392437 -0.12545635
0.16116336 -0.11699357 -0.07696662 -0.14344938 -0.11424369 0.1665041 -0.01875592 -0.23812246
0.06492801 0.13152707 -0.15524158 0.14109565 0.28237057 0.095043674 0.08671691 0.019609697
0.39553925 -0.06444502 -0.16003601 -0.12167801 -0.17163643 -0.06931137 0.36330426 0.055415984
-0.15032081 0.011529295 -0.08544791 0.037474133 0.100447126 -0.05581839 -0.07339043 -0.095886745
0.046960197 0.026820622 -0.06121144 0.0886448 0.17086738 0.00942375 0.08327961 -0.12755598
-0.39666313 0.42506722 -0.0033883918 -0.23919518 -0.43909392 0.09934904 -0.15714878 -0.017170593
00000000: d446 053e b73e 81bd 3024 423e 5927 3ebe
00000010: 10a4 54be 8335 043e 1909 bb3e 94bc df3c
00000020: fe52 403e e7e7 5f3d cb59 8b3e 828c 753e
00000030: f989 febe 2437 03be a965 97bd a177 00be
00000040: 0208 253e 539a efbd ada0 9dbd 65e4 12be
00000050: 99f8 e9bd 0d80 2a3e 04a6 99bc 60d6 73be
00000060: faf8 843d 08af 063e a6f7 1ebe 617b 103e
00000070: e092 903e 42a6 c23d a398 b13d 84a4 a03c
00000080: 1f84 ca3e c0fb 83bd 7be0 23be 5232 f9bd
00000090: 76c1 2fbe 1ff3 8dbd 0403 ba3e dffb 623d
000000a0: b3ed 19be 5ee5 3c3c 50ff aebd 7a7e 193d
000000b0: 39b7 cd3d d3a1 64bd b94d 96bd 4560 c4bd
000000c0: 5659 403d ecb6 db3c d9b8 7abd 688b b53d
000000d0: dcf7 2e3e 1366 1a3c 808e aa3d 099e 02be
000000e0: 6e17 cbbe 69a2 d93e c80f 5ebb 95ef 74be
000000f0: ebd0 e0be 8277 cb3d 9ceb 20be 58a9 8cbc
