models/model_chkpt_100.pt (torch, 319268 bytes, 387 tensors)

tokenizer.token_embedding.weight f4 [17, 32]
000000 79 f8 49 bf c5 8c 0e c0 0e b1 78 bd ea c6 75 3e
       -0.78894764 -2.227342 -0.060715728 0.24001661
000010 45 b7 d1 3f 64 bc 2c 3f b8 3f 41 3f bc 88 91 3f
       1.6384054 0.6747496 0.7548785 1.1369853
000020 fd 62 cc bf be 20 a0 bf 6e 97 1d be 66 dc 80 3e
       -1.5967709 -1.2509992 -0.15389797 0.2516815
000030 0d f6 8f bf 3f 96 28 bf 56 bb a7 be c4 19 c2 be
       -1.1246964 -0.6585426 -0.32760113 -0.37910283
000040 8c 77 c2 be 2f 02 09 3f cf 70 20 bf fb 9f ca be
       -0.37981832 0.53518957 -0.6267213 -0.3957518
000050 f0 67 aa bf 40 4d 01 c0 e2 44 24 3f 49 1f 31 40
       -1.3312969 -2.02034 0.64167607 2.7675345
000060 b7 ae 69 be 2b c3 3e 3f 6a 9e 5e 3f ea c0 a9 3f
       -0.22820555 0.7451655 0.8696047 1.3261998
000070 ad 68 0f bf e9 e4 40 c0 9c 7b 14 3f 60 3b a4 be
       -0.560191 -3.0139716 0.5800111 -0.3207655
000080 94 ee 5a bf ff 48 cc bf cf 73 9e 3f 74 35 4b be
       -0.8552029 -1.5959777 1.2379092 -0.1984461
000090 7f fb 32 40 49 29 e7 3e b7 3e 45 be 1c 09 6c 3f
       2.7966 0.45148686 -0.19262205 0.922014
0000a0 82 59 a8 bf 6e e9 54 bf 71 0e a0 be fd 4c dd 3e
       -1.3152316 -0.83168685 -0.31261018 0.432228
0000b0 ad ea 54 bf fd b5 12 bf cb 54 26 bf e2 6f ed be
       -0.83170587 -0.5730894 -0.64973134 -0.46374422
0000c0 65 a7 05 40 80 70 fb be dd b7 22 3e 60 12 8f 3f
       2.088342 -0.49109268 0.15890451 1.1177483
0000d0 eb 34 8c 3f 2a b1 82 3f 38 9e 91 3f 3b 10 a4 3e
       1.0953649 1.0210316 1.137641 0.32043633
0000e0 b6 02 85 bf 5c c1 fe 3d 6f 74 b8 3f 5c 0d f6 3e
       -1.0391452 0.12439224 1.4410533 0.48057067
0000f0 cd 53 41 bf 1e 4a d2 bf 53 b9 1d bf 0b 07 35 3f
       -0.75518495 -1.6428869 -0.6161091 0.7071387
000100 5f b9 56 be b2 c0 03 3f a4 ad 64 be 60 fa 66 be
       -0.20969151 0.51465905 -0.22331864 -0.22556448
000110 0f 5a 6b 40 3f dd 15 3e 6b 00 e3 3f 12 a9 e0 3d
       3.6773717 0.1463518 1.7734503 0.109697476
000120 2c 2e a5 bf 7f 20 82 be 04 e2 1e bf c7 bf 42 3f
       -1.2904716 -0.25415418 -0.6206362 0.7607388
000130 56 9b 95 be 2e d9 e8 be 7d 34 0d bf 4f 94 ec be
       -0.29220074 -0.45478195 -0.55158216 -0.462069
000140 d4 96 ad 3f c0 03 f6 3f 7b 40 7e be a5 a3 cf bf
       1.3561654 1.9219894 -0.24829285 -1.6221815
000150 eb db 75 bf a3 c8 ee be d8 db f3 bd 88 97 f5 bf
       -0.96038693 -0.4663745 -0.11907166 -1.9186869
000160 90 e6 b2 bf 19 26 a0 3f 9a 57 5d 3e 0b 51 20 3f
       -1.3976612 1.2511626 0.21615449 0.6262366
000170 65 bf 02 3f c3 36 3d be 5c 5c ee be be 67 32 bd
       0.51073295 -0.18477921 -0.4655484 -0.043555968
000180 f4 ed 69 bf 7d d0 a9 3f 56 01 1b 3e 15 af b8 be
       -0.9137871 1.326675 0.15137228 -0.36071077
000190 25 58 b4 3d 82 da 26 bf 54 37 f3 3f c8 21 7a 3f
       0.08805875 -0.65177166 1.900126 0.97707796
0001a0 81 09 a7 bf cf 9f 3f 3f 3b 77 87 bf ed 5d 2d 3f
       -1.3049775 0.74853224 -1.0583261 0.67721444
0001b0 30 b8 81 3b e2 6c 18 bf 83 cd 91 be 19 87 0b bf
       0.0039587244 -0.5954114 -0.28477105 -0.5450302
0001c0 e5 46 05 3f a2 0e 60 3e 0e 79 dd 3f c3 9f 06 bf
       0.520613 0.21880582 1.7302568 -0.5258753
0001d0 ad 32 e4 be 04 a7 b6 3f a7 9a 51 3f 71 98 27 c0
       -0.44569913 1.4269719 0.81876606 -2.6186793
0001e0 57 83 bf bf 6c 96 1a 3f 8a 9f a6 3e ad c9 14 3e
       -1.4961957 0.60385776 0.32543594 0.14530058
0001f0 b2 e0 98 3d 9f a4 8b 3f 2d 95 94 bf f9 f9 d2 3e
       0.07464732 1.0909613 -1.1608025 0.4120634
000200 da 6d 9c be 2a c4 e5 bd c7 cf 38 bd 2c ce 0c 3f
       -0.3055256 -0.11219056 -0.045120027 0.55002093
000210 a8 d1 f8 be 20 8c d0 bf 1a d9 14 40 7c 82 26 bf
       -0.48597455 -1.6292763 2.3257508 -0.65042853
000220 3a 90 b2 bd 40 c9 3e be 3f 85 05 3f c2 ad bd 3f
       -0.08718915 -0.18631458 0.5215644 1.4818652
000230 7c cc 80 bd 84 10 0b 3e 7d bf a0 bf 36 c1 0f be
       -0.06289002 0.13580519 -1.2558438 -0.14038548
000240 f6 67 5d 3f ec 6f 0f 3f 96 63 cc 3f 9d fd a8 bf
       0.86486757 0.56030154 1.5967891 -1.3202397
000250 04 c2 b5 bf 6b 3c 9f 3e 4f 48 c5 bd 86 cc 91 bf
       -1.4199834 0.31100783 -0.096329324 -1.1390541
000260 b2 1f b1 bf 89 fd 54 3e 76 bb 80 bf 9e de 0d be
       -1.3837798 0.20799841 -1.0057209 -0.13854453
000270 cf 2a db 3e e7 4e 04 40 96 74 d7 bf e0 92 15 bf
       0.42806098 2.0673158 -1.6832454 -0.5842724
000280 4e fb 7c 3f e8 11 68 3f f9 74 ea 3f 7a 63 aa 3e
       0.9882096 0.9065232 1.8316947 0.3327902
000290 86 bb 54 c0 1c 3d 37 bf 76 c3 28 3f 7e 36 37 3f
       -3.3239455 -0.7157762 0.6592325 0.71567523
0002a0 cc 7b db bd 30 60 93 3f 69 60 1b 3f 8f e0 9c 3f
       -0.10716972 1.1513729 0.60693985 1.225603
0002b0 f7 29 6c bd 4b 67 56 be 8c 27 37 bf 59 1f 01 be
       -0.05765721 -0.2093784 -0.7154472 -0.12609614
0002c0 07 a2 f0 3f e4 c5 55 3f 14 d3 a8 3e 47 33 07 bf
       1.8799447 0.8350508 0.3297354 -0.5281262
0002d0 ad 05 a5 3e 77 c3 c4 be 8c fd da 3e a4 21 fc 3b
       0.32230893 -0.38430378 0.42771566 0.00769444
0002e0 3c 12 17 3e 09 52 b7 be 17 05 9c be 4e 61 4a be
       0.1475305 -0.35804775 -0.30472633 -0.19763681
0002f0 b1 b6 36 3c c1 f0 bc 3f 18 8b a3 bf 01 5d f7 be
       0.011151955 1.4760972 -1.2776823 -0.48313144
000300 48 22 b0 be 27 af 96 bf f0 24 35 3e 44 1e cc 3d
       -0.34401155 -1.1772202 0.17689872 0.0996671
000310 cb 9b a4 bf 97 c9 ca bf 24 f6 35 3e 5e 1d ab bd
       -1.2860044 -1.584277 0.17769676 -0.08355211
000320 73 9f 43 be fc 1f 73 3f 6b d1 5c 3f b9 36 8f 3f
       -0.19103794 0.9497068 0.86257046 1.1188575
000330 0c 37 8b be 26 c3 6c be 17 7f 7a bf 85 c9 2d 3d
       -0.27190435 -0.23121318 -0.97850174 0.042428512
000340 00 55 7c 3f 7a 5a f7 3e e0 e2 e0 bf 5a 7e 1e bc
       0.985672 0.48311216 -1.7569237 -0.009673679
000350 da a8 35 3f 8c 60 f9 bd a1 0c 4c be 77 5d 19 40
       0.7096077 -0.12176618 -0.19926693 2.3963296
000360 bd a4 18 bf a1 b6 c7 3d a4 2b 16 bf fe 3e 69 bf
       -0.5962637 0.097516306 -0.5866034 -0.91111743
000370 3a 00 6b 3e 6f d8 13 40 e0 f9 9e bf f1 ff d9 bd
       0.22949305 2.310085 -1.2420006 -0.1064452
000380 38 11 46 bf 59 d0 8a 3e cb 31 2e 40 26 cc 68 3f
       -0.77370024 0.27112082 2.7217891 0.90936506
000390 b1 af 41 3f 0c c0 39 c0 3f e5 3f c0 ab 91 7d be
       0.7565871 -2.9023466 -2.998367 -0.24762599
0003a0 a1 13 85 bd 5d 3e de 3f 5b fb 6a 3f f4 6a a1 3f
       -0.064978845 1.7362782 0.9178979 1.2610765
0003b0 a5 63 ee bd 88 ed b0 be 36 79 5c bf c7 49 d8 3c
       -0.116400994 -0.34556222 -0.86122453 0.026402367
0003c0 2a b4 b9 3e 51 7f 95 3e 44 5e df bf 65 f2 e5 3e
       0.36270267 0.29198697 -1.7450643 0.44911495
0003d0 b5 fc ec 3f a2 03 a3 3f 1e b2 ec bd 19 78 8f 3f
       1.851462 1.2735484 -0.11557411 1.1208526
0003e0 88 29 69 3f 3f 14 f1 be f9 60 1e bf be 66 10 3f
       0.91078997 -0.4708576 -0.6186672 0.5640677
0003f0 52 c2 0d bf ba f7 d0 3e 2d a6 9a bf 68 c9 e3 be
       -0.55374634 0.40814 -1.2081963 -0.44489598

tokenizer.positional_embedding.weight f4 [9, 32]
000000 39 10 19 3f 01 4a b5 bd 02 4d 0b bf ba 3c bb 3e
       0.5979038 -0.08852006 -0.5441438 0.36569768
000010 4e f0 ae 3e 8e 82 e0 3f e9 4d 8e bd be 0f e4 be
       0.34167713 1.7539842 -0.06948454 -0.4454326
000020 77 42 1b bf 02 ff 44 3f 81 89 09 40 5c d2 a5 bf
       -0.6064829 0.7695161 2.1490176 -1.2954822
000030 62 18 85 bf 6d a0 5a bf 41 bb 0a 3f 72 49 e8 bd
       -1.0398066 -0.8540104 0.54191977 -0.113421336
000040 65 b5 89 3e 58 2c 3d bf 5a 13 12 3f 1e b5 9e 3f
       0.26896206 -0.7389579 0.5706078 1.2399023
000050 1d 31 71 be 25 a0 fb bd 84 28 97 3e 29 12 99 3e
       -0.23553891 -0.122864045 0.29523098 0.29896668
000060 71 49 58 bf 7d c9 48 3f 4a 5b ed 3f 17 5c fa bd
       -0.8448706 0.78432447 1.8543484 -0.12224596
000070 cb 78 61 bd fb 1d ad 3d 95 de 37 bf 7e 8c 40 c0
       -0.055046838 0.08452984 -0.7182401 -3.008575
000080 8c 23 83 3f ae c4 1a 3f 19 61 05 3f 68 99 22 3e
       1.0245223 0.6045636 0.52101284 0.15878832
000090 28 f4 95 3f 24 2c 4d 3e b6 8e 6f 3e da 20 1e be
       1.1715136 0.2003637 0.23394284 -0.1544222
0000a0 19 de fb 3f a0 29 1e 3f 93 74 77 bf d5 8c 64 be
       1.9677154 0.61782265 -0.96662253 -0.22319348
0000b0 f3 e2 c7 be 2b e2 b3 3e 65 9f 77 3f 9a c6 83 bf
       -0.39040336 0.3513349 0.9672759 -1.0294983
0000c0 c4 7b 7d bd 32 70 36 bf f2 33 18 3f 14 1f c7 bf
       -0.06188561 -0.71264946 0.5945426 -1.5556359
0000d0 eb e3 7e 3f 2d e3 8d 3e e5 d3 45 3f 5f cf 32 3f
       0.99566525 0.27712384 0.7727645 0.69847673
0000e0 60 bd 2e 3f b2 e5 d4 be 0e 72 b0 3f 81 58 07 c0
       0.68257713 -0.41581494 1.3784807 -2.1147768
0000f0 98 32 19 3f e5 d7 10 3f 81 41 f4 3f a5 27 5d bf
       0.59842825 0.5657943 1.908249 -0.8638862
000100 3e d6 55 3d 90 73 53 3f c1 28 06 be ed 36 1c bf
       0.05220627 0.8259821 -0.13101484 -0.6102131
000110 f0 49 21 be 4a 2e 9c be 7f ff df bd 57 b4 84 3f
       -0.15750861 -0.30504066 -0.10937404 1.0367535
000120 6c 1d 36 3f 66 ad c4 3e dd 80 c0 bf e6 e7 de bf
       0.71138644 0.38413543 -1.5039326 -1.741452
000130 c7 df cf 3f 0b 53 fe bd 97 8c f4 bf 95 1c 68 3f
       1.6240166 -0.12418183 -1.9105405 0.9066861
000140 eb 8b d6 3e 58 3b 39 3f 96 c0 b0 be b1 b5 2d bf
       0.41903624 0.72356176 -0.3452193 -0.67855364
000150 79 54 b7 3f ec 9a a0 bf 2d ac ef be 8b df a0 be
       1.4322654 -1.2547278 -0.46811047 -0.3142055
000160 17 d3 fc 3c c1 1f de be 54 8b d1 be 0d 95 98 bf
       0.030862374 -0.433836 -0.4092661 -1.1920487
000170 03 3b 80 be ab 4a 3f bf 21 a8 9d 3f a8 7b b2 bf
       -0.25045022 -0.7472331 1.2316934 -1.3943987
000180 3f 35 44 bf c0 3e ce bf 9c 67 b0 bf a9 d5 2e bf
       -0.7664375 -1.61129 -1.3781619 -0.6829477
000190 cb 52 9e be 0c 1f 59 bf 00 08 9d 3e ee 14 07 bf
       -0.3092254 -0.84813 0.30670166 -0.5276631
0001a0 ad 9e 61 bf 3a 61 aa bd 6b 99 a6 be 1d 4d e5 bf
       -0.88132745 -0.08319326 -0.32538924 -1.7914158
0001b0 d1 4d f1 3f 2b 82 52 bf 73 b4 bd bf e2 c5 75 3e
       1.8851873 -0.8222987 -1.4820694 0.24001268
0001c0 26 8e c2 be 1b 17 a4 bf 03 4d 41 bf a6 4c 20 c0
       -0.37999076 -1.2819551 -0.75508136 -2.5046782
0001d0 53 6b bb 3f d5 67 dc 3e 33 22 a4 be 6a 0a 85 bf
       1.4642128 0.43047968 -0.32057342 -1.0393803
0001e0 f2 99 a6 3f 5c 1e d1 3f 64 6c 08 3f e6 c6 47 bf
       1.301573 1.633739 0.5329039 -0.7803787
0001f0 9e 09 31 3f ec 26 2d bf da ee ab bf 81 4a 35 bf
       0.691553 -0.67637515 -1.3432267 -0.7081681
000200 02 3e 92 3f b4 0d 8a be f0 17 e3 3e 72 52 c1 bf
       1.1425173 -0.2696358 0.443542 -1.5103285
000210 94 8c a5 3e 9a ae b9 bf 8e 23 f4 3e b3 5e d7 3e
       0.32333815 -1.4506409 0.47683376 0.42064437
000220 61 5b 25 bf 62 34 76 3f b2 bc 1a 40 20 b8 13 3f
       -0.6459256 0.9617368 2.417767 0.5770283
000230 c8 65 17 bf 5e 51 7e be 99 3f b0 3d 71 71 1d be
       -0.5913968 -0.24835727 0.0860588 -0.15375306
000240 38 f1 78 3a 08 3d 97 bf 6b e3 8e 3f 09 44 7b 3e
       0.00094963936 -1.18155 1.1163152 0.24537672
000250 45 9f 10 3e 5c ac 5c 3f 66 34 5c bf 84 c3 c7 be
       0.14123257 0.862005 -0.86017454 -0.39016354
000260 c5 9d 8e 3f d9 45 aa 3e ee 1f 30 be f8 4d bc be
       1.1141897 0.33256415 -0.1719968 -0.36778235
000270 ba f3 dc 3f b7 49 c0 3e fe 80 ae 3f ee 77 a5 3f
       1.726188 0.3755624 1.3633115 1.2927225
000280 6b 30 1a bf 0a e2 9a bf 89 3b da 3f 4f 8b be bf
       -0.6023013 -1.2100232 1.7049419 -1.4886264
000290 e2 ad c8 bd 6b 65 32 3f 1f 93 26 3f a6 36 26 bf
       -0.097987905 0.69686 0.6506824 -0.64927137
0002a0 64 25 2e bf 39 c4 4d be 57 43 bb be 3f 67 1e 3f
       -0.68025804 -0.20094384 -0.36574814 0.6187629
0002b0 73 ad f4 be 9c ed 9a 3f 50 39 b4 3e af 36 b1 bf
       -0.4778858 1.2103763 0.35199976 -1.3844813
0002c0 5d 7a ca bf 45 f6 86 3f be dd 9e 3e 21 58 49 3f
       -1.5818592 1.0543905 0.3102855 0.786501
0002d0 3d f4 1c bf 2d 68 11 40 2e 1f f6 3e c0 e3 43 3f
       -0.6131018 2.2719834 0.48070663 0.76519394
0002e0 35 e9 8b be af a9 e4 3e d9 3a 15 c0 f7 81 5f bd
       -0.2732636 0.44660708 -2.3317168 -0.054567304
0002f0 2f 46 03 bf 64 37 a2 3d 74 1a 6f bf ce 39 50 3f
       -0.51278967 0.07920721 -0.9339974 0.813382
000300 ee 24 0d bf f3 24 e6 3e b8 ae 1b be 1e 78 c8 bc
       -0.55134475 0.44950065 -0.15203369 -0.024471339
000310 2c e6 0d 3b e8 4f 57 bf 6f 2d dc bf b3 24 1b bf
       0.0021652086 -0.841063 -1.7201365 -0.60602874
000320 fa 60 9f 3e 29 d8 af bf dc ae 81 bf 2d 0c d4 3c
       0.31128675 -1.3737842 -1.0131488 0.025884712
000330 04 12 e4 bf 72 2a 99 3f c5 69 ee be 85 38 b1 3f
       -1.7817998 1.1966078 -0.4656507 1.3845373
000340 c6 eb 10 3f 3a 5a a6 be 36 b3 d6 bf db 89 74 3e
       0.5660976 -0.32490712 -1.6773441 0.23880713
000350 9f a7 57 bf 45 30 51 3f 11 3d a8 3f a5 83 89 bf
       -0.84240144 0.8171428 1.3143636 -1.07433
000360 0f e8 d6 be 81 b5 ce 3e f7 53 c9 3e 0a 65 a5 3f
       -0.41973922 0.40372851 0.39321873 1.292146
000370 15 8d 32 bf af 52 8b 3f c0 f2 8c 3f e5 15 06 3f
       -0.69746524 1.0884608 1.1011581 0.5237716
000380 62 cb cb bf 98 b8 4b 3f a2 ec b4 bf 72 ad 5c 3e
       -1.5921443 0.7957854 -1.4134715 0.21550539
000390 54 2f 45 3c 71 6c dc 3e f0 d5 6e be 58 d4 80 3f
       0.01203521 0.43051484 -0.23323798 1.0064802
0003a0 75 87 a8 3f 11 e2 db bf 4b 51 f2 be 48 e5 90 3f
       1.3166338 -1.7178365 -0.47327647 1.1319971
0003b0 10 dc 3e bf db 90 97 bf db d4 d0 3e 97 2f 00 40
       -0.7455454 -1.1841081 0.40787396 2.0029047
0003c0 6f 7d 1f 3f de f5 4d 3e 42 54 31 3e c1 e8 d7 bf
       0.6230077 0.20113322 0.17317298 -1.6867906
0003d0 fd 22 02 3d 08 7f d9 3e 6e 18 8b bf 1a cd 22 bf
       0.03177165 0.4247973 -1.086683 -0.6359421
0003e0 bb 32 13 3f 4a 6a 11 c0 b6 68 fd 3d 52 9a f6 be
       0.57499284 -2.2721124 0.12373488 -0.48164612
0003f0 6c 23 f0 bf 47 ad 58 bf 56 50 09 bf 3e b7 aa 3f
       -1.876081 -0.846394 -0.5363821 1.3337171

encoder_layer_mhattentions.0.attention_heads.0.Q.weight f4 [8, 8]
000000 39 c7 06 be d1 8b 37 3e ca 46 30 bd 00 88 57 3e
       -0.13161935 0.1792443 -0.04303626 0.21047974
000010 8d 48 32 3b da db 98 3c ee 96 dc bd 1d 04 24 be
       0.0027203888 0.01865952 -0.10770975 -0.16017194
000020 74 19 36 3d 96 3b eb 3b cb 90 94 be 29 1e 13 be
       0.044457868 0.007178734 -0.29016718 -0.14366974
000030 03 73 c5 3c 76 df 66 be 17 00 88 be 44 ab b7 bd
       0.024102693 -0.22546181 -0.2656257 -0.08968213
000040 6f 9e 59 3d c8 03 df bd d3 28 53 bd 8a e5 2f 3c
       0.05312961 -0.10889393 -0.051552605 0.010735879
000050 14 83 01 3c c1 08 bc 3c 51 95 a2 bd d0 21 a4 3d
       0.007904787 0.022953393 -0.07938636 0.08014262
000060 d1 11 cb bd a3 8f 15 3e de 22 f1 3a c4 e8 a7 bc
       -0.099155076 0.14605574 0.0018397232 -0.020496733
000070 a3 26 b3 3c 0b 82 62 3d 47 14 1a 3c b1 ae d7 ba
       0.02186901 0.0552998 0.009404249 -0.001645526
000080 75 c2 21 3e 0a fb e6 bd 2a ea 1f be ea f4 4f bc
       0.15796836 -0.11278351 -0.1561667 -0.012692669
000090 a1 cf 54 bd 38 46 21 be 4f c7 2c bd d4 09 66 3e
       -0.051955823 -0.15749443 -0.042182263 0.22464687
0000a0 a3 11 b2 be 38 4c 56 3d 9d 7b 19 3e 1b d2 b6 bd
       -0.3477908 0.05231878 0.14988561 -0.08926793
0000b0 fe 24 d9 bd 25 f4 e1 3d 93 36 cb 3c 46 74 f6 bd
       -0.10602759 0.11032895 0.024806296 -0.12033896
0000c0 b8 d4 c5 3a 2b 5c 05 3e 0a 39 0f 3e 13 32 60 bd
       0.0015093302 0.1302344 0.13986602 -0.054735254
0000d0 4c a6 91 bd 70 dd a9 3e 57 11 3b be 16 9b ba be
       -0.07111797 0.33176756 -0.18268333 -0.36446446
0000e0 11 91 d9 be a8 4c fc 3d 86 7b 8e bd 47 fb 03 3f
       -0.4249349 0.123193085 -0.06957154 0.51555294
0000f0 3f 3d 21 be 13 fe 10 3f cc 5b a7 3d bd da 10 bf
       -0.1574602 0.56637686 0.08171806 -0.5658377

encoder_layer_mhattentions.0.attention_heads.0.Q.bias f4 [8]
000000 a8 33 14 3e 0c ee 1c bf 62 c8 11 3c 69 73 e6 bc
       0.1447283 -0.6130073 0.008897873 -0.028131204
000010 5a c7 7b 3d 34 68 75 be 70 bb 7b 3f 24 0f 85 3e
       0.061469413 -0.23965532 0.9833288 0.25988114

encoder_layer_mhattentions.0.attention_heads.0.K.weight f4 [8, 8]
000000 9a f0 84 3d d8 7a 68 3e 53 16 fc be 07 0c 2e 3e
       0.064912036 0.22703111 -0.49235782 0.16996776
000010 1f 47 7d bd 47 d3 2b bd 6b 34 97 bc 18 34 23 bd
       -0.061835404 -0.041949537 -0.018457612 -0.039844602
000020 0d d7 df be da a7 1f be 88 f5 f3 bc fa ae c7 3e
       -0.43718758 -0.15591374 -0.029780164 0.39000684
000030 46 02 fa 3d f3 89 35 bd 3c d9 7e bd 4e e1 c8 3e
       0.12207465 -0.04432101 -0.06221889 0.39234394
000040 95 9c 10 3d 81 f5 02 bd 93 c3 48 bc 2b a7 6f bd
       0.03530558 -0.031972412 -0.01225366 -0.058509033
000050 8e 49 16 3e fa 83 e6 ba 9a 5f fc 3b 0e b5 3e 3d
       0.14676496 -0.001758694 0.0077018263 0.046559386
000060 b9 9e 6f bd 89 fe de 3d 76 63 17 bd 39 04 0e 3d
       -0.05850098 0.108883925 -0.036960088 0.034671996
000070 ae 7c bf 3b e0 ed f6 bc 62 cf b2 bd a7 dd e0 bd
       0.0058437204 -0.030142725 -0.087309614 -0.10979777
000080 a9 92 c3 bd 9e a0 67 3c bf ac a2 3e b1 42 15 be
       -0.095494576 0.014137415 0.3177242 -0.14576222
000090 c7 1f d8 bd a6 5f 42 3d 8e 3e 5b 3d 27 4c a0 3c
       -0.10552936 0.0474545 0.053526454 0.019567562
0000a0 33 d1 34 3e 55 01 0e 3e 89 dd 7f be ca b8 7c 3e
       0.17657928 0.13867696 -0.24986853 0.24679866
0000b0 c6 fe a1 3c 94 0a bd be 07 31 82 be d6 84 c1 bc
       0.019774806 -0.36922133 -0.2542803 -0.023622911
0000c0 ab 08 58 3e 2b 55 f5 bb 0a a4 0a bf 5d 1c c1 be
       0.21097057 -0.0074869595 -0.54156554 -0.37716952
0000d0 7d 9d fa bd c0 3f 27 3d 2a ec 85 be fa 28 19 be
       -0.1223707 0.04083228 -0.2615674 -0.14957038
0000e0 fe ba e2 3e ce 05 b5 3d 47 0f 29 bf 11 79 e9 3d
       0.4428329 0.08838998 -0.66038936 0.11400045
0000f0 ed a9 66 3d a8 18 9b be 36 2d 88 be 3e 49 a2 3e
       0.056314398 -0.3029225 -0.26596993 0.31696504

encoder_layer_mhattentions.0.attention_heads.0.K.bias f4 [8]
000000 1a b5 b9 3d 33 1b fb 3d 63 a4 ed bb 8b 49 ba bd
       0.090677455 0.12261047 -0.0072522624 -0.090960585
000010 c8 47 29 be 03 e7 d6 bd 75 4c 78 bc 13 a1 c1 bd
       -0.16531289 -0.10493281 -0.0151549475 -0.094545506

encoder_layer_mhattentions.0.attention_heads.0.V.weight f4 [8, 8]
000000 b6 06 fd 3e f5 80 30 3e 88 65 37 be bd e2 2f 3e
       0.49419183 0.17236693 -0.17909825 0.17176338
000010 37 9a 98 3b 96 2d a9 3c ce fe 8d bc 0d bf 12 bf
       0.0046570557 0.02065162 -0.017333414 -0.5732277
000020 30 b1 ae 3d 45 d0 79 3e 86 26 9d bd 0b cf d7 be
       0.085298896 0.24395855 -0.076733634 -0.4215015
000030 cc 7b 50 bd df ab eb 3e 4a 9d 09 be 9b de 3f be
       -0.050899312 0.46029565 -0.13438907 -0.18737261
000040 18 f1 91 3e 03 08 35 3e f6 53 fa 3d 93 2a 33 3d
       0.28504252 0.17678837 0.122230455 0.043741774
000050 19 e0 ad 3e 49 0e b3 3e 9d d0 84 be f9 11 c7 3d
       0.33960035 0.34971836 -0.2594041 0.09720225
000060 db 72 e6 bd e6 c7 70 3b e5 7d 0e 3e b3 d4 21 bd
       -0.11252376 0.0036740243 0.13915212 -0.039509486
000070 c7 90 a5 bd 7c c1 72 be 83 67 2d 3e a6 6f fd 3e
       -0.08084255 -0.23706621 0.16934018 0.49499243
000080 92 cc 34 3e 09 5f 90 be b1 ef 96 be 47 9f d8 be
       0.17656162 -0.28197506 -0.29479745 -0.4230902
000090 6b b4 d1 bb 57 8f 67 3d a3 fb 83 be 66 7d 91 3e
       -0.0063996813 0.056533184 -0.2577792 0.28415984
0000a0 de 83 1b be b7 0d 29 be 9f 86 02 bd 61 b5 bd 3e
       -0.15187022 -0.16509138 -0.031866666 0.37052444
0000b0 44 c8 6c bd 05 3a 20 3e 21 9f 44 3e 73 cc 61 3e
       -0.057808176 0.15647133 0.19201328 0.22050647
0000c0 7b c5 05 be 65 b3 09 3d 27 96 ae 3d 71 75 59 3e
       -0.13063614 0.03361835 0.08524733 0.21236207
0000d0 eb 3e 58 be 61 be ff 3d ee ec 8f be 75 08 91 3e
       -0.21117751 0.12487484 -0.2811045 0.28326765
0000e0 b5 05 4a bd 1b e0 46 be 88 3e fa bd b3 ea 52 3e
       -0.04932185 -0.19421427 -0.12218958 0.20597343
0000f0 75 f8 1c be 03 40 69 3e 06 89 60 be 69 6d 81 3e
       -0.15329154 0.22778325 -0.2192727 0.25278786

encoder_layer_mhattentions.0.attention_heads.0.V.bias f4 [8]
000000 e7 be 58 be 53 06 91 be 83 17 fe bd 99 f4 66 3e
       -0.21166573 -0.28325137 -0.12406828 0.22554244
000010 90 5c 08 be a7 aa ea 3d 69 24 3a 3e 9b 8a 91 3d
       -0.1331656 0.114583306 0.18177952 0.07106515

encoder_layer_mhattentions.0.attention_heads.1.Q.weight f4 [8, 8]
000000 9f 3a e2 3d 98 0a 67 3d 4b ed f8 bd b5 8f 82 bd
       0.11046337 0.056406587 -0.12154635 -0.06375066
000010 dd 70 8c 3d 78 e2 ea 3d 34 09 d3 3d c1 b5 25 bd
       0.068574645 0.11468977 0.1030449 -0.040456537
000020 94 00 28 3e 21 85 1e 3e f0 ab 0d be 68 eb 88 3e
       0.1640647 0.15480472 -0.1383512 0.267421
000030 13 05 16 bf 68 ef 6c 3f ef 73 ff 3c ef f8 76 bf
       -0.5860149 0.92552805 0.031183211 -0.9647359
000040 bd 13 7a be 83 31 26 be 73 46 cc 3e 83 b4 b3 be
       -0.24421592 -0.16229825 0.39897498 -0.35098657
000050 9f fd 22 3f 9d 0f dc 3e 3b d1 c0 bd 18 65 a3 be
       0.63668245 0.42980662 -0.094149075 -0.31913066
000060 b6 2d 0c 3f 8a d2 fd 3b 11 76 08 3d 11 52 80 be
       0.5475725 0.0077460455 0.033315722 -0.25062612
000070 53 41 02 3d a2 27 1d bf 9e 02 18 3f 4d 8e 7e be
       0.03180058 -0.613886 0.59378994 -0.24858971
000080 72 c0 43 3f 05 9f d0 be bc a2 90 be 37 4f b9 3d
       0.76465523 -0.40746322 -0.28249156 0.09048312
000090 06 e0 4e 3e 36 51 7e 3e a2 79 c5 3e 57 88 0d 3f
       0.20202646 0.24835667 0.3856936 0.55286163
0000a0 5b 59 03 3d c3 f3 ba 3c 5d b1 3d bb 55 b3 9f bd
       0.032067638 0.022821313 -0.0028944828 -0.07797877
0000b0 29 c0 43 be ee 30 f1 3e a1 3d 90 be 13 f8 96 bd
       -0.19116272 0.47107643 -0.2817202 -0.07371535
0000c0 09 69 03 bf 42 74 be bd a4 07 11 3f b5 53 42 bd
       -0.51332146 -0.09299518 0.56652284 -0.04744311
0000d0 b8 50 34 be a9 9e 98 bd 91 38 c5 bd d1 62 ba 3e
       -0.17608917 -0.07452137 -0.0962993 0.36403516
0000e0 03 40 7f 3e 92 05 95 bd 51 f7 0d be db 9e 3f 3e
       0.24926762 -0.07276453 -0.13863875 0.18712942
0000f0 50 2b 57 3e 23 96 b9 3d 55 68 66 3e f7 6d 6a bd
       0.21012616 0.090618394 0.22500737 -0.057233777

encoder_layer_mhattentions.0.attention_heads.1.Q.bias f4 [8]
000000 8e d9 c1 3d 77 c2 09 3e 34 f9 a4 3d 4e 6d 6d bd
       0.094653234 0.13453089 0.08055344 -0.05796557
000010 75 1b 44 be 6a e6 eb 3d 9c ef b7 bd 3f c5 9a bd
       -0.19151099 0.11518557 -0.08981249 -0.07557153

encoder_layer_mhattentions.0.attention_heads.1.K.weight f4 [8, 8]
000000 6d 86 55 be cd 79 03 3e 04 73 17 3d 60 df ba 3c
       -0.2085206 0.12839432 0.03697492 0.022811592
000010 65 9f b6 3c a4 d4 f0 3c be 0d 03 be 59 b9 3e 3e
       0.022292802 0.02939827 -0.12798211 0.18625392
000020 3f 05 29 be e4 2b 94 3d 73 a2 15 bf 95 20 48 be
       -0.16505907 0.07234934 -0.58451 -0.19543679
000030 78 2e 05 be f1 3f 20 3e 09 ab 4b bf 24 36 6f 3f
       -0.13006008 0.15649392 -0.79557854 0.9344199
000040 d2 34 0f 3d d4 5c 05 3e 23 a8 4a bd fd 78 c8 bd
       0.034962483 0.13023692 -0.049476754 -0.09788702
000050 75 7e 35 bf 9e 20 67 3f e6 71 0c 3e 1b 2f 1a bb
       -0.70896083 0.90284145 0.13715324 -0.0023526612
000060 07 80 2d be 2f 2a 83 3e 69 0a 00 be bc 71 be be
       -0.1694337 0.2561812 -0.12503971 -0.37196147
000070 10 5b b2 3e 06 a3 0e 3f 07 95 9c be 8e 28 e5 be
       0.348351 0.55717504 -0.3058245 -0.44757503
000080 a8 8c e8 be 7a 3b a1 be 37 58 87 3e 3d 02 95 3d
       -0.45419812 -0.3149069 0.2643449 0.072758175
000090 0f 66 41 3f e4 99 0e 3e a7 6f 3d 3d 33 a7 4d 3e
       0.75546354 0.13925892 0.046249058 0.20083313
0000a0 bf 03 a3 3c cd 41 22 3e 10 f6 70 bd df aa ce 3c
       0.019899247 0.15845414 -0.058828413 0.025227962
0000b0 11 4a 6c 3d 52 82 17 bc 46 01 0a 3d 63 5e bd 3e
       0.057687823 -0.009247379 0.03369262 0.36986074
0000c0 39 05 00 3f 49 c7 81 be 7b a5 a3 be a2 7a a7 3e
       0.5000797 -0.25347355 -0.3196219 0.3271075
0000d0 2a c6 32 bc 9a 81 e1 3d 84 88 29 3f ab 5a 4f be
       -0.010911504 0.11011048 0.6622393 -0.20249431
0000e0 70 a2 ad be 2d 79 eb bd 76 8b 80 3e 42 18 93 3c
       -0.33912992 -0.11497722 0.251064 0.017955903
0000f0 10 0c 5f 3d 87 1c c0 bb c3 a3 8a be 25 76 ef 3d
       0.054454863 -0.0058627757 -0.27078065 0.11692456

encoder_layer_mhattentions.0.attention_heads.1.K.bias f4 [8]
000000 5d de 3f be 18 54 b8 3d 9b c1 72 bd 87 b3 87 3e
       -0.18737169 0.090004146 -0.059266668 0.26504156
000010 40 6f e7 3d 75 eb 25 be 0d 9c 58 3d 6e 2c 2d be
       0.11300516 -0.16203101 0.052883197 -0.1691148

encoder_layer_mhattentions.0.attention_heads.1.V.weight f4 [8, 8]
000000 3c 2b 56 be f2 d1 b3 be cf ae ad bd e6 e1 0a bf
       -0.2091493 -0.35121113 -0.08480608 -0.54250944
000010 e1 37 a4 be 51 a0 c6 be 44 83 99 bd bb fb 16 3d
       -0.32073882 -0.38794187 -0.0749574 0.036861163
000020 9d da cb be 31 47 12 3e d9 62 06 3e 1d d2 5e bd
       -0.39815226 0.1428497 0.13123645 -0.0543996
000030 36 35 e2 bd e3 aa 25 3d 81 34 d9 bd 28 df 28 3e
       -0.110453054 0.040446173 -0.106057175 0.16491377
000040 2e a4 2f 3e 99 5a 39 be ed f2 50 be ce e7 be be
       0.17152473 -0.18100967 -0.20405169 -0.37286228
000050 9a da 9e 3e b2 15 d4 3e 2b 90 d7 3e a0 a5 c4 3e
       0.31026155 0.41422802 0.4210218 0.38407612
000060 60 ce 9c bd 48 a0 a0 bd 68 0c 9d 3d bc ba 92 3e
       -0.076565504 -0.07843071 0.07668382 0.28658092
000070 50 32 81 3d 1c 01 4b bc a2 08 fa 3c 68 7f 32 3e
       0.063084245 -0.012390401 0.030521695 0.17431414
000080 2a 0e 49 3e 37 a5 bb bd fc 27 13 3e bb 43 31 bf
       0.1963431 -0.091623716 0.14370722 -0.69243973
000090 da 29 1f 3e 8b 34 a6 3e 03 64 f1 3e 24 de 05 3f
       0.15543309 0.32461962 0.47146615 0.52292085
0000a0 05 21 e0 3d 46 e6 7b 3d 3c 0d e3 3d 6f 50 e6 3d
       0.10943798 0.061498903 0.11086509 0.1124581
0000b0 60 20 ce 3d be 1c 19 3e e8 e4 77 be 3a 50 cd bc
       0.10064769 0.1495237 -0.24208415 -0.025062669
0000c0 66 ac c0 bc 44 70 13 bf 10 bc 29 bc 19 e3 63 be
       -0.023519706 -0.5759318 -0.010359779 -0.222546
0000d0 e7 71 16 3e 14 25 97 3e 6a 78 ca 3e c2 e6 85 bc
       0.14691888 0.29520476 0.39544994 -0.016345385
0000e0 e5 e1 a3 be ea 06 34 3e 84 4c 46 bd 2e 37 9c bc
       -0.3200828 0.17580763 -0.048412815 -0.01906928
0000f0 da f2 72 be d0 7b 8c 3e f4 04 08 be ae 3a 74 be
       -0.23725453 0.2743821 -0.1328314 -0.2385051

encoder_layer_mhattentions.0.attention_heads.1.V.bias f4 [8]
000000 6b 2f e3 3d e1 e4 e8 bd 25 ad b7 be cf 26 22 be
       0.11093029 -0.1137178 -0.35874286 -0.15835117
000010 44 66 b6 be bf 6a 5f bd e6 1b 81 be db c2 a2 3d
       -0.35624897 -0.05454516 -0.25216597 0.07947322

encoder_layer_mhattentions.0.attention_heads.2.Q.weight f4 [8, 8]
000000 09 38 2d 3e 57 5d f2 be 0c ec 76 3e 90 65 aa bd
       0.16915907 -0.47336838 0.24113482 -0.08320153
000010 39 5f 9a 3d 45 57 01 3e 5f 3a 4c 3e a8 8d d4 3d
       0.075376935 0.12630947 0.19944142 0.10378581
000020 02 da 75 bb 11 ab a3 3d 8e 6f db 3e 6b 33 5a bd
       -0.0037513976 0.07991613 0.42858547 -0.053271692
000030 a0 e1 5b bd 51 02 98 3e 3c de 42 bd 63 68 62 3e
       -0.05368197 0.29689267 -0.04757522 0.22110133
000040 f5 6c 61 bd c1 8d 2a 3f 4a 14 71 be f0 88 1f 3e
       -0.05503555 0.6662255 -0.23542896 0.15579581
000050 28 bf 41 be d5 bf a5 3e 4d 76 05 3f eb f2 80 3d
       -0.18920577 0.3237292 0.5213364 0.06296333
000060 97 7d eb bd 8e 10 cd 3e 75 50 0b 3f 8f 37 5a be
       -0.11498564 0.40051693 0.5441964 -0.21310256
000070 99 eb 1c 3e 81 b4 07 3d 73 4b 2f be 26 c9 bf 3e
       0.15324248 0.033131126 -0.17118625 0.37458152
000080 0b e7 5f 3e 55 9c d4 be 4f db b7 bd af ad 50 3f
       0.2186548 -0.41525522 -0.08977377 0.8151502
000090 35 b3 3f be d8 95 35 bf 5b c6 7a bf fc bd 14 bf
       -0.18720706 -0.7093177 -0.97958916 -0.58102393
0000a0 42 da 26 bd 39 d4 36 bc 39 33 f0 3c 44 61 07 bd
       -0.04073549 -0.011158996 0.0293213 -0.033051744
0000b0 75 5e 40 bd 33 a0 f1 3b 7d 16 0c be 13 b9 93 bc
       -0.04696508 0.0073738336 -0.13680454 -0.018032586
0000c0 68 da 5c be 16 45 01 3f 6d 83 92 3e c6 43 73 3f
       -0.2156769 0.5049604 0.28615895 0.9502529
0000d0 75 fd 52 3c ed 8d b1 be b9 0b 64 bf 16 2b 21 be
       0.012877812 -0.34678593 -0.8908039 -0.15739092
0000e0 e5 61 cb 3d 1c 1c 93 3e bc 08 6e be 62 3f c4 be
       0.09930781 0.28732383 -0.2324552 -0.38329607
0000f0 ce 9d 0b be a9 58 ef 3e 1f 72 4d 3e 79 62 8c 3d
       -0.13634416 0.4674733 0.20063065 0.0685472

encoder_layer_mhattentions.0.attention_heads.2.Q.bias f4 [8]
000000 88 3f 95 3d 7f ae 15 3e 73 01 d1 3d ab cb 8e bd
       0.07287508 0.14617346 0.102053545 -0.0697244
000010 8e 16 02 bd 70 15 12 3e 64 2c cc be f4 cb 45 3f
       -0.03175979 0.1426599 -0.39877617 0.7726433

encoder_layer_mhattentions.0.attention_heads.2.K.weight f4 [8, 8]
000000 7d a4 c0 bc 75 bc 80 3e 7a 57 1e be 1c 7b 5c 3e
       -0.023515934 0.2514378 -0.15463057 0.21531337
000010 04 24 10 be de 10 08 bf 29 0c 61 3c db ad 9e be
       -0.14076239 -0.5315074 0.013735809 -0.30992016
000020 52 48 b1 3e cb 51 0d bf 56 ba 9f 3d 66 b0 37 3d
       0.3462549 -0.5520293 0.07799213 0.04484596
000030 3b fc ac bd ba 1a 80 be a4 30 8c 3d 62 5d 1f bd
       -0.08446547 -0.2502039 0.06845215 -0.038907416
000040 59 9c 08 bf 71 f7 87 be 9c 8b 17 3f d8 db 03 3d
       -0.5336357 -0.2655597 0.591974 0.03219208
000050 1b 5c 06 3f 02 88 ce 3d 04 56 ec bd 6a b3 9e be
       0.5248429 0.10084535 -0.11539844 -0.30996257
000060 c8 5e 80 3e 74 78 2b bf 9c d4 5a be df a1 f9 3e
       0.25072312 -0.6698067 -0.21370167 0.4875631
000070 90 40 8c 3e 36 13 c1 be dd 06 ac 3d d3 7a c5 be
       0.27393007 -0.3770997 0.083997466 -0.3857027
000080 c0 00 b0 3e 10 6d 3d 3f 82 e8 d9 bd 85 be 9a 3d
       0.34375572 0.7399454 -0.106400505 0.0755587
000090 5b 27 03 bf d8 33 1b 3f fc e5 12 3f 9f 7c 11 3f
       -0.51231927 0.6062598 0.5738218 0.5683078
0000a0 a9 17 97 3c c4 ac f1 bd 10 20 9a bd 25 de ca 3b
       0.0184439 -0.118005306 -0.07525647 0.0061910325
0000b0 37 bc 9c bc ba 51 0a bc 54 0a 22 3d 5c 1d fd 3d
       -0.019132717 -0.008442337 0.03956063 0.123591155
0000c0 72 ea 02 3f 60 e4 f2 3e 98 d6 d1 3d bb 10 96 3d
       0.51138985 0.4743986 0.10246009 0.0732741
0000d0 10 3c 68 3e 56 03 2a 3f f7 c3 46 3f d0 67 35 3e
       0.22679162 0.6641134 0.7764277 0.17715383
0000e0 ca 80 98 be 38 4d f3 be 60 88 0c 3e e9 70 ad 3e
       -0.29785758 -0.4751985 0.13723898 0.33875206
0000f0 47 4e 86 3d e5 08 38 be 4e 1f 44 bf 44 9b 6e be
       0.06557899 -0.17972143 -0.7661027 -0.23301417

encoder_layer_mhattentions.0.attention_heads.2.K.bias f4 [8]
000000 99 37 97 3e be 79 b9 3d ef 65 74 be a7 77 51 be
       0.29534605 0.090564236 -0.2386701 -0.204558
000010 f1 ba d4 bd e6 83 8e be 21 16 86 3e c7 10 94 3d
       -0.10387219 -0.27835006 0.26188758 0.072297625

encoder_layer_mhattentions.0.attention_heads.2.V.weight f4 [8, 8]
000000 30 17 0b be 2a 5d 3e 3e 6b 79 23 3e fa c7 70 3e
       -0.13583064 0.18590227 0.15964286 0.23513785
000010 8b 14 07 be 16 9a 53 3e 60 a6 72 be c7 7a d0 3c
       -0.1319143 0.20664248 -0.2369628 0.02544917
000020 83 a1 c5 bd 26 9a 93 bd 0d 22 0a be b4 f3 a4 be
       -0.096499465 -0.07207136 -0.13489552 -0.3221718
000030 9d b8 bd 3d fa 54 61 3e 6c 3e 34 3e 95 e0 92 bd
       0.09263728 0.22005072 0.17601937 -0.07171742
000040 3f 89 52 3d 5b 01 91 bb 7d 65 9e bc 44 23 01 bd
       0.05140042 -0.0044252104 -0.019335503 -0.031527773
000050 af 75 03 3c 95 43 ae 3d f1 83 ad bc 66 e1 74 bd
       0.008023663 0.08508984 -0.021181079 -0.05978527
000060 19 14 14 3d 59 63 2f bd ad 7e 6f be 9b fd f3 3d
       0.03615198 -0.042819355 -0.23388167 0.11913606
000070 88 0f 8d 3e 71 90 1f 3e 26 04 8a 3e c6 47 2a bd
       0.27550912 0.15582444 0.2695629 -0.041572355
000080 12 64 a5 b9 78 e8 ea bc 0c 84 df bc 95 c7 cd 3d
       -0.0003154581 -0.028675303 -0.027284645 0.10047833
000090 89 2b 50 3c d5 ff a3 3c 5b e6 96 bd 76 41 31 3d
       0.012705692 0.020019451 -0.073681556 0.04327532
0000a0 c0 dc b2 bd 2a f3 68 bd 0e c5 c6 bd 3e c2 9c 3e
       -0.08733511 -0.056872524 -0.09705554 0.30616945
0000b0 83 f8 7f be db e4 b4 bd aa a5 a5 3e 69 58 15 bd
       -0.24997143 -0.08832713 0.32352954 -0.036461268
0000c0 47 f6 9e 3c 25 af 95 3e 14 79 40 be c9 6d 5e 3e
       0.019404544 0.29235187 -0.18796188 0.21721567
0000d0 f6 94 15 3e 3f 2d 7f be d6 74 04 be e9 17 91 be
       0.14607605 -0.24919604 -0.12935194 -0.28338555
0000e0 e0 b3 e2 3d a1 7a 49 be 1d 08 0c ba 6d fa 71 bd
       0.11069465 -0.19675685 -0.0005341785 -0.059076715
0000f0 91 68 95 bc be ff 98 3d 57 14 87 be c1 95 34 3e
       -0.018238338 0.07470654 -0.26382706 0.17635252

encoder_layer_mhattentions.0.attention_heads.2.V.bias f4 [8]
000000 52 48 b3 3e 68 3b 93 be 1e a3 75 3d ef 87 00 bd
       0.35016114 -0.2875626 0.059970014 -0.031379636
000010 53 26 70 bd a9 ca 9d 3e 41 42 87 bd 71 cf 92 bd
       -0.0586303 0.3081868 -0.06604434 -0.071684726

encoder_layer_mhattentions.0.attention_heads.3.Q.weight f4 [8, 8]
000000 7e e2 90 3e d5 4b 99 bd 5a b3 ff be df c1 1f bf
       0.282978 -0.07485167 -0.49941522 -0.624052
000010 bf 84 02 3f 09 34 ba be bd 66 29 3e d5 f0 16 3f
       0.50983804 -0.36367825 0.16543098 0.5896123
000020 47 9c 98 3d 45 ce eb 3d 1a 7c 51 3d 42 9f 9c 3e
       0.074516825 0.11513952 0.051143743 0.30590254
000030 82 55 d0 bd 00 eb e5 3d b4 b1 e0 3d ec e9 45 3e
       -0.10172559 0.11226463 0.10971394 0.19327515
000040 dd b4 b2 3c 25 38 1b 3e 1a e6 12 be e0 e9 d2 3d
       0.021814758 0.15158136 -0.1434559 0.10298514
000050 f8 43 4b bd 87 46 01 3e fb a6 68 3e 82 84 d7 be
       -0.049625367 0.1262456 0.22719948 -0.42093283
000060 c2 71 58 be 46 a6 24 bc 7c b3 4d bd ab 31 bc bd
       -0.21137145 -0.010049408 -0.050219998 -0.09189161
000070 84 29 27 be 6b cb ae bc 7e ca 1b 3d 78 42 2d 3d
       -0.1632443 -0.021337232 0.03803491 0.042299718
000080 6f ac 7d bd ec 7a c2 be 41 83 bc 3d f8 e5 39 be
       -0.061932024 -0.37984407 0.09204722 -0.18154132
000090 2b a7 20 3f 07 6c 73 be e0 5c fb be 07 c4 9c bd
       0.6275508 -0.23771678 -0.49094296 -0.07654577
0000a0 7f c7 31 3e 37 7a 0d 3f 40 9f bb 3d d4 6b c2 bc
       0.17361258 0.5526461 0.09161234 -0.023733057
0000b0 a9 83 06 bf 0b 4e 4b 3e 39 53 5d 3e a9 41 f3 3d
       -0.5254465 0.1985399 0.21613778 0.11877758
0000c0 32 72 93 be 19 b8 f3 be 02 4b b0 be 90 7b 95 be
       -0.28798062 -0.47601393 -0.34432226 -0.29195833
0000d0 87 0b 12 3f 73 78 fe be 47 5e 6c be 0c 5d b2 3d
       0.5704884 -0.4970127 -0.23082839 0.087091535
0000e0 0d 56 a1 3e 86 75 b9 3d a6 a5 32 3e fe c2 05 bf
       0.31510964 0.09055619 0.17446002 -0.5225066
0000f0 5b bf 04 3f dd 69 98 be b3 9e b8 be 33 57 f3 bc
       0.51854485 -0.29768267 -0.36058578 -0.029704666

encoder_layer_mhattentions.0.attention_heads.3.Q.bias f4 [8]
000000 b0 ac e4 be 8d 4e b7 bd ae 26 cf 3d e8 59 57 be
       -0.44663 -0.08950529 0.101147994 -0.2103039
000010 67 1c 85 3e 5b 85 17 3f ac 6a dd be 55 9e 0f 3f
       0.25998232 0.5918786 -0.43245447 0.5610097

encoder_layer_mhattentions.0.attention_heads.3.K.weight f4 [8, 8]
000000 d2 16 cd be 70 2f f8 3e e0 43 61 bd 58 56 6c be
       -0.40056473 0.48473692 -0.05499637 -0.23079813
000010 90 dc e5 be 4e a0 5b bd 02 6e 34 bf d2 cd ff be
       -0.44894838 -0.053619675 -0.7048036 -0.49961716
000020 66 d0 b5 3d 21 a7 ae be 9e 31 52 3c 04 04 0a 3f
       0.088776395 -0.34111884 0.0128292125 0.5391238
000030 03 43 a5 3d ab ac 9f 3e 7f e2 f0 3b 5e 50 88 bd
       0.08069422 0.31186423 0.007351219 -0.06655954
000040 20 1d e8 be 0a c8 63 bd d1 1f 07 be 05 91 84 3d
       -0.4533472 -0.055610694 -0.13195731 0.06472973
000050 a2 bd be 3e 09 e0 e3 bd 4f 75 af 3e 0d 27 7b be
       0.37254053 -0.11126716 0.34269187 -0.24526615
000060 2a 41 11 bd b9 ea b6 ba 2f 2f 33 3e 0c 7d 90 be
       -0.035462536 -0.0013955451 0.17498468 -0.28220403
000070 dc 54 ee 3b c4 03 f9 bd c1 d5 20 be eb 39 da 3d
       0.0072732996 -0.12158921 -0.1570654 0.10655578
000080 ec b0 e4 3e 39 33 c0 3e ae 13 42 be 69 5f ce be
       0.4466623 0.3753908 -0.1895282 -0.40307167
000090 6a 87 79 be b2 25 03 bd 6e e5 dc bd 1b eb 18 3e
       -0.24368063 -0.03201837 -0.10785948 0.14933436
0000a0 03 db be be 70 75 16 bf 31 5d ad be 6d be c2 3e
       -0.37276468 -0.58772945 -0.33860162 0.38035908
0000b0 49 a2 0e 3e ef 4c 5d 3e 22 12 24 3e c0 8f 5f bd
       0.13929094 0.21611379 0.16022542 -0.05458045
0000c0 b6 d9 48 3e c2 12 27 3f d6 21 8d 3e bf f6 fa be
       0.196143 0.65263 0.27564877 -0.49016377
0000d0 2e 1b 87 be dc ae a3 bd 28 e2 84 be 29 9b 2d bd
       -0.26387924 -0.07992336 -0.25953794 -0.0423843
0000e0 db 3f cf bd 00 47 b4 3e 4f 33 1d bf f7 9e fc be
       -0.10119601 0.3521042 -0.61406416 -0.4934003
0000f0 7f b6 60 be b3 5e c8 bc 02 c8 56 3e 0b bb 8a bd
       -0.21944617 -0.024459219 0.20974734 -0.06773957

encoder_layer_mhattentions.0.attention_heads.3.K.bias f4 [8]
000000 e6 26 64 be 31 53 0f 3d a8 c2 05 be 63 e7 83 3e
       -0.22280464 0.034991447 -0.13062537 0.25762472
000010 b7 a2 bb 3e 3e 03 77 3e 71 1a 2b 3e f4 3f e0 3d
       0.3664758 0.2412233 0.16709305 0.10949698

encoder_layer_mhattentions.0.attention_heads.3.V.weight f4 [8, 8]
000000 1b 1a 38 be 39 68 d2 bb 61 bb 05 bd 12 0a 52 be
       -0.17978708 -0.0064211157 -0.0326494 -0.20511654
000010 8f 7d 99 3d f9 7d 23 be 1d b3 78 bd 40 df 82 bd
       0.074946515 -0.15966024 -0.06071769 -0.06390238
000020 4a bd 65 be 74 6d 78 3c 06 4c b9 bd 34 46 41 3e
       -0.2243549 0.015162814 -0.090477034 0.18874437
000030 a2 37 7f 3e d2 94 c5 3d 2e e4 85 be 09 92 ff bd
       0.24923566 0.09647526 -0.2615065 -0.12479026
000040 2b dd 07 be 78 dd 48 3e 9c 02 5f 3e 93 72 95 3e
       -0.13267963 0.19615734 0.21778339 0.29188976
000050 85 07 98 be d9 99 81 3e f2 3f e4 bc b6 eb 88 3e
       -0.29693237 0.2531269 -0.027862523 0.26742333
000060 05 56 67 be 56 92 ab bd 8a 75 99 bd 05 12 b8 3d
       -0.22591408 -0.08377521 -0.07493122 0.08987812
000070 c1 e5 fb 3c d6 17 33 bd 57 d2 28 bc 46 4e 06 3e
       0.030749204 -0.043723904 -0.010304055 0.13115796
000080 a3 41 6b be 6e b0 86 be 58 a6 b3 bd 38 b3 9b 3d
       -0.22974257 -0.2630648 -0.08771962 0.07602543
000090 2b b7 ac be 48 f6 5c 3e b6 c7 be 3e 3f 0f 82 bd
       -0.33733496 0.21578324 0.37261742 -0.06350564
0000a0 ff 40 79 3c 77 2f 9d bd 5e 57 a3 be 59 43 5c 3e
       0.01521325 -0.07675069 -0.31902593 0.21510066
0000b0 32 4b 9e 3d 04 24 3b 3e 7d e9 05 be 9e 40 a1 be
       0.07729186 0.18275458 -0.1307735 -0.31494612
0000c0 64 a4 8b 3e 3c 22 c3 3e 67 54 1b be b6 eb d4 3d
       0.27273858 0.38112056 -0.15168916 0.10396521
0000d0 93 33 85 be 18 a3 73 3d 05 b8 61 be 2c 54 c4 3d
       -0.2601591 0.05948171 -0.22042854 0.09586367
0000e0 26 22 d6 3d de 73 14 3e dd 4a 15 3e f2 ca 9b 3e
       0.10455732 0.14497325 0.1457934 0.30428272
0000f0 9b c8 73 3e b0 9e 16 3e ef 6c d9 be ec af a6 3e
       0.23806994 0.14708972 -0.42465922 0.32556093

encoder_layer_mhattentions.0.attention_heads.3.V.bias f4 [8]
000000 89 13 40 3d 7c 9a 21 3d 1f 7e 95 bc ce 03 e9 bd
       0.04689363 0.03945397 -0.018248616 -0.11377679
000010 86 ff a1 be 74 fe cd 3b 81 90 86 3e 59 b6 ab 3d
       -0.3164026 0.0062864367 0.26282123 0.083843894

encoder_layer_mhattentions.0.output_layer.weight f4 [32, 32]
000000 cd cf 36 be e7 ca ab be 54 b8 3b be d8 53 34 3f
       -0.17852707 -0.3355324 -0.18332034 0.70440435
000010 29 d5 7b 3e d6 4a 17 3e 69 dd 85 3e d2 7f 22 be
       0.24593033 0.14774641 0.26145485 -0.15869072
000020 0d 8a 1e bd 43 50 44 bd ee 7d 34 bf 6a c2 41 3e
       -0.038705874 -0.047928106 -0.70504653 0.1892182
000030 6b 0c 66 bf 92 38 9c 3d b0 0d 1c bf 1d 2e 0d 3d
       -0.898627 0.076279774 -0.60958385 0.034467805
000040 1c 9c 73 3e 54 c2 1a be cd ba 9b bc a8 10 43 3e
       0.2379002 -0.15113193 -0.019009972 0.19049323
000050 d8 48 0d be 62 5e a7 be 3c 1c 8c 3e 55 5f 04 be
       -0.13797319 -0.32689196 0.2736529 -0.12926991
000060 48 ee df be 6f 45 60 bd b9 af 31 be c4 f9 00 3d
       -0.43736482 -0.054753717 -0.17352189 0.031488195
000070 ef 47 8c be ce 94 cf 3e 3a 99 9e 3e ed d8 c6 3d
       -0.2739863 0.40543216 0.30976278 0.09709344
000080 9e fb 4b 3c 42 7e 0b 3f 77 af be 3e 3c 69 d6 be
       0.012450127 0.5448953 0.37243244 -0.41877162
000090 90 13 87 3e c0 e8 0d bf 7f 9f 5d 3e eb 28 84 3c
       0.26382113 -0.55433273 0.21642874 0.016132792
0000a0 77 e2 80 be 0b 55 94 be b9 1c 00 3f 33 62 ed be
       -0.2517278 -0.28971133 0.5004383 -0.46363983
0000b0 ba 56 26 3f 26 8f 0f 3e 33 53 8f 3e 07 c8 7e be
       0.64976084 0.1401945 0.27993163 -0.24880992
0000c0 83 e2 9c 3e 50 39 e2 bd 88 56 77 3c d8 e9 fd 3e
       0.30641565 -0.11046088 0.015096314 0.4959247
0000d0 bd 00 e8 bd 0d 07 ed bd db 2b b3 3e cd 2f 20 be
       -0.11328266 -0.115736105 0.34994397 -0.15643235
0000e0 3b 60 bf 3d 6e 99 95 bc 84 7e 57 be 5f 64 12 be
       0.093445264 -0.018261638 -0.21044356 -0.14296101
0000f0 03 c2 1a 3e 72 83 97 3e 8e b2 95 bc 8e 3c 2e be
       0.15113072 0.29592472 -0.018273618 -0.17015287
000100 96 58 df be 67 3d 80 be 07 bf 7e 3e 4a e8 d7 3c
       -0.43622273 -0.25046846 0.24877559 0.026355881
000110 68 0a 68 bd 2e 85 a3 3d 38 93 35 3e de c9 dd bc
       -0.05665055 0.079843864 0.17731941 -0.027073797
000120 79 8b a7 3e b2 c2 18 be 6e db 30 bf b1 9b 11 be
       0.32723597 -0.1491802 -0.69084823 -0.14219548
000130 a7 7b 47 bf 7e ef d7 be 7f 11 19 3e f1 0e c5 3d
       -0.77923054 -0.42174906 0.1494808 0.096219905
000140 33 9d b5 be 20 1d 9c 3e 56 cc 1d 3d 70 d3 28 be
       -0.35471496 0.3049097 0.038524948 -0.16486907
000150 1f 64 22 3c 9f 30 1e bc 2b 2a 4f 3d 41 4b 86 3e
       0.009911566 -0.009655147 0.050577324 0.2622929
000160 95 61 b5 be d7 f0 c5 3d 37 2e cf 3d 5b 9b cb bd
       -0.35426012 0.09665077 0.10116237 -0.09941741
000170 c5 94 6a be 2d 18 96 3c 96 0a e8 3d 42 74 f0 3e
       -0.22908314 0.018322075 0.11330144 0.46963698
000180 3e c0 c9 3e a7 33 5d 3e 9a d6 fd bd 42 d9 0b bf
       0.39404482 0.21601735 -0.123944476 -0.54628384
000190 11 7e 7d be ca 39 98 be d6 1a 4d bf 0b b6 bd be
       -0.24755122 -0.2973159 -0.80119073 -0.3705295
0001a0 01 25 5e 3e 29 c7 22 3f ef d2 05 be e4 51 5f 3e
       0.21693803 0.63585144 -0.13068746 0.21808583
0001b0 02 45 41 3e 91 14 85 be dc bf 2c be 4f e9 b5 3e
       0.1887398 -0.25992253 -0.16870064 0.35529563
0001c0 65 5a b6 be d6 bb 83 3d 9a 51 1e bd 16 4b 52 be
       -0.3561584 0.06432311 -0.03865204 -0.20536456
0001d0 7a ac 9e bd 28 9a cf be c4 dc 21 3f 6a 1a bd be
       -0.07747741 -0.405473 0.63227487 -0.36934215
0001e0 17 5d 90 3d 25 82 b3 3e 77 89 ec bc 0b 39 c1 be
       0.070490055 0.3506023 -0.028874142 -0.37738833
0001f0 f5 e9 7e be 5d ca 01 3e e1 de 25 3e e5 af ab be
       -0.24893935 0.12674852 0.16198303 -0.33532634
000200 a5 85 9e 3e cf ad 2e be ea 46 1d be 1d 3a d2 3c
       0.30961338 -0.1705849 -0.15359083 0.025662476
000210 c5 83 d7 bd 0d 16 0b 3d c4 d5 9c 3d b8 5b b8 3d
       -0.1052318 0.033956576 0.0765796 0.09001869
000220 05 86 68 be f6 e3 2d 3d 2d cf 16 be 98 45 80 bd
       -0.22707374 0.04245373 -0.14727469 -0.06263274
000230 0b f8 0a 3e a2 48 68 bd 59 be 5d 3e 70 cf 04 bc
       0.13571183 -0.056709893 0.21654643 -0.008106098
000240 99 3b 5e 3d 2c 9f 21 be 29 59 7c ba b0 92 34 bd
       0.054256056 -0.15783376 -0.0009626323 -0.044085205
000250 90 e9 99 3d c1 75 fc bb e0 b0 cc 3d 12 af 26 3e
       0.07515252 -0.007704467 0.09994674 0.16277722
000260 6f 32 a0 3d 78 ad ce bd 06 3c 4c bd 89 de d7 3d
       0.078221194 -0.1009168 -0.04986193 0.10540492
000270 bf 60 07 3d 8f b3 5a be d7 33 1c be e7 d0 bd 3d
       0.03305125 -0.21357559 -0.1525415 0.092683606
000280 b1 17 2b 3d 0b b4 2e 3e 60 ca ae 3d 35 8c f6 bd
       0.04177064 0.17060868 0.08534694 -0.12038461
000290 5b 47 dd be 65 12 ed 3d 25 ca c7 3c 7b 81 06 be
       -0.43218502 0.11575774 0.024388382 -0.1313533
0002a0 6a 06 da 3e 3f f4 d5 3e 6f 7a 14 bd 22 f2 85 3e
       0.4258302 0.41787907 -0.036249574 0.26161295
0002b0 36 f0 1c 3e 94 05 a9 be b6 53 a9 3a cf 45 b2 3d
       0.15326008 -0.33012068 0.0012918625 0.08704721
0002c0 17 9b 18 bd 6c fa 41 bd 9a 82 21 be 1e 84 4d be
       -0.03725728 -0.04735796 -0.15772477 -0.2006993
0002d0 c7 2c 0e be c0 76 fc bd 89 47 f7 3d 1a 4a 1a 3e
       -0.13884269 -0.12327337 0.12074191 0.1506733
0002e0 cd 4d a9 3d 62 f4 15 3f e2 0d 1c 3e 15 54 cf bd
       0.082667924 0.58576024 0.15239671 -0.10123459
0002f0 86 5e 65 bc a1 46 17 3e 61 17 59 be d8 d7 8b 3e
       -0.013999587 0.14773037 -0.21200325 0.27313113
000300 64 f4 80 be 9f 73 57 3e cf 34 67 3e 1f 4e 13 3d
       -0.25186455 0.210402 0.22578739 0.035963174
000310 52 86 c7 be 60 b8 33 3e bd 1a 2c bc c9 d3 43 bd
       -0.38969666 0.17550802 -0.010504422 -0.047809396
000320 38 eb 89 3d cd fb d9 3c c4 a0 e4 bd 79 72 7a 3d
       0.067343175 0.026609326 -0.11163476 0.061144326
000330 bb 96 ef bd 4f d5 1b be ea 0c d8 bd 14 67 85 be
       -0.116986714 -0.1521809 -0.10549338 -0.26055205
000340 c4 cc ee bd af ac ec 3e 98 3d 8d bd ba 9e ee 3d
       -0.1166015 0.46225497 -0.06896514 0.116513684
000350 5b 09 21 bd 10 6d 5b be d6 e8 ee 3d b9 11 e6 3d
       -0.039315563 -0.21428323 0.11665504 0.11233849
000360 30 56 9b be ad 1f 8f 3d 4f 56 cf 3d 38 eb 34 be
       -0.30339193 0.069884636 0.10123884 -0.17667854
000370 5c a8 3e 3d 95 77 a6 bd 77 9d 37 be 70 c7 76 3e
       0.04654728 -0.08128277 -0.17931162 0.24099517
000380 28 cc 26 bd ce 24 9e 3e c8 2a e2 be 42 fd c9 bd
       -0.040722042 0.30887455 -0.44173265 -0.09862758
000390 04 6d a4 3e bd a4 d6 be fe 62 cd be 0d 42 54 be
       0.32114422 -0.4192256 -0.40114588 -0.20728321
0003a0 44 b4 a6 be 85 9f e7 3e c5 92 9d 3d 4f 78 a9 3e
       -0.32559407 0.4523889 0.0769401 0.330996
0003b0 8f b9 a8 3e 61 93 c8 3d 66 46 25 bd 78 f9 90 3c
       0.3295407 0.09793735 -0.04035034 0.017697081
0003c0 f3 45 91 be 0d ea 88 3e 19 de ec bd ce 0f 01 bd
       -0.2837368 0.26741067 -0.11565799 -0.031509213
0003d0 ae fd 51 3c 29 3f 09 3d 72 95 7b bd 14 6e 99 bd
       0.01281683 0.0335075 -0.06142182 -0.07491699
0003e0 ac 7d 3c 3c dd a7 5d 3e 2f fa 93 bd cf c8 dc bd
       0.011504572 0.21646066 -0.07225453 -0.10780489
0003f0 a1 e4 4b 3e 46 a2 f8 3d 9c da 98 be 43 82 c7 bd
       0.19911434 0.12140326 -0.29854286 -0.09741642

encoder_layer_mhattentions.0.output_layer.bias f4 [32]
000000 17 e6 5e bc c1 0d 8c be 4f 45 97 be 9f 80 da be
       -0.013604662 -0.27354243 -0.29545066 -0.42676255
000010 e2 36 f1 bb f0 ad 87 3e 38 ce fb 3c 8b da 2f be
       -0.007361279 0.2649989 0.030737981 -0.17173211
000020 9b 47 4c be 91 26 89 3d 2b 0f 37 3e 14 d3 77 be
       -0.1994919 0.06696809 0.1787688 -0.24201614
000030 05 9b 20 be 62 d8 dc 3e 3f 5d 86 3d 7d 8c 33 be
       -0.15684135 0.43133837 0.06560754 -0.17534061
000040 cc 7e 1a be 66 41 81 3e c1 b9 7e 3e 9b b5 05 bf
       -0.15087432 0.25245208 0.24875547 -0.5223023
000050 31 2c ae 3e 9e d3 85 be a2 d3 f8 3e fc 48 56 3e
       0.3401809 -0.26138014 0.48598963 0.20926279
000060 82 98 29 3e bc f9 b3 3e 8c d6 ae bc 0e 4e 28 be
       0.16562083 0.3515147 -0.021342538 -0.16436026
000070 c3 d1 fa bd 82 64 50 be 3e 44 fc bd b5 8d 72 bd
       -0.1224704 -0.2035084 -0.12317704 -0.059217174

encoder_layer_mhattentions.1.attention_heads.0.Q.weight f4 [8, 8]
000000 f1 4d 5b 3f d6 b8 0f bf 64 17 e3 3d e3 15 eb be
       0.85665804 -0.5614141 0.11088446 -0.45915136
000010 dd 3e 04 3e a2 11 0f 3f b4 f3 64 3e 81 c1 b5 3e
       0.12914605 0.5588628 0.2235859 0.35499194
000020 59 ab 21 3d b1 0c b5 3e 56 20 0d bf 8a c0 e9 3e
       0.03947005 0.35361245 -0.55127466 0.45654708
000030 28 d4 6f 3e de ad c1 be be cd a1 3e 03 a8 83 bd
       0.23420775 -0.37827963 0.3160228 -0.0642853
000040 af 53 0b be c7 c0 e5 be 7f 8e 22 bf 91 d0 54 3e
       -0.13606142 -0.4487364 -0.6349868 0.20782687
000050 29 69 58 be 42 e8 1b be fc ae eb be 63 c3 06 3f
       -0.21133865 -0.15225318 -0.4603194 0.52641886
000060 a7 70 0a 3f 80 9a d7 be e8 3a bd bc be 2e 47 3f
       0.54078144 -0.42110062 -0.023099378 0.778057
000070 1b 13 f4 be 61 c0 84 3e 09 5a 57 be 9b 9c 83 be
       -0.47670826 0.25928023 -0.2103044 -0.25705418
000080 9f 33 f2 bd a1 58 21 3f 66 e8 37 bd f2 d8 3e bc
       -0.11826252 0.6302586 -0.044899367 -0.0116484035
000090 ba 43 c6 bd 0f d0 28 3e c9 e5 ac be f0 9f 91 be
       -0.096808866 0.16485618 -0.33769062 -0.28442335
0000a0 16 4a 11 bf d0 e9 36 3c 04 bf 4d bf 97 b6 b2 3e
       -0.5675367 0.011164144 -0.8036959 0.3490493
0000b0 74 e2 3d be 37 c4 40 bf a8 38 7d 3e 41 51 e9 3b
       -0.18543416 -0.752994 0.24728644 0.007120282
0000c0 78 4e e6 3e dd 4b 6a 3e d3 90 51 bd 3e e3 0d 3f
       0.44981742 0.22880502 -0.051163506 0.5542487
0000d0 4d 59 03 3e 72 2f 52 3d 6a 89 18 3e 94 40 b4 3e
       0.12827034 0.05131478 0.1489617 0.3520552
0000e0 73 0c 9a be d9 fa a5 3d b2 32 f4 3d 44 03 63 3e
       -0.30087623 0.08104486 0.11923732 0.22169214
0000f0 b0 78 7e be 96 c2 83 bd 5f bd 31 3f 5b 68 f9 bd
       -0.24850726 -0.06433599 0.6942958 -0.12178107

encoder_layer_mhattentions.1.attention_heads.0.Q.bias f4 [8]
000000 96 62 8d be 00 1f 3a bf 72 4b 00 be 4d 16 d4 3c
       -0.27614278 -0.7270355 -0.1252878 0.02588954
000010 8a b8 90 bf 6c 27 03 3f 28 be 8f 3e 0f 09 05 3e
       -1.1306317 0.5123203 0.28074765 0.12991737

encoder_layer_mhattentions.1.attention_heads.0.K.weight f4 [8, 8]
000000 1d 08 ea 3e dd 44 0c be c8 9b e7 3d e7 c5 c8 bd
       0.45709315 -0.13698144 0.1130901 -0.09803372
000010 97 67 93 3e 79 d1 02 3e 2c fa 66 bf c9 58 97 be
       0.2878997 0.1277522 -0.9022548 -0.29559925
000020 14 1d 69 bd 52 d5 de 3e 60 8f 5a 3f 40 82 0a bf
       -0.056912497 0.43522125 0.8537502 -0.54104996
000030 bb eb 6f 3e ac e8 7d be 2b 51 7e be 95 c9 7f be
       0.23429768 -0.24795789 -0.2483565 -0.24979241
000040 3c 84 af bd c9 0e 04 3e 75 01 13 3f c5 2e 23 3f
       -0.085701436 0.12896265 0.574241 0.6374324
000050 0f 4b 71 be 67 22 e6 3d 29 4a 0b 3e 44 39 ca be
       -0.23563789 0.112370305 0.13602509 -0.39496815
000060 0f fc 01 3f a0 ad 03 3f 1d 47 d6 bc f1 ca 90 be
       0.50775236 0.51436806 -0.026156956 -0.28279832
000070 7a 92 e2 3d e0 d7 ce 3c 1f 09 a5 3e e4 63 40 bf
       0.110630944 0.025249422 0.3223352 -0.7515242
000080 49 3e f1 3c ba 74 d3 be fb 3d 34 3e 73 5b b9 bd
       0.029448645 -0.41299993 0.17601769 -0.09050646
000090 7d 00 90 3e ca 8f 83 bf dc 74 e6 3e 8b 33 e3 be
       0.28125373 -1.0278256 0.45011032 -0.44375262
0000a0 17 ad 28 be 02 e4 b9 3e ad db bb 3e 1d ef a6 bd
       -0.16472279 0.3630677 0.36691037 -0.08151076
0000b0 47 a6 45 be c5 94 24 3f e3 a2 81 3e b6 7c b6 3e
       -0.19301711 0.64289504 0.25319585 0.35642022
0000c0 3d c9 db be f9 90 4f 3e d0 cd 29 be ec f8 db be
       -0.4292697 0.20270146 -0.16582417 -0.4296335
0000d0 c3 78 b4 bc 16 cc 8b 3e 73 22 d9 bd 2e 6c d9 be
       -0.02203024 0.27304143 -0.10602274 -0.42465347
0000e0 42 5f 20 3e 31 18 c8 3a 61 d2 24 3d 23 89 8d be
       0.15661338 0.0015265999 0.040239695 -0.2764369
0000f0 aa 3b 97 3e f3 6b e3 3e 7a 1d bf 3e d2 76 a5 3e
       0.29537708 0.44418296 0.37327176 0.32317215

encoder_layer_mhattentions.1.attention_heads.0.K.bias f4 [8]
000000 eb f0 2d 3e 65 a1 a7 be 13 75 ac 3e 73 11 b9 3d
       0.16986434 -0.32740322 0.3368307 0.09036531
000010 c7 c4 7a be 36 8c 42 be e2 04 ad 3e e4 ea bc bd
       -0.24489127 -0.18998799 0.33792788 -0.09224489
