models/model_chkpt_130.pt (torch, 319268 bytes, 387 tensors)

tokenizer.token_embedding.weight f4 [17, 32]
-0.8122412 -2.2674596 0.06136921 0.4123168 1.808353 0.6534823 0.90037876 1.191356
-1.6679832 -1.0152755 -0.24097416 0.1930416 -0.96527386 -0.556974 -0.3952617 -0.30935368
-0.22928894 0.48262346 -0.57621974 -0.3951622 -1.3977897 -2.0058568 0.70396006 2.9911945
-0.114546455 0.70336586 0.7597528 1.5429077 -0.575376 -3.2057314 0.48795903 -0.22723456
-0.7218018 -1.7056705 1.2718698 -0.237284 2.9240909 0.60398865 -0.05670326 1.0188577
-1.3595426 -0.8128568 -0.15008406 0.3384412 -0.75329447 -0.6382456 -0.7158582 -0.49966884
1.9591563 -0.47585875 0.13684103 1.0997959 1.2609702 1.1030937 0.935074 0.4474808
-1.0569873 0.2096452 1.4688879 0.64350337 -0.7071661 -1.6619247 -0.4294201 0.7010271
-0.34124804 0.35473338 -0.1405746 -0.2789564 3.8714492 0.13462308 1.7645562 0.1625955
-1.31002 -0.26618227 -0.5320067 0.7076092 -0.24996804 -0.4099625 -0.55564404 -0.43861935
1.5700896 1.921038 -0.2916562 -1.9280262 -1.2687513 -0.46610138 -0.06316498 -1.8951266
-1.283615 1.2983811 0.35134512 0.82748586 0.62337196 -0.22338867 -0.7300598 -0.0975536
-0.7513896 1.5890335 0.22884372 -0.56047463 0.13193266 -0.64875823 1.9474167 0.9806014
-1.4315832 0.83339804 -1.0582952 0.6533892 0.03268169 -0.71445733 -0.2657655 -0.47568223
0.66057205 0.29309404 1.7982305 -0.35156128 -0.46140346 1.4215226 1.0160052 -2.80773
-1.5538532 0.5933341 0.29896587 0.067589834 0.15648027 1.0183451 -1.0654283 0.5143143
-0.22358802 -0.06217595 -0.031819694 0.40257388 -0.44110933 -1.6080421 2.5204134 -0.4414148
-0.121056266 -0.093884245 0.5640426 1.4098341 -0.09771908 0.05233219 -1.2781434 -0.13569805
0.8093654 0.58599675 1.7773945 -1.211495 -1.4157978 0.33677948 -0.080296755 -1.2327108
-1.2445861 0.27940258 -0.945652 -0.33267984 0.4731408 2.1945775 -1.47912 -0.5224266
0.7766851 0.94630784 1.9516096 0.34478438 -3.6918876 -0.9116038 0.6099718 0.8962901
-0.12894899 1.2365458 0.6990193 1.3363197 -0.09291316 -0.3659734 -0.9260619 0.030438825
2.061656 0.92739725 0.23301192 -0.6278251 0.16503657 -0.37895328 0.5808638 -0.07075726
0.13644914 -0.46329963 -0.41879803 -0.18077755 -0.18710893 1.4703655 -1.4511209 -0.63484794
-0.3908249 -1.3046377 0.10702037 0.11604184 -1.4085944 -1.7338682 0.07821079 -0.14412674
-0.3604431 0.9087767 0.9078969 1.167391 -0.13499427 -0.32065699 -1.1048932 0.012290707
1.0881327 0.40891778 -1.7582654 0.13473807 0.59684324 0.0801108 -0.31424367 2.5993805
-1.0063947 0.15791313 -0.4710237 -0.75384915 0.39721814 2.4699118 -1.383315 -0.35016838
-0.77448237 0.32062346 2.9035878 1.1304326 0.69211364 -3.1895397 -3.2119308 -0.44846186
-0.10388619 1.9278328 0.9764381 1.2154776 -0.031536844 -0.4530377 -0.84906036 -0.0015758126
0.61166996 0.24059951 -1.7695531 0.6500887 1.9553267 1.3408849 -0.06933769 1.0157743
0.44900757 -0.35119143 -0.7657983 0.62976646 -0.35855645 0.49967083 -1.4278212 -0.5652065
00000000: 0aef 4fbf 0f1e 11c0 485e 7b3d 301b d33e
00000010: 1c78 e73f 9e4a 273f 397f 663f 5a7e 983f
00000020: 7980 d5bf 8cf4 81bf eec1 76be b2ac 453e
00000030: 301c 77bf d995 0ebf be5f cabe 9b63 9ebe
00000040: b8ca 6abe 6c1a f73e 2383 13bf b352 cabe
00000050: c6ea b2bf f55f 00c0 ba36 343f bb6f 3f40
00000060: 5597 eabd c90f 343f 297f 423f 007e c53f
00000070: d74b 13bf b42a 4dc0 c4d5 f93e 2db0 68be
00000080: 01c8 38bf 6953 dabf a1cc a23f 94fa 72be
00000090: 4e24 3b40 009f 1a3f ad41 68bd ee69 823f
000000a0: 7e05 aebf 6217 50bf a3af 19be 2a48 ad3e
000000b0: e8d7 40bf 1064 23bf 7c42 37bf 98d4 ffbe
000000c0: a2c5 fa3f c2a3 f3be 0e20 0c3e 1dc6 8c3f
000000d0: 7967 a13f 2d32 8d3f 0261 6f3f 341c e53e
000000e0: 5c4b 87bf 3bad 563e 8504 bc3f a3bc 243f
000000f0: d608 35bf f3b9 d4bf f4dc dbbe 8376 333f
00000100: 10b8 aebe 9d9f b53e caf2 0fbe 60d3 8ebe
00000110: d3c5 7740 a2da 093e fadc e13f 6f7f 263e
00000120: bcae a7bf 0b49 88be 9731 08bf e025 353f
00000130: 9ff7 7fbe 9be6 d1be b03e 0ebf b792 e0be
00000140: b2f8 c83f 93e4 f53f f653 95be 90c9 f6bf
00000150: 7166 a2bf d7a4 eebe a45c 81bd 8293 f2bf
00000160: 7f4d a4bf 5a31 a63f 82e3 b33e 1dd6 533f
00000170: 4e95 1f3f 00c0 64be 33e5 3abf 2fca c7bd
00000180: 125b 40bf 7365 cb3f 0256 6a3e 447b 0fbf
00000190: 5b19 073e 0515 26bf f344 f93f b108 7b3f
000001a0: 1e3e b7bf 9359 553f 3876 87bf 8444 273f
000001b0: 3cdd 053d ade6 36bf 6a12 88be 9f8c f3be
000001c0: 401b 293f 6c10 963e 6b2c e63f d7ff b3be
000001d0: 133d ecbe 74f4 b53f 750c 823f d9b1 33c0
000001e0: a9e4 c6bf bee4 173f 0e12 993e 8a6c 8a3d
000001f0: 5d3c 203e 2259 823f f45f 88bf 1aaa 033f
00000200: 42f4 64be 35ac 7ebd 5e55 02bd 2a1e ce3e
00000210: 15d9 e1be 53d4 cdbf 744e 2140 1f01 e2be
00000220: 59ec f7bd 6246 c0bd 1965 103f 7275 b43f
00000230: f120 c8bd 475a 563d 349a a3bf 6ef4 0abe
00000240: 9232 4f3f e203 163f aa81 e33f 4512 9bbf
00000250: dd38 b5bf 5c6e ac3e a072 a4bd 78c9 9dbf
00000260: 994e 9fbf db0d 8f3e 4016 72bf 0355 aabe
00000270: 833f f23e f573 0c40 ce53 bdbf c0bd 05bf
00000280: d6d4 463f 3b41 723f 58ce f93f 9487 b03e
00000290: e347 6cc0 de5e 69bf 1d27 1c3f 4573 653f
000002a0: 340b 04be 2247 9e3f eef2 323f 860c ab3f
000002b0: 4149 bebd de60 bbbe 6512 6dbf d85a f93c
000002c0: 2cf2 0340 e869 6d3f ad9a 6e3e 25b9 20bf
000002d0: 59ff 283e 2a06 c2be 7db3 143f 2fe9 90bd
000002e0: 53b9 0b3e 9c35 edbe b26c d6be c01d 39be
000002f0: 7c99 3fbe f034 bc3f 54be b9bf 6585 22bf
00000300: 341a c8be 5efe a6bf 7f2d db3d 58a7 ed3d
00000310: d24c b4bf 65ef ddbf fb2c a03d f695 13be
00000320: ff8b b8be 97a5 683f ee6b 683f 116d 953f
00000330: f03b 0abe 272d a4be 246d 8dbf f65e 493c
00000340: ef47 8b3f ac5d d13e d70e e1bf c7f8 093e
00000350: b8ca 183f 2211 a43d 8ce4 a0be 405c 2640
00000360: 8bd1 80bf fbb3 213e 052a f1be 42fc 40bf
00000370: 2d60 cb3e 0913 1e40 7710 b1bf 4549 b3be
00000380: 7a44 46bf c228 a43e 62d4 3940 04b2 903f
00000390: 5c2e 313f 6b21 4cc0 4690 4dc0 cb9c e5be
000003a0: 48c2 d4bd 3ac3 f63f d9f7 793f c594 9b3f
000003b0: c72c 01bd 8ff4 e7be 055c 59bf 7f8b ceba
000003c0: 6796 1c3f b85f 763e b780 e2bf 376c 263f
000003d0: 2548 fa3f 1ea2 ab3f eb00 8ebd e404 823f
000003e0: 52e4 e53e 5dcf b3be 5b0b 44bf 6038 213f
000003f0: b694 b7be dbd4 ff3e d8c2 b6bf 60b1 10bf

tokenizer.positional_embedding.weight f4 [9, 32]
0.5867831 -0.08280158 -0.5425078 0.34293452 0.3104068 1.8366808 -0.09553522 -0.33837393
-0.6665423 0.858821 2.171603 -1.2312306 -1.0513355 -1.0178678 0.48831213 -0.2232161
0.18929623 -0.7637417 0.4469414 1.1347926 -0.24676172 -0.29607287 0.24344838 0.24808428
-0.82770455 0.6616158 1.9253854 -0.23440704 -0.122227676 -0.069834955 -1.0450788 -3.1460967
0.9349884 0.7577594 0.528883 -0.12299079 1.0554284 0.14593425 0.18069239 -0.11509274
1.9772581 0.6954184 -0.9819478 -0.20403546 -0.3997669 0.2739691 0.9576087 -0.7967158
-0.03809888 -0.84967995 0.63891214 -1.5126046 0.8889518 0.17148316 0.71453625 0.6134631
0.6649125 -0.56041324 1.2195066 -2.2819383 0.7370748 0.5458279 2.035219 -0.89451283
-0.0066327453 0.87709695 -0.097271115 -0.5933199 -0.107193545 -0.26197928 -0.042914335 0.8791568
0.76509535 0.27703565 -1.5734174 -1.7749768 1.7088581 -0.24909246 -2.004672 0.95864195
0.48530564 0.71426535 -0.24736798 -0.6172204 1.422156 -1.2991732 -0.59672284 -0.33351818
0.13466272 -0.4360384 -0.3320332 -1.3250633 -0.1516525 -0.6573148 1.2422498 -1.3507346
-0.9189684 -1.3959689 -1.3467002 -0.77064776 -0.36158347 -0.8587981 0.24993853 -0.6498569
-1.0639429 0.023536304 -0.18333973 -1.7868456 1.7607399 -0.73740274 -1.6055214 0.3445682
-0.47431803 -1.0661429 -0.7850844 -2.468123 1.5623933 0.432607 -0.031625208 -0.9403801
1.4625791 1.8353074 0.5750231 -0.6526585 0.80230045 -0.59231794 -1.4853692 -0.54952943
1.1400117 -0.34032857 0.66278255 -1.5726798 0.12965132 -1.7300117 0.62102604 0.45766428
-0.75454235 1.0629702 2.6849742 0.3547249 -0.6928891 -0.10363436 0.13116328 -0.2324862
0.16196601 -1.3312851 1.0794894 0.20899217 0.08512719 0.98076713 -0.72942626 -0.39270848
0.89463055 0.28465968 -0.24230897 -0.10452164 1.7124238 0.45137933 1.4036767 1.2021445
-0.52354866 -1.3490134 1.8501586 -1.637019 -0.13577552 0.9225743 0.640719 -0.64310277
-0.7195262 -0.37499622 -0.3663138 0.65172195 -0.53200984 1.2263281 0.27923995 -1.5856035
-1.5504504 1.0482005 0.35132587 0.5704419 -0.6204009 2.412064 0.5356531 0.5616227
-0.3723469 0.6055172 -2.271087 -0.00087385677 -0.6221972 0.08463757 -1.1182634 0.8475582
-0.56137884 0.4397392 -0.2619617 0.096996285 -0.00062750827 -0.8390261 -1.5980673 -0.5602588
0.2978401 -1.3695129 -0.9618258 0.10553101 -1.732957 1.166126 -0.43006805 1.3590772
0.6518857 -0.26263982 -1.896394 0.4305796 -1.073528 0.7879507 1.1920264 -1.0656563
-0.64493614 0.10991125 0.06929181 1.5301594 -0.42820528 0.9402289 1.065632 0.42288512
-1.3703748 0.6831881 -1.3956015 0.29453054 -0.038967192 0.25392422 -0.37963614 1.0476092
1.2861022 -1.7978774 -0.66683 1.1898638 -0.721424 -1.2812121 0.3997778 2.051459
0.8283167 0.13851571 0.1324809 -1.4994172 -0.025960386 0.4669461 -1.0968275 -0.5400453
0.6571914 -2.2087226 0.07409458 -0.57296157 -1.8908641 -0.8680971 -0.51314163 1.5410802
00000000: 6b37 163f e093 a9bd cbe1 0abf 1d95 af3e
00000010: a4ed 9e3e 5b18 eb3f f8a7 c3bd 593f adbe
00000020: 84a2 2abf b1db 5b3f 8bfb 0a40 f798 9dbf
00000030: 2992 86bf 7e49 82bf 0c04 fa3e c392 64be
00000040: dfd6 413e 9384 43bf 81d5 e43e e240 913f
00000050: 1baf 7cbe dd96 97be 884a 793e ce09 7e3e
00000060: 72e4 53bf a75f 293f 0773 f63f 6608 70be
00000070: 8152 fabd a105 8fbd 24c5 85bf a659 49c0
00000080: 665b 6f3f 85fc 413f e064 073f 98e2 fbbd
00000090: 4718 873f ca6f 153e 6d07 393e beb5 ebbd
000000a0: cb16 fd3f f106 323f ee60 7bbf acee 50be
000000b0: 3fae ccbe ae45 8c3e d825 753f 91f5 4bbf
000000c0: 920d 1cbd a084 59bf bf8f 233f 079d c1bf
000000d0: 5892 633f 4899 2f3e d9eb 363f eb0b 1d3f
000000e0: b537 2a3f 3e77 0fbf cb18 9c3f 470b 12c0
000000f0: efb0 3c3f 61bb 0b3f 0741 0240 cbfe 64bf
00000100: 8057 d9bb 6d89 603f 1436 c7bd d0e3 17bf
00000110: 4a88 dbbd 2622 86be f1c6 2fbd 6c10 613f
00000120: 4add 433f 9ed7 8d3e be65 c9bf 7132 e3bf
00000130: ddbb da3f 1812 7fbe 8c4c 00c0 8f69 753f
00000140: fb79 f83e 18da 363f 084e 7dbe 2802 1ebf
00000150: 3509 b63f 4f4b a6bf d4c2 18bf e5c2 aabe
00000160: 06e5 093e 6d40 dfbe 4100 aabe ad9b a9bf
00000170: cb4a 1bbe c845 28bf 0b02 9f3f dfe4 acbf
00000180: 8341 6bbf 1caf b2bf ac60 acbf 2c49 45bf
00000190: 7821 b9be 31da 5bbf e3ef 7f3e 065d 26bf
000001a0: 482f 88bf 35cf c03c 69bd 3bbe 5bb7 e4bf
000001b0: ed5f e13f 6dc6 3cbf ba81 cdbf 3e6b b03e
000001c0: d0d9 f2be 5f77 88bf 4bfb 48bf baf5 1dc0
000001d0: 81fc c73f aa7e dd3e 6f89 01bd c0bc 70bf
000001e0: cb35 bb3f 5aeb ea3f b734 133f a114 27bf
000001f0: 9063 4d3f 26a2 17bf 9420 bebf f6ad 0cbf
00000200: e7eb 913f 8c3f aebe 1eac 293f 924d c9bf
00000210: 51c3 043e 0671 ddbf 90fb 1e3f f952 ea3e
00000220: b029 41bf 680f 883f 9ed6 2b40 819e b53e
00000230: 2e61 31bf 403e d4bd ab4f 063e dd10 6ebe
00000240: 6bda 253e 8d67 aabf b52c 8a3f 0b02 563e
00000250: 2a57 ae3d 8e13 7b3f aebb 3abf 1611 c9be
00000260: 8206 653f eabe 913e d81f 78be 710f d6bd
00000270: b430 db3f 311b e73e aeab b33f dfdf 993f
00000280: 4907 06bf 79ac acbf ffd1 ec3f d789 d1bf
00000290: bd08 0bbe d42d 6c3f 2906 243f 62a2 24bf
000002a0: de32 38bf 81ff bfbe 7b8d bbbe 40d7 263f
000002b0: cc31 08bf 52f8 9c3f 8af8 8e3e 0ef5 cabf
000002c0: 2975 c6bf 6f2b 863f fce0 b33e 7b08 123f
000002d0: 98d2 1ebf 425f 1a40 9020 093f 81c6 0f3f
000002e0: 41a4 bebe 2d03 1b3f 7d59 11c0 8913 65ba
000002f0: 5148 1fbf 7656 ad3d 4123 8fbf 93f9 583f
00000300: 86b6 0fbf 7f25 e13e d81f 86be fda5 c63d
00000310: 5e7f 24ba 6aca 56bf 788d ccbf 1f6d 0fbf
00000320: 7f7e 983e 334c afbf 373a 76bf a420 d83d
00000330: 89d1 ddbf 9e43 953f e131 dcbe 3ef6 ad3f
00000340: fbe1 263f ba78 86be 0abd f2bf ee74 dc3e
00000350: 5e69 89bf 23b7 493f 5294 983f 6d67 88bf
00000360: 891a 25bf 2619 e13d dde8 8d3d 43dc c33f
00000370: b93d dbbe d7b2 703f a166 883f 6684 d83e
00000380: 7168 afbf 6ae5 2e3f 12a3 b2bf b5cc 963e
00000390: 109c 1fbd 5b02 823e ab5f c2be 0f18 863f
000003a0: ff9e a43f d920 e6bf 5fb5 2abf 754d 983f
000003b0: 3eaf 38bf c2fe a3bf adaf cc3e 1b4b 0340
000003c0: 900c 543f 10d7 0d3e 13a9 073e e7ec bfbf
000003d0: e0aa d4bc 8f13 ef3e d864 8cbf 6940 0abf
000003e0: b23d 283f b65b 0dc0 e6be 973d 9cad 12bf
000003f0: d607 f2bf 9d3b 5ebf 405d 03bf 1e42 c53f

encoder_layer_mhattentions.0.attention_heads.0.Q.weight f4 [8, 8]
0.014556003 0.034026336 0.018040294 0.3399421 -0.0009776484 0.04251403 -0.08261635 0.017296173
0.028306188 0.050005797 -0.29527882 -0.22275294 0.056569654 -0.16912262 -0.23682001 -0.04866397
-0.05424348 -0.08071841 -0.04607673 -0.3061539 -0.045082178 -0.022822382 0.030080853 -0.0008713653
0.039934736 0.07945955 -0.027527492 -0.08429242 -0.018119523 -0.025474923 -0.049579486 0.041751396
0.16448517 -0.09192319 -0.06802861 -0.06580052 -0.060684573 -0.05674147 -0.052076537 0.03622481
-0.2884545 0.09029824 0.15825628 0.123871826 -0.09268551 0.105941325 0.0075475946 -0.07103995
-0.14134185 0.044885766 0.09932335 -0.020583894 -0.09394663 0.32694423 -0.20944679 -0.41688988
-0.48320517 0.34087506 -0.098228686 0.54426455 -0.06967834 0.61241984 -0.019425476 -0.5563136
00000000: 4d7c 6e3c 335f 0b3d 3dc9 933c e40c ae3e
00000010: 7024 80ba 3123 2e3d c332 a9bd b4b0 8d3c
00000020: 61e2 e73c e1d2 4c3d c92e 97be 5919 64be
00000030: 95b5 673d 7b2e 2dbe f280 72be df53 47bd
00000040: 692e 5ebd b24f a5bd f4ba 3cbd 34c0 9cbe
00000050: 17a8 38bd 01f6 babc 1f6c f63c 566c 64ba
00000060: 9b92 233d b0bb a23d 5681 e1bc 81a1 acbd
00000070: 656f 94bc c9b0 d0bc dc13 4bbd 8303 2b3d
00000080: cd6e 283e 3a42 bcbd 9552 8bbd 6cc2 86bd
00000090: 6390 78bd be69 68bd 354e 55bd 7760 143d
000000a0: 4fb0 93be 49ee b83d ef0d 223e 83b0 fd3d
000000b0: e7d1 bdbd c4f7 d83d d051 f73b 657d 91bd
000000c0: ebbb 10be 23da 373d 0a6a cb3d 8e9f a8bc
000000d0: 1767 c0bd 3c65 a73e 3879 56be 9772 d5be
000000e0: ab66 f7be 2d87 ae3e 1f2c c9bd ec54 0b3f
000000f0: 84b3 8ebd 8cc7 1c3f 2d22 9fbc 916a 0ebf

encoder_layer_mhattentions.0.attention_heads.0.Q.bias f4 [8]
0.016990699 -0.70069546 0.10085557 -0.020291155 0.18902448 -0.25227034 1.1415938 0.45529062
00000000: 1430 8b3c c760 33bf 5d8d ce3d a339 a6bc
00000010: a28f 413e 9429 81be bf1f 923f da1b e93e

encoder_layer_mhattentions.0.attention_heads.0.K.weight f4 [8, 8]
0.260095 0.16537158 -0.32253066 0.15560877 0.14818537 -0.26702124 -0.045876015 -0.13479532
-0.37181905 -0.09267298 -0.07809135 0.38139868 0.1329649 0.07735691 -0.012491593 0.40691474
-0.06637227 -0.07313643 0.1330872 -0.03812282 -0.20031649 0.09886781 -0.022036895 0.08384305
-0.07502782 0.07653276 -0.0072976346 -0.030909514 -0.06606047 0.042712066 0.03197721 0.013747385
-0.17660193 -0.033618785 0.096065156 -0.08705043 -0.06838359 0.06338439 0.1253233 -0.048683126
0.10038027 0.11764141 -0.19185428 0.17850721 0.095212415 -0.25934076 -0.30864856 -0.049126472
0.30415183 0.1164807 -0.5304909 -0.38236132 -0.114694774 0.02702059 -0.33223832 -0.0854592
0.4587198 0.11743742 -0.66946536 0.100294545 0.05309867 -0.41106424 -0.14827916 0.38653708
00000000: 2c2b 853e 2b57 293e bd22 a5be e857 1f3e
00000010: e8bd 173e 02b7 88be 7de8 3bbd c907 0abe
00000020: 115f bebe 55cb bdbd 5cee 9fbd b046 c33e
00000030: f327 083e 4d6d 9e3d 8aa9 4cbc 2157 d03e
00000040: 2fee 87bd 8dc8 95bd 0348 083e ad26 1cbd
00000050: c41f 4dbe 357b ca3d b886 b4bc e8b5 ab3d
00000060: 30a8 99bd 35bd 9c3d ff20 efbb f335 fdbc
00000070: b64a 87bd d9f2 2e3d 89fa 023d b63c 613c
00000080: 23d7 34be dab3 09bd cfbd c43d 7f47 b2bd
00000090: b20c 8cbd adcf 813d c054 003e f567 47bd
000000a0: 2c94 cd3d fbed f03d 7375 44be 98ca 363e
000000b0: bafe c23d 50c8 84be 2f07 9ebe d738 49bd
000000c0: cab9 9b3e 6f8d ee3d 40ce 07bf ddc4 c3be
000000d0: 18e5 eabd 495a dd3c 241b aabe 3c05 afbd
000000e0: 52dd ea3e 0883 f03d 1562 2bbf 3a67 cd3d
000000f0: fe7d 593d 0377 d2be 7ed6 17be 30e8 c53e

encoder_layer_mhattentions.0.attention_heads.0.K.bias f4 [8]
0.08001742 0.1502315 -0.009482822 -0.09276924 -0.1552933 -0.09788849 -0.031233057 -0.1366298
00000000: 2ce0 a33d 49d6 193e d75d 1bbc cdfd bdbd
00000010: 3505 1fbe c379 c8bd 78dc ffbc afe8 0bbe

encoder_layer_mhattentions.0.attention_heads.0.V.weight f4 [8, 8]
0.45085666 0.21940696 -0.1502748 0.012919658 -0.020586679 -0.036962863 -0.025885245 -0.6875362
0.16866025 0.21133019 -0.10477357 -0.4407821 0.0017581889 0.46873236 -0.08903777 -0.20359649
0.3404328 0.009756608 0.07839442 -0.05614931 0.24831364 0.2771058 -0.2828236 0.078115776
-0.17054139 0.013233622 0.12072171 0.10306188 -0.022600932 -0.4010106 0.09340502 0.46165398
0.28408152 -0.2285569 -0.3765327 -0.35891724 -0.13202937 0.07973595 -0.16704449 0.25533357
-0.25122887 -0.04173302 -0.14199433 0.4149034 -0.010773601 0.20907934 0.22144845 0.31486246
-0.032174043 0.104712926 0.106003456 0.097851165 -0.22138888 0.16714402 -0.2389574 0.35190567
-0.15658121 -0.07656194 -0.12678789 0.19923304 -0.2039402 0.34924462 -0.16421832 0.28007615
00000000: afd6 e63e 38ac 603e a3e1 19be f9ac 533c
00000010: 65a5 a8bc 5f66 17bd 4b0d d4bc 5f02 30bf
00000020: 46b5 2c3e f166 583e 8793 d6bd 31ae e1be
00000030: 0873 e63a b0fd ef3e 6f59 b6bd 997b 50be
00000040: 354d ae3e 2eda 1f3c 418d a03d d2fc 65bd
00000050: ee45 7e3e d0e0 8d3e 41ce 90be 2afb 9f3d
00000060: 67a2 2ebe d5d1 583c f23c f73d 1b12 d33d
00000070: 9725 b9bc 4351 cdbe 224b bf3d e95d ec3e
00000080: 2273 913e d20a 6abe e5c8 c0be 00c4 b7be
00000090: b532 07be 9a4c a33d b60d 2bbe 15bb 823e
000000a0: 12a1 80be 3ef0 2abd f666 11be 386e d43e
000000b0: c283 30bc e518 563e 62c3 623e a735 a13e
000000c0: eec8 03bd bb73 d63d 5718 d93d 3166 c83d
000000d0: c4b3 62be cd27 2b3e 40b1 74be fb2c b43e
000000e0: d356 20be 82cc 9cbd afd4 01be bf03 4c3e
000000f0: b3d5 50be 31d0 b23e d928 28be 2466 8f3e

encoder_layer_mhattentions.0.attention_heads.0.V.bias f4 [8]
-0.2079122 -0.23997688 -0.16671397 0.21459521 -0.061496906 0.17155516 0.1405351 0.060682133
00000000: f0e6 54be 80bc 75be 11b7 2abe d9be 5b3e
00000010: 2ee4 7bbd 28ac 2f3e 6fe8 0f3e d48d 783d

encoder_layer_mhattentions.0.attention_heads.1.Q.weight f4 [8, 8]
-0.06907599 0.08054248 -0.054213785 -0.058285065 0.0927005 0.0074953265 0.11182025 0.025144458
0.15624003 0.08179923 -0.04245165 0.28368747 -0.53120655 0.94967794 0.005238141 -1.1769615
-0.32267335 -0.21035016 0.4887955 -0.337637 0.7972137 0.45665178 -0.06566534 -0.32822618
0.5979266 0.08849279 -0.0141574945 -0.24035156 0.0902537 -0.83873725 0.66574204 -0.32258436
0.91444874 -0.4630564 -0.3794388 0.21588069 0.0996761 0.30280912 0.38804772 0.73537964
-0.09754074 -0.01966184 -0.028705988 -0.19698861 -0.1259994 0.4457139 -0.20837316 0.074870974
-0.5995816 -0.091696724 0.7257861 -0.0012236012 -0.2078382 -0.05693054 -0.1463998 0.4674441
0.2509937 -0.1468413 -0.13639992 0.29099017 0.17799088 -0.07977845 0.1731851 0.010306983
00000000: b677 8dbd 75f3 a43d 460f 5ebd 52bc 6ebd
00000010: c2d9 bd3d 5b9b f53b 0402 e53d c0fb cd3c
00000020: 63fd 1f3e 5b86 a73d c8e1 2dbd 7c3f 913e
00000030: 27fd 07bf 181e 733f b6a4 ab3b ada6 96bf
00000040: 7135 a5be 0866 57be 6743 fa3e c2de acbe
00000050: 3216 4c3f 43ce e93e 8d7b 86bd 430d a8be
00000060: b811 193f b53b b53d d6f4 67bc b81e 76be
00000070: efd6 b83d 7cb7 56bf 126e 2a3f c729 a5be
00000080: 5019 6a3f ba15 edbe cd45 c2be d40f 5d3e
00000090: fc22 cc3d cc09 9b3e 31ae c63e d741 3c3f
000000a0: 71c3 c7bd de11 a1bc d228 ebbc 62b7 49be
000000b0: fd05 01be 9d34 e43e c65f 55be f455 993d
000000c0: 2e7e 19bf 7ecb bbbd 1ecd 393f 3e61 a0ba
000000d0: 89d3 54be ff2f 69bd d4e9 15be d554 ef3e
000000e0: 3f82 803e 915d 16be 6cac 0bbe aafc 943e
000000f0: 3e43 363e e262 a3bd 6f57 313e 9fde 283c

encoder_layer_mhattentions.0.attention_heads.1.Q.bias f4 [8]
-0.026778918 0.056964263 -0.01585342 -0.13678657 -0.15783748 -0.07968681 0.0694554 -0.12486878
00000000: 765f dbbc 5c53 693d 08df 81bc c711 0cbe
00000010: 26a0 21be d732 a3bd a23e 8e3d 34bb ffbd

encoder_layer_mhattentions.0.attention_heads.1.K.weight f4 [8, 8]
-0.111841395 -0.026513161 0.032517247 -0.056629438 -0.05488059 0.011100898 0.066351384 0.03813329
-0.11394737 0.13275692 -0.65362746 -0.21219482 -0.15481034 0.12817113 -0.89805216 0.9451243
-0.058258932 0.15522951 -0.030609304 -0.044326823 -0.8038435 0.9631231 0.19618624 -0.023452504
-0.1893091 0.38219643 -0.19665408 -0.57983315 0.40953046 0.5863621 -0.24225806 -0.587807
-0.5441085 -0.32710797 0.36863163 0.10299681 0.88480824 0.18294816 0.10546921 0.17909297
-0.026859498 0.090363905 -0.03797045 0.17576629 0.16362329 0.03137606 0.14217158 0.35446185
0.40204036 -0.17115529 -0.3055517 0.46440408 0.034520414 0.17621481 0.77444094 -0.20822641
-0.2598065 -0.26471126 0.24279432 0.024647318 -0.022870459 0.04653228 -0.368411 0.056550387
00000000: 1a0d e5bd 2132 d9bc ce30 053d 45f4 67bd
00000010: 78ca 60bd 8ae0 353c 3ce3 873d a731 1c3d
00000020: 3d5d e9bd 6ef1 073e 2154 27bf 9949 59be
00000030: 9a86 1ebe 4b3f 033e bfe6 65bf abf3 713f
00000040: eba0 6ebd 7cf4 1e3e 5dc0 fabc 0b90 35bd
00000050: b0c8 4dbf 3c8f 763f 0ce5 483e 771f c0bc
00000060: 3fda 41be 40af c33e b05f 49be f26f 14bf
00000070: faad d13e d41b 163f 7f12 78be 857a 16bf
00000080: b24a 0bbf b27a a7be 49bd bc3e feef d23d
00000090: cb82 623f c356 3b3e 3e00 d83d 2664 373e
000000a0: 7308 dcbc b610 b93d e786 1bbd 14fc 333e
000000b0: dd8c 273e 2f84 003d 6d95 113e 067c b53e
000000c0: 3cd8 cd3e 5543 2fbe 4671 9cbe 5fc6 ed3e
000000d0: 4765 0d3d a871 343e c341 463f 4e39 55be
000000e0: 5c05 85be 3c88 87be 139f 783e 2ce9 c93c
000000f0: d45a bbbc a298 3e3d 5ea0 bcbe 61a1 673d

encoder_layer_mhattentions.0.attention_heads.1.K.bias f4 [8]
-0.16347176 0.14458768 -0.069662854 0.21067281 0.103831224 -0.16975652 -0.035025604 -0.14723541
00000000: 2465 27be cb0e 143e 66ab 8ebd 9dba 573e
00000010: 77a5 d43d a7d4 2dbe 0277 0fbd e1c4 16be

encoder_layer_mhattentions.0.attention_heads.1.V.weight f4 [8, 8]
-0.15650178 -0.37482482 -0.12033634 -0.6564123 -0.35450318 -0.44350454 -0.052412137 -0.025551887
-0.4180145 0.1665718 0.21134715 -0.012577286 -0.07059323 0.038175125 -0.11271901 0.1821284
0.17854893 -0.22438991 -0.23075534 -0.26521918 0.22604406 0.41809845 0.41641444 0.29220754
-0.0073637594 -0.021482894 -0.0061230124 0.20856552 0.052701157 0.075355634 0.045840316 0.1408452
0.253541 -0.067409694 0.16165628 -0.70814383 0.1599736 0.24727352 0.43355843 0.46836916
0.20526026 -0.034173068 0.08033369 0.07951685 0.012726231 0.16402474 -0.20958716 -0.09512161
-0.07061806 -0.5238116 0.08114991 -0.12775944 0.14588726 0.41623253 0.33935115 -0.082554676
-0.4120163 0.21979773 -0.05402992 0.07917258 -0.1662628 0.30947676 -0.19212657 -0.26020634
00000000: 0142 20be 0ae9 bfbe e672 f6bd a30a 28bf
00000010: 7181 b5be 0713 e3be 1cae 56bd 3152 d1bc
00000020: ff05 d6be cc91 2a3e 636b 583e f610 4ebc
00000030: 2f93 90bd 855d 1c3d 39d9 e6bd de7f 3a3e
00000040: 88d5 363e 78c6 65be 214b 6cbe cfca 87be
00000050: 1878 673e 0011 d63e 4634 d53e 3a9c 953e
00000060: b14b f1bb e5fc afbc 8da3 c8bb 3392 553e
00000070: 2bdd 573d 0e54 9a3d 0ec3 3b3d b939 103e
00000080: 20d0 813e 180e 8abd 3989 253e ea48 35bf
00000090: 1fd0 233e 4535 7d3e 5ffb dd3e 15ce ef3e
000000a0: bf2f 523e 0ff9 0bbd fd85 a43d bbd9 a23d
000000b0: ae81 503c 1af6 273e 049e 56be 1ecf c2bd
000000c0: 34a0 90bd 8418 06bf ed31 a63d 5fd3 02be
000000d0: 7863 153e 6e1c d53e 6fbf ad3e 6d12 a9bd
000000e0: cdf3 d2be a812 613e 7a4e 5dbd 3c25 a23d
000000f0: cc40 2abe bd73 9e3e d4bc 44be c439 85be

encoder_layer_mhattentions.0.attention_heads.1.V.bias f4 [8]
0.1075733 -0.08317938 -0.34663898 -0.10481357 -0.40749842 -0.02906086 -0.26022562 0.095034234
00000000: 644f dc3d f359 aabd aa7a b1be 7fa8 d6bd
00000010: a2a3 d0be 0a11 eebc 4b3c 85be 4fa1 c23d

encoder_layer_mhattentions.0.attention_heads.2.Q.weight f4 [8, 8]
0.08752672 -0.72227687 0.07518384 -0.29323864 0.07054056 0.03160692 0.15630314 0.04153899
0.010066821 0.2283505 0.38733566 -0.04533475 -0.2567799 0.121745296 0.008608855 0.30134407
-0.07362563 0.9332443 -0.16615117 0.075144514 0.016452145 0.33731982 0.49930814 0.12236458
-0.13861725 0.20621622 0.506622 -0.30361098 0.23004255 0.038920775 -0.31204295 0.29486436
0.20250309 -0.48592132 -0.104331076 0.9048004 -0.18933177 -0.8060729 -1.0236837 -0.5940459
0.0028354332 0.03828358 0.08576995 0.07068325 -0.012941306 0.0385832 0.15010783 0.009369994
-0.1818764 0.7141394 0.39416704 1.0364614 0.09603586 -0.3486289 -1.003307 -0.18435122
0.06093753 0.16870984 -0.22316016 -0.3346989 -0.2524644 0.5377556 0.19621392 0.010478953
00000000: 3541 b33d 23e7 38bf fcf9 993d 6023 96be
00000010: 9277 903d 4276 013d ee0d 203e ca24 2a3d
00000020: 4fef 243c b7d4 693e dc50 c63e eeb0 39bd
00000030: a878 83be 9955 f93d 280c 0d3c c549 9a3e
00000040: 09c9 96bd 19e9 6e3f 8823 2abe 5ee5 993d
00000050: a6c6 863c 2fb5 ac3e 51a5 ff3e 489a fa3d
00000060: aef1 0dbe 582a 533e fbb1 013f e672 9bbe
00000070: 4690 6b3e 646b 1f3d 18c4 9fbe 76f8 963e
00000080: f85c 4f3e aeca f8be 88ab d5bd 00a1 673f
00000090: 30e0 41be cb5a 4ebf 1108 83bf 6413 18bf
000000a0: add2 393b 3ecf 1c3d 28a8 af3d 61c2 903d
000000b0: c607 54bc 6b09 1e3d deb5 193e 9a84 193c
000000c0: cf3d 3abe d7d1 363f 43d0 c93e c4aa 843f
000000d0: 73ae c43d 7d7f b2be 5d6c 80bf 91c6 3cbe
000000e0: a299 793d 46c2 2c3e 1984 64be a75d abbe
000000f0: 0443 81be 5aaa 093f 4dec 483e eaaf 2b3c

encoder_layer_mhattentions.0.attention_heads.2.Q.bias f4 [8]
-0.014702825 0.042065457 0.04894176 -0.07319354 0.09360132 0.104821086 -0.37309992 0.6855254
00000000: 1ee4 70bc d44c 2c3d 2877 483d 7fe6 95bd
00000010: 0db2 bf3d 70ac d63d f406 bfbe 987e 2f3f

encoder_layer_mhattentions.0.attention_heads.2.K.weight f4 [8, 8]
-0.098552704 0.13845277 -0.3428923 0.2953121 -0.23136294 -0.50593716 0.14236054 -0.22029193
0.33362758 -0.53096664 0.21096098 0.0077823186 0.030799353 0.0056683333 0.071129076 0.096233726
-0.4100307 -0.38975623 0.5186054 -0.03817911 0.58792746 0.28970152 -0.077664174 -0.22620514
0.27375406 -0.44921196 -0.23182012 0.39072138 0.3046126 -0.38953573 0.10194959 -0.1898493
0.386562 0.90137994 -0.08911284 0.081197314 -0.52161676 0.5193852 0.46525788 0.44389623
0.10198183 -0.10882366 0.08511575 -0.042457193 -0.020209108 0.11990896 0.027090305 -0.012188659
0.66724366 0.57847756 0.16358376 -0.011992644 0.29505166 0.64340246 0.65124875 0.111886844
-0.23172237 -0.45094278 0.21262099 0.22890626 0.105269484 0.008287527 -0.6851555 -0.11885415
00000000: 00d6 c9bd 90c6 0d3e 948f afbe 2633 973e
00000010: 68ea 6cbe 1985 01bf f6c6 113e 3594 61be
00000020: 3cd1 aa3e 6eed 07bf 2806 583e d202 ff3b
00000030: ed4e fc3c 6dbd b93b 1fac 913d 3016 c53d
00000040: 8bef d1be 218e c7be 53c3 043f b361 1cbd
00000050: 6a82 163f c253 943e 650e 9fbd 52a2 67be
00000060: 7e29 8c3e 1cff e5be 4162 6dbe a20c c83e
00000070: 2ff6 9b3e 3a71 c7be f2ca d03d db67 42be
00000080: 74eb c53e d6c0 663f cb80 b6bd c74a a63d
00000090: ad88 05bf 6ef6 043f 4836 ee3e 5e46 e33e
000000a0: dadb d03d f0de debd 2b51 ae3d 98e7 2dbd
000000b0: 928d a5bc d492 f53d 7dec dd3c f1b2 47bc
000000c0: 7bd0 2a3f 1b17 143f 8082 273e cb7c 44bc
000000d0: 0311 973e 06b6 243f 3db8 263f ee24 e53d
000000e0: a148 6dbe f9e1 e6be 51b9 593e 6766 6a3e
000000f0: 8797 d73d 68c8 073c 5a66 2fbf ce69 f3bd

encoder_layer_mhattentions.0.attention_heads.2.K.bias f4 [8]
0.32307327 0.05903128 -0.3291777 -0.19816932 -0.024317332 -0.28998607 0.29926667 0.0073288097
00000000: dc69 a53e c9ca 713d fb89 a8be e6ec 4abe
00000010: 2435 c7bc 0e79 94be 7b39 993e 8326 f03b

encoder_layer_mhattentions.0.attention_heads.2.V.weight f4 [8, 8]
-0.058544308 0.2760857 0.090441935 0.3056851 -0.122796826 0.19063453 -0.2918768 -0.012070836
-0.06300994 -0.048379187 -0.18500857 -0.42151144 0.012526895 0.16589437 0.14976558 -0.023276087
0.067943275 -0.038463976 -0.09666092 0.060180403 -0.010296853 0.03054868 -0.022737928 0.04795405
-0.01132829 0.007952648 -0.22029187 0.17901033 0.19456717 0.080803975 0.25512445 -0.029436074
0.09598374 -0.02678619 -0.07667856 0.11834869 -0.029483272 -0.018908482 0.1085707 -0.11252669
-0.06321343 -0.1282369 -0.09065766 0.425436 -0.28715023 -0.060407363 0.27364168 -0.16843647
0.019744778 0.31942344 -0.09179875 0.15875873 0.15843761 -0.14772046 -0.10758607 -0.23841918
0.18938927 -0.15355009 0.08188603 -0.05439351 -0.04220457 0.084348634 -0.0627404 0.06745996
00000000: 28cc 6fbd 1b5b 8d3e 9f39 b93d c282 9c3e
00000010: e77c fbbd b335 433e e070 95be c1c4 45bc
00000020: 5b0b 81bd 4129 46bd e372 3dbe 59d0 d7be
00000030: 9b3d 4d3c 37e0 293e 265c 193e 7ead bebc
00000040: d825 8b3d 678c 1dbd 29f6 c5bd ba7f 763d
00000050: 22b4 28bc 3a41 fa3c e444 babc 776b 443d
00000060: 4b9a 39bc d34b 023c 3194 61be 7c4e 373e
00000070: 9e3c 473e 8e7c a53d ac9f 823e ec23 f1bc
00000080: 2093 c43d b66e dbbc a609 9dbd cc60 f23d
00000090: e786 f1bc f6e5 9abc 515a de3d 6574 e6bd
000000a0: 0b76 81bd 8950 03be b9aa b9bd bfd2 d93e
000000b0: 5b05 93be b66d 77bd c31a 8c3e 9c7a 2cbe
000000c0: cdbf a13c 788b a33e fc00 bcbd a691 223e
000000d0: 783d 223e 0844 17be 1656 dcbd 2824 74be
000000e0: 43ef 413e 3c3c 1dbe ddb3 a73d bbcb 5ebd
000000f0: b3de 2cbd fabe ac3d 0a7e 80bd 7328 8a3d

encoder_layer_mhattentions.0.attention_heads.2.V.bias f4 [8]
0.29725185 -0.32539842 0.019374093 0.05526304 0.041997813 0.38190842 0.118567884 -0.05533437
00000000: 6531 983e 9f9a a6be 6bb6 9e3c 7f5b 623d
00000010: e605 2c3d 8089 c33e b8d3 f23d 4ba6 62bd

encoder_layer_mhattentions.0.attention_heads.3.Q.weight f4 [8, 8]
0.30806473 -0.106422685 -0.5929136 -0.43301073 0.6381035 -0.2899819 0.27456707 0.71828395
0.042488314 0.017509744 -0.30186483 0.39500055 0.008819098 0.20713131 0.041729428 0.12449905
-0.037579406 0.1569741 -0.13783376 0.088490956 -0.05668896 0.12772933 0.20922895 -0.45540136
-0.14844973 0.055646732 0.026641557 -0.06381202 -0.12953924 -0.016664313 0.0072365296 0.12539868
0.1026817 -0.27952704 0.2832129 -0.26522958 0.56896263 -0.1962022 -0.3456831 -0.2160951
0.20452572 0.5323183 -0.07806364 0.06256873 -0.38470256 0.22255345 0.118883654 0.11825885
-0.32124284 -0.5711237 -0.18227239 -0.28667188 0.40939903 -0.45700952 -0.11202287 0.10283631
0.35119072 0.017185153 0.37273815 -0.47140732 0.51257217 -0.257245 -0.23045945 -0.08875136
00000000: a9ba 9d3e 23f4 d9bd 30c9 17bf 95b3 ddbe
00000010: c05a 233f 8278 94be 0e94 8c3e 75e1 373f
00000020: 3a08 2e3d 9870 8f3c 078e 9abe 833d ca3e
00000030: fa7d 103c 3b1a 543e 7aec 2a3d 5cf9 fe3d
00000040: ddec 19bd d2bd 203e 4b24 0dbe bf3a b53d
00000050: af32 68bd 7acb 023e 1d40 563e 5e2a e9be
00000060: 3503 18be d4ed 633d 653f da3c e0af 82bd
00000070: efa5 04be 9983 88bc 6920 ed3b 8368 003e
00000080: c84a d23d 2b1e 8fbe 4801 913e 2ccc 87be
00000090: 89a7 113f 3be9 48be 60fd b0be 0948 5dbe
000000a0: 316f 513e 0346 083f d4df 9fbd 0924 803d
000000b0: bcf7 c4be 0de5 633e 4679 f33d b231 f23d
000000c0: f179 a4be 2a35 12bf 9da5 3abe a8c6 92be
000000d0: c09c d13e 27fd e9be 3f6c e5bd d89b d23d
000000e0: 45cf b33e e1c7 8c3c 89d7 be3e 4d5c f1be
000000f0: ee37 033f 9eb5 83be 90fd 6bbe 46c3 b5bd

encoder_layer_mhattentions.0.attention_heads.3.Q.bias f4 [8]
-0.5215793 -0.07082136 0.1245738 -0.1706805 0.26582107 0.5999235 -0.48842376 0.65836424
00000000: 3986 05bf ca0a 91bd 8c20 ff3d dec6 2ebe
00000010: b319 883e 9694 193f ae12 fabe 8f8a 283f

encoder_layer_mhattentions.0.attention_heads.3.K.weight f4 [8, 8]
-0.3301117 0.45885128 0.025839057 -0.11953082 -0.55035204 -0.21156035 -0.83131593 -0.6764402
0.07587431 -0.25246623 0.04704811 0.59619117 0.058807142 0.33989564 -0.12882765 -0.27297106
-0.3553675 0.017875867 -0.16114968 0.20573775 0.24949086 -0.18919931 0.33683127 -0.2372847
-0.11272566 0.04236845 0.031784806 -0.12835868 0.10025209 -0.06429856 -0.060013458 0.1177231
0.43085587 0.37256628 -0.25972077 -0.39523065 -0.20151274 -0.098870166 -0.11171647 0.19075765
-0.40935066 -0.6191948 -0.30570912 0.54244137 0.2157849 0.22448182 0.19806133 0.006085298
0.22244246 0.63318866 0.33275595 -0.59216446 -0.3326047 -0.11043802 -0.24959342 -0.12832999
-0.10865598 0.326313 -0.74032086 -0.4103769 -0.13357608 -0.17592132 0.2178456 0.07300854
00000000: 6704 a9be 8eee ea3e 6eac d33c 93cc f4bd
00000010: dfe3 0cbf 47a3 58be 1fd1 54bf 2f2b 2dbf
00000020: fe63 9b3d 4143 81be 85b5 403d fc9f 183f
00000030: c2df 703d cd06 ae3e 65eb 03be ddc2 8bbe
00000040: bbf2 b5be 6970 923c 6c04 25be ebac 523e
00000050: 887a 7f3e 77bd 41be 2675 ac3e c3fa 72be
00000060: b6dc e6bd 8a8a 2d3d c930 023d 7570 03be
00000070: f850 cd3d f7ae 83bd acd0 75bd cf18 f13d
00000080: 2499 dc3e 02c1 be3e 1ffa 84be ac5b cabe
00000090: 5b59 4ebe 717c cabd 9bcb e4bd f955 433e
000000a0: 6996 d1be 8d83 1ebf e885 9cbe 70dd 0a3f
000000b0: b8f6 5c3e 90de 653e 97d0 4a3e 2e67 c73b
000000c0: f5c7 633e a718 223f fd5e aa3e 1798 17bf
000000d0: 2a4b aabe 542d e2bd 6b95 7fbe f068 03be
000000e0: 0787 debd 7f12 a73e ab85 3dbf ec1c d2be
000000f0: 2bc8 08be b824 34be eb12 5f3e 8085 953d

encoder_layer_mhattentions.0.attention_heads.3.K.bias f4 [8]
-0.23892312 0.064011805 -0.12286729 0.27406862 0.32798848 0.26413676 0.13470513 0.06610839
00000000: 43a8 74be 9f18 833d d9a1 fbbd b952 8c3e
00000010: 1bee a73e ef3c 873e 24f0 093e d663 873d

encoder_layer_mhattentions.0.attention_heads.3.V.weight f4 [8, 8]
-0.13758384 -0.15524946 0.044497274 -0.23171853 0.07397798 0.09272483 -0.042922445 -0.10128489
-0.33227152 0.12159974 -0.04974571 0.2888564 0.35699075 -0.09631672 -0.18071613 -0.12731738
0.015340454 0.19890971 0.19127488 0.3850788 -0.3155429 0.20263618 -0.13742486 0.42725757
-0.29334843 -0.011229191 0.00820843 0.039984167 0.044688575 -0.04316651 -0.01171572 0.13482873
-0.17352073 -0.2424844 -0.10708571 0.14796449 -0.30963823 0.20068932 0.29889658 0.00085670257
-0.06492562 -0.06267422 -0.2610814 0.2287606 0.0925697 0.004616376 0.020259554 -0.34228587
0.29751685 0.4144603 -0.1862976 0.17975867 -0.3098541 0.13510124 -0.3008082 0.20212781
0.18753347 0.14870884 0.07194965 0.3558307 0.2646296 0.012709111 -0.4181392 0.40188283
00000000: c7e2 0cbe b7f9 1ebe c642 363d 9f47 6dbe
00000010: c481 973d 84e6 bd3d 72cf 2fbd 746e cfbd
00000020: 7e1f aabe 4909 f93d 28c2 4bbd fce4 933e
00000030: 7ec7 b63e b341 c5bd a60d 39be 7d5f 02be
00000040: 8756 7b3c fdae 4b3e 90dd 433e 0c29 c53e
00000050: d78e a1be dc7f 4f3e 1ab9 0cbe 81c1 da3e
00000060: c431 96be a4fa 37bc a77c 063c 70c6 233d
00000070: 5e0b 373d 5ecf 30bd 4bf3 3fbc 8b10 0a3e
00000080: 6baf 31be d54d 78be c14f dbbd 0184 173e
00000090: e788 9ebe 8081 4d3e f908 993e 5694 603a
000000a0: b9f7 84bd 575b 80bd 76ac 85be 3840 6a3e
000000b0: 2f95 bd3d f844 973b 5df7 a53c 1840 afbe
000000c0: 2154 983e 2434 d43e ccc4 3ebe a812 383e
000000d0: 32a5 9ebe fb57 0a3e 8803 9abe 98fa 4e3e
000000e0: c608 403e 2147 183e 575a 933d 712f b63e
000000f0: 887d 873e e039 503c 5716 d6be 96c3 cd3e

encoder_layer_mhattentions.0.attention_heads.3.V.bias f4 [8]
0.060242146 0.11176995 -0.0076465723 -0.19090189 -0.40023142 0.030501917 0.2675695 0.110093
00000000: 78c0 763d a5e7 e43d 1990 fabb c97b 43be
00000010: 22eb ccbe 28df f93c dffe 883e 7078 e13d

encoder_layer_mhattentions.0.output_layer.weight f4 [32, 32]
-0.102055214 -0.41583398 -0.10167231 0.58334535 0.23288307 0.34418672 0.6534328 0.26393902
-0.03576205 -0.25767443 -0.9470989 0.3455492 -1.1327372 0.18932988 -0.66869545 -0.1672845
0.23199429 -0.17311925 0.051192436 0.31332397 -0.086428754 -0.3186847 0.3948929 -0.2528781
-0.5297701 0.15944909 -0.2927163 -0.11794589 -0.39075235 0.5189346 0.3369377 0.2211509
-0.30535987 0.5264743 0.3018363 -0.28355446 0.41430193 -0.6224733 0.16720322 0.03437143
-0.15324482 -0.28910515 0.50146735 -0.51762646 0.7730536 0.18290222 0.25298306 -0.27040237
0.23918357 -0.03578369 0.0100984685 0.4371878 -0.08422438 -0.07841642 0.2330665 -0.11904762
0.085471064 -0.07385953 -0.23203248 -0.044595346 0.21549872 0.33851755 0.012764368 -0.3947438
-0.3628134 -0.31928107 0.2863743 0.019173082 -0.22042507 0.15342428 0.24210638 -0.04852989
0.34333017 -0.12933724 -0.67294157 0.029903827 -0.8358965 -0.30063885 0.048539784 0.015905045
-0.33021963 0.38406125 -0.03491918 -0.15776065 -0.06864682 -0.13570836 0.12201288 0.13456516
-0.022889063 0.04597372 -0.09871299 -0.083929785 -0.21841964 0.048510734 0.18611673 0.41391295
0.33230942 -0.113939516 -0.4394142 -0.38499507 -0.26503345 -0.14225219 -0.85204506 -0.23843625
0.314129 0.50667995 -0.20397991 0.29961985 0.12123505 -0.23852757 -0.18710802 0.28300452
-0.35193583 0.16619968 -0.03747317 -0.08960418 0.037394453 -0.3973239 0.4255867 -0.26991293
0.121733114 0.30304393 -0.12809274 -0.25756726 -0.16266762 0.050912574 0.046929378 -0.61374426
0.19270001 -0.17308493 -0.04840998 0.09590984 -0.12797575 0.007605068 0.0143359415 -0.13266766
-0.22663216 -0.08956318 -0.11196243 -0.055925366 0.07569874 -0.104239196 0.18437406 0.014833977
-0.02647247 -0.14085002 0.061799876 -0.06415878 0.043872494 -0.02322143 0.16336754 0.022637457
0.113619186 0.038217247 -0.085861236 0.1334127 -0.021734985 -0.001370919 -0.10777814 0.036178835
0.3845479 0.037899982 -0.17332381 -0.06408553 -0.4475335 0.10192272 -0.2950035 -0.2832984
0.36989647 0.37454027 -0.09637404 0.086549066 0.064363755 -0.4188525 0.03764319 0.15152436
-0.15521152 -0.055349223 0.17339766 -0.12626646 0.113566235 -0.26116887 0.40697572 0.12592873
-0.03518009 0.6723211 0.2292836 -0.15360637 0.09112496 0.2916267 -0.14407267 0.33677575
-0.20960681 0.13345139 0.16131309 0.21417509 -0.4463128 0.1338425 0.042966682 -0.08453606
0.18544678 0.024781773 -0.037986126 0.0388495 -0.14037281 -0.14403631 -0.041031804 -0.31421375
-0.26854372 0.39243454 0.005971078 0.122452006 -0.2555442 -0.46069974 0.13483174 0.07036007
-0.28419995 0.21030046 0.18896665 -0.11587373 -0.10687875 -0.045352854 -0.25293213 0.41504195
-0.30584753 0.20845656 -0.31255305 -0.02426237 0.2333679 -0.36666393 -0.2350326 -0.15791225
-0.44262832 0.29008308 0.095136374 0.3447123 0.26272467 -0.049366776 -0.07941522 0.02971182
-0.10301659 0.2704183 0.17768268 0.06531907 0.10417192 0.26517916 -0.04070516 -0.02227883
0.08902422 0.14563806 -0.21213774 -0.13695773 0.07587938 0.09783122 -0.29769665 -0.23315552
00000000: 5302 d1bd 31e8 d4be 9239 d0bd 1f56 153f
00000010: e678 6e3e 3e39 b03e 5f47 273f 0423 873e
00000020: 3a7b 12bd e7ed 83be 1375 72bf d3eb b03e
00000030: 88fd 90bf b1df 413e a02f 2bbf a14c 2bbe
00000040: e98f 6d3e 2c46 31be 29af 513d 006c a03e
00000050: 8f01 b1bd a42a a3be 672f ca3e 3d79 81be
00000060: 039f 07bf 9f46 233e e9de 95be 9d8d f1bd
00000070: b110 c8be e6d8 043f 1983 ac3e 6275 623e
00000080: 2158 9cbe 05c7 063f 4a8a 9a3e 0d2e 91be
00000090: 621f d43e 695a 1fbf 5237 2b3e 0ec9 0c3d
000000a0: 36ec 1cbe 9705 94be 2a60 003f 2b83 04bf
000000b0: d7e6 453f b84a 3b3e ff86 813e 2e72 8abe
000000c0: 8aec 743e eb91 12bd 0c74 253c 14d7 df3e
000000d0: d57d acbd ca98 a0bd fca8 6e3e 3dcf f3bd
000000e0: 740b af3d aa43 97bd ec99 6dbe 9ca9 36bd
000000f0: b2ab 5c3e 2c52 ad3e a421 513c dc1b cabe
00000100: aec2 b9be cf78 a3be a79f 923e de10 9d3c
00000110: 1cb7 61be 411b 1d3e bcea 773e 47c7 46bd
00000120: f9c8 af3e fb70 04be e645 2cbf dff8 f43c
00000130: 50fd 55bf 56ed 99be a7d1 463d 4c4b 823c
00000140: 8c12 a9be ada3 c43e 6a07 0fbd 028c 21be
00000150: b496 8cbd 22f7 0abe e4e1 f93d 73cb 093e
00000160: d881 bbbc f04e 3c3d 092a cabd 61e3 abbd
00000170: 66a9 5fbe 31b3 463d 6295 3e3e 66ec d33e
00000180: 7624 aa3e 1f59 e9bd e6fa e0be 131e c5be
00000190: 77b2 87be 8faa 11be a01f 5abf a228 74be
000001a0: 84d5 a03e c7b5 013f 1ce0 50be c667 993e
000001b0: 154a f83d 9240 74be 3f99 3fbe f8e5 903e
000001c0: ef30 b4be 4030 2a3e 777d 19bd 6582 b7bd
000001d0: ed2a 193d 0a6e cbbe 80e6 d93e 0732 8abe
000001e0: 364f f93d 9328 9b3e be2a 03be dbdf 83be
000001f0: 5792 26be b489 503d 0539 403d 581e 1dbf
00000200: 2753 453e 2d3d 31be 8b49 46bd 616c c43d
00000210: 130c 03be ef33 f93b 4ce1 6a3c 08da 07be
00000220: 4312 68be e76c b7bd 8f4c e5bd ff11 65bd
00000230: f107 9b3d 5c7b d5bd 8ecc 3c3e 360a 733c
00000240: cbdc d8bc fd3a 10be de21 7d3d ae65 83bd
00000250: a5b3 333d de3a bebc d249 273e 3072 b93c
00000260: 2db1 e83d b089 1c3d 04d8 afbd 579d 083e
00000270: 910d b2bc 69b0 b3ba c9ba dcbd 4230 143d
00000280: 76e3 c43e 033d 1b3d cc7b 31be 463f 83bd
00000290: 1c23 e5be dcbc d03d b30a 97be 7d0c 91be
000002a0: 1263 bd3e bec3 bf3e c15f c5bd a340 b13d
000002b0: 25d1 833d d673 d6be bf2f 1a3d 3429 1b3e
000002c0: c5ef 1ebe deb5 62bd 288f 313e ff4b 01be
000002d0: 6a95 e83d edb7 85be 1f5f d03e 76f3 003e
000002e0: 0019 10bd 3c1d 2c3f 52c9 6a3e fd4a 1dbe
000002f0: b99f ba3d 1850 953e c987 13be df6d ac3e
00000300: 2ba3 56be 7ba7 083e 422f 253e b750 5b3e
00000310: 1c83 e4be 020e 093e d5fd 2f3d 3e21 adbd
00000320: c3e5 3d3e 2503 cb3c 5797 1bbd a720 1f3d
00000330: e4bd 0fbe 417e 13be f710 28bd a0e0 a0be
00000340: 907e 89be 2eed c83e 08a9 c33b 1ec8 fa3d
00000350: b0d6 82be d6e0 ebbe 5511 0a3e f118 903d
00000360: a882 91be 0159 573e 7980 413e 354f edbd
00000370: 3fe3 dabd eac3 39bd 5280 81be 6180 d43e
00000380: 0c98 9cbe a375 553e f406 a0be e1c1 c6bc
00000390: fff7 6e3e 60bb bbbe 63ac 70be c0b3 21be
000003a0: 2ea0 e2be c585 943e dcd6 c23d 217e b03e
000003b0: d983 863e d134 4abd 72a4 a2bd 3466 f33c
000003c0: 5dfa d2bd 4474 8a3e 73f2 353e 01c6 853d
000003d0: 1658 d53d 90c5 873e 74ba 26bd 1882 b6bc
000003e0: 5552 b63d 2522 153e a33a 59be a63e 0cbe
000003f0: a666 9b3d bc5b c83d b26b 98be 52c0 6ebe

encoder_layer_mhattentions.0.output_layer.bias f4 [32]
-0.056848597 -0.29708177 -0.3694581 -0.47912812 0.041244842 0.33462816 0.14009832 -0.2575664
-0.1981914 0.05153698 0.28585172 -0.2302461 -0.12517436 0.44727737 0.09566419 -0.13100049
-0.2961686 0.37104216 0.21199906 -0.6546465 0.45003676 -0.22898807 0.7665656 0.19115688
0.10934539 0.5479463 0.10523211 -0.10447835 -0.19616543 -0.12391422 -0.22786438 -0.055155847
00000000: 13da 68bd 1a1b 98be 9d29 bdbe 4850 f5be
00000010: 5af0 283d 6254 ab3e ef75 0f3e bedf 83be
00000020: b0f2 4abe 7118 533d 285b 923e a2c5 6bbe
00000030: b52d 00be 8a01 e53e 96eb c33d fe24 06be
00000040: 69a3 97be 3df9 bd3e 4816 593e ea96 27bf
00000050: 386b e63e d97b 6abe a53d 443f a1be 433e
00000060: 7af0 df3d 3546 0c3f ef83 d73d bff8 d5bd
00000070: 97df 48be bdc6 fdbd 4855 69be 19eb 61bd

encoder_layer_mhattentions.1.attention_heads.0.Q.weight f4 [8, 8]
0.827003 -0.42888373 0.04747824 -0.5761749 0.11593359 0.64345396 0.16390952 0.3673519
-0.00871083 0.38210014 -0.55830073 0.39074185 0.23337688 -0.4109904 0.3608908 -0.13626057
-0.12197139 -0.53525925 -0.60245603 0.18696104 -0.19006555 -0.17111315 -0.48833665 0.575496
0.6466646 -0.4771902 -0.03841147 0.8080391 -0.4371999 0.29462996 -0.17137648 -0.19072904
0.08156886 0.66334265 -0.09234969 -0.07377534 -0.13679437 0.20476504 -0.28974167 -0.2169619
-0.66898966 -0.19004509 -0.7387039 0.43608442 -0.1711564 -0.7675823 0.3194936 -0.11592884
0.67716265 0.27684787 -0.104936376 0.5579283 0.1711984 -0.15050039 0.25245768 0.5070259
-0.4283313 0.12691997 0.21244797 0.21664365 -0.2568997 -0.062427726 0.72833663 -0.28326496
00000000: 78b6 533f a696 dbbe 8b78 423d 3380 13bf
00000010: 976e ed3d 66b9 243f e6d7 273e 8c15 bc3e
00000020: deb7 0ebc a1a2 c33e ccec 0ebf 510f c83e
00000030: 59fa 6e3e 556d d2be aec6 b83e e487 0bbe
00000040: 23cc f9bd c006 09bf 8f3a 1abf b772 3f3e
00000050: 8ba0 42be 4938 2fbe 4307 fabe b553 133f
00000060: d08b 253f 4652 f4be 5855 1dbd a7db 4e3f
00000070: aad8 dfbe bdd9 963e 517d 2fbe 794e 43be
00000080: 930d a73d d3d0 293f d621 bdbd 8717 97bd
00000090: d313 0cbe edad 513e 0559 94be 432b 5ebe
000000a0: e842 2bbf 2e9b 42be b31b 3dbf 7546 df3e
000000b0: a043 2fbe 4680 44bf aa94 a33e 1a6c edbd
000000c0: 885a 2d3f 01bf 8d3e e2e8 d6bd 64d4 0e3f
000000d0: a24e 2f3e c61c 1abe 2242 813e 73cc 013f
000000e0: 3d4e dbbe 4ff7 013e f68b 593e d5d7 5d3e
000000f0: 5c88 83be 37b4 7fbd 4574 3a3f 1b08 91be

encoder_layer_mhattentions.1.attention_heads.0.Q.bias f4 [8]
-0.16887431 -0.8482324 -0.3988954 -0.0055122264 -1.293345 0.3396944 0.21084206 0.1472491
00000000: 63ed 2cbe c225 59bf 053c ccbe e89f b4bb
00000010: 548c a5bf 6dec ad3e fbe6 573e 78c8 163e

encoder_layer_mhattentions.1.attention_heads.0.K.weight f4 [8, 8]
0.4976401 -0.15772071 0.08775991 -0.09924166 0.31360325 0.10666378 -0.8574142 -0.3697965
-0.09331575 0.5361688 0.92838514 -0.66329193 0.27235302 -0.21336906 -0.24491534 -0.25416446
-0.11661471 0.03508031 0.72513956 0.60815036 -0.2908111 0.118052274 0.14274772 -0.3639816
0.5499256 0.67124385 -0.095380984 -0.34450427 -0.027591249 -0.12155935 0.2181135 -0.84268165
0.09682054 -0.27942663 0.2720261 -0.035664733 0.36203417 -1.0755538 0.47661722 -0.47534397
-0.25324783 0.27036646 0.21158893 -0.20462415 -0.16053809 0.62641895 0.21290167 0.37461904
-0.5317633 0.03151897 -0.24826507 -0.5151469 0.03152376 0.34485272 -0.20656395 -0.6864304
0.12362249 -0.014143892 0.091683984 -0.38413438 0.32383642 0.4909431 0.34639385 0.38009468
00000000: afca fe3e 8a81 21be 78bb b33d 363f cbbd
00000010: 9b90 a03e 8a72 da3d 7f7f 5bbf f855 bdbe
00000020: 541c bfbd 5c42 093f a6aa 6d3f 80cd 29bf
00000030: db71 8b3e 6b7d 5abe 16cb 7abe d821 82be
00000040: b1d3 eebd 5fb0 0f3d bfa2 393f beaf 1b3f
00000050: 31e5 94be 64c5 f13d 752c 123e cc5b babe
00000060: edc7 0c3f a3d6 2b3f 1b57 c3bd dd62 b0be
00000070: 0b07 e2bc 1cf4 f8bd 2559 5f3e fcb9 57bf
00000080: d949 c63d 0211 8fbe 0147 8b3e 2f15 12bd
00000090: 8b5c b93e bfab 89bf 2c07 f43e 4960 f3be
000000a0: b3a9 81be 796d 8a3e c5aa 583e fe88 51be
000000b0: 1964 24be fe5c 203f e502 5a3e 11ce bf3e
000000c0: a421 08bf 091a 013d 3339 7ebe abe0 03bf
000000d0: 0f1f 013d 8990 b03e 8085 53be e7b9 2fbf
000000e0: ca2d fd3d c8bb 67bc d0c4 bb3d 43ad c4be
000000f0: e3cd a53e e55c fb3e 895a b13e c59b c23e

encoder_layer_mhattentions.1.attention_heads.0.K.bias f4 [8]
0.18558142 -0.35696164 0.3254771 0.074983194 -0.27453676 -0.20792031 0.33033094 -0.106434785
00000000: 0e09 3e3e adc3 b6be efa4 a63e ca90 993d
00000010: 1590 8cbe 10e9 54be 2321 a93e 7bfa d9bd

encoder_layer_mhattentions.1.attention_heads.0.V.weight f4 [8, 8]
0.14802556 0.03411486 -0.0034312946 -0.29002792 -0.05528676 0.19714366 -0.23172024 -0.10063034
-0.16185516 0.05859485 -0.16829176 -0.11163959 -0.022126662 -0.034506086 -0.031706378 -0.2212135
-0.24322136 0.13658483 0.16415106 0.11644027 0.20272633 -0.011977562 -0.03750783 -0.08063718
0.013869435 -0.026284425 0.022444561 -0.32547724 0.008670889 -0.06195026 -0.050544184 -0.111894645
-0.4714075 0.025819294 0.17522855 -0.049013462 -0.041293766 -0.0940111 -0.016399244 0.22365601
0.08906623 0.07776879 0.085771956 -0.11760028 0.029118316 -0.08601794 -0.05447144 0.070808254
0.082502276 0.1574708 -0.10666859 -0.03926138 0.06891958 0.026488503 0.05502859 0.098375954
0.105429724 -0.15489817 0.028092338 -0.04996866 0.13303982 -0.10082804 -0.112759076 -0.09745773
00000000: 0394 173e 06bc 0b3d 92df 60bb 8a7e 94be
00000010: 5f74 62bd 07e0 493e 1248 6dbe 4817 cebd
00000020: 5cbd 25be 2701 703d ad54 2cbe 4ca3 e4bd
00000030: f942 b5bc 4156 0dbd 8cde 01bd cb85 62be
00000040: 050f 79be e5dc 0b3e 3717 283e 3c78 ee3d
00000050: 7e97 4f3e 893d 44bc cfa1 19bd 1b25 a5bd
00000060: a03c 633c 6f52 d7bc a8dd b73c f4a4 a6be
00000070: 5810 0e3c 8ebf 7dbd 6b07 4fbd 0529 e5bd
00000080: 535c f1be fc82 d33c 1d6f 333e 57c2 48bd
00000090: a723 29bd e488 c0bd b557 86bc 1506 653e
000000a0: 5b68 b63d 3e45 9f3d 35a9 af3d 6ad8 f0bd
000000b0: 8989 ee3c 2c2a b0bd 721d 5fbd eb03 913d
000000c0: f4f6 a83d 0740 213e 1075 dabd 8ad0 20bd
000000d0: b525 8d3d 6bfe d83c a965 613d 5579 c93d
000000e0: 8aeb d73d a09d 1ebe e721 e63c f0ab 4cbd
000000f0: 973b 083e ee7e cebd 3bee e6bd eb97 c7bd

encoder_layer_mhattentions.1.attention_heads.0.V.bias f4 [8]
-0.13492969 -0.024146304 0.15141453 -0.011501153 0.11319645 -0.017157776 -0.046062212 0.059027445
00000000: 022b 0abe 78ce c5bc 690c 1b3e 556f 3cbc
00000010: 8ad3 e73d 778e 8cbc bbab 3cbd c3c6 713d

encoder_layer_mhattentions.1.attention_heads.1.Q.weight f4 [8, 8]
-0.2806507 0.03393659 -0.19148202 0.3690399 -0.12531309 0.120058715 -0.5541905 -0.13090701
0.28470942 0.0048218933 0.398587 -0.33996007 -0.6266805 0.0065013384 0.37464958 0.21422403
-0.2764103 -0.16478747 0.31345597 0.390037 -0.5172716 0.16091435 0.09402659 0.5812845
0.30330846 -0.12906599 0.2611336 -0.4588981 0.17042045 0.049356192 0.14322165 0.31524044
-0.26164457 -0.020239161 -0.53167164 0.3811959 0.3863652 0.38412145 -0.5060976 0.25388807
0.16073805 -0.080604166 -0.29947215 0.22175989 -0.63870025 0.0015658303 -1.0335679 0.41664702
-0.30023092 0.07790033 -0.31537244 0.017042115 0.28685218 0.08312964 -0.9280004 0.5876636
-0.47849277 -0.056129854 0.0823718 0.16676672 0.33771017 -0.46125832 0.020058922 -0.9159464
00000000: 73b1 8fbe 1801 0b3d dd13 44be ccf2 bc3e
00000010: 1352 00be 58e1 f53d 6edf 0dbf 7d0c 06be
00000020: 6fc5 913e f900 9e3b 9813 cc3e 3f0f aebe
00000030: 226e 20bf 2e09 d53b 12d2 bf3e 8b5d 5b3e
00000040: a785 8dbe 0cbe 28be 4d7d a03e eeb2 c73e
00000050: e96b 04bf bbc6 243e 0391 c03d 10cf 143f
00000060: 3f4b 9b3e e029 04be 4eb3 853e b1f4 eabe
00000070: b382 2e3e b829 4a3d b2a8 123e 3267 a13e
00000080: 47f6 85be 99cc a5bc a21b 08bf 1c2c c33e
00000090: a9d1 c53e 91ab c43e 9d8f 01bf 9efd 813e
000000a0: 8498 243e cc13 a5bd 6a54 99be 0615 633e
000000b0: dc81 23bf 8c3c cd3a f44b 84bf c252 d53e
000000c0: deb7 99be 358a 9f3d 7f78 a1be e89b 8b3c
000000d0: 4ade 923e df3f aa3d 6f91 6dbf 1f71 163f
000000e0: 01fd f4be 6be8 65bd 8cb2 a83d e5c4 2a3e
000000f0: 59e8 ac3e 0d2a ecbe 9c52 a43c 777b 6abf

encoder_layer_mhattentions.1.attention_heads.1.Q.bias f4 [8]
-0.029152343 0.11147306 -0.33860543 -0.02518252 -0.2896391 -0.5290875 0.21087481 -0.08984415
00000000: e5d0 eebc fd4b e43d b15d adbe 924b cebc
00000010: 934b 94be 4772 07bf 91ef 573e 3600 b8bd

encoder_layer_mhattentions.1.attention_heads.1.K.weight f4 [8, 8]
0.15291572 -0.08781662 -0.32404703 0.32981881 -0.4112263 0.07053816 0.18547167 -0.02125759
-0.098033816 -0.14017509 0.37376025 -0.01347083 0.19680542 -0.057779174 0.088392556 -0.36679518
0.19808352 -0.3550177 0.18977255 -0.011167097 -0.008191835 0.28603622 0.1577074 -0.12994786
-0.052282386 0.38917154 0.42210248 -0.4826144 0.34158885 0.02225958 0.048734564 0.01759227
0.13479765 -0.009726724 -0.110525504 0.011298423 -0.7458671 0.5745007 -0.074766554 0.43596494
-0.030340394 -0.16042802 -0.30497605 0.61134213 -0.3098912 0.8008228 0.95279986 0.10847111
0.2633053 0.08392858 -0.23900732 0.13964619 -1.0299525 0.56885797 0.33600113 -0.40837345
0.17150508 -0.08540645 -0.72857726 0.057017192 0.40549934 -0.27692565 -0.3119809 0.3285772
00000000: f095 1c3e 33d9 b3bd 7ee9 a5be 03de a83e
00000010: 418c d2be 5076 903d 49ec 3d3e 6624 aebc
00000020: f4c5 c8bd 0f8a 0fbe 815d bf3e c2b4 5cbc
00000030: 5c87 493e dba9 6cbd 2807 b53d 94cc bbbe
00000040: 68d6 4a3e e1c4 b5be bc53 423e 33f6 36bc
00000050: 0c37 06bc 5773 923e 0c7e 213e 0d11 05be
00000060: 0e26 56bd 7e41 c73e d11d d83e 3c19 f7be
00000070: bce4 ae3e b959 b63c e59d 473d aa1d 903c
00000080: 6508 0a3e d65c 1fbc 325b e2bd 051d 393c
00000090: 25f1 3ebf 7a12 133f 351f 99bd cc36 df3e
000000a0: 6b8c f8bc 3e47 24be d225 9cbe eb80 1c3f
000000b0: 0faa 9ebe b902 4d3f b1ea 733f 1a26 de3d
000000c0: f4cf 863e bfe2 ab3d 56be 74be 69ff 0e3e
000000d0: 7cd5 83bf ada0 113f 5708 ac3e 5316 d1be
000000e0: 079f 2f3e 94e9 aebd 0a84 3abf dc8a 693d
000000f0: 9c9d cf3e 33c9 8dbe f6bb 9fbe 453b a83e

encoder_layer_mhattentions.1.attention_heads.1.K.bias f4 [8]
-0.06008836 0.023198957 0.16109644 0.010747259 -0.119502194 0.042217836 -0.3624164 0.017171664
00000000: 361f 76bd bd0b be3c 77f6 243e 4515 303c
00000010: 91bd f4bd 9cec 2c3d a48e b9be 97ab 8c3c

encoder_layer_mhattentions.1.attention_heads.1.V.weight f4 [8, 8]
0.18137677 -0.03358959 0.20305012 -0.1806008 -0.29446024 0.10169534 0.37435466 0.053360183
0.0800914 0.03118849 0.23336734 0.36670977 -0.41257098 -0.1264358 -0.0033133528 -0.079694726
0.08925309 -0.24009168 -0.105793096 -0.28930575 -0.20846492 0.07947295 0.09484713 -0.37947714
0.106114455 0.08118074 -0.2073637 0.08406499 0.18945254 0.12502566 0.13036059 -0.10403164
0.4184669 -0.09733497 -0.1132509 -0.12513664 -0.19142687 -0.065188855 0.2967777 0.0781623
-0.27172765 0.041980587 -0.17769338 0.13734643 0.09907785 -0.15146607 0.00990822 -0.2626784
0.033780556 0.052071735 -0.04251856 -0.053608097 0.1360101 0.1297698 0.08982435 0.022054747
-0.43610033 0.47141516 0.037330203 -0.30312696 -0.47118554 0.12859212 -0.14273478 -0.0011547225
00000000: d5ba 393e 3d95 09bd 5fec 4f3e 6bef 38be
00000010: 7ec3 96be a545 d03d 6aab bf3e 3590 5a3d
00000020: f606 a43d 017f ff3c d9f7 6e3e 62c1 bb3e
00000030: 813c d3be 6378 01be d624 59bb fd36 a3bd
00000040: 53ca b63d 98da 75be 0daa d8bd e21f 94be
00000050: d477 55be b7c2 a23d 363f c23d d44a c2be
00000060: 8952 d93d 1642 a63d 2657 54be 442a ac3d
00000070: d9ff 413e ba06 003e 3f7d 053e 8a0e d5bd
00000080: 4b41 d63e 8f57 c7bd 16f0 e7bd d223 00be
00000090: 6805 44be bc81 85bd 3ff3 973e 8e13 a03d
000000a0: e31f 8bbe d6f3 2b3d 41f5 35be 8ba4 0c3e
000000b0: 54e9 ca3d ec19 1bbe 1656 223c c97d 86be
000000c0: 7b5d 0a3d 2c49 553d f127 2ebd 2a94 5bbd
000000d0: 3b46 0b3e 60e2 043e d4f5 b73d 28ac b43c
000000e0: 8b48 dfbe 545d f13e 8ee7 183d 7533 9bbe
000000f0: 3b3f f1be a7ad 033e 1129 12be 0f5a 97ba
