models/model_chkpt_40.pt (torch, 318877 bytes, 387 tensors)

tokenizer.token_embedding.weight f4 [17, 32]
00000000: 71f6 16bf 8292 d6bf 5c08 9fbd 1816 bd3e
00000010: e206 bc3f 71dd 883f ec26 f63e 166c 543f
00000020: e3f8 aebf 951e c3bf d29d 74bd 4843 963e
00000030: c259 8ebf 5a9e 31bf 207a c3be 6366 1dbe
00000040: bac2 f8be 1896 db3e a09e 34bf f6c5 f1be
00000050: 4daa 8ebf 339e 0bc0 beb4 693f 73cf 0a40
00000060: d9a5 2ebe 0c3c 0e3f 677d 403f f76e 7d3f
00000070: b8ef 3bbf acd3 36c0 fe07 383f 707c d1be
00000080: 81e3 64bf 0546 c7bf 4ebc ad3f f771 90be
00000090: 388f 1a40 a1ad 9d3e f908 b9be f483 013f
000000a0: 9a34 7dbf 3eef 89bf 1263 8cbe c50e a23e
000000b0: 6612 41bf d0e8 fbbe 968e 0ebf 8c6b aabe
000000c0: 3238 c93f 3939 a5be fbaa 9b3d 2bce 9e3f
000000d0: 8390 503f 0c17 ee3e 4ce7 973f 5bd7 2e3e
000000e0: 0f93 8fbf 3e33 123e b3ee c73f 220e ae3e
000000f0: 463f 55bf 0e92 b7bf 2b85 14bf 1901 443f
00000100: eb11 bc3e 8343 083f 3496 00be af76 27bf
00000110: 215c 3840 fb4a b13c 9b76 bb3f d7a4 6c3e
00000120: 3501 91bf e786 0abf d39c 24bf 2445 663f
00000130: 11c3 abbe ad38 cdbe 1137 dcbe 557d 4abe
00000140: becf 4e3f 55f3 0c40 5b03 b0be 0e5a 94bf
00000150: 2914 4ebf 2dbb 3fbe 8811 773d e10b fcbf
00000160: ef2d b4bf bd95 a93f e782 e33e 703b 073f
00000170: 34e2 083f 3af7 c1bd f65b 4cbe ab23 00be
00000180: 1092 33bf 1fd0 743f 28e3 4a3e 1f05 0bba
00000190: f878 3c3e 5d94 0bbf ef52 ff3f 60c7 3c3f
000001a0: c534 95bf 486b 643f 7589 9fbf c0be 4a3f
000001b0: 9700 003e f79d cbbe a3df 61be b50c b9be
000001c0: 0a3b ab3d 6bf1 333e be6c be3f 6fcd 3cbf
000001d0: 3a43 27bf 1435 c93f 92b9 143f 6447 eebf
000001e0: bace bbbf e394 013f cb63 093e 1cf4 47bd
000001f0: d420 e53e 6164 863f 1cb6 47bf 9f0a d93e
00000200: 81e4 00bf 8442 cdbe f4f0 323e 2413 d43e
00000210: ef67 eabe cd5c ddbf 474a fc3f 2569 3dbf
00000220: 2ae0 943e 2d95 23be e6b1 1d3e cef5 f73f
00000230: 6ef4 a83e 7e76 bf3e 773e b6bf 1470 813e
00000240: b445 3f3f 3d4c 1b3e 858b 9a3f 5c01 89bf
00000250: 2557 54bf fbd2 f33e de0b 4a3e 66b6 26bf
00000260: c16e b5bf 2359 26bd e226 8ebf 9573 81be
00000270: dada 073e 1873 f73f 17c6 c3bf a8c2 36bf
00000280: aecb 9d3f d6a7 5b3f cf73 d13f e1e7 ff3e
00000290: 2711 27c0 e333 a6bb bbd9 b83e 7b1e 4b3f
000002a0: 42a2 32be 2d1e 653f f596 8d3e faeb 5e3f
000002b0: 1043 90bd 712c 92be c12b 08bf 1c80 7fbe
000002c0: ee85 0b40 f6e6 ab3e b2b4 023f 51db 40bf
000002d0: 69f5 3f3f ba38 d8be 0fb6 063f 82d9 353e
000002e0: 2a6d 653e 6aad b1be 995f 8dbd 20db 4abe
000002f0: b5b8 31be 13f2 8e3f 1089 9cbf 6445 74be
00000300: 7304 7f3e d851 60bf e7d2 313e cc1a a0be
00000310: 5bb5 5cbf eee4 c0bf 2d51 043e 6846 27b8
00000320: 0b07 f7bd 0584 7c3f 1c45 323f ea77 ae3f
00000330: 944c 3bbe 5cac adbe d9a2 1dbf 26f8 5d3e
00000340: 6062 703f 0608 cb3e cf6a b8bf 2cdd 3fbe
00000350: 0701 3d3f deb6 adbe e4c7 a1be b779 fd3f
00000360: 8f14 c6be 571b f53d 27d9 52bf 453b 1dbf
00000370: 3f4a 70bb 3121 fd3f 4c59 11bf b0c8 46be
00000380: 428a 47bf 939e ba3d 2524 1340 ef72 913f
00000390: 8176 773f e009 ffbf 06e7 0cc0 6210 54be
000003a0: c8bd a7bd cfac a03f 3396 703f fa19 623f
000003b0: 629f 81be d723 15bf 1cdf e8be 9a2d 31be
000003c0: d681 ac3e 3726 b63b 815c d1bf dabf 71bc
000003d0: f66c e93f 0db9 373f b467 b5be 6c48 8f3f
000003e0: ac41 923f 9007 08bf 4548 02bf 39ab c83e
000003f0: d905 29bf 5101 f13e 0dae 75bf 98b1 00bf
-0.5896979 -1.6763461 -0.07765266 0.3693092 1.46896 1.0692579 0.4807657 0.82977426
-1.3669704 -1.5243708 -0.05972082 0.29348207 -1.1121142 -0.6938225 -0.3817911 -0.15371089
-0.48586065 0.4288795 -0.7055454 -0.47221345 -1.1145722 -2.1815307 0.91291416 2.1689117
-0.17055453 0.55560374 0.7519135 0.98997444 -0.73412657 -2.8566694 0.71887195 -0.4091525
-0.89409643 -1.5568243 1.3573091 -0.28211948 2.4149914 0.3079653 -0.36139658 0.5059197
-0.9890839 -1.0776136 -0.27419335 0.31651893 -0.754187 -0.4920106 -0.5568632 -0.33285177
1.5720274 -0.3227022 0.07600971 1.2406667 0.8147051 0.46501958 1.1867461 0.17074339
-1.1216754 0.1427736 1.561972 0.33995157 -0.8329967 -1.4341447 -0.580157 0.76564175
0.3673242 0.53228015 -0.12557298 -0.6541547 2.880623 0.021642199 1.464557 0.23109756
-1.1328493 -0.54112095 -0.64301795 0.8994925 -0.3354726 -0.40082303 -0.43010762 -0.19774373
0.8078574 2.2023518 -0.3437756 -1.1589983 -0.8049951 -0.18723746 0.060319453 -1.9691125
-1.4076518 1.3248821 0.44435808 0.5282507 0.5347016 -0.09470983 -0.19956955 -0.12513606
-0.7014475 0.9563007 0.19813216 -0.00053031923 0.18405521 -0.5452326 1.9947184 0.7374172
-1.1656729 0.892262 -1.2463824 0.7919731 0.12500225 -0.39768955 -0.22057967 -0.36142507
0.0836087 0.17572562 1.4876935 -0.73750967 -0.65336955 1.5719323 0.5809566 -1.8615537
-1.4672463 0.5061781 0.13416974 -0.048816785 0.44751608 1.0499383 -0.7801225 0.42390916
-0.5034867 -0.4008981 0.17474729 0.41420853 -0.4578242 -1.7293946 1.9710168 -0.7398856
0.29077274 -0.15974875 0.15399894 1.9371889 0.32998985 0.3739509 -1.4237813 0.2528082
0.74715734 0.15165801 1.2073828 -1.070354 -0.8294547 0.47621903 0.1973109 -0.6512207
-1.4174424 -0.04061235 -1.1105616 -0.25283495 0.13267079 1.9331999 -1.5294827 -0.7139077
1.2327783 0.8580297 1.6363467 0.49981597 -2.610422 -0.0050721033 0.36103615 0.79343385
-0.17444709 0.8949917 0.27654234 0.8707882 -0.07044041 -0.2854953 -0.53191763 -0.24951214
2.1800494 0.33574647 0.5105697 -0.7533465 0.7498384 -0.4223078 0.5262155 0.17758754
0.22404924 -0.34702617 -0.069029994 -0.19810152 -0.17355616 1.1167625 -1.2229328 -0.23854595
0.24904041 -0.87624884 0.17365609 -0.31270444 -0.86214226 -1.5069864 0.12921591 -3.9881474e-05
-0.1206189 0.98638946 0.696367 1.3630345 -0.18290931 -0.33920562 -0.6157661 0.21676692
0.9390011 0.3965456 -1.4407595 -0.18736714 0.7382969 -0.3392858 -0.31597817 1.980277
-0.3868756 0.11968105 -0.823626 -0.61418563 -0.0036665348 1.9775754 -0.5677688 -0.19412494
-0.7794534 0.09112277 2.299081 1.13632 0.966652 -1.9924889 -2.2016006 -0.20709375
-0.08190495 1.2552737 0.93979186 0.8832089 -0.25316912 -0.5825781 -0.4548272 -0.17302552
0.33692807 0.005558755 -1.6356355 -0.014755214 1.8236377 0.7176674 -0.35430682 1.1193976
1.1426291 -0.5313654 -0.50891525 0.39193133 -0.6602455 0.47071317 -0.95968705 -0.50270987

tokenizer.positional_embedding.weight f4 [9, 32]
00000000: 7324 4a3f db22 b8be 4d6f 25be df99 0c3f
00000010: dba0 9b3e e8d6 e63f e94e 66bb e0b4 0dbf
00000020: 2208 0abf 7661 cd3e df72 0940 f423 9abf
00000030: f260 42bf 74d5 cbbe 051f ea3e 0de3 ca3d
00000040: 8201 4dbd db45 13bf c88b 6c3f 73d8 933f
00000050: 5bd9 3c3e c337 963d 5b47 043e 03d0 0f3f
00000060: 1279 35bf e659 583f bcb4 c23f 3f4f 213d
00000070: 37e0 6abe 964d 4f3e 0d5a d9be e907 21c0
00000080: c720 af3f 362e af3e 9d84 413f 6cfa 273f
00000090: eb61 c43f f359 483e a1e4 bb3e f351 4dbe
000000a0: 1ea8 0740 4e65 d63e 4a2a 88bf 293c 3fbe
000000b0: da5b aabe ced9 eb3e a094 793f 9402 9ebf
000000c0: 3fc9 b9bd 721f 61bf 497e bd3e 5058 b5bf
000000d0: 310f 793f 8b69 863e e3c7 513f 7569 233f
000000e0: 109c 523f bdeb 0ebe 1471 c23f 6738 06c0
000000f0: c905 073f b216 113f 114a f03f aa14 23bf
00000100: 3117 b1bb 3ddd 853f 0225 f33d a757 a4bf
00000110: 25e5 babd 3b1a f6be 8183 1bbf 1479 9b3f
00000120: b00e 683f 3d17 f03e d522 c4bf b65d fabf
00000130: 256f d43f a3a2 243c f0e1 e5bf 545f 643f
00000140: dd6f cc3e b2ba 2b3f 9af0 15bf 86a3 26bf
00000150: 2118 ba3f c6a5 9cbf 5f61 29bf 49a4 96be
00000160: 36e2 1cbe 6a5f 04bf c8ab aebe 40d1 7bbf
00000170: e2a8 10be 34f6 4cbf e53c 8f3f 5559 b3bf
00000180: a31c 2dbf b9ed e2bf bca1 c9bf e203 dabe
00000190: 1088 63be b189 26bf 6d2b bc3e 88f1 45bf
000001a0: 4460 21bf f5b5 a4bd 4c72 8ebe 760b a3bf
000001b0: 5325 e93f dfc2 68bf bd68 98bf f3b8 833e
000001c0: f13f 32bf 0154 cbbf b95c e8be 3e51 26c0
000001d0: 6863 d53f 174f 103f b7cb c1be a093 b1bf
000001e0: 1707 783f a227 a93f 7879 cb3e e320 37bf
000001f0: 19f1 dc3e adbc 10bf 514f 98bf 59b0 2dbf
00000200: 5248 a83f 9d9d 5a3e 2036 153e e877 9ebf
00000210: 649f 0b3f dd42 87bf 9122 493e 2a1f a83e
00000220: b941 a9be 818c 643f e112 0f40 55bc 0d3f
00000230: 1303 23bf bee7 29be 5d16 973d eeb0 da3c
00000240: ed01 763e 8e3d 6fbf c8f8 ac3f 78a4 c13e
00000250: d004 663e bec3 3d3f c52f 21bf 7c1d 91be
00000260: f4c5 803f a86c a73d e3c3 c0be 90d6 8dbe
00000270: 94d9 e73f ab9d c43e d7a8 c73f 85eb bb3f
00000280: 005f 88be ae1d 83bf e2de 973f ac4b bdbf
00000290: c253 37be e10e 1d3f 4e80 5c3f 5e83 22bf
000002a0: 2996 1cbf 5502 273c ef58 f6be bb9a 373f
000002b0: 5ae0 0bbf 2427 a83f ed03 103f e5e2 acbf
000002c0: ea8d cabf f2f9 273f 7a75 1c3e 3013 423f
000002d0: 5d84 dcbe 912a de3f d416 923e 85f8 2c3f
000002e0: d863 3f3e 7983 0e3f 5993 19c0 7ab9 ddbd
000002f0: f400 5ebe b4f9 d23e 0b34 eabe 775e 4a3f
00000300: c8ed cabe 81a2 113f e4a9 cbbd c417 13be
00000310: 5be8 fdbc e2b2 8fbf be17 04c0 0642 11bf
00000320: eedf c4bd 0549 dbbf d4dd 79bf e176 8cbd
00000330: 1bd1 e4bf f407 843f 5c9c acbe 92f3 bd3f
00000340: cd72 e23e 62b7 5bbf 2d61 c8bf 4725 c9bd
00000350: dd8e f3be ab0c 7c3f f7c0 b63f 443a 6bbf
00000360: 5fc9 04bf dafa cf3d d30a 203f bba5 6c3f
00000370: 0edf 07bf b35c b13f a075 973f f48f 0c3f
00000380: 5ade d0bf c42e 6c3f 4769 f1bf 5f33 713e
00000390: 5897 9abe 6734 563f b7a5 74be fc4d 703f
000003a0: ffb5 bf3f 105e a6bf 17a7 d2be c31d 9f3f
000003b0: 6cb1 40bf 06fb 88bf 6592 4d3e 5d87 f33f
000003c0: bf19 743e 4a71 a13e fdc9 ad3e 5736 00c0
000003d0: 4eea 693e aa39 043f e51a 63bf e02b 57bf
000003e0: 1f80 6d3e a07f 19c0 e20f 23bc a312 ebbe
000003f0: 1a73 05c0 359d 29bf f056 32be 2d3d 743f
0.7896187 -0.35964093 -0.16155739 0.5492229 0.3039616 1.8034334 -0.003514225 -0.5535412
-0.5391866 0.4011342 2.1476362 -1.2042222 -0.75929177 -0.3981129 0.4572679 0.09906588
-0.050050266 -0.57528466 0.9240079 1.155043 0.1844229 0.073348545 0.12917845 0.56176776
-0.70887864 0.84512174 1.5211406 0.039382216 -0.22937094 0.2024444 -0.42451516 -2.5161078
1.3681878 0.34214944 0.75592977 0.6561649 1.5342382 0.19565563 0.36697868 -0.20050792
2.119636 0.41874164 -1.0637906 -0.18675293 -0.33273202 0.4606461 0.9749241 -1.2344537
-0.09071588 -0.87938607 0.3701041 -1.4167576 0.97288805 0.26252398 0.8194563 0.6383279
0.8226938 -0.13957115 1.5190759 -2.0971925 0.527432 0.56675255 1.8772603 -0.63703406
-0.005404376 1.0458142 0.11872293 -1.2839249 -0.09125737 -0.48066887 -0.60747534 1.2146325
0.9064741 0.4689273 -1.532313 -1.9559848 1.6596419 0.010048541 -1.7959576 0.8920796
0.39929095 0.6708175 -0.58570254 -0.65093267 1.4538614 -1.223809 -0.661642 -0.29422215
-0.15320668 -0.5170809 -0.34115434 -0.98366165 -0.14126924 -0.80063176 1.1190459 -1.4011637
-0.6762182 -1.7728797 -1.5752482 -0.42581087 -0.22219872 -0.6505385 0.3675188 -0.7732167
-0.63037515 -0.08042518 -0.27821577 -1.2737873 1.8214515 -0.9092235 -1.1906964 0.25727043
-0.69628817 -1.5885011 -0.45383242 -2.5987086 1.6670961 0.5637068 -0.37850735 -1.3873177
0.9688582 1.321522 0.3974111 -0.71534556 0.43152693 -0.56537896 -1.1899205 -0.6784721
1.314707 0.21349187 0.14571428 -1.2380342 0.54540086 -1.056728 0.19642092 0.32836276
-0.33057955 0.8927689 2.2355273 0.55365497 -0.63676566 -0.16592309 0.07377312 0.026695695
0.24024172 -0.934533 1.3513422 0.37820792 0.22462773 0.74126804 -0.62963516 -0.28342807
1.006041 0.081750214 -0.3764945 -0.2770276 1.8113275 0.3840154 1.5598401 1.468125
-0.2663498 -1.0243433 1.1864893 -1.4788718 -0.17903045 0.6135083 0.8613328 -0.634817
-0.61166626 0.010193427 -0.48114726 0.71720475 -0.5463921 1.3136945 0.5625599 -1.3506743
-1.5824559 0.6561576 0.15279189 0.7581053 -0.43069735 1.735674 0.2853304 0.6756671
0.18690431 0.5566936 -2.3996184 -0.108263925 -0.21680051 0.41206133 -0.4574283 0.7905039
-0.39634538 0.56888586 -0.099445134 -0.14364535 -0.030994585 -1.1226466 -2.063949 -0.5674137
-0.09613024 -1.7131659 -0.9760411 -0.06858612 -1.7876314 1.0314927 -0.33713043 1.4839957
0.4422821 -0.85826695 -1.5654656 -0.09821563 -0.47569934 0.9845683 1.4277638 -0.9188578
-0.5186977 0.10155268 0.62516516 0.92440385 -0.5307473 1.3856415 1.1832771 0.54907155
-1.6317856 0.9225886 -1.8860253 0.23554753 -0.3019359 0.8367371 -0.2389134 0.93868995
1.4977416 -1.2997456 -0.41143104 1.2430958 -0.75270724 -1.0701606 0.20075376 1.9025685
0.23837946 0.31531745 0.33943167 -2.0033166 0.22843286 0.5165049 -0.8871291 -0.8405132
0.23193406 -2.3984146 -0.009952517 -0.45912656 -2.0851502 -0.66255504 -0.17415977 0.95405847

encoder_layer_mhattentions.0.attention_heads.0.Q.weight f4 [8, 8]
00000000: 90b1 dfbd ffcd 003e b35c acbe 82a8 b53e
00000010: 4a09 b13c 7377 433e 62ab 43be e919 8fbe
00000020: 9bc7 483e 28e4 9abd 5223 d6be cc3f cd3b
00000030: 390a 95bd 2532 81be b657 a6be b673 4fbc
00000040: 35d1 afbd 2d38 fa3d 9a76 a43c 45ad 873d
00000050: 6ad7 e0bd 759e 883d 953e 1bbb adf9 bcbd
00000060: cf99 a93c bcaa f1bb 12f0 003d 668c 303d
00000070: 9310 adbd 4727 073d 7f60 c6bb 43e5 e43c
00000080: 4e40 d1bc 0f51 f3be 8f20 fdbd 02c0 03be
00000090: a7b5 dabd 4468 6bbe cc42 0e3e 2b7c 853e
000000a0: b592 e1be 87f3 2c3d 5477 5c3e 3820 45be
000000b0: 96d6 51be a028 5b3e bff4 fabc 357f 74be
000000c0: 0627 f5bc 208a 1a3c a619 e33d 1fec 53be
000000d0: 5a76 c5bd fd96 d13d a516 fbbd d98d eebe
000000e0: 9dd9 91be e476 1cbd 63da 11be 3270 d83e
000000f0: d5cf 31be d500 383f 8858 fabd 839d fbbe
-0.10922539 0.12578581 -0.33664474 0.35480124 0.021610875 0.19088535 -0.19108346 -0.27949455
0.19607393 -0.075630486 -0.41823822 0.0062637087 -0.072773404 -0.2523357 -0.32488793 -0.012661865
-0.08584825 0.12217746 0.020076085 0.066248454 -0.10978587 0.06670848 -0.0023688425 -0.092273094
0.020703224 -0.0073750895 0.03147895 0.043102644 -0.08450427 0.032996442 -0.0060539837 0.027941352
-0.025543358 -0.4752278 -0.12359726 -0.12866214 -0.10679179 -0.22988993 0.13892668 0.26071295
-0.4405724 0.042224433 0.21529895 -0.19250572 -0.20492014 0.21402216 -0.030634282 -0.2387665
-0.029925834 0.009432346 0.110888764 -0.20695542 -0.096417144 0.10233877 -0.122601785 -0.46592596
-0.28486338 -0.03819932 -0.14243464 0.42273098 -0.17364438 0.7187627 -0.12223917 -0.4914361

encoder_layer_mhattentions.0.attention_heads.0.Q.bias f4 [8]
00000000: 4eae 113e c9c9 ccbe 4747 8a3d e5e9 cd3c
00000010: 04d5 55bc fa4a 00be 7a06 363f 8060 153c
0.14226648 -0.399977 0.06751876 0.025135944 -0.013051275 -0.12528601 0.7110363 0.009117246

encoder_layer_mhattentions.0.attention_heads.0.K.weight f4 [8, 8]
00000000: b8b3 5d3e 6337 783e d4a3 1bbf 8a6b 153e
00000010: 0e7a 04be c066 a33d 8b49 f33d 98ca 843e
00000020: b2d3 cdbe 9265 633d 31ff d5bd 92b1 c23e
00000030: 930a d73e ec36 8f3d cce6 893e 82c1 ce3e
00000040: 5fa1 e73d a2c9 ce3c 1bd4 d9bd 7322 833d
00000050: 11e9 c03d 45f9 be3d 727a f2bd e413 47bb
00000060: 293d 643d 0067 393d 6881 563d e7ba 07bd
00000070: 28fd 48bd 2055 d13c 7c19 ab3c 4b03 b43c
00000080: a60d 4cbe 65ee 683e 40b6 a63e a53f c5bb
00000090: 65c7 9ebe 77e4 50be ea52 e13d 96f0 93bd
000000a0: 682e 813d fcce a03e d815 d7be c9eb 983e
000000b0: 9227 ed3d 0ab2 bebe c423 6dbe 06d8 89be
000000c0: 3dc8 1e3e acff 92bd 4c7b b2be d88a a4be
000000d0: a5f0 d6bd 7792 153e 66ec 8ebe 9889 44be
000000e0: b373 d13e 387d 5dbd cdc7 bcbe 597c 243d
000000f0: c4f7 db3d e1ea b4be 5f12 72be b09b 113f
0.21650589 0.24239878 -0.60796857 0.14591804 -0.12937185 0.079785824 0.118792616 0.25935817
-0.40200573 0.055516787 -0.104490645 0.380261 0.42000255 0.069928974 0.26933897 0.4038201
0.11310076 0.02524263 -0.10636159 0.06403055 0.09419454 0.09324888 -0.11839761 -0.0030376846
0.05572239 0.045264244 0.052369505 -0.03313723 -0.049069554 0.025553286 0.020886175 0.021974226
-0.19927081 0.2274719 0.3256092 -0.00601955 -0.310115 -0.20399652 0.11002143 -0.072236225
0.063076794 0.31407917 -0.42008853 0.2986739 0.11579813 -0.37245208 -0.23158175 -0.26922625
0.15506072 -0.07177672 -0.34859693 -0.3213718 -0.10495118 0.14606653 -0.27914733 -0.19193113
0.40908584 -0.054074496 -0.36871186 0.04015765 0.10740617 -0.35335448 -0.2363982 0.56878185

encoder_layer_mhattentions.0.attention_heads.0.K.bias f4 [8]
00000000: 7ace 8e3d cabc 353e a126 e5bb d6b8 c0bd
00000010: 83af 13be d9ae cebd 5a9c f1bd e367 11be
0.06972976 0.17747799 -0.0069931303 -0.09410255 -0.14422421 -0.10091943 -0.117974 -0.14199786

encoder_layer_mhattentions.0.attention_heads.0.V.weight f4 [8, 8]
00000000: dc16 743e 2bb6 363e 2419 65be 436f 023e
00000010: 01c9 873d 4d6b 2fbd a7c8 923c b09e ecbe
00000020: 6123 1abe a006 853e 7da9 98bd 2cc4 ecbe
00000030: cc3d 15bc f1bb b73e c15f c0bd 647b a1be
00000040: 94e7 d93d 12d8 a63d df53 643e 7d90 f2bd
00000050: d1fe 743e 477b 393e 7026 2fbe f1bc 283e
00000060: 43bb bcbb 6b20 c83b a66d 343c de32 1d3d
00000070: 1749 b0bd 64b1 61be 100b 303e 30d7 0d3f
00000080: 3cc0 ad3e 952b 4dbe f4fd 40be 45a7 44be
00000090: 915c 283c 2e49 e83d af31 70be 9acb 653e
000000a0: 7fd4 22be fe10 3cbd a7f7 c5bd 628c be3e
000000b0: acb4 e83c 237d 1c3d 17d0 143e ad5a 763e
000000c0: ef66 2cbe 4afa ee3d 9071 7f3d 1d1d 483e
000000d0: 61a5 90be d637 e7bc bf54 4dbe 29f9 373e
000000e0: 7792 01be c290 09be f266 19be 37b2 1b3e
000000f0: 6a3c 2dbe e402 303e 9f45 38be aae6 863d
0.23836845 0.17842929 -0.22372872 0.12737755 0.06630135 -0.04282694 0.017917944 -0.4621482
-0.15052558 0.25981617 -0.07454202 -0.46243417 -0.009108972 0.35885575 -0.093932636 -0.31539452
0.10639873 0.08146681 0.2229762 -0.11843965 0.2392533 0.18113433 -0.17104506 0.16478325
-0.005759628 0.00610738 0.01101247 0.03837859 -0.08607691 -0.22040325 0.1719172 0.55406475
0.33935726 -0.20036156 -0.18846875 -0.19204433 0.010275976 0.11342083 -0.23456453 0.22440949
-0.15901373 -0.045914643 -0.096663766 0.3721648 0.028406464 0.038205277 0.14532505 0.24058028
-0.16836141 0.116688326 0.06236416 0.19542356 -0.28251174 -0.028224867 -0.2005186 0.17966141
-0.12653528 -0.13434127 -0.14980677 0.15204702 -0.16917577 0.17188603 -0.17995308 0.065869644

encoder_layer_mhattentions.0.attention_heads.0.V.bias f4 [8]
00000000: a538 10be 441e 8abe 24ce 38be dd2a 663e
00000010: 3a8f 43be f68c 433e 84c7 973e c866 8c3d
-0.14084108 -0.26976216 -0.18047386 0.22477289 -0.19097605 0.19096741 0.29644406 0.068555415

encoder_layer_mhattentions.0.attention_heads.1.Q.weight f4 [8, 8]
00000000: cc16 b83d eb0c cf3c ca1c 47be 48f7 11be
00000010: 1b61 843e 2be8 da3c b98a 94bd 2ae8 d2bd
00000020: ab0e e23d ff2c e23d 0587 1fbe 84c6 663d
00000030: 5142 a7be bcad 163f a927 8abc eefc 35bf
00000040: e396 40be c6ea 44bd 8625 fe3e 2734 84be
00000050: 8a30 163f 6c67 773e ff5c e23d a8db 82be
00000060: 3daa b33e fbbe 9e3d e9aa 843c d2ee 7dbd
00000070: c0d5 993e 7197 e3be b816 c03e ac4e 70be
00000080: 6088 ea3e b11c 18be 9148 57be 456e db3d
00000090: 9a26 493e ec7c 813e 87b9 ad3e 9c60 bf3e
000000a0: 3862 26bd ce19 60bd fa3a c83c 9678 11be
000000b0: a72e d1bd 2c27 c53e 42b0 cabe 9fbf 9dbe
000000c0: 3f82 c9be 97cb 9dbd 2db1 c03e 10b2 0cbe
000000d0: 68f9 68bd 559a dd3d 4ef5 80bc a861 993e
000000e0: 3239 ad3e 7cab 263b 7706 d1bd f9cd aabc
000000f0: 9e6b 9e3e a51d 533e 581d 1cbc ccf8 43bc
0.08988723 0.025274714 -0.19444576 -0.14254487 0.25855336 0.026722034 -0.07253022 -0.10298188
0.11037954 0.110437386 -0.1557885 0.056341663 -0.32667783 0.5885885 -0.016864615 -0.71089065
-0.18807559 -0.04807546 0.49638003 -0.2582104 0.58667815 0.24160546 0.11052894 -0.2555821
0.3509082 0.077512704 0.016194778 -0.061995335 0.3004589 -0.44451478 0.37517333 -0.23467511
0.4580717 -0.14854695 -0.21023776 0.107143916 0.19643632 0.2529062 0.3393061 0.37378395
-0.040621012 -0.05471211 0.024442185 -0.14206156 -0.10213976 0.38506448 -0.395876 -0.30810258
-0.39357182 -0.07704847 0.37635174 -0.137398 -0.056878477 0.10820452 -0.01574197 0.29957318
0.338327 0.0025431802 -0.10206311 -0.020850169 0.3094148 0.20616777 -0.0095284805 -0.011961173

encoder_layer_mhattentions.0.attention_heads.1.Q.bias f4 [8]
00000000: 7fa3 bd3d 9d3f 8d3d f7bd 81bc 7ccd d03d
00000010: c7b9 d5be 7aec aebd e384 b1be 85b5 2f3d
0.092597 0.06896899 -0.015837653 0.10195443 -0.417433 -0.08541198 -0.34671697 0.04289772

encoder_layer_mhattentions.0.attention_heads.1.K.weight f4 [8, 8]
00000000: d0f3 53be c41f 743e 6fbf 853e efb5 8b3c
00000010: b8f6 503d fa88 6f3d 5351 98bc a66e 593e
00000020: e552 22be a6a5 893c d533 f7be 0822 94be
00000030: 443a 23be 2f9c 413d 54ab 11bf b07b 313f
00000040: 91b7 413e 0bbf c23d 6bb4 ddbd 12d3 28be
00000050: e522 10bf 6d24 263f c2d5 8d3e d0b5 603c
00000060: ad4b 71be f95b 3d3e 67f6 703c 2c9a 8cbe
00000070: 2516 1a3e 5604 ff3e 76a6 55be 4dcf bdbe
00000080: c11b f3be ec0c 40be 2701 333e fe2e 443e
00000090: 0737 073f 7dfa 6a3d 1240 d63d 100d 393e
000000a0: 0a9f 213c 7f1c 9b3d 2bb8 73bd bd76 693d
000000b0: 57dc 15be a8e4 6fbd a15c b23d 33af e03e
000000c0: 6f2d c23e ec69 d7bd 5d1a 2ebe f3fb a43e
000000d0: 820e 0fbe 3970 ab3d 13a0 0f3f 4cc7 4abd
000000e0: cfd0 a5be 7f18 10be 27a7 773e 00be 823c
000000f0: f3c0 543e b5fe 173e ba7a 89bd ca1a ed3d
-0.20698476 0.23840243 0.26122615 0.017054526 0.05101654 0.05848024 -0.018593466 0.21233615
-0.15851934 0.01680262 -0.48281732 -0.28932214 -0.15940195 0.04726809 -0.5690205 0.6932936
0.18917681 0.09509095 -0.108254276 -0.16486767 -0.56303245 0.6489933 0.27702147 0.0137152225
-0.23564024 0.18492116 0.014707184 -0.27461374 0.1504751 0.49807996 -0.20864281 -0.3707222
-0.47482112 -0.1875493 0.17480908 0.19158551 0.5281834 0.05736779 0.10461439 0.18071389
0.009864578 0.075737946 -0.059501808 0.056998003 -0.14634834 -0.058567673 0.08709074 0.43883666
0.37925288 -0.1051825 -0.17002244 0.32223472 -0.13970378 0.08371014 0.5610363 -0.04950647
-0.3238587 -0.14071845 0.24184857 0.01595974 0.2077673 0.14843257 -0.06712861 0.11577375

encoder_layer_mhattentions.0.attention_heads.1.K.bias f4 [8]
00000000: 459b 73be 039b 5e3d abe0 6fbe 78b0 4d3e
00000010: cd2c 013d f8c7 56be 8304 1d3e 1fc0 5dbe
-0.237897 0.05434705 -0.23425548 0.20086849 0.031536866 -0.2097472 0.15333752 -0.2165532

encoder_layer_mhattentions.0.attention_heads.1.V.weight f4 [8, 8]
00000000: e7d5 67be 4d8d b6be 6817 b7bc b9c5 acbe
00000010: ac8c bebe 9f60 8abe e54e 18be 16b6 e53d
00000020: 6299 b8be 1203 8f3c d6f6 943e 4b24 bcbd
00000030: 426e acbd 332d 503d 3843 7ebd fa47 443e
00000040: 038c c33d 5107 7ebe 333b 99be 8ba1 d2be
00000050: 58ae 6b3e eb27 e13e 426d cb3e 5663 973e
00000060: 2617 a4bd 35a4 8bbd 077c 053d bd6a 003f
00000070: 18a4 4a3d 4552 e0bd c3fd 57bd f523 ca3e
00000080: 7896 093e 3522 e8bd dfed c53d bc2c 14bf
00000090: 21d8 ec3d 3eb4 893e 8190 c03e 1537 d83e
000000a0: 6054 d63d 0867 5d3e 5670 283e a785 12be
000000b0: d178 a23e 5f5a 203e b43e 903d 863b cbbd
000000c0: 2d7a 0abd 21c9 e9be 8b78 ba3d 4205 8fbe
000000d0: 009a c93d 3c31 8b3e 722f a43e 4d45 0fbe
000000e0: 7286 a5be 016c b23d f214 4abe 34dd f83d
000000f0: 7338 87be 26fd 543e b179 4bbe 365b 37be
-0.22640191 -0.3565468 -0.022350028 -0.337446 -0.372167 -0.2702684 -0.14873846 0.11216371
-0.36054522 0.017457519 0.2909457 -0.0918661 -0.084194675 0.050824355 -0.062075824 0.19168082
0.095481895 -0.24807478 -0.29927978 -0.41138873 0.23015726 0.43975767 0.39731795 0.29567975
-0.08012228 -0.068184294 0.032588985 0.5016287 0.0494729 -0.10953192 -0.05273224 0.39480558
0.13436306 -0.113346495 0.09664511 -0.5788076 0.11564661 0.26895326 0.37610248 0.42229524
0.10465312 0.21621335 0.16449103 -0.14308797 0.317328 0.15659474 0.0704321 -0.099234626
-0.033807922 -0.45661262 0.09105023 -0.279337 0.09843826 0.27186 0.32067448 -0.1399128
-0.32329136 0.08712006 -0.19734553 0.12151566 -0.26410255 0.20799693 -0.1987064 -0.17905888

encoder_layer_mhattentions.0.attention_heads.1.V.bias f4 [8]
00000000: 8759 b73d 50f3 b5bd 25cd 82be 7e8a 2cbe
00000010: de2f 71be a99c d03c 2bbc 4ebe 4f65 4abd
0.08952623 -0.08884299 -0.25547138 -0.16849706 -0.23553416 0.025465326 -0.20188968 -0.04941302

encoder_layer_mhattentions.0.attention_heads.2.Q.weight f4 [8, 8]
00000000: 5067 e03d 6a7b a1be 510f d7bd 8480 49be
00000010: 89de 15be 8401 04be 6491 593e 5230 a93e
00000020: 04e5 cdbd 7962 42be 8749 cc3c c196 aebe
00000030: 7020 c4bd 3980 9b3d e3fd 063d e168 74bd
00000040: 3431 533d f546 be3e 050d d5bd 5bc3 053e
00000050: 167c 5abe 2b59 923e c9c8 0a3f 655d 2a3d
00000060: a86b 4f3d 6915 a63e 669e 683e d4ad 68be
00000070: 7b46 f9bd a7ed 18bd 062f 073d fc70 063f
00000080: d387 0e3e 241a 8dbe 9cea a9bd fd05 f33e
00000090: fb98 bdbd 4642 09bf 4821 4fbf 4da4 01bf
000000a0: 211a 593c fe4d 463d 19d1 bbbc ab8a 89bc
000000b0: 7081 63bc 3541 bebc 5925 c2bc e3d1 cabd
000000c0: 5145 bebd b55a a73e b347 813e dbe2 1a3f
000000d0: 275c dc3c 4949 71be 5ea3 38bf cfa1 16be
000000e0: c719 ff3c b890 ec3e e21e dfbe fe11 aabe
000000f0: d8bc cd3c 612c a03e 3318 593e 4c81 fa3d
0.10957205 -0.3153947 -0.10500968 -0.19677931 -0.14635672 -0.12891203 0.21246868 0.33044678
-0.10053447 -0.18982877 0.024937404 -0.3409939 -0.095764995 0.07592816 0.03295697 -0.059670333
0.051560596 0.3716351 -0.10402874 0.13062803 -0.21336398 0.28583655 0.54212624 0.041592974
0.05063978 0.3243821 0.22716674 -0.2272256 -0.12171646 -0.037336018 0.03300383 0.5251615
0.13919 -0.27559006 -0.08296701 0.47465506 -0.09257694 -0.5361675 -0.8091016 -0.5064133
0.0132508585 0.048414223 -0.022926854 -0.016789755 -0.013885841 -0.023224453 -0.02369945 -0.09903314
-0.09290565 0.3268639 0.25250015 0.60502404 0.02689941 -0.23563112 -0.7212428 -0.14710163
0.031140221 0.46204162 -0.4357825 -0.33216852 0.025114462 0.31283858 0.21200638 0.12231693

encoder_layer_mhattentions.0.attention_heads.2.Q.bias f4 [8]
00000000: 69a8 273e cbeb a53c 38f6 353e a1fd b83d
00000010: 53f7 bebd 4a6f ba3d 3fcc 29be 065a 043f
0.16372837 0.020254036 0.17769706 0.09032751 -0.09324517 0.09103258 -0.1658182 0.51699865

encoder_layer_mhattentions.0.attention_heads.2.K.weight f4 [8, 8]
00000000: cd0c cfbd a4f3 a5bd 774c 29be 5b30 203e
00000010: 52c4 553d 64a6 1dbf e88b 02bd 8c28 bbbe
00000020: 2126 1f3e 87a1 4dbe a7ab be3c de28 2bbe
00000030: c7d4 84be 3009 29be f5b8 96be 53a1 0cbe
00000040: d0f9 e8be a14b a0be dd01 043f 3f79 0f3e
00000050: 80b6 823e 3dd1 fd3c 756a 803d 2c87 5cbe
00000060: df1d bc3d 59fe acbe 019d 4cbe 382b a33e
00000070: 6fce 8d3e 7941 e1be 0d72 253e 7c34 5cbe
00000080: 046f 963e 15fb bb3e 9df8 edbd a097 453d
00000090: a5b9 ffbe b9e2 2f3f d5ed 183f b303 423e
000000a0: 0ae8 7f3d 45ae 7bbd 0f21 6e3d 14c3 e9bb
000000b0: ef95 cbbc f775 8f3d 76c9 0abe ecf1 eabd
000000c0: 7a43 3b3e ab43 1e3f 2d6a d63d 11dc 583d
000000d0: c601 253d 19dc 0f3f be44 2f3f 33b6 493e
000000e0: 8581 3abe e85b f3be 9567 243e c277 ad3e
000000f0: e785 3f3d bb70 81be 2643 32bf 6927 9fbe
-0.101098634 -0.081031114 -0.16533075 0.15643446 0.05218918 -0.61582017 -0.031871706 -0.36554372
0.15541889 -0.20081149 0.02327521 -0.16714808 -0.25943586 -0.16507411 -0.29437986 -0.13733415
-0.45503092 -0.313077 0.51565343 0.14011095 0.2552986 0.030983562 0.06270305 -0.21535939
0.09185385 -0.33787802 -0.19981767 0.3186891 0.2769656 -0.43995264 0.16156788 -0.21504396
0.29381573 0.36714998 -0.11619685 0.048240304 -0.49946323 0.68705326 0.597379 0.18946724
0.06247715 -0.061445493 0.058136996 -0.007133851 -0.024851767 0.07004922 -0.13553414 -0.11471924
0.18287459 0.61822003 0.1046947 0.052944247 0.040284894 0.5619522 0.6846427 0.1969841
-0.1821347 -0.47531056 0.16055138 0.3388043 0.04675856 -0.2528132 -0.6963371 -0.31084755

encoder_layer_mhattentions.0.attention_heads.2.K.bias f4 [8]
00000000: 367e a13e e4f2 9d3d 8125 49be 77ec 4ebe
00000010: 81e2 e5bd 1314 8ebe d99f 603e c3a9 be3d
0.31541604 0.07712343 -0.19643213 -0.20207392 -0.11224843 -0.2774969 0.21935977 0.09309723

encoder_layer_mhattentions.0.attention_heads.2.V.weight f4 [8, 8]
00000000: bd6e 4cbe 8023 a43e ea30 2e3d cbb8 b03e
00000010: 0156 57bd bc5c 763e 50bc c8be ffaf 6c3d
00000020: b75b 2dbe ee31 a9bd bac3 88be 6cbf 83be
00000030: d5bd 283d 3bf7 af3e 59bc 773d 2495 acbc
00000040: aa7e bb3d 458d 2abe 7ae1 0abe 5d20 023d
00000050: 5e8f bdbd 3aa9 223c f996 45bd 8cf2 3bbe
00000060: 6669 653d d8a4 f8bd 98db 8fbe 6b4f 883e
00000070: a73b b63d 4ac9 3a3e 495d c23d d657 ec3d
00000080: ed3c a0bd f3d3 62bd 62c5 a23d 2f8d 203e
00000090: 4609 a5bd ae38 e0bb e982 5b3e 7707 86be
000000a0: 275c 94bd bddb 0ebe 98d0 e4bd 2c89 813e
000000b0: 66f5 afbe e48b 79be b43e b23e 02e8 a2bd
000000c0: 4828 13be 8584 9f3e d4dd 0cbe 05bc e53d
000000d0: b1c0 413b ddfd acbe 0e27 413e 2276 dcbd
000000e0: e11f 163e 5628 4fbe eda1 b4bd c5e4 f5bd
000000f0: aa16 803c 0d19 8d3c 7610 b8be 49df d23d
-0.19964118 0.32058334 0.042527117 0.34515986 -0.052572254 0.24058813 -0.3920617 0.05778503
-0.16929518 -0.082614765 -0.26711828 -0.2573198 0.041196663 0.3436831 0.060482357 -0.02106721
0.09155019 -0.16655453 -0.13562575 0.031769145 -0.09255861 0.009928042 -0.048239682 -0.18354243
0.05600872 -0.121408165 -0.28097224 0.2662309 0.088980965 0.18240848 0.09490449 0.11540191
-0.07824121 -0.05537791 0.07947804 0.15678857 -0.080584094 -0.0068426942 0.21436657 -0.2617757
-0.07244139 -0.13951011 -0.111725986 0.25299966 -0.34366912 -0.2436977 0.34813464 -0.07954408
-0.14370835 0.31155792 -0.13756496 0.112175025 0.0029564316 -0.33787432 0.18862554 -0.107647195
0.14660598 -0.2023023 -0.088199474 -0.12006525 0.015635807 0.01722386 -0.3595006 0.102964945

encoder_layer_mhattentions.0.attention_heads.2.V.bias f4 [8]
00000000: bc9a bd3e a0e6 84be b29f 2b3e b42f 78bd
00000010: f32d a73c 0f3a e43e 29f0 fb3c 76c7 f7bd
0.37032115 -0.25957203 0.16760138 -0.06059237 0.020407652 0.44575545 0.030754166 -0.12098591

encoder_layer_mhattentions.0.attention_heads.3.Q.weight f4 [8, 8]
00000000: 42e2 273e 96b3 8fbd 1ac0 b6be 54f2 0cbf
00000010: 68a2 c63e 017d 68be bfc3 a73e 7352 f53e
00000020: c1c9 3b3e 392c 4b3e dc5a 783a afe3 063f
00000030: 1baf 66be 69fc 393e c028 65bd 6c70 913e
00000040: 8fa5 b9bb a46b 0e3e 214f ecbc 14db d6bd
00000050: e970 84bd 240f 043e ca9e 743e 52ff c5be
00000060: 781c 6fbc 1515 4fbd 3261 2ebe 48c9 29bd
00000070: f226 bbbe dcc9 813d 3e2c 4e3e 9480 393c
00000080: ed72 503e 8ab0 afbe 0173 9f3d 26b9 143d
00000090: 7336 023f ac99 b5bd 9042 abbe 7d5f af3a
000000a0: 5e9d 52bd b0ff de3e a1f1 973d 5333 a3bb
000000b0: 5090 e7be 12c3 163e a71e 263e c1d1 023d
000000c0: 1e6c 40be c586 c5be b758 afbe f442 8cbe
000000d0: 2459 c63e 2cd6 14bf 9166 70bd d8f4 2f3e
000000e0: 1970 083e 22a5 bd3e 5fa2 b73d 7e5b 01bf
000000f0: ffe5 9c3e 401b 83be 904a e3be e9b2 12bd
0.16394904 -0.07016675 -0.35693437 -0.55057263 0.3879578 -0.22703935 0.3276653 0.47914466
0.18338682 0.19841088 0.00094739883 0.5269117 -0.22527735 0.18162693 -0.055947065 0.28406084
-0.005665488 0.13908249 -0.028846325 -0.104910046 -0.064668484 0.128964 0.23888698 -0.38671356
-0.01459419 -0.050557215 -0.17029265 -0.041451722 -0.3655315 0.0633733 0.20134065 0.011322159
0.2035634 -0.34314376 0.07785607 0.036309384 0.5086433 -0.08867201 -0.3344922 0.0013379898
-0.05141961 0.4355445 0.07419134 -0.0049804836 -0.4522729 0.14722851 0.1622263 0.03193832
-0.18791243 -0.38579383 -0.34247372 -0.2739483 0.38739884 -0.581393 -0.058691565 0.17183244
0.13324012 0.3704005 0.08966517 -0.5053023 0.30644223 -0.25606728 -0.44392824 -0.035815153

encoder_layer_mhattentions.0.attention_heads.3.Q.bias f4 [8]
00000000: b692 86be cb5d c53c 35b2 6cbc 7b27 0bbf
00000010: d333 883e 83ef d13e 0b5e 12be 5666 a13e
-0.26283807 0.024092576 -0.014446785 -0.5435712 0.2660204 0.41003045 -0.14293687 0.3152339

encoder_layer_mhattentions.0.attention_heads.3.K.weight f4 [8, 8]
00000000: 8715 a2be 9cbc bf3e 1aac 02bd 8b4d acbe
00000010: 65d0 bcbe e48e 66bd be76 0fbf f49b d9be
00000020: 00b6 a33e 4661 8dbe f7b8 963d e3fa d13e
00000030: 9f44 f13c 0a64 e93e 8498 84bd 7e2e 2cbe
00000040: 088a e0be df8e 30bd 2bf6 0cbe ec81 bf3c
00000050: fad2 a73e e205 39be 9e9e be3e f4b7 d1bb
00000060: 4521 16be a797 ccbd d7b8 963e 36f1 b8be
00000070: 1725 b13d 453c 0ebd 7fc5 fabd a976 c33d
00000080: 68a4 a33e c559 a63e 4180 40be 6a41 85be
00000090: 68d7 4ebe d2fe 74bd ec6d 93be 2e7b 11be
000000a0: e065 36be d617 e3be 779a 94be e868 da3e
000000b0: 5bfb 133e 08ed 203e fdd3 4b3e 51d9 053d
000000c0: 19c9 87bd df48 0c3f 76b2 393e 69ca f5be
000000d0: df25 53be 98c2 0dbe 23bd 7dbe 2e1d 80bd
000000e0: 09cd 1bbe 9c09 793e ca1c 09bf 21a9 f4be
000000f0: af9f 99be 0a69 5dbd 5935 ca3e a0ee fe39
-0.3165705 0.37448585 -0.03190241 -0.3365291 -0.36877742 -0.056288615 -0.5604056 -0.42501795
0.31974792 -0.27613276 0.07359498 0.41011724 0.029451666 0.45584136 -0.064744025 -0.1681461
-0.4385531 -0.043105002 -0.1376578 0.023377381 0.3277815 -0.1806865 0.3723039 -0.0064001027
-0.14661129 -0.09989863 0.29437897 -0.3612153 0.086496525 -0.034725446 -0.12244701 0.09544117
0.3196137 0.32490364 -0.18798925 -0.2602647 -0.20199358 -0.059813328 -0.287948 -0.14207146
-0.178123 -0.44354123 -0.29024097 0.42658162 0.14451353 0.1571542 0.19905086 0.032677952
-0.06630153 0.5479869 0.18134484 -0.4800599 -0.20619915 -0.13843763 -0.24779181 -0.062555656
-0.15214933 0.24320072 -0.53559554 -0.47785285 -0.3000464 -0.05405525 0.39493826 0.00048624445

encoder_layer_mhattentions.0.attention_heads.3.K.bias f4 [8]
00000000: f1d9 9dbe ebe2 ad3c 90fa e3bd a4c3 973e
00000010: 7beb a63e 7a5d 993e 44fc 063e 43f5 cd3d
-0.3083034 0.021226367 -0.111317754 0.2964145 0.32601532 0.2995413 0.13182169 0.100565456

encoder_layer_mhattentions.0.attention_heads.3.V.weight f4 [8, 8]
00000000: 44a8 f0bd e35b 03be 92f6 e7bd 4cb0 b8be
00000010: cf87 243e a65e b2bd 4249 4c3b 7c4a f8bd
00000020: a18e 93be 9764 1f3e ea0d a9bb 9c4a 0d3e
00000030: 2d93 ad3e 8993 96be a21a cebd 7a15 32bd
00000040: 985b 61be 5ca9 883e c832 463d bca6 933e
00000050: b435 76be 6dd2 073e af11 84bd fae3 933e
00000060: 52cb 41be 66f2 40be 7e84 c33b b778 043e
00000070: 41dc 2f3d 9208 9ebc c9d4 4b3d 97b9 c73d
00000080: 56f7 8abe e290 b3be 95ce 55bc a38d 363e
00000090: 7d05 b2be 957a 263e a106 a33e 40ee 12bd
000000a0: 57ff d83d f39c b3bd 264e a3be 20c6 b33e
000000b0: 95c8 95bd 837b d53d 0833 34be be22 a6be
000000c0: 3361 203e c02d cd3e 43c5 3fbe 9f3b 803e
000000d0: 7f3e a0be 0fa6 21bc dc2d 78be 9ab7 0f3e
000000e0: 9389 8a3e 9e1f 4b3e 0176 c93d b399 873e
000000f0: 2283 753e 2f64 22bd b5e5 b5be 824e 6d3e
-0.11750844 -0.12828021 -0.113263264 -0.36072004 0.16067432 -0.08709459 0.0031171595 -0.12123582
-0.28819755 0.15565716 -0.0051591294 0.13797992 0.3390135 -0.29409435 -0.100636736 -0.043477513
-0.22007596 0.2669171 0.048388273 0.28838146 -0.24043924 0.13263865 -0.064486854 0.2888487
-0.18925217 -0.18842468 0.005966722 0.12936674 0.04293466 -0.019291196 0.049763475 0.09752195
-0.27141827 -0.35071474 -0.013049741 0.17827468 -0.34769812 0.16257699 0.31840995 -0.035871744
0.10595577 -0.0877017 -0.3189556 0.35112095 -0.073136486 0.104239486 -0.17597592 -0.3244838
0.15662079 0.40073967 -0.18727593 0.25045487 -0.3129768 -0.009866252 -0.24236244 0.14034882
0.27058086 0.1983628 0.098369606 0.2648445 0.23975804 -0.039646324 -0.35526815 0.2317448

encoder_layer_mhattentions.0.attention_heads.3.V.bias f4 [8]
00000000: 4938 7a3d e60c 9c3c 6980 dcbc 7606 91be
00000010: 490c afbe 8a39 dc3d 4ca8 ae3e 424d d23d
0.061088834 0.01904912 -0.0269167 -0.28325242 -0.3418906 0.10753162 0.34112775 0.10268642

encoder_layer_mhattentions.0.output_layer.weight f4 [32, 32]
00000000: 4c78 8abd 14e3 4ebe c4fc c93d 3919 913e
00000010: b40d a03c 7df3 cc3d ae6f 543e 771c 83be
00000020: ea1d 08bd ecc6 28bd 3320 d2be 46b1 953e
00000030: d05f f6be 4f42 f8bd 3da1 d6be 02dc e6bd
00000040: 7bf9 b73e d1d2 403e ada9 9a3d b612 ab3e
00000050: af9d 82be c48a 13be d176 003d 165d e4bc
00000060: c5fe ddbd 312a bebc b557 373c e6ef 4cbe
00000070: b488 14bf 3ea0 2c3e 392f 793e 9883 2a3e
00000080: dffc b6be fc31 853e 2178 0e3e a158 92be
00000090: 33f5 493e 0c2a bebe aee3 043e f489 293e
000000a0: 75cc 66be 4e9c 87bd d4fd b53e e5c3 20bf
000000b0: 05a3 1a3f c986 883e bda7 893e d36d 80be
000000c0: a850 e33d a511 5dbe fe5d edbd 238a f63e
000000d0: b273 62be c553 043e 9e5c cb3e 7e01 26be
000000e0: 87b8 273d 12d5 c4be 1378 21be 835b 06bd
000000f0: a35a 903e 2ce9 853e 0ebb d4bb 82e9 88be
00000100: 46b3 9fbe 7185 bf3d 61b4 123e 0820 d93d
00000110: 929a 19be 006c 33be 1597 cf3e edc6 34be
00000120: 4eef 9f3e 0d6c 94bd 93f0 13bf f7e5 55be
00000130: c1a6 e1be 674e 90be 0ede 1f3e 224e 293e
00000140: 9d84 d2be 225c 173e 3128 a63e 8403 3fbe
00000150: e1e0 80be f467 6e3e 771a 063d 5a26 313e
00000160: 0aeb 48be ada7 e5bc b511 16be daee bfbd
00000170: 8331 9dbd b8af 06bd 302e f8bc 4fe6 463e
00000180: ff78 d83e 3072 663e 207c a3be 1149 ebbe
00000190: ac7d 7bbe 421e 2dbe 8a4b 08bf 0642 3ebd
000001a0: bc45 a43d 51b9 023f 6ff5 2e3e 9af0 ec3d
000001b0: 0c1e 823e 5dda e6bd c9db 04bd 4dcc 543e
000001c0: 3e10 94bd 29b0 1d3d ac1d bbbb 7b0e d7bc
000001d0: 0e02 6b3b 0049 7dbe 0343 e93d 3b3b 8ebe
000001e0: 8835 483e 717c 943d 214b ed3c a3ed cfbe
000001f0: a503 7ebe 2647 86be 2b76 a33d f23a d2be
00000200: 6f8e 183e e3c4 6bbe ff67 87be 897e 65bc
00000210: c08d 09be 691e 09bc f713 403e 9745 ab3c
00000220: 7cd7 a4be a328 353d 8589 71be cddf 8b3d
00000230: 06ec 5dbd 0090 db3c 5be3 193d 26d5 92bd
00000240: c271 5ebd 03d6 b7b9 9e10 0d3e 934f 423c
00000250: 50ed 5dba 448d 98bd 2e2c e9bd 4bbb 913d
00000260: 0450 d3bc 8722 54bc d4b6 4a3d 134d 9c3d
00000270: 1286 603d 157e 95bd 24e6 b43c ee4e 683d
00000280: 4dd0 2f3e 4284 cf3e 9756 893e f8a7 88be
00000290: 7efc dcbe 6c7c 743e 6d16 92bc 7578 48bd
000002a0: e314 f83e ef72 8d3e fce6 0bbe 4ebe 243e
000002b0: 2d2e 333d 0ae5 b6be 7b92 f7bd d37c 5a3e
000002c0: b4fd 3c3e 4ce1 dabd 5335 09be 4e63 c0be
000002d0: 8469 70be 9c5e 87bb 5d5d 53bd 444b 503e
000002e0: c712 053e 2880 883e a572 7bbc b7df c53d
000002f0: e840 503e 7667 983d ac87 96be f729 713c
00000300: cd22 18be 946f ac3d 19e1 9c3d 6cb8 38be
00000310: ae1f b0be 0d10 143e 69ee 25be 39d8 4e3d
00000320: a905 ba3d 8891 6f3c 5e20 c8bd 2a9e 293d
00000330: 14d5 09be 315d 3dbe 10cd 96bd 574d 75be
00000340: ff3f 72be 916a b63e 0f9f 3b3e 3a40 303d
00000350: f97b a4bd c154 11ba 1500 f3bd 58fd d33d
00000360: b12d a9be c099 463e 7592 8e3d 7f36 9f3c
00000370: 1ec9 fa3d 5a3c 77be a0a7 15be c2a7 563d
00000380: 4686 b23c e76e db3e d78a ebbd 8648 2ebe
00000390: 94d8 863e 336f a3be 533a acbe e1ab 93bd
000003a0: c227 81be 428c 8c3e d170 c13d 03e5 b63d
000003b0: 250a 863e c597 3c3e 7507 e33d 0d4b dabd
000003c0: c656 debe 1316 a73e 0b45 ba3d c850 253e
000003d0: e676 103e 60a2 a7bd 5973 6b3d 595a c9bd
000003e0: 0a09 113e 8f64 033e a45a b1be 9fb6 503e
000003f0: 4dc1 563e 1aa7 103e 6d8f e1be 22a0 d3bd
-0.06761226 -0.20203811 0.09862664 0.28339556 0.019537784 0.10007379 0.20745727 -0.25607654
-0.033231653 -0.04120533 -0.4104019 0.2923681 -0.48119974 -0.12122022 -0.4191989 -0.11272432
0.35932526 0.1883042 0.07551894 0.33412713 -0.25510928 -0.14408404 0.031363312 -0.027876418
-0.10839609 -0.023213478 0.011190345 -0.20013389 -0.5802109 0.16858003 0.2433442 0.16651762
-0.357398 0.26014698 0.13913013 -0.28583243 0.19722442 -0.37141454 0.12977478 0.16556531
-0.22538932 -0.0662161 0.35545218 -0.6279891 0.60405 0.26665333 0.26885787 -0.2508379
0.11099368 -0.21588762 -0.11590193 0.48152265 -0.22114447 0.1292258 0.397191 -0.16211507
0.040947463 -0.3844381 -0.15768461 -0.032802116 0.2819415 0.2615446 -0.006492025 -0.26740652
-0.31191462 0.09351624 0.14326622 0.106018126 -0.1500037 -0.17521667 0.40544954 -0.17654009
0.31237262 -0.072471716 -0.5778896 -0.20888506 -0.44072536 -0.28184816 0.15612051 0.16533712
-0.411168 0.1478124 0.3245254 -0.18653685 -0.2517157 0.23281842 0.032740083 0.17299786
-0.1962091 -0.028034056 -0.14655192 -0.09371729 -0.07675459 -0.032882422 -0.030295461 0.19423793
0.42279813 0.22504497 -0.31930637 -0.45954183 -0.24559659 -0.16906074 -0.53240263 -0.046449684
0.08021113 0.5106402 0.17085813 0.115693286 0.2541355 -0.11272118 -0.032436166 0.2078106
-0.072296605 0.038498078 -0.0057103243 -0.026252022 0.003585938 -0.24734879 0.113897346 -0.27779564
0.1955167 0.07250298 0.028966488 -0.4061099 -0.24806078 -0.26226157 0.07981523 -0.41060597
0.14898084 -0.23024325 -0.2644653 -0.014007219 -0.1343298 -0.008369067 0.18757616 0.020907206
-0.32195652 0.044228207 -0.23587616 0.06829796 -0.054180168 0.026802063 0.03757034 -0.07169561
-0.054307707 -0.0003506393 0.1377587 0.011859792 -0.0008465843 -0.07448819 -0.1138538 0.071158014
-0.02579499 -0.012947685 0.049490765 0.07631888 0.05481536 -0.07299439 0.022082396 0.0567159
0.17169304 0.40530592 0.26823875 -0.2669065 -0.43161386 0.23875588 -0.01783296 -0.048943
0.48453435 0.2762675 -0.13662332 0.1608822 0.04374521 -0.35721618 -0.12088486 0.21336679
0.18456155 -0.10687503 -0.13399248 -0.37575763 -0.23477751 -0.0041311514 -0.05160271 0.20341212
0.12995444 0.26660275 -0.015347158 0.09661811 0.2033726 0.074416086 -0.29400384 0.014719478
-0.14857025 0.08419719 0.076601215 -0.18039101 -0.3439917 0.14459248 -0.16204228 0.050499175
0.09083111 0.0146221 -0.097717986 0.041410603 -0.13460189 -0.18492581 -0.07363331 -0.23955284
-0.23657225 0.3562818 0.18322395 0.04303 -0.080314584 -0.00055439404 -0.1186525 0.10351056
-0.33042672 0.19394588 0.06961528 0.019435165 0.12245391 -0.24144116 -0.14614725 0.05240608
0.021792542 0.4285805 -0.11501091 -0.17019853 0.2633711 -0.31920776 -0.33638248 -0.07210518
-0.25225645 0.27450758 0.09445346 0.08930399 0.26179615 0.1841727 0.11085407 -0.10658846
-0.43425578 0.3263403 0.090952 0.16144097 0.14107856 -0.081852674 0.05748305 -0.098316856
0.14163604 0.12831329 -0.34639466 0.20382164 0.20972176 0.14126244 -0.44054738 -0.10333277

encoder_layer_mhattentions.0.output_layer.bias f4 [32]
00000000: da97 6d3d bd71 73be 420f 48be c1d9 34be
00000010: 369c d7bd 3452 5b3d 0526 803c 7083 34be
00000020: f5f3 ccbd 44c6 263e d582 1a3d 7350 0dbe
00000030: 5cc9 26be e54f 793e db71 16bc de21 2dbd
00000040: 75e3 833c 8072 913e 2ef6 5b3e 5eee dbbd
00000050: f5c2 c93d 05fe f5bd 972c bc3e 01f6 fc3d
00000060: aeaa 0a3e a7f0 4b3e cdcf 013e f66e 7cbd
00000070: 2655 18be 0181 85be a2ac 26be f992 b33c
0.058006145 -0.23773856 -0.1953707 -0.17661192 -0.10527842 0.053545192 0.01564313 -0.17628264
-0.100074686 0.1628657 0.037722427 -0.1380022 -0.1628775 0.24346884 -0.009182419 -0.042268626
0.01609967 0.2840767 0.21480629 -0.10738824 0.09851638 -0.12011341 0.3675277 0.12351609
0.13541672 0.1991602 0.12676926 -0.061629258 -0.14876232 -0.26074985 -0.16276792 0.021920668

encoder_layer_mhattentions.1.attention_heads.0.Q.weight f4 [8, 8]
00000000: 686a 473f 999a a1be b71d ecbd 9b89 65be
00000010: 9e2c 0c3e 6bf6 ca3e 313b 193e 2b15 c23e
00000020: 1eff 313e b76c 583e 1ca7 b4be 036a cd3e
00000030: a178 803c 269f d23d a091 823e 62a3 d63d
00000040: e1b3 5bbe cc46 01bf 67eb bdbe 019e ff3d
00000050: bdd4 80be 8679 a6bd c3ff 8cbe d535 153f
00000060: ec87 da3e a877 84be 5fee 09be e96d 363f
00000070: c93b aabe 4f13 913e 8d90 b5bd c5e9 87be
00000080: bdce d4be 3196 f73e 3b66 40bc 8128 aebd
00000090: fc52 acbd 17f4 763e 67a4 95be 1da9 9fbe
000000a0: fdf5 5cbe 7e66 14bd 19dd cabe dcce 3c3e
000000b0: 0908 4ebe 24f9 d2be 141a 433e 5b8f 693e
000000c0: 634e a43e 41ff fabd ff75 0e3e feb1 cd3e
000000d0: aff4 233e 149f 313c bf86 613e 3f5c e03d
000000e0: 845b 9cbe 860e 9fbd ecf6 fa3d 6063 223e
000000f0: a511 58be b264 29bd b9b7 263f 5e4c e3bc
0.7789674 -0.3156326 -0.11529105 -0.22415774 0.13688895 0.39641127 0.14963986 0.37906775
0.17382476 0.21135221 -0.35283744 0.40119943 0.01568252 0.102842614 0.25501728 0.104803815
-0.21455337 -0.5049865 -0.3709366 0.12481309 -0.25162306 -0.081286475 -0.2753888 0.58285266
0.42681825 -0.2587254 -0.13469838 0.7126146 -0.33248737 0.28335044 -0.088654615 -0.2654554
-0.4156398 0.48356774 -0.011743124 -0.08503819 -0.084142655 0.2411655 -0.29226992 -0.3118371
-0.21578212 -0.036230557 -0.3962181 0.18438286 -0.20120253 -0.41205704 0.19052917 0.22808592
0.32091054 -0.12255717 0.139122 0.4017486 0.16011308 0.01084115 0.22024058 0.109550945
-0.3053857 -0.07766442 0.12254128 0.15858221 -0.21100481 -0.041355796 0.6512409 -0.027746376

encoder_layer_mhattentions.1.attention_heads.0.Q.bias f4 [8]
00000000: f9a2 d0be f587 58be 9262 f1bc 9110 a2bd
00000010: becf 0fbf 044b f93e 2f45 993e 0376 08be
-0.40749338 -0.21145613 -0.029465947 -0.07913316 -0.56176364 0.48690045 0.29935595 -0.13326268

encoder_layer_mhattentions.1.attention_heads.0.K.weight f4 [8, 8]
00000000: c9ba 7f3e d060 70bd 197a 803e 1f75 88be
00000010: 33aa 783e 686b 923e fb68 43bf 2316 5cbe
00000020: 760b c93d 0363 bf3e 206d 373e 8019 dfbe
00000030: 9b25 843e a45d 4fbe 48b9 71be 4768 39be
00000040: f751 f4bd a5ca 7c3e 5600 e43e dd36 2a3f
00000050: ddfe 3fbd c4e3 5a3e 7550 973d a8f5 aabe
00000060: 88d2 7e3e fe00 eb3e 1716 cd3d e802 87be
00000070: 0c84 863d 3f42 5a3e 46eb 803e 9116 1dbf
00000080: c23a 0c3e 61ca 8fbe ad0f 1b3e b655 0abe
00000090: 860e 9b3e cea1 1dbf 81ee bc3e 0c4b 73be
000000a0: 1fd9 1fbe 509c c93e a8a4 5a3e 1daa 3d3e
000000b0: 3805 1fbe 5b34 a63e e2e5 7a3e 7266 743e
000000c0: e555 11be b0d8 303e 5166 38be 6116 96be
000000d0: 2bdb 1abe 341e 303e 4afd 72be 4893 08bc
000000e0: 495e 5e3c bd2c 43bd cfe6 e03d 1cca 3abe
000000f0: b6f1 b83e b4d1 c53e 52bc cb3e d9b5 333e
0.24973597 -0.058686078 0.25093153 -0.26651856 0.24283676 0.2859757 -0.7633206 -0.2149282
0.09816639 0.37380227 0.17912722 -0.43574142 0.2580994 -0.20250565 -0.23605835 -0.18106185
-0.11929696 0.24686678 0.44531506 0.66489965 -0.046873916 0.21375948 0.07388393 -0.33390546
0.24884999 0.45899194 0.10013979 -0.26369405 0.06568155 0.21314333 0.251795 -0.6136256
0.1369429 -0.2808409 0.15142699 -0.13509259 0.30284518 -0.6157502 0.36900714 -0.23759097
-0.15610169 0.3937707 0.21351874 0.18521924 -0.15529335 0.3246182 0.24501756 0.23867205
-0.14192922 0.1727016 -0.1800778 -0.2931395 -0.15122668 0.17199022 -0.23729435 -0.008335896
0.013572284 -0.047650088 0.10981523 -0.18241161 0.3612191 0.38636553 0.39792114 0.17549838

encoder_layer_mhattentions.1.attention_heads.0.K.bias f4 [8]
00000000: e8d1 253e 8abf abbe d5d6 ab3e 6190 303d
00000010: e1f4 64be 0dd5 62be c33e aa3e 24b5 cebd
0.16193354 -0.3354457 0.3356234 0.04310644 -0.22359039 -0.22151585 0.33251008 -0.100931436

encoder_layer_mhattentions.1.attention_heads.0.V.weight f4 [8, 8]
00000000: 32d1 243c 4bc7 5d3e 4cbf 08bd f576 47be
00000010: 0b0d 1fbe d00b 883e 8270 b1be be0d 4ebe
00000020: c666 8dbe 3257 bbbc ae29 d6bd bf5d 63be
00000030: 128d fbbb 4779 9abe 31d8 51be 2101 78be
00000040: b800 3fbe a085 283e 4c45 4c3e 1f64 3bbd
00000050: 4bae 943e a131 593d 56b3 a5bd 39cb 51bc
00000060: 15c1 8ebd b4ff 92be 109a 873b 057a 97be
00000070: 71d5 d6bd 43d3 ad3d 5259 53bd 3210 3fbe
00000080: 205a 2cbf c30b 8cbc ba6b 633e 5a78 61be
00000090: e526 48be d491 ad3d 53f2 b4bd c76d 043f
000000a0: afdc 723e a2e6 9f3e 3e37 383e ba86 ffbd
000000b0: d6c7 25bb 21ee 94bd 437c c43c 5b18 3c3e
000000c0: b727 633e 984e a23e 079d 9cbe 6963 a4be
000000d0: 8907 a53d e509 7b3e 5310 cbbc ba15 1f3e
000000e0: 38f1 093e d841 08bf b126 eb3d 55f7 f83b
000000f0: 51ef e03d bb8a d5bd 1c83 e5bd eec7 263e
0.010059642 0.21658055 -0.03338556 -0.19478972 -0.15532319 0.26571512 -0.3465615 -0.2012243
-0.27617472 -0.022868726 -0.104571685 -0.2220373 -0.007676729 -0.30170652 -0.20492627 -0.2421918
-0.18652618 0.16457224 0.1994831 -0.04574978 0.29039225 0.053025845 -0.08090846 -0.0128048
-0.06970421 -0.2871071 0.0041382387 -0.2958528 -0.104899295 0.084875606 -0.051598854 -0.18658522
-0.6732502 -0.017095452 0.22209063 -0.22018567 -0.19546087 0.0847508 -0.08835282 0.51730007
0.23716997 0.31230646 0.17989823 -0.12476869 -0.0025296113 -0.07271982 0.023985034 0.18368666
0.22183119 0.31700587 -0.30588552 -0.32107094 0.08058078 0.24515493 -0.024788057 0.15535632
0.13470924 -0.5322547 0.11481989 0.0075978437 0.10983146 -0.10426851 -0.11206648 0.16287205

encoder_layer_mhattentions.1.attention_heads.0.V.bias f4 [8]
00000000: 3b98 75bd 7fa0 acbd 3a83 f93d 9aa9 cebd
00000010: f0e7 013e d637 d83d caad 0bbe c2c7 903d
-0.05995963 -0.0842905 0.121832326 -0.10090943 0.12686133 0.10557525 -0.13640514 0.07069351

encoder_layer_mhattentions.1.attention_heads.1.Q.weight f4 [8, 8]
00000000: f829 94be a16b 8c3d b37f 40be ec9c 543e
00000010: d965 00bc 21bc b93d f503 a0be 5d92 4d3e
00000020: de4f 053e 6ac4 63bd 56dd 5d3e 0ebe acbe
00000030: 30e6 ffbe eb94 ae3c f6b6 123e bad1 fb3e
00000040: 4924 28be 9688 a4be e150 373e 2f30 403e
00000050: f04a 03bf e373 2c3e 7b89 293d 89ec 0d3f
00000060: 65c8 ad3e 78a5 b3be 81e9 38bd 790f aebd
00000070: d7c4 063e 50de 9b3d 25d3 343e 4fa3 6c3d
00000080: 655d f33c 4452 00be 7b23 f8be 5f44 ec3e
00000090: 7949 263e 569d 853e 104a 8dbe fedb 223e
000000a0: 31b1 c53e 2eab c0bd 5840 15be 8c58 0c3e
000000b0: 9ec7 2dbf 92b7 3bbe 1913 3cbf dc04 8e3e
000000c0: 1a81 3bbe fa33 903d 2c68 e4be dae1 6e3e
000000d0: c6c2 e53d 9434 a43d ee9b eabe 23be 113f
000000e0: d6d0 6fbe 29aa 20bc e431 983e 6e41 98be
000000f0: 0afd cf3e 213f 0abe 957d d4bb 02fa 40bf
-0.2893827 0.06856466 -0.18798713 0.20762986 -0.007836782 0.09069086 -0.3125302 0.20075364
0.13018748 -0.055607237 0.21666464 -0.3373875 -0.49980307 0.021311244 0.14327607 0.49183446
-0.16420092 -0.32135457 0.17901947 0.1876838 -0.5128622 0.16841082 0.041390877 0.5543905
0.3394195 -0.3508718 -0.04514456 -0.08499045 0.13161026 0.07610762 0.1765867 0.05777293
0.02970762 -0.12531382 -0.4846457 0.46145913 0.16238965 0.260966 -0.27595568 0.15904233
0.3861175 -0.0940765 -0.14575326 0.13705653 -0.67882717 -0.18331745 -0.7346664 0.27738082
-0.18310967 0.07041164 -0.44610727 0.23328343 0.11218791 0.08017841 -0.4582209 0.5693075
-0.23419508 -0.009806194 0.29725564 -0.2973742 0.4062274 -0.13500644 -0.006484697 -0.7538148

encoder_layer_mhattentions.1.attention_heads.1.Q.bias f4 [8]
00000000: 9001 03be 35f5 e23d 7c80 41be 7c24 a73d
00000010: 0b4f 1d3d 70cd 86be 0808 863e 4cd1 9bbe
-0.12793565 0.11081926 -0.18896669 0.08161256 0.03840546 -0.2632861 0.26178002 -0.30433118

encoder_layer_mhattentions.1.attention_heads.1.K.weight f4 [8, 8]
00000000: 5c20 e13d e2ed 89bd a9b5 4ebe ef88 8f3e
00000010: c427 febe ec57 4c3d 6256 033e 7aac 083e
00000020: f887 48be 8b60 30be 00df dd3e 7945 543d
00000030: f7f3 ae3e cf51 aabd 68be 113f ba55 42be
00000040: 9f8a 513e e043 92be 1ad3 843e ca17 0cbe
00000050: cdea 2bbd ae8a 283e adfb e63e a71f cebd
00000060: 35d5 a8bd f9e4 df3d bf89 2c3e 12c9 00bf
00000070: 728a d83e 582e 3b3e 5c1f 87bb c5a4 f03d
00000080: fc16 9e3d e14c 8ebd ce3f db3d 82f3 883c
00000090: 11af 43bf f410 e03e f4a3 d43b 56d9 aa3e
000000a0: 62f3 b1bd 5dea 1fbe ba57 00be 053c f83e
000000b0: cd90 b0bd 0a59 053f b778 3a3f 382a 843d
000000c0: 3b8d 623d fde7 60be e1f0 a5bd f06f 883d
000000d0: 8ce4 79bf f916 9f3e b052 423e a7a0 ddbd
000000e0: 5a62 3f3e d029 003e db6f eebe f0a3 913c
000000f0: 33bd b83e c52c 75be 6c99 0abf 1e1c 633e
0.109925 -0.06734826 -0.20186485 0.2803416 -0.49639714 0.049888536 0.12825921 0.13347045
-0.19583118 -0.17224328 0.43334198 0.051824067 0.34170505 -0.08316385 0.5693116 -0.18978015
0.20463036 -0.2856741 0.25942308 -0.1368095 -0.04197197 0.16459152 0.45113888 -0.10064631
-0.08243791 0.10932345 0.16849421 -0.5030681 0.42293125 0.18279397 -0.0041236114 0.11750177
0.07719228 -0.06948257 0.10705529 0.016717676 -0.76439005 0.43762934 0.0064892713 0.3336894
-0.08689 -0.15616746 -0.12533465 0.4848329 -0.086213686 0.5208899 0.72840446 0.06453365
0.05531047 -0.21963497 -0.08102585 0.066619754 -0.9761436 0.31072214 0.18976855 -0.10821658
0.18689862 0.1251595 -0.46569714 0.017778367 0.36081848 -0.2394286 -0.54140353 0.22178695

encoder_layer_mhattentions.1.attention_heads.1.K.bias f4 [8]
00000000: 7030 3a3d ca21 b8bd 02f5 4f3e da51 81bd
00000010: 9bf1 11bc cdad 033e a0b6 adbe 4d0a c13d
0.04545635 -0.0899082 0.20308307 -0.0631444 -0.008907701 0.12859268 -0.33928394 0.09425793

encoder_layer_mhattentions.1.attention_heads.1.V.weight f4 [8, 8]
00000000: 4ff8 803e b1d1 db3d 3466 4c3e 77e6 8dbe
00000010: 6776 14be 473c ac3c 973d cb3e 475b 62be
00000020: 24a0 283e 9c32 9c3d 3689 8c3e 86d0 513e
00000030: eac5 3dbe 4758 0ebe b0d6 01be 2b18 91bd
00000040: ed53 573e afe2 50be f526 58be 354b dfbd
00000050: 8508 11be f72f 5e3d 5d74 583d 1ea4 60be
00000060: 210a 4c3d d9c0 6b3d 69ea d7be cda3 eb3e
00000070: 4c84 043e f00b de3d ab95 373e 5505 ad3c
00000080: 90a6 e93e f997 e1bc 3398 87be b2ff 88ba
00000090: 776b 5cbd 8e8d afbd 9974 563e 4e2e 743e
000000a0: 8b44 a2be 8243 1e3e 3e9b bb3b bbf0 71be
000000b0: 7e17 05be dedf 13be 9a6d 35bd 30cf 0dbe
000000c0: 73f2 443d 6d49 353e 6b84 9e3c b85f 2cbd
000000d0: 9a43 b63d 82be 5ebc f49b be3c 0c05 08be
000000e0: 8199 79be 3e38 d43e 1432 03bd f227 b2be
000000f0: ee6f 98be 7924 403e 6131 43bd ac09 213e
0.25189444 0.10733355 0.19960862 -0.27714893 -0.14498292 0.021024836 0.39695427 -0.22105132
0.16467339 0.076268405 0.27448434 0.20489702 -0.1853253 -0.13900863 -0.12679553 -0.07084688
0.21028109 -0.20398973 -0.21108611 -0.109030165 -0.14163406 0.05424496 0.052845348 -0.21937606
0.049814347 0.05755696 -0.42171028 0.46023408 0.12941092 0.10842121 0.17928188 0.021120707
0.4563489 -0.027538287 -0.26483306 -0.001045218 -0.053813424 -0.08571921 0.20942916 0.23845789
-0.3169292 0.1545544 0.0057252934 -0.23626988 -0.12997243 -0.14440867 -0.044293977 -0.13848567
0.04808278 0.17703791 0.019350251 -0.042083472 0.08899613 -0.013595225 0.023267724 -0.13283175
-0.24374963 0.4144916 -0.03203018 -0.347961 -0.29772896 0.18763913 -0.047654513 0.15726346
