models/model_chkpt_180.pt (torch, 319268 bytes, 387 tensors)

tokenizer.token_embedding.weight f4 [17, 32]
00000000: b01f 2cbf 5bbe 16c0 b3af 22bc 486b 363f
00000010: 769c 0440 f2e5 043f 31c7 7e3f 92ba a93f
00000020: 59ca d3bf b470 86bf de7b cebe 39d9 2f3e
00000030: f4ad 6dbf 3753 05bf 8edd 9abe 9127 f6be
00000040: 50e1 97be 4c98 1c3f 9034 00bf 5bdc 06be
00000050: 2e7d c2bf 7761 07c0 c924 463f f1a8 5640
00000060: 7695 77bd a265 223f 1deb 1a3f 0f84 d03f
00000070: ec4f 16bf 94b8 53c0 76a3 403f 8d97 39be
00000080: 2b3c 0fbf 0a17 e8bf 904c c03f 8320 f6be
00000090: 3a27 4140 4a6f 4c3f b294 88bd 9f2e 913f
000000a0: 97c1 b2bf 1dbb 37bf 9be0 9abe a490 b63e
000000b0: 2262 55bf 32bb 0cbf 2603 35bf a65b 0cbf
000000c0: ff11 eb3f 71de 0ebf 144b b03d 6bad 8f3f
000000d0: 9b5b 983f dd93 a93f 0ec4 7b3f 56c8 a43e
000000e0: b280 77bf 186f 833e 39af d53f 1ed8 3b3f
000000f0: fac0 00bf 7b62 dbbf e0d9 a7be 3188 423f
00000100: df97 04bf cc80 233e cd30 49be 5a4d 10be
00000110: ae76 8540 7d21 253e 8502 0340 6fc5 5c3e
00000120: 9a48 99bf 78f9 30be a9f6 1dbf 8676 163f
00000130: c666 9bbe 70fc d9be e091 05bf 46a5 f7be
00000140: 276a ed3f 8058 0240 3242 d4be 39ee 16c0
00000150: 1178 b1bf fed9 1cbf a78b 0abe f625 05c0
00000160: 3ea2 83bf e3c1 973f 01ac a03e 08b1 933f
00000170: a384 1c3f 43b5 7bbe 0048 2bbf c693 fbbd
00000180: c788 76bf e53d f23f ec61 5b3e cc0a 4abf
00000190: 47a1 823d 5e05 11bf 0677 f23f a207 953f
000001a0: 9f1e b7bf 9c2c 5b3f 1a9f 97bf d6f6 443f
000001b0: e07d d4bd cd18 37bf 9b8b 90be e0dd aabe
000001c0: d320 483f 85a1 063f 14b6 f33f fea0 ffbe
000001d0: bca2 efbe bde8 b23f c24e 893f 3a1d 40c0
000001e0: 3366 c7bf ecd7 243f ba72 6d3e e2ea 963d
000001f0: c947 c53e cd58 733f a5b7 92bf 2a49 113f
00000200: 7004 1abf 3480 18be 4a20 d2bd 72ff 153f
00000210: 96a7 19bf c687 d5bf efb5 2b40 172f 57be
00000220: 52f0 a13b 5a6f 9abe c07e 033f c722 c53f
00000230: 10a6 65be 19de c3bb f9ff bfbf 1a49 22be
00000240: 2766 7e3f 20a1 8e3e e310 f83f 2936 b8bf
00000250: 2dff cdbf 1e61 0c3f 0ed4 843d 5603 a1bf
00000260: caba 7bbf 3436 e53e c11c 5ebf 6046 8fbe
00000270: 85b2 f93e 52ee 1640 4f0f aebf 10ef 0ebf
00000280: 7ecf 343f 29d1 713f 9ffb 0540 a30f af3e
00000290: 6cc7 83c0 46fd 94bf 0b49 353f 257c 5e3f
000002a0: b2aa 62be 7fe5 a93f 13a2 443f e43f a23f
000002b0: 9a58 d3bc 35ef bbbe 5b5f 8abf 9aac 803d
000002c0: 1537 1040 8b5a 503f 30c4 523e c47e 07bf
000002d0: 991a ad3d dde6 a83c bf1a 263f f999 09be
000002e0: 7e6b 283e a0b3 42bf d636 12bf c17f 5cbe
000002f0: f623 f0be e4b0 a33f cfa5 9fbf 633e 40bf
00000300: 3e43 04bf 0d37 d0bf a088 fb3e b1dd ef3e
00000310: 1003 d1bf d61b e7bf 2b39 a43d a88e 91bd
00000320: 0a61 4cbe 4995 913f 352d 423f cde1 ac3f
00000330: ab65 f5bd 71e5 9cbe 8974 95bf a152 653d
00000340: 9192 983f 1eb6 e83e 9a26 f2bf d53b 083e
00000350: e81f 013f 87d3 473e a64a dabe a94f 4340
00000360: b61c 9cbf ca43 f73e a443 fdbe a88e 70bf
00000370: 6fdc ba3e 6a1b 3240 5069 babf fe55 cdbe
00000380: 6c41 6dbf 91d9 a13e 8623 4240 2499 753f
00000390: c503 163f 4878 63c0 b99a 66c0 78c0 e3be
000003a0: 5f0b 4a3d 0e88 1640 1032 973f ea60 a53f
000003b0: 2457 ae3d 1f3f e7be e506 66bf f0b0 543e
000003c0: b2ce 503f 7d78 a93e b9da e8bf edb0 523f
000003d0: 5741 0040 5486 a83f 040e 353e ddd0 9a3f
000003e0: a3b2 013e 55cc 93be 7658 79bf 62ea 2d3f
000003f0: 045c 13be 3291 723f c4b2 b3bf 8c21 dabe
-0.6723585 -2.3553684 -0.009929585 0.7125745 2.0720496 0.5191337 0.9952269 1.3260062
-1.6546127 -1.0503144 -0.40328878 0.17172708 -0.92843556 -0.520801 -0.30247158 -0.48077062
-0.29664087 0.61169887 -0.50080204 -0.13169996 -1.5194452 -2.1153238 0.7739988 3.3540614
-0.06044527 0.6343633 0.60515004 1.6290301 -0.587157 -3.3081408 0.7524942 -0.18124218
-0.55951184 -1.8132031 1.5023365 -0.4807168 3.0180192 0.79857314 -0.066689864 1.1342353
-1.3965329 -0.7176989 -0.30249485 0.35657227 -0.83352864 -0.5497314 -0.7070793 -0.54827344
1.8364867 -0.5580817 0.0860807 1.1224798 1.1902956 1.3248249 0.9834603 0.32184094
-0.9668075 0.25670695 1.6694099 0.73376644 -0.5029446 -1.7139429 -0.32783413 0.7598906
-0.51794237 0.15967101 -0.19647522 -0.14092007 4.1707373 0.16126056 2.0470288 0.2155969
-1.1975281 -0.17282665 -0.617045 0.587746 -0.30351847 -0.42575407 -0.5217571 -0.4836828
1.854802 2.0366516 -0.41456753 -2.35829 -1.3864766 -0.6127013 -0.13529836 -2.080442
-1.0283887 1.1856045 0.3138123 1.1538401 0.6113989 -0.24580865 -0.6690674 -0.12284045
-0.96302456 1.8925139 0.21424073 -0.78922725 0.063784175 -0.56648815 1.8942573 1.1642954
-1.430622 0.85614944 -1.1845429 0.7693914 -0.10375571 -0.7152222 -0.2823151 -0.33372402
0.78175086 0.5259021 1.9039941 -0.49927515 -0.46803844 1.3977276 1.072716 -3.0017838
-1.5578064 0.6439197 0.23188296 0.07369019 0.3853133 0.95057374 -1.1462294 0.56752264
-0.6016302 -0.14892656 -0.10260065 0.58592904 -0.6002134 -1.668206 2.6829793 -0.21014057
0.0049419785 -0.3016308 0.5136528 1.5401238 -0.22426629 -0.005977404 -1.4999992 -0.15848199
0.9937462 0.27857304 1.9380153 -1.4391528 -1.6093498 0.5483569 0.06485759 -1.2579143
-0.9833189 0.44767916 -0.86762625 -0.2798338 0.48769012 2.358296 -1.3598422 -0.5583353
0.7062911 0.9445978 2.0934827 0.34191617 -4.1180935 -1.1639793 0.7081458 0.8690818
-0.22135428 1.3273162 0.76809806 1.2675748 -0.025799084 -0.36705938 -1.081035 0.06282921
2.253362 0.8138816 0.20582652 -0.52927804 0.08452339 0.020617897 0.6488456 -0.13437642
0.16447255 -0.76055336 -0.57114923 -0.21533109 -0.46902436 1.2788358 -1.2472476 -0.75095195
-0.51665103 -1.62668 0.49127674 0.46848825 -1.632906 -1.805537 0.080187164 -0.07107288
-0.19958892 1.1373683 0.7585023 1.3506409 -0.11982282 -0.306438 -1.1676189 0.055987004
1.1919729 0.45451444 -1.891803 0.13304074 0.5043931 0.19514285 -0.42635077 3.051737
-1.2196262 0.48293906 -0.49465668 -0.93967676 0.36496302 2.7829232 -1.4563389 -0.4010467
-0.9267795 0.31611302 3.0334182 0.959368 0.585995 -3.5542164 -3.6031935 -0.4448278
0.04932725 2.352054 1.1812153 1.2920201 0.085127145 -0.45165345 -0.8985427 0.20770621
0.8156539 0.33099738 -1.8191749 0.8230122 2.003988 1.3165994 0.17681128 1.209499
0.12665801 -0.2886683 -0.97400606 0.67935765 -0.1439057 0.947528 -1.403893 -0.4260372

tokenizer.positional_embedding.weight f4 [9, 32]
00000000: 0f22 c33e 4c79 183e 0084 b1be 5524 973e
00000010: fd76 873e 84ea ec3f 02b4 a2bd 1813 d4be
00000020: c10e 17bf 2e35 7e3f d0cc 1040 5d11 9abf
00000030: fc5d 8bbf 76b7 adbf 16e3 bd3e d7fb 92be
00000040: 5fc5 693e a5d5 26bf 26f2 963e 1f3f 933f
00000050: fc56 99be 1339 c9be b92c c43e f422 de3d
00000060: f3b0 42bf a8df 143f 5389 0540 42d7 c0be
00000070: 7306 a9be 14bb 81be 0d79 51bf 2c5c 52c0
00000080: 9871 453f 4cc9 5c3f 01e3 d93e af4b e0bd
00000090: 1cb8 6c3f ca9a a93d 015c e13d a966 6bbc
000000a0: 3a3e eb3f 2f7d 153f 3fa5 83bf f6f0 40be
000000b0: 0a47 d3be c21b 643e ef50 753f 4175 5abf
000000c0: 588c 57bd ce86 35bf 5cc6 473f c58f b4bf
000000d0: e30d 573f 5f0e ff3d fbe1 373f cc6c 273f
000000e0: bc8e 343f 25b1 10bf 5f6c 8e3f d030 08c0
000000f0: 1efd 263f 29c4 073f 8ed3 0840 76e7 84bf
00000100: ce56 943d 3950 733f 0995 96bc 7c72 edbe
00000110: 5428 83bd 60ca 9cbe 5019 683d dab2 553f
00000120: 0210 6b3f 42ee bc3e 6368 e3bf ce01 e3bf
00000130: 40ab da3f b3c7 a8be c80e 09c0 2b14 803f
00000140: 6163 143f 0e19 333f 8dce 27be f48f 2fbf
00000150: bc51 c93f 85a0 99bf 40b5 2cbf 2cea 91be
00000160: df4e 203e 63ce 02bf 0bac 68be 6d9f adbf
00000170: df35 26be ae6b 06bf ba85 9d3f d858 9fbf
00000180: 4e22 6ebf f126 aabf 2fc8 abbf a62f 58bf
00000190: a857 abbe d708 8abf 3e09 e63d 16e5 10bf
000001a0: 4561 96bf b3c3 db3e 7966 563d 85df c2bf
000001b0: f410 c73f cdb3 3dbf 58c3 e4bf 5dfd 183f
000001c0: 4d0e aabe 5932 81bf d74d 50bf b864 16c0
000001d0: 945c b63f 5355 033f 7e7b 833e 171a 80bf
000001e0: 07c0 bf3f 5d43 f33f 2170 043f d105 3fbf
000001f0: 0a22 4d3f d5b1 e6be 287b c6bf d720 3dbf
00000200: 1bcd 953f d00c 28bf 31b5 4a3f 051d d2bf
00000210: 1ab0 5bbe 5e39 edbf 551b 0f3f 937c d13e
00000220: 81b9 4fbf 8725 603f 6931 2a40 8ca1 1c3e
00000230: 95a3 10bf 0fad c53d 5c73 4d3d 3ba2 babe
00000240: 258a e33d 4d97 b7bf 481e 6a3f b886 d33d
00000250: a074 353e de12 823f 0633 68bf fa78 96be
00000260: 6ebb 363f 855f dd3e e18c 8f3d a15a 1dbd
00000270: 1d73 c93f fe50 083f 2621 943f dd60 863f
00000280: 6ea9 d0be e690 aabf 43fa f93f b0bc d0bf
00000290: ce5d 3a3c 4cd3 603f 3db3 053f cfd2 79bf
000002a0: 8b4e 15bf 9c20 febe 6069 43be e07c 083f
000002b0: a20a f0be 8b4e ad3f ec63 6f3e b1bf c3bf
000002c0: c3b8 c9bf 6712 923f 8a52 673e cf66 2a3f
000002d0: 8b5e 36bf 2c83 2d40 334a 153f f48e 0e3f
000002e0: 0d70 9fbe f703 113f c256 26c0 57b0 543e
000002f0: eb9e 38bf 14fa 8bbe 4836 8dbf 368d 4d3f
00000300: 3606 3abf 4233 9a3e 389b 5cbe 16a4 923d
00000310: fd96 113e 7a7c 18bf 537c c8bf a6ab aabe
00000320: 45e0 ec3e 1309 babf cbf1 8abf 8c4f 793e
00000330: 8ccc ecbf 2c2c 9f3f 785f 9ebe 557d 9e3f
00000340: e05e 583f 759c 44be ad07 f3bf 6ef6 fd3e
00000350: 7163 98bf 85cc 463f 66a8 a03f d96d 7fbf
00000360: e6dd 17bf 339d bb3d 2a73 293e 0778 db3f
00000370: 7124 c4be 10d9 373f db52 973f 2f54 7d3e
00000380: 9732 b9bf e306 1e3f 1e5c b4bf 6873 d93e
00000390: 6671 debd d8ae 0d3e 17a8 a1be 697f 763f
000003a0: ffb4 813f 2947 eabf b869 69bf 6a3e bb3f
000003b0: 2bc1 1fbf 5ab0 a3bf dc1b c83e 9491 0440
000003c0: 6be7 8f3f f65d c13e c7a4 45be 4231 a0bf
000003d0: 71ef 0abe 4f24 1e3f 728d 91bf ff3f 08bf
000003e0: 58bc 503f 0d07 03c0 ddfa 88bd 6e06 35bf
000003f0: 985f e9bf 1d12 8bbf b764 34bf c831 d13f
0.38111922 0.14890021 -0.3467102 0.29519907 0.26457968 1.8509068 -0.0794449 -0.41420817
-0.5900689 0.99299896 2.2625008 -1.2036549 -1.0888057 -1.3571613 0.37087315 -0.28707764
0.22829197 -0.65169746 0.2948162 1.1503638 -0.29949176 -0.39301357 0.3831537 0.108465105
-0.76051253 0.5815377 2.0865066 -0.3766423 -0.33012733 -0.25338042 -0.81825334 -3.2868757
0.77126455 0.86244655 0.42556003 -0.109519355 0.9246843 0.08281477 0.110038765 -0.014367738
1.8378365 0.5839414 -1.0284804 -0.1884192 -0.41265136 0.22276214 0.9582662 -0.85335165
-0.052624077 -0.7090882 0.7803705 -1.4106375 0.84005564 0.12453913 0.71829194 0.65400386
0.70530295 -0.565203 1.1126822 -2.1279793 0.65229976 0.5303369 2.1379123 -1.0383136
0.07243119 0.95044285 -0.018381612 -0.46376407 -0.06404176 -0.3062315 0.056664765 0.8347603
0.918213 0.36900526 -1.7766231 -1.7734926 1.7083511 -0.32964858 -2.1415272 1.0006155
0.5796414 0.69960105 -0.16387387 -0.6857903 1.5728068 -1.2002112 -0.67464066 -0.2849897
0.15655087 -0.5109617 -0.22721879 -1.3564278 -0.16231488 -0.52508056 1.2306435 -1.2448988
-0.93021095 -1.3293134 -1.3420466 -0.84447706 -0.33465314 -1.0783948 0.112322316 -0.5659956
-1.1748434 0.42922744 0.05234382 -1.5224463 1.5552049 -0.7410248 -1.7872114 0.597616
-0.33214036 -1.009349 -0.81368774 -2.3498974 1.4247003 0.5130207 0.25680155 -1.0007962
1.4980477 1.9004933 0.51733595 -0.7461825 0.80130064 -0.4505755 -1.5506334 -0.73878235
1.1703218 -0.6564455 0.79182726 -1.6415106 -0.21453896 -1.8533132 0.5590108 0.40915355
-0.8114243 0.8755726 2.6592658 0.15296 -0.56499606 0.09652149 0.050158843 -0.36451897
0.11110333 -1.4343048 0.91452456 0.1032843 0.1772027 1.0162008 -0.90702856 -0.29389173
0.71379745 0.43236938 0.070092924 -0.03841651 1.5738255 0.53248584 1.1572616 1.049831
-0.40754265 -1.332547 1.9529499 -1.6307583 0.011374904 0.87822413 0.5222662 -0.97587293
-0.5832297 -0.49634254 -0.19083166 0.53315544 -0.46883112 1.3539594 0.23377961 -1.5292875
-1.575951 1.1411866 0.2259008 0.66563123 -0.7123801 2.711131 0.58316344 0.5568688
-0.31140175 0.56646675 -2.5990453 0.20770393 -0.7211749 -0.27339232 -1.103219 0.80293596
-0.7266573 0.30117232 -0.21543586 0.07160203 0.14217754 -0.59564936 -1.5662941 -0.33334082
0.46264854 -1.4534019 -1.0855039 0.24346751 -1.8499923 1.2435355 -0.30932212 1.2381998
0.8451977 -0.19200309 -1.8986717 0.49602073 -1.1905347 0.7765582 1.2551391 -0.9977699
-0.59322965 0.09160843 0.16547838 1.7146004 -0.38309053 0.71815586 1.182216 0.24739145
-1.4468564 0.6172926 -1.4090612 0.4247086 -0.10861473 0.13836229 -0.31573555 0.9628816
1.0133361 -1.8302966 -0.9117694 1.4628422 -0.62404126 -1.2788193 0.39083755 2.0713854
1.1242498 0.37767 -0.19301139 -1.2515032 -0.13567902 0.6177415 -1.1371291 -0.5322265
0.8153739 -2.0473053 -0.066884734 -0.70712936 -1.8232298 -1.0864903 -0.7046618 1.6343317

encoder_layer_mhattentions.0.attention_heads.0.Q.weight f4 [8, 8]
00000000: 8e5c ecbb 9d09 083d 6c27 1c3c a6b1 803e
00000010: ae75 933c 262e 2a3e b86d 78bb 03f5 0f3d
00000020: b4e3 16be eb13 33bd 5015 94be 833c a9be
00000030: 0d5b 9e3d 5cdb 82be ffeb 23be 8122 97bd
00000040: 0ebe 90bd 1826 19be 8021 69be 1387 eabd
00000050: d06d 90bd a845 24be 3bb3 7dbd 3422 10bd
00000060: 63a7 8e3d a49e b83d 2f4d 863c 1c58 29be
00000070: 3c87 9c3d 4ca9 c1bd 186d 0ebd e153 86bb
00000080: 810f cd3d 77fd 883d 94b2 35bd 2e7f 83be
00000090: e505 763d 4809 43be 0629 62bd cdab e33d
000000a0: 727a b4bd e62c d4bc 69bf 913e e1cf 9f3e
000000b0: 7c52 d0bd a98d 593e 3af6 493d 067e b3bd
000000c0: 8018 8fbe 2276 083e 9561 0bbd d805 e33d
000000d0: 5532 f9bd 687b dc3e 7da6 56be 1891 b4be
000000e0: 1ec0 edbe 6966 613e 2431 b43c a7bc 103f
000000f0: 4a24 253d 6fec 063f f841 903c b4ab 24bf
-0.007213182 0.033212293 0.009530883 0.25135535 0.01800045 0.16619167 -0.0037907194 0.03514577
-0.147353 -0.043720167 -0.2892251 -0.3305398 0.0773221 -0.25557983 -0.16007994 -0.07379628
-0.070675 -0.14955938 -0.22766685 -0.114515446 -0.07052195 -0.16042197 -0.061938506 -0.03518887
0.0696552 0.09014633 0.016394226 -0.16537517 0.076429814 -0.09456119 -0.03477201 -0.0040993546
0.10012723 0.066889696 -0.04435976 -0.25682968 0.060064215 -0.1904651 -0.055214904 0.11116753
-0.08812417 -0.025900315 0.28466347 0.31213287 -0.10171983 0.21245445 0.049307086 -0.087642714
-0.2794838 0.13326314 -0.03402861 0.11085099 -0.12167803 0.43062901 -0.20961948 -0.35266948
-0.46435636 0.22011723 0.021996088 0.5653786 0.04031781 0.5270452 0.017609581 -0.643245

encoder_layer_mhattentions.0.attention_heads.0.Q.bias f4 [8]
00000000: 1fcf 22bc 329f 51bf 5d7a 3a3d 74bf 453d
00000010: 6069 633e 176c 9dbe 57e0 b53f a922 2c3f
-0.009937077 -0.8188354 0.04552685 0.048278287 0.22208166 -0.30746529 1.4209088 0.6724039

encoder_layer_mhattentions.0.attention_heads.0.K.weight f4 [8, 8]
00000000: cfcb 813e 3a94 92bb 8c03 56be b189 293e
00000010: d31e 2a3e 0ac0 aebd f1c0 793d da19 983b
00000020: 20de e6be 0248 d43c c294 79bd 6e13 b83e
00000030: 2f7c 3e3e 644c 84bd 3b73 24be 26c0 ba3e
00000040: dcb4 91be 438e b53c e115 7dbc fbf6 17be
00000050: 1d63 133d a411 423d d326 8cbd c045 aa3c
00000060: 8990 963c 73aa afbc 1bbd dabc 3437 293d
00000070: 7dcd 54be 37d8 b03d 8964 6cbd a29a f8bd
00000080: 0c32 c3bd 6b8d 8a3c 79ef 9f3b 7c91 4abd
00000090: a81e 76be 9c7b 6e3e c25f c13d 8cf9 1dbe
000000a0: db34 053e 4efa 1dbc 8fc1 0ebd 9c90 083e
000000b0: 4cdf 5c3e b7be d4be 1e7f 01be 02d1 0cbe
000000c0: d043 c33e da65 883d c787 13bf 816d b7be
000000d0: fb0f b1bd 0d97 263d ebd4 7cbe 2d53 d6bd
000000e0: bd16 153f cd54 853a a4d0 2dbf 86ec 823e
000000f0: 33ef 323d 863f 7ebe aad3 4ebe 0b81 873e
0.25350806 -0.0044732364 -0.2089979 0.16556431 0.16613321 -0.08532722 0.06097502 0.0046417536
-0.45091343 0.025913242 -0.060932882 0.35952324 0.1860206 -0.06459883 -0.16059582 0.36474723
-0.28458297 0.022162562 -0.015447111 -0.1484031 0.035983194 0.047380105 -0.06843343 0.020785213
0.018379467 -0.021443581 -0.0267015 0.04131241 -0.20781513 0.0863499 -0.057713065 -0.12138869
-0.0953103 0.016913136 0.0048808423 -0.04945515 -0.24035132 0.2328934 0.094420925 -0.15427226
0.13008444 -0.009642197 -0.03485256 0.13336414 0.21569556 -0.41551754 -0.12646148 -0.13751605
0.38137674 0.06660052 -0.57629055 -0.35825732 -0.08645626 0.040671397 -0.24690597 -0.10465083
0.5823782 0.0010172367 -0.67896485 0.25571078 0.04368515 -0.2482892 -0.20197931 0.2646564

encoder_layer_mhattentions.0.attention_heads.0.K.bias f4 [8]
00000000: 8402 8d3d c539 503e fdc4 6d3c e179 8fbd
00000010: 75c4 13be b2b3 16be 3967 0d3d efd8 e6bd
0.068852454 0.20334537 0.014512298 -0.070056684 -0.14430411 -0.14716986 0.03452227 -0.112718455

encoder_layer_mhattentions.0.attention_heads.0.V.weight f4 [8, 8]
00000000: cd1c ec3e 1563 b13e 8b3c 27be 7a8a 123c
00000010: 8c35 d4bd bacc 79bc 5736 5cbe bf16 1fbf
00000020: 249b 273b c63f 643e cf4a 02be c53e 91be
00000030: 373b e83d 6830 e93e a17e 1e3d 6358 7cbe
00000040: 8530 ac3e 0ad4 ba3d 646f 1b3e 67b2 9bbd
00000050: 47c6 323e 059b 8b3e 4388 2abe 0e3f 0dbd
00000060: 14c4 7cbe b9bf 96bd 8d83 363e eed3 d73d
00000070: 1a86 9abd 9d16 92be 5598 a83d aa17 053f
00000080: 68cc 603e 7bfa c3bd 5a16 aabe 2d11 8abe
00000090: a740 36be be12 ca3d 00e9 74be 9df5 b83e
000000a0: de43 8cbe 7926 74be 016b 34bd 2384 c93e
000000b0: 7814 0bbe 7aae 933e 0112 3b3e 4c46 4b3e
000000c0: 2c97 ab3d 3c36 b23d 9332 fa3d ad7f 9ebc
000000d0: 571f 9e3c 5c34 233d c88f 60bd b165 143e
000000e0: e953 65be 5ebf fabc dbea bfbd d126 3e3e
000000f0: 4014 5ebe f294 0f3e 5e6b 39be 2567 d43e
0.46115723 0.34645906 -0.16331689 0.008944148 -0.10361776 -0.0152465645 -0.21505104 -0.6214408
0.0025574649 0.22289953 -0.1272385 -0.28368202 0.11339419 0.45544744 0.03869498 -0.24643092
0.33630767 0.091224745 0.15179211 -0.07602387 0.1745845 0.27266708 -0.16653542 -0.03448396
-0.24684173 -0.07360787 0.1782362 0.10538469 -0.07545109 -0.28532878 0.0823218 0.51989233
0.21952975 -0.0956926 -0.33220178 -0.2696623 -0.177981 0.09866856 -0.23917007 0.36124888
-0.2739553 -0.23842801 -0.04404736 0.39358625 -0.13582027 0.28844053 0.18268587 0.19851035
0.08378443 0.08701751 0.122166775 -0.01934799 0.019302053 0.039844856 -0.05482462 0.14491917
-0.2239529 -0.03060883 -0.09370967 0.18569495 -0.21687412 0.14021662 -0.18107364 0.41484943

encoder_layer_mhattentions.0.attention_heads.0.V.bias f4 [8]
00000000: 2eb5 80be 6fe6 aabe 7146 b3bd 59d6 b53e
00000010: 8aec 91bd 1a06 873e e45b 253d f387 213e
-0.2513823 -0.33378932 -0.0875367 0.35515097 -0.07125194 0.26371843 0.040370837 0.15774517

encoder_layer_mhattentions.0.attention_heads.1.Q.weight f4 [8, 8]
00000000: ddf9 27be e0da c9ba 031e 96bd ecea b93c
00000010: 3b91 90bd 17f7 bebd b7e0 443c 21b2 57bd
00000020: 7e7d 2fbd ab4f e23d d417 afbc 37d3 c73e
00000030: a06d 26bf 1d0d 933f efd1 1ebd dda1 92bf
00000040: caea b4be 0874 4cbe aed0 e73e 596f 78be
00000050: 8887 413f 8a6d 093f 5bc6 b1bb e664 aabe
00000060: 7e93 2d3f efec 623c 095d 71bc 3df7 40be
00000070: 7f7a 303e 240f 75bf c6c8 5c3f ebeb 8dbe
00000080: 3daa 8c3f 19f3 efbe 45fc fdbe 4de6 b63e
00000090: 02cb 5f3d d52a 7c3e 3210 1e3f 29a2 3a3f
000000a0: 88e7 37bd 5936 2fbd 4589 ee3b 3ff5 09be
000000b0: dd27 c3bd e9aa d33e 6822 91be e4ae 3f3d
000000c0: 6c29 32bf 36e5 e6bd 81f8 503f 7a5a c33e
000000d0: 9f9e cdbe 762b 8cbd cf22 b23d 77d3 cd3e
000000e0: fa4c 163c 1314 f83d 21fd 1abe 9fb6 7e3e
000000f0: 3f00 603e d230 b83c c429 db3d 393f 2b3e
-0.16403909 -0.0015400313 -0.07329943 0.022695027 -0.070589505 -0.093244724 0.012016467 -0.05266011
-0.042844288 0.11050352 -0.021373667 0.39028332 -0.65011024 1.1488377 -0.038774427 -1.1455647
-0.3533538 -0.19966137 0.45276397 -0.24261226 0.7559743 0.5368277 -0.005425257 -0.33280104
0.6780318 0.013850435 -0.014731654 -0.18844314 0.17234229 -0.9572623 0.86243856 -0.27719054
1.0989453 -0.46865156 -0.4960653 0.3572258 0.054636963 0.24625714 0.6174346 0.72903687
-0.04489854 -0.04277644 0.0072795474 -0.1347246 -0.09529088 0.41341332 -0.28346562 0.046797648
-0.69594455 -0.11274187 0.81629187 0.38154966 -0.4016008 -0.06844227 0.086980455 0.40200397
0.009173626 0.12113204 -0.15135624 0.24874352 0.21875094 0.022484217 0.107013255 0.16723336

encoder_layer_mhattentions.0.attention_heads.1.Q.bias f4 [8]
00000000: 20e1 87bb 92f0 86bd cbfc bc3c 6cdf 33be
00000010: 8ca7 37bd 5fd5 8cbd 465c b83d 450f 2cbe
-0.00414671 -0.06588854 0.02306976 -0.17565697 -0.04483752 -0.06876635 0.09001975 -0.168027

encoder_layer_mhattentions.0.attention_heads.1.K.weight f4 [8, 8]
00000000: e8d1 c4bd 80e9 67bc 5961 9dbd 78a7 a6bc
00000010: 816d 183c 0eb4 233c 85a7 0ebe 883c 9e3b
00000020: 8ba3 07be c94a b63d 3e8d 1abf 9538 18be
00000030: 397d 08be 1548 713d d19c 86bf dae6 8c3f
00000040: e92d 82bd 23d9 8c3e 0763 b73d 9acb 11bd
00000050: 73f7 42bf 758f 583f d471 8d3e 4de3 a23c
00000060: bdde c1bc df20 b73e 7f97 3fbe 818b 0fbf
00000070: e0dc 053f 7720 323f 4894 fbbe a1e4 3ebf
00000080: f848 18bf f1cb d3be 6b16 c43e b3cc 6b3e
00000090: a25d 803f 7e81 7e3e 26d7 6d3e e0a7 703e
000000a0: 627a 54bd 70a2 0a3e b8a3 6f3c 56f1 913e
000000b0: 72b1 373e b3c6 96bd 68a0 973e 11d5 cf3e
000000c0: 9e9f d63e ee3b 87be d167 d8be fa57 203f
000000d0: 732b 933a bf0c b33e b200 4d3f 7f86 82be
000000e0: bada 74be 02b6 87be aafc 893d 29fc e9bd
000000f0: 411e c63d 817d d73d aa35 44be dfe5 ae3d
-0.09610349 -0.014154792 -0.07684583 -0.020343527 0.0093034515 0.009991659 -0.13931091 0.004828993
-0.1324598 0.08900983 -0.6037177 -0.14865334 -0.13329019 0.058906633 -1.0516607 1.100795
-0.06356413 0.27509412 0.08954435 -0.03559456 -0.7615883 0.845939 0.27625906 0.019883776
-0.02366578 0.35767266 -0.18710135 -0.5607224 0.52290154 0.6958079 -0.49136567 -0.7456761
-0.5948634 -0.41366532 0.38298354 0.23027305 1.0028574 0.24854085 0.23226604 0.23501539
-0.051874526 0.13538527 0.014626436 0.28504437 0.17938784 -0.073621176 0.29614568 0.40592244
0.41918653 -0.2641291 -0.42266706 0.6263424 0.0011228159 0.34970662 0.80079186 -0.25493237
-0.23911563 -0.26506048 0.06737645 -0.11425049 0.09673739 0.10521985 -0.19161096 0.08539938

encoder_layer_mhattentions.0.attention_heads.1.K.bias f4 [8]
00000000: 0a81 17be 5291 303e b184 88bc 1aaa 833e
00000010: a99c 303e 193f 1ebe ae7f 3abe 0536 f6bd
-0.14795318 0.17242935 -0.016664835 0.25715715 0.17247261 -0.15453757 -0.18212768 -0.12022022

encoder_layer_mhattentions.0.attention_heads.1.V.weight f4 [8, 8]
00000000: b3b7 de3c a8ad b8be c28c 25be a0de 32bf
00000010: e3d6 e1be 525f cfbe 6e43 06be 0fac 93bd
00000020: 672a c3be c548 333d 26d3 eb3d fb71 0f3d
00000030: b896 febc d04b d53d cba3 fabd 19f2 363e
00000040: 9ffb ee3d 5aaa 55be ef79 79be f59c 39be
00000050: 37f1 873e 634e d43e 56a5 d43e a9d2 cd3e
00000060: eb83 0f3e e777 26bd 66c5 a13d a9a4 bb3d
00000070: 4678 99bd 2b6d 963d 7752 093e 510f 073e
00000080: a680 353e 69d4 aabd 80f4 4b3e c99f 1dbf
00000090: c567 5f3e aa5f ce3e 59f2 f63e c305 0c3f
000000a0: 9866 863e 2645 0e3e f69d ec3c bdd1 d43c
000000b0: a0f3 05be 217d 083e 9603 23be ffc8 aebc
000000c0: 23dc a5bd c13b efbe 264d 493d 2b0c c7bd
000000d0: 5712 fe3d 50d6 883e 0a28 793e fe48 a2bc
000000e0: 5735 a8be 982b 163e 11ac d6bd f6f6 d0bd
000000f0: 6616 edbc 25d8 da3e 28b0 81be c8f3 a7be
0.027187204 -0.3606999 -0.16166976 -0.6987095 -0.44109258 -0.4050241 -0.1311166 -0.07210552
-0.38118288 0.04377057 0.11514883 0.03502081 -0.031077728 0.10414851 -0.12238272 0.1786579
0.11669087 -0.20865765 -0.2436292 -0.1812628 0.2655122 0.41466054 0.4153239 0.40199783
0.14015166 -0.04064169 0.07898979 0.09162266 -0.074936435 0.07345041 0.13410364 0.13189436
0.17724857 -0.08341295 0.19917488 -0.6157194 0.21816929 0.4030736 0.48231772 0.5469629
0.26250148 0.13893566 0.028883915 0.025978917 -0.13081217 0.13328983 -0.15919337 -0.021336077
-0.08098628 -0.46725276 0.04914584 -0.09719118 0.12405842 0.26726007 0.2433168 -0.019810196
-0.32853195 0.14665067 -0.10482038 -0.10203354 -0.028941344 0.4274303 -0.2532971 -0.32803178

encoder_layer_mhattentions.0.attention_heads.1.V.bias f4 [8]
00000000: 7ece 5d3e ede2 7bbd 9ec2 0bbf 204d b4bc
00000010: 1e75 11bf 7c39 cfbd fc5d f4be 2b2c 173d
0.21660802 -0.06149571 -0.5459384 -0.022009432 -0.5681933 -0.10118386 -0.47727954 0.036907356

encoder_layer_mhattentions.0.attention_heads.2.Q.weight f4 [8, 8]
00000000: f2e7 8cbd d3bc 29bf 3eab e93c 9dc4 a6be
00000010: 8b1b 8d3e d0c3 a93d 3cc3 bd3e b201 b13c
00000020: 9461 873d 115d a83e 8866 ee3e d779 07be
00000030: 00b4 03be ccc0 c8ba 4b21 2ebe f62a 223e
00000040: 4f81 8ebe 2583 773f 1952 bbbd 6a6b 7dbd
00000050: a6f5 93be 30e1 f03e a898 b83e f691 c63c
00000060: 3630 47be 8377 8e3d a4cf e93e 1a10 d2be
00000070: 9d30 cf3e 5873 ed3d 67f7 babe 07c8 773e
00000080: a9f6 803e 66cf fbbe fa7a 0dbe d1d2 863f
00000090: 6298 49be dca6 68bf 0799 78bf b6cb 0cbf
000000a0: c519 30bc 7751 263d d8ad b4bc d162 9d3d
000000b0: d340 543d 250d 8e3d e3b4 42be e63e 06bd
000000c0: eb41 b1bd 3038 633f 4c59 e23e 5693 883f
000000d0: 6f0e 013e 0ef8 81be d6fd 94bf 07ee 90bd
000000e0: 0268 85bd f15d 91bd 59be b6be cc98 abbe
000000f0: 545a 5abe f261 c43e 752e 023e c3ce ef3d
-0.068801776 -0.6630375 0.028524037 -0.3257188 0.27560076 0.082893014 0.37063015 0.021607254
0.066104084 0.32883504 0.465626 -0.13230072 -0.12861633 -0.0015316247 -0.17004888 0.15836701
-0.2783303 0.96684486 -0.09146518 -0.061870016 -0.28898352 0.47046804 0.36053967 0.024239521
-0.19451985 0.06956389 0.4566623 -0.4102791 0.40466776 0.11594266 -0.36516878 0.24197398
0.25188187 -0.4918167 -0.13816443 1.0533086 -0.19687036 -0.9087961 -0.971085 -0.5499834
-0.010748331 0.040605035 -0.022055551 0.07684863 0.051819634 0.06936101 -0.19014315 -0.03277483
-0.08655151 0.8875761 0.44208753 1.0669963 0.12603162 -0.25384563 -1.1639965 -0.0707665
-0.065139785 -0.07097996 -0.356921 -0.33515012 -0.2132352 0.38355976 0.12713034 0.117093585

encoder_layer_mhattentions.0.attention_heads.2.Q.bias f4 [8]
00000000: e0db a13c a284 223e 6507 3e3e ced3 97be
00000010: a269 2fbe 9774 273e a56f 64bf fbd7 8a3f
0.019758165 0.15870908 0.18557508 -0.29653782 -0.1713014 0.16353069 -0.89232856 1.0847162

encoder_layer_mhattentions.0.attention_heads.2.K.weight f4 [8, 8]
00000000: 10a7 d1bd fef1 1b3e a261 bfbe ce05 883e
00000010: 8bba e5bd 8edd c7be 6ce9 023d be1b 9cbe
00000020: 8cf8 f43e cc62 edbe c9e1 173e c6dc 26be
00000030: abd0 af3d 5e48 f63d 1fb6 e9bd aa9b c73c
00000040: 9e8b d9be dc8b ebbe 50fc d63e 6b65 31be
00000050: bf18 ee3e 0e2b f13d 482d 2abe 6d04 51be
00000060: e7f8 6c3e e3e4 1dbf 8e9d c4be 507d fc3e
00000070: e751 283e 6501 89be 929a 1f3d 50ae 4fbe
00000080: 08ee d33e f24d 863f 8d1c a4bd 09ed 6a3d
00000090: 3dc1 dabe e3ed 013f 92b8 da3e 61ab a43e
000000a0: d69a b23d 7301 2abd e016 093d 628e 283d
000000b0: 823a b93c 6929 29bd d3c3 9cbd 72cb 07bb
000000c0: 1ae6 773f 8654 303f 41cf 1e3d 6ed0 bebb
000000d0: 779a 733e 8913 023f 1fec 453f d933 053d
000000e0: b332 06bf 5f14 fcbe 8490 803e 0c90 ac3d
000000f0: ba5d 2f3e bc4c e9bc 4e01 6cbf 477d 823b
-0.10236943 0.15229031 -0.37379175 0.2656693 -0.11217221 -0.3903622 0.03196089 -0.30489916
0.47845876 -0.4636444 0.14832224 -0.16295156 0.08584722 0.12025522 -0.1141169 0.024366219
-0.42489332 -0.46005142 0.41989374 -0.17323844 0.46503255 0.1177579 -0.16618836 -0.20411845
0.23141824 -0.6167738 -0.38401455 0.49314356 0.16437493 -0.26758876 0.03896577 -0.20281339
0.4139254 1.0492537 -0.08013258 0.05735496 -0.42725554 0.5075361 0.4271894 0.32162002
0.08720939 -0.04150529 0.03346908 0.04115141 0.022610907 -0.041299257 -0.07654538 -0.0020720628
0.9683548 0.6887897 0.03877187 -0.0058231866 0.23789392 0.5081106 0.7731342 0.03252015
-0.5242111 -0.49234292 0.25110257 0.08425912 0.17125598 -0.028478973 -0.9218949 0.0039822194

encoder_layer_mhattentions.0.attention_heads.2.K.bias f4 [8]
00000000: 165d bc3e 71b5 a43d 2e17 b9be d2cb 00be
00000010: 70d5 e03c 32dc a5be 82e5 b83e 8d1f 91bc
0.3678977 0.0804242 -0.36150497 -0.12577751 0.027445525 -0.32394558 0.361126 -0.01771524

encoder_layer_mhattentions.0.attention_heads.2.V.weight f4 [8, 8]
00000000: 43ca 87bc 3709 ba3e 8da4 983d 5a7d d83e
00000010: 3ad8 33be 5208 3b3e b0a4 95be d5bb 2b3d
00000020: aedd d5bd 3f7e ebbd 586a 67be 3c56 07bf
00000030: b99d ef3b 492c 343e 2aa5 303e 739c f0bb
00000040: 7afd 1dbc e47e b2bd 6a46 dbbd eaca 34bc
00000050: bab8 bc3c f5b5 a2bd 3b70 b0bd 9465 6a3c
00000060: 40ee a1bd 8b89 783d 43c7 d3bd 0abd b03c
00000070: 88f9 053e af87 8f3d 64a9 d83e 4e3e 373d
00000080: 6577 c03b 8d5d a3bd 6ab1 f83c 7e74 213e
00000090: 0250 9bbd 5cea 79bd 62f5 9f3d 3812 b7bd
000000a0: 3259 f13b 4af6 c5bd 4bdb eabd 235d d93e
000000b0: 0e7e 97be 8116 9abd 6105 b63e 1f2a 74be
000000c0: d0b6 04bc 6bd8 803e 944f e4bd 9d60 3c3e
000000d0: 2103 583e 4ea4 28be 87a2 25be e1e8 00be
000000e0: a3ca e03d 2067 06be 11da 60bd 6fbb a1bd
000000f0: fff9 8a3c 7598 873b 6d41 1fbe 3ba5 203e
-0.016575938 0.36335155 0.074532606 0.42283136 -0.17562953 0.18264893 -0.2922721 0.041927177
-0.10442673 -0.11498689 -0.2259916 -0.5286596 0.007312503 0.17595018 0.17250505 -0.007342869
-0.009642953 -0.08715609 -0.1070679 -0.011034707 0.023037303 -0.07944862 -0.08615156 0.014306445
-0.07906771 0.060678046 -0.103407405 0.021574516 0.1308347 0.070083015 0.42316735 0.044737153
0.005873608 -0.07976828 0.030358035 0.15767094 -0.0758362 -0.06101452 0.07810475 -0.08939022
0.0073653692 -0.096661165 -0.11467608 0.4245387 -0.2958836 -0.075238235 0.3555098 -0.23844193
-0.0081002265 0.25165114 -0.11147991 0.1839623 0.21094944 -0.16468927 -0.1617528 -0.12588836
0.1097615 -0.13125277 -0.054895464 -0.07897078 0.01696491 0.0041380473 -0.15552302 0.1568803

encoder_layer_mhattentions.0.attention_heads.2.V.bias f4 [8]
00000000: c97c c73e 5e9b a3be 9358 2cbe 8878 c3bc
00000010: 69df bcbd 67b2 de3e 58c6 2bbd 811f c93d
0.3896239 -0.31954473 -0.16830663 -0.023861185 -0.092222996 0.43495485 -0.041937202 0.09820462

encoder_layer_mhattentions.0.attention_heads.3.Q.weight f4 [8, 8]
00000000: 2b61 d63e ec7b 9fbd fbdc 16bf e5ff 15bf
00000010: a13d 343f 906f cebe ec0c e33d 2a04 5c3f
00000020: aa29 40be 07f7 94bd af1c 0cbe 4a62 683e
00000030: 816b 1bbe 4dc0 373e ef71 c2bd 6586 513e
00000040: c160 21be 72b6 71bd d0b2 84be 1558 5e3e
00000050: 1097 febd fa9a 8d3d 81a1 c53d ab26 fdbe
00000060: 8fdb 3b3c c643 463e 9ac4 013b ef06 153d
00000070: b35b babd 3bb9 013d fb6e 0ebe 211f 173d
00000080: 70cf 3e3e fc69 afbd e8b6 b13e 9837 86be
00000090: 9f8a c43e fe7b afbc 52e7 b4be 050b a7be
000000a0: 8b89 573e 34f2 fe3e 7acc 15be 78c4 313e
000000b0: 97b5 ccbe 1795 3a3e cb41 be3c 6527 5a3e
000000c0: 89d1 d4be fbc4 edbe 0b4f a1bd be0b a6be
000000d0: ebd6 c43e 1933 01bf 568e 59be 3b80 133d
000000e0: e7c8 d83e 1621 083e 40dd c63e 3c80 c7be
000000f0: ba1d b93e ce0e cabd 3806 cebe c932 9bbe
0.41871008 -0.07787308 -0.5893094 -0.5859359 0.7040654 -0.4031949 0.11086449 0.85943854
-0.18765894 -0.07273679 -0.13682817 0.22693744 -0.15177728 0.1794445 -0.09494387 0.20461424
-0.15759565 -0.059011884 -0.25917673 0.21713288 -0.12431157 0.06914325 0.09649945 -0.49443564
0.011465921 0.19361791 0.0019801022 0.036383566 -0.090995215 0.03167079 -0.13909523 0.03689492
0.18633819 -0.08565137 0.3470986 -0.2621429 0.3838701 -0.021421429 -0.35332733 -0.32625595
0.21048562 0.4979416 -0.14628783 0.17360103 -0.39982292 0.18220936 0.023224732 0.2130409
-0.41566113 -0.46439347 -0.078764044 -0.32430834 0.3844522 -0.50468594 -0.21245703 0.036010962
0.42340776 0.13293871 0.38840675 -0.38965023 0.36155492 -0.09866105 -0.4023912 -0.30312183

encoder_layer_mhattentions.0.attention_heads.3.Q.bias f4 [8]
00000000: 75bd 13bf 44a8 7dbc 217f 553e 8de0 6ebe
00000010: 6495 c73d 0014 0c3f 6234 eabe dd65 143f
-0.57710963 -0.015482012 0.20849277 -0.23327847 0.09745291 0.5471802 -0.4574309 0.5796793

encoder_layer_mhattentions.0.attention_heads.3.K.weight f4 [8, 8]
00000000: 492a ecbe 038f 413f 3fa5 cdbd 27cb 92be
00000010: b3c2 45bf 1845 3abe 4442 37bf cd41 33bf
00000020: b9ec c03d a9cc 63be b438 2f3d ef5f 1e3f
00000030: 93ac 053e b50f 733e e38a be3a 158f 48be
00000040: dfe3 b5be f846 973d 813a 4cbc dea1 d53d
00000050: 9075 b83e 5927 1e3d d06d c93e 0543 f0bd
00000060: fbf5 5cbd 6062 873d c062 4abd f410 a4bd
00000070: ce25 683d 5e88 6d3c 4546 0bbe 83e2 843e
00000080: 6eec 933e bfbb 053f 935c 5ebe ad2f a9be
00000090: ca84 8fbe ac78 02be f1df 41bc 971a e3bc
000000a0: cedf ecbe 0506 3ebf 076c 91be 6ae7 283f
000000b0: 35fe 9c3e b98d be3e 3aa0 8a3d bd1b c83d
000000c0: 0bd0 e03e 7dad 613f 182d a73e 1096 00bf
000000d0: d6e7 00bf b0d0 4dbe c61e c6bd b8b0 f9bd
000000e0: d6e6 abbd 47da e83e 5f81 42bf 0ff9 cabe
000000f0: 5603 93be 7a80 85be f92e c03e 30d5 91bd
-0.4612601 0.75608844 -0.10041284 -0.28670618 -0.7725021 -0.1819042 -0.7158549 -0.7002228
0.09420151 -0.2224604 0.042778686 0.61865133 0.13054113 0.2373646 0.0014537241 -0.19585831
-0.35525414 0.07386583 -0.01246512 0.10431264 0.36027193 0.038611744 0.39341593 -0.11731533
-0.053945523 0.066105604 -0.04941058 -0.08011046 0.05667668 0.0144978445 -0.13601024 0.25954065
0.2889132 0.522396 -0.21715002 -0.33044186 -0.28030998 -0.12741345 -0.011833177 -0.02772264
-0.462645 -0.74227935 -0.2840273 0.6597811 0.30662695 0.372175 0.06768842 0.09770916
0.43908724 0.8815535 0.3265159 -0.5022898 -0.50353754 -0.20099139 -0.09673838 -0.121919096
-0.08393638 0.45479032 -0.75978655 -0.39643142 -0.28713483 -0.26074582 0.37535837 -0.071207404

encoder_layer_mhattentions.0.attention_heads.3.K.bias f4 [8]
00000000: c6ee 82be 12f9 a63d bbbd 1cbe 6a5b 813e
00000010: 3862 c13e dffa 3c3e 4440 083e 2dbc ac3d
-0.25572795 0.08152975 -0.15306751 0.25265056 0.37770247 0.18455075 0.13305765 0.08434329

encoder_layer_mhattentions.0.attention_heads.3.V.weight f4 [8, 8]
00000000: d06c c4be a137 5c3c c2ad 2fbd 34d8 26be
00000010: 97d6 873d 22c0 b33d 2439 83bd 438c cabd
00000020: 9757 c6be 7eb7 033d 8a82 c5bd 140c 903d
00000030: 4355 5f3e 5c29 dcbd dc2c 3abe 003f 82be
00000040: 712a 1f3b e0f2 713c ce7e 1c3e 130f d33d
00000050: 7690 afbe 7a94 983e 31e3 d4bc ca63 1c3f
00000060: e617 89be 6430 0e3d 49cb 9fbd d754 ea3d
00000070: c466 fa3d 3da3 38be 92d2 7abc b3fd 633d
00000080: 3c1f 7ebe 4a87 9dbe fe60 44be 3551 5c3e
00000090: 9ab4 96be 3e5b 763e 6ec8 993e 5ae7 f93d
000000a0: 0640 75be 0789 0ebd 60d8 85be 4353 cc3e
000000b0: 92e4 0f3d 6420 5ebe c66a 44be cb5e f9be
000000c0: 8a01 8e3e 9155 c93e bd9d 25be 8dd5 333e
000000d0: fe13 75be ee91 443e 9eff abbe 8788 443e
000000e0: e3fd a03e 881a 1f3e 1142 163e f3e8 503e
000000f0: b9a9 793e 542d d53c fdad 05bf 37ee a43e
-0.38364267 0.013440997 -0.042890318 -0.16293412 0.06632727 0.08776881 -0.06407383 -0.09890034
-0.387387 0.032157414 -0.09644039 0.07033554 0.21809869 -0.10750076 -0.18181175 -0.2543869
0.0024286772 0.014767379 0.15282747 0.103056096 -0.34289902 0.2980078 -0.02598724 0.61089766
-0.26776046 0.034714118 -0.078024454 0.11441963 0.12226632 -0.1803102 -0.015308993 0.05566187
-0.24816602 -0.3076728 -0.19177625 0.21515353 -0.29434663 0.24058244 0.30035728 0.1220233
-0.23950204 -0.03479865 -0.26141644 0.39907274 0.03513009 -0.21692044 -0.19181356 -0.48705134
0.2773555 0.39323094 -0.16173454 0.17561932 -0.23933408 0.19196293 -0.33593458 0.19192706
0.314437 0.15537465 0.1467364 0.20401363 0.2438115 0.02602259 -0.5221861 0.32212994

encoder_layer_mhattentions.0.attention_heads.3.V.bias f4 [8]
00000000: 3716 c63c e877 393e 7183 98bc fcc5 23be
00000010: 7c4c 1cbf f55e b53d b305 af3e 522d 413e
0.024180515 0.18112147 -0.018617364 -0.15993494 -0.61054206 0.08856002 0.34184036 0.18864945

encoder_layer_mhattentions.0.output_layer.weight f4 [32, 32]
00000000: a263 adbe 8856 6abe eb5a 58be dc8e 163f
00000010: cd51 ae3e ffc8 bf3e c126 f13e 01b0 4a3e
00000020: cdca 03be 81a6 5ebe 066f 52bf 3ba7 d53e
00000030: 1556 b1bf 4880 aa3e 6f8b 2abf 2a78 b3bd
00000040: 8bb6 993d e979 9cbe be48 703d 3cf5 0f3f
00000050: c80f 95bd 04a3 9fbe 9494 e43e 34e3 843e
00000060: d6da 97be 384d 733c 00ba 7abe 3296 38be
00000070: ce0c abbe 6a41 cc3e 974a 953e 5145 143e
00000080: b202 c1be e03e f03e 41df 953e 6083 3dbd
00000090: bfda 1d3f 470e 01bf 982c ba3e 7366 413e
000000a0: 9d7f 9abd 1ca2 e8be 9d62 293f 6cd3 80be
000000b0: 8eca 533f 62a3 893e 3ce8 973e fcff 70be
000000c0: eec6 8d3d 3b84 0a3d 3b46 3cbc a8d5 ea3e
000000d0: 51c3 02be fb66 abbd 9ad6 973e 8a28 66be
000000e0: a4e6 acbd ff71 723d 00c8 7cbe 06d6 593d
000000f0: d24f 743e 9c18 c43e d450 61be 930c fbbe
00000100: a199 c3be 7c33 8dbe 4edb 113e 05ce ed3c
00000110: 13d1 0dbf 1b69 903d 3ead 4d3d d604 35be
00000120: 0035 673e 9373 52be 5374 19bf 4ac7 c7bb
00000130: b353 6fbf bbba 8ebd 705e ad3d 8200 26bb
00000140: 5d09 abbe d8ac 183f 01eb a2bc 121f 82be
00000150: 82df 75be 245f e3be 502c e53d 027c ce3d
00000160: 9421 1cbd 95c7 ebbd 56b4 3ebe fc78 39be
00000170: f765 2abe 530b 0a3e ec32 a73e 174e 003f
00000180: a3f0 f13e 7001 44bd 83da 2ebf f2f6 09bf
00000190: fafe 3dbe de3a 54bc 650a 21bf 811e 2e3d
000001a0: 3fdf 273e cfd0 9d3e 801f 6dbd 90f7 083e
000001b0: 56a7 9f3e fd95 8abe 0fa3 a63e e290 f73e
000001c0: 1276 04bf c6fe 6d3e c728 ad3e e795 abbe
000001d0: 2722 643c dc97 febe adbc e63e 1923 b4be
000001e0: 1ed9 ae3d 7e64 ec3d 2313 5ebe 66b3 30be
000001f0: ab13 e33a cd1b 4cbd 38e5 813c f245 40bf
00000200: 58da 3a3d 6e42 3fbe 7193 76bd af17 3d3c
00000210: 052b afbc cc32 643c b55d 1abe 6c19 893c
00000220: cbd7 53be 3966 243d 7ce1 c7bd e9af 06bd
00000230: ce81 943d 18f6 96bd 356f 693e 2f2f ae3d
00000240: 01ec 973d 0472 7bbe 851f 3b3c 8a99 5fbd
00000250: 6578 91bc fffb b43c eedc 813d 09db 82bd
00000260: fa25 953d fc98 4b3d 4d4d 253d 43e3 49bd
00000270: e97d 6abd aa70 c1bd 78a0 a53d f5cf 113e
00000280: 1c9d 2b3f 9638 98bd ded1 5bbe a61d a1be
00000290: f4eb f5be 6184 dc3d 3b88 95be f973 aabe
000002a0: 1a9d 573e 78bc fc3e 42b2 c8bd c795 883d
000002b0: e30c 0ebd 0a23 f7be 17ac 4a3e f4ea 613d
000002c0: 265b ccbe eabc aeb8 4506 093d 8c72 f0bd
000002d0: d51c 6bbe 5d51 17bf 5486 df3e 6e11 2bbe
000002e0: 853e 1ebb 5d14 323f f895 83bd c630 13bd
000002f0: 99f8 5cbd fac3 a93e ff60 7cbe 23ba 543e
00000300: e0a2 cd3d 4299 223d 98c0 a63e 6f2f 183e
00000310: c925 e1be 77d1 afbd f980 27bc 36ee 14be
00000320: 70f7 b23e 6ee1 c73c da6b 053e 06ae 91bd
00000330: ce07 62be 10dd 9dbd 1e76 90bc bab3 cdbe
00000340: 6b19 36be 9a04 c33e 8493 f0bc d429 0d3e
00000350: 1a19 a2bd c4a8 f7be 57c4 5e3e c723 05bc
00000360: 80a1 e3bc 3c73 5c3e 36db ed3d c429 94be
00000370: 55ed 84be a1f2 8abd a537 85be 03dc 073f
00000380: 2532 b5be 43e0 d13d 1186 a2bd e7bc de3d
00000390: 46ca 7f3e 4290 a0be 5510 10bd e601 c7bd
000003a0: a64c e4be 8b58 a53e 8895 bb3d 5b4e 323e
000003b0: 7e3d 373e 7974 cfbd fc02 44bd df20 ea3d
000003c0: e434 67be 76a6 c93e aaa7 1b3e d4fe 403d
000003d0: 85c0 5c3e 2518 6f3e 2d56 fdbd 666a aabd
000003e0: 46d2 553e 0c66 1b3e f38a 07bd 1bf8 603c
000003f0: 005e a3bc bed8 3a3e b185 cabe 581e 7ebe
-0.33865076 -0.22884572 -0.21128432 0.58811736 0.34046784 0.37458035 0.4709988 0.19793703
-0.12870331 -0.21743204 -0.8220066 0.4172915 -1.3854395 0.33300996 -0.6661901 -0.08763154
0.075055204 -0.3056176 0.058663122 0.5623357 -0.07278401 -0.3117906 0.44644606 0.25954592
-0.29659146 0.014849953 -0.24485016 -0.18026045 -0.33408207 0.39893657 0.2915847 0.14479567
-0.3769737 0.4692297 0.29271892 -0.046267867 0.61661905 -0.5041241 0.36362147 0.18886738
-0.075438716 -0.4543618 0.66166097 -0.25161302 0.8273095 0.26882464 0.29669368 -0.2353515
0.069227085 0.03381751 -0.011491354 0.45866132 -0.1276982 -0.08369251 0.29655915 -0.22476402
-0.08442429 0.059190746 -0.24685669 0.053182624 0.23858574 0.38300025 -0.2200349 -0.4903303
-0.38203147 -0.27578342 0.14243814 0.029028902 -0.55397147 0.07051297 0.050214045 -0.17677626
0.22578812 -0.205519 -0.5994312 -0.006096755 -0.9348709 -0.0696921 0.08465278 -0.0025329893
-0.3340558 0.5963874 -0.01988745 -0.2541433 -0.24011043 -0.44408524 0.111900926 0.10082246
-0.03811796 -0.115126766 -0.1862348 -0.18112558 -0.16640459 0.13480882 0.32656038 0.50119156
0.47253904 -0.047852933 -0.6830217 -0.53892434 -0.18554297 -0.012953488 -0.62906486 0.04250956
0.16393755 0.3082337 -0.05789137 0.13375688 0.31182355 -0.27067557 0.3254628 0.48352724
-0.5174266 0.2324172 0.33820173 -0.33512804 0.013924158 -0.49725235 0.45065823 -0.35183027
0.085375056 0.11542605 -0.21686988 -0.17255935 0.0017324587 -0.0498312 0.01585637 -0.7510673
0.045618385 -0.18677685 -0.060199205 0.011541291 -0.021382818 0.013928127 -0.15074809 0.016735755
-0.20687787 0.04013655 -0.097598046 -0.032882605 0.07251321 -0.073711574 0.22796328 0.08505093
0.07418061 -0.24555212 0.011421089 -0.054589786 -0.017757604 0.022092817 0.06340967 -0.06389434
0.07282634 0.049706444 0.040356923 -0.049289 -0.057248984 -0.09445317 0.080872476 0.14239486
0.67036605 -0.07432668 -0.21466777 -0.31467932 -0.4803158 0.10767437 -0.29205498 -0.33291605
0.21056023 0.4936254 -0.09799625 0.06669193 -0.03468026 -0.4826892 0.1979221 0.05515571
-0.3991329 -8.3321545e-05 0.033453245 -0.11740598 -0.22960217 -0.59108526 0.43657172 -0.16705868
-0.0024146151 0.6956232 -0.06425089 -0.035935186 -0.05394802 0.3315733 -0.24646376 0.2077413
0.100408316 0.03969694 0.32568812 0.14861844 -0.4397414 -0.08584874 -0.010223621 -0.14543995
0.34954405 0.024399485 0.13029423 -0.071132705 -0.2207329 -0.0770818 -0.017634448 -0.40176183
-0.17783134 0.38089448 -0.029367216 0.13785487 -0.07914944 -0.48370945 0.21754585 -0.008126206
-0.02778697 0.21528333 0.11614077 -0.28938115 -0.2596232 -0.06784559 -0.26019016 0.53070086
-0.3538982 0.10247853 -0.079357274 0.10875874 0.24979505 -0.3136006 -0.035171825 -0.09717159
-0.44589728 0.32294115 0.0915938 0.17412703 0.17894551 -0.10129637 -0.04785441 0.11432051
-0.2257877 0.39384812 0.15200678 0.047118023 0.21557815 0.23349054 -0.12369952 -0.08321075
0.20880994 0.15175647 -0.033091497 0.013731028 -0.019942284 0.18246743 -0.39555123 -0.24816263

encoder_layer_mhattentions.0.output_layer.bias f4 [32]
00000000: 124b 3a3e 64de 8ebe 67bc 0bbf 65f5 10bf
00000010: 24c7 003e a299 e53e f437 573e 7aba efbe
00000020: 9a5a b9be b84d 003e bd2f b53e 21c8 edbd
00000030: 5914 c9bd ffee 143f c03c e43d 49a0 0abe
00000040: 7f21 ecbe d30b 033f f1d4 cd3e 369e 63bf
00000050: bb0d fb3e 2e4b 54be 3f84 6d3f 3b8b ac3e
00000060: ead6 68bb d83b 033f 9724 d83d 396d f7bd
00000070: 963b b7be cfd0 713d e72f 80be b8ce b6bd
0.181927 -0.27904046 -0.54584354 -0.5662444 0.12575966 0.44843775 0.21017438 -0.46821958
-0.36201936 0.12529647 0.35387984 -0.11610437 -0.09818334 0.5817718 0.111444 -0.13537706
-0.46119305 0.5118992 0.40201524 -0.88913286 0.49033913 -0.20731804 0.92779917 0.33699974
-0.003552849 0.5126319 0.10553854 -0.120813794 -0.35787648 0.059037026 -0.25036547 -0.08926147

encoder_layer_mhattentions.1.attention_heads.0.Q.weight f4 [8, 8]
00000000: 1c36 803f 4e60 3fbf d5bc 983d 6b8d 31bf
00000010: 6b1e 543e c995 4a3f dc28 613e 2961 8b3e
00000020: 87f6 fdbd 56a7 803e b231 bdbe b9d6 b23e
00000030: e38c 723e 9bdd 2ebf e077 0a3f ff20 36be
00000040: 44dc 72be ec84 1abf 821f 13bf 7db9 8a3e
00000050: 0be1 16bd 3e20 bcbe ec11 e8be d35b d73e
00000060: a553 d03e 9f68 35bf d417 9cbd f724 8c3f
00000070: 119c e5be 4c80 a73e db52 3abe 9709 cebe
00000080: 319e 7ebd a816 2f3f c9ca fbbd 3922 85bd
00000090: 411c 74be f578 473e ddc3 7dbe 5664 a5bd
000000a0: 7ca0 09bf c52d 8abe c6a6 31bf 4133 083f
000000b0: 84f2 c7bd 696f 60bf 70ab a23e f724 23be
000000c0: 29b6 383f f615 bd3e c25f 843c f950 853e
000000d0: 851c eabc 1f35 0bbd bf2b 213e d8ed 513f
000000e0: 3480 85be 5fdc 053c a350 cc3e 881d af3e
000000f0: ed37 9fbe c6b9 f3bd 2c90 3c3f 2549 9dbe
1.0016513 -0.74756324 0.07457892 -0.6935641 0.20714729 0.79134804 0.21988243 0.27222565
-0.12400537 0.25127667 -0.36951977 0.34929445 0.23686557 -0.68306893 0.54089165 -0.17786025
-0.23716837 -0.6035907 -0.5746995 0.2709464 -0.03683571 -0.3674335 -0.45326173 0.42062244
0.40688816 -0.70862764 -0.07621732 1.0948781 -0.44845632 0.3271507 -0.1819567 -0.4024169
-0.06216258 0.68393946 -0.122945376 -0.06500668 -0.23838903 0.19479735 -0.24781747 -0.08075778
-0.53760505 -0.26988044 -0.693951 0.5320321 -0.09763053 -0.8767 0.3177142 -0.1593207
0.72152954 0.36930817 0.016158942 0.2603834 -0.028578052 -0.033986207 0.15739344 0.82003546
-0.26074374 0.008170216 0.3990527 0.34202218 -0.31097355 -0.11900668 0.7365749 -0.30719867

encoder_layer_mhattentions.1.attention_heads.0.Q.bias f4 [8]
00000000: 2022 9bbd 63da 89bf 3c78 92be 1ef9 c13d
00000010: 443a c8bf 8abc 923e ddb5 f33c c41e 923d
-0.07574868 -1.0769771 -0.28607357 0.094713435 -1.5642781 0.2865947 0.029749805 0.07134774

encoder_layer_mhattentions.1.attention_heads.0.K.weight f4 [8, 8]
00000000: 33ab 143f 0df0 37be 64be 7b3d 2b87 b5bd
00000010: 0633 aa3e 3b8e b33d 8d60 48bf 844c 8cbe
00000020: 7bf9 5fbe c3a6 ee3e d03a 813f a634 46bf
00000030: a0f0 973e 7167 24be 4671 b6be bc3f f0bd
00000040: 3653 47be 2389 93bc 2f52 443f 95d6 393f
00000050: 8424 3fbe 8ca8 433e 3c92 b53d baa2 abbe
00000060: 0538 413f aa44 3a3f 4368 083c 3134 c6be
00000070: 5ee3 d3bb 4b0c 79bc fba0 c93d 3aed 20bf
00000080: 775c e83d 49c1 31be 8446 6c3e ea86 0a3d
00000090: 8e24 df3e 2685 99bf 8819 db3e 2e61 efbe
000000a0: 31e9 9cbe 3eaa 9e3e c00b 5e3e 356b 6bbe
000000b0: 0388 a5be d2a1 213f 56f9 f03d ea5d d83e
000000c0: b49d 23bf a4d3 fd3d 9b11 90bd 1e5d 1bbd
000000d0: 8d8c 723e 638c 813e 1770 09be bee7 f4be
000000e0: a716 6e3e f294 f7bd 8de1 483d 882f 15bf
000000f0: f889 c33e 9094 dc3e 5bfa c23e c18c b23e
0.5807373 -0.17962666 0.061460868 -0.08863672 0.33242053 0.08767363 -0.78272325 -0.27402127
-0.21872513 0.46611604 1.0096073 -0.77424085 0.2967577 -0.16055085 -0.35633296 -0.11730906
-0.19465336 -0.018009728 0.766879 0.7259305 -0.18666273 0.19107264 0.088657826 -0.33522588
0.75476104 0.72761023 0.008325639 -0.38711694 -0.0064663133 -0.015200685 0.09845158 -0.6286198
0.11345761 -0.17358889 0.23073775 0.03382007 0.43582577 -1.1993759 0.42792916 -0.4675383
-0.3064666 0.3098926 0.2168417 -0.22990115 -0.3233033 0.63137543 0.11766307 0.4225915
-0.6391251 0.12393883 -0.07034608 -0.0379306 0.23686428 0.2530242 -0.13421665 -0.47833055
0.23250829 -0.12088956 0.049043227 -0.5827565 0.381912 0.43082094 0.3808163 0.34873012

encoder_layer_mhattentions.1.attention_heads.0.K.bias f4 [8]
00000000: 43a4 843e 78ec c3be f398 8b3e 6fc5 d33c
00000010: 0139 bbbe 4f95 4fbe d144 a73e 6523 aebd
0.25906572 -0.3826635 0.27265128 0.02585098 -0.36566928 -0.202718 0.3266969 -0.08502845

encoder_layer_mhattentions.1.attention_heads.0.V.weight f4 [8, 8]
00000000: f80e 8f3e d3dd d9bd 5d4b 213d 5af0 48be
00000010: 11d5 49bd cff2 123e 78a3 88be 6910 1abd
00000020: 6c84 f9bd e380 6a3d d93e 05be 4131 efbd
00000030: c130 713b 37ba a93d 63f5 81bd 4717 11be
00000040: 0e6e 31be 266f 713d 6cf9 c23c 74b6 c83c
00000050: e0ab 973d b7e2 1d3d 6697 b8bc f91f 323d
00000060: af49 003e a446 c93c 91a7 513d 6c6e c1be
00000070: 9689 a03d d2ff 27be bfc4 ca3c aeea b13b
00000080: 27ae dabe 5187 5aba 03d5 3f3e 9aa3 703d
00000090: 02d2 2fbc 1c14 58bc f24c 8cbd f23e 273e
000000a0: 9d74 8b3c 4fc9 d03d 310a 9bbd d737 723d
000000b0: 3581 c5bd 0c32 303d 354a b4bc bdbc 0e3d
000000c0: 183d 1d3d 792a e73d 87a5 05be 6fa2 e0bd
000000d0: d06a 8abc 0aa8 2f3d 8080 ed3c 84f2 db3d
000000e0: da4f f5bd 9954 e9bd 7238 e23c a154 873c
000000f0: 32da 003e 93d4 0cbe 422e 39bc 6144 1abe
0.27941108 -0.10638013 0.039378513 -0.19622937 -0.04927546 0.14350437 -0.26687217 -0.037613306
-0.121834606 0.057251822 -0.13012256 -0.11679316 0.0036802741 0.08287471 -0.06345632 -0.14169036
-0.17327139 0.05894389 0.023800574 0.024501063 0.074058294 0.03854629 -0.02253313 0.043487523
0.12528108 0.024569817 0.051185194 -0.37779558 0.078387424 -0.16406181 0.024752019 0.0054295873
-0.42710993 -0.0008336204 0.18733601 0.058749773 -0.010731222 -0.013188388 -0.06850614 0.16332605
0.017023379 0.101946466 -0.07570303 0.059135284 -0.09643785 0.04301648 -0.02200804 0.034847964
0.03838834 0.11287398 -0.13051425 -0.10968482 -0.016896635 0.042884864 0.028991938 0.107396156
-0.11978121 -0.11393089 0.027614806 0.016519846 0.12583235 -0.13752966 -0.011302533 -0.15065147

encoder_layer_mhattentions.1.attention_heads.0.V.bias f4 [8]
00000000: 8311 04be 81d2 f6bc da66 1b3e 5cf6 4abc
00000010: cb5a e93d 64a2 183d 6a00 a2bd 3143 2b3d
-0.12897305 -0.030129673 0.15175954 -0.012387838 0.113942705 0.037264243 -0.07910235 0.041812126

encoder_layer_mhattentions.1.attention_heads.1.Q.weight f4 [8, 8]
00000000: c633 b6be e066 c7bd 7f45 a9bd 0d6d ad3e
00000010: c49b 6dbd 72fd 293d 04fb a6be 8ffc 48be
00000020: 7b95 a13e bf16 0fbd 3f9e 553e a0ea b8be
00000030: 6fde 59bf 3884 ecbd c428 843e 6dbf 463e
00000040: 41ee cfbe c6bd 08bd d4af de3e 18cf d13e
00000050: ce96 15bf 1fb4 9b3e bcfc 043e e2ec eb3e
00000060: aa0c 2e3e 2739 50be 6e38 043f 8a87 bcbe
00000070: 15c8 6d3e c5a9 943d dd1c a13e a85c 9b3e
00000080: dbd2 8fbe 450f 153d 4879 f8be 4809 ae3e
00000090: 9cd5 cb3e bdfb ed3e 3ff7 71be b8ab 5d3e
000000a0: c1f4 33bc 4e26 bbbd 331d bcbe ba4e 813e
000000b0: 165d 2fbf fb07 94bb 871d 92bf 89a1 b93e
000000c0: 543b e8be bbe1 8c3c 55c4 70be 8dc5 bc3d
000000d0: 8fdc 7e3e f2fc 50bd 2cfd 40bf c445 083f
000000e0: 404c 1abf e9b1 d2bc 8c84 34bd f475 fa3d
000000f0: 4fee e23e 9e86 02bf 823d 26be 842e 62bf
-0.35586375 -0.09736419 -0.082652085 0.33872262 -0.058009878 0.04150147 -0.32613385 -0.19627593
0.31559357 -0.0349338 0.20861147 -0.36116505 -0.8510503 -0.11548656 0.25812352 0.1940896
-0.4061146 -0.033384107 0.4349352 0.40978312 -0.58433235 0.3041086 0.12987036 0.46079165
0.16997018 -0.20334302 0.51648605 -0.36822158 0.23220856 0.072589435 0.31467333 0.3034413
-0.28090557 0.036391515 -0.4853003 0.33991456 0.3981141 0.46481124 -0.23629473 0.21647537
-0.010983647 -0.091381654 -0.36741027 0.25255376 -0.6850141 -0.004517553 -1.1415261 0.36256054
-0.45357764 0.01719748 -0.23512395 0.09217367 0.24888824 -0.051022477 -0.7538631 0.53231454
-0.602726 -0.0257196 -0.04407172 0.12229529 0.4432244 -0.5098666 -0.16234401 -0.8835223

encoder_layer_mhattentions.1.attention_heads.1.Q.bias f4 [8]
00000000: 6032 543d fa79 223e 1e40 d6be 96aa bcbd
00000010: 38be 98be c5df 1dbf 92b4 a83e 5cd8 72be
0.051805854 0.15866843 -0.41845793 -0.09212224 -0.29832625 -0.6166957 0.32950264 -0.23715347

encoder_layer_mhattentions.1.attention_heads.1.K.weight f4 [8, 8]
00000000: cd1d 423e bbe0 27be 8143 83be 4b2e b33e
00000010: 61e5 b2be 5ce3 aa3d 5429 ad3d 43eb 3dbe
00000020: caa0 e4bd 35cf 8fbd 37ca c43e ed8c 5e3e
00000030: 5d9c c83d 882c bebc b357 013e 9be5 03bf
00000040: 1902 813e 454e e1be 5d50 bb3e 4dce afbd
00000050: 1b2f 51bd 7b7b d73e 8072 8f3e fb29 fdbd
00000060: eaca 343c b70c d73e 9549 e43e 23ee 14bf
00000070: a335 ab3e e4f3 12be 7164 403e 9f51 a83e
00000080: 25f5 693e a4f5 32be 61ff ecbd 194c 26bd
00000090: 9890 28bf 0396 063f 0417 f8bd ef57 1e3f
000000a0: 579e 0abe 9aa6 87be b7b0 fbbe 1470 5a3f
000000b0: f513 7bbe d90b 573f 5dd4 6f3f 0806 bcbd
000000c0: f269 aa3e 2cb5 cf3d 5b2f acbe 6909 693e
000000d0: 6192 8abf b9b2 b43e 8367 e23e ae16 00bf
000000e0: 2b24 333d 254a a3bd 800a 59bf a739 b23c
000000f0: 78e8 ef3e ad42 60be d95c d2be cb0e e33e
0.1895668 -0.16394322 -0.2563744 0.34996256 -0.34940627 0.083441466 0.08455148 -0.18546776
-0.111634806 -0.070219435 0.38435528 0.21733446 0.09795449 -0.023214594 0.12631111 -0.51522225
0.25196913 -0.44005027 0.3658475 -0.085842706 -0.051070314 0.42086396 0.28017044 -0.12361523
0.011034707 0.42001888 0.4458739 -0.5817587 0.3343936 -0.1435085 0.18788315 0.32874772
0.22847421 -0.17476517 -0.11572147 -0.040599916 -0.6584563 0.5257265 -0.12113765 0.61852926
-0.13536964 -0.26494294 -0.4915826 0.8532727 -0.24519332 0.84002453 0.93683416 -0.09180838
0.33283955 0.10141978 -0.3362988 0.22757496 -1.0825921 0.35292605 0.44219598 -0.50034606
0.043735664 -0.07973126 -0.84781647 0.021756006 0.46857047 -0.21900435 -0.41086462 0.44347224

encoder_layer_mhattentions.1.attention_heads.1.K.bias f4 [8]
00000000: 5136 423c 77eb 15bd 5004 183e ac09 dcbd
00000010: 643d b8bd c2eb e73d e1dd ccbe 3b03 f23d
0.01185377 -0.03660151 0.14845395 -0.10744032 -0.08996084 0.11324264 -0.4001303 0.118170224

encoder_layer_mhattentions.1.attention_heads.1.V.weight f4 [8, 8]
00000000: 2c35 653e 7fb6 d03d 5f56 753e 4a3d 98be
00000010: 0110 5ebe 5a29 ed3d 0875 923e 4276 973d
00000020: 1072 ce3d 4616 cebc 3e6d 983e c850 933d
00000030: d358 c1be c8c4 a3bd f919 82bd 660f 3cbe
00000040: e990 c4bc 08ad debb 203e 34bd 2b5b 88be
00000050: 0f9f 8bbd 745a 993d 23fd 8ebc 2bc2 82be
00000060: 4159 c73b 70ab f73d 1bee 09be 0af3 7f3d
00000070: 57a6 363e 6e92 783d 3243 653d 18fa d43d
00000080: df18 dd3e 840b 69bd 09ee 31bd 74c8 63be
00000090: 42fc e4bd a7a7 9bbd 21b3 d83e 7e74 253d
000000a0: 3d81 54be a707 c73b c90f 81bc 21d2 813e
000000b0: f4ab 873d 99b1 98bd ddc5 ed3b 1a64 98bd
000000c0: f78c ebbc e4ab 4f3d 9cb7 12bd 4513 eb3b
000000d0: be21 5fbb 743e 86bc f13e a73d fba1 e13d
000000e0: 219d e4be 6173 ea3e 216e 9fbd efb7 4abe
000000f0: 5fd2 f5be edf3 873d 0e2d 32be 34ca 48b9
0.22383565 0.10191058 0.23958729 -0.2973426 -0.21685793 0.11580153 0.28604913 0.07395603
0.100803494 -0.025157105 0.29770845 0.07193142 -0.3776308 -0.079965174 -0.0635261 -0.18365249
-0.02399488 -0.0067955293 -0.04400456 -0.26632056 -0.068174474 0.07487956 -0.01745469 -0.25538763
0.006083638 0.12093246 -0.13469736 0.06248764 0.17836891 0.06068652 0.055972286 0.10399264
0.43183038 -0.056895748 -0.0434399 -0.22244436 -0.11180927 -0.076003365 0.42324165 0.0403943
-0.20752425 0.0060739103 -0.015754597 0.25355628 0.06624594 -0.07455749 0.007256253 -0.07440968
-0.02875374 0.050701037 -0.035819635 0.007173928 -0.0034047212 -0.016387202 0.08166302 0.110172234
-0.4465113 0.45791152 -0.07784677 -0.19796728 -0.48012063 0.06638322 -0.174 -0.00019148813
