models/model_chkpt_140.pt (torch, 319268 bytes, 387 tensors)

tokenizer.token_embedding.weight f4 [17, 32]
00000000: 50e1 4dbf 5bcf 17c0 564b 213e a50f c93e
00000010: acae ee3f 6faa 203f 6510 6d3f 7960 a23f
00000020: c8f1 dfbf 8879 84bf f1f5 69be cedc 533e
00000030: 19a1 7cbf 7879 20bf 53f3 a5be 347c b8be
00000040: c47b 96be aac1 083f 1ac8 09bf 06ed d7be
00000050: 6467 babf 963a 05c0 6aa7 463f abfe 4340
00000060: d19d c3bd fa96 413f 6680 4a3f 13ec c33f
00000070: 03e9 23bf fa22 4cc0 5abe 023f 7f8a 7cbe
00000080: 7caa 37bf 215e dbbf ae9a af3f 942a 6cbe
00000090: c56c 3d40 c950 2a3f 182a 81bd 7514 753f
000000a0: ba40 b0bf ae55 42bf ec39 39be ed0d de3e
000000b0: 2241 47bf 8ace 29bf 74fb 2dbf 1af9 febe
000000c0: e0e5 ec3f fa57 14bf a341 213e 3534 863f
000000d0: 3e26 993f 2189 953f 886d 7d3f 1384 cc3e
000000e0: 6d3c 81bf f5cf 0c3e 6b62 bd3f 9c05 0f3f
000000f0: 1bbb 17bf 06b7 dabf 1a50 01bf ab4e 373f
00000100: 7f76 c8be 0893 a73e 42e4 01be eb67 6fbe
00000110: a7ee 7c40 e4dc 003e c2bc e73f df56 d83d
00000120: 1868 9fbf fccb 85be b961 21bf 36da 443f
00000130: ccd7 90be c3e4 cbbe b460 11bf 4b92 01bf
00000140: 756f d83f 15a7 f83f 7091 c4be 5448 02c0
00000150: 5dfb a4bf a771 e4be 22bf d6bc b281 f9bf
00000160: 2f05 96bf 09fc a73f 026a c33e 1a19 513f
00000170: e98e 143f 0304 70be c204 42bf 5def e9bd
00000180: 2e37 39bf cda1 dc3f 6833 2e3e d02c 34bf
00000190: 469b bf3d ee5d 17bf 254f f33f ea41 893f
000001a0: 6a42 bfbf 649f 4d3f 8068 7dbf 4850 273f
000001b0: a1c2 523c 3fb9 22bf d387 afbe 7092 e8be
000001c0: 584c 203f 48e0 843e 9a81 e63f 8f72 ecbe
000001d0: 64a0 c3be 2b32 b33f fa2f 823f b686 33c0
000001e0: 3e1d c2bf b656 253f 9a64 953e 4143 043e
000001f0: 07a0 5d3e 02f5 843f 7efd 8abf f5b1 0a3f
00000200: da19 cfbe 3efb 4dbe db80 233a 22e8 d23e
00000210: d48a f5be 656f d0bf 5266 2340 b6da bbbe
00000220: 8c94 2ebe 97ab 18be c5cf 023f 9f10 b33f
00000230: d0ec 05be 6bc5 46bd c58d a8bf 579d c7bd
00000240: f65f 5d3f ad10 f23e 2db9 ec3f 4e2e b9bf
00000250: e760 b9bf ec99 083f f9b7 a83d f4e9 95bf
00000260: d85b 95bf a216 ae3e bc18 6abf b04c b8be
00000270: 7d83 083f f9dc 0a40 5250 b8bf 8ba2 dabe
00000280: 91f2 3a3f 47a6 693f fe93 0040 3b1a d43e
00000290: 6d2a 71c0 1e26 5dbf fa22 263f 960b 583f
000002a0: 06ff 4abe dfb1 a93f efba 3d3f 504b a83f
000002b0: cf35 87bd 6524 73be 9dad 66bf 011a 0e3d
000002c0: 6183 0540 8aa3 483f 6730 9a3e 1c02 21bf
000002d0: 4c3f aa3d ccce c8be deb4 053f adb5 21be
000002e0: ca17 763e ef03 0bbf 2505 c1be 639e 65be
000002f0: 311d 7dbe ad2e be3f cdb9 bebf 0b46 45bf
00000300: 5e77 0ebf d4ae abbf 4768 873e 0be5 8c3e
00000310: 3680 b2bf 09b3 d8bf 717f 0d3e 5dbf 98bd
00000320: f479 86be e40b 843f 61e1 4e3f 84aa 9e3f
00000330: 6b59 1dbe faa7 96be 2df3 90bf 1f42 bcbd
00000340: c6e7 873f 3669 de3e 6a8e e8bf 5ab7 943e
00000350: 1494 253f 9e9f 203e 9210 aabe 7552 3040
00000360: ad13 89bf 2837 983e 9605 0abf 6084 57bf
00000370: e44c be3e 1502 2740 2b23 c9bf b463 9fbe
00000380: 6d8f 5fbf 67c1 9e3e f7d2 3e40 b046 943f
00000390: 0018 1d3f dfa8 4cc0 2c0e 57c0 73f3 d1be
000003a0: db82 59bc 6872 0040 5f42 8e3f 56d1 a13f
000003b0: ef00 b43d bc1d c1be 0325 49bf 3721 8b3d
000003c0: c7d4 0e3f 9c2d 4f3e 5b29 ecbf 4445 133f
000003d0: 7be0 0140 d3a1 a23f 16fe 26bd 6e86 923f
000003e0: abfe bb3e 1580 8dbe 91e9 3dbf 60d1 263f
000003f0: 0bad bebe b7af 243f 10a2 b4bf 9d89 20bf
-0.80421925 -2.372031 0.15751395 0.39269748 1.8647056 0.6276006 0.9260314 1.2685691
-1.7495661 -1.0349588 -0.22847725 0.20689699 -0.98683316 -0.62685347 -0.32412204 -0.3603226
-0.293913 0.5342051 -0.53820956 -0.42173022 -1.4562802 -2.0817008 0.77599204 3.0624187
-0.095515855 0.75620997 0.7910217 1.5306419 -0.6402742 -3.1896348 0.51071703 -0.24662207
-0.71744514 -1.7138101 1.371908 -0.23063117 2.9597638 0.6652952 -0.06306857 0.9573434
-1.3769753 -0.75911987 -0.18088502 0.4337 -0.7783376 -0.6633078 -0.6796181 -0.49799424
1.8507652 -0.5794674 0.15747695 1.0484682 1.1964796 1.1682473 0.98995256 0.39944515
-1.0096565 0.13751204 1.479566 0.55867934 -0.59269875 -1.7087104 -0.5051285 0.7160441
-0.39152905 0.32729363 -0.1268473 -0.23379485 3.9520662 0.12584263 1.8104479 0.10563444
-1.2453642 -0.2613219 -0.6303974 0.76895463 -0.2828964 -0.3982297 -0.5678818 -0.5061385
1.6909014 1.9425989 -0.3839221 -2.0356646 -1.288921 -0.4461796 -0.026214186 -1.9492705
-1.1720332 1.312379 0.38166815 0.81678927 0.58030564 -0.2343903 -0.7578851 -0.11422608
-0.7234982 1.7236878 0.17011797 -0.7038088 0.09355788 -0.591277 1.9008528 1.072324
-1.4942143 0.80321336 -0.9898758 0.65356874 0.012863786 -0.63563913 -0.34283313 -0.45424223
0.6261649 0.25952363 1.8008301 -0.4618115 -0.38208306 1.3999685 1.0170891 -2.805097
-1.5165174 0.64585435 0.29178315 0.1291628 0.21643077 1.038727 -1.085861 0.5417779
-0.4044941 -0.20115373 0.00062371575 0.41192728 -0.4795748 -1.6283995 2.5531201 -0.366903
-0.17048854 -0.14909206 0.5109828 1.3989447 -0.13078618 -0.048528116 -1.3168265 -0.09746807
0.8647455 0.47278348 1.8494011 -1.4467256 -1.4482697 0.53359866 0.08238215 -1.1712022
-1.1668653 0.34001642 -0.9144399 -0.35996008 0.53325635 2.169737 -1.4399512 -0.42702135
0.73026377 0.91269344 2.0090327 0.41426262 -3.7682145 -0.8638629 0.6489712 0.8439268
-0.19823846 1.3257407 0.74113363 1.3147984 -0.0660206 -0.23744352 -0.9010866 0.034692768
2.0861437 0.7837454 0.30115053 -0.62893844 0.08312854 -0.39220273 0.52229106 -0.1579196
0.24032512 -0.5430288 -0.37699237 -0.22423701 -0.24718167 1.4857994 -1.4900452 -0.7706
-0.5565089 -1.3412728 0.26446745 0.27518496 -1.3945377 -1.6929637 0.13818146 -0.07458375
-0.26264918 1.0316129 0.8081265 1.2395787 -0.15366141 -0.2942503 -1.1324211 -0.09192299
1.0617607 0.43439645 -1.8168461 0.29046136 0.64679074 0.15685889 -0.33215767 2.7550328
-1.070913 0.2972958 -0.53914773 -0.84186363 0.37168038 2.609502 -1.5713857 -0.31130755
-0.87328225 0.3100693 2.9816263 1.1584072 0.61364746 -3.197807 -3.36024 -0.4100605
-0.013275827 2.0069828 1.1114005 1.2642009 0.087892406 -0.37717998 -0.785721 0.067934446
0.5579342 0.20232242 -1.8450121 0.57527566 2.0293262 1.2705635 -0.04076966 1.1447275
0.36717734 -0.2763678 -0.7418452 0.6516323 -0.37241396 0.6433062 -1.4111958 -0.6270998

tokenizer.positional_embedding.weight f4 [9, 32]
00000000: fbad 0d3f b0a3 cdbd 46ba 03bf 6354 a73e
00000010: a9f3 9c3e 2c63 ed3f 45dc 29bb 5ddd bbbe
00000020: 5360 38bf 8f02 5c3f 7b35 0740 6824 a3bf
00000030: 8d27 85bf b9ae 83bf 544d d83e 6a69 69be
00000040: bd8b ab3d 3836 4dbf e765 d93e 80d6 863f
00000050: 8486 54be f462 77be c148 b23e ef31 873e
00000060: d5e3 2bbf 7e4c 393f 1605 0340 6c68 7cbe
00000070: cbcb efbd 24cb 15be 318c 89bf dbb3 45c0
00000080: 5089 683f 9557 383f 2669 143f 1a63 b7bd
00000090: 2256 8b3f cee9 163e a41d 4e3e 4daf 00bd
000000a0: fe8e fa3f c405 283f 5c95 81bf 99a1 5cbe
000000b0: fadc e0be 2cb3 7b3e 9fe0 7b3f 92a6 51bf
000000c0: 1f47 56bd 1438 51bf 6f66 2e3f f844 b8bf
000000d0: 5272 5f3f 60bf f03d a8fe 383f 3c9d 1c3f
000000e0: 2a50 1d3f 7c45 18bf e42a 923f dfea 10c0
000000f0: c887 343f 20c9 093f 9dcb 0140 ebc9 5ebf
00000100: c9d0 ec3c 8c59 723f 7664 f6bd 0fe2 1dbf
00000110: 2bc4 efbd 98a4 6fbe d7cf efbd 5cb2 5f3f
00000120: d21d 473f 121f b03e ba1e cfbf 01aa e7bf
00000130: fdaa d73f 4f75 63be 4026 ffbf 4048 693f
00000140: 310d 013f 6fa7 363f 1d25 36be 0e2e 26bf
00000150: cb24 b63f f7e1 a5bf 8ea8 41bf 39e3 a8be
00000160: 5890 b03d c3ee ddbe f040 bbbe e5de aabf
00000170: 5a65 cfbd 363b 17bf a06a 9b3f ba6a acbf
00000180: c1d2 6bbf 1ce3 a9bf afba b0bf b489 49bf
00000190: 0632 b1be cf59 70bf ffe6 743e db06 10bf
000001a0: 9a66 8dbf d397 c93d 7c8b b1bd e154 dfbf
000001b0: bc8e e13f 5786 36bf 415c d8bf fc16 d03e
000001c0: 650e f5be 82d2 88bf 4f8f 55bf e3fd 17c0
000001d0: e842 bc3f 3603 ce3e 279d 043d 53ce 7ebf
000001e0: f274 bf3f 8ea5 f13f ba13 033f 96d7 2cbf
000001f0: ea23 5a3f 7e52 11bf fc13 c2bf 3eb5 06bf
00000200: 87f2 8a3f e7ee f5be e1e7 313f a20e bfbf
00000210: aa18 c2bd b0d5 ddbf 7f4f 283f 540b ee3e
00000220: f1ab 4bbf e19e 993f b87d 2940 161c 6c3e
00000230: a6c9 36bf e9bb adbd 8625 fb3c 8d39 46be
00000240: befa 3e3e a8a8 a9bf 81fa 833f f3e8 463e
00000250: 3a32 0c3e f453 863f 8da1 48bf 3518 c0be
00000260: 8bfb 663f 9a7f 783e 1657 33be af56 fabd
00000270: 7374 dc3f 6470 ec3e 14b9 b13f 9e39 923f
00000280: 3eaf 01bf c490 aebf f268 ea3f aedf cdbf
00000290: 51dc 95bd 6dae 7b3f 9558 033f d87c 26bf
000002a0: 9320 20bf 7ef3 e0be 98af a4be a2ca 0d3f
000002b0: 1b83 0bbf 4215 933f 70e4 663e 1746 c6bf
000002c0: 5d2b c1bf 117d 853f 01e5 9e3e 1f08 093f
000002d0: 0d45 01bf 8228 1e40 e7e2 273f 3f51 013f
000002e0: d771 bcbe 5677 243f a602 14c0 ca1a 323b
000002f0: 5aba 31bf 9cd8 c63c c966 9abf bfcb 4b3f
00000300: fdd3 0dbf be7f ce3e f655 8abe bbb7 cd3d
00000310: c7d0 11bd 1f8e 4abf 37d6 dcbf fd4b f6be
00000320: 2d32 be3e be39 aabf 3e4a 7bbf 4e1f 7c3e
00000330: d1ce e8bf 2e16 a53f 0ae9 e1be 7720 ab3f
00000340: 2398 2e3f e0b7 67be 5ebe f2bf f3f5 d83e
00000350: b97e 99bf e662 3c3f 4367 a13f e03d 8abf
00000360: 13f4 1cbf e043 413e 63a4 9a3c 1389 c23f
00000370: 2226 d6be f00d 4d3f f8ac 8a3f afb0 ac3e
00000380: 5e12 afbf 8392 1b3f 252c b6bf 55e0 aa3e
00000390: 88d2 afbd 0f9e 163e 5f51 c3be ef30 6d3f
000003a0: c20f 9b3f 53d1 e2bf abc1 2abf 7d4b 9a3f
000003b0: 440a 4abf 9d79 a0bf d81b e13e d180 0040
000003c0: 62d9 5c3f cd3e 8f3d ae79 d2bb 5435 b7bf
000003d0: 937a 59bd 201e ef3e 8c8f 94bf a324 1cbf
000003e0: 484a 1f3f 8920 0cc0 a0ee a23d e68d 13bf
000003f0: 310b f0bf 0769 4bbf 8f2c 04bf 0404 c23f
0.553436 -0.100409865 -0.51456106 0.3268157 0.30654648 1.854589 -0.0025918644 -0.36692324
-0.7202198 0.85941404 2.1126392 -1.2745485 -1.0402695 -1.0287696 0.42246497 -0.22794119
0.08376262 -0.80160856 0.42460558 1.053421 -0.20754439 -0.24158841 0.34821132 0.26405284
-0.6714452 0.7238234 2.0471854 -0.24649209 -0.11708792 -0.14628273 -1.0745908 -3.0891025
0.9083452 0.7200864 0.57972944 -0.08954449 1.0885661 0.14737627 0.20128495 -0.03141718
1.9574888 0.656338 -1.0123706 -0.2154602 -0.43918592 0.24580067 0.9838962 -0.8189479
-0.05231392 -0.81726193 0.6812505 -1.4396048 0.87283814 0.11755252 0.72263575 0.6117742
0.61450446 -0.59481025 1.1419339 -2.2643354 0.70519686 0.5382252 2.0280526 -0.8702685
0.02890815 0.9466789 -0.1203088 -0.61673063 -0.11707338 -0.23402631 -0.11709564 0.8738153
0.7777988 0.34398705 -1.6181252 -1.8098756 1.6849056 -0.22212718 -1.9933548 0.9112587
0.50410753 0.71349233 -0.17787595 -0.64914024 1.4229978 -1.2959584 -0.7564782 -0.32985857
0.086212814 -0.43346223 -0.3657298 -1.3349272 -0.10126753 -0.59074724 1.2141914 -1.347007
-0.9211846 -1.3272433 -1.3806971 -0.78725743 -0.34608477 -0.9388704 0.23916243 -0.5626046
-1.1046937 0.09843411 -0.08669183 -1.7447778 1.7621684 -0.71298736 -1.6903154 0.40642536
-0.47862545 -1.0689242 -0.83421797 -2.374871 1.4707918 0.40236825 0.032376435 -0.99533576
1.4957564 1.8878648 0.51201975 -0.6751646 0.8521105 -0.567665 -1.5162349 -0.52620304
1.0855263 -0.4803383 0.69494444 -1.492634 -0.094773605 -1.7330837 0.657463 0.46493018
-0.79559237 1.2001611 2.6482983 0.23057589 -0.7140144 -0.08483107 0.030657541 -0.19357891
0.18650338 -1.3254595 1.0310823 0.194248 0.13691035 1.049437 -0.78371507 -0.37518468
0.90227574 0.24267426 -0.1751369 -0.12223565 1.7223037 0.46179497 1.3884606 1.1423833
-0.50658023 -1.3637929 1.8313277 -1.6083887 -0.07317413 0.9831303 0.5130704 -0.65034246
-0.62549704 -0.4393577 -0.32165217 0.5538732 -0.54496926 1.1490862 0.2254808 -1.549014
-1.5091358 1.0428792 0.3103409 0.53528017 -0.5049599 2.4712224 0.655806 0.50514597
-0.36805603 0.6424459 -2.3126616 0.0027176612 -0.69424975 0.02427321 -1.2062618 0.79607767
-0.55401593 0.40331835 -0.27018708 0.100448094 -0.035599496 -0.7912311 -1.7252873 -0.4810485
0.37147656 -1.3298872 -0.9816016 0.24621317 -1.8188115 1.2897394 -0.44123107 1.3369282
0.6820089 -0.22628736 -1.8964345 0.42375144 -1.1991798 0.7358841 1.2609638 -1.0800133
-0.6130993 0.18873549 0.018877214 1.5198082 -0.41825968 0.8009939 1.0834036 0.3372855
-1.367748 0.60770434 -1.4232222 0.33374277 -0.085850775 0.14708732 -0.3814802 0.9265279
1.2114184 -1.7720131 -0.66701764 1.2054287 -0.78921914 -1.2537113 0.43966556 2.0078623
0.862692 0.069944 -0.0064231968 -1.431315 -0.05309541 0.4670267 -1.1606307 -0.60993403
0.6222272 -2.1894858 0.0795567 -0.57638395 -1.8753415 -0.79457134 -0.5163049 1.5157475

encoder_layer_mhattentions.0.attention_heads.0.Q.weight f4 [8, 8]
00000000: 0381 1fbb cb4e b83d 4db5 033c 846b 343e
00000010: 8eeb ca3d b03b ce3d d4fd 88bd 940e e73c
00000020: d30d e7bc a2a4 96bb b867 91be 522a 20be
00000030: d833 203d 5173 4fbe 7a0b 51be e750 9cbd
00000040: 5641 0b3d 13cc 3abc d3a0 1fbe a71c 8dbd
00000050: ee64 43be 5b02 3fbd 5fc0 2e3d 4369 81bc
00000060: 7ac2 80bd 342d 38bd 3b1f 3bbe 2b9e a7bb
00000070: 1efb e63c 21d8 3c3a 42f3 07bc 3eba 303e
00000080: 4394 f23d 5f12 f9bc c578 07be b85b a4bd
00000090: aeb8 2ebd 14e8 bfbd 3467 83bc b779 133c
000000a0: 689d 9cbe 9cb9 e83c 2d89 043e 4a1b 0d3e
000000b0: 20ac fcbc 8a85 653d 9d2f 193d 4e29 9dbd
000000c0: 8859 13be 3f1b c03c 1d58 ef3d 0227 be3d
000000d0: 55c5 edbd 780d b73e 27c7 76be 4e7c bdbe
000000e0: 3dc3 f9be 9064 823e 9717 9fbd 8e09 143f
000000f0: ce0d 95bd ae5c 093f 6ced 7a3c 2e19 fbbe
-0.0024338372 0.089994036 0.008038831 0.17619139 0.0990821 0.10069978 -0.06689039 0.028205194
-0.028204834 -0.0045972625 -0.28399444 -0.15641144 0.039111942 -0.20258833 -0.20414534 -0.076326184
0.033997856 -0.011401194 -0.15588693 -0.068902306 -0.1908147 -0.046633106 0.042663928 -0.015797263
-0.062870935 -0.044964984 -0.18273632 -0.0051152906 0.028195914 0.00072038366 -0.008297743 0.17258546
0.11844685 -0.030404268 -0.13229664 -0.080253065 -0.042656593 -0.09370437 -0.016040422 0.009001187
-0.3058884 0.028408818 0.12942953 0.13779941 -0.030843794 0.056035556 0.037398923 -0.07673894
-0.14389622 0.023450492 0.11686728 0.09284784 -0.11609904 0.35752463 -0.24099408 -0.370089
-0.48781767 0.25467348 -0.07768171 0.5782708 -0.07278024 0.5365704 0.015315395 -0.49042648

encoder_layer_mhattentions.0.attention_heads.0.Q.bias f4 [8]
00000000: 4957 97bd 1cc0 3bbf f204 273e a661 493d
00000010: 5fdf 5d3e c587 87be 1eec 993f 0452 f03e
-0.07389695 -0.7334001 0.1631048 0.04916539 0.2166724 -0.2647077 1.2025182 0.46937573

encoder_layer_mhattentions.0.attention_heads.0.K.weight f4 [8, 8]
00000000: c1d6 743e 5f4f 143e d6b6 abbe 67ed 2f3e
00000010: ac99 e23d 5ddf edbd 0eff 55bd 6c79 2bbe
00000020: 4a13 b8be b288 b8bd 949c f7bc 5462 c53e
00000030: a11e 163e 7b70 b8bc 3d7f 9cbd 38ea b23e
00000040: b0ec 42be 529a 47bd 4502 f73d 5f44 74bd
00000050: 234f 64be 3fde b43c 2a2d b33b 8252 f43d
00000060: cb61 a3bc 39db a73d ddc1 94bb 94c9 29ba
00000070: d449 19be b180 9a3d a5a4 873d f318 3dbd
00000080: 0944 35be 9eec d53c 67ba c63d d365 97bd
00000090: 0811 37be 4253 b43d 2716 173e 91de a03d
000000a0: c6e7 453e 00d1 b13d b98c 48be f90f 563e
000000b0: 6ba3 9b3d b5bf 97be 8d1d 9abe 7e3f b1bd
000000c0: 72f5 9b3e b6bc 023e 8228 fcbe 960f b5be
000000d0: a33f 9ebd 9fdb cc3d 5f93 8dbe 0eb4 99bd
000000e0: 641d e53e 8b64 d03d 1e20 2fbf 138c 523e
000000f0: 5331 ab3c cc1b a2be 89c2 e0bd 085c 923e
0.23910047 0.14483403 -0.3353793 0.17180406 0.11064467 -0.11614869 -0.052245192 -0.16745538
-0.35952216 -0.090104476 -0.03022603 0.3855158 0.14660122 -0.022514572 -0.07641456 0.3494432
-0.19035602 -0.048731156 0.1206098 -0.059635516 -0.22295813 0.022078631 0.0054680305 0.119297996
-0.019944092 0.0819611 -0.004539712 -0.0006476876 -0.1496957 0.07544077 0.066232 -0.04616637
-0.17701735 0.026113804 0.09703522 -0.07392468 -0.1787759 0.08804943 0.14754544 0.07854951
0.19326696 0.08682442 -0.19584931 0.2090453 0.07599529 -0.29638448 -0.3010067 -0.08654688
0.30460697 0.127673 -0.49249655 -0.35363454 -0.077269815 0.10002827 -0.27651498 -0.07505046
0.44748986 0.10175427 -0.6840838 0.20561247 0.020897543 -0.31661832 -0.10974605 0.2858584

encoder_layer_mhattentions.0.attention_heads.0.K.bias f4 [8]
00000000: 8265 aa3d 0e43 0a3e eab6 54bb 874c b8bd
00000010: 428f 1bbe 6cd9 d5bd 42b4 5abc f081 f9bd
0.08320142 0.13502142 -0.0032457658 -0.089989714 -0.15191367 -0.104418606 -0.013348641 -0.12182987

encoder_layer_mhattentions.0.attention_heads.0.V.weight f4 [8, 8]
00000000: 1a54 013f f5e5 753e ed50 4bbe 3946 c23d
00000010: f62e 87bd 2712 ec3c 2b8b 57bb e16c 2dbf
00000020: 734e 1b3e 378e 473e 6f06 9abd 6174 c2be
00000030: be95 c33c 7dd9 f03e 0c78 55bd 6013 81be
00000040: 0b8e ae3e eb35 5e3d 7e30 893d 7b64 cd3a
00000050: 8c32 453e 5bb8 9e3e 1cac 40be df07 ad3c
00000060: 2822 1abe ffa6 afbd 8e8e 323e 2c6b 60bb
00000070: 5294 15be 486f b2be 87c0 513c 6997 f53e
00000080: 4d42 5a3e 9e4a 71be 25dd ccbe 03dc babe
00000090: e6fd 62be efd6 83bb f4f6 60be 25ac a13e
000000a0: 74f5 87be 7f36 17bc d589 ebbd a64e a83e
000000b0: ade7 8fbd c9ef 403e a05d 3f3e 918a a83e
000000c0: 51b6 a6bd a53f 803e 1e2f d43d 39c5 fb3d
000000d0: a947 4ebe d3dc 083e cee2 1cbe ac09 383e
000000e0: 9a6f 69be ee8b bfbc 1b1d 0dbe 11d7 3a3e
000000f0: a798 86be 3a74 753e 9d95 87be edb7 803e
0.50518954 0.24013503 -0.1985509 0.0948605 -0.06600754 0.02881725 -0.0032889347 -0.6774426
0.15166645 0.19487844 -0.07520758 -0.37979415 0.023875114 0.4704093 -0.05211644 -0.25210094
0.34092745 0.05425064 0.06698702 0.0015670204 0.19257563 0.31000027 -0.18815655 0.021121917
-0.15052092 -0.08576774 0.17437193 -0.0034243567 -0.14607361 -0.34850526 0.01280225 0.4796708
0.21314354 -0.2356362 -0.4001247 -0.3649598 -0.22167167 -0.004023425 -0.21969205 0.31576648
-0.26554453 -0.0092293015 -0.11500899 0.32872504 -0.070266105 0.18841471 0.18688059 0.32918218
-0.08140243 0.25048557 0.103605494 0.122934766 -0.20144524 0.13365488 -0.15320894 0.1797244
-0.22796479 -0.023382153 -0.13780634 0.18246104 -0.2628834 0.23970118 -0.26481333 0.25140324

encoder_layer_mhattentions.0.attention_heads.0.V.bias f4 [8]
00000000: 4464 46be 9196 82be df43 dcbd 864d 8c3e
00000010: 6102 eebd 52f3 613e 3389 6d3e ba6d 063e
-0.19374186 -0.25505498 -0.10755133 0.27402896 -0.116215475 0.22065476 0.23196869 0.13127795

encoder_layer_mhattentions.0.attention_heads.1.Q.weight f4 [8, 8]
00000000: 792c 353d 0f5d 6fbc 8528 e0bd ee22 d5bb
00000010: fe35 c53c 0f2b 273d 1e52 f63c 590e cabb
00000020: e5cc 8e3d c7ee ae3c 0164 83bc bf83 6b3e
00000030: e648 19bf a054 773f 07bc 4ebc b310 8fbf
00000040: 7a71 90be 5b0e 49be 8cb9 e43e ed1a bcbe
00000050: 412b 4e3f b5e1 f33e b7e7 81bd 6670 afbe
00000060: 0087 163f 3f74 213e 8033 7e3d 3559 7fbe
00000070: 8ac9 503c cda6 6cbf f8ea 363f 6a74 99be
00000080: d484 603f fed2 07bf f1e2 c9be b441 9b3e
00000090: 1e82 8f3b bb36 6c3e b12b f93e 767c 413f
000000a0: c46d febd 9f61 05be 44ab 04be 09be d0bd
000000b0: 91da 25be cb64 ec3e 2710 c6bd 12fc 9b3d
000000c0: 1dc5 1fbf 9104 f1bd a293 2c3f bcce b23d
000000d0: a186 69be 0814 80bd 11f8 e1bb 52f7 013f
000000e0: 36bd 553e 8958 82bd b812 a3bd 8e6b ac3e
000000f0: d20a b23d 1841 eebd 7b57 ff3d 9884 543d
0.044231866 -0.014609589 -0.109452285 -0.006504408 0.024073597 0.04081255 0.030068453 -0.006166261
0.06972674 0.021354092 -0.016038897 0.22999476 -0.5987686 0.966135 -0.012618071 -1.1176971
-0.28211576 -0.19634382 0.4467281 -0.36739293 0.8053475 0.47633138 -0.06343024 -0.3426544
0.58799744 0.15767 0.062060833 -0.24936374 0.012743363 -0.9244202 0.71452284 -0.2997163
0.8770268 -0.53056324 -0.39430955 0.30323565 0.004379525 0.23067753 0.48666146 0.7558054
-0.1242328 -0.1302552 -0.12955958 -0.10192496 -0.16196658 0.4617065 -0.096710496 0.07616438
-0.62410146 -0.11768449 0.6741277 0.08730838 -0.22805263 -0.06253821 -0.006896027 0.50768006
0.2087296 -0.06364543 -0.07962555 0.33675808 0.0869347 -0.116335094 0.124678575 0.051884264

encoder_layer_mhattentions.0.attention_heads.1.Q.bias f4 [8]
00000000: f3f9 61bb 7f32 aa3d 3c34 133c 8b3b 39be
00000010: 0ce3 06be 47c9 9ebd 5200 783d f7e6 a7bd
-0.0034481257 0.083104126 0.008984622 -0.1808912 -0.13172549 -0.07753234 0.06054718 -0.0819835

encoder_layer_mhattentions.0.attention_heads.1.K.weight f4 [8, 8]
00000000: 46a4 a6bd e914 763d e2ef 91ba f115 62bd
00000010: 7486 063d 6418 acbd 49fb 0b3d c1db 52bd
00000020: 5861 12be fa6b 213e 7f1b 20bf 9373 83be
00000030: 7a17 37be f71a c93d af33 6abf e7b2 7b3f
00000040: 54fd ecbc 943f 343e 283b 40bc 4827 8abd
00000050: 573b 5fbf 32bd 763f e5f2 623e 5caa 33bc
00000060: ec7c 35be d3cb c73e a87b 38be 9a87 0dbf
00000070: def8 e03e 6bfa 173f 5eaa 7ebe 325a 15bf
00000080: 569c febe 4f5b bebe ab25 a23e 5b4d b13d
00000090: 609a 773f d4d6 2c3e 672c 2b3e 3e9c 363e
000000a0: 90e4 8abd 2629 bb3c efcf 97bd 12c5 193e
000000b0: 80ff 813d 2128 71bd 91d0 d83d 1b1f a93e
000000c0: 66aa d13e 8ce6 51be 0836 cebe 8d17 073f
000000d0: 94da d33d f9cd 7b3e b903 413f 0870 7cbe
000000e0: ed94 98be 4793 90be 5dd8 623e 02c6 d6bc
000000f0: 9ac3 3a3e bbd2 e73c 6d7e 9ebe 5ea7 003d
-0.081368014 0.060078535 -0.0011134113 -0.055196706 0.03284307 -0.0840309 0.03417519 -0.051479105
-0.14294946 0.15763846 -0.62541956 -0.25674114 -0.1788005 0.09819596 -0.9148511 0.9831986
-0.02892939 0.17602378 -0.011732854 -0.067457736 -0.8719992 0.9638244 0.2216297 -0.01096591
-0.17723435 0.39022693 -0.18015921 -0.55285037 0.4393987 0.5936648 -0.24869677 -0.5834075
-0.4972865 -0.37179038 0.31669363 0.086573325 0.9671993 0.16878825 0.16716157 0.17833039
-0.06781876 0.02284677 -0.07412707 0.15016583 0.06347561 -0.05887616 0.10586656 0.33031544
0.40950316 -0.20498103 -0.40275598 0.5277031 0.10344425 0.24590291 0.75396305 -0.24652112
-0.2980112 -0.28237364 0.22152849 -0.026217464 0.18238679 0.028298726 -0.3095583 0.031409614

encoder_layer_mhattentions.0.attention_heads.1.K.bias f4 [8]
00000000: ed59 24be 9c2e b23d 6fcd 82bc 3713 603e
00000010: b40c 1d3e b6ce 28be d0f6 58bd a0e7 21be
-0.16049929 0.08700296 -0.015967099 0.2188233 0.15336877 -0.16485104 -0.052969754 -0.15811014

encoder_layer_mhattentions.0.attention_heads.1.V.weight f4 [8, 8]
00000000: ffb4 3abe 5e52 abbe b097 19be f862 2cbf
00000010: 3bac cbbe da84 d3be 5b54 16bd 8a4c 9cbc
00000020: b776 cdbe 064a bf3d 6bee 6b3e fdfc f1bc
00000030: 44ae b3bd c58a 923d 2340 34be 48d3 533e
00000040: 3adf 3f3e 6629 96be 395c 86be 8e57 5cbe
00000050: 5bce 8a3e af8c e43e c3f5 b03e 7f8d a23e
00000060: 3cda a9bd d91b 3e3d 8cfe 0a3c f346 263e
00000070: c522 8c3d 4157 843d 0153 3ebd 1da1 153e
00000080: c1f0 883e 18d8 fcbd a385 3d3e 8b84 2dbf
00000090: bbc2 523e 8364 9e3e 8b85 cc3e eb26 e13e
000000a0: 8c80 613e 7c75 a83d 438a e13d 3541 00bc
000000b0: a4ac 9d3d f743 673e 8eda 1bbe b172 30bd
000000c0: 56b9 b0bc 8f6c 19bf 7424 103e 225a 10be
000000d0: 188d 4b3e ed6a de3e c0f2 833e 80ed f7bd
000000e0: 3b9b a6be b24d 503e 66ec b0bd 23af 57bc
000000f0: 0da7 44be e979 7b3e 766e a3be b7ba 70be
-0.18233107 -0.3346128 -0.1499927 -0.67338514 -0.3977984 -0.41312295 -0.03670154 -0.019079465
-0.40129635 0.09340291 0.23040168 -0.02953958 -0.08773473 0.071553744 -0.17602591 0.20686066
0.18737498 -0.2932846 -0.26242235 -0.21517774 0.27110562 0.44638583 0.345625 0.31748578
-0.08293578 0.046413276 0.00848354 0.16238002 0.06842569 0.06461955 -0.046465877 0.14612241
0.2674618 -0.12345904 0.1850801 -0.6778037 0.20582096 0.3093606 0.39945635 0.43975005
0.22021693 0.08225533 0.110126995 -0.007828047 0.07698944 0.2258452 -0.15220091 -0.04307813
-0.02157275 -0.5993127 0.14076406 -0.14096883 0.19878042 0.43440953 0.2577114 -0.121058464
-0.32540306 0.20342138 -0.086388394 -0.013164314 -0.1920435 0.24558224 -0.31920213 -0.23508726

encoder_layer_mhattentions.0.attention_heads.1.V.bias f4 [8]
00000000: 8336 693e 1007 7fbb 41a6 c3be 359f 14be
00000010: a844 c3be b781 02bc 6803 95be 1d02 72bc
0.22774701 -0.0038914122 -0.3821278 -0.14513858 -0.38138318 -0.007965497 -0.2910416 -0.014771012

encoder_layer_mhattentions.0.attention_heads.2.Q.weight f4 [8, 8]
00000000: ddf1 48bb d244 24bf af10 373d f83a aabe
00000010: 8216 c73d 8fe5 b13c 3c3a 2c3e 9e73 b93d
00000020: 8caf 1d3e c382 8b3e 1813 d13e 415f c3bd
00000030: f8c1 73be 8521 d43d 4690 97bd c720 843e
00000040: a641 b4bd 2adb 513f 8f3a 48be edd2 973d
00000050: a8d3 7ebd f241 bd3e 8556 163f 46cd 5f3d
00000060: 8bff 69be d4d1 be3d feb5 cd3e 9d06 a1be
00000070: cc26 313e e726 a53d 5d04 bdbe 64e3 ab3e
00000080: 0a51 f03d fb9a d6be f1e9 fcbd dd3d 723f
00000090: 1aa3 e7bd ed1d 4bbf 3fd3 81bf 971d 19bf
000000a0: 821e 0b3e b4b7 b13d e013 d53c fa57 4b3d
000000b0: 1998 44bd d8ed 5abd 5b13 b93c 6eb2 88bb
000000c0: 0799 2abe 43f6 513f f2cf d23e 6d9b 893f
000000d0: a51d 073e 61ad 90be cc9d 86bf 9a5b 10be
000000e0: bfae 2c3c 3793 d73c 0a02 9dbe 7240 bebe
000000f0: c52b a2be 134d 093f 7bb0 f83d 26dc 3ebd
-0.003066174 -0.6416751 0.044693645 -0.33248115 0.0972109 0.021715907 0.1681909 0.09055255
0.15398997 0.272482 0.4083488 -0.095396526 -0.23804462 0.10357956 -0.07400565 0.25806257
-0.08801584 0.8197504 -0.19553588 0.07413278 -0.06221357 0.36964375 0.5872577 0.054639123
-0.22851388 0.09317365 0.40177912 -0.31450358 0.17299956 0.08064061 -0.3691739 0.33571923
0.11734207 -0.41915116 -0.12349308 0.94625646 -0.11310406 -0.7934254 -1.0142592 -0.59810776
0.13585857 0.08677617 0.026010454 0.049644448 -0.047996614 -0.05344948 0.022592237 -0.004171661
-0.16659938 0.8201639 0.41174275 1.0750557 0.13194902 -0.28257278 -1.0516906 -0.14097443
0.01053971 0.026315315 -0.30665618 -0.37158543 -0.31674019 0.5363323 0.12143036 -0.04659667

encoder_layer_mhattentions.0.attention_heads.2.Q.bias f4 [8]
00000000: 0813 643d e86a 2cbb ef27 f13c 0690 34bd
00000010: 7849 373c c1bb b3bc 19c9 0cbf 6c44 4c3f
0.055682212 -0.0026308838 0.029437987 -0.044082664 0.01118695 -0.021940114 -0.5499435 0.79791903

encoder_layer_mhattentions.0.attention_heads.2.K.weight f4 [8, 8]
00000000: 93ac 1bbe 37fc 013e dc44 b3be 3aad 5b3e
00000010: 1079 62bd ba01 10bf 1684 003e 549f 12be
00000020: 07cf bd3e ea6a 0dbf 4a6f 603e e24f 35bb
00000030: 8370 d9ba 4393 073c bfa4 293d 6a29 aa3c
00000040: 67e5 d6be 3a16 c8be 7f53 fa3e 7810 f33a
00000050: 238a fa3e 813e 993e 534a c0bd 52ef 8abe
00000060: 4509 303e 4e0c cdbe 05e1 17be 65f5 c23e
00000070: b764 623e 30b5 03bf d45e 013e 2d01 64bc
00000080: 785a d53e 59bd 693f c210 e0bd 5948 143e
00000090: 57f4 09bf 4f7e 123f e48b c53e 128b eb3e
000000a0: 47fa a73d ce38 14be 0af2 173d ae43 afbc
000000b0: c60c c6bd c1fa e73d b3f7 abbd e70c 14bd
000000c0: 3e0a 3a3f 47a6 273f 04bc fe3d 9443 8e3d
000000d0: 64d5 5a3e 5b2f 363f 326a 2c3f 19c0 943d
000000e0: 8440 98be 3d32 fbbe 1037 6b3e 1eaa 463e
000000f0: 42be 1e3e f9bf fcbd f135 3abf 3736 8fbd
-0.1520255 0.12693869 -0.35013473 0.214528 -0.055291235 -0.56252635 0.12550387 -0.14318591
0.37072012 -0.5524126 0.21917453 -0.0027666022 -0.0016589317 0.008274856 0.04141688 0.0207717
-0.41971895 -0.39079458 0.48891827 0.0018544337 0.48933515 0.299305 -0.09389176 -0.27135712
0.17191036 -0.4004845 -0.14831932 0.38077846 0.22108732 -0.51448345 0.1263383 -0.013916296
0.41670585 0.91304547 -0.10940696 0.14480723 -0.5388846 0.5722398 0.3858329 0.4600454
0.082020335 -0.14474794 0.03709606 -0.021394577 -0.09670405 0.113271244 -0.08396854 -0.036145117
0.7267188 0.65488094 0.12438205 0.06946483 0.21370465 0.7116601 0.6734954 0.07263202
-0.29736722 -0.49061766 0.22970223 0.19400832 0.15502265 -0.123413034 -0.7273856 -0.069927625

encoder_layer_mhattentions.0.attention_heads.2.K.bias f4 [8]
00000000: ffa1 a73e 96cd b33d 5cfd 9cbe 1987 2ebe
00000010: fd16 09bd f048 92be 509e aa3e 1ee5 35bc
0.3274078 0.08779447 -0.30662048 -0.17043723 -0.03346919 -0.28571272 0.33323908 -0.011101989

encoder_layer_mhattentions.0.attention_heads.2.V.weight f4 [8, 8]
00000000: ad7b e5bc 418d 783e ce8b b43d 1605 b03e
00000010: f875 1ebe f70d 973d 599b d9be 76fc ce3b
00000020: 4224 c1bd b7e3 8cbd 96e5 1ebe e9a5 fdbe
00000030: 76a1 773b 3db3 1c3e afb5 903d 65cb 8cbd
00000040: 6a2f b83d 6ac4 94bd fd5e 4ebd 4c15 d23d
00000050: 782c 4cbd 624d f8bb 6af0 84bd 4aa3 2d3c
00000060: 8b7c 99bb c065 8c3d 1cf2 ffbd d75a 8d3d
00000070: ef28 fe3d 3ed4 543d ae0b 963e 53d6 083d
00000080: aa58 c33c 6b63 f6bd 24e1 91bd f408 983e
00000090: 6818 afbd 8a04 febc 92f8 e1bd 34b5 fbbd
000000a0: ede9 e33c 1c77 87bd a65a 00be 3ad3 d43e
000000b0: f7fd 9dbe 8cec dabd bf59 883e 27d0 f6bd
000000c0: 8439 113d 4ab6 c63e 8fd5 cebd effe 013e
000000d0: 3be9 1a3e 7d6c 11be 72f6 c0bd eedd 8cbe
000000e0: e509 0f3e ab54 6ebe d92b 833c 875d a4bd
000000f0: e58d 73bc 40a7 083c b582 1abd a7aa 66bc
-0.028013075 0.24272634 0.08815728 0.3437888 -0.15474689 0.073757105 -0.42501333 0.006316717
-0.09430744 -0.06879371 -0.15517268 -0.49540642 0.0037785447 0.15302749 0.070659034 -0.06874732
0.089934185 -0.072640255 -0.050383557 0.10257968 -0.049847096 -0.007577584 -0.06491168 0.010598013
-0.004684036 0.06855345 -0.124973506 0.06902092 0.12410151 0.051960222 0.29305786 0.03340752
0.02384599 -0.12030681 -0.0712302 0.2969433 -0.08549577 -0.031008024 -0.11033739 -0.12290421
0.027821505 -0.06614515 -0.1253458 0.41567403 -0.30857822 -0.10689649 0.2663097 -0.12051421
0.03545524 0.3881095 -0.10099327 0.12694906 0.15128033 -0.14201541 -0.09422006 -0.2751307
0.13968618 -0.23274486 0.01601212 -0.080256514 -0.014865373 0.008340657 -0.03772231 -0.014078773

encoder_layer_mhattentions.0.attention_heads.2.V.bias f4 [8]
00000000: 644f 9e3e b591 9fbe 9d34 d33d 6973 c0bd
00000010: 317f c73c 3651 b03e c275 e13d 648d 303d
0.30919945 -0.31165853 0.103127696 -0.09397013 0.024352642 0.3443696 0.11008789 0.04310359

encoder_layer_mhattentions.0.attention_heads.3.Q.weight f4 [8, 8]
00000000: 2d28 143e 5f33 96bd c730 15bf cac1 13bf
00000010: 8d62 093f 6142 9cbe 0af3 fb3d ad8f 223f
00000020: f641 b7bd 2293 e8bb 5a65 46be 8185 943e
00000030: beac 13be 7175 8b3e d1ea 933c e080 fb3d
00000040: bfe9 38bd b661 5d3b 03d0 39be c865 313e
00000050: 9b86 19bd bd97 023e 32a0 783e b7ea ccbe
00000060: 7871 a3bd ae33 043e bd2d 943a 73f0 333d
00000070: 0d21 0b3d 9596 1fbd e27c b1bd f551 98bb
00000080: 1aea 383e 5553 96be 85a5 793e 551e 91be
00000090: fc1b 063f 54a5 80be 4131 9cbe 330d 43be
000000a0: 9b26 2f3e 48a0 fa3e 4e4d ddbd 1e3e a33d
000000b0: cdbe c5be 91eb b43e 34c6 333e ecf6 f13d
000000c0: 6ee9 acbe 154e 13bf 5812 0cbe f458 a1be
000000d0: 3620 c83e 19f2 12bf 9872 28be bffb 9d3d
000000e0: 154f e93e a530 143d bf50 923e bb70 f1be
000000f0: 5718 073f 1279 93be 57a9 8bbe 6e95 b0bd
0.14468451 -0.07334017 -0.58277553 -0.57717574 0.53666 -0.30519393 0.123022154 0.6350048
-0.08948128 -0.0070976177 -0.193746 0.29008105 -0.14421365 0.27238038 0.018056305 0.1228044
-0.045144793 0.0033780164 -0.18145756 0.17323983 -0.037481885 0.12753196 0.2427986 -0.40022823
-0.07980627 0.12910339 0.0011305135 0.043930482 0.033967067 -0.038961966 -0.08666398 -0.004648442
0.18058053 -0.29360452 0.24379547 -0.28343454 0.5238645 -0.25126135 -0.30506328 -0.19048004
0.1710457 0.4895041 -0.1080576 0.07970832 -0.38622132 0.35335973 0.17556077 0.11814675
-0.33771843 -0.5754102 -0.13678873 -0.31513178 0.39087075 -0.5740066 -0.16449964 0.077140324
0.45568147 0.036179204 0.2857723 -0.4715632 0.52771515 -0.28803307 -0.27277634 -0.086222515

encoder_layer_mhattentions.0.attention_heads.3.Q.bias f4 [8]
00000000: 949d 09bf c453 11bd b82c 143e c1e9 d2bd
00000010: 8d0e 843e a3ae 1b3f 1e00 febe 912c 213f
-0.5375607 -0.035480276 0.14470184 -0.10298491 0.2579235 0.6081335 -0.49609464 0.6295863

encoder_layer_mhattentions.0.attention_heads.3.K.weight f4 [8, 8]
00000000: 4508 cebe c744 0b3f 25b7 8dbc 9f68 56be
00000010: 050b 1dbf 0f3f 78be 8011 35bf e208 2abf
00000020: 3f83 f83b 9a74 7dbe 8a70 f73c 2c59 133f
00000030: fa2f 0e3e 492d d23e 545e 1bbb 0501 76be
00000040: 1ee1 8cbe 3e50 03be b2d5 c8bd f0ec 263e
00000050: 5058 3a3e 3df6 fcbd 1b44 e23e 2a8d 3bbe
00000060: 2b31 80bd 3ae9 2cbd 19ea 4e3d 1289 fdbd
00000070: cfc9 8f3d 69bc 57bd cfdb c3bd 2a0a 123e
00000080: abbe a93e 85e0 c83e 3d39 56be fd70 ebbe
00000090: 99c5 44be 0235 19be 6e69 8ebd 4a2e b63d
000000a0: 6450 b4be a7aa 2cbf e8a6 a5be 7dd9 243f
000000b0: d043 203e 6518 833e 0de3 363e c1fe dd3c
000000c0: 033e 333e 33fe 373f 87e9 ae3e 1d07 2abf
000000d0: 6419 b1be 95c2 29be 5e18 44be c14a 01be
000000e0: ea24 2cbe dbbb bd3e bf25 42bf e01a e0be
000000f0: efc0 56be 6b78 80be 225c 683e 0873 763d
-0.40240684 0.5440182 -0.017299244 -0.20938347 -0.6134494 -0.24242805 -0.7072983 -0.66419804
0.007584005 -0.24751511 0.03020503 0.5755794 0.13885489 0.41050175 -0.0023707347 -0.24023826
-0.275155 -0.12823579 -0.09806384 0.16301322 0.18197751 -0.12351654 0.44192585 -0.18315569
-0.06259378 -0.04221461 0.05051622 -0.1237966 0.07020914 -0.052669916 -0.095634095 0.1426169
0.3315328 0.39233795 -0.20920272 -0.4598464 -0.19216003 -0.14961627 -0.06953703 0.08895548
-0.35217583 -0.67447895 -0.32353902 0.6439436 0.15650868 0.2560455 0.1786005 0.027099015
0.17504124 0.7187225 0.34162542 -0.66417104 -0.34589684 -0.16578133 -0.1914992 -0.12626173
-0.16810957 0.37057385 -0.75838846 -0.43770504 -0.20972036 -0.25091872 0.22691396 0.060168296

encoder_layer_mhattentions.0.attention_heads.3.K.bias f4 [8]
00000000: ad24 40be d261 b73d 66b9 f6bd 1065 8c3e
00000010: 3703 a93e 233a 8a3e 4be2 0a3e 216e 693d
-0.1876399 0.089542046 -0.12047081 0.27420855 0.33010265 0.2699748 0.13562886 0.056989793

encoder_layer_mhattentions.0.attention_heads.3.V.weight f4 [8, 8]
00000000: cc2d 0dbe e6ba caba 9ac0 bdbd 696e 39be
00000010: 68af 813d 450d bc3d 0759 edbd d708 b2bd
00000020: b9f9 a2be 4219 be3d 4f3d 05bd 7139 563e
00000030: e56e 963e 2281 c9bd 0375 5cbe 82e8 1fbe
00000040: 585c b43c f2ff c93d abc8 4e3e ad60 853e
00000050: b647 a7be 3d48 5a3e 2823 82bd 6754 e63e
00000060: 0aa9 04be e5de 693d 1ea1 34bd b704 e13d
00000070: fb10 3e3d 3134 57bc 1758 353d 04cf 803d
00000080: 635d 28be f299 8dbe 873d 1bbe a2d7 083e
00000090: 9380 c6be 726e 203e 844f b63e 0571 3c3d
000000a0: 80c6 4fbe 5d62 f9bd 7013 44be 6f63 6d3e
000000b0: 6654 1e3d c0bd cabd dd70 3dbd 30f3 aabe
000000c0: bc02 8d3e a2f6 da3e 15fc 33be 0abf 5d3e
000000d0: 2165 8fbe 72db a13d e287 b2be 38ed 5a3e
000000e0: fbca 6d3e f0c5 1c3e d602 d33d 6924 6c3e
000000f0: 6b1d 4c3e 1440 ad3d cf09 e0be fd6c b43e
-0.13787001 -0.0015467077 -0.092652515 -0.18108524 0.06332284 0.091822185 -0.11589246 -0.08693092
-0.31831148 0.09282161 -0.03252917 0.2092035 0.2938148 -0.09839083 -0.21529011 -0.15616038
0.02201669 0.09863271 0.20193736 0.2605032 -0.326719 0.21316619 -0.06354362 0.4498627
-0.12955108 0.057097334 -0.044098966 0.109872274 0.046402913 -0.013135002 0.044273462 0.06289485
-0.16441874 -0.27656513 -0.1516019 0.13363507 -0.3876997 0.15667132 0.3560754 0.04600622
-0.20290565 -0.121769644 -0.1914804 0.23182462 0.038654707 -0.09899473 -0.046250213 -0.33388662
0.2754115 0.4276629 -0.1757663 0.21654907 -0.28006843 0.07903184 -0.34869295 0.21379554
0.23221962 0.15309882 0.10303275 0.23060764 0.19933097 0.084594876 -0.43757483 0.352394

encoder_layer_mhattentions.0.attention_heads.3.V.bias f4 [8]
00000000: 715f a23d 6c83 0a3e 49a5 24bd ffdd 41be
00000010: 7d22 e8be 28eb c93d 96ff 803e 3eaf 133e
0.0792836 0.13526696 -0.04019669 -0.18932341 -0.45338812 0.098593056 0.25194997 0.14422318

encoder_layer_mhattentions.0.output_layer.weight f4 [32, 32]
00000000: 2da0 0ebd 26d7 0abf 2726 62be 7d06 2b3f
00000010: acb0 3e3e 0fe1 b43e ab4b 183f e2d2 793e
00000020: 272d e2bd a244 02be e552 7abf 106d 053f
00000030: 6311 a1bf 4540 713e d8bc 38bf 238e 12be
00000040: 3dc0 9f3e 3842 b1be 036e cc3d de6d bb3e
00000050: 489c 213e 67cf 4cbe 6273 473e 194e b93b
00000060: 0f3e b6be d42e 5d3d c583 88be 7211 a8bd
00000070: 5a70 bfbe 2b34 d93e b68f 9e3e 5048 513e
00000080: 85ca 92be b6b2 d33e 81f6 963e 0145 82be
00000090: c4ff ce3e 36d1 06bf e6b6 293e b30a 873d
000000a0: e83e 41be 0e7c 58be c841 023f 6107 e8be
000000b0: dd00 473f c752 613e a68c a03e 141c 47be
000000c0: 8e20 763e a21a 97bd 650f 9cbd 6ef3 0b3f
000000d0: 4a47 98be bd75 d3bd 83b4 b23e 7e7e fcbd
000000e0: 3447 923d 08c9 d0bd 1292 25be f7bd 863b
000000f0: a290 9b3e fc34 9f3e 4568 d1bc b12b efbe
00000100: 7d5b 70be 523d b4be dbf6 3d3e 5096 803c
00000110: e1b3 91be ac72 e83d f6fc 4d3e 9803 17be
00000120: fb69 aa3e e063 7abe 109c 30bf 9ca7 22bd
00000130: 5b29 61bf b9e9 93be 2e68 c43d 42b1 a03d
00000140: 4b02 73be c8f5 fe3e 9cd9 adbd dda3 56be
00000150: fbc4 1ebe 32d6 75be 441b 093d 0c56 b13d
00000160: aa67 69bd 313e a33d c9e4 ccbd ef4d 2abd
00000170: ad16 aebe 33c8 b8bc cd8c 8b3e 2d2c 0c3f
00000180: 2a1f e33e fe0c 17bd b14a ebbe 5cb7 00bf
00000190: 6143 5cbe 422a 12be da29 5cbf b91d 43be
000001a0: 69c6 733e c3a6 113f 90b6 4dbe 4342 583e
000001b0: 371a ff3d 56f0 39be 1fda b4bd feaf d73e
000001c0: 8328 50be 6d67 abbc faf1 29bd 903f a7bd
000001d0: d4ad a23c 93e5 a2be 71df d43e 8b27 8dbe
000001e0: 6f74 b23c cabc 683e 31cf 6dbe aa54 85be
000001f0: 19d6 ccbd 5854 9ebc fcf3 04bd be62 0bbf
00000200: be71 ce3d 1a95 cdbd 3587 8bbc 666c 7d3a
00000210: db10 83bd a7de e83c f6cf 01bd 198f c4bd
00000220: db50 2dbe 8451 b43b 4fc9 eebd c6eb 01be
00000230: e688 073e 4005 0dbd 7db0 5d3e 5d24 12bc
00000240: 36b5 2c3d 690a 9fbd 5b6b ca3b 293a 85bc
00000250: c0ac 733d b459 e53c fbe8 e83d 0260 55bd
00000260: da3b 853d 22f1 c03c 3be8 a5bd 40fd c13d
00000270: 5a3f 70bd 05cc b6bd df34 0d3d f397 9c3d
00000280: 32a4 953e 6bcc d93c 41b7 c4bd c515 863d
00000290: 9091 d5be 91d6 d33d 0347 04be b3a9 82be
000002a0: 423d ee3e b06c b43e f190 44be 118a 3c3d
000002b0: 2ffa 67bb 7fce f4be cd11 163d 0944 c03d
000002c0: 0403 56be ac21 b8bd 76d1 913d 318c 0dbe
000002d0: 7cf5 bf3c 5243 99be 8fbf d73e 2265 273e
000002e0: fbd5 a13a bc63 093f bcdd 813e f8d1 2bbe
000002f0: 7f62 be3d 8b42 103e 18d6 57be 88ce bb3e
00000300: 936a b9bd a6b1 a63d 6e4b 373e 3335 6c3e
00000310: 0ab6 f7be 89f1 eb3d 0044 893d 5cef 1cbe
00000320: f538 4a3e 5bf9 c63b 524d 03bd 5414 65bd
00000330: 5144 84be b497 08be c905 a03c 57aa 67be
00000340: e99d 58be 492b d03e 53a5 013e ff0f 6d3d
00000350: cc1b 09be 310e e0be 5626 4e3d 7c51 693d
00000360: 86d5 3bbe 432b 683e f25d 2b3e 96f4 25be
00000370: f3ed 79be dd9d 80bd b001 57be 77c2 ee3e
00000380: 819a 97be bd03 6d3e 129f 2abe 29ce 9bbd
00000390: cd89 793e 3008 e2be 59c9 9ebe e0eb 4abe
000003a0: d2a6 e7be 80a9 be3e 26f1 e93c 7bd8 d13e
000003b0: ebc6 473e b327 e8bd 30b0 0fbe a104 3e3e
000003c0: 83bf 3ebe 4e77 8a3e 8f85 c63d 2313 843b
000003d0: cb0a 9f3d 24e7 d53d 8420 19b9 d6d7 323b
000003e0: e1cd a33d 1ed8 403e 0f08 7dbe 168b ccbd
000003f0: a5a5 0c3e 2026 293e 9342 b6be f4cc 34be
-0.034820724 -0.5423454 -0.22084866 0.66806775 0.18622082 0.35327956 0.5949046 0.24396852
-0.110437684 -0.12721494 -0.97782737 0.5211954 -1.2583431 0.23559673 -0.7216315 -0.14312033
0.31201354 -0.34620833 0.099819206 0.3660726 0.15782273 -0.20000993 0.19477609 0.005655062
-0.35594222 0.053999737 -0.26663032 -0.082064524 -0.37390405 0.42422614 0.30969018 0.20437741
-0.28670135 0.41347283 0.29484943 -0.2544327 0.4042951 -0.5266298 0.16573676 0.065938376
-0.18871653 -0.21141073 0.50881624 -0.4531813 0.7773569 0.22004233 0.31357306 -0.19444305
0.24035856 -0.07378127 -0.07620124 0.5466832 -0.2974189 -0.10325191 0.34903345 -0.12328814
0.07142487 -0.10194594 -0.16169003 0.004112001 0.30383784 0.3109511 -0.025562415 -0.4671302
-0.234724 -0.35203034 0.18551199 0.015696675 -0.2845755 0.11349997 0.20116028 -0.14747465
0.33283982 -0.24452162 -0.6898813 -0.039710626 -0.8795373 -0.28889254 0.09590183 0.07846309
-0.23731343 0.4979689 -0.08488771 -0.20960946 -0.1550483 -0.2400749 0.03347327 0.0865899
-0.056983627 0.079708464 -0.10004575 -0.04157823 -0.34001675 -0.0225564 0.2725586 0.54754907
0.44359714 -0.036877625 -0.45955423 -0.50279784 -0.21510078 -0.14273933 -0.8600136 -0.19054307
0.23806156 0.56895083 -0.20089173 0.21119027 0.12456172 -0.18158087 -0.08830666 0.4212646
-0.20327954 -0.02092334 -0.041490532 -0.081664205 0.019858278 -0.31815776 0.41576722 -0.2756923
0.021784035 0.22728267 -0.23223568 -0.26041156 -0.100017734 -0.019327328 -0.032459244 -0.54447544
0.10080288 -0.100382045 -0.017032245 0.00096673367 -0.06399699 0.028426481 -0.031692468 -0.09597606
-0.16925375 0.0055028815 -0.1165949 -0.12687597 0.13235816 -0.034428835 0.21649356 -0.0089198025
0.042165004 -0.077656575 0.0061773486 -0.016263084 0.05949092 0.027996875 0.113725625 -0.052093513
0.065055564 0.023552481 -0.08100935 0.09472132 -0.058654167 -0.089256324 0.03447425 0.076461695
0.29226834 0.026586732 -0.096052654 0.06547121 -0.41712618 0.1034366 -0.12917714 -0.25520095
0.4653111 0.35239172 -0.19195916 0.046030108 -0.0035396924 -0.47813794 0.03663807 0.09387977
-0.20899588 -0.089907974 0.0712003 -0.1382301 0.023432486 -0.29934174 0.42138335 0.16347173
0.0012347096 0.5366781 0.25364482 -0.16779315 0.092961304 0.14087884 -0.21077764 0.36681008
-0.090535305 0.081393525 0.17899868 0.23067169 -0.48381072 0.115206786 0.06702423 -0.15325683
0.1974829 0.006072206 -0.03205616 -0.05592759 -0.2583337 -0.1333912 0.019534009 -0.22623573
-0.21153988 0.40658024 0.12660722 0.057876583 -0.1338951 -0.43760827 0.05032953 0.056962475
-0.18343171 0.22672753 0.16735056 -0.16206583 -0.24407177 -0.0628011 -0.20996737 0.4663274
-0.29610065 0.23145957 -0.16662243 -0.07607681 0.24368973 -0.44146872 -0.3101299 -0.19816542
-0.4524446 0.37238693 0.028557371 0.40985474 0.19509475 -0.11335697 -0.14032054 0.18556453
-0.18627743 0.27044147 0.09693443 0.0040306016 0.077657305 0.10444477 -0.0001460333 0.0027289293
0.07998253 0.18832442 -0.24710105 -0.09987466 0.13735063 0.1651845 -0.35597667 -0.17656308

encoder_layer_mhattentions.0.output_layer.bias f4 [32]
00000000: ec81 693a 0a7f 85be a594 e1be a7fb d4be
00000010: 0754 963c 5d4e a83e 634b 183e 2ccb 9dbe
00000020: 5b53 2fbe ee2f 9e3d e45b b53e de83 d2bd
00000030: 2b04 29be 8ebc fe3e 824c f33d 21fd c8bd
00000040: 5438 adbe 7c95 f53e 5c61 a43e 1ce2 33bf
00000050: aa54 c43e d730 48be 1f24 423f 9f05 7b3e
00000060: 1ef4 303d ead0 093f 5ebb 0d3d c800 98bd
00000070: ab50 82be 420e aabd e18d 56be ee92 0ebe
0.00089076045 -0.26073486 -0.4405872 -0.41598246 0.018350614 0.32872286 0.14872508 -0.3081907
-0.17121641 0.077239856 0.3542167 -0.10279058 -0.16505496 0.4975323 0.11879827 -0.098139055
-0.33832037 0.4796561 0.3210553 -0.7026689 0.38345844 -0.19549881 0.75836366 0.24513863
0.04320156 0.538344 0.034602515 -0.07422024 -0.2545217 -0.08303501 -0.2095256 -0.13923237

encoder_layer_mhattentions.1.attention_heads.0.Q.weight f4 [8, 8]
00000000: e793 633f dcb8 21bf deb6 a13d 01f7 2bbf
00000010: b8cc a23d b73d 373f d4ec 493e b44a c03e
00000020: c999 813b 7da1 973e 6fea cfbe 7456 a13e
00000030: 4150 813e 1090 f0be e7fb d93e ffaf 4ebe
00000040: 593a 44be 7d2b 13bf 82a7 01bf 91b2 193e
00000050: 2fcc 20be 2383 86be 3a68 e3be 3603 073f
00000060: f2f5 0b3f 7001 05bf 8e4d 58bc 1021 663f
00000070: d813 ecbe 7ae8 9d3e dc1e 5dbe 2d53 83be
00000080: 5985 88bd 6651 4e3f 5ba0 d0bd 5fa4 843d
00000090: 196a 3bbe 6dbc 6a3e 2bfd 88be 1a40 15be
000000a0: f3d2 efbe dd2e 9fbe b72e 1bbf 038d a73e
000000b0: df04 17be fcf1 4cbf 7c4d a13e e1d0 57be
000000c0: 597d 213f 91ee 8c3e 1405 58bd bc6e d23e
000000d0: 513e 193e e4ba 473c c24d 633e 85af ed3e
000000e0: 7a94 8ebe c18b 173c 2660 8d3e adb9 5f3e
000000f0: 75d4 9dbe 6628 253d 83ba 433f c030 92be
0.88897556 -0.631727 0.07896207 -0.67173773 0.07949203 0.71578544 0.19719249 0.37556994
0.0039551 0.29615393 -0.40608546 0.3151127 0.2525654 -0.4698491 0.42575 -0.20184325
-0.19162883 -0.5748823 -0.5064622 0.15009524 -0.1570289 -0.26271924 -0.44415456 0.52739275
0.5467216 -0.5195532 -0.013202084 0.898942 -0.4610889 0.30841428 -0.21593803 -0.25649396
-0.06666059 0.80592954 -0.101868354 0.06476664 -0.18302192 0.22923441 -0.26755652 -0.14575234
-0.4684063 -0.3109044 -0.60618156 0.3272477 -0.14747952 -0.8005674 0.31504428 -0.21075775
0.6308189 0.27525762 -0.052739218 0.4110011 0.14965178 0.012190554 0.22197631 0.46422973
-0.27847654 0.0092496285 0.27612418 0.21848173 -0.30826154 0.04032173 0.7645647 -0.28552818

encoder_layer_mhattentions.1.attention_heads.0.Q.bias f4 [8]
00000000: 0168 2bbe b30f 73bf c67c d6be 3bf2 0f3c
00000010: 8d23 b0bf 21f0 a83e 5321 353e 4a61 f03d
-0.16738893 -0.9494583 -0.4189207 0.00878578 -1.3760849 0.32995704 0.17688493 0.117373064

encoder_layer_mhattentions.1.attention_heads.0.K.weight f4 [8, 8]
00000000: 3730 053f 0b34 23be 06eb 9e3d bfb0 d4bd
00000010: c113 b83e 32d0 373e 7aae 6dbf f78f c0be
00000020: c2b1 18be 3e58 fe3e 1a2f 773f cb9a 23bf
00000030: 17b1 7c3e e1c3 7dbe 1fee 63be 199e 45be
00000040: 7eab fbbd 8791 48bd 3499 3a3f 9187 283f
00000050: d02d 48be 37b6 063e a0f5 293e d08a b2be
00000060: 2634 1f3f 66a8 0b3f 9e79 aabd 8e41 fbbe
00000070: da61 4fbd 6cf0 0ebd 0306 2c3e 6d53 5fbf
00000080: a255 db3d dec2 90be 759a 873e be75 3cbd
00000090: 811d ac3e 77cf 91bf 937b 083f 0ae0 04bf
000000a0: 5059 85be 0eb7 6e3e 41a9 3c3e cfe0 19be
000000b0: 741d 5dbe 836b 113f fcba 663e 8a00 eb3e
000000c0: b7c1 1dbf e3d5 0d3e 5132 74be 5ffe 9ebe
000000d0: 8bab 0d3e 25e0 513e 0780 9cbd 2a0a c8be
000000e0: 0c26 3a3e 6eb2 c0bd 2ad4 1d3e e594 fabe
000000f0: a7a8 873e 2d1f e83e d249 bf3e a0d7 a13e
0.52026695 -0.15937822 0.07759671 -0.10385274 0.3595257 0.17950514 -0.92844355 -0.37609836
-0.14911559 0.49676698 0.96556246 -0.6390807 0.2467693 -0.24781753 -0.22258805 -0.1929859
-0.12288569 -0.04896691 0.7289002 0.6583186 -0.19548726 0.13155447 0.16597605 -0.3487153
0.6218895 0.5455383 -0.08323978 -0.49073452 -0.050630428 -0.034897253 0.16799168 -0.8723667
0.107096925 -0.28273672 0.2648503 -0.046010725 0.3361626 -1.1391438 0.5331356 -0.51904356
-0.26044703 0.23312017 0.1842394 -0.15027164 -0.21593267 0.56804675 0.22532266 0.4589885
-0.6162371 0.13851123 -0.23847319 -0.31053445 0.1383497 0.2049566 -0.07641607 -0.39070255
0.18178576 -0.09409033 0.15412965 -0.48941723 0.2649586 0.45336285 0.37361008 0.3160982

encoder_layer_mhattentions.1.attention_heads.0.K.bias f4 [8]
00000000: be9d 413e 9a4e c0be e289 a23e 54a5 563d
00000010: 71b2 98be 132e 54be 4bbc a83e 40dc c5bd
0.1890783 -0.37559968 0.3174582 0.052403763 -0.2982364 -0.20720701 0.32956156 -0.0966115

encoder_layer_mhattentions.1.attention_heads.0.V.weight f4 [8, 8]
00000000: 72c8 1c3e 6717 1dbc c4dc 7b3d e326 85be
00000010: 56b9 aabd e83f 073e 0cad 81be a61a dfbd
00000020: dfd6 14be 2130 b8bc a6da e4bd 86cf 2ebe
00000030: d2a7 70ba 9b6d 4fbd f819 80bd 5990 81be
00000040: 5633 42be 8fb9 cc3d c131 fa3d a866 303e
00000050: 18ca 0c3e 03c3 083d 0484 aeb8 80d5 123a
00000060: bd40 a93d a1ca 4cbd 6d6a f13d c715 63be
00000070: e62c 803d 6147 afbd 35bf 59bd 263b 07bd
00000080: 903f e5be b375 0abd 3b36 753e e160 593c
00000090: d136 90bc f1e2 aabd 6ef6 4d3d 8a86 213e
000000a0: 581a 893d 4199 113e a386 523c 72ba acbd
000000b0: 98d5 2fbd c29b b0bd d8e6 09bd fb6d 8e3d
000000c0: 1ba9 de3d 938c 1c3e 3353 07be f28a 1ebe
000000d0: a968 673d 21df 243d e2ae 0abd b5cb 3f3e
000000e0: 16eb 9f3d f2cb 3ebe e1f4 a03d bbbc d5bc
000000f0: a482 0d3e 8304 f8bd 728d c0bd 0ace 80bd
0.15310839 -0.009588099 0.061489835 -0.2600623 -0.08336131 0.13207972 -0.25327337 -0.10893755
-0.14535092 -0.022483887 -0.111745164 -0.17071351 -0.00091802806 -0.050641637 -0.06254953 -0.2530544
-0.18964896 0.0999633 0.12216521 0.1722666 0.13748968 0.033389103 -8.3215564e-05 0.0005601272
0.08264301 -0.04999793 0.11787877 -0.22176276 0.06258564 -0.08558536 -0.053160865 -0.033015393
-0.44775057 -0.033803653 0.23946469 0.013267727 -0.017604263 -0.08344067 0.05028384 0.15773979
0.06694478 0.14218618 0.012849483 -0.08433999 -0.04292831 -0.086234584 -0.033667415 0.06954571
0.10872098 0.15288 -0.13215332 -0.15482691 0.056496296 0.040251855 -0.033858187 0.18730052
0.07808511 -0.18632486 0.07859207 -0.02609097 0.13819367 -0.121102355 -0.094019786 -0.06289299

encoder_layer_mhattentions.1.attention_heads.0.V.bias f4 [8]
00000000: 0f97 2fbe 6b3b 44bb 05c0 3b3e af80 00bd
00000010: 50b2 d23d be04 623b df75 91bd ceb9 223d
-0.17147468 -0.0029942642 0.18334968 -0.031372722 0.10287917 0.003448769 -0.0710256 0.03972798

encoder_layer_mhattentions.1.attention_heads.1.Q.weight f4 [8, 8]
00000000: beaf c2be 1099 e2bd e108 3ebe cd64 ce3e
00000010: fc80 4bbd d31d 293c f9f6 01bf 965e f6bd
00000020: 472b 4c3e 946a d83c b57e c93e 26e2 e3be
00000030: 1b3c 34bf 74de 29be 7dcb a23e 9fcf 013e
00000040: 4b72 aebe 2c09 1cbe da48 b03e 9d92 bc3e
00000050: 9f9c ffbe 5d03 a33d 5e13 eb3d 18a9 1b3f
00000060: 7c7d a23e 75fb 2dbd f217 a63e b508 e7be
00000070: 52ae a23d 9772 753c a612 493e af60 673e
00000080: be38 27be 078b 30bc 41b1 0fbf b08b ee3e
00000090: a2a8 dc3e e7fc f43e 996b ddbe d52d 8c3e
000000a0: 192f a23d a7a8 3bbe 96e8 b7be 85d8 503e
000000b0: cdfd 19bf 7ae1 19be baea 77bf 04ef b53e
000000c0: 800e 9abe ee0b 3ebc 5613 aebe fd43 9d3b
000000d0: 308f 853e e382 0dbd 4c5c 56bf 7519 123f
000000e0: 01bb 04bf c64c eabc adfa 2d3d 31df 663e
000000f0: d67c bb3e 0828 d4be 44d6 e33c 0dad 5ebf
-0.38024706 -0.110643506 -0.18558075 0.4031128 -0.049683556 0.010322052 -0.50767475 -0.120297596
0.19938384 0.026418008 0.39354482 -0.44508475 -0.70404214 -0.16588765 0.31795874 0.12676857
-0.34071574 -0.15237874 0.3443058 0.36830607 -0.4992418 0.07959626 0.114783034 0.6080489
0.31736362 -0.042476136 0.32440144 -0.4512383 0.07943405 0.014980934 0.1963602 0.22595476
-0.16330239 -0.010775334 -0.56129843 0.46590948 0.43097407 0.478492 -0.43246153 0.27378717
0.079191394 -0.18326055 -0.35919636 0.20395096 -0.60152894 -0.15027419 -0.9684254 0.35533917
-0.30089188 -0.011599524 -0.33999127 0.0047993646 0.26085806 -0.03454865 -0.83734584 0.57070094
-0.51847845 -0.028601062 0.04247539 0.22546078 0.3661868 -0.4143679 0.02781213 -0.86982805

encoder_layer_mhattentions.1.attention_heads.1.Q.bias f4 [8]
00000000: 6779 e2bd c5d6 523d 5eed cfbe 4d45 d8ba
00000010: 3da0 46be 38e3 0fbf df06 6c3e e524 35be
-0.11058312 0.05147435 -0.40610784 -0.0016500145 -0.19397064 -0.56206083 0.23049496 -0.17689855

encoder_layer_mhattentions.1.attention_heads.1.K.weight f4 [8, 8]
00000000: 206d 663e 1ea7 c6bd 1dbe 89be 8e8f e13e
00000010: 1b20 e2be 52ba 44bc 4c97 273e e844 7dbd
00000020: 05fb 01be 3b50 cabd 7748 b83e 9ac7 90bd
00000030: bf6e 3a3e d116 73bd 987c 0b3e 9f7c 08bf
00000040: 8a60 863e cb1d e5be 9ca6 0b3e 9a67 68bd
00000050: 10f6 8abc a9e5 823e b2a5 0b3e 313f 9bbe
00000060: 3e1a 94bd 62c6 a43e 2737 cb3e c32c 0bbf
00000070: 7e78 ab3e da89 b2bb 1896 e83c 239b 253d
00000080: 383f 3c3e efe3 a3bd 780f 1fbe 9b97 a73c
00000090: 6b81 42bf ec34 0c3f d2c8 15be 8e6e 103f
000000a0: 871b a939 00e0 38be 74fa a3be f508 2f3f
000000b0: 57fc a1be 4cda 2d3f 82f7 733f 8f0b d4bc
000000c0: ed03 9c3e c1cd 7a3d 8d0c 5fbe 9f49 4c3e
000000d0: 5a69 87bf 1534 f53e 79a4 953e 3351 d2be
000000e0: a72d 503e 52f8 51bd 4d6e 39bf 4b76 e53d
000000f0: 73b2 bb3e 9d39 a2be 4063 19be 9542 c43e
0.22502565 -0.09699844 -0.26902857 0.44054836 -0.4416512 -0.012007313 0.16366309 -0.061833292
-0.12693413 -0.09878584 0.35992786 -0.07069321 0.18206309 -0.05934793 0.13621747 -0.53315157
0.26245528 -0.44749293 0.13637775 -0.056739427 -0.016963035 0.25565842 0.13637426 -0.3032165
-0.07231568 0.32182604 0.39690515 -0.54365176 0.33490366 -0.005448562 0.028391883 0.040431153
0.18383491 -0.08002459 -0.15533245 0.020458033 -0.75978726 0.5476825 -0.14627388 0.56418693
0.000322547 -0.18054199 -0.32027018 0.6837304 -0.31637833 0.6791122 0.9529954 -0.025884418
0.30471745 0.06123138 -0.21782131 0.19949959 -1.0579026 0.47891298 0.29227045 -0.41077575
0.20329915 -0.051262207 -0.7243393 0.11204203 0.36659583 -0.3168458 -0.14979267 0.38332048

encoder_layer_mhattentions.1.attention_heads.1.K.bias f4 [8]
00000000: 8299 d9bc 98c7 39bb cfd0 303e c9c6 cdbc
00000010: d141 c0bd dac4 953d 37d2 b7be fe49 3c3d
-0.026562456 -0.0028347727 0.17267154 -0.025119202 -0.093875535 0.07312937 -0.3590257 0.045969002

encoder_layer_mhattentions.1.attention_heads.1.V.weight f4 [8, 8]
00000000: b4d2 ee3d 5c28 3cbd f98d 0f3e bb51 07be
00000010: cfd3 84be e3f1 ed3d 4ac3 b33e f5e6 233e
00000020: 4260 063e 041e 74bd 29ea 623e 641e 443e
00000030: b28a c8be 3c3d a9bd b299 5fbd 34fb 50be
00000040: 7362 ec3d 0f6e 34be 9347 65bd b869 6bbe
00000050: 5b50 41be 2068 0d3e edfd 54bb e455 b6be
00000060: 2e02 893d bd0d 4a3c c095 79be a398 503e
00000070: 6698 3f3e d6d4 993d b50f b53d 800c 16bd
00000080: 7881 dd3e fc43 97bd a98f dbbd 1669 2bbe
00000090: b3f5 29be 7b5e 9ebd 22b4 b33e 4636 b43c
000000a0: bd60 81be db37 89bb 00ab 0ebe 7ff6 113e
000000b0: 96bb 93bc 57ea c2bd c11e f439 7868 36be
000000c0: 12e0 d93d 438b 293d 050b 06be d12f 6c3d
000000d0: 4386 3d3e 3f30 143c 0403 ac3d 185a a9bc
000000e0: 4701 e1be 32b9 ed3e cae2 82bc 1eae 82be
000000f0: 2fe1 ecbe 414b b63d fcdb 25be 219d c33d
0.11661282 -0.045936927 0.14019002 -0.13214771 -0.25942847 0.11618402 0.3510993 0.16006072
0.13122657 -0.059598938 0.22159638 0.19152218 -0.39168316 -0.08263633 -0.054589935 -0.20408326
0.11542215 -0.17620109 -0.05597646 -0.22989547 -0.1887831 0.13809252 -0.0032499984 -0.35612404
0.06689869 0.012332377 -0.24373531 0.20370726 0.18710479 0.07511298 0.088408865 -0.036633015
0.4326284 -0.07386014 -0.107207604 -0.16739306 -0.16597633 -0.077328645 0.35098368 0.021998536
-0.25269118 -0.0041875667 -0.13932419 0.14254187 -0.018033784 -0.09517353 0.0004656222 -0.17813289
0.10638441 0.041392576 -0.13090141 0.05766279 0.18508248 0.009044706 0.08399013 -0.020672843
-0.43946287 0.46430355 -0.015977282 -0.25523466 -0.4626555 0.08901072 -0.16197199 0.09551454
