models/model_chkpt_170.pt (torch, 319268 bytes, 387 tensors)

tokenizer.token_embedding.weight f4 [17, 32]
-0.65242696 -2.3801384 -0.059693716 0.5953407 1.964529 0.55128497 0.9902074 1.3641756
-1.6135601 -0.9637535 -0.32712066 0.19067122 -1.0043963 -0.5617617 -0.3268021 -0.49078318
-0.34314996 0.65437907 -0.48154122 -0.3499766 -1.4903435 -2.0808182 0.76193684 3.276937
-0.15204756 0.69623834 0.6970706 1.7166564 -0.5583258 -3.3012633 0.69100755 -0.23414886
-0.6599535 -1.7763182 1.4359028 -0.35416624 2.9907122 0.8126107 -0.07955073 1.0215342
-1.4086692 -0.7616975 -0.33319134 0.3973011 -0.85813737 -0.504658 -0.7067092 -0.413635
1.8411324 -0.500611 0.119994685 1.1205219 1.2134577 1.2926565 0.9858766 0.33594477
-1.0043545 0.26391968 1.5949082 0.65744555 -0.63683695 -1.6654904 -0.39683595 0.73203
-0.619977 0.21086016 -0.25327852 -0.16856393 4.120997 0.22054966 1.9569843 0.12208574
-1.229883 -0.27132213 -0.63755965 0.69410306 -0.31039113 -0.42456964 -0.6245171 -0.47100085
1.7455674 1.9738039 -0.38946855 -2.3272927 -1.2734884 -0.5856853 -0.14784254 -2.0195882
-1.0878819 1.2471081 0.2956462 1.0978737 0.54753184 -0.21785775 -0.6817475 -0.14495438
-0.75659573 1.9057854 0.20577845 -0.7266978 0.088479444 -0.5551858 1.8525491 1.0653107
-1.5108198 0.8688695 -1.1155697 0.714858 -0.053237516 -0.6786504 -0.35651234 -0.43321034
0.7055124 0.56552035 1.8049726 -0.37319925 -0.50675154 1.3725674 0.9774955 -2.9972196
-1.446724 0.68689317 0.26440203 0.09659605 0.30056435 0.96674085 -1.1328847 0.526543
-0.60117847 -0.2539043 0.06532703 0.59959275 -0.5451857 -1.6461184 2.775104 -0.36539632
-0.008337792 -0.2060469 0.5494036 1.4831995 -0.2524227 -0.06260613 -1.412497 -0.1907049
1.0221682 0.31723136 1.9622505 -1.4258152 -1.5613141 0.58613706 0.0060332282 -1.2203472
-1.0463111 0.46094573 -0.9539929 -0.37288862 0.4665221 2.2703042 -1.4282018 -0.5163508
0.76210046 0.97701836 2.0299022 0.37496698 -4.0209856 -1.1924158 0.6815991 0.9837959
-0.27354187 1.1747063 0.7291219 1.3828334 0.004782393 -0.31449413 -0.9602341 -0.023946201
2.2316334 0.8000533 0.28693044 -0.57264626 0.024346981 0.018762227 0.67001086 -0.096754014
0.24069917 -0.81937444 -0.52987736 -0.3912962 -0.37088957 1.3517647 -1.3236588 -0.79506636
-0.4497738 -1.5336509 0.32959074 0.34689593 -1.5898899 -1.7096748 0.123717315 -0.11616716
-0.31427497 1.0446246 0.80714995 1.3691559 -0.1607453 -0.25876942 -1.1144644 0.1139991
1.151586 0.36100873 -1.8787545 0.20882949 0.4778404 0.12325038 -0.42404348 2.8936954
-1.1816921 0.39637992 -0.56086415 -0.8926082 0.45416954 2.8830738 -1.359659 -0.36120495
-0.9132797 0.239914 3.0283577 0.8589902 0.62928754 -3.5734797 -3.614411 -0.51123583
0.1303145 2.2454307 1.0982884 1.2358023 0.015187204 -0.32166728 -0.81288797 0.17864615
0.70821166 0.20363738 -1.8238901 0.70011646 2.0577908 1.3905532 0.2413337 1.2074286
0.27465335 -0.23285662 -0.86388355 0.6793574 -0.2175399 0.92469835 -1.4338696 -0.32894233
00000000: 7405 27bf 3054 18c0 6681 74bd 4068 183f
00000010: b075 fb3f 0321 0d3f 3b7e 7d3f 4e9d ae3f
00000020: 2389 cebf 8db8 76bf 5c7c a7be 513f 433e
00000030: 0f90 80bf 9dcf 0fbf 9b52 a7be ef47 fbbe
00000040: 5ab1 afbe 6385 273f 928c f6be 2230 b3be
00000050: 93c3 bebf 202c 05c0 4b0e 433f 56b9 5140
00000060: 5bb2 1bbe ad3c 323f 3873 323f 66bb db3f
00000070: 71ee 0ebf e647 53c0 dfe5 303f b8c4 6fbe
00000080: b6f2 28bf 655e e3bf aacb b73f 4755 b5be
00000090: d467 3f40 4107 503f 7eeb a2bd a2c1 823f
000000a0: 464f b4bf 9bfe 42bf 0e98 aabe 0d6b cb3e
000000b0: e4ae 5bbf 4431 01bf e5ea 34bf f7c7 d3be
000000c0: 3aaa eb3f 0b28 00bf c6bf f53d 436d 8f3f
000000d0: 9552 9b3f c575 a53f 6962 7c3f f400 ac3e
000000e0: b08e 80bf 7b20 873e f425 cc3f 5a4e 283f
000000f0: bf07 23bf ca2e d5bf 152e cbbe 5166 3b3f
00000100: d0b6 1ebf baeb 573e b9ad 81be 069c 2cbe
00000110: 35df 8340 c5d7 613e 767e fa3f 1708 fa3d
00000120: ce6c 9dbf bcea 8abe 1c37 23bf bdb0 313f
00000130: 96eb 9ebe 3161 d9be 5ae0 1fbf 0627 f1be
00000140: c16e df3f 9ba5 fc3f 6c68 c7be 5df2 14c0
00000150: ab01 a3bf 79ef 15bf 0964 17be ef40 01c0
00000160: b73f 8bbf 3da1 9f3f f05e 973e 2087 8c3f
00000170: 0c2b 0c3f 1a16 5fbe 0187 2ebf ec6e 14be
00000180: 42b0 41bf c7f0 f33f 96b7 523e de08 3abf
00000190: b634 b53d a820 0ebf 5420 ed3f 1a5c 883f
000001a0: 8b62 c1bf 3b6e 5e3f fdca 8ebf ef00 373f
000001b0: 950f 5abd 08bc 2dbf c988 b6be bfcd ddbe
000001c0: 769c 343f f1c5 103f 5809 e73f f913 bfbe
000001d0: 78ba 01bf 4ab0 af3f 253d 7a3f 72d2 3fc0
000001e0: 412e b9bf 3bd8 2f3f b45f 873e 26d4 c53d
000001f0: 92e3 993e 547c 773f 5e02 91bf 86cb 063f
00000200: d5e6 19bf bfff 81be 2eca 853d e97e 193f
00000210: 4a91 0bbf 02b4 d2bf 4e9b 3140 3a15 bbbe
00000220: 3c9b 08bc f5fd 52be b7a5 0c3f 7bd9 bd3f
00000230: 8c3d 81be a537 80bd b4cc b4bf 2548 43be
00000240: 68d6 823f 266c a23e 062b fb3f 1d81 b6bf
00000250: 24d9 c7bf 140d 163f 63b2 c53b 5634 9cbf
00000260: 86ed 85bf 1401 ec3e e138 74bf 42eb bebe
00000270: fcdb ee3e aa4c 1140 51cf b6bf 912f 04bf
00000280: 0419 433f e01d 7a3f ebe9 0140 acfb bf3e
00000290: eaab 80c0 15a1 98bf 477d 2e3f 0cda 7b3f
000002a0: ae0d 8cbe c75c 963f bca7 3a3f af00 b13f
000002b0: 9fb5 9c3b 6005 a1be e7d1 75bf d32a c4bc
000002c0: 15d3 0e40 4bd0 4c3f 8ce8 923e f298 12bf
000002d0: 5273 c73c 3eb3 993c d585 2b3f f826 c6bd
000002e0: d879 763e 86c2 51bf 0ba6 07bf fa57 c8be
000002f0: 3de5 bdbe a006 ad3f a76d a9bf 7889 4bbf
00000300: c048 e6be ac4e c4bf 1ec0 a83e 589c b13e
00000310: 8381 cbbf a0d6 dabf 815f fd3d 0ce9 edbd
00000320: a6e8 a0be 42b6 853f 61a1 4e3f 8040 af3f
00000330: 6a9a 24be 6d7d 84be c5a6 8ebf 5c78 e93d
00000340: 2c67 933f 23d6 b83e 077b f0bf 66d7 553e
00000350: 7fa7 f43e b26a fc3d 3a1c d9be 4e32 3940
00000360: b041 97bf 4ff2 ca3e cb94 0fbf f981 64bf
00000370: e988 e83e 4884 3840 4e09 aebf dbef b8be
00000380: b3cc 69bf 04ac 753e 9dd0 4140 c8e6 5b3f
00000390: fd18 213f e4b3 64c0 8352 67c0 5ae0 02bf
000003a0: 2a71 053e 23b5 0f40 b794 8c3f c52e 9e3f
000003b0: c0d3 783c 93b1 a4be 6d19 50bf 04ef 363e
000003c0: 5c4d 353f 5186 503e 3b75 e9bf d53a 333f
000003d0: d8b2 0340 a6fd b13f 2e20 773e 058d 9a3f
000003e0: 5d9f 8c3e f771 6ebe 7927 5dbf 5eea 2d3f
000003f0: c8c2 5ebe 08b9 6c3f 0a89 b7bf 216b a8be

tokenizer.positional_embedding.weight f4 [9, 32]
0.45814863 0.17134717 -0.4667461 0.31447518 0.22329965 1.9074122 -0.15142298 -0.36569822
-0.6980344 0.9683599 2.2456129 -1.1794155 -1.0037967 -1.1994952 0.4129986 -0.25661364
0.07058303 -0.6757402 0.40612623 1.1809916 -0.27294046 -0.42636323 0.3424415 0.11146613
-0.7974176 0.5664755 2.1068082 -0.31810635 -0.2295836 -0.09890449 -0.8532517 -3.239937
0.76477486 0.74199 0.51924074 -0.04751958 0.9874772 0.08034139 0.18739116 -0.061018918
1.8458713 0.60396385 -1.0253103 -0.21359871 -0.43149182 0.18654317 0.9716822 -0.8119271
-0.11112377 -0.7620703 0.75401056 -1.399851 0.8579418 0.14084753 0.69392294 0.6331354
0.7072006 -0.54485416 1.1653256 -2.1675334 0.6200629 0.58080924 2.1532576 -0.9647616
0.08443389 1.0255527 -0.015236735 -0.44847605 -0.09453273 -0.24637438 0.054001812 0.8439099
0.97633606 0.35073584 -1.7656592 -1.918885 1.7100507 -0.26337188 -2.1228433 0.96752447
0.54205084 0.72342944 -0.089665994 -0.6870052 1.5459893 -1.2736388 -0.76045805 -0.3431012
0.21632291 -0.499883 -0.30267334 -1.3708054 -0.12005369 -0.5527296 1.1123186 -1.230658
-1.0142261 -1.3326664 -1.3895972 -0.75913 -0.29605582 -1.0534472 0.26186824 -0.57963
-1.2563117 0.27967763 0.052160356 -1.6108059 1.545951 -0.7723474 -1.7303807 0.46681917
-0.42486954 -1.0415134 -0.8199238 -2.3943806 1.4512628 0.46489295 0.16939013 -0.9656085
1.689355 1.9989363 0.62202007 -0.75754696 0.7056285 -0.42659348 -1.6778746 -0.67897266
1.1461793 -0.6098014 0.7879157 -1.6357062 -0.21286966 -1.7618992 0.6105093 0.3808208
-0.86466825 1.0970694 2.656098 0.15721868 -0.7835594 0.05702055 0.06018949 -0.2872412
0.12634207 -1.4103634 0.9367035 0.165916 0.26094276 0.9248708 -0.88814163 -0.2669414
0.747275 0.41201687 -0.04251681 -0.09247353 1.7058281 0.40134713 1.1690991 1.0824873
-0.46790877 -1.3569695 1.9274206 -1.6718972 -0.04788564 0.94599235 0.5805693 -0.89306843
-0.54730636 -0.5281359 -0.2120333 0.45984238 -0.5294818 1.3811425 0.20289204 -1.5471429
-1.4739093 1.2332491 0.28516528 0.7546924 -0.6716051 2.675107 0.59506285 0.49506944
-0.26395264 0.72300375 -2.5225785 0.24390836 -0.7764795 -0.17054842 -1.1346676 0.8829099
-0.6758332 0.30730522 -0.27208894 0.20356064 0.20971571 -0.50831413 -1.5783848 -0.48929602
0.49513194 -1.3994658 -1.0740207 0.20273332 -1.8567315 1.2597288 -0.36363313 1.2887163
0.7192777 -0.21482754 -1.9179248 0.39289424 -1.1984239 0.71918666 1.2865431 -0.98467976
-0.51762366 0.10700644 0.108179696 1.6518624 -0.5213543 0.7495899 1.1807115 0.40800798
-1.3811646 0.56252193 -1.3879244 0.3758117 -0.042973857 0.112381 -0.350988 0.9360078
0.96382713 -1.7841187 -0.85909975 1.3578815 -0.68170935 -1.2676307 0.31988636 2.0476525
1.0649143 0.17194569 -0.2676154 -1.317791 -0.009876835 0.643108 -1.0898267 -0.56626797
0.810683 -2.090224 -0.015383352 -0.5952774 -1.7800643 -0.9278726 -0.6238309 1.5400189
00000000: 7592 ea3e a275 2f3e 58f9 eebe e402 a13e
00000010: aaa8 643e 1526 f43f a00e 1bbe cc3c bbbe
00000020: 62b2 32bf 6fe6 773f 1fb8 0f40 16f7 96bf
00000030: 697c 80bf 0f89 99bf 8d74 d33e dd62 83be
00000040: d68d 903d 4ffd 2cbf c7ef cf3e bc2a 973f
00000050: dabe 8bbe 484c dabe 7e54 af3e 5b48 e43d
00000060: 8f23 4cbf 8a04 113f f2d5 0640 d6de a2be
00000070: f717 6bbe 708e cabd b46e 5abf 215b 4fc0
00000080: 49c8 433f 0ef3 3d3f f6ec 043f e4a3 42bd
00000090: 4ecb 7c3f 078a a43d 78e3 3f3e f9ee 79bd
000000a0: 8345 ec3f 609d 1a3f 5e3d 83bf 9fb9 5abe
000000b0: 7fec dcbe 2c05 3f3e 2ac0 783f 74da 4fbf
000000c0: dc94 e3bd 0a17 43bf d606 413f 512e b3bf
000000d0: 13a2 5b3f 563a 103e efa4 313f 2915 223f
000000e0: 190b 353f 907b 0bbf 6429 953f deb8 0ac0
000000f0: 71bc 1e3f eaaf 143f f9ce 0940 9efa 76bf
00000100: adeb ac3d 5045 833f 80a3 79bc a79e e5be
00000110: 609a c1bd 9149 7cbe 0131 5d3d 7b0a 583f
00000120: 29f1 793f a693 b33e 1f01 e2bf 069e f5bf
00000130: f1e2 da3f aed8 86be aadc 07c0 afaf 773f
00000140: d8c3 0a3f ac32 393f cea2 b7bd 93df 2fbf
00000150: fae2 c53f 9906 a3bf 61ad 42bf f6aa afbe
00000160: c183 5d3e aaf0 ffbe 00f8 9abe 8d76 afbf
00000170: b6de f5bd b07f 0dbf 7560 8e3f 3486 9dbf
00000180: 29d2 81bf d094 aabf 52de b1bf 5856 42bf
00000190: a194 97be 5cd7 86bf 9813 863e a262 14bf
000001a0: d2ce a0bf e831 8f3e 19a6 553d e32e cebf
000001b0: b9e1 c53f 8fb8 45bf 1d7d ddbf ec02 ef3e
000001c0: 8088 d9be 5050 85bf 87e6 51bf 883d 19c0
000001d0: fbc2 b93f 7306 ee3e 9b74 2d3e 1e32 77bf
000001e0: c93c d83f 25dd ff3f b53c 1f3f 99ee 41bf
000001f0: 12a4 343f 766a dabe 98c4 d6bf 27d1 2dbf
00000200: 01b6 923f f21b 1cbf d8b4 493f d25e d1bf
00000210: 81fa 59be ea85 e1bf 564a 1c3f f2fa c23e
00000220: e65a 5dbf c56c 8c3f 82fd 2940 effd 203e
00000230: 5997 48bf 618e 693d 4189 763d 4711 93be
00000240: d15f 013e ca86 b4bf cdcb 6f3f e2e5 293e
00000250: 4a9a 853e 55c4 6c3f 405d 63bf 8bac 88be
00000260: 6a4d 3f3f e0f3 d23e 1b26 2ebd c362 bdbd
00000270: 9358 da3f 5f7d cd3e 0aa5 953f f28e 8a3f
00000280: bd91 efbe 2db1 adbf b8b5 f63f ba00 d6bf
00000290: bc23 44bd 8e2c 723f 31a0 143f 22a0 64bf
000002a0: 451c 0cbf ea33 07bf 421f 59be 7670 eb3e
000002b0: 1f8c 07bf 47c9 b03f eec2 4f3e c708 c6bf
000002c0: 0fa9 bcbf 1bdb 9d3f 2f01 923e 8533 413f
000002d0: 50ee 2bbf f434 2b40 0a56 183f be79 fd3e
000002e0: cd24 87be c616 393f ed71 21c0 1dc3 793e
000002f0: 5cc7 46bf 3fa4 2ebe ca3c 91bf 6206 623f
00000300: 6803 2dbf 1c57 9d3e 3e4f 8bbe 3372 503e
00000310: b7bf 563e e020 02bf 8308 cabf 0285 fabe
00000320: ef81 fd3e b221 b3bf 8379 89bf 5399 4f3e
00000330: 61a9 edbf cb3e a13f 1f2e babe a8f4 a43f
00000340: 9522 383f c0fb 5bbe 8f7e f5bf 6f29 c93e
00000350: f465 99bf 9e1c 383f 72ad a43f f913 7cbf
00000360: fc82 04bf 3126 db3d 518d dd3d 3a70 d33f
00000370: 7a77 05bf 20e5 3f3f 8e21 973f 6ce6 d03e
00000380: 00ca b0bf 7001 103f 82a7 b1bf 646a c03e
00000390: 5b05 30bd 0228 e63d b3b4 b3be 359e 6f3f
000003a0: 60bd 763f 005e e4bf f6ed 5bbf 10cf ad3f
000003b0: 8184 2ebf b941 a2bf 25c8 a33e bd0c 0340
000003c0: 1d4f 883f 8812 303e e304 89be 60ad a8bf
000003d0: 73d2 21bc baa2 243f 717f 8bbf f0f6 10bf
000003e0: ec88 4f3f 3bc6 05c0 740a 7cbc 1a64 18bf
000003f0: 26d9 e3bf 0f89 6dbf 62b3 1fbf 571f c53f

encoder_layer_mhattentions.0.attention_heads.0.Q.weight f4 [8, 8]
0.03175172 0.083133504 0.046860192 0.24710613 -0.033181287 0.080468856 -0.030838776 -0.07647416
-0.07072032 -0.0007477792 -0.2715943 -0.3113931 0.036260378 -0.106999114 -0.17990455 -0.01666928
-0.011817177 -0.1235309 -0.060319956 -0.2506362 -0.0065565985 -0.0017783873 -0.0070800968 -0.012752092
0.066397466 -0.09125121 0.00790794 -0.16597265 0.09767001 -0.15885155 -0.056360986 -0.16309807
0.13166186 -0.09801613 -0.016433274 -0.2033108 0.094845116 -0.22858766 -0.06613419 0.00882779
-0.121013515 0.05656036 0.35879803 0.18714152 -0.07105886 0.20720896 0.08537083 -0.07519343
-0.23584801 0.0782455 0.049696486 0.103038676 -0.15662102 0.4357948 -0.14707343 -0.41187346
-0.5072844 0.25541595 0.04854101 0.53045344 -0.035821803 0.52443016 0.04045308 -0.65132874
00000000: 170e 023d e641 aa3d 79f0 3f3d 6409 7d3e
00000010: 1ae9 07bd dbcc a43d 9aa1 fcbc 7c9e 9cbd
00000020: d1d5 90bd 9d06 44ba 680e 8bbe eb6e 9fbe
00000030: c385 143d 5a22 dbbd e638 38be 048e 88bc
00000040: d59c 41bc c5fd fcbd 0f12 77bd 6353 80be
00000050: bcd8 d6bb c718 e9ba 2800 e8bb 27ee 50bc
00000060: 65fb 873d eae1 babd 4e90 013c bcf4 29be
00000070: 3707 c83d fba9 22be c7da 66bd 2e03 27be
00000080: 5ed2 063e aebc c8bd 139f 86bc b530 50be
00000090: 283e c23d e212 6abe 5d71 87bd 6fa2 103c
000000a0: efd5 f7bd d6ab 673d 60b4 b73e 07a2 3f3e
000000b0: 4f87 91bd 962e 543e e7d6 ae3d 03ff 99bd
000000c0: 2482 71be 2d3f a03d 8b8e 4b3d f105 d33d
000000d0: 4361 20be 7f20 df3e 6b9a 16be 14e1 d2be
000000e0: 64dd 01bf e1c5 823e f0d2 463d cccb 073f
000000f0: e2b9 12bd 0e41 063f 21b2 253d 7bbd 26bf

encoder_layer_mhattentions.0.attention_heads.0.Q.bias f4 [8]
0.027384557 -0.87679315 0.04734781 0.13225068 0.30333513 -0.26933858 1.421192 0.67807394
00000000: 9455 e03c 8475 60bf c7ef 413d b96c 073e
00000010: be4e 9b3e bfe6 89be 9fe9 b53f 4196 2d3f

encoder_layer_mhattentions.0.attention_heads.0.K.weight f4 [8, 8]
0.27563745 0.08366382 -0.27096757 0.1317165 0.1369752 -0.14636521 0.08813682 -0.026259923
-0.40973127 -0.082338974 0.034120776 0.3753462 0.16449714 -0.07882436 -0.22236784 0.45007938
-0.16566662 -0.07857509 0.03974023 -0.046541035 -0.15231836 0.08258539 -0.15940122 -0.007371833
0.07191067 -0.12162306 -0.036244012 0.057229985 -0.2731704 0.12467123 0.1151382 -0.0488082
-0.033887517 -0.115415394 0.092122965 -0.03251532 -0.22001481 0.23762292 0.19866341 -0.06360927
-0.039659027 0.025843821 -0.19387598 0.12599446 0.20448087 -0.32293487 -0.23232493 -0.15384506
0.36767387 0.0071657854 -0.61880726 -0.35646796 -0.02169398 0.014056442 -0.23277543 -0.13408075
0.5424552 -0.011102714 -0.741309 0.2569386 0.053593267 -0.30058002 -0.16980816 0.2618213
00000000: 5a20 8d3e f057 ab3d 43bc 8abe b1e0 063e
00000010: 3a43 0c3e c3e0 15be 1481 b43d 0d1f d7bc
00000020: 4cc8 d1be 56a1 a8bd 3ac2 0b3d 612d c03e
00000030: f071 283e ab6e a1bd 65b4 63be ce70 e63e
00000040: 83a4 29be faeb a0bd a7c6 223d d0a1 3ebd
00000050: 58f9 1bbe 8722 a93d 133a 23be 6b8f f1bb
00000060: e745 933d 8315 f9bd 9a74 14bd fd69 6a3d
00000070: fedc 8bbe a153 ff3d 94cd eb3d 1beb 47bd
00000080: a3cd 0abd e85e ecbd f7aa bc3d c92e 05bd
00000090: 904b 61be 6c53 733e 6c6e 4b3e 9445 82bd
000000a0: 8171 22bd 6cb6 d33c 6d87 46be b104 013e
000000b0: 6f63 513e b857 a5be 96e6 6dbe 8f89 1dbe
000000c0: c03f bc3e f7ce ea3b 276a 1ebf f882 b6be
000000d0: 93b7 b1bc fe4c 663c af5c 6ebe 774c 09be
000000e0: 58de 0a3f 28e8 35bc 6dc6 3dbf 758d 833e
000000f0: 9d84 5b3d a0e5 99be 31e2 2dbe 710d 863e

encoder_layer_mhattentions.0.attention_heads.0.K.bias f4 [8]
0.0833306 0.18175511 0.0043347557 -0.0876092 -0.16308287 -0.1214013 0.019679755 -0.11136896
00000000: 3ca9 aa3d 031e 3a3e 910a 8e3b 746c b3bd
00000010: 32ff 26be 3fa1 f8bd 7037 a13c 6915 e4bd

encoder_layer_mhattentions.0.attention_heads.0.V.weight f4 [8, 8]
0.4372445 0.41354096 -0.21876568 0.038133502 -0.0022988836 -0.03485491 -0.052672412 -0.71326846
0.106062025 0.16677597 -0.093930066 -0.3605834 0.08968732 0.43720335 0.031341266 -0.20254168
0.50813204 0.12259471 0.089170665 -0.06413495 0.17336857 0.21490361 -0.11202518 -0.116496526
-0.18163054 -0.08679308 0.22421204 -0.006002961 -0.14621921 -0.29626667 0.030025452 0.56733996
0.24370742 -0.15619606 -0.27540722 -0.36043954 -0.108131856 0.17750975 -0.34124738 0.301821
-0.32638958 -0.16304244 -0.07461108 0.44924378 -0.11097505 0.31504855 0.22196558 0.20378722
0.07736669 0.16878188 0.11798669 0.04199387 -0.05023591 0.09088731 -0.10794097 0.21461457
-0.23626418 -0.0510365 -0.070564814 0.24642104 -0.18908393 0.33936736 -0.13913593 0.38484293
00000000: 83de df3e a4bb d33e 1c04 60be e031 1c3d
00000010: dea8 16bb 06c4 0ebd 07bf 57bd c398 36bf
00000020: 0c37 d93d 52c7 2a3e 685e c0bd 639e b8be
00000030: fcad b73d 1ed9 df3e b35f 003d 1667 4fbe
00000040: f114 023f ef12 fb3d 1c9f b63d 2f59 83bd
00000050: 8887 313e b10f 5c3e 756d e5bd bb95 eebd
00000060: 5bfd 39be 92c0 b1bd d797 653e 7db4 c4bb
00000070: 7dba 15be 44b0 97be f0f7 f53c 313d 113f
00000080: 708e 793e dcf1 1fbe 2d02 8dbe 888b b8be
00000090: 3c74 ddbd 1ec5 353e fab7 aebe 4888 9a3e
000000a0: 891c a7be 99f4 26be b2cd 98bd 4803 e63e
000000b0: e346 e3bd 0b4e a13e f24a 633e 99ad 503e
000000c0: 6d72 9e3d 28d5 2c3e 01a3 f13d c401 2c3d
000000d0: 2bc4 4dbd 2023 ba3d 2810 ddbd ecc3 5b3e
000000e0: 3def 71be a60b 51bd 4984 90bd cc55 7c3e
000000f0: 389f 41be 8fc1 ad3e a679 0ebe 220a c53e

encoder_layer_mhattentions.0.attention_heads.0.V.bias f4 [8]
-0.18175976 -0.31464836 -0.06002296 0.23369126 -0.11931786 0.25260174 0.0858698 0.16513632
00000000: 3b1f 3abe 9719 a1be a3da 75bd c34c 6f3e
00000010: ec5c f4bd 0455 813e 81dc af3d 7f19 293e

encoder_layer_mhattentions.0.attention_heads.1.Q.weight f4 [8, 8]
-0.043449428 0.04997646 -0.05781836 -0.03825818 0.11531782 0.015313672 0.060476363 -0.0038793308
0.033392634 0.11488241 -0.03684391 0.25965208 -0.59200174 1.1291938 -0.0082107335 -1.1662613
-0.20295437 -0.23204961 0.4963255 -0.3386977 0.8362406 0.5749225 -0.07432026 -0.32735595
0.66086054 -0.06544006 0.023925545 -0.21092716 0.0826127 -0.8831304 0.71181995 -0.25213978
1.0779709 -0.50817853 -0.47821644 0.37881744 0.020003766 0.23797949 0.52087665 0.7223471
-0.1388512 -0.046548516 0.014109961 -0.049057413 -0.17846954 0.4233974 -0.14153184 0.0505472
-0.61482036 -0.08152729 0.78308266 0.3397615 -0.41343907 -0.087770775 0.015743706 0.38539463
0.09661566 0.018221132 -0.06467721 0.17476316 0.28007504 0.016463507 0.13642365 0.051967338
00000000: 07f8 31bd 1eb4 4c3d f2d2 6cbd 9cb4 1cbd
00000010: c02b ec3d 32e6 7a3c 10b6 773d 5f3c 7ebb
00000020: b7c6 083d 7847 eb3d a4e9 16bd 1ef1 843e
00000030: 6d8d 17bf 6c89 903f 5086 06bc 0d48 95bf
00000040: 45d3 4fbe 6a9e 6dbe 601e fe3e c969 adbe
00000050: dd13 563f 1f2e 133f 3835 98bd 339b a7be
00000060: 282e 293f 7005 86bd 81ff c33c 4afd 57be
00000070: d930 a93d d514 62bf d539 363f 7718 81be
00000080: f3fa 893f fd17 02bf c9d8 f4be 5cf4 c13e
00000090: f0de a33c e5b0 733e 2c58 053f bdeb 383f
000000a0: 022f 0ebe a8a9 3ebd 772d 673c 6df0 48bd
000000b0: b8c0 36be 8bc7 d83e b9ed 10be 950a 4f3d
000000c0: de64 1dbf c8f7 a6bd 1b78 483f 38f5 ad3e
000000d0: 49ae d3be 2ac1 b3bd f2f8 803c 7252 c53e
000000e0: 6ede c53d 7c44 953c 7c75 84bd 1df5 323e
000000f0: ff65 8f3e 7ade 863c a4b2 0b3e b4db 543d

encoder_layer_mhattentions.0.attention_heads.1.Q.bias f4 [8]
0.018301543 0.0073505547 0.07424918 -0.17620657 -0.07921138 -0.144078 0.04961105 -0.099498816
00000000: 1eed 953c ecdc f03b f40f 983d 7f6f 34be
00000010: 9339 a2bd 2f89 13be f534 4b3d 09c6 cbbd

encoder_layer_mhattentions.0.attention_heads.1.K.weight f4 [8, 8]
-0.088133864 -0.0737853 -0.05172325 -0.13700011 0.006267747 -0.012552733 0.020911638 0.050933853
-0.1493384 0.097098984 -0.6094916 -0.15519397 -0.15885718 0.061318725 -1.0343695 1.0779903
-0.09178402 0.18897812 0.08670046 -0.0347333 -0.88529325 0.97616786 0.22574294 -0.027512822
-0.12889864 0.36767882 -0.1981309 -0.4401825 0.5132914 0.6865014 -0.43775535 -0.59644324
-0.5913674 -0.427804 0.40058294 0.24613217 1.0051385 0.22260438 0.20935923 0.15314026
-0.0460217 0.071074076 -0.10044828 0.21963793 0.17014451 -0.091965415 0.20166127 0.28769997
0.47254458 -0.20893209 -0.36524016 0.5965019 0.096745506 0.36792955 0.7973844 -0.28431296
-0.2104877 -0.2721924 0.15326172 -0.11239016 0.084053986 0.00922765 -0.18707472 0.14592241
00000000: 877f b4bd bf1c 97bd c2db 53bd c249 0cbe
00000010: ac61 cd3b faa9 4dbc e24e ab3c 04a0 503d
00000020: 2aec 18be d5db c63d a407 1cbf 2beb 1ebe
00000030: 75ab 22be 5829 7b3d 3866 84bf 96fb 893f
00000040: 43f9 bbbd 7b83 413e 0390 b13d 8144 0ebd
00000050: 94a2 62bf 23e6 793f 2829 673e 9262 e1bc
00000060: 01fe 03be 6640 bc3e d4e2 4abe 9a5f e1be
00000070: 1167 033f 8ebe 2f3f 7821 e0be 81b0 18bf
00000080: db63 17bf 2009 dbbe 3519 cd3e 120a 7c3e
00000090: 61a8 803f 67f2 633e 4462 563e cdd0 1c3e
000000a0: 4081 3cbd 498f 913d d4b7 cdbd c4e8 603e
000000b0: 5d3a 2e3e 5d58 bcbd 4b80 4e3e 694d 933e
000000c0: 5df1 f13e 4bf2 55be c200 bbbe 59b4 183f
000000d0: 8222 c63d 4361 bc3e 6221 4c3f 7891 91be
000000e0: 168a 57be cd5c 8bbe a4f0 1c3e d02c e6bd
000000f0: 7f24 ac3d 922f 173c 8490 3fbe af6c 153e

encoder_layer_mhattentions.0.attention_heads.1.K.bias f4 [8]
-0.15091297 0.1442518 -0.09150366 0.19318704 0.22997238 -0.17337808 -0.11797155 -0.11599335
00000000: ee88 1abe beb6 133e 4566 bbbd d3d2 453e
00000010: e17d 6b3e 068a 31be 119b f1bd ec8d edbd

encoder_layer_mhattentions.0.attention_heads.1.V.weight f4 [8, 8]
-0.056946848 -0.39942846 -0.16144821 -0.7048524 -0.3795496 -0.38354784 -0.08298515 -0.05349999
-0.32938015 0.050537817 0.1515237 0.036290772 -0.019807052 0.03202219 -0.14101633 0.17465498
0.12989026 -0.25740445 -0.25759807 -0.21031034 0.28593174 0.45295838 0.36894414 0.35890818
0.09147724 -0.0693067 -0.023755128 0.064259194 0.09657309 0.0010846149 0.039677832 0.05398487
0.24087088 -0.11565373 0.18108991 -0.6713484 0.24551971 0.43258542 0.44211888 0.48739833
0.08076083 0.13339415 -0.018745638 0.038753603 -0.08634364 0.15088756 -0.08179639 0.05481378
-0.08139093 -0.50515753 0.11289346 -0.058928385 0.109854825 0.301229 0.2912346 -0.12138578
-0.38088185 0.23021558 -0.0066644284 0.002210961 -0.07664175 0.40077686 -0.17716444 -0.24935284
00000000: 1941 69bd e381 ccbe ae52 25be 3571 34bf
00000010: 5354 c2be 6260 c4be 1ef4 a9bd ce22 5bbd
00000020: 84a4 a8be be00 4f3d 0729 1b3e a2a5 143d
00000030: 6642 a2bc b329 033d 9666 10be c1d8 323e
00000040: f401 053e 84ca 83be e5e3 83be 985b 57be
00000050: a565 923e 29ea e73e 3fe6 bc3e d0c2 b73e
00000060: 6b58 bb3d acf0 8dbd 1d9a c2bc 539a 833d
00000070: 1dc8 c53d a329 8e3a 3985 223d 3d1f 5d3d
00000080: dba6 763e dddb ecbd a26f 393e 7ddd 2bbf
00000090: 8569 7b3e d67b dd3e 685d e23e 468c f93e
000000a0: ef65 a53d 7a98 083e 7490 99bc 19bc 1e3d
000000b0: efd4 b0bd 4582 1a3e de84 a7bd 6a84 603d
000000c0: 4ab0 a6bd 0152 01bf b034 e73d e45e 71bd
000000d0: 91fb e03d b03a 9a3e b41c 953e 1c99 f8bd
000000e0: f202 c3be a2bd 6b3e 4761 dabb c5e5 103b
000000f0: 5af6 9cbd a032 cd3e 986a 35be 5a56 7fbe

encoder_layer_mhattentions.0.attention_heads.1.V.bias f4 [8]
0.23095052 -0.021135313 -0.50959337 -0.053151965 -0.4639159 -0.060356334 -0.43584996 0.004486549
00000000: 4b7e 6c3e f723 adbc b674 02bf e0b5 59bd
00000010: 6386 edbe 3438 77bd ba27 dfbe e703 933b

encoder_layer_mhattentions.0.attention_heads.2.Q.weight f4 [8, 8]
-0.017283946 -0.63470876 0.015905092 -0.36608168 0.23633006 -0.015201664 0.27130362 -0.019974016
0.022504203 0.21890905 0.39860237 -0.07752109 -0.09898084 0.010489536 -0.10530838 0.24185605
-0.23517601 0.85247916 -0.05916819 -0.004427957 -0.27916983 0.4391943 0.45044574 0.07142622
-0.21896617 0.038443446 0.41808295 -0.3367745 0.33421606 0.09869234 -0.43312046 0.2613769
0.16086756 -0.3899359 -0.1605798 1.0185465 -0.110983066 -0.8511973 -1.072582 -0.5724378
-0.06256774 -0.048844308 0.16010779 0.15326107 -0.018800622 0.0015964286 -0.06345313 -0.044410974
-0.045024727 0.8540647 0.43768597 1.0765938 0.15138753 -0.24385206 -1.2513814 -0.10835863
-0.005848689 -0.18657656 -0.332447 -0.22783332 -0.27027848 0.4478249 0.20806344 0.14968957
00000000: 1097 8dbc 467c 22bf 654b 823c 0f6f bbbe
00000010: 8200 723e 6610 79bc 4fe8 8a3e 8ca0 a3bc
00000020: bc5a b83c b229 603e 9c15 cc3e 61c3 9ebd
00000030: 77b6 cabd 4edc 2b3c ecab d7bd 1da9 773e
00000040: fbd1 70be 133c 5a3f 585a 72bd 6518 91bb
00000050: 59ef 8ebe 13de e03e d3a0 e63e e947 923d
00000060: ab38 60be e076 1d3d f80e d63e b56d acbe
00000070: 5e1e ab3e 361f ca3d f7c1 ddbe 31d3 853e
00000080: 77ba 243e aea5 c7be 086f 24be bb5f 823f
00000090: 174b e3bd 11e8 59bf 5e4a 89bf 498b 12bf
000000a0: 8423 80bd f810 48bd 4cf3 233e 78f0 1c3e
000000b0: c303 9abc 413f d13a b7f3 81bd 48e8 35bd
000000c0: d96b 38bd fca3 5a3f 6018 e03e d3cd 893f
000000d0: 5505 1b3e 5bb4 79be 442d a0bf 21eb ddbd
000000e0: 5ca6 bfbb ed0d 3fbe 7e36 aabe 234d 69be
000000f0: f161 8abe 4e49 e53e 950e 553e 3948 193e

encoder_layer_mhattentions.0.attention_heads.2.Q.bias f4 [8]
0.068305016 0.21082294 0.10375584 -0.1844563 -0.11459864 0.10876391 -0.7196943 0.9134096
00000000: 80e3 8b3d f8e1 573e f17d d43d 1de2 3cbe
00000010: b1b2 eabd 9dbf de3d e33d 38bf 36d5 693f

encoder_layer_mhattentions.0.attention_heads.2.K.weight f4 [8, 8]
-0.17998737 0.0133227445 -0.29308823 0.25268242 -0.10398522 -0.3499908 0.004096954 -0.40606835
0.50267094 -0.37936598 0.1973992 -0.03172688 0.08840785 -0.00723338 0.05055463 0.1132033
-0.4475705 -0.37780988 0.4048514 -0.10658947 0.43708223 0.1024026 -0.109953396 -0.022355521
0.25767797 -0.59294266 -0.26014644 0.45916897 0.18247311 -0.24766444 0.07331862 -0.28655913
0.5151684 0.97957426 -0.13248569 0.12477423 -0.5080909 0.6182353 0.4249109 0.17409241
0.15233377 0.06427786 0.030411268 0.046340026 -0.04796097 0.077466056 0.032871645 -0.042441785
1.0047646 0.7230693 0.059132483 0.046731602 0.22440843 0.65912396 0.7329584 0.0576498
-0.49152863 -0.5258686 0.25479203 0.14705646 0.198158 -0.079463616 -0.8103294 0.056014065
00000000: 9c4e 38be a447 5a3c a90f 96be 975f 813e
00000010: 34f6 d4bd fe31 b3be be3f 863b 31e8 cfbe
00000020: 0baf 003f 423c c2be 0423 4a3e 0cf4 01bd
00000030: 2d0f b53d fd05 edbb 5f12 4f3d 22d7 e73d
00000040: f627 e5be 4c70 c1be af48 cf3e 944b dabd
00000050: 3ec9 df3e 74b8 d13d 3f2f e1bd ed22 b7bc
00000060: 5eee 833e 17cb 17bf ea31 85be 3218 eb3e
00000070: 3bda 3a3e bf9b 7dbe 1328 963d e1b7 92be
00000080: 14e2 033f 61c5 7a3f 54aa 07be a289 ff3d
00000090: 3f12 02bf ab44 1e3f ec8d d93e 4845 323e
000000a0: 62fd 1b3e 1ca4 833d 0d21 f93c 0acf 3d3d
000000b0: b972 44bd 86a6 9e3d 6ba4 063d 70d7 2dbd
000000c0: 209c 803f 121b 393f e734 723d a369 3f3d
000000d0: 53cb 653e 59bc 283f 29a3 3b3f 3222 6c3d
000000e0: a4a9 fbbe 539f 06bf 1a74 823e f895 163e
000000f0: eee9 4a3e d2bd a2bd bf71 4fbf 016f 653d

encoder_layer_mhattentions.0.attention_heads.2.K.bias f4 [8]
0.36127427 0.0672834 -0.3355354 -0.10783428 -0.012430796 -0.31992835 0.3425451 0.012251648
00000000: f1f8 b83e e1cb 893d 4ccb abbe 38d8 dcbd
00000010: 8aaa 4bbc a6cd a3be 1262 af3e 23bb 483c

encoder_layer_mhattentions.0.attention_heads.2.V.weight f4 [8, 8]
-0.06750749 0.29416165 0.11159902 0.3464936 -0.16122681 0.1287516 -0.37255386 -0.033418603
-0.09740933 -0.1190157 -0.24672773 -0.48358202 0.025281964 0.19796745 0.21135294 -0.00646554
0.050308112 -0.051695086 0.07731433 0.013551878 -0.005241974 -0.016805112 -0.100625314 0.053243298
-0.06277638 0.15620244 -0.16955845 -0.0090885665 0.101707295 0.034322634 0.3980926 0.035507064
-0.07880967 -0.11525001 -0.057589024 0.097853266 -0.021815881 0.071615346 0.10210724 -0.19111344
0.0076512783 -0.08435645 -0.07394322 0.4668247 -0.354338 0.100718245 0.3776286 -0.26562405
-0.024163952 0.18834591 -0.08825033 0.13620205 0.19562963 0.0053351196 -0.20795487 -0.16585222
0.11308606 -0.20460002 -0.046564143 -0.029494306 0.03343731 0.12917994 -0.21197106 0.093614586
00000000: 5e41 8abd 5b9c 963e 078e e43d 9c67 b13e
00000010: a418 25be 76d7 033e 61bf bebe f2e1 08bd
00000020: 8b7e c7bd 81be f3bd 32a6 7cbe 1098 f7be
00000030: 1f1c cf3c fbb7 4a3e e86c 583e e1dc d3bb
00000040: e10f 4e3d 3abe 53bd fa56 9e3d b208 5e3c
00000050: ddc4 abbb e0aa 89bc a514 cebd a515 5a3d
00000060: e790 80bd 88f3 1f3e bba0 2dbe 36e8 14bc
00000070: ea4b d03d e495 0c3d cbd2 cb3e db6f 113d
00000080: f766 a1bd 3208 ecbd 78e2 6bbd 4b67 c83d
00000090: 38b7 b2bc 11ab 923d 9a1d d13d 3eb3 43be
000000a0: 93b7 fa3b 13c3 acbd 8b6f 97bd a603 ef3e
000000b0: ca6b b5be 5e45 ce3d 8958 c13e e0ff 87be
000000c0: 7bf3 c5bc c0dd 403e 97bc b4bd 8d78 0b3e
000000d0: 2253 483e 3ad2 ae3b 1ff2 54be 2ad5 29be
000000e0: aa99 e73d ab82 51be 0bba 3ebd 0b9e f1bc
000000f0: 90f5 083d bf47 043e f10e 59be 01b9 bf3d

encoder_layer_mhattentions.0.attention_heads.2.V.bias f4 [8]
0.38165435 -0.2912093 -0.08594095 -0.08604609 -0.0685145 0.36811653 -0.08185944 0.08509708
00000000: 3368 c33e 6319 95be cf01 b0bd ef38 b0bd
00000010: 5551 8cbd c579 bc3e eca5 a7bd 6147 ae3d

encoder_layer_mhattentions.0.attention_heads.3.Q.weight f4 [8, 8]
0.33941773 -0.08161949 -0.6268592 -0.463351 0.74323994 -0.30453533 0.10161393 0.7801775
-0.21188667 -0.012697056 -0.28208458 0.26231825 -0.05412733 0.20275235 -0.12878266 0.16602302
-0.12534508 0.030160712 -0.33941704 0.2881747 -0.06046209 0.12782414 0.1092711 -0.5440674
-0.0049150595 0.020117698 0.060981367 -0.115840584 -0.035963014 -0.05183737 -0.16558295 0.050997693
0.314296 -0.22495902 0.35235432 -0.21254872 0.45954248 -0.061684344 -0.24122185 -0.27329323
0.26003468 0.51812345 -0.1712631 0.20456423 -0.37730476 0.19755253 0.06392573 0.1610876
-0.44253463 -0.52020425 -0.10574034 -0.29309142 0.33254895 -0.47026718 -0.20067407 0.052023698
0.5970781 0.06813595 0.4134479 -0.31245267 0.38282543 -0.21424747 -0.29219788 -0.20959467
00000000: 29c8 ad3e 1f28 a7bd d879 20bf 583c edbe
00000010: f944 3e3f 0eec 9bbe f71a d03d b6b9 473f
00000020: d2f8 58be 5007 50bc 646d 90be 944e 863e
00000030: 9fb4 5dbd 509e 4f3e 9adf 03be f001 2a3e
00000040: 765a 00be 9913 f73c 12c8 adbe a28b 933e
00000050: 19a7 77bd 55e4 023e 87c9 df3d 0048 0bbf
00000060: 820e a1bb dfcd a43c 99c7 793d d43d edbd
00000070: f44d 13bd 6c53 54bd 948e 29be f5e2 503d
00000080: 68eb a03e a85b 66be c967 b43e 5fa6 59be
00000090: 2749 eb3e b9a8 7cbd dc02 77be 17ed 8bbe
000000a0: 4423 853e bda3 043f 985f 2fbe 4979 513e
000000b0: 172e c1be 364b 4a3e 7eeb 823d 26f4 243e
000000c0: e693 e2be 1b2c 05bf 648e d8bd 1410 96be
000000d0: db43 aa3e dcc6 f0be 817d 4dbe cd16 553d
000000e0: 1cda 183f dc8a 8b3d 71af d33e ccf9 9fbe
000000f0: b201 c43e b063 5bbe f69a 95be fc9f 56be

encoder_layer_mhattentions.0.attention_heads.3.Q.bias f4 [8]
-0.5978563 0.061749686 0.10297006 -0.20478669 0.1851235 0.5763609 -0.46713343 0.5791226
00000000: 1c0d 19bf 3ded 7c3d f8e1 d23d 9ab3 51be
00000010: 0491 3d3e 638c 133f 1d2c efbe 6141 143f

encoder_layer_mhattentions.0.attention_heads.3.K.weight f4 [8, 8]
-0.4533943 0.80124813 -0.025833871 -0.2893615 -0.6297508 -0.24581562 -0.7064716 -0.6203532
0.014786645 -0.23976415 0.0001643296 0.6765622 0.17806439 0.2755874 -0.029203082 -0.22903919
-0.30950236 0.10600655 -0.030411407 0.24153884 0.3280884 0.06952161 0.4144935 -0.30282438
0.03663236 0.0102438275 0.045062937 -0.22529401 0.0805472 -0.10447966 -0.12810162 -0.009381941
0.28637752 0.51298684 -0.20543301 -0.43191808 -0.24210122 -0.122457825 -0.12823923 0.12949464
-0.36928812 -0.7568156 -0.310972 0.6840683 0.23435871 0.34344754 0.1257401 -0.040366467
0.30350295 0.85530114 0.37342784 -0.55510044 -0.43451318 -0.23380989 -0.17283416 -0.008577277
-0.10276306 0.39344132 -0.74074364 -0.47467414 -0.2959826 -0.28948835 0.26564625 0.05162812
00000000: 4c23 e8be 991e 4d3f 8ea1 d3bc 3127 94be
00000010: 5937 21bf 17b7 7bbe 53db 34bf 78cf 1ebf
00000020: af43 723c bc84 75be e44f 2c39 2e33 2d3f
00000030: 8356 363e cb19 8d3e 4d3b efbc 4089 6abe
00000040: 1877 9ebe f619 d93d 5821 f9bc f555 773e
00000050: 34fb a73e 5961 8e3d 7e38 d43e cc0b 9bbe
00000060: d00b 163d bad5 273c ea93 383d 79b3 66be
00000070: eef5 a43d 6ff9 d5bd 122d 03be b6b6 19bc
00000080: 13a0 923e 1b53 033f 085d 52be 5e24 ddbe
00000090: 62e9 77be 2bcb fabd 2551 03be 3e9a 043e
000000a0: 5513 bdbe abbe 41bf b937 9fbe 1a1f 2f3f
000000b0: bbfb 6f3e 5bd8 af3e 03c2 003e 4f57 25bd
000000c0: bd64 9b3e 04f5 5a3f ef31 bf3e 101b 0ebf
000000d0: 8378 debe dc6b 6fbe 70fb 30be b587 0cbc
000000e0: 7075 d2bd 2471 c93e 60a1 3dbf 7d08 f3be
000000f0: 088b 97be d137 94be c902 883e 0278 533d

encoder_layer_mhattentions.0.attention_heads.3.K.bias f4 [8]
-0.27535814 0.074267164 -0.105124734 0.2799567 0.35777497 0.24807385 0.0894998 0.07086113
00000000: befb 8cbe 6219 983d a34b d7bd 7c56 8f3e
00000010: 482e b73e 1207 7e3e ac4b b73d a41f 913d

encoder_layer_mhattentions.0.attention_heads.3.V.weight f4 [8, 8]
-0.26695222 -0.06579672 -0.08361836 -0.05053403 0.055056907 0.07873661 -0.0065801386 -0.06510371
-0.33332878 -0.032128938 -0.09158894 0.07458493 0.24751465 -0.18647611 -0.19843034 -0.22242048
-0.057560556 0.12507771 0.28517687 0.17079604 -0.4531648 0.23967795 -0.034566004 0.43458447
-0.30741805 -0.010245809 -0.19853276 0.14498389 0.16384856 -0.14049326 -0.031606868 0.08084738
-0.3344501 -0.25313845 -0.17421953 0.2317309 -0.3122192 0.32419628 0.3543527 0.085267484
-0.22800963 -0.1189259 -0.26058298 0.387485 0.0106779765 -0.12757553 -0.1638452 -0.44127792
0.18735528 0.44562656 -0.10798984 0.11038667 -0.26050782 0.08781382 -0.40105698 0.15525399
0.3049689 0.12507856 0.101233 0.22747517 0.30391818 -0.046445742 -0.4847708 0.36720818
00000000: f6ad 88be 6ec0 86bd 1a40 abbd c5fc 4ebd
00000010: 5a83 613d a940 a13d 349e d7bb 1855 85bd
00000020: 12aa aabe a299 03bd fb92 bbbd fcbf 983d
00000030: 7b74 7d3e 98f3 3ebe 5331 4bbe 32c2 63be
00000040: 9ec4 6bbd 5f14 003e b402 923e 28e5 2e3e
00000050: 3705 e8be 236e 753e 1595 0dbd db81 de3e
00000060: e665 9dbe 0ade 27bc 2c4c 4bbe a876 143e
00000070: ebc7 273e 77dd 0fbe 3476 01bd 5093 a53d
00000080: 0b3d abbe 5d9b 81be 9b66 32be dd4a 6d3e
00000090: 32db 9fbe 0efd a53e b86d b53e b8a0 ae3d
000000a0: 5b7b 69be 6c8f f3bd 226b 85be 6f64 c63e
000000b0: aef2 2e3c 29a3 02be 09c7 27be 2eef e1be
000000c0: 10da 3f3e 2a29 e43e c729 ddbd 6812 e23d
000000d0: 4861 85be bbd7 b33d 5757 cdbe e7fa 1e3e
000000e0: e224 9c3e 9814 003e 3f53 cf3d 40ef 683e
000000f0: 2a9b 9b3e e43d 3ebd e133 f8be b602 bc3e

encoder_layer_mhattentions.0.attention_heads.3.V.bias f4 [8]
-0.027152944 0.1823195 -0.0036042926 -0.13844849 -0.5456853 0.010045548 0.32716468 0.182978
00000000: da6f debc f7b1 3a3e ff35 6cbb 71c5 0dbe
00000010: 08b2 0bbf 1596 243c 2182 a73e 965e 3b3e

encoder_layer_mhattentions.0.output_layer.weight f4 [32, 32]
-0.35477728 -0.304017 -0.19387689 0.59341943 0.25466666 0.44782177 0.5561805 0.28244522
-0.03927935 -0.12174009 -0.8032409 0.48802638 -1.3229975 0.32328966 -0.7379014 -0.18732621
0.096526295 -0.3625416 0.06775018 0.5225117 -0.020066198 -0.32308835 0.39456987 0.12889257
-0.32864824 0.033375435 -0.21957938 -0.11532647 -0.31233883 0.49716172 0.31596568 0.17222093
-0.34233236 0.49436337 0.28620726 -0.08025889 0.6321783 -0.4540388 0.25405762 0.25714278
-0.09345133 -0.42175084 0.692405 -0.26840875 0.88102216 0.3259582 0.4581072 -0.20248576
0.1189505 0.0061923326 0.036176603 0.5573438 -0.3212026 -0.09805971 0.29564297 -0.15187837
-0.07539826 -0.021516025 -0.15454587 0.0071344026 0.24955578 0.27328792 -0.12559758 -0.4574911
-0.33928198 -0.47340226 0.021891853 0.009159417 -0.5571894 0.17074408 0.069908895 -0.01875996
0.26343867 -0.23141915 -0.59902376 0.021860832 -0.99610305 -0.21162364 0.067546256 0.09760238
-0.2788186 0.5850283 -0.035427697 -0.1621727 -0.20263469 -0.34689415 0.14644285 0.026576132
0.0046942546 -0.066214204 -0.18273719 -0.13942024 -0.21577564 0.061340034 0.4225897 0.5311292
0.46739098 -0.030926563 -0.5975665 -0.49642804 -0.14704646 -0.12456433 -0.66611236 -0.06880924
0.181746 0.44626048 -0.13024956 0.2052797 0.26384616 -0.23934835 0.19370216 0.43832025
-0.5130904 0.18514097 0.12814862 -0.18062538 -0.18606055 -0.47212094 0.35386395 -0.24279785
0.026071528 0.036160234 -0.14956158 -0.19092934 0.003158548 -0.13768822 -0.00034118563 -0.56570286
0.06467159 -0.1214216 -0.18402006 0.04131585 0.0074624284 0.07828371 -0.06856571 0.114694335
-0.19094141 -0.023146145 -0.05770439 0.0016482834 0.14518532 -0.038067404 0.22938712 0.018366918
0.108991414 -0.16157609 0.057977714 -0.1993187 0.10996452 -0.051914416 0.21353191 0.03109353
0.090356074 -0.07643352 -0.016453743 -0.022946281 0.04457563 -0.150309 -0.00031499896 0.08889418
0.50021946 0.09556934 -0.27250642 -0.36544126 -0.50829816 0.07672582 -0.49659312 -0.4635277
0.3202536 0.41335136 -0.0999758 0.1446654 -0.048712775 -0.43240938 0.08053537 -0.063281454
-0.27158746 0.020779 0.03875689 -0.13288176 -0.122499 -0.31498054 0.36104035 0.02236222
0.15578035 0.6682509 0.051692434 -0.08729468 0.04569141 0.3418362 -0.2135549 0.22983879
0.121492006 -0.011498675 0.2670072 0.07730044 -0.5258605 -0.04567207 -0.10927335 -0.25048104
0.34285623 -0.005779062 0.09615946 -0.05855089 -0.23138241 -0.16783212 0.004470778 -0.37161815
-0.09198324 0.30908003 0.058087528 0.049680967 -0.10927042 -0.42738554 0.10223677 -0.104375936
-0.084261544 0.23779085 0.07422071 -0.24769601 -0.31035835 -0.102931485 -0.18965437 0.489714
-0.4890815 0.14929089 -0.14525405 0.18548067 0.2974111 -0.3074899 -0.0131086605 -0.030140536
-0.43938258 0.30745834 0.019807197 0.26487952 0.09161138 -0.10890773 -0.084476314 0.11247772
-0.16374215 0.31188145 -0.010119391 0.14582776 0.1695173 0.31514177 -0.19967058 -0.00054048595
0.07709367 -0.012946352 0.025424836 -0.055361774 0.059594028 0.14709385 -0.31734678 -0.11701846
00000000: 5ea5 b5be 1ea8 9bbe aa87 46be 56ea 173f
00000010: ab63 823e e548 e53e d861 0e3f a99c 903e
00000020: 62e3 20bd de52 f9bd 32a1 4dbf 98de f93e
00000030: fb57 a9bf 3986 a53e 1be7 3cbf 71d2 3fbe
00000040: 94af c53d 0d9f b9be 9bc0 8a3d 54c3 053f
00000050: de61 a4bc d66b a5be 1005 ca3e 6afc 033e
00000060: 9544 a8be aeb4 083d 6bd9 60be 4930 ecbd
00000070: e0ea 9fbe fb8b fe3e 41c6 a13e af5a 303e
00000080: 3046 afbe 321d fd3e c289 923e c65e a4bd
00000090: 70d6 213f c677 e8be d713 823e 38a8 833e
000000a0: 6963 bfbd baef d7be 7441 313f df6c 89be
000000b0: ab8a 613f fee3 a63e 078d ea3e 6d58 4fbe
000000c0: 529c f33d 0de9 ca3b eb2d 143d 15ae 0e3f
000000d0: ab74 a4be 87d3 c8bd 845e 973e 0186 1bbe
000000e0: 676a 9abd 6042 b0bc 4641 1ebe b5c7 e93b
000000f0: 8d8b 7f3e 65ec 8b3e a79c 00be 463c eabe
00000100: 5eb6 adbe c861 f2be 8b56 b33c 6111 163c
00000110: f7a3 0ebf 89d7 2e3e 652c 8f3d 7dae 99bc
00000120: 6fe1 863e 24f9 6cbe 9f59 19bf 7d15 b33c
00000130: 9c00 7fbf deb3 58be b155 8a3d c2e3 c73d
00000140: 50c1 8ebe 6ac4 153f a21c 11bd 9a10 26be
00000150: 787f 4fbe 1c9c b1be 1df5 153e 30b6 d93c
00000160: 43d2 993b 509b 87bd 751f 3bbe 2ec4 0ebe
00000170: 4af4 5cbe b03f 7b3d ad5d d83e 15f8 073f
00000180: df4d ef3e b459 fdbc 1efa 18bf d12b febe
00000190: 5993 16be 951b ffbd 5786 2abf dceb 8cbd
000001a0: a01b 3a3e 417c e43e 2460 05be d734 523e
000001b0: d816 873e bc17 75be dc59 463e 836b e03e
000001c0: e459 03bf 9895 3d3e 6439 033e dcf5 38be
000001d0: a886 3ebe d6b9 f1be a82d b53e 00a0 78be
000001e0: f593 d53c c11c 143d ac26 19be fb82 43be
000001f0: a4ff 4e3b 24fe 0cbe 29e1 b2b9 e7d1 10bf
00000200: 8a72 843d e3ab f8bd c16f 3cbe cf3a 293d
00000210: 6387 f43b 3653 a03d 2e6c 8cbd dde4 ea3d
00000220: 2586 43be fc9c bdbc 705b 6cbd 370b d83a
00000230: 76ab 143e 91ec 1bbd 75e4 6a3e 3876 963c
00000240: e436 df3d 3474 25be 0a7a 6d3d 341a 4cbe
00000250: 1435 e13d 36a4 54bd 1ca8 5a3e dcb7 fe3c
00000260: 9b0c b93d 2d89 9cbd 00ca 86bc d7f9 bbbc
00000270: f094 363d 9aea 19be 7226 a5b9 270e b63d
00000280: 620e 003f dcb9 c33d f685 8bbe 1e1b bbbe
00000290: d41f 02bf 6d22 9d3d 7441 febe 8153 edbe
000002a0: 48f8 a33e caa2 d33e 1dc0 ccbd 2b23 143e
000002b0: 0c87 47bd c364 ddbe baef a43d b599 81bd
000002c0: 830d 8bbe b938 aa3c 8bbf 1e3d 2812 08be
000002d0: c1e0 fabd 2145 a1be 48da b83e f930 b73c
000002e0: e284 1f3e 7e12 2b3f 72bb 533d 8ec7 b2bd
000002f0: ea26 3b3d 2805 af3e 23ae 5abe dc5a 6b3e
00000300: cdd0 f83d f064 3cbc 2bb5 883e b14f 9e3d
00000310: cb9e 06bf a312 3bbd b5ca dfbd 0d3f 80be
00000320: da8a af3e 495e bdbb 40ef c43d 0fd3 6fbd
00000330: 83ef 6cbe 2fdc 2bbe 9b7f 923b bc44 bebe
00000340: b561 bcbd bd3f 9e3e 30ed 6d3d 457e 4b3d
00000350: 2cc9 dfbd 47d2 dabe 8361 d13d 0dc3 d5bd
00000360: 5191 acbd 727f 733e 0701 983d 06a4 7dbe
00000370: 4ae7 9ebe becd d2bd c134 42be cbbb fa3e
00000380: e468 fabe b6df 183e 7abd 14be a5ee 3d3e
00000390: 4546 983e 516f 9dbe b5c5 56bc 49e9 f6bc
000003a0: c1f6 e0be 2e6b 9d3e b442 a23c 4a9e 873e
000003b0: bf9e bb3d 040b dfbd eb01 adbd b85a e63d
000003c0: 06ac 27be edae 9f3e cdcb 25bc df53 153e
000003d0: f195 2d3e 435a a13e 7276 4cbe 66af 0dba
000003e0: 49e3 9d3d f01c 54bc bf47 d03c 07c3 62bd
000003f0: de18 743d c59f 163e 477b a2be 60a7 efbd

encoder_layer_mhattentions.0.output_layer.bias f4 [32]
0.07629748 -0.31319442 -0.5151946 -0.5527911 0.15098569 0.44596598 0.23237292 -0.4751424
-0.305969 0.1599493 0.3555471 -0.11937943 -0.21068871 0.49511492 0.13435744 -0.028536629
-0.3901186 0.44296402 0.37313572 -0.8662408 0.4606423 -0.15708102 0.8851138 0.32844368
0.074867845 0.47944933 0.050312933 -0.07361563 -0.3260008 0.030727336 -0.2494129 -0.13349086
00000000: da41 9c3d 055b a0be cbe3 03bf b883 0dbf
00000010: fe9b 1a3e a755 e43e 2bf3 6d3e dd45 f3be
00000020: f8a7 9cbe c0c9 233e 450a b63e 347d f4bd
00000030: c8be 57be b47f fd3e ff94 093e a6c5 e9bc
00000040: a0bd c7be 2ecc e23e a50b bf3e f5c1 5dbf
00000050: 4fd9 eb3e d9d9 20be d196 623f c529 a83e
00000060: 5054 993d 627a f53e ef14 4e3d cbc3 96bd
00000070: 94e9 a6be e5b7 fb3c 1866 7fbe d4b1 08be

encoder_layer_mhattentions.1.attention_heads.0.Q.weight f4 [8, 8]
0.99502635 -0.7298107 0.11150333 -0.73790336 0.19719276 0.68772894 0.20426041 0.43962133
-0.063128896 0.41911158 -0.45748523 0.38150296 0.21234316 -0.5900207 0.5820477 -0.21509226
-0.15846865 -0.62788063 -0.57201695 0.1616443 -0.09029609 -0.3435962 -0.3713614 0.5283666
0.46105167 -0.7063502 -0.037996188 1.1271077 -0.36516237 0.2773834 -0.20489386 -0.32563683
0.07908018 0.7534774 -0.20105316 -0.026400158 -0.24055094 0.19064295 -0.2724184 -0.10985872
-0.6242544 -0.2679311 -0.6530952 0.54708785 -0.11136942 -0.769862 0.3642318 -0.2573305
0.6556915 0.46329203 -0.0072272173 0.39903843 -0.01342377 -0.054229528 0.23997428 0.81885475
-0.3000997 0.057568815 0.33426496 0.34964997 -0.3525493 -0.058690336 0.72929937 -0.42971483
00000000: 0cba 7e3f e0d4 3abf dc5b e43d 3ce7 3cbf
00000010: e6ec 493e 010f 303f a429 513e 0c16 e13e
00000020: b949 81bd cb95 d63e 813b eabe 5b54 c33e
00000030: 7c70 593e 990b 17bf 1401 153f 2541 5cbe
00000040: 9b45 22be c9bc 20bf b46f 12bf 1586 253e
00000050: 28ed b8bd d7eb afbe 1523 bebe 0943 073f
00000060: f70e ec3e 5ed3 34bf e4a1 1bbd 1145 903f
00000070: 90f6 babe 3205 8e3e b2cf 51be dfb9 a6be
00000080: caf4 a13d e5e3 403f e1e0 4dbe 2545 d8bc
00000090: fc52 76be e837 433e 6d7a 8bbe 9cfd e0bd
000000a0: 23cf 1fbf 442e 89be 3f31 27bf f30d 0c3f
000000b0: a715 e4bd ad15 45bf 977c ba3e d3c0 83be
000000c0: 66db 273f 9d34 ed3e 4bd2 ecbb c44e cc3e
000000d0: 5fef 5bbc c81f 5ebd d1bb 753e 77a0 513f
000000e0: aba6 99be 47cd 6b3d c724 ab3e 5205 b33e
000000f0: 5881 b4be 4765 70bd 5db3 3a3f 9503 dcbe

encoder_layer_mhattentions.1.attention_heads.0.Q.bias f4 [8]
-0.11137519 -1.0533746 -0.3326966 0.04686963 -1.5288026 0.26650771 0.11482742 0.05964086
00000000: ad18 e4bd fbd4 86bf 3557 aabe 5ffa 3f3d
00000010: ceaf c3bf b373 883e a32a eb3d f949 743d

encoder_layer_mhattentions.1.attention_heads.0.K.weight f4 [8, 8]
0.5773263 -0.21662411 0.054263026 -0.083534606 0.3101592 0.05459484 -0.8180009 -0.36755922
-0.12965894 0.38550526 0.9593946 -0.8066433 0.27407107 -0.137264 -0.32905015 -0.19506489
-0.10898936 -0.13155243 0.69647443 0.6440638 -0.21076106 0.21303418 0.060118295 -0.40893945
0.695502 0.6721349 -0.033360556 -0.4235995 0.03227794 -0.105750136 0.11927881 -0.740162
0.08892042 -0.08074492 0.26679593 -0.033048317 0.35175002 -1.2232364 0.45940882 -0.4822562
-0.32585168 0.22762357 0.19753718 -0.205282 -0.23994094 0.6744894 0.15767507 0.46017298
-0.6314815 0.11856421 -0.040161494 -0.03091119 0.29965594 0.26560462 -0.12284414 -0.5321143
0.1794457 -0.10019549 0.09553981 -0.5580135 0.36493057 0.47350842 0.35993955 0.37553433
00000000: a8cb 133f b6d2 5dbe e842 5e3d 3114 abbd
00000010: 30cd 9e3e d79e 5f3d 8268 51bf b930 bcbe
00000020: 50c5 04be f260 c53e e29a 753f 2d80 4ebf
00000030: 0b53 8c3e ef8e 0cbe 4379 a8be 17bf 47be
00000040: d035 dfbd aeb5 06be 264c 323f 5de1 243f
00000050: bfd1 57be a225 5a3e 9a3e 763d 8360 d1be
00000060: 6b0c 323f 0811 2c3f 14a5 08bd 09e2 d8be
00000070: e035 043d 8793 d8bd 7348 f43d 427b 3dbf
00000080: e91b b63d 985d a5bd 7a99 883e ac5d 07bd
00000090: 9418 b43e 0393 9cbf a237 eb3e 49ea f6be
000000a0: 08d6 a6be 2716 693e 3047 4a3e 7235 52be
000000b0: 14b3 75be 56ab 2c3f 9375 213e cb9b eb3e
000000c0: c6a8 21bf cbd1 f23d 6180 24bd 7739 fdbc
000000d0: 816c 993e 54fd 873e b595 fbbd a538 08bf
000000e0: 9dc0 373e 4b33 cdbd 60aa c33d f9d9 0ebf
000000f0: 2ed8 ba3e b26f f23e ff49 b83e 0946 c03e

encoder_layer_mhattentions.1.attention_heads.0.K.bias f4 [8]
0.22104508 -0.3696496 0.28833067 0.025062477 -0.31330457 -0.21777438 0.3416824 -0.08765348
00000000: a459 623e b642 bdbe 14a0 933e d34f cd3c
00000010: 7569 a0be 3f00 5fbe fff0 ae3e ab83 b3bd

encoder_layer_mhattentions.1.attention_heads.0.V.weight f4 [8, 8]
0.26577562 -0.11529329 0.0007952461 -0.32429266 -0.10782752 0.16153981 -0.24257973 -0.015110223
-0.19899742 -0.0005175835 -0.1894254 -0.15802845 -0.02607455 -0.019922318 -0.001671391 -0.15456532
-0.24025352 0.09603539 0.163174 0.061100084 0.11699679 0.027538896 0.0138104735 -0.0017180614
0.11668259 0.02990566 0.04569389 -0.36684975 0.03759103 -0.11716477 0.021057643 -0.013246694
-0.46224263 -0.043196544 0.14515549 0.052527416 0.06957265 -0.046530105 -0.019299371 0.19507465
0.09490228 0.007649056 -0.069180995 -0.064194694 0.06264088 -0.08666405 0.0062357993 0.08403038
0.05458836 0.06959993 -0.16873245 -0.086456165 -0.0126706315 -0.061428808 -0.005909625 0.11907131
-0.066311456 -0.22008438 0.010386406 0.08724445 0.09872935 -0.10621281 0.017308567 -0.10047331
00000000: be13 883e e31e ecbd 1078 503a b009 a6be
00000010: add4 dcbd b16a 253e d266 78be de90 77bc
00000020: fbc5 4bbe 71ae 07ba bbf8 41be 36d2 21be
00000030: 4b9a d5bc 2134 a3bc 9312 dbba 5f46 1ebe
00000040: 0505 76be 34ae c43d 1617 273e 1544 7a3d
00000050: 039c ef3d 4099 e13c 5345 623c 9330 e1ba
00000060: 48f7 ee3d b7fc f43c 8429 3b3d bbd3 bbbe
00000070: 0df9 193d 15f4 efbd 1481 ac3c a908 59bc
00000080: 11ab ecbe dcee 30bd a4a3 143e fd26 573d
00000090: 1b7c 8e3d 5a96 3ebd b719 9ebc a6c1 473e
000000a0: 205c c23d efa4 fa3b c4ae 8dbd 8278 83bd
000000b0: dd49 803d ec7c b1bd ad55 cc3b 1f18 ac3d
000000c0: 0b98 5f3d 688a 8e3d 33c8 2cbe ee0f b1bd
000000d0: 7b98 4fbc c69c 7bbd 87a5 c1bb a9db f33d
000000e0: 4dce 87bd cd5d 61be bf2b 2a3c 38ad b23d
000000f0: 9d32 ca3d 1a86 d9bd b2ca 8d3c f3c4 cdbd

encoder_layer_mhattentions.1.attention_heads.0.V.bias f4 [8]
-0.13758408 -0.07262428 0.1053805 -0.021266034 0.11198171 -0.0066491575 -0.026561743 0.024739336
00000000: d7e2 0cbe 0abc 94bd bbd1 d73d 1b36 aebc
00000010: ab56 e53d 2de1 d9bb 0398 d9bc 26aa ca3c

encoder_layer_mhattentions.1.attention_heads.1.Q.weight f4 [8, 8]
-0.38787475 -0.1610432 -0.004383093 0.29147807 -0.0932889 -0.07232551 -0.47336036 -0.12647112
0.31682765 0.025900578 0.3310387 -0.35713187 -0.74401754 -0.04334356 0.31845284 0.247609
-0.45158744 -0.12905149 0.4885799 0.4642095 -0.6107678 0.22868939 0.06605984 0.45542023
0.15332171 -0.18796588 0.35210988 -0.33473924 0.25525248 0.1553966 0.39708546 0.17206867
-0.33397633 -0.08292902 -0.5670486 0.35974514 0.3562048 0.32635006 -0.38016737 0.11812815
0.112989746 -0.09643306 -0.23820496 0.21630225 -0.5798502 0.013669994 -1.131338 0.42008674
-0.4199443 0.018264666 -0.23120973 0.09090149 0.3065916 -0.08271707 -0.8475704 0.5415786
-0.58906466 0.0026059058 0.014828481 0.21092713 0.35569254 -0.5171718 -0.13806175 -0.8052368
00000000: 8597 c6be 82e8 24be 0da0 8fbb 9d3c 953e
00000010: 400e bfbd 661f 94bd 4a5c f2be a581 01be
00000020: 3c37 a23e 732d d43c e87d a93e fdd9 b6be
00000030: ef77 3ebf 0489 31bd 400c a33e 378d 7d3e
00000040: 7836 e7be 1326 04be 2527 fa3e deac ed3e
00000050: 475b 1cbf 8d2d 6a3e 624a 873d d72c e93e
00000060: 5e00 1d3e 217a 40be bf47 b43e f162 abbe
00000070: 74b0 823e 4920 1f3e c94e cb3e c532 303e
00000080: f2fe aabe b1d6 a9bd 192a 11bf 8430 b83e
00000090: 7a60 b63e 5b17 a73e 4ca5 c2be 2ced f13d
000000a0: 2b67 e73d b27e c5bd 00ec 73be 567e 5d3e
000000b0: 1071 14bf 1cf8 5f3c afcf 90bf 9c15 d73e
000000c0: f002 d7be c89f 953c 3ec2 6cbe 8f2a ba3d
000000d0: 93f9 9c3e 9167 a9bd 60fa 58bf e5a4 0a3f
000000e0: f1cc 16bf d8c7 2a3b 28f3 723c 48fd 573e
000000f0: 551d b63e 5f65 04bf 0f60 0dbe 0024 4ebf

encoder_layer_mhattentions.1.attention_heads.1.Q.bias f4 [8]
-0.009591291 0.1502475 -0.36992422 -0.1733311 -0.3298751 -0.5098663 0.22691709 -0.2031737
00000000: ca24 1dbc 7bda 193e b566 bdbe b57d 31be
00000010: 64e5 a8be 9986 02bf f45c 683e c40c 50be

encoder_layer_mhattentions.1.attention_heads.1.K.weight f4 [8, 8]
0.24388853 -0.16936977 -0.24983492 0.27278632 -0.39107752 0.16484672 0.04825539 -0.08510192
-0.13092552 -0.12815282 0.34568566 0.19659138 0.1355577 -0.08662716 0.0880728 -0.54172003
0.23098491 -0.5069841 0.26625374 0.010138681 0.021441514 0.30287394 0.18729879 -0.24803787
0.036009997 0.28436533 0.4572756 -0.4768261 0.43632597 -0.22409016 0.25288358 0.21435577
0.17109264 -0.062741905 -0.07703478 -0.010113383 -0.74091095 0.58124465 -0.050613698 0.5904213
-0.12508787 -0.17813097 -0.3835751 0.91244733 -0.3967415 0.8663183 0.84595525 -0.028088944
0.34473985 0.15202959 -0.30587858 0.27506644 -1.1248721 0.3405343 0.41360828 -0.47813746
0.15546465 -0.084207796 -0.7660266 -0.084847026 0.30904177 -0.17292435 -0.39644364 0.5159259
00000000: eabd 793e 456f 2dbe bad4 7fbe a6aa 8b3e
00000010: 503b c8be 94cd 283e 72a7 453d ea49 aebd
00000020: 5711 06be 7e3a 03be b6fd b03e 404f 493e
00000030: a3cf 0a3e 9569 b1bd 835f b43d 2aae 0abf
00000040: 4f87 6c3e b6c9 01bf 6952 883e b61c 263c
00000050: 1da6 af3c 4b12 9b3e 41cb 3f3e a4fd 7dbe
00000060: 387f 133d 5598 913e 0720 ea3e 8d22 f4be
00000070: 1e66 df3e e477 65be f579 813e 1480 5b3e
00000080: e932 2f3e d47e 80bd 69c4 9dbd 9ab2 25bc
00000090: 57ac 3dbf 73cc 143f 4f50 4fbd da25 173f
000000a0: 0917 00be f767 36be f563 c4be 2696 693f
000000b0: b421 cbbe 09c7 5d3f 8690 583f c91a e6bc
000000c0: be81 b03e a5ad 1b3e 1e9c 9cbe 82d5 8c3e
000000d0: cffb 8fbf 835a ae3e 77c4 d33e 6fce f4be
000000e0: 2032 1f3e 2375 acbd 521a 44bf 47c4 adbd
000000f0: b93a 9e3e 1513 31be a9fa cabe b813 043f

encoder_layer_mhattentions.1.attention_heads.1.K.bias f4 [8]
-0.0019097283 -0.0128078265 0.17686923 -0.07216248 -0.092389435 0.07794718 -0.36120412 0.06547007
00000000: d94f faba ebd7 51bc 351d 353e ecc9 93bd
00000010: ac36 bdbd c5a2 9f3d bfef b8be 2c15 863d

encoder_layer_mhattentions.1.attention_heads.1.V.weight f4 [8, 8]
0.11000492 -0.07346414 0.18507987 -0.13215286 -0.28167075 0.056986514 0.3707818 0.09354011
0.15508887 -0.04944106 0.28673473 0.13673821 -0.39054286 -0.12566867 0.006746263 -0.1935866
0.1116618 -0.12978531 -0.14474246 -0.120044395 -0.103567585 0.053332373 0.0055860123 -0.13154718
0.066959605 0.027950203 -0.109623305 0.08773875 0.098663576 0.034648363 0.13864422 0.17321852
0.483983 -0.124315575 -0.1521785 -0.083639994 -0.14429818 -0.09194016 0.3693779 0.065671936
-0.14220098 0.07438441 -0.012473059 0.053173456 0.20398992 -0.08763766 -0.059133098 -0.16743821
0.069356546 0.023471098 -0.0440633 0.06483375 -0.024134312 0.052672688 0.086056404 0.122263595
-0.39559022 0.49713713 0.0645974 -0.2847155 -0.45889997 0.032723352 -0.15133758 0.011941743
00000000: 424a e13d 5e74 96bd 9485 3d3e 1453 07be
00000010: 2637 90be b16a 693d 1dd7 bd3e f591 bf3d
00000020: 9ecf 1e3e b582 4abd e5ce 923e 1a05 0c3e
00000030: 3cf5 c7be 4aaf 00be c10f dd3b 913b 46be
00000040: f1ae e43d 71e6 04be 5e37 14be d6d9 f5bd
00000050: 3e1b d4bd 0c73 5a3d de0a b73b 4eb4 06be
00000060: 1e22 893d d3f7 e43c 2f82 e0bd 60b0 b33d
00000070: 2110 ca3d 71eb 0d3d c0f8 0d3e 3260 313e
00000080: 9fcc f73e 2a99 febd aed4 1bbe 724b abbd
00000090: e7c2 13be 1f4b bcbd 1a1f bd3e 027f 863d
000000a0: 229d 11be db56 983d cd5b 4cbc 69cc 593d
000000b0: bce2 503e 607b b3bd 8c35 72bd ec74 2bbe
000000c0: ce0a 8e3d 7646 c03c b87b 34bd 8fc7 843d
000000d0: 52b5 c5bc 51bf 573d 573e b03d 5665 fa3d
000000e0: cd8a cabe c288 fe3e a44b 843d 3bc6 91be
000000f0: f0f4 eabe ec08 063d 3df8 1abe 4da7 433c
