models/model_chkpt_20.pt (torch, 318877 bytes, 387 tensors)

tokenizer.token_embedding.weight f4 [17, 32]
0	0xbf26a8dd	-0.65101415
1	0xbfc3914f	-1.527872
2	0x3d808c39	0.06276745
3	0x3f4bf48f	0.7967004
4	0x3fc16bdb	1.511104
5	0x3f9bc420	1.2169228
6	0x3eb3ba41	0.35103038
7	0x3f48e02a	0.7846705
8	0xbfb8ece0	-1.4447289
9	0xbfbe2237	-1.4854192
10	0xbe3ad62b	-0.18245761
11	0x3dda2a91	0.1065265
12	0xbf982c1d	-1.1888462
13	0xbefbe140	-0.4919529
14	0xbe91c9ef	-0.28474376
15	0xbdbb23b5	-0.0913767
16	0xbf245aa7	-0.64200824
17	0x3ec7ba10	0.39009142
18	0xbf330c42	-0.6994058
19	0xbe69c93c	-0.22830671
20	0xbf716f58	-0.9431052
21	0xc0040b5b	-2.063193
22	0x3f88c3c1	1.0684739
23	0x3fea7922	1.8318217
24	0xbe90b979	-0.28266504
25	0x3ef00bcb	0.46883997
26	0x3f697781	0.91197973
27	0x3f5974c4	0.84943795
28	0xbf2d839c	-0.67778945
29	0xc02664e3	-2.5999076
30	0x3f669990	0.9007807
31	0xbf4da724	-0.8033316
32	0xbf2f6464	-0.6851256
33	0xbfb7ca6e	-1.4358652
34	0x3fa5e2f6	1.2959888
35	0xbe9c431d	-0.30519953
36	0x40099e80	2.150299
37	0x3e89ab0b	0.26888308
38	0xbed7d778	-0.42156577
39	0x3e9f911a	0.3116539
40	0xbf761604	-0.96127343
41	0xbfaa5813	-1.3308128
42	0xbdfe22a3	-0.1240895
43	0x3e907379	0.282131
44	0xbf33b521	-0.70198256
45	0xbe68588b	-0.22690026
46	0xbf27c6b4	-0.6553757
47	0xbe841ae2	-0.2580176
48	0x3fbb4852	1.4631445
49	0xbe35d7f2	-0.17758158
50	0x3cd82a0c	0.026387237
51	0x3f95260d	1.1652237
52	0x3f1a062b	0.6016566
53	0x3e8b0fa6	0.27160376
54	0x3f859298	1.0435362
55	0x3e736602	0.23769382
56	0xbf8e8c3e	-1.1136549
57	0xbcf240c1	-0.029571893
58	0x3faa08ee	1.3283975
59	0x3e93c065	0.28857723
60	0xbf6f0dd3	-0.9338047
61	0xbfb00fee	-1.3754861
62	0xbecec7ac	-0.40386713
63	0x3f3e455b	0.7432458
64	0x3f1d562e	0.61459625
65	0x3f177ed9	0.5917793
66	0x3e02adac	0.12761563
67	0xbf32cc88	-0.6984334
68	0x4018abc6	2.3854842
69	0x3e40744c	0.18794364
70	0x3f951e85	1.1649939
71	0x3e335bfb	0.17515557
72	0xbf7887d3	-0.9708225
73	0xbf2fb017	-0.68628067
74	0xbf2b2713	-0.668565
75	0x3f81b68a	1.0133832
76	0xbdcdc2c7	-0.100469165
77	0xbf05d2cc	-0.52274776
78	0xbe81189c	-0.25214088
79	0x3dadb254	0.08481279
80	0x3f2f53a1	0.6848698
81	0x40068115	2.1016285
82	0xbea724dd	-0.32645312
83	0xbf8bdee2	-1.0927393
84	0xbefba958	-0.49152637
85	0xbcadb88a	-0.02120616
86	0x3e3177a6	0.17330799
87	0xbff302cb	-1.8985227
88	0xbfa36517	-1.2765225
89	0x3faee31e	1.3663061
90	0x3ed58224	0.41700852
91	0x3ed86743	0.42266282
92	0x3f0e74ad	0.55646783
93	0xbcc48628	-0.023989752
94	0xbde5efca	-0.11227377
95	0xbe95cff7	-0.29260227
96	0xbf5afed4	-0.85545087
97	0x3f4a4488	0.7901082
98	0xbc35e0e4	-0.011100981
99	0x3d920d1e	0.07131408
100	0x3e77945d	0.2417769
101	0xbf14a318	-0.5806136
102	0x4015a203	2.3380134
103	0x3f19a149	0.60011727
104	0xbf91bf9e	-1.1386602
105	0x3f6f7e00	0.93551636
106	0xbfb02154	-1.3760171
107	0x3f80d059	1.0063583
108	0x3e13e4ad	0.14442702
109	0xbe707946	-0.23483762
110	0xbeb7d847	-0.35907194
111	0xbdd76a63	-0.105183385
112	0x3d33c69c	0.04389058
113	0x3eb135ea	0.34611446
114	0x3f97ed9f	1.1869391
115	0xbf1daee7	-0.61595005
116	0xbf3ddffa	-0.74169886
117	0x3fa49352	1.2857459
118	0x3f18d379	0.5969768
119	0xbfbe26a5	-1.4855543
120	0xbfd43800	-1.657959
121	0x3f05b78b	0.5223319
122	0x3e618b56	0.22025809
123	0xbe23b1dd	-0.15985818
124	0x3eef9c0a	0.46798736
125	0x3f85792b	1.0427603
126	0xbf0ba922	-0.5455495
127	0x3ee2fada	0.4433201
128	0xbf323207	-0.69607586
129	0xbefbe3cb	-0.4919723
130	0x3ed94610	0.42436266
131	0x3edf4260	0.43605328
132	0xbec9dd63	-0.39426717
133	0xbfc11cd1	-1.5086919
134	0x3fdc0e55	1.7191874
135	0xbf5725c6	-0.8404201
136	0x3eafb897	0.34320518
137	0xbe0d90cd	-0.13824768
138	0xbda6b3c1	-0.08139754
139	0x3ff352aa	1.9009602
140	0x3f0d1eab	0.5512492
141	0x3f306959	0.6891075
142	0xbfb4268b	-1.4074262
143	0x3ec8c815	0.3921515
144	0x3f1127f0	0.56701565
145	0xbe8eeb08	-0.2791369
146	0x3f8c7680	1.0973663
147	0xbf6617e5	-0.8988021
148	0xbf4e3776	-0.80553377
149	0x3f43102c	0.7619655
150	0x3e6bd10e	0.23028967
151	0xbef2a602	-0.4739228
152	0xbfb53a2c	-1.4158378
153	0xbdea60c3	-0.11444237
154	0xbf8403cd	-1.031366
155	0xbe2cc579	-0.16872205
156	0xbc4425da	-0.011971915
157	0x3fce213c	1.6103892
158	0xbfcc9fc7	-1.598626
159	0xbf34ba05	-0.70596343
160	0x3fa9c45f	1.3263053
161	0x3f4be324	0.79643464
162	0x3fcabe0b	1.5839247
163	0x3f2c20e3	0.6723768
164	0xbff0471c	-1.8771701
165	0x3ee3650f	0.4441304
166	0x3e61ce09	0.22051252
167	0x3f3ebe1f	0.7450885
168	0xbe42bdc2	-0.190177
169	0x3f23666a	0.63828146
170	0x3eb98574	0.3623463
171	0x3f856607	1.0421761
172	0xbea1ec98	-0.3162582
173	0xbe7f796b	-0.24948661
174	0xbea1993c	-0.3156222
175	0xbd8ab24a	-0.06772287
176	0x400f8a51	2.2428172
177	0x3ead5f9a	0.33862
178	0x3eceac22	0.40365702
179	0xbf62ed79	-0.88643605
180	0x3f31b029	0.69409424
181	0xbf0cdd58	-0.55025244
182	0x3f09de8d	0.5385521
183	0x3e541b91	0.20713641
184	0x3e1448a7	0.1448084
185	0xbec7e114	-0.39038908
186	0x3db23027	0.087005906
187	0xbcb057e5	-0.021526286
188	0xbe6a44e6	-0.22877845
189	0x3f824ef1	1.0180341
190	0xbf98c689	-1.1935588
191	0xbec84381	-0.39114
192	0x3ec3a9d8	0.38215518
193	0xbf19a4ff	-0.6001739
194	0x3e1c4689	0.15261282
195	0xbf152868	-0.5826478
196	0xbf2bcf09	-0.67112786
197	0xbfb9eee9	-1.4526035
198	0xbc81f79d	-0.015865142
199	0xbd7bd553	-0.06148274
200	0xbd898323	-0.067144655
201	0x3f7614bf	0.96125406
202	0x3f480ed0	0.781476
203	0x3fa5bded	1.2948586
204	0xbe374c3e	-0.17900178
205	0xbf016ccc	-0.50556636
206	0xbe41bfb7	-0.1892079
207	0x3e049c7f	0.12950324
208	0x3f4aa4c8	0.79157686
209	0x3e76e433	0.24110489
210	0xbf913c5e	-1.1346548
211	0xbea37178	-0.31922507
212	0x3f6d6815	0.9273694
213	0xbedf2080	-0.43579483
214	0xbe3c7de4	-0.18407398
215	0x3fd47781	1.659897
216	0xbee9a69f	-0.45634934
217	0x3e746bdf	0.23869275
218	0xbf354cfa	-0.7082058
219	0xbf2345c8	-0.6377835
220	0x3a96fbd9	0.0011519148
221	0x3fda0341	1.7032243
222	0xbe9f2ef6	-0.31090516
223	0xbdc8ba18	-0.098011196
224	0xbf14e237	-0.58157676
225	0x3dd7ee40	0.105434895
226	0x4001bc7f	2.02713
227	0x3f858a18	1.0432768
228	0x3f77994c	0.9671829
229	0xbfe2337b	-1.767196
230	0xbfdbffb0	-1.7187405
231	0xbe19ab26	-0.15006694
232	0x3d644c94	0.055737093
233	0x3f5d263e	0.8638648
234	0x3f843108	1.0327463
235	0x3f6c748c	0.92365336
236	0xbecbb9d7	-0.39790222
237	0xbf308c6c	-0.68964267
238	0x3ddde04a	0.10833795
239	0xbe840589	-0.25785473
240	0x3ec9e9ef	0.3943629
241	0xbca2086c	-0.019779406
242	0xbfbfe8f7	-1.499297
243	0xbe389258	-0.18024576
244	0x3fdf1bd7	1.7430371
245	0x3ef01a84	0.4689523
246	0xbebb3026	-0.36560172
247	0x3f78aacd	0.9713562
248	0x3f9291f1	1.1450788
249	0xbefab85b	-0.48968777
250	0xbf1209c5	-0.5704616
251	0x3ea439ef	0.3207545
252	0xbf22a0f0	-0.6352682
253	0x3ef1f1ae	0.472547
254	0xbf8887c5	-1.0666434
255	0xbef91595	-0.48649278

tokenizer.positional_embedding.weight f4 [9, 32]
0	0x3f58bd08	0.8466344
1	0xbf042c45	-0.5163005
2	0xbcbcdbb6	-0.023053985
3	0x3f101bee	0.5629262
4	0x3e18beaf	0.1491649
5	0x3fec1732	1.8444579
6	0x3c7c5b49	0.015402623
7	0xbf156f41	-0.58372885
8	0xbf016a4b	-0.50552815
9	0x3dea0361	0.11426426
10	0x400d4d10	2.2078285
11	0xbfa00d9c	-1.2504153
12	0xbf068214	-0.52542233
13	0xbe21a312	-0.15784863
14	0x3ee94015	0.45556703
15	0x3ecfc937	0.40583202
16	0xbdca123e	-0.09866761
17	0xbf0e79f1	-0.5565482
18	0x3f9694aa	1.1764119
19	0x3f868c40	1.0511551
20	0x3eac1bfd	0.33615103
21	0x3d803764	0.06260565
22	0x3d485485	0.04890873
23	0x3f22e434	0.6362946
24	0xbf0e1e0b	-0.5551459
25	0x3f48fff2	0.7851554
26	0x3fba8fa9	1.4575092
27	0x3d45c747	0.04828575
28	0xbe8418f8	-0.258003
29	0x3e2b6c84	0.16740614
30	0xbebda856	-0.37042493
31	0xc00726e9	-2.11175
32	0x3fb863c5	1.4405447
33	0x3e68c5a9	0.22731651
34	0x3f5bc9f9	0.8585506
35	0x3f585817	0.84509414
36	0x3fe7aae9	1.8099033
37	0x3e765048	0.24054062
38	0x3ea6bcf9	0.3256605
39	0xbeb8690c	-0.36017644
40	0x40082839	2.127455
41	0x3e4c7928	0.19968092
42	0xbf84f9e5	-1.0388762
43	0xbe2d1bd3	-0.16905145
44	0xbe965da7	-0.29368326
45	0x3f087def	0.5331716
46	0x3f863469	1.0484744
47	0xbf9e3fe3	-1.2363247
48	0xbdb64704	-0.08900264
49	0xbf9eb02f	-1.2397517
50	0x3e860a29	0.26179627
51	0xbfc30a00	-1.5237427
52	0x3f8fadae	1.1224878
53	0x3e7c867c	0.24660677
54	0x3f5fe96c	0.8746555
55	0x3f1b39c1	0.60635
56	0x3f57d43a	0.8430821
57	0xbac68ba5	-0.0015147818
58	0x3fd1011a	1.6328461
59	0xc00191c7	-2.0245225
60	0x3ef99c8e	0.48752254
61	0x3f0b9c59	0.5453544
62	0x3fff15cf	1.992853
63	0xbf124ecd	-0.5715149
64	0xbd621217	-0.055193033
65	0x3f886f34	1.0658937
66	0x3e7c68b1	0.24649312
67	0xbfc72e65	-1.5561033
68	0xbdb0be80	-0.08630085
69	0xbf0aad32	-0.54170525
70	0xbf2b1aa5	-0.6683753
71	0x3f9f23fc	1.2432857
72	0x3f7a8960	0.9786587
73	0x3f07f98b	0.5311515
74	0xbfc35ad8	-1.5262098
75	0xc00b47a0	-2.1762466
76	0x3fd2b8fa	1.64627
77	0x3e57afba	0.21063128
78	0xbfe2e850	-1.7727146
79	0x3f93cfd6	1.1547801
80	0x3e9ced11	0.30649617
81	0x3f292903	0.66078204
82	0xbf2a4fbd	-0.6652792
83	0xbf016dfd	-0.50558454
84	0x3fc45f23	1.5341533
85	0xbf8da8c6	-1.106713
86	0xbf569579	-0.8382183
87	0xbe8aa1f2	-0.2707668
88	0xbe3a6ea2	-0.18206266
89	0xbef6b0d4	-0.48181784
90	0xbea0587b	-0.31317505
91	0xbf833917	-1.0251797
92	0xbe164d96	-0.14678034
93	0xbf4f9f87	-0.81102794
94	0x3f792b20	0.9733143
95	0xbfc205e0	-1.5158043
96	0xbee27a4a	-0.44233924
97	0xbff4d02f	-1.9126033
98	0xbfc915b4	-1.5709748
99	0xbee10128	-0.43946195
100	0xbea9d37c	-0.33169162
101	0xbf1d02dc	-0.6133249
102	0x3ee292fe	0.4425277
103	0xbf612a29	-0.87954956
104	0xbf262bb0	-0.6491041
105	0xbea96788	-0.330868
106	0xbeaa750a	-0.3329242
107	0xbf91cd4d	-1.1390778
108	0x3fef6f20	1.8705788
109	0xbf9b73f4	-1.2144761
110	0xbf921cd3	-1.1415046
111	0x3e86b4b7	0.2630975
112	0xbf5033ce	-0.8132905
113	0xbfda52ef	-1.7056559
114	0xbe99aebf	-0.30016133
115	0xc02d4246	-2.70717
116	0x3fd6d534	1.6783814
117	0x3ee74fbd	0.45178023
118	0xbeafa9e8	-0.34309316
119	0xbfc1fb4a	-1.5154812
120	0x3f419946	0.756245
121	0x3f8c324d	1.095285
122	0x3ec7d0a5	0.3902637
123	0xbf2e2ab5	-0.68033916
124	0x3e885c9a	0.2663315
125	0xbeb6734c	-0.3563484
126	0xbf71f38c	-0.9451225
127	0xbf165af4	-0.58732533
128	0x3fa44d58	1.2836103
129	0x3ef85b0b	0.4850696
130	0x3e7cea75	0.24698813
131	0xbf8fadee	-1.1224954
132	0x3f2edc10	0.6830454
133	0xbf843270	-1.0327892
134	0x3ca97523	0.020685738
135	0x3e6ffff9	0.2343749
136	0xbe3e0eb7	-0.18560301
137	0x3f6d1c90	0.9262171
138	0x3fe0da2b	1.756658
139	0x3f0c426f	0.5478887
140	0xbf12bcd8	-0.573194
141	0xbe398e32	-0.1812065
142	0xbd67a8f2	-0.056557603
143	0x3da0f3d0	0.078590035
144	0x3edd2158	0.43189502
145	0xbf25da53	-0.6478626
146	0x3fb0f7c6	1.3825614
147	0x3eb98ada	0.36238748
148	0x3f0896f5	0.5335534
149	0x3f274ccd	0.65351564
150	0xbf226602	-0.634369
151	0xbeaab927	-0.33344385
152	0x3f60eb38	0.87858915
153	0x3cf3798d	0.029721046
154	0xbeed338c	-0.4632839
155	0xbe798362	-0.24366525
156	0x3ff49d72	1.9110548
157	0x3ec00f10	0.37511492
158	0x3fc4402f	1.5332087
159	0x3fc69050	1.5512791
160	0xbe4be5d9	-0.19911899
161	0xbf77dfb1	-0.968257
162	0x3f7477f4	0.95495534
163	0xbfa9938a	-1.324815
164	0xbe66459f	-0.22487496
165	0x3f132947	0.5748486
166	0x3f84c93f	1.0373915
167	0xbedb7508	-0.42862725
168	0xbef5ec1a	-0.48031694
169	0x3df14d1d	0.11782286
170	0xbedde247	-0.43336698
171	0x3f31d2b5	0.6946214
172	0xbf0441b9	-0.51662785
173	0x3f8ac952	1.0842688
174	0x3f23bf9c	0.6396425
175	0xbf9c0460	-1.2188835
176	0xbfc02baa	-1.5013325
177	0x3ee2f1a4	0.44324982
178	0xbe294b3e	-0.16532609
179	0x3f66bed5	0.90134937
180	0xbef960b1	-0.48706582
181	0x3fd5811d	1.6680027
182	0x3e023f65	0.12719496
183	0x3f3aac8d	0.7291954
184	0x3e369d46	0.17833433
185	0x3efcb293	0.4935499
186	0xc0265bfd	-2.5993645
187	0xbd5a3f8d	-0.053283263
188	0xbe032736	-0.12807927
189	0x3f0a9e6d	0.5414799
190	0xbe22b498	-0.15889204
191	0x3f12be2b	0.57321423
192	0xbeb0dc5c	-0.3454312
193	0x3f0a629c	0.54056716
194	0xbe359e68	-0.17736208
195	0xbe1e1abb	-0.15439884
196	0x3d17559c	0.036946878
197	0xbf968b26	-1.1761215
198	0xc019c12f	-2.402416
199	0xbf224d22	-0.63398945
200	0xbea87a78	-0.32905936
201	0xc000460e	-2.0042758
202	0xbf318873	-0.6934883
203	0xbce29a54	-0.02766148
204	0xbfda3054	-1.7045999
205	0x3f881979	1.0632774
206	0xbda15608	-0.07877737
207	0x3fcda9ee	1.6067483
208	0x3ef8fd00	0.48630524
209	0xbf563b8a	-0.836846
210	0xbfcc2e6d	-1.5951668
211	0xbe5416ea	-0.20711866
212	0xbefd44df	-0.49466607
213	0x3f92eb6d	1.1478096
214	0x3fc27486	1.519181
215	0xbf420cd9	-0.75800854
216	0xbf039269	-0.5139528
217	0x3d311c15	0.04323967
218	0x3f54d7cb	0.83141774
219	0x3f4d0d62	0.80098546
220	0xbeff4d24	-0.4986354
221	0x3fd66721	1.6750222
222	0x3fa3f6d6	1.2809703
223	0x3ef5a830	0.4797988
224	0xbfd181e2	-1.6367762
225	0x3f80b7f4	1.0056138
226	0xc005ce3b	-2.0907123
227	0x3e1edad6	0.15513167
228	0xbea2a630	-0.31767416
229	0x3f672afe	0.90299976
230	0xbe405712	-0.18783215
231	0x3f931570	1.1490917
232	0x3fb989d6	1.4495189
233	0xbf936872	-1.1516249
234	0xbf141ad0	-0.5785341
235	0x3fac7841	1.3474199
236	0xbf9455f3	-1.158873
237	0xbf735c41	-0.95062643
238	0xbe454701	-0.19265367
239	0x3fd12f2f	1.6342524
240	0xbc1cc459	-0.009568297
241	0x3f0aa083	0.5415117
242	0x3f1b8104	0.6074374
243	0xc0018b0c	-2.0241117
244	0x3e4584d6	0.19288954
245	0x3f2128c3	0.6295282
246	0xbf510b0a	-0.8165747
247	0xbf8534b6	-1.0406711
248	0x3c8c7632	0.017146204
249	0xc01b64cc	-2.4280272
250	0xbd5593ed	-0.052143026
251	0xbee96be5	-0.4559013
252	0xc0041851	-2.0639842
253	0xbf133985	-0.5750964
254	0xbdaf76f5	-0.08567611
255	0x3f69bb14	0.91301084

encoder_layer_mhattentions.0.attention_heads.0.Q.weight f4 [8, 8]
0	0xbdb7c5fd	-0.0897331
1	0x3d494bc4	0.04914452
2	0xbe81cd2a	-0.2535184
3	0x3e802ded	0.2503504
4	0xbccb21b4	-0.024796344
5	0x3e3f0c2f	0.18656991
6	0xbe6bc85b	-0.23025648
7	0xbe907ee5	-0.28221813
8	0x3e1f678c	0.15566844
9	0xbe828a80	-0.25496292
10	0xbed3d3c2	-0.41372496
11	0x3d8b66b8	0.068067014
12	0xbe2f8d29	-0.17143692
13	0xbe704280	-0.23462868
14	0xbeab1e2f	-0.33421466
15	0x3d130491	0.035893027
16	0xbde20853	-0.11036744
17	0x3e0e1400	0.13874817
18	0x3b90f18b	0.0044233254
19	0x3dd060e9	0.10174734
20	0xbe26bdf7	-0.16283403
21	0x3d87dd5a	0.06634016
22	0x3cc91e4d	0.024550581
23	0xbe8383e3	-0.2568656
24	0xbe682a36	-0.22672352
25	0x3c5aa73a	0.013345534
26	0x3e3e770f	0.18600105
27	0xbcc3de40	-0.023909688
28	0x3dacaa50	0.08430922
29	0x3ca03e68	0.019561008
30	0xbb1f8b2a	-0.0024344423
31	0x3d985766	0.07438545
32	0xbcdb1bc4	-0.026746638
33	0xbeb15546	-0.3463537
34	0xbe0448c4	-0.12918383
35	0xbd8d85a3	-0.06910255
36	0xbdb85794	-0.09001079
37	0xbe99ec3d	-0.30063048
38	0x3e2c116d	0.16803522
39	0x3e7c0cee	0.24614307
40	0xbea187f8	-0.31549048
41	0xbd8cfe5a	-0.06884451
42	0x3dfd117a	0.12356849
43	0xbe62e395	-0.22157128
44	0xbe61b5f9	-0.22042073
45	0x3e11d25e	0.14240405
46	0xbdf925b3	-0.12165394
47	0xbe548877	-0.20755182
48	0x3d17ac15	0.037029345
49	0xbc495dac	-0.0122903995
50	0x3d9af1f2	0.07565679
51	0xbea9ae5b	-0.33140835
52	0xbdf5ea4f	-0.120075814
53	0x3d9ea151	0.077456124
54	0xbe2957e0	-0.16537428
55	0xbed5ad41	-0.41733745
56	0xbe9e0697	-0.30864403
57	0xbe4e1880	-0.20126534
58	0xbe01ee72	-0.12688616
59	0x3e822b74	0.25423777
60	0xbe62a83b	-0.22134487
61	0x3f35b1c6	0.70974386
62	0xbd9de58e	-0.077098
63	0xbf09ed7e	-0.5387801

encoder_layer_mhattentions.0.attention_heads.0.Q.bias f4 [8]
0	0x3dc6400f	0.09680187
1	0xbe74cf59	-0.23907222
2	0x3e643957	0.22287498
3	0x3b758390	0.003746245
4	0xbd26a412	-0.040683813
5	0xbe2c6ca0	-0.16838312
6	0x3f261ba3	0.6488592
7	0xbdee4116	-0.11633508

encoder_layer_mhattentions.0.attention_heads.0.K.weight f4 [8, 8]
0	0x3dc29916	0.09501855
1	0x3e8b6506	0.27225512
2	0xbedb9b28	-0.42891812
3	0x3e4159a2	0.18881848
4	0xbe17dcda	-0.14830342
5	0x3e2a281e	0.16616866
6	0x3d856e4f	0.0651518
7	0x3e774514	0.24147445
8	0xbebcb2a8	-0.36855054
9	0x3d22ea60	0.0397743
10	0xbe46459f	-0.19362496
11	0x3ee0fe5d	0.43944064
12	0x3edc8fb5	0.4307839
13	0x3d678952	0.056527443
14	0x3e8cf362	0.27529436
15	0x3ecf85c8	0.40531754
16	0x3d4e1d75	0.05032106
17	0xbdad9285	-0.08475212
18	0xbe1d3ef2	-0.15356043
19	0xbd67a4a1	-0.056553487
20	0xbb965d6d	-0.004588774
21	0x3dd9615b	0.10614272
22	0xbe4395c0	-0.19100094
23	0x3e177809	0.14791884
24	0x3dffdfb3	0.12493839
25	0xbd753aba	-0.05987046
26	0xbdc62d27	-0.09676581
27	0xbdc0d5f4	-0.09415808
28	0x3dcb3de7	0.09923916
29	0xbd3f62ae	-0.046724968
30	0xbe0acac9	-0.13553919
31	0xbe15f2ee	-0.14643452
32	0xbe707b8b	-0.23484628
33	0x3e5baa89	0.21451773
34	0x3e1be941	0.15225698
35	0x3e2a47d6	0.16628966
36	0xbe2a1d1e	-0.1661267
37	0xbe888131	-0.26661065
38	0x3dc3dd03	0.09563639
39	0xbd978a1a	-0.07399388
40	0x3dafb4e3	0.08579423
41	0x3e1f6eaf	0.15569566
42	0xbec82566	-0.39091033
43	0x3eae395c	0.34028137
44	0x3c8908b1	0.016727777
45	0xbeba020c	-0.36329687
46	0xbdff28cb	-0.124589525
47	0xbe56c838	-0.20974815
48	0x3de5b8b3	0.11216869
49	0xbe4c77ff	-0.1996765
50	0xbea63fd7	-0.3247058
51	0xbe9960a5	-0.29956546
52	0xbde6c4dd	-0.112680174
53	0x3e475e81	0.19469644
54	0xbeb2d279	-0.34926203
55	0xbe4d30e9	-0.20038189
56	0x3ed0808e	0.4072308
57	0x3c4cb7ec	0.012495022
58	0xbe2385bd	-0.15968986
59	0xbd98965b	-0.07450553
60	0x3e635ff5	0.22204573
61	0xbea6fe78	-0.3261602
62	0xbe8da1c9	-0.27662495
63	0x3f31a190	0.6938715

encoder_layer_mhattentions.0.attention_heads.0.K.bias f4 [8]
0	0x3d4b675a	0.04965911
1	0x3e3442f8	0.17603672
2	0xbb9d2e8a	-0.0047968077
3	0xbdc3f180	-0.09567547
4	0xbe164e79	-0.14678372
5	0xbddd999f	-0.108203165
6	0xbdc6aa68	-0.09700471
7	0xbe441122	-0.1914716

encoder_layer_mhattentions.0.attention_heads.0.V.weight f4 [8, 8]
0	0x3e9608ea	0.29303676
1	0x3e361668	0.17781985
2	0xbe75b44c	-0.23994559
3	0x3de1a73e	0.11018227
4	0x3d926b0f	0.07149326
5	0xbd55846e	-0.052128248
6	0x3d41a57b	0.047276955
7	0xbec822ef	-0.39089152
8	0xbe9c11b4	-0.30482256
9	0x3e7c65ef	0.2464826
10	0xbdac141a	-0.084022716
11	0xbee4cb8f	-0.44686553
12	0xbd4721a9	-0.048616085
13	0x3e9d78ac	0.30756128
14	0xbd08f430	-0.033436
15	0xbeb15131	-0.34632257
16	0xbde9fff3	-0.114257716
17	0x3db9bc78	0.09069151
18	0x3e779816	0.2417911
19	0xbe317d69	-0.17332996
20	0x3ec0dd34	0.37668765
21	0x3dea4611	0.11439145
22	0x3ca81d43	0.020521766
23	0x3dce1fb7	0.10064643
24	0x3c40376a	0.011731962
25	0xbbc7a284	-0.0060923714
26	0xbd5a4721	-0.05329049
27	0x3c3b1f45	0.011421029
28	0xbd457683	-0.048208725
29	0xbe7e3870	-0.24826217
30	0x3da6ac74	0.081383616
31	0x3f011187	0.5041737
32	0x3ed7ab39	0.4212282
33	0xbe27c94c	-0.16385382
34	0xbe5e72d1	-0.21723486
35	0xbdfea8fd	-0.12434576
36	0x3d429e64	0.047514334
37	0x3d92ff73	0.07177629
38	0xbe71f0a4	-0.23626953
39	0x3e69a727	0.2281767
40	0xbe7ac7c4	-0.24490267
41	0xbda5573e	-0.08073281
42	0xbe08a8ea	-0.13345686
43	0x3ea6fe45	0.32615867
44	0x3d9c067a	0.07618423
45	0x3d1b6bca	0.037944593
46	0x3d88fcdc	0.06688854
47	0x3e5ffbcc	0.21873397
48	0xbe280052	-0.16406372
49	0x3e15dfef	0.14636205
50	0x3d8c4c38	0.06850475
51	0x3e3e89ac	0.18607205
52	0xbe8902a5	-0.2675983
53	0xbcbe99a8	-0.023266628
54	0xbe7a31e2	-0.24433091
55	0x3e1ac7bf	0.1511526
56	0xbe68504c	-0.22686881
57	0xbe4900c5	-0.196292
58	0xbe27927c	-0.16364473
59	0x3e300460	0.17189169
60	0xbe32dc27	-0.17466794
61	0x3e933d79	0.28757837
62	0xbe598c19	-0.2124485
63	0x3d39ed25	0.045392174

encoder_layer_mhattentions.0.attention_heads.0.V.bias f4 [8]
0	0xbe15bb2d	-0.14622183
1	0xbe4ed2ec	-0.20197648
2	0xbe62c67f	-0.22146033
3	0x3e85c1c9	0.2612441
4	0xbe24fa89	-0.16111197
5	0x3e0e24b5	0.1388119
6	0x3e9d3be6	0.3070976
7	0x3d4bafae	0.049728088

encoder_layer_mhattentions.0.attention_heads.1.Q.weight f4 [8, 8]
0	0x3e08f806	0.13375863
1	0x3ca00d80	0.019537687
2	0xbe24624d	-0.16053124
3	0xbe774333	-0.24146728
4	0x3e864696	0.26225728
5	0xbd48a133	-0.048981857
6	0xbe0c4591	-0.13698412
7	0xbe17b6ee	-0.14815876
8	0x3dc42baa	0.09578641
9	0x3c4781b6	0.012176922
10	0xbe093320	-0.13398409
11	0x3dd2089a	0.10255547
12	0xbe6693df	-0.22517346
13	0x3f182ca8	0.5944314
14	0x3dd44c90	0.10366166
15	0xbf1706fb	-0.58995026
16	0xbe3306cb	-0.1748306
17	0xbd81aecd	-0.06332169
18	0x3f006ec9	0.50169045
19	0xbe868696	-0.26274556
20	0x3f0c1525	0.54719764
21	0x3e912f83	0.2835656
22	0x3e7e908e	0.2485983
23	0xbe65188b	-0.22372644
24	0x3e9b65a2	0.30350977
25	0x3dba45d3	0.09095349
26	0x3dfe1a99	0.12407417
27	0xbd03cbaf	-0.03217667
28	0x3e64a2ad	0.22327681
29	0xbea98ea8	-0.3311665
30	0x3e30755c	0.17232269
31	0xbe8e8047	-0.27832243
32	0x3e99cbf2	0.3003841
33	0xbc059091	-0.008152143
34	0xbe762b77	-0.24040018
35	0x3e5eabeb	0.21745269
36	0x3d95b823	0.07310512
37	0x3e3de11a	0.185429
38	0x3e21753c	0.15767378
39	0x3eb6b1a6	0.3568241
40	0x3bdcf345	0.006742867
41	0xbd4969af	-0.049173053
42	0x3db11eaf	0.086484306
43	0xbe483a22	-0.19553426
44	0x3da1d047	0.07901054
45	0x3ec6f67a	0.38859922
46	0xbe993d42	-0.29929549
47	0xbeafd3a6	-0.34341162
48	0xbedf03fb	-0.43557724
49	0xbd66fa12	-0.05639083
50	0x3e83c30e	0.25734752
51	0xbe24a156	-0.1607717
52	0x3e18d1b4	0.14923745
53	0x3e05d632	0.1306999
54	0x3dac56f1	0.0841502
55	0x3e7bd20e	0.24591848
56	0x3e595260	0.2122283
57	0x3d5c648b	0.053806823
58	0xbdb596a8	-0.08866626
59	0xbe321a08	-0.17392743
60	0x3e9ae8a2	0.3025561
61	0x3e7a3a4d	0.24436302
62	0xbd120c44	-0.03565623
63	0x3d39ba5f	0.045343753

encoder_layer_mhattentions.0.attention_heads.1.Q.bias f4 [8]
0	0x3cf56f44	0.029960282
1	0x3d1279f8	0.03576085
2	0x3c49d5af	0.012319013
3	0x3d5f5f1f	0.054534074
4	0xbf15a130	-0.5844908
5	0xbdc6316a	-0.09677394
6	0xbe90dc03	-0.28292856
7	0x3de2a87d	0.11067293

encoder_layer_mhattentions.0.attention_heads.1.K.weight f4 [8, 8]
0	0x3d1ab954	0.0377744
1	0x3ea2206b	0.31665358
2	0x3e9e84da	0.30960733
3	0x3db380b9	0.08764786
4	0x3e14f05b	0.14544813
5	0x3e1336cd	0.14376374
6	0x3d274f8d	0.04084735
7	0x3e4dde7a	0.201044
8	0xbe3adf45	-0.18249233
9	0xbe30fce7	-0.17283975
10	0xbede6aa8	-0.43440747
11	0xbea9348e	-0.3304791
12	0xbe07e8de	-0.13272426
13	0x3d8bd31d	0.06827376
14	0xbec1ed1d	-0.37876216
15	0x3f02ec86	0.51142156
16	0x3e527dc6	0.20555791
17	0x3dc86b1e	0.09786056
18	0xbe2aa7ab	-0.16665523
19	0xbe3e9f84	-0.18615538
20	0xbef81b70	-0.48458433
21	0x3f05f0fb	0.5232083
22	0x3e6fe2b4	0.23426324
23	0x3df25192	0.118319646
24	0xbe536f2d	-0.20647879
25	0x3e85d3e4	0.26138222
26	0x3db5d5fe	0.088787064
27	0xbe955260	-0.2916441
28	0x3dc6776e	0.09690748
29	0x3ebb5f22	0.36596018
30	0xbe112a5b	-0.14176314
31	0xbeb3376f	-0.3500323
32	0xbf06914a	-0.52565444
33	0xbd342691	-0.043982092
34	0x3d97173d	0.07377479
35	0x3e5d9f4b	0.21642797
36	0x3eaab3d7	0.33340332
37	0x3b2a8d4f	0.0026024168
38	0x3e184f05	0.14873894
39	0x3e6695ff	0.22518156
40	0xbbf6a95d	-0.007527514
41	0x3e2ad54d	0.1668293
42	0xbda43e16	-0.080196545
43	0x3d352793	0.044227194
44	0xbd9340fe	-0.07190131
45	0x3e05442b	0.13014285
46	0x3e34e242	0.17664436
47	0x3ed7dfdc	0.4216298
48	0x3e8f229f	0.279561
49	0x3c7f464f	0.015580728
50	0xbe032537	-0.12807165
51	0x3ea12c0a	0.31478912
52	0xbe0d77f2	-0.13815287
53	0x3d13a3e9	0.03604499
54	0x3f03f418	0.5154433
55	0x3d4317a4	0.047629967
56	0xbe96f014	-0.2948004
57	0xbdda9720	-0.10673356
58	0x3e69f77d	0.22848316
59	0x3ca1e8cc	0.019764327
60	0x3e12127c	0.14264864
61	0x3e36f45e	0.17866656
62	0x3cca610f	0.024704484
63	0x3d96a6ed	0.07356057

encoder_layer_mhattentions.0.attention_heads.1.K.bias f4 [8]
0	0xbe84c3e9	-0.25930718
1	0x3d94f387	0.07273012
2	0xbe552558	-0.20815027
3	0x3e671823	0.22567801
4	0x3d59287e	0.053017132
5	0xbe6c3cfa	-0.23070136
6	0x3e28e3ba	0.16493121
7	0xbe525d21	-0.20543338

encoder_layer_mhattentions.0.attention_heads.1.V.weight f4 [8, 8]
0	0xbe212541	-0.15736867
1	0xbe9a7872	-0.30170017
2	0xbd31f3bd	-0.043445338
3	0xbeb015e2	-0.34391695
4	0xbeccdf38	-0.40014052
5	0xbeb8410f	-0.35987136
6	0xbe44ff1d	-0.19237943
7	0x3dc3d4be	0.09562062
8	0xbed78f83	-0.42101678
9	0x3d5a87c0	0.053352118
10	0x3eb78b0d	0.35848275
11	0xbdb75371	-0.08951462
12	0xbdc19437	-0.09452098
13	0x3e137547	0.14400207
14	0xbdd70747	-0.10499435
15	0x39986e06	0.00029073673
16	0x3d834164	0.06408957
17	0xbe4c6b68	-0.19962847
18	0xbea1c21d	-0.3159341
19	0xbecc4e56	-0.39903516
20	0x3e3da3b4	0.18519479
21	0x3ed56c8d	0.4168438
22	0x3ec2a088	0.380131
23	0x3e6fbf54	0.2341283
24	0xbe0e3bc1	-0.13889982
25	0xbdcc0e77	-0.099636964
26	0x3d97fa57	0.074207954
27	0x3f14af10	0.58079624
28	0x3d7fee4e	0.062483124
29	0xbe207869	-0.15670933
30	0x3d6c805f	0.05773961
31	0x3eb3faf7	0.35152408
32	0x3db3d1a9	0.08780224
33	0xbd853429	-0.065040894
34	0x3c393db7	0.011306218
35	0xbf03a7b8	-0.51427794
36	0x3db36bed	0.087608196
37	0x3e91a6e1	0.2844763
38	0x3ea5761c	0.32316673
39	0x3e942e33	0.28941497
40	0x3de908cd	0.11378632
41	0x3e3950f3	0.18097286
42	0x3e599226	0.21247157
43	0xbd8f5818	-0.069992244
44	0x3ec5d8ac	0.3864187
45	0x3e84577e	0.25848
46	0x3d454894	0.04816492
47	0xbe198b65	-0.14994581
48	0xbe05a975	-0.13052924
49	0xbe9656d6	-0.29363126
50	0x3e0a26c8	0.13491356
51	0xbe9a4dac	-0.30137384
52	0x3d1c5383	0.03816558
53	0x3e870f89	0.2637904
54	0x3e4d42c9	0.20045008
55	0xbe2cc2f2	-0.1687124
56	0xbe803ce4	-0.25046456
57	0xbca71554	-0.020395912
58	0xbe1b7110	-0.15179849
59	0x3e70424e	0.23462793
60	0xbe647124	-0.22308785
61	0x3e194153	0.14966325
62	0xbe41b7b3	-0.18917732
63	0xbe46aa98	-0.19401014

encoder_layer_mhattentions.0.attention_heads.1.V.bias f4 [8]
0	0x3cd71c92	0.02625874
1	0xbe0eace0	-0.13933134
2	0xbe3effe5	-0.18652304
3	0xbe04460b	-0.12917344
4	0xbe646bc0	-0.22306728
5	0x3d63e9cb	0.055642884
6	0xbe100b53	-0.1406682
7	0xbd8b6d54	-0.06807962

encoder_layer_mhattentions.0.attention_heads.2.Q.weight f4 [8, 8]
0	0x3e317c1b	0.17332499
1	0xbe3fea90	-0.18741822
2	0xbe3b62b7	-0.18299375
3	0xbe7cac65	-0.24675138
4	0xbe464f6a	-0.19366232
5	0xbe91896f	-0.28425166
6	0x3e76f51a	0.24116936
7	0x3e8cc688	0.27495217
8	0xbe4ef173	-0.20209293
9	0xbd3f9447	-0.046772268
10	0x3d935fbe	0.07195996
11	0xbeadfc34	-0.33981478
12	0xbe0b529b	-0.1360573
13	0xbd207d43	-0.03918196
14	0x3d9d2262	0.076725736
15	0xbd7e0550	-0.062016785
16	0xbd824440	-0.06360674
17	0x3e92ae23	0.2864848
18	0xbe202382	-0.15638545
19	0x3e49c811	0.19705226
20	0xbe466264	-0.1937347
21	0x3e9c7dbe	0.30564684
22	0x3ece8686	0.40337008
23	0x3cd6fdf5	0.026244143
24	0x3e2a7fa0	0.16650248
25	0x3d77b15a	0.06047187
26	0x3d2e50d1	0.04255754
27	0xbe6ec5f0	-0.23317695
28	0xbd33040e	-0.04370504
29	0x3d892c82	0.06697942
30	0x3c8cec6b	0.017202577
31	0x3ee611c3	0.44935426
32	0x3d40f6a0	0.0471102
33	0xbe378759	-0.17922725
34	0xbd968985	-0.073504485
35	0x3ee57faa	0.44823962
36	0xbe3c66a2	-0.18398526
37	0xbf09598a	-0.5365225
38	0xbf2a33fe	-0.66485584
39	0xbef086ce	-0.46977848
40	0xbc9e15d4	-0.019297518
41	0x3dc345b8	0.09534782
42	0x3c06c5ab	0.008225839
43	0x3e5fbfe2	0.21850541
44	0x3d143a29	0.03618828
45	0x3e45f267	0.1933075
46	0x3ca48cd5	0.020086685
47	0xbe2a5de9	-0.16637386
48	0xbe39c0c8	-0.18139946
49	0x3e6336d4	0.22188884
50	0x3e7507b9	0.23928727
51	0x3f0382a0	0.5137119
52	0x3e0447c5	0.12918003
53	0xbe53fadd	-0.20701165
54	0xbf3aaf09	-0.7292333
55	0xbdfcf061	-0.12350536
56	0xbd9a7e64	-0.07543638
57	0x3eef448d	0.46731988
58	0xbed009e7	-0.40632555
59	0xbe53ba9b	-0.20676653
60	0x3e4827e7	0.19546472
61	0x3e8e6baf	0.2781653
62	0x3e9bd87e	0.30438608
63	0x3e1cf01c	0.1532597

encoder_layer_mhattentions.0.attention_heads.2.Q.bias f4 [8]
0	0x3e3267a0	0.17422342
1	0xbdbec071	-0.09314049
2	0x3e45bdb7	0.19310652
3	0x3ca046a8	0.019564942
4	0xbdea713d	-0.1144738
5	0xbc5f98ae	-0.0136472415
6	0xbd5be9b2	-0.053689666
7	0x3eb4f85f	0.35345742

encoder_layer_mhattentions.0.attention_heads.2.K.weight f4 [8, 8]
0	0xbde6937c	-0.11258599
1	0xbd9a3316	-0.07529275
2	0xbe71ee7d	-0.23626132
3	0x3dea1c9d	0.11431239
4	0x3c05e104	0.008171324
5	0xbf201b9c	-0.6254213
6	0xbd50f064	-0.051010504
7	0xbea921b9	-0.3303354
8	0x3d328684	0.043585315
9	0xbe04c08a	-0.12964073
10	0xbc62358b	-0.013806711
11	0xbe1c3b24	-0.15256935
12	0xbe87fcc7	-0.2656004
13	0xbe1ff221	-0.15619709
14	0xbe87da9b	-0.2653397
15	0xbe0f631c	-0.14002651
16	0xbeeb799c	-0.45991218
17	0xbed539a9	-0.41645554
18	0x3ec071b6	0.37586755
19	0xbcff3800	-0.031154633
20	0x3e59a6d7	0.2125505
21	0x3de3c675	0.11121837
22	0x3c9c331b	0.019067338
23	0xbe4aea9a	-0.19816056
24	0xbb5c705d	-0.003363631
25	0xbe2c2a7b	-0.1681308
26	0xbe3b07ba	-0.18264666
27	0x3e3bb0f2	0.18329218
28	0x3e1ab3d2	0.15107659
29	0xbeed06a7	-0.46294138
30	0x3dc05e0b	0.09392937
31	0xbe30cb84	-0.17265135
32	0x3e99edc4	0.30064213
33	0x3ea89012	0.32922417
34	0xbdd84535	-0.10560075
35	0x3d6fd03c	0.058548197
36	0xbed40f53	-0.4141794
37	0x3f19e4cf	0.6011476
38	0x3f1f133a	0.6213871
39	0x3d0b2f73	0.033980798
40	0xbd1a0886	-0.037605785
41	0x3d1e20e3	0.038605582
42	0x3dd17c12	0.10228743
43	0x3e2038b3	0.15646629
44	0xbaa8d1ea	-0.0012879942
45	0x3edc5d94	0.43040144
46	0xbde0dfbe	-0.109801754
47	0xbe1c42a6	-0.152598
48	0x3e1c6825	0.15274103
49	0x3f3061fe	0.68899524
50	0x3e656b97	0.22404324
51	0x3d83edc4	0.064418346
52	0xbdb6b25e	-0.089207396
53	0x3ed80231	0.42189172
54	0x3f14cfc1	0.5812951
55	0x3e0f810e	0.14014074
56	0xbe7742a0	-0.24146509
57	0xbec542b5	-0.38527456
58	0x3e088c76	0.13334832
59	0x3eb4887f	0.35260388
60	0xbc6b1ad9	-0.014349663
61	0xbe5359d6	-0.20639738
62	0xbf18ce93	-0.5969021
63	0xbe8789fc	-0.2647246

encoder_layer_mhattentions.0.attention_heads.2.K.bias f4 [8]
0	0x3ea2fd6a	0.31833965
1	0x3dac9fa5	0.08428887
2	0xbe48e404	-0.19618231
3	0xbe525318	-0.2053951
4	0xbddd06fe	-0.10792349
5	0xbe8aa87a	-0.27081662
6	0x3e6bf4c8	0.23042595
7	0x3dd7d6c0	0.10539007

encoder_layer_mhattentions.0.attention_heads.2.V.weight f4 [8, 8]
0	0xbe6112d1	-0.21979834
1	0x3e97f280	0.296772
2	0x3cde131f	0.027108727
3	0x3eac065d	0.33598605
4	0xbd1e5ad0	-0.038660824
5	0x3e66f3d3	0.22553949
6	0xbe9ac259	-0.302264
7	0x3dfcd902	0.123460785
8	0xbe4498ed	-0.19198962
9	0xbd236ee2	-0.039900668
10	0xbebb07b0	-0.36529303
11	0xbe5040e6	-0.20337257
12	0x3ce56856	0.028003853
13	0x3eb5807d	0.3544959
14	0xbdcb5517	-0.09928339
15	0xbdaa1fab	-0.083068214
16	0x3b7912c1	0.0038005563
17	0xbe807c82	-0.25094992
18	0xbe40b492	-0.18818882
19	0xbd947cbe	-0.07250355
20	0xbe36e86c	-0.178621
21	0x3dc90185	0.09814743
22	0x3d41c622	0.047308095
23	0x3c44edb7	0.012019566
24	0x3d96286b	0.07331928
25	0xbdd0ffe6	-0.10205059
26	0xbedabee5	-0.42723766
27	0x3e7a5f5d	0.2445044
28	0x3dd7d580	0.10538769
29	0x3e9257b9	0.28582552
30	0x3c00a07c	0.007850762
31	0x3e5b16b6	0.21395382
32	0xbd9ba7d2	-0.076003686
33	0xbde2b2cf	-0.11069261
34	0xbce06567	-0.027392102
35	0x3e6384b4	0.22218591
36	0xbda59092	-0.08084215
37	0x3d0c8ac8	0.03431204
38	0x3e789934	0.24277192
39	0xbe36b844	-0.1784373
40	0xbcd1c96c	-0.02560874
41	0xbe4250f0	-0.18976188
42	0xbae91bee	-0.0017784813
43	0x3e00bd90	0.12572312
44	0xbeb5de9b	-0.35521397
45	0xbe493519	-0.19649161
46	0x3eab5d8e	0.33469814
47	0xbda8030f	-0.082037084
48	0xbde2f592	-0.11081995
49	0x3e529101	0.20563127
50	0xbd431f32	-0.047637172
51	0x3d151eac	0.036406204
52	0x3aee58a5	0.0018184377
53	0xbe6150a0	-0.22003412
54	0x3e6f8254	0.2338956
55	0xbe97beb0	-0.2963767
56	0x3d83a93c	0.06428763
57	0xbe285ef2	-0.16442469
58	0xbc96d032	-0.018409822
59	0xbe21aba8	-0.15788138
60	0xbbaa10f1	-0.005190008
61	0xbdc475d2	-0.09592785
62	0xbe9cd6e0	-0.30632687
63	0x3e347c12	0.17625454

encoder_layer_mhattentions.0.attention_heads.2.V.bias f4 [8]
0	0x3e9757eb	0.29559264
1	0xbe7da7df	-0.24771069
2	0x3d121593	0.035665106
3	0x3bccb2cc	0.0062469
4	0x3dbb5d3f	0.09148645
5	0x3ebc1403	0.36734018
6	0x3d989162	0.074496046
7	0xbe37adda	-0.17937413

encoder_layer_mhattentions.0.attention_heads.3.Q.weight f4 [8, 8]
0	0x3e27968d	0.16366024
1	0xbdc41218	-0.095737636
2	0xbe82a887	-0.255192
3	0xbf166cf0	-0.58759975
4	0x3e88f85d	0.26751986
5	0xbe7bd910	-0.24594522
6	0x3e922d92	0.28550392
7	0x3e7b4a0f	0.2453997
8	0x3e80c02c	0.25146616
9	0x3e64a535	0.22328646
10	0x3da73ac1	0.08165503
11	0x3ea617d0	0.32440042
12	0xbea3af53	-0.319697
13	0x3e5fdbdc	0.21861213
14	0xbd9e6392	-0.07733835
15	0x3ea918f1	0.3302684
16	0x3d8e6d87	0.069544844
17	0x3e06dcd8	0.13170183
18	0xbd0276de	-0.03185164
19	0xbc8fe1ff	-0.017563818
20	0xbdd33879	-0.10313506
21	0x3db3d828	0.08781463
22	0x3eae52d3	0.34047565
23	0xbec27211	-0.3797765
24	0x3d671b53	0.056422543
25	0x3bae8dc8	0.0053269602
26	0xbe38cc93	-0.18046789
27	0xbcf69294	-0.03009919
28	0xbe812cfa	-0.25229627
29	0x3e0353f3	0.12824993
30	0x3e6397d1	0.22225882
31	0x3df42c7b	0.119225465
32	0x3e224148	0.15845215
33	0xbeb53ae1	-0.35396484
34	0xbb49d08e	-0.0030794474
35	0xbc48a2ee	-0.012245877
36	0x3ebfb0a0	0.37439442
37	0x3c8c1378	0.017099127
38	0xbedfdaa1	-0.43721488
39	0xbc97f397	-0.01854877
40	0xbd8cc5e0	-0.06873679
41	0x3ea519b1	0.32246163
42	0x3d903420	0.07041192
43	0x3b981d77	0.0046421844
44	0xbefd7c87	-0.4950907
45	0x3bef9816	0.007311831
46	0x3e3cd0c8	0.18439019
47	0xbc3cbb7b	-0.011519308
48	0xbe2b2c0f	-0.16716026
49	0xbebc28b7	-0.36749813
50	0xbeabd819	-0.33563307
51	0xbe6aacf5	-0.2291754
52	0x3e91178e	0.28338283
53	0xbf0840e9	-0.53224045
54	0xbdc27f7e	-0.094969735
55	0x3e512848	0.20425522
56	0x3dc064ca	0.09394224
57	0x3ecb6476	0.39725083
58	0x3daff659	0.08591909
59	0xbec579a7	-0.38569376
60	0x3eb01f68	0.3439896
61	0xbe859eeb	-0.26097807
62	0xbeb4f555	-0.35343423
63	0xbca20095	-0.019775668

encoder_layer_mhattentions.0.attention_heads.3.Q.bias f4 [8]
0	0xbe6e92a2	-0.23298123
1	0xbd4e3e67	-0.05035248
2	0x3e0842b8	0.13306701
3	0xbebd3fe1	-0.36962798
4	0x3e61ad15	0.22038682
5	0x3e97287a	0.2952307
6	0xbc8df610	-0.017329246
7	0x3e5707b6	0.20999035

encoder_layer_mhattentions.0.attention_heads.3.K.weight f4 [8, 8]
0	0xbe97872a	-0.2959531
1	0x3e95e188	0.2927363
2	0xbb142830	-0.0022606961
3	0xbea2bc9d	-0.31784526
4	0xbed49b34	-0.4152466
5	0x3da9061e	0.0825312
6	0xbef623b3	-0.4807411
7	0xbeab1733	-0.33416137
8	0x3e8abe3e	0.27098268
9	0xbe9663ed	-0.29373112
10	0x3e3c2652	0.18373993
11	0x3e5952f9	0.21223058
12	0x3d78d835	0.060753066
13	0x3ec29cd8	0.38010287
14	0x3dcbc86c	0.09950337
15	0xbd961864	-0.07328871
16	0xbeeb063c	-0.45903194
17	0xbbc46072	-0.0059929425
18	0xbd9d7fa9	-0.07690365
19	0x3e18fe8d	0.14940853
20	0x3ea4200f	0.3205571
21	0xbe0becfc	-0.13664621
22	0x3ee00ee5	0.43761364
23	0x3d3ed88c	0.046593234
24	0xbe01cf3f	-0.12676714
25	0xbe2df46a	-0.16987768
26	0x3e7df6ac	0.24801129
27	0xbe8ca6aa	-0.27470905
28	0x3db1c33b	0.086798154
29	0xbcb84b01	-0.022496702
30	0xbe44191a	-0.191502
31	0xbdc25de6	-0.09490566
32	0x3e9bc757	0.30425522
33	0x3e8d8cff	0.27646634
34	0xbe6cd0c4	-0.23126513
35	0xbea4aab4	-0.32161486
36	0xbe37727d	-0.17914768
37	0xbe224f05	-0.15850456
38	0xbeaf0ece	-0.34190983
39	0xbda6ea64	-0.08150175
40	0xbe675d92	-0.22594288
41	0xbec42a2c	-0.38313425
42	0xbe542c01	-0.20719911
43	0x3eddc6c5	0.43315712
44	0x3e2a76ec	0.16646928
45	0x3e17e63a	0.14833918
46	0x3e4ca174	0.19983464
47	0xbdd42208	-0.103580534
48	0xbd9971e6	-0.074924275
49	0x3ef36a13	0.47541866
50	0x3d8761e2	0.066104665
51	0xbee8308a	-0.45349532
52	0xbe63e8b1	-0.22256733
53	0xbe4850db	-0.19562094
54	0xbe75fd1a	-0.24022332
55	0x3d5c900d	0.053848315
56	0xbe1c25e6	-0.15248832
57	0x3e813a14	0.25239623
58	0xbf008e96	-0.5021757
59	0xbee9b95a	-0.45649225
60	0xbe579479	-0.21052732
61	0x3b6e77df	0.0036387367
62	0x3e50eec2	0.20403579
63	0x3c9db207	0.01924993

encoder_layer_mhattentions.0.attention_heads.3.K.bias f4 [8]
0	0xbe854626	-0.26030082
1	0xbbcb8d3c	-0.006211905
2	0xbddb0cec	-0.10695824
3	0x3e9d8180	0.30762863
4	0x3eaa45fd	0.33256522
5	0x3e885f76	0.2663533
6	0x3e3d6664	0.1849609
7	0x3dc2504c	0.09487972

encoder_layer_mhattentions.0.attention_heads.3.V.weight f4 [8, 8]
0	0xbe26a72f	-0.16274713
1	0xbe58262e	-0.21108314
2	0xbdd0e6d4	-0.10200277
3	0xbed9448d	-0.42435113
4	0x3de47657	0.11155384
5	0xbe63a7f7	-0.22232042
6	0xbd3d4170	-0.046204984
7	0xbdc1fdad	-0.09472213
8	0xbe967706	-0.29387683
9	0x3e1aefa6	0.15130481
10	0x3db0925a	0.08621664
11	0x3e005043	0.12530617
12	0x3ebfcef5	0.37462583
13	0xbe811f42	-0.2521916
14	0xbe1040d6	-0.14087233
15	0xbc8e88d8	-0.017399237
16	0xbe5bd42f	-0.2146766
17	0x3e51e6c9	0.20498194
18	0x3d9d3b48	0.076773226
19	0x3ea3d56f	0.31998774
20	0xbe8b7297	-0.27235863
21	0x3e2a477c	0.16628832
22	0xbd9ca541	-0.07648707
23	0x3e817be8	0.25289845
24	0xbe5fe24a	-0.21863666
25	0xbe7ce6de	-0.24697444
26	0x3dcf871a	0.101331905
27	0x3e7f560a	0.24935165
28	0x3d886203	0.06659319
29	0x3cba46ee	0.0227389
30	0xbc142cf0	-0.009043917
31	0x3e25db52	0.16196945
32	0xbe8a1ce0	-0.26975155
33	0xbe942e00	-0.28941345
34	0xbadd1134	-0.0016866089
35	0x3e996f25	0.2996761
36	0xbeac5817	-0.33660957
37	0x3de43792	0.11143412
38	0x3e8af9d5	0.27143732
39	0xbccdc732	-0.025119398
40	0x3e29923e	0.16559693
41	0xbd609104	-0.054825798
42	0xbea3ff56	-0.32030743
43	0x3ea7ba89	0.32759503
44	0xbde4ceab	-0.11172231
45	0x3d57215d	0.052522052
46	0xbe6d4881	-0.2317219
47	0xbe63ab8e	-0.22233412
48	0x3e35f865	0.17770536
49	0x3ea0b58e	0.31388515
50	0xbe39786f	-0.18112348
51	0x3e8075c0	0.25089836
52	0xbea1f1fc	-0.31629932
53	0xbd252f1a	-0.040328123
54	0xbe12aa84	-0.14322859
55	0x3e0d0124	0.13769966
56	0x3e76dcb4	0.24107629
57	0x3e20f0bc	0.15716833
58	0x3d96077f	0.073256485
59	0x3e3c3280	0.18378639
60	0x3e851b1c	0.25997245
61	0xbc1e7f3c	-0.00967389
62	0xbea76498	-0.32693934
63	0x3e581ddf	0.21105145

encoder_layer_mhattentions.0.attention_heads.3.V.bias f4 [8]
0	0x3e26016a	0.16211477
1	0x3b36b1b9	0.0027876927
2	0xbdaffa70	-0.08592689
3	0xbea96453	-0.33084354
4	0xbe9f40b3	-0.3110405
5	0x3e5f1304	0.21784598
6	0x3ea88582	0.32914358
7	0x3d7c9bb9	0.061671946

encoder_layer_mhattentions.0.output_layer.weight f4 [32, 32]
0	0xbc4212db	-0.011845316
1	0xbe1dafc5	-0.15399082
2	0x3dd682c5	0.10474161
3	0x3e2311a8	0.15924704
4	0xbd880902	-0.06642343
5	0x3a76c142	0.0009412953
6	0x3d24a0b1	0.04019231
7	0xbeb6ffe0	-0.35742092
8	0x3db56c59	0.08858556
9	0xbdafbc9b	-0.085808955
10	0xbe67f36a	-0.22651449
11	0x3df180db	0.11792155
12	0xbebaac77	-0.36459705
13	0xbe86614c	-0.26246107
14	0xbea3f04e	-0.32019275
15	0x3e05614b	0.13025396
16	0x3ea4c83b	0.32184014
17	0x3ddf181f	0.108932726
18	0x3e25c543	0.1618853
19	0x3e8b2643	0.2717763
20	0xbe21c3d2	-0.15797356
21	0xbcc7811f	-0.024353562
22	0xbd42bcd7	-0.047543373
23	0xbe1572c5	-0.14594562
24	0xbd7dc904	-0.06195928
25	0xbe26ac0c	-0.16276568
26	0xbe5177ef	-0.20455907
27	0xbe8527ba	-0.2600687
28	0xbf23cba8	-0.6398263
29	0x3e34c324	0.17652565
30	0x3e5d6db3	0.21623878
31	0x3e34249f	0.17592095
32	0xbea99021	-0.33117774
33	0x3dda87a3	0.10670402
34	0x3e4a5381	0.19758417
35	0xbea87c13	-0.3290716
36	0xbcb5b06d	-0.022178853
37	0xbe4eb6f7	-0.20186983
38	0x3bec52bd	0.0072120116
39	0x3cfc61eb	0.03080841
40	0xbe2b2cdf	-0.16716336
41	0x3d8cd2c2	0.06876136
42	0x3e815e22	0.2526713
43	0xbee22271	-0.44166902
44	0x3eee7ebf	0.46581075
45	0x3e203118	0.15643728
46	0x3e4886b1	0.1958263
47	0xbe84cd65	-0.25937954
48	0x3da4f181	0.08053876
49	0xbe34961e	-0.1763539
50	0xbd97fb6f	-0.07421004
51	0x3e8ae66d	0.27128926
52	0x3dc03b81	0.093863495
53	0x3cbe00fe	0.023193832
54	0x3e89ab6e	0.26888603
55	0xbe3112ed	-0.17292376
56	0x3eadd216	0.33949345
57	0xbec19590	-0.3780942
58	0xbea39e07	-0.31956503
59	0x3d87eeca	0.06637342
60	0x3e193981	0.14963342
61	0x3cedcd50	0.029028565
62	0xbe1c7b61	-0.1528144
63	0xbe1061e7	-0.14099847
64	0xbeb442e8	-0.35207295
65	0xbba4b8d2	-0.005026915
66	0x3d727384	0.059192196
67	0x3cdbe5a5	0.026842901
68	0xbe84040d	-0.2578434
69	0xbdd4920c	-0.10379419
70	0x3efe9a01	0.4972687
71	0xbe24f4b2	-0.16108969
72	0x3e915f46	0.28393
73	0xbcf776a9	-0.030207949
74	0xbf0a1f94	-0.53954434
75	0xbd916c5c	-0.07100746
76	0xbeb41ec3	-0.3517972
77	0xbe236877	-0.15957819
78	0x3d2c8a42	0.04212404
79	0x3e02177d	0.12704273
80	0xbeab22e5	-0.3342506
81	0x3de68ff8	0.112579286
82	0x3e836e35	0.2567002
83	0xbe6d8509	-0.2319528
84	0xbe690a16	-0.22757754
85	0x3e28e6c8	0.16494286
86	0x3da265a1	0.079295404
87	0x3de1a55e	0.110178694
88	0xbd9c8514	-0.0764257
89	0xbdb4cb23	-0.08827808
90	0xbe4900f1	-0.19629265
91	0xbe8baf9e	-0.27282423
92	0xbdca8b82	-0.0988989
93	0x3ce33c20	0.02773863
94	0x3e2c281c	0.16812176
95	0x3cb99a1c	0.022656493
96	0x3e8f07eb	0.27935728
97	0x3e5e5dd9	0.21715488
98	0xbe4d7704	-0.20064932
99	0xbec9f57b	-0.394451
100	0xbe97b621	-0.2963114
101	0xbe753b2d	-0.23948355
102	0xbd811566	-0.063029096
103	0xbe1b1ea1	-0.15148403
104	0x3cf5d2b7	0.030007703
105	0x3ee17111	0.44031575
106	0x3dd23b58	0.10265225
107	0xbd211ddf	-0.039335128
108	0x3dda58a6	0.106614396
109	0xbd5c0085	-0.053711433
110	0x3de9ba67	0.114125066
111	0x3dd5d33e	0.10440682
112	0x3e37e453	0.17958193
113	0xbbf89f2a	-0.007587333
114	0xbe6cd5c4	-0.2312842
115	0x3e298dce	0.16558
116	0x3dcae8a1	0.09907652
117	0xbe7c8fe7	-0.2466427
118	0x3d994e5f	0.07485651
119	0xbe9e61ec	-0.30934083
120	0x3d89c11b	0.06726285
121	0x3c4adfeb	0.012382488
122	0x3e2054bb	0.15657322
123	0xbead8db6	-0.3389718
124	0xbe116b72	-0.14201143
125	0xbe5ce99a	-0.21573487
126	0x3dc5ea96	0.09663884
127	0xbec363e4	-0.38162148
128	0x3e18e426	0.14930782
129	0xbe81ccea	-0.2535165
130	0xbe8a853f	-0.27054784
131	0xbd78de4b	-0.06075887
132	0xbdb783fc	-0.08960721
133	0x3c0be2df	0.008537977
134	0x3e210a24	0.15726525
135	0x3d38a378	0.04507777
136	0xbe8d052b	-0.27543005
137	0x3e21f3f7	0.15815721
138	0xbe38ec76	-0.18058953
139	0x3d3d8327	0.046267655
140	0xbd601976	-0.05471178
141	0x3d097860	0.033562064
142	0x3ca8dc21	0.020612778
143	0x3c9307c6	0.017948043
144	0x3b17c645	0.002315895
145	0x3ddc076e	0.107436046
146	0x3d9198be	0.071092114
147	0x3da261bc	0.079287976
148	0xbdd4952d	-0.103800155
149	0xbe12b55a	-0.14326993
150	0xbc994aaf	-0.01871237
151	0x3ce61f55	0.028091112
152	0x3b167c4c	0.002296227
153	0x3c764cd5	0.015032967
154	0x3b8f27cc	0.004368758
155	0x3db428d3	0.08796849
156	0x3d329f64	0.043609038
157	0xbd4ec68f	-0.05048233
158	0x3cd200dc	0.025635175
159	0x3da2c390	0.07947457
160	0x3dcec881	0.10096837
161	0x3ed8db80	0.42354965
162	0x3eb47f15	0.35253206
163	0xbe93940a	-0.28823882
164	0xbeda8c4e	-0.4268517
165	0x3e83135d	0.2560071
166	0xbde9f895	-0.114243664
167	0xbdab8a61	-0.08376003
168	0x3ebd9102	0.37024695
169	0x3e20174d	0.15633889
170	0xbdc10695	-0.094250835
171	0x3e09bb49	0.1345035
172	0x3d0bb931	0.03411216
173	0xbe8af45a	-0.2713955
174	0xbdff265b	-0.124584876
175	0x3e087903	0.13327412
176	0x3e977c83	0.29587182
177	0xbe09a369	-0.13441242
178	0xbe0d40cf	-0.13794254
179	0xbec0a1d5	-0.37623468
180	0x3d4e2dbe	0.050336592
181	0x3db0d052	0.08633484
182	0x3d3bdeff	0.045866963
183	0xbbc047bb	-0.005867926
184	0xbd79b704	-0.060965553
185	0x3e3e40be	0.18579385
186	0x3e14f42d	0.1454627
187	0x3dba0aec	0.090841144
188	0x3e7aad29	0.24480118
189	0x3e1de46b	0.15419166
190	0xbe1f6f3b	-0.15569775
191	0xbc251c20	-0.010077506
192	0xbd638842	-0.055549867
193	0x3e10826e	0.14112255
194	0xbddf182c	-0.10893282
195	0xbe0cf1cd	-0.13764115
196	0xbde4bfb1	-0.11169375
197	0x3d936f07	0.07198911
198	0xbe660583	-0.2246304
199	0x3e98e2e7	0.29860613
200	0x3dab04bb	0.08350512
201	0xba3eec73	-0.00072831585
202	0xbd35504d	-0.044266034
203	0xbd3f5147	-0.04670837
204	0xbdbe9e6f	-0.093075626
205	0xbe362af9	-0.1778983
206	0xbd9d3bb6	-0.076774046
207	0xbe8719db	-0.26386914
208	0xbe8cce72	-0.27501255
209	0x3ef059f5	0.46943632
210	0x3e3b0671	0.18264176
211	0xbd85aa7a	-0.065266564
212	0xbdb383ed	-0.08765397
213	0xbcd644b2	-0.026155803
214	0xbd3446a3	-0.044012677
215	0x3d6f4148	0.058411866
216	0xbe83041c	-0.25589073
217	0x3e29ff01	0.16601183
218	0x3da09cc0	0.07842398
219	0xbc184648	-0.0092941
220	0x3dac5a44	0.08415654
221	0xbe8da9fc	-0.2766875
222	0xbdbac083	-0.0911875
223	0xbbd6cfa8	-0.0065555163
224	0x3dedd6a6	0.116132066
225	0x3ea7d8ea	0.3278268
226	0xbe00f82a	-0.12594667
227	0xbe73f377	-0.23823343
228	0x3e1be54e	0.15224192
229	0xbe481e5c	-0.19542831
230	0xbe70fab2	-0.23533133
231	0x3d1ac4c1	0.037785295
232	0xbe85bc99	-0.2612045
233	0x3e68ebf4	0.22746259
234	0x3b8c8c4f	0.004289187
235	0x3d9e0273	0.07715311
236	0x3e051f27	0.13000165
237	0x3e37a8f8	0.1793555
238	0x3e418257	0.18897377
239	0xbdd551f7	-0.10416024
240	0xbefc8c8b	-0.49325976
241	0x3e8cc740	0.27495766
242	0x3da98613	0.08277526
243	0x3de739b8	0.11290306
244	0x3df0f78f	0.11765968
245	0xbe60ae83	-0.21941571
246	0x3d5e8b14	0.054331854
247	0xbd2e803e	-0.04260277
248	0x3e246f96	0.16058192
249	0x3e148353	0.14503221
250	0xbecb1bb3	-0.3966957
251	0x3e32311b	0.17401545
252	0x3d278fdc	0.04090868
253	0x3d1470b7	0.036240306
254	0xbeb9c697	-0.36284325
255	0x3de52fb2	0.11190738

encoder_layer_mhattentions.0.output_layer.bias f4 [32]
0	0x3c32b743	0.010907951
1	0xbe3996f2	-0.18123987
2	0xbe5106c8	-0.20412743
3	0xbda658a2	-0.08122374
4	0xbd85ba01	-0.06529618
5	0xbb85d800	-0.004084587
6	0x3c801ff5	0.015640238
7	0xbd685445	-0.05672099
8	0xbaa43608	-0.001252831
9	0x3e0e1bdd	0.13877816
10	0xbd92c825	-0.07167081
11	0xbdc11014	-0.09426895
12	0xbe1d8730	-0.15383601
13	0x3df0aae9	0.117513485
14	0xbda7ec63	-0.08199384
15	0x3cd030bc	0.025413863
16	0x3d9dbe50	0.07702315
17	0x3e80d41d	0.2516183
18	0x3e13e196	0.14441523
19	0xbd2d6b9b	-0.04233895
20	0xbbb81022	-0.0056171576
21	0xbd947e69	-0.07250673
22	0x3e6f450f	0.23366188
23	0x3e0d1a03	0.13779454
24	0x3df4b0fe	0.11947821
25	0x3e17120d	0.1475298
26	0x3e2d8960	0.16946936
27	0xbd8f237b	-0.06989189
28	0xbdb6bad1	-0.08922351
29	0xbe84aaed	-0.25911656
30	0xbe45bc0c	-0.19310015
31	0x3c91f29c	0.01781588

encoder_layer_mhattentions.1.attention_heads.0.Q.weight f4 [8, 8]
0	0x3f36ed1e	0.7145556
1	0xbeb795fc	-0.35856616
2	0xbe95b870	-0.29242277
3	0xbe2ac8ef	-0.16678213
4	0x3e3cd8ee	0.18442127
5	0x3e682ecf	0.22674106
6	0x3da2e653	0.07954087
7	0x3e09ddb2	0.13463476
8	0x3ea66886	0.3250162
9	0x3d441550	0.047871888
10	0xbe99e74a	-0.30059272
11	0x3e9ad1e6	0.30238265
12	0xbc9d0ce0	-0.019171178
13	0x3da50ab5	0.08058683
14	0x3e0e41a3	0.13892226
15	0x3e332a37	0.17496572
16	0xbe1c33ce	-0.15254137
17	0xbf1016f1	-0.56285006
18	0xbe5d7f88	-0.2163068
19	0x3e8f0218	0.27931285
20	0xbe03b609	-0.1286241
21	0xbdc39b2a	-0.095510796
22	0xbe060a01	-0.13089754
23	0x3e90a6de	0.2825231
24	0x3ef5adf5	0.4798428
25	0xbdd13f66	-0.102171704
26	0xbd8193bb	-0.063270055
27	0x3f15c2ea	0.5850054
28	0xbee8142c	-0.4532789
29	0x3e5f2623	0.21791892
30	0x3d2c6136	0.042084895
31	0xbe8940c7	-0.26807234
32	0xbebc0cb5	-0.36728445
33	0x3ed7d440	0.4215412
34	0x3cf77834	0.030208685
35	0xbe3acce5	-0.18242224
36	0xbd84f8ae	-0.064927444
37	0x3e1d5e2c	0.15367955
38	0xbe3f16a4	-0.1866098
39	0xbe6c372d	-0.23067923
40	0xbe66e76e	-0.22549221
41	0xbd08d060	-0.033401847
42	0xbe3ea34e	-0.18616983
43	0x3e48dcc9	0.19615473
44	0xbe55a442	-0.2086344
45	0xbe5f663a	-0.2181634
46	0x3e08b70c	0.13351077
47	0x3eac84bf	0.33695027
48	0x3eaad186	0.3336298
49	0xbe95b8b2	-0.29242474
50	0xbb7ed1c0	-0.0038882345
51	0x3eae66b7	0.3406274
52	0x3d417928	0.047234684
53	0x3e276f3f	0.16351031
54	0x3e57346f	0.21016096
55	0xbd003d02	-0.03130818
56	0xbe69b3a6	-0.22822437
57	0xbe4f271e	-0.20229766
58	0x3e4f6ff0	0.20257545
59	0x3e1d1c16	0.15342745
60	0xbe81019d	-0.25196543
61	0x3bfa0639	0.0076301363
62	0x3f060025	0.5234397
63	0xbd5f3bef	-0.054500517

encoder_layer_mhattentions.1.attention_heads.0.Q.bias f4 [8]
0	0xbeef1fb6	-0.4670388
1	0xbdc69161	-0.096956976
2	0xbdbab11b	-0.091158114
3	0xbd403ac0	-0.04693103
4	0xbeab0d75	-0.33408704
5	0x3eeea31e	0.46608824
6	0x3e84a452	0.25906616
7	0xbe3c26e4	-0.1837421

encoder_layer_mhattentions.1.attention_heads.0.K.weight f4 [8, 8]
0	0x3e3b0882	0.18264964
1	0xbd7caf58	-0.06169066
2	0x3e46fb94	0.19431907
3	0xbeb3c396	-0.35110158
4	0x3e53837f	0.2065563
5	0x3e9c208d	0.30493584
6	0xbf294115	-0.6611493
7	0xbe559196	-0.20856318
8	0x3ccd0d5c	0.025030784
9	0x3e71dbf0	0.23619056
10	0x3e07fbef	0.13279699
11	0xbec61040	-0.38684273
12	0x3e804497	0.2505233
13	0xbe1b1252	-0.15143707
14	0xbe93831e	-0.28810972
15	0xbde80d02	-0.11330606
16	0xbd08ff4b	-0.03344659
17	0x3e96549f	0.29361436
18	0x3e845698	0.25847316
19	0x3ef21d5e	0.4728803
20	0xbc72af9a	-0.0148123745
21	0x3e3894e3	0.18025546
22	0x3cd9a58d	0.026568199
23	0xbe96d38d	-0.29458275
24	0x3e15fb87	0.14646731
25	0x3ec44757	0.38335678
26	0x3dc7757b	0.097392045
27	0xbda8270e	-0.08210574
28	0x3d7d30ff	0.061814304
29	0x3ed3a401	0.41336063
30	0x3e416851	0.1888745
31	0xbf2f24fc	-0.6841581
32	0x3e426670	0.1898439
33	0xbe8b8822	-0.272523
34	0x3e2fadda	0.17156163
35	0xbe296e01	-0.1654587
36	0x3e00cecf	0.12578891
37	0xbeb77671	-0.3583255
38	0x3e902712	0.28154808
39	0xbe139142	-0.1441088
40	0xbe21a316	-0.15784869
41	0x3e9687d8	0.29400516
42	0x3e69afbd	0.22820945
43	0x3c002167	0.007820464
44	0xbe40983c	-0.18808073
45	0x3d9a80be	0.07544087
46	0x3e662095	0.22473367
47	0x3e616740	0.22012043
48	0xbe8949ce	-0.2681412
49	0x3e0ff86d	0.1405961
50	0xbe5d6ea4	-0.21624237
51	0xbd62f9a6	-0.055413865
52	0x3d1f30f0	0.03886503
53	0x3e292c5f	0.16520832
54	0xbe26ca98	-0.16288221
55	0xbc5985bb	-0.013276513
56	0xbe6acd2d	-0.22929831
57	0xbdc1b2e3	-0.09457948
58	0x3de467c0	0.11152601
59	0xbe66a6cb	-0.22524564
60	0x3e94051d	0.2891015
61	0x3e9e01e1	0.30860808
62	0x3ec97715	0.39348665
63	0x3cfed96f	0.03110954

encoder_layer_mhattentions.1.attention_heads.0.K.bias f4 [8]
0	0x3e4afafe	0.19822308
1	0xbea643fd	-0.32473746
2	0x3eaecd61	0.34141067
3	0x3d1ba2a6	0.03799691
4	0xbe800a56	-0.25007886
5	0xbe63b98a	-0.22238746
6	0x3eb3b75c	0.3510083
7	0xbdc597a8	-0.09648067

encoder_layer_mhattentions.1.attention_heads.0.V.weight f4 [8, 8]
0	0x3e085a79	0.13315763
1	0x3c6b27f2	0.014352785
2	0xbe063e64	-0.13109738
3	0xbe024338	-0.12720954
4	0xbdd52cc1	-0.10408927
5	0x3e4e2e3c	0.20134825
6	0xbe93bc5c	-0.28854644
7	0xbe759f74	-0.23986608
8	0xbeb1a13e	-0.3469333
9	0x3bd9f2a0	0.0066512376
10	0xbe2b03c9	-0.16700663
11	0xbe172b4c	-0.1476261
12	0xbdcc374f	-0.09971487
13	0xbe4f9d2a	-0.20274797
14	0xbe6fd78d	-0.2342207
15	0xbe924c03	-0.28573617
16	0xbe477fc5	-0.19482334
17	0x3de45c9e	0.11150478
18	0x3e8ae736	0.27129525
19	0xbd9cb6bc	-0.07652041
20	0x3e55d43d	0.20881744
21	0x3d265edb	0.040617805
22	0xbd03bb56	-0.03216108
23	0xbe02cd88	-0.12773716
24	0x3dc7c8ff	0.09755134
25	0xbe2f03d6	-0.17091307
26	0x3daad367	0.08341103
27	0xbeb7156a	-0.35758525
28	0x3bbfa41f	0.005848422
29	0xbcc5426e	-0.024079528
30	0xbd4e6bd6	-0.05039581
31	0xbe3c0d6c	-0.18364495
32	0xbf2675a3	-0.6502325
33	0xbde85827	-0.11344939
34	0x3e034ea2	0.12822965
35	0xbecb8537	-0.39750072
36	0xbe59ed51	-0.21281935
37	0x3d39c832	0.045356937
38	0xbe02e3c7	-0.12782203
39	0x3f13cbb6	0.57732713
40	0x3de7dd6c	0.1132153
41	0x3e7b272c	0.24526662
42	0x3de31c07	0.1108933
43	0xbe03efc1	-0.12884428
44	0xbdbd253d	-0.09235618
45	0xbc9b9797	-0.018993182
46	0xbb96b0a4	-0.004598694
47	0x3e77ab46	0.2418643
48	0x3e463608	0.19356549
49	0x3eca637d	0.3952903
50	0xbe938b1b	-0.28817067
51	0xbebf2b88	-0.373379
52	0x3e0ffced	0.14061327
53	0x3e43765e	0.19088122
54	0x3d003901	0.031304363
55	0x3c16a1d7	0.009193859
56	0x3e577f3a	0.21044627
57	0xbeff23d2	-0.49832016
58	0x3e885da9	0.26633957
59	0x3e0dbac9	0.13840784
60	0x3dfec41b	0.12439748
61	0xbe02d85b	-0.12777846
62	0xbbefa658	-0.007313531
63	0x3e0ac7e2	0.13552812

encoder_layer_mhattentions.1.attention_heads.0.V.bias f4 [8]
0	0x3c8650f7	0.016396029
1	0xbe39cabd	-0.18143745
2	0xbc0f61b4	-0.008751322
3	0xbcb9c2ba	-0.02267586
4	0x3db17e6b	0.086666904
5	0x3d8d4e96	0.06899755
6	0xbe3bc144	-0.18335444
7	0x3e4b0f83	0.19830136

encoder_layer_mhattentions.1.attention_heads.1.Q.weight f4 [8, 8]
0	0xbe89f8b9	-0.26947573
1	0x3c7d7c33	0.015471506
2	0xbe180e19	-0.14849128
3	0x3e2d2813	0.16909818
4	0x3cb46b65	0.022023866
5	0x3e21766d	0.15767832
6	0xbdc94ed8	-0.098294914
7	0x3e6d589b	0.23178332
8	0x3e4b5d8f	0.19859909
9	0xbd90f72e	-0.07078396
10	0x3dcb79d8	0.09935349
11	0xbed38e66	-0.4131958
12	0xbefeef4a	-0.49791938
13	0x3e12e04c	0.14343375
14	0x3e03ed8f	0.1288359
15	0x3f07ea59	0.5309196
16	0xbe8f24d7	-0.27957794
17	0xbe6a9d7a	-0.22911635
18	0x3dd5bdb2	0.10436572
19	0xba00a424	-0.00049072714
20	0xbf05f6a5	-0.52329475
21	0x3e240b80	0.16020012
22	0x3d567741	0.052359823
23	0x3efb1667	0.4904053
24	0x3e313b68	0.17307818
25	0xbe9ffd6a	-0.31248027
26	0x3d7e1280	0.06202936
27	0xbe0143cc	-0.12623519
28	0x3ce3afa2	0.02779371
29	0x3c7b5b74	0.015341628
30	0x3e099aa0	0.13437891
31	0x3e89352e	0.26798385
32	0x3da41bff	0.08013152
33	0xbe229e12	-0.15880612
34	0xbe7b1f6b	-0.24523704
35	0x3f02bfbc	0.51073813
36	0x3dddc332	0.10828246
37	0xbd0f06f9	-0.03491876
38	0xbe5aea9f	-0.21378563
39	0x3e1362d3	0.14393167
40	0x3ef75c94	0.4831282
41	0xbd841386	-0.06449036
42	0xbe00a714	-0.12563735
43	0x3e252ee6	0.16131172
44	0xbf37b4b3	-0.717601
45	0xbe46d484	-0.19417006
46	0xbefbfece	-0.49217838
47	0x3ddac5d4	0.10682264
48	0xbe02a2ce	-0.12757418
49	0xbdc8ad84	-0.097987205
50	0xbebcf41e	-0.36904997
51	0x3e03e247	0.12879287
52	0x3d84c100	0.06482124
53	0xbdb9e5c2	-0.09077026
54	0xbe828df8	-0.2549894
55	0x3efa4072	0.48877293
56	0xbe942ec2	-0.28941923
57	0x3e12bae0	0.143291
58	0x3e152e69	0.14568485
59	0xbe9842bd	-0.29738417
60	0x3ee31359	0.443507
61	0x3d166ff5	0.036727864
62	0xbd85477b	-0.065077744
63	0xbf4e1bb4	-0.8051102

encoder_layer_mhattentions.1.attention_heads.1.Q.bias f4 [8]
0	0xbe31bd4b	-0.17357366
1	0x3e4ab17f	0.19794272
2	0xbe23f061	-0.16009666
3	0x3e55a5be	0.20864007
4	0x3cc5fe5f	0.024169145
5	0x3c9d5ce6	0.019209336
6	0x3e76f791	0.24117877
7	0xbe9ae8dc	-0.30255783
