models/model_chkpt_120.pt (torch, 319268 bytes, 387 tensors)

tokenizer.token_embedding.weight f4 [17, 32]
00000000: 12dd 49bf 9381 12c0 185c b2bd 9d17 7b3e
00000010: 97c5 e43f 4aa4 333f 3916 503f cae5 943f
00000020: 1897 d7bf 4fe2 8abf 6293 4abe 978f 743e
00000030: 420a 73bf 530f fbbe eac2 b2be 5ad9 cdbe
00000040: 341c aabe 0677 fd3e 1ede 22bf c852 c5be
00000050: d485 b0bf da11 febf 5499 3a3f 2f9f 3840
00000060: 885c 81be 25f2 363f 8ae4 563f 520e bb3f
00000070: 732b 1abf daee 4ac0 55cd e23e da79 8abe
00000080: 982b 2cbf dccb d9bf dbf5 9c3f 33fd 92be
00000090: 5298 3540 cfa5 063f 1bf4 00be 4b03 793f
000000a0: 3008 a4bf dd6a 3fbf 59b3 3ebe 83e4 df3e
000000b0: c724 3fbf 5e23 1bbf 1ab7 22bf 0e9b dfbe
000000c0: 9e00 0340 30cc 13bf 3437 173e ed6c 833f
000000d0: 533f a03f ac8b 8c3f a737 863f 834a ea3e
000000e0: 2c87 8cbf e774 463d 1b5f bd3f 9b28 083f
000000f0: 7972 3ebf 9413 d6bf bff3 c2be fd3c 353f
00000100: 8d3b a3be d416 de3e dd8c 6bbe 3258 96be
00000110: 5fdc 7240 8f75 c63d 37e0 de3f 2bf9 273e
00000120: cba3 a2bf b0d9 58be 8d93 11bf adf2 3f3f
00000130: 31d8 7abe 26d4 a4be 7f78 12bf 5dd6 e9be
00000140: 1dbf b53f 9f74 f13f 8d71 91be 6244 e8bf
00000150: 84ab 93bf 3d8d 01bf 823d f93c 389b f8bf
00000160: 48b0 aebf 9ea5 a33f fcb9 5b3e 31ea 493f
00000170: 60fa 1c3f 073c 33be 933f 2dbf b1a3 8dbd
00000180: 6c67 45bf f845 b73f e462 523e 642c dbbe
00000190: 60e3 0f3e 3bb4 3cbf e63a f73f 150d 873f
000001a0: 0ebc b6bf 1546 3d3f fd68 79bf fcc6 2b3f
000001b0: 5b8f 633c 3fdc 27bf 6f4d 86be b58c bfbe
000001c0: 1203 173f eb25 793e 9178 dc3f 7fe2 d6be
000001d0: 690b d8be f347 c03f bcb9 7c3f a046 30c0
000001e0: 9929 c3bf aa5c 3a3f b6af a33e cc27 443d
000001f0: e77c 913d f3cf 843f 14cd 91bf b5c3 033f
00000200: bb7c 76be 4887 1abd 79e3 89bd b601 d73e
00000210: 62c4 e2be 0eac cebf 59d9 2340 d396 17bf
00000220: 2195 efbd 9d88 2cbe cc25 fd3e a861 b33f
00000230: 52c8 eebd 7a01 443d a985 a4bf cbc1 26be
00000240: e097 663f 861e 113f fdb9 df3f a803 acbf
00000250: 1c77 b2bf a75d b93e 6167 a3bc 3dc6 97bf
00000260: 4b0c 9fbf 46ba 433e 9b9b 66bf 8e7e 89be
00000270: c6c8 ed3e 5386 0740 b6be bfbf 9c0c fabe
00000280: 45ff 513f dfc3 6c3f 6941 e53f 203d b73e
00000290: 78d1 65c0 6477 44bf feb9 1c3f 0090 413f
000002a0: 9833 c8bd 1e06 993f 3d86 333f dd57 a83f
000002b0: e314 d5bd f163 80be adfe 45bf 0376 b2bd
000002c0: 0ea2 f93f 8444 7a3f 0ac4 6a3e 9743 1dbf
000002d0: 314b 683e 1f3d e4be 2d64 1c3f 67f3 42bd
000002e0: c8ce 093e d17e fdbe 831f 9abe 3aad 4ebe
000002f0: 6cb2 93bd 5f52 c03f 4e3e c1bf 433d 1cbf
00000300: f749 edbe 766e 94bf 3717 413e 67c3 263e
00000310: 2df7 aebf df22 ddbf 68ad 013e 9382 83bd
00000320: 5b17 a7be 3562 7b3f 8674 4e3f db72 963f
00000330: 39e2 8bbe 194e 73be b041 8ebf 4db0 1d3e
00000340: ef94 863f f7bc d53e 68e2 e9bf 9239 963d
00000350: 3c5d 2d3f f3c1 4e3d 0425 9bbe 2c2f 2640
00000360: 8457 5bbf 0cde 303e 417e ecbe 216c 58bf
00000370: d9c5 ae3e 55b2 1940 60a8 a8bf 5191 a9be
00000380: c7a8 50bf 47fb 9d3e 09ae 3a40 82ee 883f
00000390: e9aa 2f3f d81c 43c0 ebc8 4bc0 c9f8 bcbe
000003a0: 245c f9bd 4695 f43f 976c 723f 9933 a63f
000003b0: 4e62 03be b5fc e0be 9502 6bbf a9b2 4d3d
000003c0: a93b 033f 0222 a73e 86ff debf f007 093f
000003d0: 69ad ec3f d71f b33f ddd6 88bd 4ff6 893f
000003e0: f2af 213f 8895 88be b5cf 48bf 7a6b 243f
000003f0: 7641 d8be 8c47 e93e 8599 b7bf 7b1e 08bf
-0.7885295 -2.2891586 -0.08708972 0.24520727 1.78728 0.7017256 0.8128391 1.1632626
-1.6842985 -1.0850314 -0.19782785 0.238829 -0.9493753 -0.4903513 -0.34914333 -0.4020489
-0.33224642 0.4950487 -0.63620174 -0.3853972 -1.3790841 -1.9849198 0.7289021 2.8847158
-0.25265908 0.71463233 0.8394247 1.4613745 -0.6022255 -3.1708283 0.4429728 -0.2704609
-0.6725402 -1.7015338 1.2262529 -0.287088 2.837422 0.52596754 -0.12593119 0.9727065
-1.2814999 -0.74772435 -0.18623103 0.43729028 -0.7466549 -0.6060084 -0.6356064 -0.43672985
2.0469127 -0.5773344 0.14767152 1.0267617 1.2519325 1.0980124 1.0485734 0.45759973
-1.0978751 0.04845133 1.4794649 0.5318696 -0.7439342 -1.6724725 -0.3807659 0.70796186
-0.3188137 0.4337679 -0.23002954 -0.29364163 3.7947004 0.09690391 1.7412175 0.16403644
-1.2706236 -0.21176791 -0.5686577 0.7497967 -0.24496533 -0.32193106 -0.5721511 -0.4567136
1.4198948 1.8863715 -0.28406945 -1.8145869 -1.1536717 -0.5060614 0.030424837 -1.9422369
-1.3647547 1.2784917 0.21457666 0.7887297 0.6131954 -0.17503367 -0.6767513 -0.06915987
-0.77110934 1.4318228 0.20545536 -0.42807305 0.1405158 -0.7371251 1.9314849 1.0550867
-1.427614 0.7393506 -0.97425824 0.671005 0.013889159 -0.65570444 -0.26230952 -0.37412038
0.5898906 0.24330871 1.7224294 -0.41969678 -0.42196205 1.5021957 0.9872091 -2.7543106
-1.524707 0.72797644 0.31969994 0.047889516 0.07103901 1.0375961 -1.139071 0.514705
-0.24071018 -0.03772667 -0.0673284 0.41993493 -0.44290453 -1.6146257 2.5601408 -0.59214514
-0.11698366 -0.16848989 0.494429 1.4014177 -0.11659302 0.04785297 -1.285329 -0.16284864
0.9007549 0.566872 1.7478634 -1.3438616 -1.3942599 0.36204264 -0.019946756 -1.1857373
-1.2425627 0.19114026 -0.90081185 -0.26854366 0.4644224 2.1175735 -1.4980075 -0.48837745
0.82030135 0.92486376 1.7910587 0.35788822 -3.59091 -0.76744676 0.612213 0.7561035
-0.09775466 1.1954992 0.70126706 1.3151814 -0.104043745 -0.2507625 -0.7734173 -0.08713915
1.950258 0.97760797 0.22926345 -0.6143126 0.22684933 -0.44577882 0.61090356 -0.047595408
0.13457787 -0.49510816 -0.30102167 -0.20183268 -0.07211766 1.5025138 -1.5097139 -0.6103098
-0.46345493 -1.159621 0.18856512 0.16285478 -1.3669182 -1.7276267 0.12663805 -0.064213894
-0.32635006 0.9819673 0.8064655 1.1753801 -0.27321032 -0.2376026 -1.1113796 0.15399285
1.0514201 0.4174573 -1.8272219 0.073351994 0.6772039 0.050477933 -0.30301678 2.5966291
-0.85680413 0.17272204 -0.46190074 -0.8453999 0.3413532 2.4015095 -1.3176384 -0.3311868
-0.81507534 0.30855772 2.9168723 1.0697787 0.68620163 -3.0486355 -3.184138 -0.36908558
-0.121757776 1.9108055 0.94696945 1.2984496 -0.12830469 -0.439428 -0.91800815 0.05021921
0.5126291 0.32643133 -1.742173 0.53527737 1.849042 1.3994092 -0.06681607 1.0778292
0.63159096 -0.26676583 -0.78441936 0.64226496 -0.42237443 0.45562398 -1.4343725 -0.5317151

tokenizer.positional_embedding.weight f4 [9, 32]
00000000: 7674 053f b5a6 17be 47ca ffbe 957f 923e
00000010: 5789 963e 0906 e93f ac08 d1bc c9e6 d2be
00000020: 00fb 10bf 1f6c 553f 4c19 0840 4098 99bf
00000030: 26f0 8bbf 163f 83bf f836 063f ef85 26be
00000040: ee94 8f3e f472 45bf 337f f13e c2ab 913f
00000050: 4c2d 4ebe 5e08 52be 436b 893e 315a a03e
00000060: 2fd0 4bbf e761 2e3f 8fec ec3f b77d 27be
00000070: 50a6 99bd e853 303c 487a 7cbf ec0c 47c0
00000080: 0bdb 813f 61e8 233f a43c e33e 6619 403d
00000090: a7e9 8e3f 0272 f53d c201 5b3e 4297 afbd
000000a0: b0dc fb3f 98fd 203f d83d 76bf 1545 84be
000000b0: 08a4 adbe 483c 973e 83c9 753f 5c43 54bf
000000c0: 9c95 c7bd dcee 51bf d3ec 173f 2920 c4bf
000000d0: 8663 6f3f 7e10 603e e5ad 403f 9793 223f
000000e0: b7cd 233f d974 fcbe 3a0f a43f 0344 0ec0
000000f0: 07c4 2a3f 3508 0d3f 80aa fd3f b496 53bf
00000100: 7744 f13d 7850 5c3f ff06 2ebe cc38 f0be
00000110: fe62 14be ea81 97be 5717 18be 3034 693f
00000120: 6c95 433f 6f78 aa3e 8e19 c5bf 727e ddbf
00000130: 7bb0 d03f 08e2 6abe 8691 fbbf 24f1 6c3f
00000140: 8e4a e63e 420d 253f 2b38 8ebe 671a 1dbf
00000150: 1e8e b43f 6790 9fbf c319 1bbf b2e2 a0be
00000160: 9ec4 d03d 7b22 d1be 9cbe bebe 2f86 a6bf
00000170: 6a03 31be 0ddf 38bf 0ef2 9e3f ac44 b6bf
00000180: 1040 61bf 4012 bbbf 9b0f afbf ef26 4bbf
00000190: 288b c5be c527 5ebf cacf 8e3e 80ac 16bf
000001a0: 409b 84bf 1c38 563d 05e0 46be 5d2c e0bf
000001b0: 5876 ee3f 9290 4bbf a8d9 c8bf 856a 6e3e
000001c0: c585 f1be 6de3 97bf 6453 3abf db33 1ac0
000001d0: 5221 c33f ba4a fa3e c4b3 1fbe c946 78bf
000001e0: 1e79 b33f 0978 e73f d204 2f3f bd3b 31bf
000001f0: 40db 493f d4a7 19bf bd67 b4bf 3f0b 31bf
00000200: a852 943f 587b 64be e403 153f af70 c2bf
00000210: 2541 833e ae37 cebf 7cdb 183f f34c f33e
00000220: acd5 52bf e83f 8b3f 6bd7 2640 48e6 f63e
00000230: 9df0 37bf cd82 afbd b508 af3d f8e3 9cbe
00000240: d398 113e 6b80 93bf 4f6b 8c3f 3c68 4a3e
00000250: 41fa 0a3e f778 7b3f 0a55 56bf f183 b1be
00000260: 96fb 763f 6262 8a3e 02db 7cbe cedc 7abe
00000270: 1859 d63f 47d6 d53e cf14 b63f c35a 9d3f
00000280: 07d0 09bf de75 a0bf b16a e03f c8ce cabf
00000290: 208c 00be 91aa 623f a995 183f b712 23bf
000002a0: a9ef 2bbf 1ae3 d4be 6891 bcbe 2459 093f
000002b0: 51a8 d4be f53f a43f 6646 c33e bfd8 bfbf
000002c0: 71bd d0bf 4063 7d3f 1edd b03e 8ad1 233f
000002d0: 6af1 13bf bed5 1540 df11 063f 8c07 3f3f
000002e0: 36df 8abe 85dc f73e 914a 0ec0 9589 07bd
000002f0: 7fd9 1abf 3ad0 c73d 3dc7 8bbf 87e0 2d3f
00000300: 0e5a f6be 2f22 c63e 45e1 8dbe 82c1 6c3d
00000310: f57f bb3d d5fc 80bf dda7 d4bf a49d 14bf
00000320: f56d c33e 81a4 aabf c57e 74bf 1a87 6b3d
00000330: ad92 e7bf f1f5 983f ac07 ccbe 26c8 b63f
00000340: 1713 1e3f ab82 89be 5145 e2bf 4f7d b43e
00000350: 671a 81bf 2e86 4c3f b1ee 983f a24e 81bf
00000360: ba0b 10bf 0ec3 9a3e fb08 363e 2391 b83f
00000370: 3e61 0bbf 4e12 603f c232 8d3f 7064 ff3e
00000380: 25d4 c6bf d117 313f 7824 a5bf aa4b ac3e
00000390: deba 19bd ed4a 973e fb79 a7be 896c 8e3f
000003a0: 5bff a33f 863f e6bf a06b 34bf 15c3 973f
000003b0: 67fe 2abf 74af 99bf c714 c63e f501 0240
000003c0: 8f00 4d3f bfac a03e 81f7 983d aab7 cebf
000003d0: 8351 5abc 535f 093f 8ace 64bf b313 05bf
000003e0: b181 3d3f 2dbd 0bc0 252c be3d 1975 e4be
000003f0: 33cc 00c0 5ded 4bbf 52b9 0bbf fa78 b43f
0.5213083 -0.14809687 -0.49959013 0.28612962 0.29401657 1.8204967 -0.02551683 -0.411917
-0.56632996 0.83368105 2.126544 -1.1999588 -1.0932662 -1.0253627 0.52427626 -0.16262029
0.28043312 -0.7712853 0.47167358 1.1380541 -0.20134467 -0.20511004 0.26839647 0.3131881
-0.7961454 0.6811814 1.8509692 -0.1635655 -0.07502425 0.010762192 -0.98624086 -3.1101637
1.0144972 0.6402646 0.44382203 0.04689922 1.1165055 0.11984636 0.2138739 -0.08573772
1.9676723 0.62886953 -0.96188116 -0.25833955 -0.33914208 0.29538178 0.9601061 -0.8291528
-0.097453326 -0.82005095 0.5934574 -1.5322315 0.93511236 0.21881291 0.7526534 0.63506454
0.6398577 -0.49307898 1.2817147 -2.222901 0.66705364 0.5509065 1.9817657 -0.8265183
0.11780637 0.86060286 -0.16994856 -0.46918333 -0.14490888 -0.29591304 -0.14852653 0.91095257
0.76399875 0.3329501 -1.5398424 -1.7304213 1.6303858 -0.22937787 -1.9653785 0.9255545
0.44978756 0.64473355 -0.27777228 -0.6136841 1.4105871 -1.2465943 -0.60586184 -0.31422955
0.10193752 -0.4084662 -0.37254798 -1.30097 -0.17286459 -0.7221535 1.2417619 -1.4239707
-0.87988377 -1.4614944 -1.3676637 -0.7935628 -0.3858273 -0.86779433 0.27892905 -0.58856964
-1.0359879 0.052299604 -0.19421394 -1.7513539 1.8629866 -0.7951747 -1.5691423 0.23282821
-0.4717237 -1.186628 -0.72783494 -2.409415 1.5244544 0.48885137 -0.15595919 -0.9698301
1.4021337 1.8083507 0.6836673 -0.6923178 0.78850174 -0.6002171 -1.4094158 -0.69157785
1.1587725 -0.22312677 0.5820906 -1.5190638 0.2563564 -1.6110742 0.59709907 0.47519645
-0.8235729 1.0878878 2.606898 0.48222566 -0.7185152 -0.0856987 0.085465826 -0.30642676
0.14218454 -1.1523565 1.0970248 0.19766325 0.13572027 0.9823145 -0.8372351 -0.34670976
0.9647764 0.27028185 -0.2469292 -0.24498293 1.6745939 0.41765043 1.42251 1.2293323
-0.5383305 -1.253597 1.753256 -1.5844355 -0.12553453 0.88541514 0.59603363 -0.6370043
-0.6716257 -0.41579515 -0.36829686 0.5365164 -0.41534665 1.2832018 0.38139647 -1.4988021
-1.6307813 0.9897957 0.345437 0.63991606 -0.57790244 2.3411708 0.5237102 0.7462089
-0.2712342 0.4841043 -2.2233012 -0.033090193 -0.6048812 0.09756513 -1.0920178 0.67920727
-0.4811558 0.38697955 -0.2771093 0.05780173 0.09155265 -1.0077158 -1.6613728 -0.5805304
0.38169828 -1.3331453 -0.95505935 0.05750189 -1.8091637 1.1950055 -0.39849603 1.427983
0.6174788 -0.26857504 -1.7677404 0.35251853 -1.0086182 0.7989224 1.1947843 -1.0102122
-0.56267893 0.3022694 0.17776863 1.4419292 -0.54445255 0.8752793 1.1031115 0.49881315
-1.5533491 0.69176966 -1.2901754 0.33651477 -0.037531726 0.2954935 -0.3271025 1.1126872
1.2812303 -1.7988136 -0.7047672 1.1856409 -0.6679444 -1.2006669 0.38687727 2.0313694
0.8007898 0.31381795 0.074690826 -1.61498 -0.013325098 0.5366108 -0.89377654 -0.51983184
0.7402602 -2.1834214 0.09285764 -0.44620588 -2.0124633 -0.7965906 -0.5457965 1.4099419

encoder_layer_mhattentions.0.attention_heads.0.Q.weight f4 [8, 8]
00000000: 2393 26bc 01d6 d0bb d0de 2e3d 100b 923e
00000010: 709a 6dbd 1e9a 583b 4784 2cbe 13ab 843c
00000020: e6d7 e8bb 0ee1 5c3d 9ae3 9cbe 7211 dabd
00000030: 1cd0 8c3d 8a81 06be ad72 8abe 48c6 4ebd
00000040: 913a 14bd 0aee 4abc 00e2 06bc a07c 56be
00000050: a7c3 38bc 3966 aabd 9aaa 8d3c 0779 02bd
00000060: e639 b0bd e3f3 f3bb 137a 643c 77b2 edbd
00000070: fb92 4fbc 9c64 64bc 0624 49bd 2ba5 19bc
00000080: f42a 7f3e e939 7e3d 269c 8cbd 55e1 19bd
00000090: 64d8 3d3d 890d 3dbd 3f4b a23c 563d dc3d
000000a0: 3420 dabe 7dd5 1dbd baff 393e 5cd2 9dbb
000000b0: 0634 02be c165 013e 21f0 7abd 6fd8 14be
000000c0: 8ef6 7fbd 58cf 363d 21b9 0e3e 3c26 11be
000000d0: 0b08 8cbd af62 9a3e 65a7 24be 5617 b9be
000000e0: a5ac 05bf b9be 943e ad09 f0bd 678b 183f
000000f0: b8a3 84bd 03d5 173f aee3 9bbc 6cb9 04bf
-0.010166916 -0.0063731675 0.04269296 0.28524065 -0.05800861 0.0033050845 -0.16847335 0.016194856
-0.007105815 0.053925566 -0.30642396 -0.10647859 0.06875631 -0.13135353 -0.27040616 -0.050482064
-0.036188666 -0.0123858545 -0.008232594 -0.20945978 -0.011277116 -0.08320279 0.017293263 -0.031853702
-0.08604793 -0.007444845 0.01394512 -0.11606305 -0.01266932 -0.013940003 -0.04910662 -0.009377758
0.24918729 0.062066946 -0.068657205 -0.03756841 0.046348944 -0.046155486 0.01981127 0.107538864
-0.42602694 -0.038533676 0.18163958 -0.0048163366 -0.12715158 0.12636472 -0.06126416 -0.14535688
-0.062490992 0.044631332 0.13937809 -0.14174742 -0.068374716 0.30153415 -0.16079481 -0.36150616
-0.5221656 0.2905176 -0.117205955 0.5958771 -0.064765394 0.59309405 -0.019029465 -0.5184543

encoder_layer_mhattentions.0.attention_heads.0.Q.bias f4 [8]
00000000: ceec b13d 5e32 28bf 9140 9c3d b498 2d3d
00000010: 0f54 693e 889c 63be f3bf 8b3f 5a06 da3e
0.08687745 -0.65701854 0.076295026 0.042381957 0.22785972 -0.2222768 1.0917953 0.4258297

encoder_layer_mhattentions.0.attention_heads.0.K.weight f4 [8, 8]
00000000: 9a89 6f3e 52e3 fe3d 7da5 a6be a45b 463e
00000010: b9a3 653d c6df 39be ead8 b93c dba5 21bd
00000020: 0d00 d4be ec5e 5dbd 83e6 95bd e8e4 c03e
00000030: 0829 ea3d a307 adbd e955 a4bd 1950 c53e
00000040: 0d12 63bd 5850 70bd b200 053e b02a bfbc
00000050: c5f3 9abd 07d1 33bc 9d82 20be e90c 523d
00000060: 0d87 01bb b5c4 24bd 6aa4 633d eaf1 023c
00000070: e51c 43bd d094 a0bd 78af ddbd bbbb 273c
00000080: 690d f5bd 40f3 e4bd d2c0 ca3d 4c4c c7bd
00000090: 7317 f7bd 3cfc bf3d 4e7f 043e 9194 9b3c
000000a0: 795b f83d e8c2 1c3e ee80 1fbe ba36 1c3e
000000b0: 7831 c43d 58d8 a7be af07 9cbe a4b6 3abd
000000c0: 68d2 ae3e aa64 813d d954 e9be 845b ccbe
000000d0: 4574 8bbd 6a5c fc3d 52f2 b9be be08 19be
000000e0: b9d2 f13e 9131 803d e008 24bf 7208 1f3e
000000f0: 4cc4 0c3c 562e adbe a4c1 3bbe 3aa4 d43e
0.23392335 0.12445702 -0.32548133 0.19370896 0.05606434 -0.18151769 0.02268644 -0.039464813
-0.4140629 -0.054045603 -0.07319357 0.37674642 0.11433607 -0.08448722 -0.080241986 0.38537672
-0.055437136 -0.05867037 0.12988546 -0.023335785 -0.075660266 -0.010975129 -0.15674825 0.051281843
-0.0019764334 -0.040226657 0.05557672 0.007992247 -0.047634978 -0.07840884 -0.10824484 0.0102376295
-0.119654484 -0.11179209 0.09900059 -0.09731349 -0.120650195 0.09374282 0.12939188 0.01899174
0.12126822 0.15308726 -0.15576527 0.15255252 0.09579748 -0.32782245 -0.30474612 -0.045584336
0.34144902 0.06318028 -0.45572546 -0.3991357 -0.06809286 0.12322314 -0.36317688 -0.14944741
0.4723108 0.06259454 -0.6407604 0.15530565 0.008591723 -0.33824414 -0.18335587 0.41531545

encoder_layer_mhattentions.0.attention_heads.0.K.bias f4 [8]
00000000: a8de b83d c136 233e 2b17 7cbc 75e9 bdbd
00000010: d7e2 29be 3b0f babd f50f e9bc c200 b7bd
0.09026843 0.15938856 -0.015386383 -0.09273044 -0.16590439 -0.09084936 -0.028449992 -0.089356914

encoder_layer_mhattentions.0.attention_heads.0.V.weight f4 [8, 8]
00000000: bae7 043f 4af2 fd3d 5ede edbd 391b c53d
00000010: bfbd ffbd 777f 31bd 66d5 b93c 0cbf 2cbf
00000020: ef79 163e c4a5 2e3e 9cab c5bd 0beb cebe
00000030: 6449 d5bb e1dd dd3e 5cc9 eebc 951b 3cbe
00000040: e55b e53e 85a3 57bc 4864 4d3e d7be 01bd
00000050: 1fb0 4f3e c6ce aa3e 9a44 6cbe 5b3b b33d
00000060: 4a76 3abe ab3e c2bc 974a e73d 2d74 6c3d
00000070: 8bdc 493c 6fca a8be e7ff 363e bb06 bd3e
00000080: d0c1 453e 5273 99be 7905 aabe 307c cbbe
00000090: 2d3f aebd 9021 ca3d 2edd 47be 9b72 933e
000000a0: 74e0 08be ed6f a5bc d228 0ebe a7d5 be3e
000000b0: 50e3 0e3c 1638 2f3e ed3d 533e 2d02 a53e
000000c0: d4ab 753d 2ae6 a83d 2ad9 fb3d 610d fa3d
000000d0: 772b 76be 61cc 313e 35c7 69be aa05 953e
000000e0: b823 00bd 8b85 26bd 33be 26be 00e7 203e
000000f0: 83ed cfbd 7f16 9a3e a0d6 1fbe d8e9 573e
0.51916087 0.123997286 -0.11614679 0.09624333 -0.12487363 -0.04333445 0.022684764 -0.67479014
0.14694951 0.17055422 -0.096518725 -0.404137 -0.006508993 0.43333343 -0.02914875 -0.18369897
0.44796672 -0.013161545 0.20057786 -0.03167614 0.20282029 0.3336088 -0.23073044 0.087515555
-0.18209186 -0.023711523 0.11293524 0.05772798 0.012320648 -0.32966945 0.17871056 0.36919197
0.19312215 -0.29970795 -0.332073 -0.39743185 -0.085081436 0.09869683 -0.19517967 0.28798375
-0.13366872 -0.020194972 -0.13882759 0.3727238 0.008721188 0.17111239 0.20629092 0.32228222
0.05997832 0.08247025 0.1229728 0.12209583 -0.24040018 0.1736312 -0.22829898 0.29105884
-0.031284064 -0.0406547 -0.16283493 0.1571312 -0.10152724 0.30095288 -0.15609217 0.21085298

encoder_layer_mhattentions.0.attention_heads.0.V.bias f4 [8]
00000000: 4ddd 4abe df40 8ebe 013a d4bd d8fd 6c3e
00000010: c667 debd 42a4 403e 6700 1b3e 77a1 6d3d
-0.19810982 -0.27783868 -0.10362626 0.23143709 -0.10859637 0.1881266 0.15136872 0.058015313

encoder_layer_mhattentions.0.attention_heads.1.Q.weight f4 [8, 8]
00000000: f551 a4bd 9780 80bd 193b babd 3d15 74bd
00000010: 47a4 0c3d 734f 1dbb 2cd1 cd3d 8897 46bd
00000020: 61db 8d3d 81cf 853d 9bf6 b3bd d646 8e3e
00000030: 89c1 0fbf 518d 643f 309d 113d 9d9f 8fbf
00000040: 1b0d a7be 2684 4dbe 8e44 f23e 8d85 c7be
00000050: 7835 513f b990 e93e fe7f a9bd cdd8 81be
00000060: 7810 103f 2c01 a93d e24b f93b b1b4 7abe
00000070: 049d 3d3d f411 56bf 44d6 1b3f 876e afbe
00000080: f650 5e3f 1716 debe a2c0 b4be 930a 553e
00000090: 646c d53d 498c 623e 588b c13e 895c 193f
000000a0: 849c 3dbd 280b 0ebe f867 07bc adc8 35be
000000b0: 303d a5bd 76bc d33e fa28 10be 1d40 50bb
000000c0: 872a 1ebf 41c9 62be 28d2 1a3f 5bc1 a53b
000000d0: 5689 39be b383 03be d21a c7bd 2239 b93e
000000e0: c7fa 483e 3774 f4bd b566 40be b2d7 813e
000000f0: c573 4f3e 72f7 803d 93eb 103e 0a87 fdbc
-0.080234446 -0.062745266 -0.09093303 -0.059590567 0.034336355 -0.0024003654 0.10049662 -0.048484355
0.06926609 0.06533719 -0.08787271 0.2778842 -0.56154686 0.8927813 0.035550296 -1.1220585
-0.32627186 -0.20069942 0.47317928 -0.3896908 0.8172221 0.45618227 -0.08276366 -0.25360718
0.5627513 0.08252177 0.007607923 -0.24482991 0.04629232 -0.83621144 0.6087382 -0.34264013
0.86842287 -0.43376228 -0.35303217 0.20804815 0.104210645 0.22123827 0.37801623 0.5990682
-0.046291843 -0.13871443 -0.008264534 -0.17752333 -0.08068311 0.41354722 -0.14078131 -0.0031776496
-0.6178364 -0.22147085 0.60476923 0.00505845 -0.18118796 -0.12843208 -0.097219124 0.361764
0.19626914 -0.11936229 -0.1878918 0.25359875 0.20259006 0.062971964 0.14152364 -0.03094818

encoder_layer_mhattentions.0.attention_heads.1.Q.bias f4 [8]
00000000: cba0 0e3d ea2b 353d f6e6 073d f7dd 14be
00000010: 9700 44be 7026 3ebd a538 0bbe e0b0 dabc
0.034821313 0.044231333 0.033179246 -0.14537798 -0.1914085 -0.046423376 -0.13595827 -0.026695669

encoder_layer_mhattentions.0.attention_heads.1.K.weight f4 [8, 8]
00000000: 9b69 e6bd ab21 a23b f2f8 66bd aa31 113b
00000010: 194e 833c d95f 563a 526e ad3d a3ac af3b
00000020: eb70 efbd 9dbe 683d af31 23bf cb5b 47be
00000030: d05c e6bd 867a 033e 849e 5bbf 6426 773f
00000040: ed9d 48bc 2c2f 483e 200c ccbc b91d 4cbd
00000050: e295 48bf 3bfb 793f 77a6 4e3e 39df 83bc
00000060: 5f1f e6bd 22d6 9d3e 603e febd b05a 0fbf
00000070: 7eb9 f33e 5acf 123f 2aec 5fbe b6b7 fabe
00000080: 885b 15bf b9c4 9cbe 8916 be3e 6a9b 113e
00000090: c547 513f 77fa ba3d e6c5 0f3e 0eec ed3d
000000a0: 00c6 51bd 38d2 c93d 4e26 29bd 37e4 1b3e
000000b0: 940c 673d 898d 233b 95d0 7a3d 60b6 a33e
000000c0: 3d26 f63e 52b5 34be 38c6 a6be 78bf c73e
000000d0: e42c a43b cf12 293e b28a 2c3f 267f 51be
000000e0: dea1 acbe be54 5cbe 3811 293e 7c9f 803d
000000f0: 34a5 0f3e d10f 513c e4f9 88be 1b15 763d
-0.112506114 0.004947861 -0.056389757 0.0022154846 0.01602845 0.00081777346 0.084683076 0.005361156
-0.11691459 0.056822408 -0.63747686 -0.1946861 -0.11248171 0.12839708 -0.8578875 0.96542954
-0.012244684 0.19549245 -0.024908125 -0.049833033 -0.78353703 0.9764897 0.20180689 -0.016097652
-0.11236452 0.30827433 -0.12414241 -0.55997753 0.47602457 0.57347643 -0.21867433 -0.48968285
-0.5834279 -0.30618837 0.37126568 0.14219442 0.81750137 0.09129804 0.14040336 0.116172895
-0.05121422 0.09854549 -0.041296296 0.15223776 0.05640848 0.0024956188 0.061234076 0.3197508
0.48076048 -0.17647293 -0.32573104 0.39013267 0.005010234 0.16511081 0.6739913 -0.2045866
-0.33717245 -0.21516702 0.16510475 0.06280419 0.14027864 0.012760119 -0.2675315 0.06007872

encoder_layer_mhattentions.0.attention_heads.1.K.bias f4 [8]
00000000: 73c4 3fbe 6543 9e3d 3f8d 01bd 72b4 423e
00000010: a152 e53d b666 1abe bbb8 2d3d af20 20be
-0.18727283 0.07727698 -0.031628843 0.19014147 0.11197401 -0.15078244 0.0424125 -0.15637468

encoder_layer_mhattentions.0.attention_heads.1.V.weight f4 [8, 8]
00000000: c587 4ebe 12af 9cbe 556d 4abd 5b7e 1fbf
00000010: e2da a9be e4b2 ecbe e07a a1bd ec24 d5ba
00000020: 7b22 e3be bbf5 393e 5714 6f3e 1bae aebd
00000030: 509f b6bd 033a c0bc c763 29be 2a94 533e
00000040: 82aa 363e 009e 81be aefe 89be 2865 83be
00000050: edbf 813e 50b2 e23e f4d3 d33e 76c5 843e
00000060: 796c 5cbd cd90 01be 1dbc 963d 77ca 5f3e
00000070: 24de 063d e4b8 5a3d 13cc 913c a642 e33d
00000080: 517c 643e 43f1 03be 3d52 1d3e 9a13 2dbf
00000090: c858 013e 9521 a63e 9e75 f13e 36bb f33e
000000a0: 0cc0 3d3e d232 c63d 8517 413e b5c9 a2bc
000000b0: 0bed 743d 75d4 6d3d 7eff 9abe ad14 00bc
000000c0: 267d 0cbd 9b71 0ebf 3897 55bc 063e 07be
000000d0: 5e33 033e 8309 c23e 0eca b33e 7f94 aabd
000000e0: da3e a3be e698 503e b689 c4bd f00c 113c
000000f0: 8871 3bbe 6e2e 823e f58e 25be a780 1fbe
-0.2016898 -0.30602318 -0.049420673 -0.6230218 -0.33174807 -0.46230233 -0.07884765 -0.0016261614
-0.44362244 0.18160145 0.23347603 -0.08529302 -0.08917105 -0.023465162 -0.16541968 0.20661989
0.17838481 -0.25315857 -0.26952118 -0.25663114 0.2534174 0.44276667 0.41372645 0.259319
-0.053814385 -0.12652893 0.073600985 0.21854578 0.032926694 0.05339898 0.017797505 0.110966966
0.22313048 -0.12885003 0.15363403 -0.67608035 0.12631524 0.32447496 0.47160047 0.47603768
0.18530291 0.09677662 0.18856628 -0.019871572 0.059796374 0.058063943 -0.3027305 -0.0078174295
-0.03429904 -0.556421 -0.013036542 -0.13207254 0.12812564 0.37897882 0.35115093 -0.08329105
-0.3188389 0.20370826 -0.09596579 0.008853182 -0.18305027 0.25426048 -0.16167815 -0.1557642

encoder_layer_mhattentions.0.attention_heads.1.V.bias f4 [8]
00000000: 72e3 173e 6dd2 95bd e1f8 b0be f6d9 a9bd
00000010: 38c3 b4be 4f37 61bd a2f9 98be 4b2c 703c
0.14832857 -0.07315526 -0.3456488 -0.08293526 -0.3530519 -0.054984387 -0.29877955 0.014658998

encoder_layer_mhattentions.0.attention_heads.2.Q.weight f4 [8, 8]
00000000: f372 e33d 1298 27bf dca8 c73d 69e6 92be
00000010: db05 963c f548 cf3d 9fed 263e 3160 e5bd
00000020: 170f 80bb abc5 fc3d c5fb 323e da32 8bbd
00000030: 6334 5abd 5c89 633e ae19 1fbe e774 cf3e
00000040: 4438 75bd f07e 3a3f f904 49bd ea31 0a3d
00000050: c354 bbbd c7c1 a23e 6ab9 f13e a374 883d
00000060: ff82 d7bd d186 8d3e f707 033f 3bde 77be
00000070: 7ac8 b43d 1251 013e 68b4 71be 6bef 4f3e
00000080: 2ff8 573e 51fd c1be de10 10be e6f1 5e3f
00000090: 34fc e5bd 8a14 4cbf 359e 7bbf 57a1 07bf
000000a0: 6f76 0abd 878e a1bd 4cd6 0a3d 6583 0a3e
000000b0: de19 17bc 3fe1 37bc 6dcb f33d c5c3 223d
000000c0: d33e 1fbe ec1b 263f ca10 c73e d672 783f
000000d0: f672 623c 13ce b9be 9875 85bf 60fb 35be
000000e0: e6b1 193d e39f ec3d a5c7 58be 2fc2 b0be
000000f0: 62d2 d7bd 69eb 043f 82f7 193e 00ed d734
0.11105909 -0.65466416 0.09749004 -0.28691414 0.018313339 0.10121337 0.16301583 -0.11199988
-0.003908049 0.1234239 0.17478855 -0.067968085 -0.053272616 0.22220367 -0.1553714 0.40518877
-0.059868112 0.7284994 -0.049077008 0.033739008 -0.091470264 0.31788465 0.47211772 0.06662872
-0.105230324 0.2764192 0.5118403 -0.24205868 0.088273 0.12628582 -0.23603976 0.20306174
0.21090768 -0.37888578 -0.14068934 0.8708786 -0.112297446 -0.7971884 -0.9828828 -0.5298056
-0.033804353 -0.07888513 0.033895776 0.13526686 -0.009222476 -0.011223136 0.11904035 0.03973748
-0.1555131 0.64886355 0.38879997 0.97050226 0.013821354 -0.36290035 -1.0426512 -0.17771673
0.037523173 0.115539335 -0.21169908 -0.3452315 -0.10538174 0.5192171 0.15035823 4.021931e-07

encoder_layer_mhattentions.0.attention_heads.2.Q.bias f4 [8]
00000000: bcee 07bd fdc4 c93d 7a3a 9c3d bab1 0dbd
00000010: 62bb fd3a 7578 7f3e af56 e2be da52 483f
-0.03318666 0.09852026 0.07628341 -0.03459332 0.0019358213 0.24948294 -0.4420676 0.7825142

encoder_layer_mhattentions.0.attention_heads.2.K.weight f4 [8, 8]
00000000: 8b79 acbc 8226 3a3e c412 87be 2404 653e
00000010: ab98 97bd 827e 16bf 88b1 cc3d b570 afbe
00000020: 3833 913e 7c8a 19bf 858a 983d 695c 08bd
00000030: f66e e23c e0b6 d0bc 85f9 1f3d a17e 55bb
00000040: f3cb eebe 2e2c b2be e06d 013f 5d89 5c3d
00000050: 83a2 053f 872c 843e 3803 79bd 04c5 18be
00000060: 3467 9d3e bdea 06bf eb51 03be b2ab b53e
00000070: 76ba 7d3e e66a afbe e959 443c dad1 bfbe
00000080: 3bf3 b63e 28a0 543f 5c02 08be 584d 893d
00000090: e4a1 e9be a18e 123f 5b58 033f ecea ee3e
000000a0: 5ad4 593c 2979 58be f29d 11be 61f2 9cbc
000000b0: 8473 8abc 8257 273e 6ca9 64bd 819f 593d
000000c0: 7245 1b3f f76c 113f fa91 f53d 830e a53c
000000d0: b32f 8e3e 3341 373f ef93 2c3f 7d6d 1d3e
000000e0: 6278 80be 9f68 0bbf 3b37 c73d 7a97 9d3e
000000f0: c32a c93d 7a67 d3bd eaf6 43bf 78dd 08be
-0.02105405 0.18178752 -0.26381505 0.22364861 -0.07402166 -0.58786786 0.09994799 -0.34265676
0.2835939 -0.59976935 0.074482955 -0.033291254 0.0276408 -0.025477827 0.03905632 -0.0032576697
-0.46639976 -0.3479933 0.5055828 0.053841937 0.522011 0.25815222 -0.060794085 -0.14918905
0.307428 -0.5270193 -0.12824218 0.35482556 0.2477816 -0.34261245 0.011984327 -0.37464792
0.35732445 0.8305688 -0.1328215 0.06704205 -0.45631325 0.57248884 0.51306695 0.46663606
0.013295257 -0.21139969 -0.14220408 -0.019158544 -0.016900785 0.16341975 -0.055825636 0.05313063
0.6065284 0.5680689 0.119907334 0.020148521 0.27770767 0.7158386 0.6741323 0.15373798
-0.25091845 -0.54456514 0.09727331 0.3077963 0.09822609 -0.10322471 -0.76548636 -0.13365734

encoder_layer_mhattentions.0.attention_heads.2.K.bias f4 [8]
00000000: 6b88 9e3e fd63 8c3d 0577 9cbe 60ef 49be
00000010: 1578 2fbd 579d 91be c27c 9a3e e1a7 bf3c
0.30963454 0.06855009 -0.30559555 -0.1972022 -0.04283913 -0.28440353 0.30173308 0.02339548

encoder_layer_mhattentions.0.attention_heads.2.V.weight f4 [8, 8]
00000000: 0171 f5bd 56e3 613e 6728 d33d 96f7 823e
00000010: 5ee5 05be 80ab 0c3e c64f b4be d3b8 6a3d
00000020: 4315 2bbd ad2e d3bc 8ddb b4bd 38ab c2be
00000030: d6db bc3c d754 843e f354 6d3e e60e c6bc
00000040: a756 713d fa56 003d 16d0 83bc 224c 223d
00000050: 1e20 68bd 9221 e43d 3404 523c 30ba 5fbd
00000060: f97d 403d b251 ce3d 30ad 62be 9e62 d83d
00000070: fff4 db3d 5c4e 843d 68b6 9a3e 4ace 4dbd
00000080: 3619 8f3d 1728 a6bd a968 afbd c2af 953d
00000090: 492e 8bbd 4d42 cb3d f91f 9d3d 5988 3fbe
000000a0: fa66 99bc e3d8 0ebd 0947 06be d846 a33e
000000b0: 072f 98be c156 58bc 93d5 b13e cca1 51be
000000c0: 39cf f7bc a448 a53e 7da7 5abe af64 3f3e
000000d0: 49b5 2b3e 38ed a8be 7251 29be fc9e 27be
000000e0: a18f 173e 769a 86be b6c5 2e3d 60a1 edbd
000000f0: 54be fdbc 3bea 2b3c ad9c dbbd b0a9 123d
-0.119844444 0.22059378 0.103104405 0.25579518 -0.13075778 0.13737297 -0.35217112 0.05730517
-0.041768324 -0.025779093 -0.088309385 -0.38021255 0.023054045 0.25845978 0.23176937 -0.024177026
0.05892053 0.031332947 -0.016090434 0.039623387 -0.056671254 0.111392155 0.012818385 -0.05462092
0.046995137 0.10074176 -0.22136378 0.10565685 0.10740089 0.06460258 0.3021729 -0.05024556
0.069872305 -0.08113115 -0.08564884 0.07308914 -0.067959376 0.09924755 0.07672114 -0.18704356
-0.01872586 -0.034874808 -0.13113035 0.31889987 -0.2972338 -0.0132042775 0.34733257 -0.20471877
-0.030250179 0.32281983 -0.21352954 0.18690751 0.16768374 -0.32993484 -0.16534975 -0.16369241
0.14800884 -0.2628972 0.04266902 -0.116030455 -0.030974545 0.010492857 -0.10723243 0.035806358

encoder_layer_mhattentions.0.attention_heads.2.V.bias f4 [8]
00000000: 7377 b33e 17e9 92be 2a1e 873c f052 81bc
00000010: bd04 c2ba 8a19 ae3e a1ea ec3c a18d 193d
0.3505207 -0.28693458 0.016493876 -0.015786618 -0.0014802438 0.3400386 0.028920474 0.037488583

encoder_layer_mhattentions.0.attention_heads.3.Q.weight f4 [8, 8]
00000000: adbd 993e e213 cabd da66 06bf 5351 f7be
00000010: b41e 253f 1ef7 aabe 2e69 383e a120 293f
00000020: 14cc b23c 3b21 ac3c 4166 1abe ed3a d23e
00000030: 7c61 fdbc cf4d 613e 1ebd fc3d 5125 443e
00000040: cce6 2a3e 06a8 1c3d 0d06 c7bd 5770 0a3e
00000050: fa81 333c ac9b 293e c4e0 7d3e 25d8 cfbe
00000060: fd86 5dbe 99b2 193d 124a 34bb e0de a9bd
00000070: 044a 2bbe 8c33 25be db83 d3bc b29c 653d
00000080: ded5 cf3b e24a 85be a601 4d3e 95d6 bcbe
00000090: 0c9f 103f a674 4cbe 637c c7be 4ade 34be
000000a0: d924 803e 7a84 063f 198b 9bbd 9086 c83d
000000b0: 6745 e1be 2eca 773e 1718 103e 4ddd 423e
000000c0: cbc9 b8be d4d6 05bf e422 46be ad79 aebe
000000d0: c733 fb3e adfa 00bf 8160 28be 9db9 00bc
000000e0: 6aff c83e 1807 a33d ae13 a03e 03bb 0bbf
000000f0: e2a7 083f 7711 84be 817a 94be 611f 85bd
0.30027524 -0.098670736 -0.5250069 -0.48304233 0.64499974 -0.3339166 0.18008873 0.6606541
0.021825828 0.02101194 -0.1507807 0.41060582 -0.030930273 0.22002338 0.12340759 0.1915486
0.16689605 0.038246177 -0.09717951 0.13519417 0.010956282 0.1656329 0.24792773 -0.40594593
-0.21633525 0.03752384 -0.002750997 -0.08294463 -0.16727453 -0.16132945 -0.02581971 0.05605764
0.0063426336 -0.26033694 0.2002016 -0.36882463 0.56492686 -0.19966373 -0.38962087 -0.17662922
0.25028113 0.52545893 -0.0759489 0.09791291 -0.43998262 0.24198219 0.1407169 0.19029732
-0.36091456 -0.52280927 -0.19349247 -0.34077206 0.4906294 -0.503825 -0.16443063 -0.007856754
0.39257365 0.079603374 0.31265014 -0.5458223 0.5338117 -0.25794575 -0.28999713 -0.06500126

encoder_layer_mhattentions.0.attention_heads.3.Q.bias f4 [8]
00000000: bfb1 06bf f758 013d b920 273e e6a3 99be
00000010: c171 703e bf3a 1b3f da08 04bf d143 1a3f
-0.5261497 0.031578984 0.16321076 -0.30007857 0.23480894 0.60636514 -0.51576006 0.6025973

encoder_layer_mhattentions.0.attention_heads.3.K.weight f4 [8, 8]
00000000: 1f4d b9be 8308 043f 98d6 4fbd abd1 53be
00000010: c38e 02bf 998a 92be 1b7a 3dbf 3ead 21bf
00000020: 9f32 0f3e 7434 a5be 108f 323c 1de5 1f3f
00000030: 0009 333e 7fc7 843e c6b2 e6bd 3f2f 2cbe
00000040: 85e4 b5be 7a89 aabd 5d15 d9bd cee3 ed3d
00000050: 4487 8e3e 6816 3abe d614 d83e c3f8 62be
00000060: 3a5e b6bd 67a7 313e 8217 d33d d5f9 a0be
00000070: ec78 b33b 02ea 053e 801b 6f3b 82db 533d
00000080: 0731 c13e 7c17 ba3e 765d 65be ff6b c4be
00000090: e721 65be db72 97bd 4cbc 3abe 9e57 143e
000000a0: c800 9bbe 447d 22bf 54f4 9cbe ebbb 023f
000000b0: 322a 2c3e d85f 103e 62a6 683e 696b f7bc
000000c0: d533 f83d 3287 2f3f 6a44 a03e f999 10bf
000000d0: 6af3 a0be 06e7 bbbd 8dac 8fbe d21a 9dbd
000000e0: e247 24be 802c af3e b606 37bf 5fd8 c7be
000000f0: 2330 fbbd 13fd 2cbe bff3 403e d7b6 df3b
-0.3619165 0.5157549 -0.050741762 -0.2068545 -0.5099909 -0.28621367 -0.74014443 -0.6315497
0.13984154 -0.3226658 0.010898367 0.62458974 0.17483902 0.25933453 -0.11264567 -0.16814898
-0.3552591 -0.08327003 -0.10599778 0.11615716 0.27837574 -0.1817261 0.42203397 -0.22165208
-0.08904691 0.17349015 0.10307218 -0.31440607 0.0054770615 0.13077548 0.0036484897 0.05172301
0.37732717 0.36346042 -0.22398934 -0.38363644 -0.22376214 -0.07394954 -0.18235892 0.14486548
-0.30274034 -0.6347239 -0.30655158 0.5106799 0.16812971 0.14099061 0.2271972 -0.030202584
0.12119261 0.68565667 0.31302196 -0.56484944 -0.3143571 -0.091749236 -0.28061333 -0.07671131
-0.16043046 0.34213638 -0.71494615 -0.39032266 -0.12265041 -0.16893415 0.18842982 0.006827216

encoder_layer_mhattentions.0.attention_heads.3.K.bias f4 [8]
00000000: 6ac3 88be 2f18 933d e5f7 d4bd 5931 8b3e
00000010: 4449 963e 9efe 973e 0669 be3d b667 523d
-0.2671159 0.07182347 -0.10398845 0.27186087 0.29352772 0.29686445 0.092973754 0.051368438

encoder_layer_mhattentions.0.attention_heads.3.V.weight f4 [8, 8]
00000000: 0bab 48be 5805 1cbd ddf1 a6bd 4b55 2bbe
00000010: d7f7 223e 2ee1 34bd ad58 85bd cf2a 87bd
00000020: c1dc 43be f1f4 de3c 2bff 91bd eb62 9f3e
00000030: 5e08 ca3e de16 61bd 05ca 37be bd9c dbbd
00000040: 9e38 e5bd 0273 6d3e 9c41 5e3e a059 a13e
00000050: be2a adbe e567 9f3e 5c47 3fbd a0d7 9e3e
00000060: 1f86 33be dc26 043c ca0a 95bd 8fd4 063e
00000070: 68f8 d13d ecab b83c 62d3 523d 3769 373e
00000080: 0753 32be 2fdf 80be 3b90 2ebe d386 d43d
00000090: 138f 9dbe 00e9 3b3e 733b bc3e 742e 093d
000000a0: 9630 5fbd 415c 07be 2424 8fbe f538 933e
000000b0: d417 ce3d b679 81bc d7c2 d8ba 09a4 b1be
000000c0: ede9 7b3e 7e58 ba3e d1b8 10be 6706 263e
000000d0: 6d02 abbe b10c f43d f019 5fbe 65ba bf3d
000000e0: a282 583e 1826 6e3e a60d 163e 6e6c 953e
000000f0: 67b8 663e 2353 df3d 7c11 cabe 4cf6 a13e
-0.19596498 -0.038091034 -0.081516005 -0.16731755 0.15914856 -0.04416006 -0.06511054 -0.06599962
-0.1912718 0.027216407 -0.071287476 0.31130156 0.3945951 -0.05495345 -0.17948158 -0.10723255
-0.111924395 0.23188403 0.21704715 0.3151369 -0.33821672 0.31133953 -0.046698913 0.31023884
-0.17531632 0.008065905 -0.072774485 0.13167022 0.10252458 0.022542916 0.05147112 0.1791123
-0.17414485 -0.25170276 -0.17047207 0.10377278 -0.3077322 0.18350601 0.36764106 0.033491567
-0.054489695 -0.13218786 -0.2795726 0.28754392 0.100631386 -0.015805107 -0.0016537559 -0.3469546
0.24600954 0.3639564 -0.14133002 0.1621338 -0.33400288 0.11916483 -0.21787238 0.09361724
0.21143582 0.23256719 0.14653644 0.29184288 0.22531281 0.10904529 -0.39466465 0.31633222

encoder_layer_mhattentions.0.attention_heads.3.V.bias f4 [8]
00000000: 2bfd 6a3d bc2b ab3d ca11 07bc 1806 3dbe
00000010: 023e debe 52de 5abc 95a7 7a3e 7163 ea3d
0.057370346 0.08357951 -0.008243987 -0.18459356 -0.43406683 -0.013358669 0.2447799 0.11444748

encoder_layer_mhattentions.0.output_layer.weight f4 [32, 32]
00000000: fccc efbd d8cf cebe 27ab 51be a6e5 153f
00000010: 47c3 863e b6c4 7d3e 27b4 f63e 6e63 253e
00000020: 2831 82bd 0deb 2dbe 513e 67bf bc6b 793e
00000030: e921 86bf de41 633e 2ef3 38bf 7170 e6bd
00000040: 50cd c83e 171b b4be e377 9f3d 0876 723d
00000050: 4077 f93c 4132 b9be 4ae5 673e 7e59 74be
00000060: 3a4f 0cbf 65a7 133e 23c0 89be 3860 1a3c
00000070: c178 d3be e3eb 023f 9baf bb3e 6f5f 843e
00000080: 0ed5 7fbe f51c 013f 1900 8a3e 10a3 b2be
00000090: 5d3e b33e 2e8a 0cbf bfb3 333e 23e9 ad3d
000000a0: ad8e 34be 3276 abbe 9428 0c3f 57e1 e1be
000000b0: 6b13 3f3f 5b90 203e ada7 8e3e 2df1 a2be
000000c0: d1a3 363e ff7a 27ba 6b9a ac3d 8803 043f
000000d0: ef29 63be 27b5 1ebe 2fb6 883e 7573 16be
000000e0: 54ae 95bd 3859 c5bd ce28 3abe 114d 80bd
000000f0: d01e 9d3e 296d a53e ffd7 40bd 411f bebe
00000100: eead 9ebe dc92 a5be 434b 263e 2a6f 893c
00000110: c7da 47be 2eb1 a13d b322 993e 2fef fdbc
00000120: f956 983e ea89 36be 5e9d 33bf 7418 88bd
00000130: 1541 59bf 7222 89be 2b3b 1e3d 4453 583d
00000140: 4d62 b2be 0135 c33e c806 18be 0068 80be
00000150: d3fb d5bb f613 63bd 301d 8f3c 9025 813e
00000160: ccc2 dbbd 6a95 22bd f383 eabd 7237 27be
00000170: ab24 83be 3274 7fbd ba99 5a3e 8cba cb3e
00000180: f4f6 de3e a22e 093d b47c c9be 6601 05bf
00000190: d6df 81be 6491 78be efc2 65bf 935d b1be
000001a0: 33c7 963e caa4 343f 8d5a 55be cb87 c03e
000001b0: d62c 2e3e d140 20be 327d 92be 9d1c 973e
000001c0: 92e0 34be 73da 503c d66f ee3d 01c5 4bbe
000001d0: 1789 60bc 7d8c dabe 6595 e43e e57b 98be
000001e0: 7d51 343d eb12 cc3e 59b2 82bd 9a61 adbe
000001f0: f6b3 2bbe 421d 873e 2511 5b3c 7e30 ffbe
00000200: 013c 963e 0b0b 24be 8c34 f8bc 1bd2 2e3d
00000210: eb64 d9bd e5f6 de3c ed7d 113e fe13 d23c
00000220: e366 85be 5f7e a6bb 43d8 18be f0d9 07bd
00000230: 3dce 983d d276 8bbd 5c4a 313e 6433 893c
00000240: 3d42 093d f15e 12be 5999 0f3d 828a 393a
00000250: 81e6 773d 5884 aa3d ee79 793d f083 a83d
00000260: d56e 323d c9e4 6fbd c2dd 423d 4163 c13c
00000270: a311 683d 9b20 babd 3d25 44bd 627a 0f3d
00000280: 37b3 123e c1f6 2d3e 0497 c2bd b8a5 f7bd
00000290: c4c9 8cbe 51c5 2e3d 0f1c cebd 5f57 abbd
000002a0: fdda b53e 3233 d33e a0e7 4bbd 6519 0c3e
000002b0: 94af 0d3e a0be f0be 3c5a 9c3d a59f 133e
000002c0: edcf 3cbe 01a1 c1bc 953e 26be 9d22 31be
000002d0: b155 12be bffa a0be d6ca b43e d50e 013b
000002e0: ed7d 223d e05e 0b3f 4f49 213e 2da5 3fbe
000002f0: 186c 083e 57e6 5d3e 473d 67be 63d0 963e
00000300: 2b90 6cbe 3eb2 2f3e 4d17 3e3e d62c f93d
00000310: df53 d5be cad1 de3d 95ca 91bc 1e90 debd
00000320: 7188 c63d 3382 73bd c522 7ebd cdda b2bc
00000330: 5e11 44be dcdc 54be a92c 81bd 8108 78be
00000340: be6c 24be d42d b83e 8a0a b53d 5c13 c23d
00000350: 41d6 39be af8e 9abe 17bd 233e 4200 173e
00000360: 1cdb 53be 2f7c 2e3e 8ad0 053e fb99 52be
00000370: 9f06 febd db9d a0bd 4e82 29be bf9c b43e
00000380: b578 9bbe 8c24 613e 5322 ddbe f321 d8bc
00000390: 7952 743e 5f26 cebe 30d4 a9be 2e49 6dbe
000003a0: 6af9 b6be 5a40 a93e 0ef9 9c3d 5e9a bc3e
000003b0: 85af 7b3e 7e84 1fbc 354b 82bd 82c6 c53d
000003c0: ca57 fcbd 48c4 443e bd26 1b3d eab4 813d
000003d0: 782a 873c b1a1 1c3e 1f70 4f3d 9dc1 3fbd
000003e0: e184 3d3c cb78 333e 94fb 2ebe 3e99 67be
000003f0: d498 f63d d75d 2f3e 034d 8abe 27c2 65be
-0.117090195 -0.40392947 -0.20475446 0.5855354 0.2632086 0.2478207 0.4818432 0.1615121
-0.06357032 -0.16984196 -0.9032946 0.24357504 -1.0479099 0.22193095 -0.7224606 -0.11251915
0.3921914 -0.35176918 0.077865385 0.059194595 0.03045237 -0.36171153 0.2264606 -0.23862264
-0.5480839 0.14419325 -0.269044 0.009422354 -0.41303065 0.51141185 0.36657414 0.2585406
-0.24983618 0.5043481 0.269532 -0.34890032 0.35008517 -0.54898345 0.17549036 0.08491733
-0.17632551 -0.33488613 0.5474942 -0.44117233 0.74639004 0.15680067 0.278623 -0.31824628
0.17835928 -0.0006388872 0.084278904 0.5156789 -0.22183965 -0.15498792 0.26701495 -0.14692481
-0.07308641 -0.09636158 -0.18179628 -0.06264699 0.3068757 0.32309845 -0.04708099 -0.3713322
-0.30992073 -0.32338607 0.16239648 0.01677664 -0.1951705 0.078951225 0.29909286 -0.03099784
0.29753855 -0.17826048 -0.70162 -0.06645289 -0.8486493 -0.26784092 0.038630646 0.052813783
-0.34840623 0.38126376 -0.14846337 -0.25079346 -0.006530264 -0.055438958 0.017469972 0.2522397
-0.10730514 -0.039693274 -0.114509486 -0.16329744 -0.25613913 -0.06236667 0.21347705 0.3979076
0.43547785 0.03349174 -0.39352953 -0.5195526 -0.25366086 -0.24274212 -0.8975057 -0.34641704
0.29448852 0.7056395 -0.20835324 0.37603602 0.17009291 -0.15649725 -0.2861114 0.29514018
-0.17663792 0.012747395 0.11642425 -0.1989937 -0.01370456 -0.4268531 0.4464523 -0.29782024
0.044023026 0.39858183 -0.06381673 -0.33863527 -0.16767868 0.2638951 0.013370787 -0.49841684
0.29342654 -0.16019838 -0.030298494 0.04268084 -0.10614952 0.027217338 0.14208193 0.025644299
-0.2605506 -0.0050809826 -0.14926247 -0.033166826 0.07461212 -0.068097726 0.17313522 0.016748138
0.033510435 -0.1429403 0.035058353 0.0007077829 0.06052256 0.08326024 0.060907297 0.0822829
0.04356273 -0.058567796 0.047574766 0.023606898 0.056657445 -0.0908825 -0.047887076 0.035028823
0.14326178 0.1698866 -0.0950146 -0.12092155 -0.27497685 0.042668644 -0.100639455 -0.08366274
0.35518637 0.41249996 -0.04978144 0.13681562 0.13836509 -0.47020435 0.07634398 0.14416368
-0.18438692 -0.023636343 -0.1623481 -0.1729836 -0.14290501 -0.31441304 0.35311002 0.0019692678
0.039670873 0.5444164 0.15750621 -0.18715353 0.13322484 0.21669899 -0.22581969 0.2945586
-0.2310187 0.17157838 0.18563576 0.12166755 -0.4166555 0.10879858 -0.017796794 -0.10867332
0.09693993 -0.05945034 -0.062044878 -0.021832848 -0.1914725 -0.20787376 -0.063073464 -0.24221994
-0.16057107 0.35972464 0.08839901 0.09476349 -0.18148138 -0.30186984 0.15990101 0.14746192
-0.20689052 0.1703956 0.13067833 -0.20566551 -0.124036066 -0.078426085 -0.16553614 0.35275838
-0.3036553 0.21986598 -0.4319025 -0.026383376 0.23859586 -0.4026365 -0.331697 -0.23172447
-0.35737163 0.3305691 0.07664691 0.36836523 0.24578674 -0.009736178 -0.06362001 0.09657003
-0.12321432 0.192155 0.03787874 0.06333335 0.016499743 0.15296055 0.050644036 -0.046815503
0.011567325 0.17526548 -0.17088157 -0.22617051 0.120408684 0.17125641 -0.2701188 -0.22437344

encoder_layer_mhattentions.0.output_layer.bias f4 [32]
00000000: 32bb 52bd bfa3 aebe f074 aebe a8e2 e8be
00000010: 71c5 eb3c e843 8d3e 0fbf c53d 88c3 3fbe
00000020: 4053 41be 24a2 b33d 11d6 863e ad8a 42be
00000030: c6cb 2ebe 639d c33e 2835 be3d 7d62 cebd
00000040: 2ae1 6ebe 9b78 9e3e 34f7 7b3e 88b0 13bf
00000050: 1023 d53e 23dc 81be a2e6 213f f347 783e
00000060: 88e0 3e3e 03e9 033f 4b74 693d efaa 31be
00000070: 5f75 47be a8e5 51be 20ff 43be a91d b0bd
-0.051448055 -0.34109303 -0.3407359 -0.45485425 0.02878067 0.2759087 0.09655582 -0.18726933
-0.18879414 0.0877116 0.26335195 -0.18998213 -0.17069921 0.38206014 0.092874825 -0.10077379
-0.23328081 0.3095139 0.2460602 -0.5769124 0.41628313 -0.25363263 0.6324254 0.24246196
0.1864034 0.5152742 0.05699567 -0.17350362 -0.19478367 -0.20497763 -0.19140291 -0.08599407

encoder_layer_mhattentions.1.attention_heads.0.Q.weight f4 [8, 8]
00000000: c2ce 5e3f 70a4 ebbe 3067 083e 2d55 16bf
00000010: a29b 6b3d 0a15 163f 71d0 503e 718b 933e
00000020: 4782 3cbc 9994 c33e be25 00bf e521 c63e
00000030: adc3 693e 543c f1be 9016 b23e 715e 0bbe
00000040: 10ff d8bd f6c3 fbbe 1ef9 26bf 634d 343e
00000050: 3618 fdbd dfbc 5ebe 81fe d7be a3eb e03e
00000060: 5210 293f 26a8 b2be d7d3 e2bd 650d 543f
00000070: 7115 c4be 3001 a43e 8668 37be 9623 83be
00000080: d012 13bd be4a 373f aa91 40bd 21eb 95bc
00000090: 0f83 3abe 8efc 3c3e f0ef a6be a9d8 56be
000000a0: f7e3 22bf f1d3 50be 2485 40bf 46e1 ac3e
000000b0: 1635 31be a404 38bf aaf0 a73e 69e2 f2bd
000000c0: c818 183f e062 813e b831 933c 3800 0b3f
000000d0: 70fb 003e 841e 22be 6bd7 773e 27ad ec3e
000000e0: 2b78 d0be ced8 bc3d cfee 383e 2b0b 0d3e
000000f0: 7988 a2be f888 8bbc 7c00 373f 3ad0 50be
0.8703424 -0.46023893 0.13320613 -0.5872372 0.05752147 0.58625853 0.20392014 0.28817323
-0.01150567 0.3819931 -0.5005759 0.38697734 0.2282855 -0.4711634 0.3478284 -0.13610245
-0.10595524 -0.49172944 -0.6522387 0.17607646 -0.123581335 -0.21751736 -0.4218636 0.43929777
0.6604053 -0.34893912 -0.110755615 0.8283294 -0.38297608 0.32032156 -0.17910966 -0.25613087
-0.035906613 0.7159842 -0.047013916 -0.018300595 -0.18214057 0.18455717 -0.32604933 -0.20981087
-0.63629097 -0.20393349 -0.75203156 0.3376562 -0.17305407 -0.7188208 0.328008 -0.118595906
0.59412813 0.25270748 0.017968044 0.5429721 0.12595916 -0.15831953 0.24203269 0.46225855
-0.4071668 0.0922104 0.18059848 0.13773791 -0.31744745 -0.017033085 0.71485114 -0.20391932

encoder_layer_mhattentions.1.attention_heads.0.Q.bias f4 [8]
00000000: 5e94 70be 4063 5abf 2c31 88be 6596 7c3c
00000010: d1bb a3bf ca63 f03e af3c 5d3e bcb6 d63d
-0.23494098 -0.85307693 -0.26600015 0.015416716 -1.2791692 0.46951133 0.2160518 0.104840726

encoder_layer_mhattentions.1.attention_heads.0.K.weight f4 [8, 8]
00000000: 0618 093f e813 52be 9aba 093d 63a5 b3bd
00000010: 9841 953e c7d4 193e c226 63bf 2f62 acbe
00000020: ac6e b8bd 3857 203f ec9b 6e3f 72ac 05bf
00000030: 45af 803e f253 a2be 7dc5 84be c635 8fbe
00000040: 8e5c e1bd 2760 54bd 0b54 243f b930 123f
00000050: 1700 91be b236 763d d9dc 4a3e d9dd a9be
00000060: a025 0d3f 9f07 133f e08d 09be ac4a 95be
00000070: fe90 453d eedd 8dbd 8a35 703e 6b95 4dbf
00000080: 3b2f 1f3e 291d a8be 82e2 773e 4068 c7bd
00000090: 55c3 db3e 476f 8fbf 9ff3 ea3e 8a8e 05bf
000000a0: f960 75be 8604 933e 897b a83e 382c 00be
000000b0: c962 46be 5149 253f dd3c 8f3e 6ea1 a03e
000000c0: 18e5 0ebf 215a 3d3e b1bc a6be 2bff dcbe
000000d0: 6486 9d3d 42bd 963e aef6 17be 3a5e 0ebf
000000e0: fd99 c53d 8275 9cbd 0f42 0b3e 4e29 b6be
000000f0: a63d c93e c47c fa3e 12e4 c23e 2273 a23e
0.5355228 -0.20515406 0.033625223 -0.087717794 0.29151607 0.15022574 -0.88731015 -0.33668658
-0.09005484 0.62633085 0.9320667 -0.52216256 0.2513372 -0.3170467 -0.25931922 -0.27970713
-0.110039815 -0.05184951 0.6419074 0.57105595 -0.2832038 0.060110755 0.19810809 -0.3317707
0.55135536 0.57433504 -0.13433027 -0.29158533 0.04823398 -0.06927095 0.23457924 -0.8030612
0.1554536 -0.32834747 0.242075 -0.09736681 0.42922464 -1.1205834 0.45888993 -0.5217062
-0.23962773 0.2871439 0.3290675 -0.12516868 -0.19373621 0.64564997 0.27976122 0.3137316
-0.5581832 0.18491413 -0.32565835 -0.43163428 0.076916486 0.29441267 -0.14840195 -0.5561253
0.096485116 -0.076396 0.13599418 -0.35578388 0.39304847 0.48923314 0.3806463 0.31728464

encoder_layer_mhattentions.1.attention_heads.0.K.bias f4 [8]
00000000: 6a24 4a3e ea82 b3be 4413 aa3e 6f50 d43d
00000010: efc5 87be a691 52be 8da3 a43e 6267 cdbd
0.19740453 -0.35060817 0.33217824 0.10366904 -0.265182 -0.20563373 0.3215603 -0.10029484

encoder_layer_mhattentions.1.attention_heads.0.V.weight f4 [8, 8]
00000000: 53c4 2b3e 2692 233d 3e74 993d ace0 babe
00000010: 1160 5abd 06bb 233e f722 58be 3bc2 63bd
00000020: 0cd9 08be 8b5d f63d 265f 76be d069 16be
00000030: ffd1 0dbc 0440 19bd 1bbd a8bd 3fc0 48be
00000040: 994f 6dbe f368 193e 7e88 4c3e 8388 b63d
00000050: 495c 353e d876 15bd 7ee0 5ebc bef7 55bd
00000060: 831b ef3c ae36 0d3d 2cdd f93c 274d c3be
00000070: bce1 11bd b0d3 17bd ca77 abbd 1060 0abe
00000080: ae21 06bf 6618 debc 5187 1d3e aabb 11bd
00000090: dde7 80bd e949 9fbd 0b33 123d 8a04 533e
000000a0: 6f40 0f3e 0c50 4d3e 53a7 883d 8afc ddbd
000000b0: d726 b13c 390f 18be da82 cabd 00c2 063e
000000c0: c7b5 cf3d ccf0 093e 18d7 d1bc 5d3f fbbd
000000d0: 212a d63d 7265 b13d f5f0 be3d 5588 213e
000000e0: f124 2e3d e59b adbd 8288 81bd f9b3 71bd
000000f0: 6d80 e33d ca4d edbd c707 dcbd 8b34 45be
0.1677411 0.0399343 0.074928746 -0.36499536 -0.053314272 0.15989313 -0.21107088 -0.055605154
-0.13364047 0.12029561 -0.24059734 -0.14688802 -0.008656024 -0.037414566 -0.08239194 -0.19604586
-0.23174895 0.14981441 0.19973943 0.08912756 0.17710985 -0.03649029 -0.013603328 -0.05223822
0.029187923 0.034475975 0.03050097 -0.381448 -0.035615668 -0.037067115 -0.08372457 -0.13513207
-0.5239514 -0.027111243 0.1538365 -0.03557936 -0.062942244 -0.07777769 0.03569321 0.206072
0.13989423 0.20050067 0.066725396 -0.10839184 0.021624966 -0.14849557 -0.09888239 0.13159943
0.10142093 0.13470763 -0.02561526 -0.12267945 0.10457254 0.08661927 0.09323303 0.15774663
0.0425157 -0.08477 -0.06324865 -0.059009526 0.1110848 -0.11587103 -0.10743671 -0.19258325

encoder_layer_mhattentions.1.attention_heads.0.V.bias f4 [8]
00000000: 6619 f4bd dd0d f0bc 864d e43d bcbf bbbc
00000010: c3f5 613d c850 d63c 8d93 b5bb 27c8 513c
-0.11918907 -0.029303486 0.11147599 -0.022918575 0.055166017 0.026161566 -0.005541271 0.012804068

encoder_layer_mhattentions.1.attention_heads.1.Q.weight f4 [8, 8]
00000000: a72a a3be 5162 90bc bb32 07be a3e6 e53e
00000010: aff3 4cbe 5ae5 8b3d 33b8 bfbe 66f9 01be
00000020: 02b0 363e b03b dabc b9ea 663e 6aa7 c6be
00000030: 544c 02bf d140 8a3d 5a58 d63e c18f 9e3e
00000040: 5d63 b8be 2f5f 51be aa58 923e f1ad d43e
00000050: 027f 09bf c1f4 ec3d bf07 153e ea72 2b3f
00000060: da5e 9f3e 88ba 08bd 5251 5c3e 479c dabe
00000070: adc8 143e ae37 443d 0075 523d a3fc ca3e
00000080: 1815 68be 2d32 203d 838d dabe 259d c83e
00000090: e0dc 893e d274 a83e 0ee2 dfbe cf05 7e3e
000000a0: e8d1 393e 042e 11be 0d38 7abe 9625 6f3e
000000b0: 3f97 2bbf 82a3 a4bd 771e 66bf 8d22 fa3e
000000c0: 369d b7be 28e9 bd3c 8549 c7be 2d80 f33d
000000d0: 045f 883e 3b11 02bb 8800 52bf 0727 153f
000000e0: 6ac4 e9be 75dc cebd 77f6 3c3e ae69 a13d
000000f0: 8475 973e 8d60 c6be 0448 d0bc 3539 78bf
-0.3186848 -0.017625006 -0.13202946 0.44902524 -0.20014833 0.06830855 -0.3744522 -0.12692794
0.17840579 -0.02663979 0.22550477 -0.38799602 -0.5089772 0.06750644 0.41864282 0.3096905
-0.36013308 -0.20446466 0.2858327 0.41538957 -0.53709424 0.115701206 0.14553736 0.6697222
0.31127053 -0.033381015 0.21515396 -0.42697355 0.14529677 0.047904663 0.05138111 0.39645872
-0.22664297 0.03911035 -0.4268609 0.39182392 0.26926327 0.32901627 -0.43727154 0.24806903
0.18146479 -0.1417771 -0.24435444 0.23354182 -0.6702766 -0.08038999 -0.89890236 0.48854485
-0.3586213 0.023182467 -0.38923278 0.11889682 0.2663499 -0.0019846696 -0.8203206 0.58262676
-0.45657665 -0.101006426 0.18453394 0.07881485 0.29581845 -0.38745537 -0.025424965 -0.9696229

encoder_layer_mhattentions.1.attention_heads.1.Q.bias f4 [8]
00000000: ee18 8fbd 8264 7cbd 4a2e b1be 76d7 123d
00000010: d970 f5bd 35e3 0ebf 7b73 253e 4934 9dbd
-0.06987177 -0.06161929 -0.34605628 0.03585001 -0.119844146 -0.5581544 0.16157334 -0.07675988

encoder_layer_mhattentions.1.attention_heads.1.K.weight f4 [8, 8]
00000000: e9a3 593e 1f74 0ebe 0589 89be 2cf8 803e
00000010: 060c c9be 845b db3d 6194 fa3d ec09 0abd
00000020: 4f11 3fbe 3f86 74bd 3479 cd3e ea1b f4bc
00000030: 0f39 4e3e c5f8 eabd c475 223e 3205 84be
00000040: 865f 923e c008 bcbe 5c76 663e 8483 1a3d
00000050: 025c 603d 693d b03e 6a49 a43e 222a 91bd
00000060: 4a13 01be b5f6 e83e 8451 a83e 9fc7 b9be
00000070: 681a b53e 0400 00bd 0917 bc3d 76ce 71bb
00000080: 4b63 423e 54ba a7bd 606b a9bd 31a5 823d
00000090: db9d 39bf e049 fa3e bd34 9bbd b823 713e
000000a0: 4c19 6ebd 2263 07be 9adf 9cbe 8798 1d3f
000000b0: 1519 a0be d178 323f ab31 733f 0012 4dba
000000c0: 0806 993e 3fb4 6a3d 708e 49be fdb4 e23d
000000d0: 6cfb 84bf cc23 f83e 532c 993e da4c d7be
000000e0: efd6 383e fb53 d9bd d7e3 38bf c439 8c3d
000000f0: aca5 ac3e 79d0 4abe d919 c9be 8c06 b73e
0.21253933 -0.13911484 -0.2686235 0.2518934 -0.39266986 0.107108146 0.12235332 -0.03370087
-0.18658946 -0.05969834 0.40131533 -0.029798467 0.20138954 -0.1147323 0.15865237 -0.25785214
0.28588504 -0.36725426 0.22506088 0.03772308 0.054775245 0.34421852 0.3208726 -0.07088114
-0.12605014 0.45500723 0.3287469 -0.3628511 0.3537171 -0.031250015 0.09184081 -0.0036896742
0.1898319 -0.08189836 -0.08272433 0.06379164 -0.72506493 0.48884487 -0.075784184 0.23548782
-0.058129594 -0.1322141 -0.30639344 0.61560863 -0.31269136 0.697156 0.9499766 -0.00078228116
0.29887414 0.057300802 -0.19683242 0.11069677 -1.0389228 0.4846481 0.2991663 -0.4205082
0.1805074 -0.10611721 -0.72222656 0.068469554 0.33720148 -0.19806089 -0.39277533 0.35747182

encoder_layer_mhattentions.1.attention_heads.1.K.bias f4 [8]
00000000: 7b7a f7bc 4e18 913b 8821 193e 5f09 abbc
00000010: 517d e9bd 899f a23d 1d21 a9be e751 e33c
-0.03020977 0.004427946 0.14954197 -0.020878492 -0.11400855 0.07940585 -0.33033076 0.027749015

encoder_layer_mhattentions.1.attention_heads.1.V.weight f4 [8, 8]
00000000: b195 fa3d 00f5 7e3c 2cda 2e3e 749b 61be
00000010: ea17 87be 205c ec3b 8ea7 a23e c184 d5bc
00000020: 676f a63d 0103 c7bb 6ef9 7b3e 3dd9 8e3e
00000030: 6c49 c0be cc5a e5bd 637a d7bc 8d92 38be
00000040: 064e 4c3e 31a4 0cbe bdf6 8ebd 48fe 63be
00000050: d5c5 f9bd 759f 0f3d f89b 95bc cf10 90be
00000060: 1130 c73d ac6c de3d 4b20 88be 6f6e 1d3e
00000070: 54fa 513e 3c1b 343e f2de 153e efb2 45be
00000080: 76ee dc3e 21bf 50bd 2fe3 06be 3251 71bd
00000090: 9374 45be 770c 9fbd aab1 b33e 5e46 173e
000000a0: f5ba 5cbe f488 273d c212 1bbe a413 9a3d
000000b0: 57a0 e53d 9abc e7bd 0165 41bb b8a2 8ebe
000000c0: aedb 1fbc 5525 933b 6d00 f3bd 5e15 85bb
000000d0: 057d 7a3e b68d c73c 2050 053d 778b 7cbd
000000e0: 7977 d1be 0a09 e33e ea02 9d3c 0a60 b2be
000000f0: befb cebe d047 8d3d cf1f 1cbe ae91 a33c
0.122355826 0.015561342 0.17075413 -0.22031957 -0.26385432 0.0072131306 0.3176846 -0.026064279
0.08126717 -0.006073356 0.24606869 0.27900115 -0.37556016 -0.11198959 -0.026303476 -0.18024655
0.19951639 -0.13734509 -0.06980655 -0.2226497 -0.121959366 0.03506418 -0.018262848 -0.28137824
0.09725965 0.10860571 -0.26587138 0.15374158 0.20505649 0.17588514 0.14635828 -0.19306539
0.4315068 -0.050963525 -0.13172601 -0.058915325 -0.19282751 -0.07766049 0.35096484 0.14772937
-0.21555693 0.040902093 -0.15143874 0.075232774 0.11212223 -0.1131527 -0.0029509666 -0.2785852
-0.009756966 0.0044905343 -0.118653156 -0.004061385 0.24461754 0.024359565 0.032547116 -0.06165644
-0.40911463 0.44342834 0.019166429 -0.34838897 -0.4042644 0.06898463 -0.15246509 0.019966926
